experiments/ppo_hrl/models/MicroRTSGridModeVecEnv__ppo_utils__1__1721366578/4096/macro.pt (torch, 715603 bytes, 11 tensors)

encoder.1.weight f4 [32, 29, 3, 3]
-0.01661342 0.11472676 0.036949307 -0.011291458 -0.0070803985 -0.070318446 -0.115126 -0.087229736
-0.048864502 -0.15049216 0.11079895 -0.039350487 0.080262385 0.03540914 0.14686392 -0.12041297
-0.14406393 -0.1615591 0.06327729 -0.017755838 -0.07005069 -0.0636244 0.05673519 -0.03496161
0.24239999 0.11534099 0.01600857 -0.18409425 0.02990635 -0.06458322 0.035131298 -0.016811766
-0.06923696 -0.037276182 0.10842879 0.03270138 -0.016446821 -0.07823403 0.21283731 -0.028782194
0.041129548 -0.026250295 -0.007963952 -0.005443039 0.02974786 -0.0012585531 0.06648969 0.07705133
-0.11495706 -0.00941653 -0.0047252397 -0.018356284 -0.02329268 -0.028552422 0.037428763 -0.021626446
0.10859987 -0.0102695525 0.040275566 0.13252212 0.01920845 0.0660463 -0.010547703 -0.01397954
0.016373344 0.015861785 0.23030703 -0.052036926 0.039480105 0.037372515 -0.016181163 0.10834097
0.00021680717 0.0042626373 0.012030137 -0.10241014 -0.06555447 0.20099519 -0.086946875 -0.004092651
0.005868717 0.08056525 0.050164033 0.11302734 0.009048354 -0.0797952 -0.012647261 -0.12220182
0.118620135 -0.06541105 0.06498521 0.012441661 -0.17687055 0.13423271 -0.0016159378 0.044793244
-0.108842045 -0.08047796 0.08617998 -0.023519682 -0.0075326455 0.08042318 -0.06030623 0.036696102
-0.0013932223 0.004198654 -0.072750896 0.06373718 -0.15737732 0.104927644 -0.0001115342 0.076195985
-0.061017517 -0.05237029 0.0039931904 -0.10034026 0.059447512 0.13496664 0.09209237 -0.04235422
-0.06362898 0.11441639 -0.0854583 0.15906376 0.0609691 -0.048828084 0.0031345806 -0.020310007
-0.107720636 0.05364545 -0.0017279281 -0.048108414 0.038254812 -0.106433645 -0.115615584 0.09245991
-0.2166953 0.00085433514 -0.012380715 0.15749387 0.10258809 -0.12261888 -0.013757937 -0.043848697
-0.00443106 -0.023743346 -0.0640519 -0.033142187 -0.06118726 -0.044589005 0.032144684 -0.15743786
0.06071266 0.027242102 0.088227175 0.10331721 0.010520912 -0.06064775 0.17965595 0.10021071
-0.0141200125 0.015526957 0.07970742 -0.01828397 -0.14571601 -0.1028231 0.027940929 0.16056108
-0.021921083 0.15532574 0.017921755 0.049685735 0.18100967 0.07218826 -0.14423615 0.02749125
-0.10695512 -0.14557758 -0.0770793 0.06902348 0.036225658 0.040138513 -0.0332533 -0.115369655
-0.09580819 -0.020297103 -0.07423943 0.0489225 -0.14337389 0.032451723 -0.0901825 0.0499121
0.060453292 0.09673894 -0.020399923 0.11112051 0.18230121 -0.1277982 -0.061133295 0.0076298444
0.028686604 -0.032277886 -0.08073929 -0.1787097 -0.04756338 -0.033375062 -0.07645473 -0.1837764
0.027236588 -0.12545148 -0.0039714365 -0.12304683 -0.04309474 0.10885223 0.10421557 0.023846792
-0.042507775 -0.22476621 -0.09601337 0.037337452 -0.028127816 0.17298129 -0.046955094 -0.032797243
0.07630573 -0.011001831 -0.02404488 0.05853083 0.10786357 -0.05336655 0.020959191 -0.069144465
0.057538703 -0.02712309 -0.044116095 0.026875976 -0.120586194 -0.00658549 0.063073725 -0.014642183
0.08772412 0.120618984 -0.05260903 -0.18725859 -0.123904206 0.091624446 0.08205229 -0.09998872
0.075758025 -0.028903777 0.026588298 0.19070877 0.1316562 0.18235879 0.04921813 0.010451344
00000000: de18 88bc ddf5 ea3d 2858 173d cfff 38bc
00000010: b002 e8bb 1e03 90bd 2ec7 ebbd 81a5 b2bd
00000020: 2526 48bd 9e1a 1abe 8fea e23d fa2d 21bd
00000030: 9b60 a43d 2d09 113d 7f63 163e 139b f6bd
00000040: 7f85 13be c06f 25be 8697 813d b174 91bc
00000050: bc76 8fbd 824d 82bd 2963 683d e833 0fbd
00000060: b437 783e e637 ec3d 6824 833c 3483 3cbe
00000070: 29fe f43c 3544 84bd d6e5 0f3d d4b8 89bc
00000080: 1bcc 8dbd e9ae 18bd ea0f de3d e2f1 053d
00000090: 7cbb 86bc 2a39 a0bd 06f2 593e a3c8 ebbc
000000a0: 7577 283d dc0a d7bc 3c7b 02bc 855b b2bb
000000b0: c9b1 f33c 09f6 a4ba bf2b 883d 16cd 9d3d
000000c0: 9b6e ebbd ca47 1abc 2fd6 9abb eb5f 96bc
000000d0: 4ad0 bebc c5e6 e9bc e74e 193d f229 b1bc
000000e0: 9c69 de3d a041 28bc fef7 243d e1b3 073e
000000f0: 0a5b 9d3c 4843 873d 46d0 2cbc 710a 65bc
00000100: 6421 863c 93f0 813c 9bd5 6b3e ac24 55bd
00000110: e4b5 213d ec13 193d 5c8e 84bc dfe1 dd3d
00000120: bb56 6339 98ad 8b3b 0d1a 453c 68bc d1bd
00000130: 6c41 86bd afd1 4d3e 3411 b2bd a51b 86bb
00000140: 5e4e c03b 65ff a43d cd78 4d3d e17a e73d
00000150: 8c3f 143c aa6b a3bd 7536 4fbc f344 fabd
00000160: 1def f23d 3bf6 85bd f716 853d 1cd8 4b3c
00000170: 8e1d 35be 4d74 093e e0cd d3ba 1f79 373d
00000180: 94e8 debd a1d1 a4bd 217f b03d 59ac c0bc
00000190: 69d4 f6bb e8b4 a43d aa03 77bd a74e 163d
000001a0: c89c b6ba dd94 893b 6cfe 94bd a388 823d
000001b0: 8527 21be 4ee4 d63d 78e7 e9b8 a40c 9c3d
000001c0: 81ed 79bd 3b82 56bd 4fd9 823b 327f cdbd
000001d0: 3c7f 733d b234 0a3e ed9a bc3d 9e7b 2dbd
000001e0: e94f 82bd 2453 ea3d c304 afbd 9ce1 223e
000001f0: bcba 793d f5ff 47bd 896d 4d3b 2c61 a6bc
00000200: a39c dcbd 55bb 5b3d a57b e2ba 540d 45bd
00000210: 14b1 1c3d e2f9 d9bd ddc7 ecbd 9f5b bd3d
00000220: 5fe5 5dbe 76f5 5f3a 7cd8 4abc 1346 213e
00000230: b419 d23d 9b1f fbbd f868 61bc b19a 33bd
00000240: 6d32 91bb 6881 c2bc a42d 83bd 1ac0 07bd
00000250: 7e9f 7abd f6a2 36bd 25aa 033d 6437 21be
00000260: d7ad 783d d42a df3c 73b0 b43d f997 d33d
00000270: e75f 2c3c c669 78bd bbf7 373e 463b cd3d
00000280: a057 67bc c764 7e3c a53d a33d 44c8 95bc
00000290: 9436 15be eb94 d2bd 60e4 e43c 206a 243e
000002a0: d893 b3bc b60d 1f3e a5d0 923c 4583 4b3d
000002b0: 995a 393e 70d7 933d a4b2 13be 5435 e13c
000002c0: 490b dbbd 4a12 15be c1db 9dbd 2f5c 8d3d
000002d0: 5b61 143d 4868 243d 9d34 08bd ed46 ecbd
000002e0: 1637 c4bd 1c46 a6bc d80a 98bd f662 483d
000002f0: 9bd0 12be 19ec 043d 9ab1 b8bd a170 4c3d
00000300: df9d 773d 111f c63d bd1d a7bc 2693 e33d
00000310: 2bad 3a3e 88dd 02be e866 7abd c603 fa3b
00000320: 2b00 eb3c d135 04bd a45a a5bd adff 36be
00000330: d2d1 42bd 4ab4 08bd 4c94 9cbd e12f 3cbe
00000340: 441f df3c 5a76 00be d322 82bb faff fbbd
00000350: 1c84 30bd ebed de3d f96e d53d 595a c33c
00000360: a21c 2ebd 1d29 66be a8a2 c4bd 28ef 183d
00000370: 4e6c e6bc 0222 313e fc53 40bd 6756 06bd
00000380: 2e46 9c3d 0641 34bc c5f9 c4bc 06be 6f3d
00000390: 93e7 dc3d e296 5abd 9cb2 ab3c 9d9b 8dbd
000003a0: b4ad 6b3d 3e31 debc 14b3 34bd 022b dc3c
000003b0: e5f5 f6bd 18cb d7bb cc2c 813d c4e5 6fbc
000003c0: b4a8 b33d 1607 f73d 917c 57bd b7c0 3fbe
000003d0: 7dc1 fdbd 99a5 bb3d 080b a83d e3c6 ccbd
000003e0: 0627 9b3d 9dc7 ecbc b4cf d93c 2949 433e
000003f0: e2d0 063e 43bc 3a3e f398 493d 1d3c 2b3c

encoder.1.bias f4 [32]
-0.0012688555 0.000103708226 0.00048002825 -0.0016614284 0.0013458664 0.00088969216 -2.3142842e-05 -0.0027667931
0.0018808364 -0.0007980382 -0.0005444658 0.00093511475 -2.7330265e-05 -0.0022333332 0.00012700968 -0.0013441347
-0.0016894615 0.001750878 0.000559157 -0.002129082 -0.0010017277 -0.00056863425 -0.0029716287 -0.0027659405
0.00014489763 0.0026638054 -0.0030291372 -0.0008986457 6.009191e-05 -9.240922e-05 -0.0027063536 0.0006715005
00000000: ba4f a6ba ee7d d938 4dac fb39 49c4 d9ba
00000010: c867 b03a 3b3a 693a e022 c2b7 1653 35bb
00000020: 6686 f63a 7033 51ba 7bba 0eba 7d22 753a
00000030: 4c43 e5b7 1d5d 12bb e72d 0539 ad2d b0ba
00000040: ec70 ddba b77d e53a 6494 123a 1288 0bbb
00000050: 674c 83ba 6610 15ba a8bf 42bb c844 35bb
00000060: a9ef 1739 3d93 2e3b 7d84 46bb 1893 6bba
00000070: 320b 7c38 d2cb c1b8 145d 31bb a307 303a

encoder.4.weight f4 [64, 32, 3, 3]
0.09724892 0.09190298 0.06882177 -0.015413369 -0.036398385 -0.22964089 -0.051339764 0.046697143
0.032928698 0.0062905243 -0.022132188 0.052340172 -0.09745394 0.03777094 0.18282811 -0.08524491
0.056251485 -0.1252358 -0.09595478 0.13770902 -0.11597459 0.0030024308 0.058037125 0.010008225
-0.08734617 0.05732211 -0.06018235 -0.0063908696 0.028827447 0.082749695 -0.048621625 0.06743919
-0.0039037573 -0.07892263 0.027940191 0.0135107 0.004347565 0.002376641 -0.060650494 0.15945147
0.06830125 0.003115807 -0.04492206 0.10523718 -0.100466676 -0.08945199 0.13651232 -0.04990378
-0.14279068 -0.010819283 -0.07655748 -0.09551997 -0.050310146 -0.1352672 -0.08412993 0.055544484
-0.08566199 -0.043884058 0.017808156 0.07501553 0.11565231 0.075451285 -0.042973787 0.07143116
-0.07267456 0.036970355 0.055433005 0.025448266 -0.070017815 -0.111839116 0.21384057 0.0810745
0.029889623 -0.094276145 -0.047480863 0.09794043 -0.029972235 0.10095274 0.07498763 0.114107415
0.061850395 0.02438924 0.023537539 0.064616986 0.022391262 -0.14309935 0.025538625 -0.031999268
0.00079601817 0.025160937 -0.091068625 0.0071517397 0.16490123 0.0583453 0.116880015 -0.020992985
-0.06014607 -0.0011389698 0.010529504 0.084709756 -0.16298681 0.037088815 0.08715563 -0.16713578
0.07254572 -0.08885382 0.0061806045 -0.05503577 -0.037080534 -0.023100806 -0.028169783 0.007534261
0.010819424 -0.12296742 -0.0033888163 -0.035028767 0.010501949 0.090097055 0.012598579 -0.09127076
0.04163413 0.06849629 0.030196253 0.017015537 -0.14081345 0.025883133 0.08075564 0.011588855
0.010165194 -0.021533025 -0.03032868 -0.01392823 0.014846702 -0.021073835 -0.034094688 -0.022413816
-0.01210978 -0.07713167 -0.07399865 0.2859373 -0.095106594 0.003506455 -0.058447845 0.1303976
0.023655823 -0.054183584 -0.039252196 0.034297653 -0.041540947 0.11538531 0.09113337 0.050850745
-0.083479665 0.047591455 -0.05510358 -0.06527661 -0.10068652 0.06373532 0.00031552213 -0.06750302
0.061192073 0.04217934 -0.10339746 -0.056045815 -0.10107305 0.10197157 0.036095474 -0.07830131
0.10677917 -0.07854835 -0.026941499 -0.049917642 -0.09484894 -0.0701646 0.04498439 -0.005989736
-0.058062185 0.03981753 0.09850114 -0.13510698 -0.057342894 -0.06328915 -0.14009692 -0.058296107
-0.06378065 0.06784386 -0.01843095 -0.006053627 -0.020088488 -0.09048247 -0.08097902 -0.019478332
-0.045745675 -0.07817274 -0.030431652 0.07508072 0.032993503 -0.031650577 0.043381754 0.060350895
0.019507764 -0.02494616 -0.002843907 0.060624186 -0.13545792 0.022088535 0.08319781 -0.09381569
-0.22253966 0.06314585 -0.123688795 -0.013232893 -0.1957934 -0.03830594 -0.029849479 0.019635031
-0.034635637 0.11007176 -0.045655787 -0.12232438 0.020560903 -0.031555384 0.18722354 0.06564977
-0.07327342 0.02760518 -0.099052645 -0.0816595 0.03765346 -0.12484645 0.04292045 0.101676956
0.063293844 0.12187086 -0.09587872 0.0049264827 0.15161422 0.029891012 0.09470431 0.06995116
-0.16360159 0.06544614 -0.00248376 -0.101516046 -0.15510182 0.009714299 -0.072079696 0.037940323
-0.09387788 0.1441202 0.0286867 0.05100885 0.0863165 -0.033390734 0.050160646 0.067230076
00000000: 712a c73d a137 bc3d 6ef2 8c3d 5b88 7cbc
00000010: 7916 15bd fb26 6bbe a549 52bd 8145 3f3d
00000020: 3ee0 063d be20 ce3b 904e b5bc a662 563d
00000030: ee95 c7bd b4b5 1a3d 4b37 3b3e e294 aebd
00000040: f567 663d d03d 00be f183 c4bd 9803 0d3e
00000050: 1684 edbd 6ec4 443b 56b8 6d3d 8af9 233c
00000060: 8ce2 b2bd 97ca 6a3d c581 76bd 806a d1bb
00000070: 8a27 ec3c ac78 a93d 7827 47bd 8f1d 8a3d
00000080: 2ed6 7fbb 30a2 a1bd d4e2 e43c fc5b 5d3c
00000090: 0576 8e3b 6bc1 1b3b a76c 78bd 3f47 233e
000000a0: 87e1 8b3d 9132 4c3b 3200 38bd 9786 d73d
000000b0: 79c1 cdbd 9b32 b7bd e3c9 0b3e e867 4cbd
000000c0: b837 12be 5d43 31bc 2bca 9cbd f99f c3bd
000000d0: 0312 4ebd 7c83 0abe 504c acbd 9d82 633d
000000e0: 8e6f afbd c5bf 33bd 69e2 913c bea1 993d
000000f0: 1edb ec3d 3486 9a3d 4805 30bd 804a 923d
00000100: 66d6 94bd 3a6e 173d b80d 633d e278 d03c
00000110: 8065 8fbd e80b e5bd 06f9 5a3e 630a a63d
00000120: 15db f43c da13 c1bd 4b7b 42bd fe94 c83d
00000130: 5588 f5bc 4fc0 ce3d 1d93 993d 26b1 e93d
00000140: d756 7d3d f2cb c73c ccd1 c03c e955 843d
00000150: e16d b73c a388 12be 6136 d13c aa11 03bd
00000160: e0ab 503a 4f1e ce3c 3082 babd 2459 ea3b
00000170: dedb 283e 7bfb 6e3d ca5e ef3d 7bf9 abbc
00000180: ba5b 76bd 7c49 95ba f183 2c3c 4f7c ad3d
00000190: 04e6 26be 71ea 173d a77e b23d a425 2bbe
000001a0: da92 943d fef8 b5bd ab86 ca3b 306d 61bd
000001b0: c2e1 17bd e73d bdbc 51c4 e6bc f6e1 f63b
000001c0: f443 313c 58d6 fbbd e716 5ebb 537a 0fbd
000001d0: 5e10 2c3c ce84 b83d 456a 4e3c 2aec babd
000001e0: 8d88 2a3d c847 8c3d 225e f73c 2b64 8b3c
000001f0: 6731 10be dd08 d43c 3763 a53d 2edf 3d3c
00000200: ea8b 263c 0766 b0bc da73 f8bc 3b33 64bc
00000210: 953f 733c 09a3 acbc dfa6 0bbd 2e9d b7bc
00000220: 1968 46bc 36f7 9dbd 9b8c 97bd 6066 923e
00000230: 3fc7 c2bd 8ecc 653b 0267 6fbd f386 053e
00000240: dbc9 c13c 9bef 5dbd e9c6 20bd b27b 0c3d
00000250: d726 2abd 224f ec3d 22a4 ba3d df48 503d
00000260: 63f7 aabd 42ef 423d 4bb4 61bd beaf 85bd
00000270: bc34 cebd aa87 823d aa6c a539 063f 8abd
00000280: 8aa4 7a3d 3ec4 2c3d 0cc2 d3bd 4c90 65bd
00000290: 63ff cebd 78d6 d03d d9d8 133d 705c a0bd
000002a0: 0aaf da3d f5dd a0bd 6bb4 dcbc 7176 4cbd
000002b0: 2940 c2bd 75b2 8fbd 8d41 383d 8c45 c4bb
000002c0: 9dd2 6dbd b517 233d f7ba c93d 7c59 0abe
000002d0: 62e0 6abd be9d 81bd 9175 0fbe e6c7 6ebd
000002e0: 6e9f 82bd b9f1 8a3d 81fc 96bc 815d c6bb
000002f0: 9d90 a4bc e04e b9bd 54d8 a5bd 0691 9fbc
00000300: d15f 3bbd 0819 a0bd cd4b f9bc ecc3 993d
00000310: 3224 073d 09a4 01bd 11b1 313d 8032 773d
00000320: bfce 9f3c e45b ccbc d860 3abb 1151 783d
00000330: 7bb5 0abe 04f3 b43c 9d63 aa3d 7122 c0bd
00000340: 70e1 63be 9d52 813d 8d50 fdbd c7ce 58bc
00000350: 117e 48be b0e6 1cbd e586 f4bc a5d9 a03c
00000360: 19de 0dbd 4e6d e13d 9001 3bbd 3485 fabd
00000370: 576f a83c 3840 01bd 87b7 3f3e 6373 863d
00000380: 6010 96bd 4224 e23c 1ddc cabd 193d a7bd
00000390: 843a 1a3d 7faf ffbd 5bcd 2f3d 023c d03d
000003a0: 34a0 813d 6e97 f93d 105c c4bd 556e a13b
000003b0: c240 1b3e ffdd f43c 55f4 c13d 8e42 8f3d
000003c0: 2d87 27be a008 863d 94c6 22bb a5e7 cfbd
000003d0: 03d3 1ebe b928 1f3c 859e 93bd 5067 1b3d
000003e0: 0c43 c0bd 3f94 133e 5f00 eb3c a8ee 503d
000003f0: b5c6 b03d b9c4 08bd 4075 4d3d ecaf 893d

encoder.4.bias f4 [64]
0.0004223226 -0.0025599003 0.0009366656 -0.00039181393 -0.0029535661 -0.0003379616 -0.00089740835 -0.002112374
-0.0010530566 -0.0012634664 0.0021955944 0.00074897 -0.0011282493 -0.0018219597 0.0020536277 -0.0015843951
0.00094748684 0.0013603602 0.000370113 -0.0025480017 0.0018774121 0.00033174854 0.0013880307 -0.0007686441
0.0011254953 0.0025369276 -0.0009661545 0.0021102577 0.002652219 -0.0017226988 -0.0012744609 -0.0020957205
-0.0023716807 -0.0024963238 -0.0023988744 0.0005203941 -0.0015658982 -0.0017826713 0.0 8.5152424e-05
-0.0011957415 -0.0017442582 0.00031829427 -0.00073923543 -0.0018425691 0.0 0.00097083533 -0.00051379
-0.0003485672 -0.0018737306 -0.0016055396 -0.0018621337 -0.0021734054 0.0013610267 0.0006721037 0.00032482747
-0.00062020624 -0.002347155 4.2356412e-05 -0.0024440296 8.685769e-05 -1.2449886e-05 0.0014269406 -0.0012566443
00000000: 2e6b dd39 00c4 27bb 908a 753a 606c cdb9
00000010: 9e90 41bb 7030 b1b9 0e40 6bba c16f 0abb
00000020: b706 8aba e69a a5ba f6e3 0f3b 8756 443a
00000030: c4e1 93ba d3ce eeba 2896 063b 7aab cfba
00000040: c460 783a 1d4e b23a ba0b c239 60fc 26bb
00000050: 7f13 f63a 89ee ad39 95ee b53a d57e 49ba
00000060: 5b85 933a 9542 263b 8845 7dba 404c 0a3b
00000070: dad0 2d3b 2ecc e1ba d00b a7ba 5b58 09bb
00000080: 336e 1bbb 5d99 23bb 6f36 1dbb 0f6b 083a
00000090: d33e cdba 86a8 e9ba 0000 0000 dc93 b238
000000a0: 6dba 9cba 989f e4ba bce0 a639 40c9 41ba
000000b0: 5c82 f1ba 0000 0000 a87f 7e3a ddaf 06ba
000000c0: e6bf b6b9 f797 f5ba f870 d2ba d712 f4ba
000000d0: b16f 0ebb 7a64 b23a 1e30 303a 9b4d aa39
000000e0: 5695 22ba bad2 19bb daa7 3138 032c 20bb
000000f0: 5e27 b638 dadf 50b7 2e08 bb3a fcb5 a4ba

actor.0.weight f4 [64, 32, 3, 3]
-0.10207181 -0.068640284 -0.01649331 -0.1402168 0.09987925 0.05370383 -0.024782898 0.0004980818
-0.043099277 -0.041701384 -0.093534686 -0.09067985 -0.06414029 0.12195338 0.14023288 0.11579388
-0.100469105 0.01596493 -0.19089127 -0.04945993 0.061263885 0.098771855 0.043788143 -0.015950361
-0.04735254 0.21797822 -0.024819056 -0.06615219 -0.045137167 0.021433087 0.009258915 -0.08058627
0.108612165 -0.14719182 0.05293587 -0.029321494 0.095433526 0.04266286 0.08397141 0.038960245
0.07431219 0.009416036 0.093105935 -0.13850608 -0.017423464 0.11790829 -0.1269088 -0.06280408
-0.0416186 -0.0953506 0.039335325 0.14500196 -0.18428741 -0.01876468 0.07464608 -0.108970225
0.017619744 -0.027693411 0.07803775 0.04136288 -0.14552547 -0.04698616 -0.07822671 -0.04034635
0.049115665 0.04867241 -0.008505704 0.06934582 -0.06799435 -0.048680782 -0.0739774 0.032530833
-0.08272942 0.06438946 0.12249842 -0.029820016 -0.09893189 -0.12937938 0.029708473 0.07484896
-0.024930485 -0.03152321 -0.034565777 -0.0077909897 -0.104547426 -0.02076034 0.033515856 -0.111922376
-0.026427919 -0.090093285 0.08516841 -0.10717403 0.083760805 0.005825493 -0.1058108 0.0061969324
0.024255084 0.054296426 -0.01142466 0.01318861 -0.03332227 -0.18276413 -0.0032394012 -0.20443644
-0.00857535 0.0884716 -0.02509293 -0.09282952 0.006477481 -0.06188515 0.09113777 -0.10324154
0.0031340076 -0.025475403 -0.031642802 0.013578472 -0.083581924 -0.06519424 0.12458885 -0.015117457
0.06476111 0.099369064 0.06434246 0.08053915 0.05235055 0.16378386 -0.030150872 -0.14848067
0.05276901 -0.02191175 -0.09679165 -0.05216258 0.058997665 -0.054294337 -0.022471936 0.10787727
0.0860992 -0.031494763 0.09036936 -0.14371195 0.08693976 -0.1658615 0.04212272 -0.061293475
-0.067608766 0.044672415 0.006753238 -0.073931515 -0.04264514 -0.061231673 0.047609165 -0.070441015
0.12132612 0.049217734 -0.032497272 0.0404552 0.004183775 -0.11646941 -0.027394926 0.00094327045
-0.076338775 -0.019717785 -0.015399376 0.052828 0.012228872 0.2734352 0.07398827 -0.00069956377
0.05104416 -0.05220309 0.023161346 -0.018704463 0.023670606 -0.16743872 -0.07671386 -0.027009632
-0.08773719 0.014237648 -0.04491076 -0.09465179 0.08267949 -0.16356482 0.008372021 0.0643205
0.07462479 -0.07945965 0.12177171 0.013311386 -0.19723603 -0.0913988 0.000107272805 -0.07910642
0.09552146 0.036599554 0.047135435 0.039568134 -0.033527516 -0.038659025 0.0881048 -0.15305361
-0.10320258 0.010948213 -0.059567764 -0.0013201899 0.15728477 0.056023862 -0.008445903 -0.038386587
-0.12750933 0.07171044 -0.055456303 -0.088506065 0.040535055 -0.14491083 -0.034672398 -0.06096926
-0.19292964 0.028826473 0.02481863 0.04180056 0.010193626 0.03920314 0.1042025 0.046731044
-0.0053191045 -0.033127632 0.012988347 0.018030014 -0.11738857 0.082248434 0.11667895 -0.14536841
-0.2784861 0.061424814 -0.029175553 -0.002756096 -0.06136975 -0.071123764 -0.11833456 -0.12030226
-0.049287364 -0.08692076 -0.019027147 -0.016290084 -0.015600316 0.07867976 0.0038319386 0.009947876
-0.03678386 0.016938461 0.04053638 0.048776843 -0.050985094 -0.010824328 0.04704278 -0.10651335
00000000: 060b d1bd 4793 8cbd fa1c 87bc fe94 0fbe
00000010: 7e8d cc3d 8cf8 5b3d 8105 cbbc b491 023a
00000020: de88 30bd 12cf 2abd 1d8f bfbd 5bb6 b9bd
00000030: fc5b 83bd b2c2 f93d 3599 0f3e 5725 ed3d
00000040: bfc2 cdbd e3c8 823c 0079 43be 7f96 4abd
00000050: d7ef 7a3d e648 ca3d 325b 333d 55aa 82bc
00000060: bdf4 41bd af35 5f3e 5551 cbbc cd7a 87bd
00000070: c0e1 38bd 7194 af3c b4b2 173c 6a0a a5bd
00000080: 0e70 de3d 74b9 16be 48d3 583d a133 f0bc
00000090: a772 c33d 40bf 2e3d 34f9 ab3d c794 1f3d
000000a0: fd30 983d b845 1a3c 53ae be3d 8ad4 0dbe
000000b0: a7bb 8ebc e779 f13d 61f4 01be 6d9f 80bd
000000c0: 4478 2abd 2d47 c3bd 141e 213d 657b 143e
000000d0: d7b5 3cbe 63b8 99bc 0be0 983d c82b dfbd
000000e0: 4857 903c 4bdd e2bc 42d2 9f3d 206c 293d
000000f0: a104 15be 8f74 40bd 5335 a0bd 3742 25bd
00000100: 822d 493d b95c 473d 825b 0bbc 2e05 8e3d
00000110: 9f40 8bbd 8065 47bd 7781 97bd 0d3f 053d
00000120: 0b6e a9bd 9fde 833d 74e0 fa3d 1b49 f4bc
00000130: ce9c cabd 077c 04be 2f5f f33c 694a 993d
00000140: 043b ccbc 7b1e 01bd d894 0dbd 8f4b ffbb
00000150: f61c d6bd 9711 aabc ec47 093d 8f37 e5bd
00000160: 5d7f d8bc d482 b8bd c66c ae3d 0f7e dbbd
00000170: c98a ab3d c7e3 be3b 55b3 d8bd a30f cb3b
00000180: 99b2 c63c ee65 5e3d 7f2e 3bbc 0a15 583c
00000190: ef7c 08bd 8526 3bbe 224c 54bb c957 51be
000001a0: a07f 0cbc 9930 b53d b08f cdbc 671d bebd
000001b0: 0d41 d43b 487b 7dbd 70a6 ba3d 4d70 d3bd
000001c0: ec63 4d3b cbb1 d0bc e29b 01bd 3d78 5e3c
000001d0: 002d abbd 8f84 85bd 7028 ff3d 36af 77bc
000001e0: 79a1 843d 0282 cb3d fbc5 833d b6f1 a43d
000001f0: 886d 563d f5b6 273e f6fe f6bc 510b 18be
00000200: 5124 583d 4580 b3bc b33a c6bd 6ea8 55bd
00000210: 89a7 713d bd63 5ebd 1117 b8bc c2ee dc3d
00000220: c754 b03d a700 01bd 9213 b93d 3a29 13be
00000230: 790d b23d 99d7 29be e088 2c3d de0e 7bbd
00000240: 7776 8abd 6cfa 363d 444a dd3b 6869 97bd
00000250: acac 2ebd 10ce 7abd d401 433d 6143 90bd
00000260: d479 f83d 8998 493d dc1b 05bd 5ab4 253d
00000270: 0c18 893b 8487 eebd 536b e0bc cf45 773a
00000280: 8157 9cbd 3187 a1bc aa4d 7cbc 2c62 583d
00000290: 9b5b 483c b3ff 8b3e 2987 973d ee62 37ba
000002a0: ae13 513d e8d2 55bd ddbc bd3c 1a3a 99bc
000002b0: dce8 c13c 0e75 2bbe 281c 9dbd 4e43 ddbc
000002c0: 8eaf b3bd 0645 693c 58f4 37bd ccd8 c1bd
000002d0: dd53 a93d 897d 27be cd2a 093c 77ba 833d
000002e0: e2d4 983d bebb a2bd 7263 f93d 0018 5a3c
000002f0: 3ef8 49be 4b2f bbbd a6f7 e038 8c02 a2bd
00000300: c1a0 c33d 6ae9 153d 1611 413d 3212 223d
00000310: 2654 09bd ed58 1ebd 4a70 b43d 16ba 1cbe
00000320: e05b d3bd 2260 333c 54fd 73bd 390a adba
00000330: 420f 213e 4779 653d af60 0abc 413b 1dbd
00000340: ce91 02be ecdc 923d 2626 63bd ab42 b5bd
00000350: 1608 263d 8163 14be a504 0ebd e7ba 79bd
00000360: 598f 45be 7f25 ec3c 7150 cb3c 1037 2b3d
00000370: 2b03 273c 7993 203d 1f68 d53d 0d69 3f3d
00000380: e24b aebb d7b0 07bd 13cd 543c aeb3 933c
00000390: 6b69 f0bd de71 a83d 60f5 ee3d 75db 14be
000003a0: bb95 8ebe 9698 7b3d 9201 efbc 9e9f 34bb
000003b0: d95e 7bbd 56a9 91bd 6459 f2bd 0861 f6bd
000003c0: 8ce1 49bd 8303 b2bd d2de 9bbc c872 85bc
000003d0: 7898 7fbc db22 a13d 4321 7b3b 6bfc 223c
000003e0: acaa 16bd 87c2 8a3c 7a09 263d 3aca 473d
000003f0: bfd5 50bd 8658 31bc eeaf 403d ac23 dabd

actor.0.bias f4 [32]
-0.0011076825 -0.000963291 -0.0016841526 0.0008120744 -0.0014937571 -0.0014216332 0.0011016012 -0.0021983527
-0.0005845635 0.00089780765 0.0007842383 -0.0016016552 -0.0005043625 0.0005428707 -0.0023724758 -0.0021016193
-0.0021213067 -0.002879289 -0.0029600235 0.002590886 -0.0010957461 -0.0022491843 0.0025757432 0.0019398598
-0.0014494404 -0.00063190237 -0.0020885926 -0.0024274355 -0.0018429192 -0.003118734 -0.0006213364 -0.00019327976
00000000: a82f 91ba 5d85 7cba c9be dcba 64e1 543a
00000010: 2cca c3ba 1856 baba 9a63 903a 3d12 10bb
00000020: 643d 19ba da5a 6b3a 5795 4d3a a1ee d1ba
00000030: 3237 04ba 704f 0e3a 8a7b 1bbb 52bb 09bb
00000040: 9f05 0bbb 74b2 3cbb f4fc 41bb dbcb 293b
00000050: 239f 8fba 0d67 13bb cdcd 283b e542 fe3a
00000060: 26fb bdba 40a6 25ba c5e0 08bb 9c15 1fbb
00000070: 1b8e f1ba ad63 4cbb 2ee1 22ba 24ab 4ab9

actor.2.weight f4 [32, 4, 3, 3]
0.15860723 -0.015907452 0.41963592 0.05360796 0.022128291 0.26480868 -0.056726042 0.102532566
-0.0016973331 -0.065799065 0.23278692 0.09793093 -0.2667792 0.12793317 -0.14794666 -0.40705237
0.3916896 0.25539553 -0.15793072 -0.19553196 0.04224191 0.2591017 0.084224515 -0.23000616
-0.01491107 -0.11526537 -0.22238286 0.025456598 -0.5419235 0.32389536 0.24425867 -0.055576164
-0.3117077 0.5171741 -0.09333704 -0.23167416 0.14637896 -0.23068017 0.027265348 0.1186347
-0.041585248 -0.16313909 0.0943721 -0.26491538 -0.30618885 -0.4705359 0.3415101 0.24129497
0.2933651 0.020760106 0.027655581 0.15629296 0.2594248 -0.1935274 0.31380746 -0.3568411
0.22225717 0.17864057 -0.032350324 -0.056751046 -0.24035281 0.03563435 -0.098459005 -0.026239144
-0.0034421156 -0.18924108 0.20195507 0.61188614 -0.08373105 0.05370799 0.20677496 0.46139365
-0.2995518 -0.32484925 0.21473843 -0.009237808 0.2142397 0.23737393 -0.12266465 0.21511103
-0.19321877 0.05174932 -0.42929852 -0.17446871 -0.0707406 -0.0071255974 0.488618 0.1382427
-0.056348618 0.15419613 -0.12688285 0.061757196 0.1426421 0.5229612 -0.35618135 0.17075713
-0.2669969 0.14119987 0.0261515 -0.4320177 0.023769105 -0.33519587 0.22012502 -0.14358956
-0.038382296 0.21468121 -0.10599493 0.23743957 -0.00036773074 -0.35783046 -0.100537315 -0.06329492
-0.060426407 -0.28162616 0.49280664 -0.16213724 0.49373093 0.18118025 0.1986261 0.15911292
-0.04339888 0.13198237 0.037022814 -0.25091463 -0.089898765 -0.28845564 -0.10784619 -0.46907106
-0.16312024 0.09618055 0.047920533 0.10685865 -0.27854437 -0.30403554 -0.09470263 -0.32696164
0.095491685 -0.14166775 0.038171217 -0.5881899 -0.05888494 0.026148517 0.1948258 0.07394188
-0.11727576 -0.09030345 -0.3786941 0.34049425 0.061647885 0.04368731 0.008058207 0.36064187
-0.1443748 0.20788671 0.05921691 -0.23017913 -0.28700987 -0.38993832 0.055431988 -0.44308847
0.07171404 0.079725176 -0.124802545 -0.36595425 0.19036578 -0.014789969 0.10852036 0.099180244
0.30052856 0.18881263 -0.46123198 0.28319994 0.21930613 -0.07540355 0.39002776 0.053702462
0.236905 -0.19171965 0.24776483 0.15580532 -0.24826619 0.50431496 0.031751573 -0.17118664
0.45670313 -0.07330597 0.20870122 0.27590224 0.03218712 -0.1538842 0.010378022 0.38513327
-0.08092518 0.17499593 0.36914667 0.16180766 0.18937449 0.13895719 0.004801876 -0.4648982
0.10315139 -0.28009593 -0.24774635 0.3257582 0.29636526 -0.45046473 0.19515331 0.032145813
-0.0142547395 -0.07663056 0.14860652 0.11490171 0.020075517 -0.06303382 -0.12063816 -0.15246867
-0.2237888 -0.007695966 0.054329257 0.03677159 -0.0013215217 -0.3082736 0.39541355 -0.017248444
-0.22359404 -0.14616677 -0.15697217 -0.019528912 0.11007076 -0.24758606 0.05201582 -0.03532316
0.123716675 -0.22097382 -0.059038557 0.33371696 0.030533366 -0.27550796 -0.16980141 0.08636061
-0.2729043 0.023284078 -0.66935956 -0.1719546 -0.12693343 0.23471358 0.18351188 0.015696274
-0.39415765 -0.37917024 -0.44228294 -0.27603737 -0.5014237 0.17758872 -0.2363792 -0.21508506
00000000: ef69 223e 5850 82bc 85da d63e 0594 5b3d
00000010: 6446 b53c 0195 873e 9159 68bd 98fc d13d
00000020: 0c79 deba a9c1 86bd b25f 6e3e 0390 c83d
00000030: 4997 88be ea00 033e 547f 17be 2b69 d0be
00000040: 8a8b c83e 34c3 823e 97b8 21be 8839 48be
00000050: da05 2d3d faa8 843e e77d ac3d bc86 6bbe
00000060: 8f4d 74bc 4010 ecbd 55b8 63be 5b8a d03c
00000070: 80bb 0abf 9dd5 a53e f21e 7a3e d5a3 63bd
00000080: 2798 9fbe 8665 043f 7d27 bfbd fe3b 6dbe
00000090: 5ee4 153e 6c37 6cbe 945b df3c c0f6 f23d
000000a0: 4b55 2abd ef0d 27be 2946 c13d fda2 87be
000000b0: c9c4 9cbe 15ea f0be 69da ae3e 0716 773e
000000c0: f333 963e 1911 aa3c f58d e23c 430b 203e
000000d0: 54d3 843e 0c2c 46be 5fab a03e e0b3 b6be
000000e0: 6297 633e 8eed 363e c681 04bd c973 68bd
000000f0: 0c1f 76be 53f5 113d e0a4 c9bd 79f3 d6bc
00000100: 1e95 61bb 6ac8 41be 4fcd 4e3e 92a4 1c3f
00000110: 2f7b abbd e9fc 5b3d d1bc 533e ca3b ec3e
00000120: db5e 99be a452 a6be 64e4 5b3e 2d5a 17bc
00000130: a761 5b3e 2712 733e 9b37 fbbd 1146 5c3e
00000140: 24db 45be 18f7 533d 04cd dbbe eda7 32be
00000150: 73e0 90bd d87d e9bb 232c fa3e 7f8f 0d3e
00000160: cfcd 66bd 97e5 1d3e 94ed 01be 1df5 7c3d
00000170: c510 123e c9e0 053f 675d b6be f5da 2e3e
00000180: d1b3 88be b396 103e ac3b d63c 6d31 ddbe
00000190: 6db7 c23c cb9e abbe 7468 613e 2409 13be
000001a0: c136 1dbd 64d5 5b3e df13 d9bd 5c23 733e
000001b0: fccb c0b9 8e35 b7be 82e6 cdbd c4a0 81bd
000001c0: ae81 77bd 4e31 90be 2751 fc3e 4e07 26be
000001d0: 4dca fc3e 5187 393e a464 4b3e 7fee 223e
000001e0: 06c3 31bd 6326 073e 3ca5 173d e277 80be
000001f0: d81c b8bd 75b0 93be 77de dcbd 152a f0be
00000200: fe08 27be 4ffa c43d 5248 443d b5d8 da3d
00000210: 5e9d 8ebe 8caa 9bbe 74f3 c1bd 8467 a7be
00000220: 2591 c33d 5a11 11be 6c59 1c3d 9d93 16bf
00000230: 5631 71bd 6a35 d63c 6a80 473e d76e 973d
00000240: 462e f0bd 04f1 b8bd 31e4 c1be 4355 ae3e
00000250: 7e82 7c3d 77f1 323d 9206 043c 0da6 b83e
00000260: fdd6 13be 41e0 543e 6e8d 723d 14b4 6bbe
00000270: f5f2 92be ffa5 c7be a70c 633d 7edc e2be
00000280: d0de 923d f446 a33d 7a98 ffbd 5b5e bbbe
00000290: 3fef 423e a051 72bc ec3f de3d 031f cb3d
000002a0: e1de 993e 1958 413e 9926 ecbe 95ff 903e
000002b0: c991 603e 2d6d 9abd b8b1 c73e 1df7 5b3d
000002c0: 3997 723e 2852 44be 10b6 7d3e 6e8b 1f3e
000002d0: 7e39 7ebe c91a 013f f00d 023d 8d4b 2fbe
000002e0: fed4 e93e 7121 96bd c6b5 553e 0f43 8d3e
000002f0: a4d6 033d d293 1dbe 9408 2a3c 3030 c53e
00000300: 1abc a5bd 2232 333e cb00 bd3e e8b0 253e
00000310: 63eb 413e cb4a 0e3e 0e59 9d3b 2307 eebe
00000320: 0941 d33d bc68 8fbe 38b1 7dbe c7c9 a63e
00000330: 30bd 973e 50a3 e6be 45d6 473e 54ab 033d
00000340: b68c 69bc 7cf0 9cbd 4f2c 183e 9651 eb3d
00000350: 6975 a43c e017 81bd 2411 f7bd bf20 1cbe
00000360: e428 65be 712e fcbb 5b88 5e3d cf9d 163d
00000370: e936 adba 0ad6 9dbe a573 ca3e 9c4c 8dbc
00000380: d6f5 64be beac 15be 50bd 20be 19fb 9fbc
00000390: c76c e13d 3387 7dbe 8a0e 553d 05af 10bd
000003a0: 2b5f fd3d f646 62be 6ad2 71bd f3dc aa3e
000003b0: 1c21 fa3c 610f 8dbe 6ce0 2dbe d5dd b03d
000003c0: 1dba 8bbe 40be be3c 265b 2bbf de14 30be
000003d0: d6fa 01be c258 703e 8aea 3b3e 7995 803c
000003e0: 08cf c9be 9a22 c2be e972 e2be c554 8dbe
000003f0: 4e5d 00bf d1d9 353e 640d 72be 423f 5cbe

actor.2.bias f4 [4]
0.0015582514 0.00056198146 -0.0007961233 -0.0015999731
00000000: 3e3e cc3a f051 133a eeb2 50ba 30b6 d1ba

critic.1.weight f4 [128, 1024]
-0.00054397725 -0.048669126 -0.010633603 -0.04492559 -0.024659839 -0.03512882 -0.10238566 -0.04145893
0.004752534 -0.016116165 0.012523018 0.065302216 0.009811709 -0.14457078 0.04744391 -0.009367759
-0.008036613 -0.053766113 -0.017549232 0.022185152 0.0065299715 -0.094907664 -0.03418689 0.002723705
0.08094779 0.03264204 0.033844974 -0.014139781 -0.03634829 -0.03696753 -0.036317665 0.03529421
-0.04062586 -0.021097485 -0.014968685 0.07545083 0.0811071 0.02123562 0.07609481 -0.04484242
-0.029272042 -0.0065974323 0.0183956 0.012199977 0.07208689 -0.087519586 0.049755946 -0.0041328883
-0.03987761 -0.045826748 0.043077793 -0.027882133 0.017982595 -0.097792596 0.025981743 -0.023569936
-0.011725687 -0.021973126 0.053357076 -0.002074997 0.066511326 -0.038781248 -0.055622064 0.023192065
0.0033659558 0.059685417 -0.031604838 -0.028559636 0.008152685 -0.049094647 0.00961825 0.004461184
0.024802754 -0.003744543 -0.09531307 -0.024377229 -0.029788453 0.0005977339 -0.034927472 -0.045389384
-0.03781673 0.029944396 0.0717904 -0.03908253 0.07323505 0.05002895 -0.05577642 -0.06899483
-0.015280596 -0.049064077 -0.05324444 4.4832224e-05 -0.09070469 -0.079135634 0.05007951 -0.048596937
-0.0047416035 0.013708651 -0.052713886 -0.0013152149 0.017256906 -0.024335386 0.043171678 -0.0461759
-0.034744557 -0.034293506 0.053417098 0.06705645 0.061664797 -0.023373198 -0.009677131 -0.026862312
0.0086241625 -0.027816163 -0.074923195 0.015205956 -0.009677759 -0.002940057 -0.009940054 0.014341339
0.042351943 -0.02590374 -0.00924384 0.01581606 0.024689524 0.02343802 -0.0060698 0.06709193
-0.03870704 0.001540144 0.025094924 0.06826502 -0.04055933 0.020118574 -0.0030671386 0.0055779465
0.044486087 0.058489088 0.06602622 -0.08687445 0.020907473 -0.01502787 -0.029859694 0.05327549
-0.017557243 -0.008955574 0.042676896 0.11187616 0.03016507 -0.044749867 -0.0032469959 0.0108428225
-0.042566404 -0.0991656 -0.032444578 -0.024770632 0.055691678 -0.03221012 -0.068318434 -0.016422823
-0.0047234185 0.07519892 -0.019532552 0.0025054417 -0.06580544 -0.0517354 0.08566545 0.055341426
-0.009101128 -0.031030193 0.07986877 -0.03399972 0.038821 0.06342913 -0.012980378 0.0024525472
0.036462564 -0.062398024 0.10663297 -0.072809204 0.043165717 0.024549954 -0.0036587592 0.0055194483
-0.03412313 0.008418816 0.018210215 -0.035243522 0.009866301 -0.00095151324 0.02782632 -0.06976404
0.022696538 0.022527216 0.02057927 -0.016831292 0.033703413 -0.07985689 0.013311921 -0.0021278646
-0.03505883 0.047225505 0.08055966 0.0005930823 0.07429558 -0.03883124 -0.020543959 -0.032692865
0.04615961 0.01594499 -0.08951495 0.050692007 0.0517399 0.030807612 0.009889365 0.073550135
0.026071021 0.054465912 0.0280881 0.028116014 -0.053843375 0.018852718 -0.030156342 -0.06771109
-0.041172642 0.02675783 -0.01329254 -0.011768374 -0.02015073 0.0036461728 0.048203196 -0.008340018
0.0046595037 0.09063375 0.054255717 -0.06317311 0.0368638 -0.09931441 -0.057157185 -0.03336265
0.06250415 -0.07822891 -0.041544653 -0.0546241 0.062192384 0.03592477 0.048250884 -0.09358418
-0.05085156 -0.02681291 0.0076305387 0.056049462 -0.029668769 0.03926876 0.033774473 0.0068703895
00000000: b299 0eba 4759 47bd 9038 2ebc e503 38bd
00000010: 6e03 cabc 3de3 0fbd 93af d1bd d7d0 29bd
00000020: 25bb 9b3b 0c06 84bc 582d 4d3c 2bbd 853d
00000030: 4ac1 203c 5d0a 14be 8c54 423d 3b7b 19bc
00000040: 00ac 03bc db39 5cbd 68c3 8fbc a3bd b53c
00000050: 5ff9 d53b f35e c2bd 8d07 0cbd 3080 323b
00000060: f4c7 a53d a9b3 053d 07a1 0a3d 8aaa 67bc
00000070: f2e1 14bd 446b 17bd d5c1 14bd a990 103d
00000080: 4d67 26bd a2d4 acbc 373f 75bc f785 9a3d
00000090: 7b1b a63d 53f6 ad3c 99d7 9b3d afac 37bd
000000a0: eccb efbc 462f d8bb 5fb2 963c 6ae2 473c
000000b0: 4ba2 933d 783d b3bd e4cc 4b3d 2e6d 87bb
000000c0: b456 23bd d4b4 3bbd 5772 303d 1269 e4bc
000000d0: 3c50 933c 7c47 c8bd aad7 d43c bd15 c1bc
000000e0: 191d 40bc fc00 b4bc f38c 5a3d acfc 07bb
000000f0: 1737 883d 16d9 1ebd f6d3 63bd 49fd bd3c
00000100: 5e97 5c3b b278 743d 1374 01bd e6f5 e9bc
00000110: d792 053c 7817 49bd dd95 1d3c 202f 923b
00000120: 252f cb3c 0267 75bb 8033 c3bd c1b2 c7bc
00000130: ea06 f4bc 3eb1 1c3a 1c10 0fbd 38ea 39bd
00000140: b7e5 1abd f34d f53c d806 933d 0115 20bd
00000150: 42fc 953d 28eb 4c3d d175 64bd 294d 8dbd
00000160: 775b 7abc 6af7 48bd d816 5abd 3c0a 3c38
00000170: 61c3 b9bd dd11 a2bd 2c20 4d3d 950d 47bd
00000180: 745f 9bbb 409a 603c 84ea 57bd 4a63 acba
00000190: 5b5e 8d3c 015b c7bc c9d4 303d f122 3dbd
000001a0: 4f50 0ebd 5977 0cbd e3cb 5a3d e454 893d
000001b0: 3a94 7c3d 2679 bfbc d48c 1ebc 5a0e dcbc
000001c0: 5c4c 0d3c b9de e3bc 5571 99bd 6722 793c
000001d0: 778f 1ebc f9ad 40bb 9cdb 22bc eff7 6a3c
000001e0: 3b79 2d3d 1534 d4bc 7a73 17bc af90 813c
000001f0: af41 ca3c 1701 c03c 2ce5 c6bb 7e67 893d
00000200: 468b 1ebd a8de c93a df93 cd3c 88ce 8b3d
00000210: 8a21 26bd b5cf a43c 0c02 49bb 35c7 b63b
00000220: 0b37 363d 4192 6f3d c138 873d 3beb b1bd
00000230: 2646 ab3c 7537 76bc 519c f4bc 6637 5a3d
00000240: 35d4 8fbc 66ba 12bc f8cd 2e3d 541f e53d
00000250: bd1c f73c a34b 37bd 8dcb 54bb 18a6 313c
00000260: 1c5a 2ebd 5617 cbbd 9be4 04bd c8eb cabc
00000270: f51c 643d c2ee 03bd 89ea 8bbd 2889 86bc
00000280: e8c6 9abb e401 9a3d bb02 a0bc 5632 243b
00000290: 01c5 86bd 80e8 53bd 5e71 af3d b1ad 623d
000002a0: e61c 15bc 0833 febc 3d92 a33d 4a43 0bbd
000002b0: c502 1f3d 22e7 813d a7ab 54bc eaba 203b
000002c0: c559 153d 1295 7fbd 6362 da3d fe1c 95bd
000002d0: 89ce 303d fc1c c93c cbc7 6fbb 7ddc b43b
000002e0: b2c4 0bbd 13ef 093c 972d 953c 835b 10bd
000002f0: 44a6 213c f96e 79ba 06f4 e33c 73e0 8ebd
00000300: 17ee b93c ff8a b83c db95 a83c c7e1 89bc
00000310: 970c 0a3d 028c a3bd 3e1a 5a3c a573 0bbb
00000320: d999 0fbd 886f 413d 77fc a43d 1479 1b3a
00000330: 4828 983d 820d 1fbd ce4b a8bc f4e8 05bd
00000340: dc11 3d3d 119f 823c 9d53 b7bd 6ca2 4f3d
00000350: 38ed 533d 3f60 fc3c 0107 223c 74a1 963d
00000360: e592 d53c a617 5f3d 0419 e63c 8e53 e63c
00000370: df8a 5cbd 0471 9a3c 6f0a f7bc 1dac 8abd
00000380: a5a4 28bd 3d33 db3c f4c8 59bc 23d0 40bc
00000390: 2513 a5bc a1f4 6e3b b770 453d 92a4 08bc
000003a0: c0ae 983b 309e b93d 3e3b 5e3d e760 81bd
000003b0: 7ffe 163d 5a65 cbbd a71d 6abd 46a7 08bd
000003c0: 2d02 803d 7b36 a0bd ba2a 2abd 85bd 5fbd
000003d0: 71bd 7e3d da25 133d b8a2 453d 10a9 bfbd
000003e0: ba49 50bd bfa6 dbbc 9909 fa3b 1f94 653d
000003f0: eb0b f3bc 47d8 203d 1a57 0a3d 0121 e13b

critic.1.bias f4 [128]
-6.021065e-05 -2.2463355e-05 0.0002326087 0.0 0.00022450874 0.00016989376 -0.000292326 -0.00019837264
6.37137e-05 -0.00023282599 0.00023500217 -1.7845119e-07 0.0 8.065602e-05 0.0 -0.00018686583
0.00027056522 2.5613866e-05 -0.0002931747 5.1423543e-10 -7.279863e-05 0.0 2.3940565e-06 6.496636e-06
0.00015521559 -0.00016665057 0.0 0.00012175382 -0.00025200637 0.00029856543 -4.482972e-05 0.00024389365
-4.73674e-06 0.00022738772 -0.00024535158 9.565205e-06 -0.00020780046 0.0 2.1197104e-05 0.00031337363
-4.2784726e-05 -0.0002238629 1.6451444e-10 0.0 0.0 0.0 -0.00023197601 -0.00029327045
-9.238927e-05 -0.0003287751 8.321242e-08 4.4219352e-05 -3.871478e-05 -0.00035468058 0.00023136742 8.646504e-06
-3.4275217e-05 0.0 -0.00022538341 0.00020873663 -2.3770174e-07 -6.224484e-05 0.0 6.404874e-05
-0.00025582215 0.0 5.2699557e-05 0.0 0.0 -0.00034642543 0.0 1.0652655e-05
3.118599e-05 6.0789523e-07 5.327884e-05 0.0 3.5273537e-05 0.0 3.634315e-05 0.00022381445
2.7192348e-07 0.00026944742 0.0 0.0 0.0 -3.0028405e-05 8.274938e-05 0.0
0.0 -0.00021848494 -0.00021179431 0.00011028245 4.3046146e-08 0.00034134215 -1.7884558e-05 0.00035968528
0.00030531597 8.651242e-05 0.0 7.661504e-06 6.7492976e-05 0.0 -0.00024943592 0.0
0.0 0.00019049179 -0.00030316634 0.00023353742 0.00022824967 -2.521644e-05 0.0 -0.000101495345
-0.00027372313 2.2226362e-05 0.0 -0.00022627189 0.0 -0.00031051118 0.0 -0.00025729171
0.0 0.0002899829 -0.0002829294 -0.00015499943 0.00024653377 3.0867544e-05 6.530058e-05 -0.00021657764
00000000: b18a 7cb8 b06f bcb7 6ce8 7339 0000 0000
00000010: 1b6a 6b39 8225 3239 5543 99b9 4002 50b9
00000020: 089e 8538 c022 74b9 ea6a 7639 4a9c 3fb4
00000030: 0000 0000 df25 a938 0000 0000 6af1 43b9
00000040: a6da 8d39 5cdd d637 3eb5 99b9 1a5a 0d30
00000050: 78ab 98b8 0000 0000 94a9 2036 aefd d936
00000060: 5ec1 2239 ecbe 2eb9 0000 0000 1656 ff38
00000070: b91f 84b9 c688 9c39 8c07 3cb8 b4bd 7f39
00000080: 49f0 9eb6 ed6e 6e39 88a2 80b9 3e7a 2037
00000090: 03e5 59b9 0000 0000 6fd0 b137 4c4c a439
000000a0: c073 33b8 bdbc 6ab9 b3e2 342f 0000 0000
000000b0: 0000 0000 0000 0000 963e 73b9 18c2 99b9
000000c0: 1dc1 c1b8 725f acb9 83b2 b233 2b78 3938
000000d0: ae61 22b8 6cf4 b9b9 389b 7239 7410 1137
000000e0: bcc2 0fb8 0000 0000 e654 6cb9 50e0 5a39
000000f0: f53a 7fb4 7289 82b8 0000 0000 e851 8638
00000100: de1f 86b9 0000 0000 b809 5d38 0000 0000
00000110: 0000 0000 6fa0 b5b9 0000 0000 ceb8 3237
00000120: b4cd 0238 3e2e 2335 b877 5f38 0000 0000
00000130: acf2 1338 0000 0000 296f 1838 bcaf 6a39
00000140: e1fc 9134 9f44 8d39 0000 0000 0000 0000
00000150: 0000 0000 82e5 fbb7 bc89 ad38 0000 0000
00000160: 0000 0000 1b19 65b9 1a15 5eb9 7147 e738
00000170: bde1 3833 2bf6 b239 cc06 96b7 2494 bc39
00000180: d112 a039 006e b538 0000 0000 e989 0037
00000190: 048b 8d38 0000 0000 b9c6 82b9 0000 0000
000001a0: 0000 0000 c0be 4739 4cf2 9eb9 b9e1 7439
000001b0: 4e56 6f39 e487 d3b7 0000 0000 e6d9 d4b8
000001c0: 7f82 8fb9 c072 ba37 0000 0000 6643 6db9
000001d0: 0000 0000 1bcc a2b9 0000 0000 1ce5 86b9
000001e0: 0000 0000 d908 9839 2456 94b9 5887 22b9
000001f0: 3441 8139 c677 0138 fbf1 8838 1e19 63b9

critic.3.weight f4 [1, 128]
0.0783257 0.0021109837 -0.066689685 -0.17767738 -0.06138644 -0.034324143 0.120062344 0.04603649
-0.008674122 0.06612489 -0.06777492 0.0029915941 -0.010655103 -0.111944355 0.16161624 0.21005705
-0.09766773 -0.05771098 0.12115456 0.0019616832 0.009049412 0.0032906982 -0.027760787 -0.0032962093
-0.029147057 0.047698777 -0.030049205 -0.067043014 0.13978173 -0.12847905 0.06580357 -0.07529306
0.047543675 -0.06320951 0.09916105 -0.041805867 0.064119615 0.050506648 -0.030726502 -0.14793405
0.02335474 0.06028482 0.08960398 -0.022655867 -0.11418469 0.05269759 0.0933163 0.12129739
0.012523032 0.17012061 0.07243835 -0.036542814 -0.05539276 0.18334495 -0.06584356 0.048209533
0.050250404 0.18349023 0.061255325 -0.052096765 0.08536714 0.046561837 0.14635813 -0.016709344
0.083634906 -0.115851715 -0.008991674 0.14024988 0.015513303 0.20039329 -0.022753878 -0.06206949
-0.01576441 -0.014293228 -0.006775856 0.074155875 -0.0039455355 0.079193115 -0.008126614 -0.060940396
0.1704301 -0.096692055 0.048969794 0.043751556 -0.073399395 -0.13689767 -0.011329405 0.043213386
0.0090443 0.056963917 -0.16737828 -0.031449776 0.045030713 -0.19174924 0.05611072 -0.22773296
-0.15607579 -0.09060158 0.046690613 0.03912037 -0.056761246 0.14987916 0.07840837 -0.09021718
-0.039318647 -0.13104212 0.13705035 -0.067323565 -0.06359354 0.030217508 -0.029650247 0.014360493
0.10006341 -0.0029609352 -0.012828205 0.061827738 -0.04852039 0.14317681 0.065664016 0.08324833
0.038243596 -0.118750624 0.1096306 0.026899833 -0.07680492 -0.03885943 -0.04026401 0.057051793
00000000: 3969 a03d 6e58 0a3b 9a94 88bd 0ff1 35be
00000010: 5970 7bbd 7997 0cbd 3fe3 f53d c290 3c3d
00000020: e81d 0ebc 7d6c 873d 94cd 8abd 9f0e 443b
00000030: be92 2ebc 1543 e5bd ba7e 253e 3219 573e
00000040: 0506 c8bd 5962 6cbd e21f f83d 958f 003b
00000050: fc43 143c c1a8 573b 976a e3bc 3705 58bb
00000060: cfc5 eebc cb5f 433d c029 f6bc d94d 89bd
00000070: f122 0f3e 0390 03be 06c4 863d 3f33 9abd
00000080: 28bd 423d fd73 81bd f314 cb3d a13c 2bbd
00000090: 2551 833d 0fe0 4e3d 25b6 fbbc 067c 17be
000000a0: 7152 bf3c 37ed 763d 4b82 b73d cc98 b9bc
000000b0: aad9 e9bd 6ed9 573d 9e1c bf3d c46a f83d
000000c0: 672d 4d3c 1934 2e3e 8f5a 943d ebad 15bd
000000d0: 85e3 62bd c7be 3b3e fdd8 86bd 5c77 453d
000000e0: 5ed3 4d3d dde4 3b3e dde6 7a3d 6b63 55bd
000000f0: f8d4 ae3d a0b7 3e3d e8de 153e 09e2 88bc
00000100: c748 ab3d aa43 edbd d051 13bc aa9d 0f3e
00000110: 822b 7e3c e633 4d3e 5766 babc 943c 7ebd
00000120: 5d24 81bc 252e 6abc 0008 debb 09df 973d
00000130: 8d49 81bb 0030 a23d 7d25 05bc a39c 79bd
00000140: 3a85 2e3e 7c06 c6bd 8d94 483d d534 333d
00000150: 6c52 96bd e72e 0cbe f89e 39bc 8500 313d
00000160: 8b2e 143c ff52 693d 3665 2bbe 7bd1 00bd
00000170: 2072 383d ea59 44be 5bd4 653d d432 69be
00000180: 55d2 1fbe 528d b9bd a83e 3f3d ae3c 203d
00000190: 7b7e 68bd ec79 193e 9194 a03d c9c3 b8bd
000001a0: 970c 21bd e82f 06be ed56 0c3e f0e0 89bd
000001b0: 543d 82bd b58a f73c 13e5 f2bc 4648 6b3c
000001c0: 0cee cc3d 400c 42bb 642d 52bc 153f 7d3d
000001d0: 51bd 46bd f19c 123e db7a 863d 1a7e aa3d
000001e0: 51a5 1c3d 8733 f3bd 0286 e03d 0a5d dc3c
000001f0: e64b 9dbd 112b 1fbd e0eb 24bd 24af 693d
