experiments/ppo_hrl/models/MicroRTSGridModeVecEnv__ppo_utils__1__1721366578/4096/move.pt (torch, 802518 bytes, 11 tensors)

encoder.1.weight f4 [32, 30, 3, 3]
0	0x3d1bb671	0.038015787
1	0xbcaf400d	-0.021392846
2	0x3d315008	0.043289214
3	0xbd052743	-0.032508146
4	0xbd2c2513	-0.042027544
5	0xbdd572d1	-0.1042229
6	0xbc60c7f2	-0.013719546
7	0xbe0ca5fe	-0.13735196
8	0x3c9cb93e	0.0191313
9	0x3e1d6669	0.15371098
10	0xbe49a9ce	-0.19693682
11	0xbd4782a6	-0.04870858
12	0x3e06f64a	0.1317989
13	0xbd6684d3	-0.056279015
14	0x3d2b873a	0.04187701
15	0x3e181ade	0.14853999
16	0xbbfb5323	-0.007669823
17	0xbdb6e892	-0.08931078
18	0x3cb25d30	0.02177295
19	0xbd8d52b1	-0.06900538
20	0x3e24b3c0	0.16084194
21	0xbd090ee4	-0.033461466
22	0x3ddc75a6	0.10764627
23	0x3ddd5b5b	0.1080844
24	0x3d780ec3	0.060560953
25	0xbdf66765	-0.1203144
26	0xbd701264	-0.05861129
27	0xbd31946c	-0.043354437
28	0xbd15d5e2	-0.036580928
29	0xbd905690	-0.070477605
30	0xbd17f234	-0.037096217
31	0x3d101f82	0.0351863
32	0x3cd9dd94	0.026594914
33	0x3d342333	0.04397888
34	0x3d1fc3be	0.039005034
35	0xbd2762d2	-0.040865727
36	0x3db0eeac	0.08639273
37	0x3e33d428	0.175614
38	0xbd7b3b45	-0.06133582
39	0xbcabb3c5	-0.020959744
40	0x3dd0329b	0.10165902
41	0x3ddccfd9	0.10781831
42	0xbe06bf8d	-0.13159008
43	0x3d11d9db	0.035608154
44	0x3ca7f018	0.020500228
45	0xbd021db2	-0.0317666
46	0xbde4e8b4	-0.11177197
47	0x3b8a39d2	0.0042183185
48	0xbc5a9885	-0.013342028
49	0x3be00569	0.0068365824
50	0x3dc7c560	0.09754443
51	0x3c19aeea	0.009380082
52	0x3d7c7dbb	0.061643343
53	0xbded23b2	-0.11579074
54	0xbdcf1679	-0.10111708
55	0x3d4fcdc5	0.050733346
56	0xbca872b8	-0.020562515
57	0xbdc6345a	-0.09677954
58	0xbe0fac71	-0.14030625
59	0xbd64adfe	-0.055829994
60	0xbd8ad6a4	-0.06779221
61	0xbdba65ba	-0.09101434
62	0xbe03e06a	-0.12878576
63	0xbbea8ff6	-0.0071582748
64	0x3c566ada	0.013086999
65	0xbde85a6b	-0.11345371
66	0x3dfbd183	0.122958206
67	0x3d9ae992	0.07564081
68	0x3db16081	0.08660985
69	0x3d58720f	0.05284315
70	0xbe162af5	-0.14664824
71	0x3e645c32	0.22300795
72	0x3940c154	0.00018382567
73	0xbda195b6	-0.07889883
74	0xbcf73ee8	-0.030181363
75	0x3c53f261	0.012936206
76	0xbd48effb	-0.04905699
77	0xbd32d53c	-0.043660387
78	0x3de0653b	0.10956808
79	0x3d5b37ad	0.053519893
80	0xbbf3f195	-0.0074445703
81	0xbc4633e5	-0.012097334
82	0x3dc8947b	0.097939454
83	0x3d7ee27d	0.062227715
84	0xbdd46a12	-0.10371794
85	0xbe28442a	-0.16432253
86	0xbdb5c741	-0.08875895
87	0xbd7827c1	-0.060584787
88	0xbccf952b	-0.025339684
89	0x3d81c3ac	0.063361496
90	0x3e0754fd	0.13216014
91	0xbcac98c5	-0.02106894
92	0xbdf8a3d2	-0.12140621
93	0xbde4e3a7	-0.11176234
94	0x3ca52846	0.020160805
95	0x3e02cb70	0.12772918
96	0x3d832aba	0.06404634
97	0x3dbe2245	0.0928388
98	0x3d537d75	0.051633317
99	0x3e1aba1a	0.15110055
100	0xbc8c3615	-0.017115632
101	0x3d917c51	0.071037896
102	0xbdcfd0d1	-0.101472504
103	0xbd522718	-0.051306814
104	0x3dbd6551	0.0924784
105	0xbe126a9e	-0.14298484
106	0xbcf421bb	-0.02980124
107	0x3df7ed64	0.121058255
108	0x3ca4add1	0.020102413
109	0xbc1142d6	-0.008866033
110	0x3d83cd97	0.064356975
111	0xbd4a15c3	-0.04933716
112	0xbb4e4535	-0.0031474356
113	0x3c8135ef	0.015772788
114	0x3d97fb50	0.07420981
115	0x3d54dd91	0.051969115
116	0xbe13b3a9	-0.14424004
117	0xbd0feae0	-0.035136104
118	0xbd5d0589	-0.053960357
119	0xbdcd92ad	-0.10037742
120	0x3d1d40b6	0.03839179
121	0xbd54bd74	-0.05193849
122	0x3bc73bcb	0.006080126
123	0x3c1cf5d4	0.009580094
124	0xbdaa3799	-0.08311386
125	0xbd6763d4	-0.056491688
126	0xbb817a57	-0.0039513516
127	0xbe053d2a	-0.13011613
128	0x3ad3eded	0.001616893
129	0x3e2e7caa	0.17039743
130	0xbca1afae	-0.01973709
131	0xbdafb6ec	-0.085798115
132	0xbdffce6c	-0.12490544
133	0xbdddea9d	-0.108357646
134	0x3c8d9a45	0.017285476
135	0xbe0e374c	-0.13888282
136	0xbe21f19c	-0.15814823
137	0xbd73572f	-0.059409317
138	0x3d51045d	0.05102955
139	0xbd02d1d7	-0.0319384
140	0xbdf0ca37	-0.117573194
141	0x3d0f1ac9	0.034937654
142	0x3e5c2ee6	0.21502265
143	0xbc2a9b69	-0.010413029
144	0x3ce278ed	0.027645553
145	0xbe0306c9	-0.12795557
146	0xbd503272	-0.05082936
147	0xbc90c2d5	-0.017671028
148	0xbe120468	-0.14259493
149	0x3d34d0d4	0.044144467
150	0x3d55775d	0.052115787
151	0xbbfa28ed	-0.0076342733
152	0x3d506287	0.050875213
153	0x3d429a14	0.04751022
154	0x3ccb9dab	0.024855455
155	0xbb8124dd	-0.003941162
156	0xbe54f519	-0.20796622
157	0x3d35a692	0.044348307
158	0x3c555767	0.013021327
159	0x3d031488	0.032002002
160	0xbd315254	-0.043291405
161	0xbd84b439	-0.06479687
162	0xbd870202	-0.0659218
163	0xbd940a75	-0.07228557
164	0x3dcc21f2	0.09967412
165	0xbd9675ce	-0.07346688
166	0xbdd59664	-0.10429075
167	0x3e753e5f	0.23949574
168	0xbdf72dc6	-0.120692775
169	0xbd3c0d78	-0.045911282
170	0x3bfc1034	0.0076923613
171	0xbd9ed9b2	-0.07756366
172	0xbda094ee	-0.07840906
173	0x3aca294f	0.0015423688
174	0xbde98b10	-0.11403477
175	0xbe0b1e0f	-0.13585685
176	0x3d55eab6	0.05222579
177	0x3bc46667	0.0059936526
178	0xbdb6ff4b	-0.08935412
179	0x3d1b0bc2	0.03785301
180	0x3dd54f35	0.10415498
181	0xbdc75a90	-0.0973407
182	0xbd58827a	-0.052858807
183	0x3d73321a	0.059373952
184	0x3e0bbe81	0.1364689
185	0xbd1b8dfd	-0.037977207
186	0xbd9bf19b	-0.07614442
187	0xbce1b288	-0.02755095
188	0x3da28b25	0.07936696
189	0xbd402146	-0.046906732
190	0xbd821952	-0.06352486
191	0x3d968fee	0.07351671
192	0x3d0f8c63	0.035045993
193	0x3d077de3	0.03307904
194	0x3d78ffc9	0.06079081
195	0x3c02b304	0.007977251
196	0x3d3a0336	0.04541322
197	0x3c4dc0d8	0.012558185
198	0xbe0c811a	-0.13721123
199	0x3d2996b5	0.04140349
200	0x3dc4d49b	0.09610864
201	0x3c5a61fd	0.013329026
202	0x3c3e1675	0.011602034
203	0xbd0a771d	-0.033805
204	0x3e1993b5	0.14997752
205	0xbc70330a	-0.014660606
206	0xbbf43ca3	-0.0074535175
207	0xbce67bea	-0.028135259
208	0x3dc01267	0.0937851
209	0x3e6e70c0	0.23285198
210	0x3d1c0fa9	0.038100872
211	0x3cb93f15	0.022613088
212	0xbd04ae02	-0.03239251
213	0xb9ef7d0b	-0.00045678797
214	0xbd544b54	-0.05182965
215	0xbdb3b9d9	-0.08775682
216	0xbd112a29	-0.035440598
217	0x3de1c22b	0.11023363
218	0xbdfb03aa	-0.12256558
219	0xbe030422	-0.12794545
220	0x3df649dd	0.12025807
221	0xbdd2b25f	-0.10287928
222	0xbe173249	-0.14765276
223	0xbe321957	-0.17392479
224	0xbd728df5	-0.059217412
225	0x3dc53c62	0.09630658
226	0x3d453f2d	0.048155952
227	0xbce223a9	-0.027604895
228	0x3acc61a9	0.001559307
229	0x3e289d8e	0.16466352
230	0xbd80eb77	-0.06294911
231	0xbcebf18a	-0.028801698
232	0x3dd43758	0.103621185
233	0xbc619e60	-0.01377067
234	0xbd62e390	-0.0553928
235	0x3d54c4a3	0.05194534
236	0x3e0f8e4f	0.1401913
237	0xbd9a5ef1	-0.0753764
238	0x3c483dc5	0.012221758
239	0x3c621b91	0.013800518
240	0xbc9b2512	-0.018938575
241	0xbe06e76c	-0.13174218
242	0xbd2b255f	-0.041783687
243	0x3d9bfac9	0.07616193
244	0x3dbb4541	0.091440685
245	0x3d3df3e9	0.04637519
246	0xbda354f7	-0.0797519
247	0x3d628085	0.055298347
248	0x3e1e8f16	0.1548427
249	0x3df06c65	0.117394246
250	0xbc635512	-0.013875263
251	0xbd66462d	-0.05621927
252	0xbe4a4ae7	-0.19755135
253	0x3e180101	0.14844133
254	0xbd5a934e	-0.053363137
255	0xbd00f503	-0.03148366

encoder.1.bias f4 [32]
0	0xbac91c2b	-0.0015343478
1	0xb9e22ffb	-0.00043141827
2	0x3b091983	0.0020919747
3	0x3b0e8a60	0.0021749958
4	0x3b07136b	0.002061094
5	0xb88af30a	-6.625622e-05
6	0xba703470	-0.0009163087
7	0xb9d5c841	-0.00040775727
8	0x3a80bade	0.0009821316
9	0x398438f2	0.0002521943
10	0xb8dc556a	-0.00010506327
11	0x38af1ee8	8.350407e-05
12	0x38ef0387	0.00011397065
13	0xba3fb8b0	-0.00073135924
14	0xb93fd477	-0.00018294329
15	0x3a351796	0.00069081166
16	0xb9b6b2ce	-0.00034846965
17	0xba345599	-0.000687921
18	0xb999e497	-0.00029352747
19	0xba93de37	-0.0011281435
20	0xbb0f9d6c	-0.00219139
21	0xbb1fa0e2	-0.0024357368
22	0x3ace11b3	0.0015721828
23	0xba42785c	-0.00074184476
24	0xb96ff90f	-0.00022885598
25	0xb9d15154	-0.0003992418
26	0xb9e1b23c	-0.0004304814
27	0xb99dddd6	-0.00030110654
28	0x3a9a4f29	0.0011772859
29	0x3903d0f9	0.00012570982
30	0xba075af2	-0.0005163393
31	0xba9499b6	-0.0011337313

encoder.4.weight f4 [64, 32, 3, 3]
0	0x3a79d077	0.000952966
1	0x3da9fe01	0.083004005
2	0x3dc344e0	0.09534621
3	0x3dabefdb	0.08395358
4	0x3e1adbcb	0.15122907
5	0x3caeb894	0.021328248
6	0xbdc4ea36	-0.09614985
7	0x3dd69195	0.10476986
8	0x3d668cea	0.05628673
9	0x3c34a217	0.011024973
10	0xbdf831db	-0.12118884
11	0xbdc09e97	-0.094052486
12	0x3ccd54dd	0.02506488
13	0x3d40ebf7	0.047100034
14	0x3a72d3a7	0.0009263106
15	0xbdab3da8	-0.08361369
16	0xba74a070	-0.00093317684
17	0x3d964c25	0.07338742
18	0x3dab8eaf	0.08376824
19	0x3d3c3d26	0.045956753
20	0x3d5bd0c3	0.053665888
21	0xbdae2087	-0.08502298
22	0x3cec3a83	0.028836494
23	0x3e00f2e2	0.12592652
24	0x3dbc425b	0.09192344
25	0x3dc1dcd4	0.09465948
26	0x3dc625e4	0.09675196
27	0xbd21c3ec	-0.039493486
28	0x3dccab94	0.099936634
29	0xbdc890d0	-0.09793246
30	0xbd97b37c	-0.07407281
31	0xbdb3f647	-0.08787208
32	0xbdbc4dad	-0.09194503
33	0x3da600c6	0.08105616
34	0x3e0a891d	0.13528867
35	0x3ceaa45a	0.028642822
36	0x3db2c7c0	0.087295055
37	0x3cb38f4f	0.02191892
38	0x3d6243b5	0.05524035
39	0x3c930a7b	0.017949333
40	0x3d0db393	0.034595083
41	0x3dacb6e7	0.08433323
42	0xbdae362b	-0.085064255
43	0xbd46421e	-0.048402898
44	0xbd4f42e8	-0.050600916
45	0xbd882be2	-0.06648995
46	0x3c97d8c6	0.018535983
47	0xbd997ffa	-0.07495113
48	0x3e6b1775	0.22958167
49	0x3dda75dd	0.10667012
50	0x3d09d2ac	0.033648178
51	0x3cdeca3d	0.027196044
52	0xbdfbb8ca	-0.12291105
53	0xbd3247e8	-0.043525606
54	0x3c673104	0.014110807
55	0x3d89c735	0.06727449
56	0xbd55666c	-0.05209963
57	0x3da0e15b	0.07855483
58	0x3bb70466	0.005585241
59	0xbd702efd	-0.05863856
60	0xbde0b3f5	-0.10971824
61	0xbd0cacd8	-0.034344524
62	0xbda96c0e	-0.08272563
63	0xbd828fe0	-0.06375098
64	0xbd9d93d2	-0.0769421
65	0xbd0a54de	-0.033772342
66	0xbc8e8050	-0.017395169
67	0xbd22fa44	-0.039789453
68	0xbd6acb28	-0.05732265
69	0x3d87580e	0.06608592
70	0xbdef6037	-0.116882734
71	0x3c648f94	0.013950247
72	0xbd9785cb	-0.07398566
73	0x3d731c41	0.059353117
74	0x3c87323e	0.01650345
75	0x3b8c9d70	0.004291229
76	0x3e1ff46e	0.15620586
77	0x3d986286	0.07440667
78	0xbe3326f6	-0.17495331
79	0x3cacbaea	0.021085221
80	0xbc3853ce	-0.011250449
81	0xbd73ae72	-0.059492536
82	0x3e2b5492	0.1673148
83	0xbc3eb829	-0.011640587
84	0x3dd3be6b	0.10339054
85	0x3d29fcf4	0.041501
86	0x3df574ce	0.11985169
87	0x3e0f2bda	0.13981572
88	0x3d08f5d0	0.03343755
89	0xbddadf28	-0.10687095
90	0xbc84e33a	-0.016221631
91	0x3e3b7697	0.18306957
92	0xbcec7290	-0.028863221
93	0xbc093129	-0.008373537
94	0x3c8da59f	0.017290888
95	0x3d2ac121	0.04168809
96	0xbdcc1f59	-0.099669166
97	0x3de359ce	0.11101113
98	0xbc9cc975	-0.019139031
99	0x3cf3e578	0.029772505
100	0x3d00b711	0.031424586
101	0xbd70cda8	-0.05878988
102	0xbdb5267e	-0.088452324
103	0xbcfdab5d	-0.030965501
104	0x3b6487bb	0.003487094
105	0xbd787aca	-0.060663976
106	0x3cca8a45	0.024724135
107	0xbdad5b8d	-0.084647276
108	0x3ab549f1	0.001383124
109	0xbdfe2128	-0.12408668
110	0xbdb4c29f	-0.088261835
111	0xbc28e191	-0.0103076855
112	0x3d2071e5	0.03917112
113	0xbcf172e1	-0.029473724
114	0x3d564d18	0.052319616
115	0x3aa27c42	0.0012396651
116	0xbdf65b51	-0.12029136
117	0xbdde78a9	-0.10862858
118	0xbc8c8144	-0.017151482
119	0x3bbeb9ab	0.005820473
120	0xbbdc7f93	-0.006729075
121	0x3cb931f5	0.02260683
122	0xbd3ef92f	-0.04662436
123	0x3d0690eb	0.03285305
124	0x3d2b0604	0.041753784
125	0x3d546ae0	0.051859736
126	0x3daa9a16	0.08330171
127	0x3be687af	0.0070352177
128	0xbd067db4	-0.032834724
129	0x3de96763	0.113966726
130	0x3cc7e9c3	0.024403458
131	0xba2853df	-0.0006421189
132	0xbd081636	-0.033224307
133	0xbbf02278	-0.0073283277
134	0xbd105f12	-0.035246916
135	0xbd322204	-0.04348947
136	0xbc7df61d	-0.0155005725
137	0x3ba6e7fc	0.0050935727
138	0xbca412a2	-0.020028416
139	0xbde82d9a	-0.11336823
140	0xbc905e61	-0.017623128
141	0xbcec8ac4	-0.028874762
142	0xbcf82c76	-0.030294638
143	0xbc1a5efd	-0.009422061
144	0x3d5a10a6	0.053238533
145	0xbd99f28d	-0.07516966
146	0x3cd8c210	0.026459724
147	0xbc0809c8	-0.008303113
148	0xbe0b06f4	-0.13576871
149	0x3c2774d7	0.010220728
150	0x3dba5e0d	0.0909997
151	0xbdb8e4a4	-0.09027985
152	0x3d103314	0.035204962
153	0xbdf6c756	-0.12049739
154	0x3c99c917	0.018772645
155	0xbe279668	-0.16365969
156	0xbb95a68f	-0.0045669745
157	0xbe0e08e6	-0.13870582
158	0xbd9755aa	-0.07389386
159	0xbddf1f66	-0.10894661
160	0x3c8cbcf2	0.01717994
161	0xbd533e6b	-0.0515732
162	0xbdac49c0	-0.08412504
163	0xbde5b3e2	-0.112159505
164	0x3bfe398e	0.007758326
165	0x3d17b9c8	0.03704241
166	0x3c801b54	0.015638031
167	0x3d6cf69b	0.05785237
168	0x3ce332ab	0.027734121
169	0xbc939062	-0.018013183
170	0x3c0847e3	0.00831792
171	0xbc4daf50	-0.012554005
172	0xbd2154fe	-0.039387695
173	0xbdba7344	-0.091040164
174	0xbd9a7f5f	-0.07543825
175	0xbd8a3f19	-0.06750316
176	0x3ca8db4c	0.020612381
177	0xbe0c3928	-0.13693678
178	0x3da8bed8	0.082395256
179	0x3d0fe158	0.035127014
180	0x3d97be55	0.0740935
181	0xbdd045dd	-0.10169575
182	0x3dbb3691	0.09141267
183	0xbe25dc31	-0.16197278
184	0xbd83d056	-0.06436221
185	0x3d2e347d	0.042530525
186	0x3934692a	0.00017205314
187	0xbd2ab890	-0.04167992
188	0xbdc1a678	-0.094555795
189	0xbe07aace	-0.1324875
190	0xbd926c62	-0.07149579
191	0x3e59c27e	0.21265599
192	0xbd748f2c	-0.05970685
193	0xbd691995	-0.056909163
194	0x3cb275de	0.02178472
195	0xbdd9db2a	-0.10637505
196	0xbe6c713b	-0.23090069
197	0x3e36ad60	0.17839575
198	0xbd5d978a	-0.054099597
199	0xbc2a63c1	-0.01039976
200	0xbd94167c	-0.07230851
201	0x3e5583be	0.20851037
202	0xbd27e6a1	-0.04099143
203	0x3a9aa54e	0.0011798532
204	0xbcbbcffc	-0.022926323
205	0x3c05f854	0.008176882
206	0x3df82391	0.12116159
207	0x3dbe169c	0.09281656
208	0xbbacf8cb	-0.005278682
209	0x3e42e997	0.1903442
210	0xbe0cd3b6	-0.13752636
211	0x3aee2e8c	0.0018171831
212	0xbc47ffc2	-0.0122069735
213	0x3d0817aa	0.033225693
214	0x3d94ea7f	0.07271289
215	0xbd7a3944	-0.06108977
216	0xbd9b8667	-0.075939946
217	0xbd188ccb	-0.037243646
218	0x3e176a3b	0.14786617
219	0x3d192a56	0.03739389
220	0x3dc81896	0.097703144
221	0x390603f4	0.00012780708
222	0xbdcf2711	-0.10114873
223	0x3d0dfdc7	0.03466585
224	0x3d358acd	0.044321824
225	0xbd258ffc	-0.040420517
226	0x3dc71cfc	0.09722325
227	0x3de5f5e7	0.11228543
228	0x3e1bed71	0.15227295
229	0x3c763236	0.01502662
230	0xbd17914b	-0.037003797
231	0xbdfe7331	-0.12424315
232	0xbd82e6df	-0.063916914
233	0x3d8bef3b	0.06832739
234	0x3d3ee03b	0.04660056
235	0x3d6f4fd8	0.058425754
236	0xbe46bb64	-0.19407421
237	0xbd76c583	-0.060246956
238	0x3d74e834	0.05979176
239	0x3daad145	0.08340696
240	0xbd511732	-0.05104751
241	0x3c8774b5	0.016535142
242	0x3ca2a271	0.019852849
243	0xbe3bfc0b	-0.18357866
244	0x3ccd4969	0.025059419
245	0xbe4ab6dc	-0.19796318
246	0xbe09bdfe	-0.13451383
247	0x3dcee9f1	0.101032145
248	0xbdc07c5d	-0.093987204
249	0x3db93f64	0.09045294
250	0xbd6c6214	-0.057710722
251	0xbcd719e4	-0.026257463
252	0x3e364f61	0.17803718
253	0xbcec80df	-0.028870044
254	0xbdc93828	-0.09825164
255	0x3d4fd5f6	0.05074116

encoder.4.bias f4 [64]
0	0xb9aa4a19	-0.00032480134
1	0xba6380da	-0.0008678563
2	0xba585ca0	-0.00082535483
3	0xb8b243e3	-8.500346e-05
4	0xba33c0a0	-0.00068570115
5	0xb920e804	-0.00015345222
6	0xb9a0aad2	-0.0003064485
7	0xba0535bc	-0.00050815544
8	0xb74b1718	-1.210512e-05
9	0x389c63d8	7.457257e-05
10	0xb9b23412	-0.000339896
11	0x3724f0d8	9.831238e-06
12	0xb9c00015	-0.00036621155
13	0xb99d0615	-0.00029949905
14	0xba844bcd	-0.0010093391
15	0xb88fdf7c	-6.8603986e-05
16	0x3abbf985	0.001434133
17	0xbaab4acb	-0.0013068555
18	0xba1f2257	-0.00060704857
19	0xb959c324	-0.00020767428
20	0xb8f25e2e	-0.000115570016
21	0xb98b92b3	-0.00026621445
22	0xb910ff44	-0.00013828004
23	0x39ae6a0a	0.00033266871
24	0xb95906ca	-0.00020697262
25	0xbaca4721	-0.0015432575
26	0x396c9e7a	0.00022565751
27	0xb9291f11	-0.00016128669
28	0xbac59513	-0.0015074335
29	0xba93e7c0	-0.0011284277
30	0xba5d94be	-0.0008452645
31	0xbae26a3a	-0.001727409
32	0xb84a5146	-4.8236245e-05
33	0xbaa9e64e	-0.0012962313
34	0x3955a5ad	0.00020374982
35	0xba6ea5ba	-0.00091036747
36	0x3a911f4c	0.0011071949
37	0xbab595e4	-0.0013853875
38	0xbafc003c	-0.0019226144
39	0xbabfcc3d	-0.0014633011
40	0x3742b196	1.16046485e-05
41	0xbaec8bf6	-0.0018047083
42	0xbac22632	-0.0014812408
43	0xb882c3f8	-6.235385e-05
44	0x391ba29e	0.00014842532
45	0xbb07041e	-0.002060182
46	0xba32a33f	-0.00068144867
47	0x372cbf2a	1.0296508e-05
48	0x00000000	0.0
49	0x38148760	3.5412028e-05
50	0xbac286cc	-0.0014841198
51	0x395b0b4b	0.00020889674
52	0xb9c849bd	-0.00038201912
53	0xb821e67f	-3.8600057e-05
54	0xb9804a66	-0.00024469494
55	0x3ac04c75	0.0014671223
56	0xb7bef415	-2.2763425e-05
57	0xba07fa7a	-0.0005187165
58	0xb83ff63c	-4.5767272e-05
59	0x3a9c283c	0.0011913846
60	0xb9a821f2	-0.00032068748
61	0xba660352	-0.00087742985
62	0xba68a398	-0.0008874475
63	0xb9d6cf08	-0.0004097151

actor.0.weight f4 [64, 32, 3, 3]
0	0xbd147f45	-0.036254186
1	0xbd607ed2	-0.054808445
2	0x3b99e396	0.00469632
3	0x3c6eb2f0	0.014569029
4	0xba3364b4	-0.0006843314
5	0x3d9edc26	0.07756834
6	0x3c1c9371	0.009556637
7	0x3d0cd765	0.034385104
8	0x3b574e61	0.0032853114
9	0xbd819a39	-0.06328244
10	0x3bf70e1b	0.0075395233
11	0xbd3c7734	-0.04601212
12	0x3da29e08	0.07940298
13	0x3aba7cb5	0.001422784
14	0xbd9237cf	-0.07139551
15	0xbcb68002	-0.022277836
16	0xbde3e1c3	-0.11127045
17	0x3c4e4763	0.012590262
18	0xbca73bff	-0.02041435
19	0xbbbabed8	-0.00569902
20	0xbe0dab9c	-0.13834995
21	0xbc215778	-0.009847514
22	0xbd815f43	-0.06316998
23	0x3d71a22a	0.058992542
24	0x3dc879f4	0.09788886
25	0x3cadfc13	0.021238362
26	0xbd6c3e31	-0.057676498
27	0xbdcffd73	-0.101557635
28	0x3d50eb9b	0.05100594
29	0xbd2b7d04	-0.04186727
30	0x3e00d73d	0.12582107
31	0x3d7d0e5f	0.061781283
32	0xbd98be0d	-0.07458124
33	0xbd727d31	-0.059201423
34	0x3d11cd2e	0.035596065
35	0xbdca692a	-0.0988334
36	0xbd9870a2	-0.07443358
37	0xbde82fa4	-0.11337212
38	0xbe57a894	-0.21060401
39	0xbdc256bf	-0.09489202
40	0xbe082d18	-0.13298452
41	0x3db70f45	0.08938459
42	0x3d116630	0.035497844
43	0xbd26e1c8	-0.040742666
44	0xbd227ab1	-0.03966779
45	0xbd58629d	-0.05282842
46	0x3e478edd	0.19488092
47	0x3d2772b4	0.040880874
48	0xbd97dd2b	-0.07415231
49	0xbd9ae7d7	-0.07563751
50	0xbaaf1800	-0.0013358593
51	0xbdbd0d4c	-0.09231052
52	0x3d10efec	0.035385057
53	0xbdbdd9a0	-0.09270024
54	0xbd88833a	-0.066656545
55	0xbdea86b9	-0.114514776
56	0x3c36a5d8	0.011147939
57	0xbbe3ad2d	-0.0069481344
58	0xbdf7ef1f	-0.121061556
59	0x3d9e9ac4	0.07744363
60	0xbe0c1f70	-0.13683867
61	0x3b99db73	0.00469535
62	0xbca23b1a	-0.019803572
63	0xbd916817	-0.07099932
64	0xbce98e90	-0.028510362
65	0x3d9ea127	0.07745581
66	0x3d20ec9a	0.03928814
67	0xbdda65a0	-0.10663915
68	0xbd2401e6	-0.040040873
69	0x3d7bb24c	0.061449334
70	0x3da8fcb6	0.08251326
71	0x3c48926d	0.012241942
72	0xbe3653d2	-0.17805412
73	0x3d555400	0.05208206
74	0xbdf452ec	-0.119298786
75	0x3c8904d6	0.016725939
76	0xbe0c9e68	-0.13732302
77	0x3d98b674	0.07456675
78	0x3cecbae2	0.028897706
79	0x3c08fc73	0.00836097
80	0x3cc94baa	0.024572212
81	0x3da16481	0.07880498
82	0xbde2e033	-0.11077919
83	0xbe10a924	-0.14127022
84	0xbd86dbff	-0.0658493
85	0xbd4f6527	-0.050633576
86	0xbe3f3399	-0.18672027
87	0x3d7646db	0.060126167
88	0xbdf74b07	-0.12074857
89	0x3cf5aa05	0.029988298
90	0xbdbe00b8	-0.09277481
91	0x3d15448b	0.03644232
92	0x3d155d3c	0.03646587
93	0x3da120a9	0.078675576
94	0x3d881ccb	0.06646117
95	0x3ddd1abd	0.107961155
96	0x3e18549e	0.14876029
97	0xbe0df3c7	-0.13862525
98	0xbd317d29	-0.043332253
99	0xbdfc9819	-0.12333698
100	0x3da6f6b3	0.08152523
101	0x3d85e52a	0.0653785
102	0x3d8a5ba8	0.06755763
103	0x3bf5fae5	0.0075067156
104	0x3c9f37eb	0.019435843
105	0x3d336450	0.043796837
106	0xbdca285d	-0.0987098
107	0x3cbbda79	0.022931324
108	0x3cf5dc23	0.030012196
109	0xbcfaf848	-0.030635968
110	0x3d211165	0.03932323
111	0xbd14739e	-0.036243074
112	0x3de023db	0.10944339
113	0xbd8ae248	-0.06781441
114	0x3d8c7a9f	0.068593256
115	0x3bcd6b38	0.006268885
116	0x3d0d2685	0.034460563
117	0xbe1c23d6	-0.15248045
118	0x3cb02230	0.021500677
119	0x3d1a609a	0.037689783
120	0x3c93b5eb	0.018031081
121	0xbd3e3d07	-0.04644492
122	0xbcc9eeb3	-0.024649953
123	0x3d07d1a2	0.033158906
124	0x3e5b1f29	0.21398605
125	0x3dd03d32	0.10167922
126	0xbdf3d80b	-0.11906441
127	0xbdc172ca	-0.094457224
128	0xbe1257eb	-0.1429135
129	0xbda8d801	-0.082443245
130	0x3c675a1a	0.014120603
131	0x3e4cc2fd	0.19996257
132	0x3d8c4b55	0.06850306
133	0x3d813e1a	0.06310673
134	0xbd7ca655	-0.061682064
135	0xbd229351	-0.039691273
136	0x3d87ceb3	0.066312216
137	0x3dbba3c3	0.091620944
138	0x3e354ad5	0.17704327
139	0xbd299991	-0.041406218
140	0x3bdeb518	0.0067964904
141	0xbdf92354	-0.121649414
142	0xbccf8d88	-0.025336042
143	0xbe3636f2	-0.17794397
144	0x3ca0090d	0.019535566
145	0x3c738c97	0.014865062
146	0x3e38ca44	0.18045908
147	0xbd4891b1	-0.048967067
148	0x3e08e574	0.1336878
149	0x3db2f9f7	0.08739083
150	0x3cb33647	0.021876467
151	0xbd091c9e	-0.033474557
152	0x3d24bf73	0.040221643
153	0xbe9942c7	-0.2993376
154	0x3d6c67b5	0.05771609
155	0xbe1af6ed	-0.15133257
156	0x3d905c06	0.07048802
157	0x3e06a725	0.13149698
158	0x3bcd1761	0.0062588905
159	0xbccc0a82	-0.024907354
160	0xbcac620e	-0.02104285
161	0x3ddc0aec	0.10744271
162	0x3d78ebe3	0.060771834
163	0xbd265d67	-0.04061642
164	0xbd8ed56f	-0.06974303
165	0x3bc71ad1	0.006076195
166	0xbda5bd80	-0.08092785
167	0x3dc382ed	0.095464565
168	0x3d7eeaaf	0.06223553
169	0xbe1dc6a5	-0.15407808
170	0x3d1323f4	0.03592296
171	0xbde829cd	-0.11336098
172	0xbd719af4	-0.058985665
173	0x3c20e27e	0.009819625
174	0xbd93ddc1	-0.072200306
175	0x3e1998e8	0.14999735
176	0x3d4696c8	0.04848364
177	0x3d8cb63f	0.06870698
178	0x3e0e7b0f	0.1391413
179	0x3d31174d	0.043235112
180	0xbd8fd8bd	-0.070237614
181	0xbd45f18d	-0.048326064
182	0xbdd5a96f	-0.104327075
183	0x3cfd2781	0.030902626
184	0xbd67dbbd	-0.056606043
185	0xbc605a32	-0.013693379
186	0xbdc23ff2	-0.09484853
187	0xbd98ca8d	-0.074605085
188	0xbcab088c	-0.020878099
189	0xbdca8b77	-0.09889882
190	0x3d92859a	0.07154389
191	0x3d86a66b	0.065747105
192	0x3d932c38	0.071861684
193	0x3e09460a	0.13405624
194	0x3d799c55	0.060940105
195	0x3ce470f2	0.027885888
196	0xbdadf1fe	-0.08493422
197	0xbdafdf09	-0.085874625
198	0x3da06ce7	0.078332715
199	0xbc9481b5	-0.018128255
200	0x3c758e7d	0.014987585
201	0x3c84760f	0.016169576
202	0x3c7807f6	0.015138617
203	0xbdb26fd7	-0.08712738
204	0xbd893339	-0.06699223
205	0xbddd54f8	-0.10807222
206	0x3dc81442	0.09769489
207	0xbdb95093	-0.090485714
208	0xbcbffdbf	-0.023436425
209	0x3c8f635a	0.01750343
210	0xbdb65e28	-0.08904678
211	0x3d953c39	0.07286877
212	0x3c27df22	0.01024607
213	0x3d327e8e	0.043577723
214	0xbdcbb02e	-0.09945713
215	0x3d8a2ad8	0.06746453
216	0x3d37e867	0.04489937
217	0x3cd45591	0.025919707
218	0xbbdb9f50	-0.006702341
219	0x3cddd448	0.027078763
220	0xbdad42c7	-0.084600024
221	0xbb1b6569	-0.0023711568
222	0xbda29e46	-0.079403445
223	0x3dea7a3a	0.11449094
224	0x3d088f17	0.033339586
225	0xbdaf0d0a	-0.08547409
226	0x3dfbe23a	0.12299009
227	0x3d014d54	0.031567886
228	0xbd9994a1	-0.07499052
229	0x3e5c1a83	0.21494488
230	0x3e019ea6	0.12658176
231	0x3e05cd1e	0.13066527
232	0x3ce9c988	0.02853848
233	0xbd89107d	-0.06692598
234	0x3d44e213	0.048067164
235	0xbce92da8	-0.028464153
236	0x3d0ae912	0.03391368
237	0xbbed3c8a	-0.007239883
238	0xbe06462e	-0.13112709
239	0x3d18120a	0.03712658
240	0xbd6629ed	-0.056192327
241	0xbc3fcf72	-0.011707174
242	0xbd58f6d5	-0.052969772
243	0x3d933392	0.07187571
244	0x3dc1afac	0.09457335
245	0x3ccbf37a	0.024896372
246	0xbcf07581	-0.029352905
247	0xbde11ed4	-0.10992208
248	0x3deea826	0.116531655
249	0x3c756c6b	0.014979462
250	0xbd1db221	-0.038499955
251	0x3dddcc6e	0.108300075
252	0x3e0a2d6d	0.13493891
253	0x3bf6b847	0.007529292
254	0x3da5ab55	0.080893196
255	0xbc09e833	-0.008417177

actor.0.bias f4 [32]
0	0xba16e770	-0.0005756533
1	0xba8216ef	-0.0009925048
2	0x3a69c616	0.0008917762
3	0x3a246593	0.0006271239
4	0xba459bc2	-0.00075381633
5	0xba9005b4	-0.0010988028
6	0x3b24a6d8	0.002512386
7	0xb9e23645	-0.00043146513
8	0xbaab44f6	-0.0013066817
9	0xba17b4f0	-0.00057871547
10	0x3ad96d96	0.0016588445
11	0xba5c386d	-0.0008400742
12	0xba8a992b	-0.0010574212
13	0xba9b8a81	-0.0011866839
14	0x3af04331	0.0018330571
15	0x386df412	5.673251e-05
16	0x396eed04	0.00022785744
17	0x3a6a5d15	0.0008940262
18	0xbab6f944	-0.0013959785
19	0x3ae0aeb4	0.0017141909
20	0xb9fc639b	-0.00048139397
21	0xb9f4a5a2	-0.00046662713
22	0xbac07638	-0.001468367
23	0xba2afc07	-0.00065225404
24	0x3ad9deb8	0.0016622161
25	0x3a75c568	0.0009375424
26	0x3aa50e6c	0.0012592799
27	0x3a3acbc3	0.00071257
28	0xbaaa7465	-0.0013004659
29	0xbb1380ce	-0.0022507193
30	0x3a82d0c6	0.0009980432
31	0x3b21ddf0	0.0024698935

actor.2.weight f4 [32, 78, 3, 3]
0	0x3dae5668	0.085125744
1	0xbd8bace6	-0.06820087
2	0xbc9e6308	-0.019334331
3	0xbd948103	-0.072511695
4	0xbc2c6caf	-0.010523959
5	0x3c036053	0.008018571
6	0x3d916eec	0.07101235
7	0xbc9050f4	-0.017616726
8	0x3affe8e7	0.0019524366
9	0xbe0275cf	-0.12740253
10	0x3c24f298	0.0100676045
11	0xbd1ee8bc	-0.03879617
12	0x3bcbf521	0.00622429
13	0xbcb539ae	-0.02212223
14	0x3e0b14f1	0.13582207
15	0xbce07594	-0.027399816
16	0x3ccce415	0.025011102
17	0xbc23b502	-0.009991886
18	0x3d66b835	0.056328017
19	0xbe1fe52b	-0.15614764
20	0x3cb98ce2	0.022650186
21	0xbd79790f	-0.060906466
22	0xbc711cf5	-0.014716377
23	0x3dba033c	0.09082648
24	0x3dbb2d30	0.09139478
25	0x3e10e586	0.14150056
26	0x3d0b5ee3	0.034026038
27	0xbdbcd73a	-0.09220739
28	0x3d222dfe	0.039594643
29	0x3d9a1226	0.07522993
30	0x3c8a845a	0.016908813
31	0xbdb52ede	-0.0884683
32	0xbd3691e0	-0.04457271
33	0x3cc411f8	0.02393435
34	0x3ced18ab	0.028942427
35	0x3cb29234	0.02179823
36	0x3d13a035	0.036041457
37	0xbd12efcf	-0.03587323
38	0xbd3e1920	-0.04641068
39	0x3d1a56e4	0.03768052
40	0xbc97bf69	-0.018523889
41	0xbca40ed8	-0.02002661
42	0xbcfbb414	-0.030725516
43	0x3cd66600	0.026171684
44	0xbd7f6f28	-0.062361866
45	0x3d0459ca	0.032312192
46	0x3dc1f48b	0.09470471
47	0xbdc1360e	-0.09434138
48	0xbdf103ef	-0.117683284
49	0xbd851ae2	-0.06499268
50	0x3d3a638e	0.0455051
51	0xbd8a6dde	-0.06759237
52	0xbda34eb5	-0.079739965
53	0xbc0652d0	-0.008198455
54	0xbb720c45	-0.0036933583
55	0xbc3d7d46	-0.011565512
56	0x3d1cc413	0.03827293
57	0xbdcfa0b9	-0.10138077
58	0x3c2843c0	0.010270059
59	0xbbedc4d5	-0.00725613
60	0x3d04192a	0.03225056
61	0xbd04b23f	-0.03239655
62	0x3d814f82	0.06313993
63	0xbd854b7f	-0.0650854
64	0xbd2730d3	-0.040818047
65	0x3b9fd921	0.0048781787
66	0x3d10d73e	0.03536152
67	0x3d92a4e5	0.071603574
68	0x3d987eba	0.07446046
69	0xbd959773	-0.07304277
70	0x3dbf04e5	0.093271054
71	0xbda58bac	-0.08083281
72	0xbd76df9f	-0.060271855
73	0x3b4eae5c	0.0031537032
74	0xbc3c1e62	-0.011481853
75	0xbd9a9823	-0.07548549
76	0xbdc4ce6c	-0.09609684
77	0xbd64f0df	-0.055893775
78	0x3d179540	0.03700757
79	0x3c99cdee	0.018774953
80	0xbc34dc52	-0.011038857
81	0x3d137110	0.035996497
82	0x3b8ea237	0.0043528336
83	0xbcf92583	-0.030413395
84	0xbcdc2724	-0.026874132
85	0x3d8491d6	0.064731285
86	0xbc96ff88	-0.018432394
87	0xbd949c15	-0.07256333
88	0xbd6feb3b	-0.058573943
89	0xbc8fd371	-0.017556878
90	0xbc901e6f	-0.017592637
91	0x3d7fe4f3	0.062474202
92	0x3df6874a	0.12037523
93	0x3d1ae21b	0.037813287
94	0x3ccb5d99	0.024824904
95	0x3d55c113	0.052186083
96	0x3cf121e0	0.029435098
97	0xbd944381	-0.07239438
98	0xbc9f9a6f	-0.01948282
99	0x3dda243e	0.10651444
100	0x3d14d6ab	0.036337536
101	0xbd6d1a35	-0.05788632
102	0x3d17bde5	0.037046332
103	0x3c5a3fed	0.013320905
104	0xbd9192e7	-0.071080975
105	0x3db87ddf	0.09008383
106	0x3d1695ca	0.036763944
107	0xbd1c88ab	-0.038216274
108	0xbd28e66b	-0.04123537
109	0xbd4815ce	-0.04884892
110	0x3ddcdacb	0.10783919
111	0xbc8514a6	-0.016245198
112	0xbd03c357	-0.032168712
113	0xbd65cc8e	-0.05610328
114	0x3ddb4373	0.10706224
115	0x3d016def	0.03159898
116	0xbbc3110f	-0.0059529613
117	0x3d27462d	0.04083841
118	0x3d6a98a2	0.05727447
119	0xbd303463	-0.04301871
120	0xbcbdff9c	-0.023193173
121	0x3cda4e37	0.026648624
122	0xbd3ea821	-0.04654706
123	0x3df6e600	0.12055588
124	0xbcfb4e6e	-0.030677047
125	0x3cd5080d	0.026004815
126	0xbd137ee6	-0.03600969
127	0x3d2d728f	0.04234558
128	0xbdea91cf	-0.11453592
129	0x3d1eedd2	0.038801022
130	0xbcb28984	-0.021794088
131	0xbc1e2e91	-0.009654657
132	0x3bd2dc99	0.0064349887
133	0x3cc34ac9	0.023839371
134	0x3cbf2f16	0.023337882
135	0x3dbb8356	0.0915591
136	0x3d029e3a	0.031889178
137	0x3cd3936b	0.02582713
138	0xbd21023f	-0.039308783
139	0x3c8dddb4	0.01731763
140	0x3c16f7f8	0.009214394
141	0xbc383ce6	-0.011244988
142	0x3c8d4d13	0.017248666
143	0x3cb0ac09	0.021566408
144	0xbc26797b	-0.010160799
145	0xbd5ceb73	-0.05393548
146	0xbd5d57ee	-0.054038934
147	0x3d7b479c	0.06134759
148	0x3d043803	0.03227998
149	0xbd097f81	-0.033568863
150	0x3d9b84c5	0.07593683
151	0x3aee1bab	0.0018166205
152	0xbd1afbc5	-0.037837762
153	0xbdd87425	-0.10569028
154	0xbb8773b3	-0.0041336655
155	0xbc19ad0f	-0.009379639
156	0xbd8c244c	-0.068428606
157	0xbbf0f2b1	-0.00735315
158	0x3c78a9c3	0.015177193
159	0x3d762910	0.060097754
160	0x3d532e84	0.051558033
161	0x3cf83984	0.030300863
162	0xbdec278b	-0.1153098
163	0xbca4a3e3	-0.020097679
164	0x3cf5b8d4	0.02999536
165	0xbc3db7c6	-0.0115794595
166	0x3da6a029	0.08136017
167	0xbca3f227	-0.020012928
168	0x3d8762c4	0.06610635
169	0x3d0d42c4	0.0344875
170	0xbd3bde1c	-0.045866117
171	0xbcc79c7b	-0.024366608
172	0x3d96ea16	0.07368867
173	0x3dcfe729	0.10151512
174	0x3c2bb1f8	0.010479443
175	0x3d2448b8	0.040108413
176	0x3d34e040	0.044159174
177	0xbced2428	-0.028947905
178	0x3d5daf74	0.054122403
179	0xbd518de2	-0.0511607
180	0xbd207e0f	-0.03918272
181	0x3cc6eab4	0.024281837
182	0x3d525a40	0.0513556
183	0x3c090e23	0.008365187
184	0x3cbca66f	0.02302858
185	0x3de27966	0.11058311
186	0xbcf9cd4b	-0.0304934
187	0xbbf3c2dd	-0.007439001
188	0xbd58e2d0	-0.05295068
189	0xbd9f5cac	-0.07781348
190	0xbd78673d	-0.06064533
191	0xbd250b27	-0.04029384
192	0x3d8102ff	0.062993996
193	0xbe191c4a	-0.14952198
194	0x3d5b3f15	0.053526957
195	0xbc126896	-0.008936068
196	0x3c29d765	0.010366295
197	0xbb8b4c2f	-0.004251025
198	0xbd64c1fc	-0.05584906
199	0xbc428aca	-0.01187391
200	0x3dcf569f	0.101239435
201	0x3bb34788	0.0054711737
202	0x3cded4fd	0.02720117
203	0xbd62cc46	-0.05537059
204	0x3d07045f	0.032963153
205	0x3caebbdf	0.021329818
206	0x3d547fd7	0.05187973
207	0xbc560631	-0.013063
208	0x3d8d4d6a	0.06899531
209	0xbd498e5f	-0.04920804
210	0xbc29df46	-0.010368174
211	0x3bcd31db	0.0062620468
212	0x3ca071fa	0.019585598
213	0x3cfafb2b	0.030637344
214	0x3cbc49d2	0.022984419
215	0x3d9f36b9	0.077741094
216	0x3cebc185	0.0287788
217	0xbcca6ac6	-0.024709117
218	0x3d6fa1c7	0.058503892
219	0xbd2d613b	-0.042329054
220	0xbcd1e1a0	-0.025620282
221	0xbd841a62	-0.064503446
222	0x3c66081b	0.014040018
223	0xbc87462e	-0.016512956
224	0x3c1f6cce	0.009730531
225	0xbd2a3394	-0.041553095
226	0x3d0996f6	0.033591233
227	0xbc7f5b20	-0.015585691
228	0x3cc37e7e	0.023864027
229	0xbb227775	-0.002479044
230	0xbc1ae45a	-0.009453857
231	0x3d41007d	0.047119606
232	0xbc20c5ae	-0.0098127555
233	0xbc8622a7	-0.016373945
234	0xbb900804	-0.004395487
235	0xbd9e033c	-0.07715461
236	0xbd494149	-0.049134526
237	0x3db93851	0.090439446
238	0x3d575097	0.05256709
239	0xbc1b58bf	-0.009481608
240	0x3cd3d82f	0.02585992
241	0x3d2eaa5c	0.042642936
242	0xbaee671a	-0.0018188686
243	0xbd46bfc3	-0.048522722
244	0xbda4e0e3	-0.08050706
245	0xbc037111	-0.008022563
246	0xbd61b93e	-0.0551083
247	0xbd84f500	-0.064920425
248	0xbd8cdf85	-0.068785705
249	0x3d37fccc	0.04491882
250	0xbcb73555	-0.022364298
251	0xbca972fb	-0.02068471
252	0x3d591205	0.0529957
253	0xbcbc3cbb	-0.022978177
254	0xbd1ca2c8	-0.038241178
255	0xbc79fc10	-0.01525785

actor.2.bias f4 [78]
0	0x38fba8a6	0.00012000026
1	0xb98f2734	-0.00027304294
2	0xbada29a2	-0.0016644488
3	0xbaab22ae	-0.00130566
4	0x3ac04515	0.0014669026
5	0x3aa7dbdb	0.0012806611
6	0xb891d0c1	-6.953022e-05
7	0xbb27eea9	-0.002562443
8	0x3accbcb7	0.0015620206
9	0xb9c037c8	-0.00036662654
10	0x00000000	0.0
11	0x00000000	0.0
12	0x00000000	0.0
13	0x00000000	0.0
14	0x00000000	0.0
15	0x00000000	0.0
16	0x00000000	0.0
17	0x00000000	0.0
18	0xba870d9c	-0.0010303739
19	0xba8163ba	-0.000987164
20	0x3a896cfb	0.0010484749
21	0x3aba5ec5	0.0014218917
22	0x00000000	0.0
23	0x00000000	0.0
24	0x00000000	0.0
25	0x00000000	0.0
26	0x00000000	0.0
27	0x00000000	0.0
28	0x00000000	0.0
29	0x00000000	0.0
30	0x00000000	0.0
31	0x00000000	0.0
32	0x00000000	0.0
33	0x00000000	0.0
34	0x00000000	0.0
35	0x00000000	0.0
36	0x00000000	0.0
37	0x00000000	0.0
38	0x00000000	0.0
39	0x00000000	0.0
40	0x00000000	0.0
41	0x00000000	0.0
42	0x00000000	0.0
43	0x00000000	0.0
44	0x00000000	0.0
45	0x00000000	0.0
46	0x3a8885b7	0.0010415827
47	0x00000000	0.0
48	0x00000000	0.0
49	0x00000000	0.0
50	0x00000000	0.0
51	0x00000000	0.0
52	0x3a0d8a83	0.0005399363
53	0x00000000	0.0
54	0x3a28f660	0.0006445404
55	0x00000000	0.0
56	0x00000000	0.0
57	0x00000000	0.0
58	0x00000000	0.0
59	0x00000000	0.0
60	0xbadc2125	-0.0016794546
61	0x00000000	0.0
62	0x00000000	0.0
63	0x00000000	0.0
64	0x00000000	0.0
65	0x00000000	0.0
66	0x00000000	0.0
67	0x00000000	0.0
68	0x00000000	0.0
69	0x00000000	0.0
70	0x00000000	0.0
71	0x00000000	0.0
72	0x00000000	0.0
73	0x00000000	0.0
74	0x00000000	0.0
75	0x00000000	0.0
76	0x00000000	0.0
77	0x00000000	0.0

critic.1.weight f4 [128, 1024]
0	0xbd282f9b	-0.041061025
1	0xbb508b5e	-0.003182135
2	0x3d64ac70	0.05582851
3	0x3c75ff34	0.015014458
4	0x3d8b1d22	0.06792666
5	0x3b17249b	0.002306259
6	0xbbf2c37f	-0.007408559
7	0xbd29a4cf	-0.04141694
8	0x3cc4a5ac	0.02400478
9	0xbc99a1a7	-0.01875384
10	0x3d269fc6	0.040679716
11	0xbc849b32	-0.016187284
12	0xbc3c78f5	-0.011503448
13	0xbb77f52e	-0.0037835347
14	0xbca1b588	-0.019739881
15	0xbd99c08d	-0.07507429
16	0x3d252bb8	0.040324897
17	0xbd2ca3e6	-0.042148493
18	0xbdc20324	-0.09473255
19	0xbc995fa2	-0.01872236
20	0x3d54f011	0.051986758
21	0x3d5a7ee5	0.053343672
22	0x3c8cf193	0.017205035
23	0xbd88fe6a	-0.06689151
24	0x3d168144	0.03674437
25	0xbd89b906	-0.067247435
26	0x3daa70f5	0.08322326
27	0xbc45699a	-0.012049103
28	0xbd2e782f	-0.042595085
29	0x3d149d7f	0.036283012
30	0x3d2d8d8a	0.04237131
31	0xbba1995f	-0.0049316133
32	0xbcc825a0	-0.024432003
33	0xbbd881c1	-0.0066072647
34	0x3d3c19c2	0.045923002
35	0x3c458aee	0.012057049
36	0x3ca681f7	0.020325644
37	0xbd8aa658	-0.06770009
38	0xbc0565a2	-0.008141907
39	0xbd6ef55d	-0.058339465
40	0x3b3854e3	0.0028126768
41	0x3de232fe	0.11044882
42	0xbd1ee4f5	-0.03879257
43	0xbd03772b	-0.03209607
44	0xbd6578f8	-0.056023568
45	0xbda7d019	-0.08193988
46	0xbd66022c	-0.056154415
47	0xbd261d18	-0.04055509
48	0x3d21461e	0.03937351
49	0x3dcd97e1	0.10038734
50	0xbb9be365	-0.004757332
51	0x3ca86563	0.020556157
52	0xbd98f457	-0.07468479
53	0xbd312190	-0.0432449
54	0x3d2e8e17	0.042615976
55	0xbd177b12	-0.036982603
56	0xbcaded28	-0.021231249
57	0xbdc98c8b	-0.098412596
58	0xbd037900	-0.032097816
59	0xbcab72f4	-0.020928837
60	0xbd1cd8d2	-0.038292713
61	0x3cf5ded6	0.030013483
62	0xbd94bd2e	-0.07262646
63	0x3d35d086	0.044388317
64	0x3c49f234	0.012325812
65	0x3de0bdb5	0.10973684
66	0x3d374586	0.044744037
67	0x3d79b672	0.06096501
68	0xbd2205fb	-0.039556485
69	0xbbbf754e	-0.005842841
70	0xbd10a722	-0.03531564
71	0x3da877c6	0.0822597
72	0x3d71e59c	0.059056863
73	0xbafae372	-0.001914127
74	0x3d4b7a30	0.049677074
75	0x3c167d24	0.009185109
76	0x3d02a491	0.031895224
77	0xbdeef2df	-0.11667418
78	0xbd508ff0	-0.05091852
79	0xbd5b9c2a	-0.053615727
80	0xbb63af71	-0.0034742022
81	0x3d654f5c	0.055983886
82	0x3c8e55bc	0.017374866
83	0xbd0d4d78	-0.034497708
84	0x3c96e255	0.01841847
85	0xbcec6c8a	-0.02886035
86	0x3d257341	0.040393118
87	0xbc351f14	-0.011054773
88	0x3b452fc6	0.003008829
89	0x3dc693db	0.0969617
90	0xbd2950f5	-0.041336972
91	0x3b05a2f6	0.0020391322
92	0xbc5acc5b	-0.013354386
93	0x3d02fb74	0.031978086
94	0x3d28c3dd	0.041202415
95	0x3d9452d7	0.07242363
96	0xbd9a1cc0	-0.07525015
97	0xbd8efa44	-0.06981328
98	0x3d633197	0.055467214
99	0xbb293785	-0.0025820446
100	0xbc612577	-0.0137418425
101	0xbae40f14	-0.0017399513
102	0x3c8b5ac6	0.017011058
103	0xbce69576	-0.02814744
104	0xbd99c396	-0.07508008
105	0xbd32fb89	-0.043696914
106	0xbd3f5cc6	-0.046719335
107	0xbb937364	-0.0044998396
108	0x3d6ceb8a	0.057841815
109	0xbcae6d14	-0.021292247
110	0xbd273854	-0.040825203
111	0x3dd6d7b7	0.10490363
112	0xbd0406c0	-0.032233
113	0xbd6d4436	-0.05792638
114	0xbd10e9af	-0.035379108
115	0x3bc4e6b4	0.0060089473
116	0x3d79cb16	0.060984693
117	0x3d12f7fd	0.03588103
118	0x3d3f337b	0.046679955
119	0xbdb19c4f	-0.086723916
120	0xbd7f9751	-0.062400166
121	0x3cf87f75	0.030334214
122	0x3d47d1f2	0.048784204
123	0x3cdd7f8d	0.02703836
124	0x3c712c08	0.0147199705
125	0x3d3e2921	0.046425942
126	0x3cfadfb2	0.030624244
127	0x3da176e1	0.078840025
128	0xbd4c1f46	-0.049834512
129	0xbd09d0e6	-0.033646487
130	0x3d8f4097	0.069947414
131	0xbb78e94b	-0.003798085
132	0x3c221ffa	0.009895319
133	0xbbd2768b	-0.006422823
134	0x3c8397e2	0.016063634
135	0x3b5abb72	0.0033375886
136	0xbd0ee246	-0.03488376
137	0x3c200425	0.009766613
138	0xbccfc0ca	-0.025360484
139	0x3cc93c8b	0.024565002
140	0x3d9ee478	0.07758421
141	0xbd7a4956	-0.061105095
142	0xbd9167ae	-0.070998535
143	0x3c6ea98e	0.014566792
144	0xbc3a6f06	-0.011379009
145	0xbd6196c0	-0.055075407
146	0x3d4d4432	0.050113864
147	0x3bcba804	0.0062150974
148	0x3d1a9875	0.03774305
149	0x3d933417	0.0718767
150	0xbdaf59a6	-0.08562021
151	0xbc59de21	-0.013297589
152	0xbd063b07	-0.032771137
153	0xbc7c5afa	-0.01540255
154	0xbc09df81	-0.008415104
155	0x3c95ec55	0.018301168
156	0x3d0eeec0	0.03489566
157	0xbd1c793e	-0.038201563
158	0xbac4d237	-0.0015016262
159	0xbc37f741	-0.0112283835
160	0x3d8d188d	0.06889448
161	0x3c95c7d3	0.01828376
162	0xbcb80e06	-0.022467624
163	0x3dba511b	0.09097501
164	0xbc375426	-0.011189496
165	0xbd0f0d1f	-0.034924623
166	0xbc74d1e1	-0.014942617
167	0x3d3645ac	0.044500038
168	0xbbc1e882	-0.0059176097
169	0x3d33fb3e	0.043940775
170	0xbd9fb543	-0.07798245
171	0x3cde0da5	0.027106116
172	0x3c692257	0.014229379
173	0xbd13c81f	-0.036079522
174	0xbcdce686	-0.02696539
175	0xbc1a0932	-0.009401606
176	0x3db12463	0.08649518
177	0x3d53712e	0.05162161
178	0xbd6bbeb1	-0.057554904
179	0x3d43672f	0.047705825
180	0x3d24314a	0.04008607
181	0xbd4c2e16	-0.04984864
182	0xbd710dc5	-0.058851022
183	0xbd3bc39f	-0.045840856
184	0x3d20d306	0.039263748
185	0x3cf13333	0.029443359
186	0x3d9c9277	0.076451235
187	0xbd8484e1	-0.06470657
188	0x3d83b75e	0.06431459
189	0x3d8ebdcc	0.06969795
190	0xbd0ecfce	-0.034866147
191	0xbd8f3e88	-0.06994349
192	0x3d58eb1c	0.052958593
193	0x3dc87b6e	0.09789167
194	0x3c707d72	0.014678346
195	0x3d0fb4de	0.035084598
196	0xbc894e46	-0.016760956
197	0xbd994c5c	-0.074852675
198	0xbca6c3df	-0.02035707
199	0x3c7a1dea	0.015265921
200	0x3e088ca0	0.13334894
201	0x3c5425e9	0.012948492
202	0x3cd4d125	0.025978634
203	0x3dd25e76	0.10271923
204	0x3d08123c	0.033220515
205	0x3d03599c	0.03206788
206	0x3cb37b42	0.02190936
207	0x3d5f8652	0.054571457
208	0x3c190832	0.009340333
209	0x3b121025	0.0022287455
210	0xbdd5f0d5	-0.10446326
211	0x3b4826bf	0.0030540673
212	0x3d60f52a	0.054921307
213	0x3d8bf4cb	0.068338
214	0x3d449868	0.04799691
215	0xbd9b0c72	-0.07570733
216	0x3c97783a	0.018489946
217	0x3b5aee21	0.0033406096
218	0xbbf88617	-0.007584344
219	0xbd213c98	-0.039364427
220	0x3d902f21	0.07040239
221	0xbba0b806	-0.00490475
222	0xba388b0a	-0.00070397614
223	0xbc747184	-0.014919642
224	0x3c2a4c52	0.010394173
225	0x3d4a7848	0.049431115
226	0x3d46cf44	0.048537508
227	0x3dd39b40	0.10332346
228	0x3c1b468f	0.009477272
229	0x3c814d98	0.01578407
230	0xbb8b2d56	-0.004247348
231	0x3cecf571	0.02892563
232	0xbb9f0b9c	-0.004853679
233	0xbce9e2fb	-0.028550616
234	0x3c686154	0.014183361
235	0xbc2229eb	-0.009897689
236	0xbd0a798c	-0.033807322
237	0x3d096f7d	0.03355359
238	0x3cc506e4	0.024051137
239	0xbce3ad49	-0.02779259
240	0xbc98a885	-0.018635044
241	0x3cffef82	0.031242136
242	0x3de18e91	0.110135205
243	0x3cb2cccb	0.021826169
244	0xbd5403fe	-0.05176162
245	0xbd889b1e	-0.06670211
246	0x3d42a58d	0.047521163
247	0xbdb08640	-0.08619356
248	0x3cdeb7d1	0.02718726
249	0x3d09ac1a	0.033611394
250	0xbd50b104	-0.050950065
251	0x3be52eb2	0.006994092
252	0xbd316577	-0.043309655
253	0x3c62d83e	0.0138455015
254	0x3cf1a5d5	0.02949802
255	0xbbfba4e5	-0.007679569

critic.1.bias f4 [128]
0	0x3a2ada46	0.00065175106
1	0x00000000	0.0
2	0x362ab470	2.5437002e-06
3	0xb942e08a	-0.00018584929
4	0x3a6a4c06	0.000893772
5	0xb8856c7f	-6.362143e-05
6	0x00000000	0.0
7	0x00000000	0.0
8	0x00000000	0.0
9	0xb881794e	-6.173794e-05
10	0xb8881c00	-6.490201e-05
11	0x00000000	0.0
12	0x00000000	0.0
13	0x385a4032	5.2035037e-05
14	0xba880618	-0.0010377793
15	0x00000000	0.0
16	0x00000000	0.0
17	0x3a03d528	0.0005029016
18	0xba21614f	-0.00061561627
19	0x386b3548	5.6077988e-05
20	0x384551ca	4.7044632e-05
21	0x00000000	0.0
22	0xba624537	-0.00086315296
23	0x00000000	0.0
24	0xb918fb29	-0.00014589414
25	0xb994159d	-0.00028244863
26	0x00000000	0.0
27	0xb88f7cec	-6.84204e-05
28	0x00000000	0.0
29	0xba722d8e	-0.00092383556
30	0xb8b50611	-8.6318825e-05
31	0x00000000	0.0
32	0xb88f0ccc	-6.821155e-05
33	0x37d9f186	2.5980884e-05
34	0xb8765eb7	-5.873918e-05
35	0x00000000	0.0
36	0xb8819f2a	-6.180846e-05
37	0xb97e05d6	-0.00024225502
38	0x3842499c	4.632176e-05
39	0xba14fcc3	-0.00056834164
40	0x00000000	0.0
41	0xba312fb6	-0.00067591236
42	0xb883e020	-6.288313e-05
43	0xb9ce5310	-0.00039353268
44	0xb882ba4a	-6.233582e-05
45	0x00000000	0.0
46	0xb8846104	-6.312321e-05
47	0xb8833979	-6.257272e-05
48	0xb8c0c3da	-9.1917536e-05
49	0xb7eef8b2	-2.8487619e-05
50	0xba829e5a	-0.0009965405
51	0xba7c48e3	-0.0009623898
52	0x00000000	0.0
53	0xb7eba8d5	-2.8092802e-05
54	0xb8811304	-6.154741e-05
55	0xb8844d74	-6.308677e-05
56	0xba2f2da0	-0.0006682519
57	0x385fdc88	5.337273e-05
58	0xba40b609	-0.0007351344
59	0xb8997f2e	-7.3192976e-05
60	0xb887fa48	-6.48392e-05
61	0xb8dae9dd	-0.000104386105
62	0xb9aff89a	-0.00033563824
63	0xba43e904	-0.00074733817
64	0x3796be06	1.796988e-05
65	0x38729951	5.7840083e-05
66	0x386e04d1	5.6748107e-05
67	0xb908fed9	-0.00013064909
68	0xb9ddfb0a	-0.00042339443
69	0xba4ae135	-0.0007739247
70	0x387224c6	5.7731544e-05
71	0x3836a26a	4.354344e-05
72	0xb894a9fc	-7.088852e-05
73	0x00000000	0.0
74	0xb89cd05c	-7.4774696e-05
75	0x3869dbe4	5.5756318e-05
76	0x00000000	0.0
77	0x00000000	0.0
78	0x36c58799	5.886843e-06
79	0x00000000	0.0
80	0x00000000	0.0
81	0xba04a525	-0.0005060009
82	0xb98a042d	-0.00026324522
83	0x00000000	0.0
84	0x00000000	0.0
85	0x00000000	0.0
86	0x375e48c4	1.3249173e-05
87	0x00000000	0.0
88	0x386adc0b	5.599488e-05
89	0x386a8afd	5.591939e-05
90	0x374e36ec	1.2291344e-05
91	0xba55cb90	-0.00081556384
92	0xb888201a	-6.490965e-05
93	0x00000000	0.0
94	0xb88ce517	-6.7183915e-05
95	0x00000000	0.0
96	0x00000000	0.0
97	0x385ebdf2	5.3105825e-05
98	0x38498893	4.804933e-05
99	0x00000000	0.0
100	0xb9ff7606	-0.00048725324
101	0x3857bb62	5.143451e-05
102	0x00000000	0.0
103	0xb891d634	-6.954037e-05
104	0xb8b53cce	-8.642078e-05
105	0x3812c4bc	3.4992336e-05
106	0x00000000	0.0
107	0xb88dfb2a	-6.770187e-05
108	0xba16f3e4	-0.00057583884
109	0x00000000	0.0
110	0xb893050c	-7.010446e-05
111	0x38617d68	5.3760974e-05
112	0x3836f38d	4.3619006e-05
113	0xb97f3a07	-0.00024340312
114	0x00000000	0.0
115	0xb9e7a1d9	-0.0004418034
116	0x39833ea6	0.00025032944
117	0xb91cb7ef	-0.0001494584
118	0x38604308	5.346819e-05
119	0x381f5fa6	3.7997634e-05
120	0xb904f7ba	-0.00012680786
121	0xb88aa206	-6.610532e-05
122	0x384ba967	4.855674e-05
123	0x3850d81b	4.979233e-05
124	0x00000000	0.0
125	0x00000000	0.0
126	0xb9f22df3	-0.00046192072
127	0xb8925cef	-6.979133e-05

critic.3.weight f4 [1, 128]
0	0x3d8e461f	0.06946968
1	0x3d34acfc	0.044110283
2	0x3d8f3122	0.06991793
3	0x3d89366b	0.066998325
4	0x3d74058e	0.05957561
5	0xbdc9e28b	-0.09857663
6	0xba08836a	-0.00052075705
7	0xbd5d53a3	-0.05403484
8	0x3d869c82	0.0657282
9	0xbe1533d0	-0.14570546
10	0xbd8d895c	-0.06910965
11	0xbe4343f1	-0.19068886
12	0x3e16b4d4	0.14717418
13	0x3d6c0baf	0.05762833
14	0x3e1263a8	0.14295828
15	0xbdcce33e	-0.100042805
16	0xbe0f0c6f	-0.13969587
17	0x3d61e3cc	0.055148885
18	0xbc8cf44a	-0.01720633
19	0x3db2e577	0.08735173
20	0x3ce6b209	0.028161066
21	0x3c21f061	0.009883971
22	0xbd7ca714	-0.061682776
23	0x3b9f1b4d	0.0048555494
24	0x3d1d10a5	0.03834595
25	0x3d0e452a	0.03473393
26	0x3d830bb2	0.06398715
27	0xbd1eafb0	-0.038741767
28	0x3d301472	0.04298825
29	0x3c8cd399	0.017190741
30	0xbdf5fdc3	-0.12011292
31	0x3ddc8e7a	0.10769363
32	0xbd24b660	-0.04021299
33	0x3c2c53ef	0.010518058
34	0xbad05420	-0.0015894212
35	0x3db0c8a8	0.08632022
36	0xbe5651bb	-0.20929615
37	0x3b312ef5	0.0027036045
38	0x3ce08fd8	0.02741234
39	0xbc56063a	-0.013063008
40	0x3d4189d4	0.047250584
41	0x3dc9b322	0.0984862
42	0xbe3c8fe1	-0.1841426
43	0x3d9c44d8	0.076303184
44	0xbe2960fc	-0.16540903
45	0xbd522b4f	-0.051310834
46	0xbde77e57	-0.11303394
47	0xbe104c81	-0.14091684
48	0xbc1f6500	-0.00972867
49	0x3deea5be	0.116527066
50	0x3c8eb653	0.017420923
51	0x3dbd8b37	0.09255069
52	0xbd1719fe	-0.036890022
53	0xbd45820a	-0.048219718
54	0xbe83861e	-0.2568826
55	0xbdedb7ce	-0.116073236
56	0x3d44aaf7	0.048014607
57	0x3d55078f	0.05200916
58	0x3d2a6d21	0.04160798
59	0xbccb7318	-0.024835154
60	0xbd913908	-0.07090956
61	0xbd27492d	-0.04084127
62	0xbd2f9925	-0.04287066
63	0x3e05c053	0.13061647
64	0x3d0bb454	0.03410752
65	0x3e1b3405	0.15156563
66	0x3e00125e	0.12507007
67	0xbd4404fe	-0.047856323
68	0x3cbf297a	0.023335207
69	0x3ce392e7	0.02778001
70	0x3e1507a9	0.14553703
71	0x3cc15531	0.023600193
72	0xbcfc45fc	-0.03079509
73	0x3d91e37f	0.071234696
74	0xbcadf6aa	-0.021235783
75	0x3dad3cd6	0.08458869
76	0x3d9e9b76	0.077444956
77	0xbc5fef95	-0.013667961
78	0x3cc4050f	0.023928193
79	0xbc0615ee	-0.008183939
80	0x3caf4415	0.021394769
81	0x3da37df9	0.07983012
82	0x3d1c1e56	0.038114868
83	0x3e1926b0	0.14956164
84	0xbdda19c3	-0.10649445
85	0xbdb718ca	-0.08940275
86	0x3bfbae10	0.007680662
87	0x3cd734ba	0.02627026
88	0x3dba4bb0	0.090964675
89	0x3da9c5ec	0.08289704
90	0x3d44b256	0.048021637
91	0xbdddc980	-0.10829449
92	0xbd91a180	-0.07110882
93	0xbddd7cef	-0.10814845
94	0xbd75e7c7	-0.060035493
95	0xbe072a11	-0.13199641
96	0x3d870446	0.06592612
97	0x3d79cfc9	0.060989175
98	0x3cec23ab	0.028825602
99	0x3d96466f	0.07337653
100	0x3df6a0ea	0.12042411
101	0x3e120c7a	0.14262572
102	0x3bbc2693	0.005741903
103	0xbd86864c	-0.06568584
104	0xbd135fa0	-0.035979867
105	0x3c6c0a85	0.014406805
106	0xbdcfa2fb	-0.10138508
107	0xbd353704	-0.04424192
108	0x3e1fd912	0.1561015
109	0xbd25a9b3	-0.04044504
110	0xbd3f93f8	-0.046771973
111	0x3dcac9e6	0.0990179
112	0x3e00f472	0.12593248
113	0xbd69e059	-0.05709872
114	0xbc79b78c	-0.015241515
115	0xbd9d064d	-0.076672174
116	0x3bb6ab84	0.0055746455
117	0xbb423242	-0.0029632007
118	0x3e515eae	0.20446274
119	0x3e00f03e	0.12591645
120	0xbb94d308	-0.0045417584
121	0xbdf6fc3a	-0.12059827
122	0x3cf87174	0.030327536
123	0x3d0da726	0.034583233
124	0xbe5e17d2	-0.21688774
125	0x3c9ed0ae	0.019386616
126	0x3d94d317	0.07266825
127	0xbd0c249a	-0.034214593
