experiments/ppo_hrl/models/MicroRTSGridModeVecEnv__ppo_utils__1__1721366578/4096/produce.pt (torch, 802518 bytes, 11 tensors)

encoder.1.weight f4 [32, 30, 3, 3]
000000 5d d5 e4 bd fc 17 0c 3e c1 55 31 3e f6 62 23 3e
       -0.11173508 0.13681024 0.17317869 0.1595572
000010 9d 08 ec 3d 82 54 0b 3e 42 ae 63 3e 2d b8 5e 3e
       0.1152508 0.13606456 0.22234443 0.21749945
000020 b7 4a 99 bc 8e 31 9f 3d e0 16 25 be 8f 86 a4 3d
       -0.018712385 0.07773124 -0.16122007 0.080334775
000030 0a e3 8a bd a3 72 86 bd d6 09 e2 3c bb e3 91 3d
       -0.067815855 -0.06564834 0.02759258 0.07123514
000040 d0 20 fd 3d 94 b9 26 3e d9 53 37 bd 14 17 da bd
       0.12359774 0.1628173 -0.044757698 -0.10648933
000050 a0 c1 67 bd ae 3d 29 3d 71 4f 8a 3d d0 25 ac bd
       -0.05658114 0.041318588 0.067534335 -0.0840565
000060 3b 34 2d 3c 99 8f cb bd 5f db 42 bd f3 dc 7e bd
       0.010571535 -0.099394985 -0.04757249 -0.062222432
000070 a1 93 ce 3b 64 13 ac bd cd 06 97 3d da 17 37 3d
       0.00630422 -0.08402136 0.07374344 0.04470048
000080 a2 56 f9 3b 37 12 45 3d a9 ed e7 3d 89 c8 80 3c
       0.0076092044 0.048113074 0.11324627 0.015720623
000090 c1 70 1d 3d fa 67 98 bd 44 7e 9d bc 13 a1 f7 3c
       0.03843761 -0.07441707 -0.019225247 0.030228173
0000a0 59 36 1e 3d dc e8 91 3c ff 2b 9f 3d 19 0a 02 3e
       0.03862605 0.017811231 0.077720635 0.12699164
0000b0 03 6a 25 bd f8 10 31 be 0a 63 1f bd ad bf 84 bd
       -0.040384304 -0.1729163 -0.03891281 -0.06481872
0000c0 24 f3 69 bd 82 a5 fa 3d e0 79 8a 3d 44 e6 0e 3d
       -0.057116643 0.12238599 0.06761527 0.034887567
0000d0 fe 69 01 3b cb 7f 6a 3d 6f 2d 69 3d 68 aa 46 bc
       0.0019747014 0.05725078 0.056928094 -0.012125589
0000e0 37 e2 fd 3c 64 ac 44 be 1c 4d 05 3d 4f 1f 3b be
       0.030991657 -0.19206387 0.03254424 -0.18273662
0000f0 e0 3b 07 3d 43 17 90 ba 13 35 a4 3d a5 bf 8d bd
       0.033016086 -0.0010993261 0.080179356 -0.06921319
000100 42 c8 a3 3d f4 27 38 bd ed 4e 92 3b 1b 9b 3e 3a
       0.079971805 -0.044959977 0.004464975 0.00072710373
000110 10 8e e0 3d 9f bf c8 ba b9 ef 03 bc 70 34 b9 3c
       0.10964596 -0.0015315897 -0.00805276 0.022608012
000120 c9 3e d4 bd d0 22 9a 3d 47 0c 19 3e 4b af 78 bd
       -0.10363538 0.07526171 0.1494609 -0.060714047
000130 98 c1 1d be 2b ac b3 3b d3 ad 19 bd 95 73 3e bc
       -0.15405881 0.0054831705 -0.037519287 -0.011624237
000140 60 16 44 3d 4f 67 ae 3c 4d b7 91 3d c2 75 e4 3d
       0.0478729 0.021289496 0.0711504 0.11155273
000150 2d 65 64 3e 46 f3 01 3e 03 c6 31 bd 15 e0 cf 3d
       0.2230422 0.12690458 -0.04340173 0.10150162
000160 85 36 c3 bd ac 0d 91 3d 3d 2d 39 3d 69 f8 66 3d
       -0.09531883 0.07082686 0.04520916 0.056389246
000170 5c 0f 06 bd 31 53 18 ba 48 d6 a4 3b 79 6d 50 bd
       -0.03272949 -0.00058107363 0.005030427 -0.05088565
000180 89 0e a6 3c f7 02 a9 3d da fc 2a bd 82 dc ab bd
       0.020270603 0.082525186 -0.041745044 -0.08391668
000190 f1 c0 01 3c ed cb 44 3c 11 66 71 bd a1 01 02 be
       0.007919536 0.01201151 -0.05893523 -0.12695934
0001a0 19 7b 1d 3e b4 59 2e 3e 4c 5a d0 bc 06 66 ab 3d
       0.1537899 0.17026407 -0.025433682 0.08369069
0001b0 2a f0 04 bd 6c 51 50 3d c4 34 3f 3c 96 c5 93 3d
       -0.0324556 0.0508589 0.011670295 0.07215421
0001c0 d2 9d 97 bc 47 47 78 bc e5 a1 35 3d 32 c5 7a 3c
       -0.018507872 -0.015153713 0.044343848 0.015305804
0001d0 32 df 8a 3d 1d 73 b4 bd 56 07 07 3d 28 57 f3 3d
       0.067808524 -0.088110186 0.03296598 0.11881858
0001e0 f9 33 26 3d 64 3c 86 bd 90 64 6d 3d 63 17 4e bd
       0.04057691 -0.06554487 0.057957232 -0.050315272
0001f0 49 e6 c1 bc ba 56 a1 3d 4f 3b fd 3b 5d 2d 3f 3e
       -0.023669379 0.0787787 0.0077280174 0.18669648
000200 8e 88 65 3d 43 04 e5 3c 51 7f 8f 3d 89 e1 79 bc
       0.05603843 0.027956134 0.070067056 -0.015251526
000210 11 74 8e b9 fd 66 68 3d 79 06 77 bd 73 cc f7 3d
       -0.00027170827 0.056738842 -0.060308907 0.120995425
000220 e8 37 43 bd ce f1 85 3d eb 92 e8 3d d4 a5 83 bd
       -0.04766074 0.06540261 0.113561474 -0.064281136
000230 93 a2 12 be 87 0a e3 bc 26 f2 5d be 78 4b 6e bd
       -0.1431983 -0.02771498 -0.21674404 -0.05817744
000240 18 64 8b bc 7c bb eb bd 77 31 80 bc 71 95 37 bc
       -0.017015502 -0.11510369 -0.015648587 -0.011205063
000250 48 25 bd bd 20 53 02 bd 53 dd bd bc e5 6a 2f bc
       -0.092356265 -0.031817555 -0.023176825 -0.010706638
000260 0c bc ec 3d 3c 7a 3e 3e 27 18 6b bd 34 fb 5a bd
       0.115593046 0.18601316 -0.05739608 -0.053462222
000270 8d 50 1b bd 3e 60 13 3d ba 15 0e bd f6 23 37 be
       -0.037918616 0.035980456 -0.03468869 -0.17884812
000280 ed d4 d3 3c 80 95 8d bc d3 04 80 bd 51 48 bb bd
       0.025858367 -0.017283201 -0.0625092 -0.09144653
000290 e0 b2 f4 bd 13 a8 e6 3c 7b 52 18 3a 99 8f b9 bc
       -0.1194818 0.028156316 0.00058106304 -0.02265148
0002a0 54 e1 eb 3c 7b 87 2d 3d 6b 3e 88 3d 00 21 04 3d
       0.028793968 0.042365532 0.0665253 0.032258034
0002b0 89 f0 fa 3d 1a 2e 2f bd e8 0f 6f 3c 14 26 8f 3d
       0.1225291 -0.042768575 0.014591195 0.06989685
0002c0 6c 60 00 3e 4d e7 1f 3e 4d 8f 1c bd d9 e8 78 bd
       0.12536782 0.15615578 -0.0382226 -0.060768936
0002d0 5b 33 a3 3d 79 9f e5 3d d1 23 26 bb b0 5c 9c bc
       0.0796878 0.112120576 -0.0025350938 -0.019087166
0002e0 03 1c d1 bd d3 be e4 3d 1b 9d cc bd 1c ea 6a bd
       -0.10210421 0.11169209 -0.09990903 -0.05735217
0002f0 1a 9d bf bd 6a 13 9d bc de 19 1c be b2 5f 51 bd
       -0.093561366 -0.019174296 -0.15244243 -0.051116653
000300 7e f5 da bd 41 1e d7 3d 48 21 3c 3d da ab 56 be
       -0.10691355 0.10503817 0.045930177 -0.20963994
000310 88 0a af bd 91 42 13 3d 36 b2 41 3d e2 a3 e3 3d
       -0.085469306 0.035952155 0.047289096 0.111152425
000320 f8 32 a0 bd 55 f2 3c bd 88 54 83 bd b6 89 e1 3b
       -0.078222215 -0.046129543 -0.064126074 0.0068828715
000330 00 22 1d 3e 5c 7f e3 bc 17 97 e1 bd 69 af 2e 3d
       0.15345001 -0.02777069 -0.11015146 0.042647753
000340 7a 20 bd bd a9 b1 34 be a3 04 0d be 20 54 33 3e
       -0.0923471 -0.17645897 -0.137713 0.1751256
000350 ea 65 8f bd 88 0f c9 bb ff 82 dc bb 0a 14 bd bd
       -0.070018604 -0.0061358847 -0.006729483 -0.09232338
000360 50 31 72 3d 16 50 04 bc 0c d7 80 bd 0e d9 64 bd
       0.05912906 -0.008075735 -0.06291017 -0.055871062
000370 54 cf 92 3d 7b 6f c2 bc 2f 31 29 3e 12 77 93 bc
       0.07168451 -0.023734799 0.16522668 -0.018001113
000380 79 38 ae 3d 96 b8 ce 3b ad 32 02 bc 27 c5 6d bd
       0.08506865 0.0063086255 -0.007946652 -0.058049347
000390 d7 e4 77 3d 89 df b7 bd d0 44 1e 3c 6d 76 22 3d
       0.060520973 -0.08978183 0.009659961 0.03966372
0003a0 14 f1 b5 3c bb 1d 14 bd b3 bb aa 39 5d 98 0d bd
       0.022209682 -0.036161166 0.00032564774 -0.034569133
0003b0 2c f6 1b be f5 15 af bd 4f 2a c1 bd 3d b4 06 bd
       -0.15230626 -0.0854911 -0.09431898 -0.032886732
0003c0 45 a2 96 bc de 44 1b 3e ae c1 2a be 23 d7 a6 3d
       -0.018387923 0.1516299 -0.16675445 0.08146503
0003d0 0b 2f 5e 3c 81 15 38 3d a2 b5 46 3e 5f b0 96 3c
       0.013561021 0.044942383 0.19405225 0.018394647
0003e0 18 f6 00 bd 4b 99 a7 3d 94 aa 3a 3d 6f 85 fd 3d
       -0.031484693 0.08183535 0.045572832 0.12378966
0003f0 8b cf 3c bd 57 92 a7 bb 3f f5 57 3c 09 3d f9 bd
       -0.046096366 -0.0051138806 0.01318103 -0.12169845

encoder.1.bias f4 [32]
000000 0e 52 0d b9 ba 2e d5 37 d0 40 5d ba f4 f0 94 ba
       -0.00013477376 2.5413337e-05 -0.0008440139 -0.0011363314
000010 c0 de ac ba da 10 a8 39 3b b7 1d ba 59 92 54 ba
       -0.0013188943 0.00032056012 -0.0006016378 -0.00081089657
000020 a2 64 09 ba ed a7 e1 b8 67 ec ae 38 62 1b 61 ba
       -0.0005241131 -0.00010760115 8.341e-05 -0.0008587149
000030 32 3d 64 ba 5c 78 0a 3a 99 fd c1 ba 81 02 9b ba
       -0.00087066286 0.0005282217 -0.001480031 -0.0011826308
000040 98 c5 ec b8 f0 df ca b6 54 4c 93 ba a9 86 d9 ba
       -0.00011290162 -6.046139e-06 -0.0011237958 -0.0016595918
000050 66 f2 32 ba a1 91 5a b9 5d e9 07 ba 03 0a 6e 3a
       -0.00068262813 -0.00020844351 -0.0005184615 0.00090804714
000060 f9 2f 7b ba 08 ef f8 ba b4 9f 23 b8 8a 53 ea b9
       -0.00095820386 -0.0018992135 -3.9010964e-05 -0.000446942
000070 71 02 1e ba 26 38 fb b8 0d b8 dd b9 18 ec 46 38
       -0.00060275855 -0.00011979071 -0.00042289533 4.7426758e-05

encoder.4.weight f4 [64, 32, 3, 3]
000000 2d 96 15 3d e3 ab 4d 3d 48 0e 48 3d 88 71 e1 bd
       0.036520172 0.050212752 0.048841745 -0.110079825
000010 1e 99 0c 3c a6 16 f1 3c 6b a4 fd 3d 13 5b 8d bd
       0.008581428 0.029429745 0.12384876 -0.06902137
000020 5c ec 7b bd e7 f3 7e bd 8e 50 b9 bc e5 c5 02 bc
       -0.061504707 -0.062244322 -0.02262142 -0.007981752
000030 54 31 1c 3d 7e 0e a9 3d a5 bb f2 3d 73 ef d4 3b
       0.03813298 0.08254717 0.118521966 0.006498271
000040 33 6c c0 bc cd dc bb ba 20 d6 c5 3d 54 47 83 3d
       -0.023489093 -0.0014332772 0.09659982 0.06410089
000050 de 4a 98 bd 1e d7 e4 bc b5 c5 ac bc bc 3a 07 bd
       -0.07436155 -0.027934607 -0.021090368 -0.033014998
000060 ae c3 dc 3c b4 3d 70 3d f3 29 0b be aa 06 61 3d
       0.026948776 0.058652595 -0.13590221 0.054937996
000070 1f 14 72 3d 74 68 dd 3d 2b 4f 2b bd 6f 63 12 3c
       0.05910122 0.108109385 -0.041823547 0.00893484
000080 ca 42 24 3e 0a 23 2e bd 5b 04 db bc 95 68 4b bd
       0.16041103 -0.042513885 -0.026735475 -0.049660284
000090 7f 58 b6 3d 99 33 80 3d c9 aa 06 3e 9c 53 9b 3c
       0.08903598 0.062598415 0.13151087 0.018960766
0000a0 cd cb fc 3b 25 e6 1c bd d8 62 45 3d 64 ed c8 3d
       0.0077147246 -0.03830542 0.048189968 0.09810904
0000b0 d5 64 59 39 e1 7d 8a bd a4 6c 8e 3d e3 3b cf 3d
       0.00020732296 -0.06762291 0.06954315 0.10118844
0000c0 95 3e db 3d ab ee d0 bd d0 9c 87 bc 11 d6 4e bd
       0.10705296 -0.10201772 -0.016554266 -0.05049712
0000d0 99 78 a2 3d c2 f8 41 bc 7c 68 43 be d5 25 8c bd
       0.079331584 -0.011839094 -0.19082826 -0.068431534
0000e0 d6 4c 0d 3c 4a 13 b2 3d 92 a0 93 bc 9b 8f 6b be
       0.008624276 0.08695085 -0.018020902 -0.23004
0000f0 ce 01 46 3e 88 c3 ec 3d ff 4d f6 bd d3 7d 44 3c
       0.19336626 0.11560732 -0.12026595 0.011992889
000100 77 5e 3a bd 95 19 5f bd 39 e0 59 3b b3 94 cf 3b
       -0.045500245 -0.054467756 0.003324522 0.006334865
000110 6c 45 31 bc 26 9a 56 3c 0e 51 08 3e 8d f1 06 3e
       -0.010819774 0.013098275 0.1331217 0.13178082
000120 9d 5b 6f bd 4d 40 06 3d bd e1 d5 bd bf b1 7f bd
       -0.05843698 0.032776166 -0.10443447 -0.06242537
000130 3e e8 c4 3d dd 78 b5 ba 60 f4 73 bd 76 49 ec 3d
       0.09614609 -0.0013845224 -0.059559226 0.11537449
000140 40 d1 93 bc 08 8f 17 3c 76 6a 10 3d d5 d9 a0 3d
       -0.018044114 0.00925041 0.03525778 0.07854048
000150 fb 03 7d 3c df 01 fd 3d 35 60 4f 3d 0c a9 c4 3c
       0.015442844 0.123538725 0.05062886 0.02400639
000160 f3 7c bf bd c1 ad a2 3d 4b 94 3d 3c 8f 16 e0 3c
       -0.09350004 0.07943297 0.011571 0.027354507
000170 d1 44 93 3d ff cb 87 3d e0 aa 0a be 05 c7 8e 3d
       0.0719086 0.06630706 -0.13541746 0.06971554
000180 44 97 ae 3d cf 01 06 bd 72 bc f8 39 46 76 77 3d
       0.085249454 -0.03271657 0.0004744265 0.06041553
000190 61 bf 98 bd ef 4e 9c bd 34 87 0d 3e 0f 20 5d 3c
       -0.07458378 -0.07632243 0.13821107 0.013496413
0001a0 f7 70 43 3d f6 c6 61 3d 4c c1 81 bd 5c b9 66 bd
       0.047715154 0.055121385 -0.063356966 -0.056329116
0001b0 2e 6a 1b 3e be 1b fa bd f0 d5 4d be c2 ae ab 3c
       0.15177223 -0.12212323 -0.20101142 0.020957354
0001c0 8e 72 8d bd fb 60 19 be e8 b6 a1 3d 66 64 c2 3d
       -0.06906615 -0.14978401 0.07896215 0.09491806
0001d0 0b 2e 06 be a9 dd 79 3d 9d dd 00 bd cc d4 68 bd
       -0.13103501 0.061002407 -0.031461347 -0.056843564
0001e0 3e d7 6e bd 21 a7 9d 3d 9e b2 16 3c b0 30 47 3d
       -0.05831074 0.07697893 0.009197859 0.048630416
0001f0 e8 79 ab 3d 83 3d f1 3d e3 5b 07 3d 4a 84 52 bd
       0.08372861 0.117793106 0.033046614 -0.051395692
000200 5e 7e 2d bd 4b 51 a4 3c e1 df 35 bc 08 c1 2e bd
       -0.04235684 0.020058295 -0.01110074 -0.042664558
000210 03 04 e0 3c f9 02 6b 3d 1b 07 09 be 5c bf ae 3d
       0.027345663 0.05737588 -0.13381617 0.08532593
000220 12 b2 6e bd 5a 5d 84 3d 1d b2 7d bd 4b 81 cd bd
       -0.05827529 0.06463118 -0.06193744 -0.10034426
000230 02 86 b7 bc d1 bb 44 bc 03 47 ed bd 6b 09 53 3d
       -0.022402767 -0.01200767 -0.1158581 0.051522654
000240 c0 f3 9b bc 34 c1 b3 3d 4d 78 ef 3a c0 4f 98 3d
       -0.019037127 0.08777085 0.0018270105 0.07437086
000250 1e 84 cf bd bf 68 9d 3d c2 55 ee bd a7 e2 64 3d
       -0.10132621 0.07685994 -0.11637451 0.055880215
000260 32 e0 28 3d 57 ec a4 bc 8d 0b 3a bd f9 fe a1 bd
       0.041229434 -0.020132227 -0.045421172 -0.0790996
000270 a2 c1 87 bb 60 42 57 3d 24 b5 be bd 46 36 90 3d
       -0.004142956 0.052553535 -0.093118936 0.07041602
000280 7b ed f1 bd 6a bc e7 bd 12 24 65 3d 0b 1c 11 3e
       -0.11812874 -0.11315234 0.055942602 0.14170854
000290 8d cb b6 3d 5c 2c 82 3d 04 67 1e bc e0 dd 7f 3c
       0.08925543 0.06356117 -0.0096681155 0.015616864
0002a0 7a 61 81 3c 70 2e 93 bc fb 3e 2d bd 65 02 55 3d
       0.01579355 -0.017966479 -0.04229639 0.052004237
0002b0 80 b5 3f 3c 1e 0b 56 3c 71 87 56 3d 56 e4 a4 bc
       0.011700988 0.013064174 0.05237526 -0.02012841
0002c0 fe 8d f8 bd 68 f2 fb bb ee e1 9d 3d 18 40 11 be
       -0.12136458 -0.007688809 0.07709108 -0.14184606
0002d0 ec 25 7e 3c ac 6c f7 bd 6b fd 88 bc c1 ff bb 3d
       0.015511971 -0.120812744 -0.016722402 0.091796406
0002e0 a3 97 fc bc 88 c0 21 be e1 72 0f 3e c8 60 f9 3d
       -0.030834025 -0.15796101 0.14008667 0.12176663
0002f0 c1 1f 0e 3d 6e 47 85 3d 31 1f c4 bd 11 ae 79 3d
       0.03469825 0.06507765 -0.09576262 0.06095702
000300 f1 a2 e3 bd 4c 89 9f 3c 22 d4 54 bd 19 1a e1 bc
       -0.11115063 0.019474648 -0.051960118 -0.027478265
000310 38 02 5e bd 69 b2 68 3c 21 01 10 be af d5 a0 3d
       -0.054201335 0.014202693 -0.1406293 0.07853257
000320 0f 8a 58 3c f7 ef 31 3e cc 6f b8 bd 87 d9 f2 3b
       0.0132165095 0.17376696 -0.090056986 0.007411185
000330 4d 4c da bd f2 56 a6 bd 8f e4 f6 bc dc 45 b1 bd
       -0.106590845 -0.08122052 -0.030138282 -0.08655903
000340 b0 aa bf 3c 35 91 9b 3d 0a 6b 51 3e 57 0f 00 bd
       0.02339682 0.075960554 0.20450988 -0.03126463
000350 89 48 7a bd 30 c7 dc 3d 36 81 19 be 44 b7 7a 3c
       -0.06110433 0.107801795 -0.14990696 0.015302483
000360 ac ac 84 bd 6e 6e 88 bd a0 5e fb bd 0b 50 e5 3a
       -0.06478247 -0.06661688 -0.12273908 0.0017495168
000370 0b 0c f5 bd 17 e2 92 3c de 59 a5 bd 7a d2 97 bc
       -0.11965188 0.017930074 -0.080737814 -0.01853298
000380 9e 08 c2 bd d7 ab 3c 3d 68 53 a0 bd 07 bb 9f bc
       -0.094743 0.046062317 -0.078284085 -0.019498361
000390 4e 5a 9d bc f9 7d b4 3c bd 4b d0 bd ce 71 a8 bd
       -0.0192081 0.022032725 -0.10170696 -0.082248315
0003a0 b5 e0 10 bc a5 41 1d bc 12 9a 3a 3e a5 46 1e bc
       -0.008842637 -0.00959817 0.18222836 -0.009660398
0003b0 ad a8 0c 3e da 3c b2 3d e5 fe 95 3c 34 9d 36 be
       0.1373622 0.08703013 0.01831002 -0.17833406
0003c0 fe 11 14 be 82 18 34 be d9 50 4d 3d 68 e2 b6 bd
       -0.14459988 -0.17587474 0.05012593 -0.08929902
0003d0 a8 44 51 3e 7d 66 1a be 8e 68 1e 3d 47 b9 2b bd
       0.20436347 -0.15078159 0.03867393 -0.04192474
0003e0 d9 61 95 bd 2c 4b 82 3d f8 50 1e 3d f2 40 a8 bd
       -0.072940536 0.06361994 0.038651437 -0.08215512
0003f0 5a b7 ac 3b 5a 66 dd bd 7a 8d ff 3d 3d 22 6d bd
       0.0052708806 -0.10810538 0.124781564 -0.05789398

encoder.4.bias f4 [64]
000000 dc bb 10 39 9b 50 0f ba 1a 29 b7 b9 8a 07 18 ba
       0.00013802893 -0.0005467028 -0.00034935103 -0.0005799463
000010 17 a6 ce b9 52 69 3b ba 31 82 5e ba 18 1e 1d b7
       -0.00039415128 -0.0007149178 -0.0008488028 -9.364936e-06
000020 42 3a 8b b9 84 06 67 ba 71 d8 03 ba 52 a3 49 b9
       -0.0002655555 -0.00088129216 -0.00050295057 -0.00019229695
000030 e1 4c b5 ba 54 bf 15 b8 c5 0d 48 b9 d7 f6 00 38
       -0.0013832116 -3.5702556e-05 -0.00019078616 3.0747466e-05
000040 8f 2e 5c b9 c0 24 69 b8 78 8e 2c 39 6c 1f 9b b9
       -0.0002099818 -5.5585755e-05 0.00016456272 -0.00029587315
000050 14 b3 68 b8 79 26 81 ba 42 d9 62 39 f6 39 45 b9
       -5.547989e-05 -0.0009853385 0.00021633974 -0.00018808976
000060 67 52 15 bb 60 9e 42 b9 4f 16 3e ba 04 eb 2a 39
       -0.0022784711 -0.00018560281 -0.0007251249 0.00016300014
000070 a0 e0 6d 3a 8e 94 5c ba a4 eb 0e b7 08 d8 88 38
       0.0009074304 -0.00084144704 -8.518724e-06 6.525224e-05
000080 a0 65 af b9 c4 e5 fc 39 83 5a 4d b8 c5 82 98 b9
       -0.00033454318 0.00048236374 -4.8960104e-05 -0.0002908913
000090 71 aa 72 3a 4a 7c fd b9 6c 7a c6 b8 86 0c 87 3a
       0.0009256965 -0.00048348523 -9.4641786e-05 0.0010303415
0000a0 35 06 bf ba 00 9f 45 b6 86 7f 23 b9 25 f2 d8 b9
       -0.0014573993 -2.9447838e-06 -0.00015592398 -0.00041379142
0000b0 76 ad e4 b8 c8 5e 2d b7 34 7b e8 39 e3 ef d9 b9
       -0.00010904197 -1.03336715e-05 0.00044342282 -0.00041568195
0000c0 4e 7f a8 38 9f c7 dd ba b6 97 ce 38 58 9d dc b9
       8.0345766e-05 -0.0016920454 9.851104e-05 -0.000420789
0000d0 94 b8 8e b8 04 17 d1 39 0b 9f 02 ba d0 48 ad b9
       -6.805468e-05 0.00039880734 -0.00049828057 -0.0003305138
0000e0 df e0 31 ba 73 20 c8 ba 45 a0 a0 b9 d3 6d 58 ba
       -0.00067855226 -0.001526846 -0.00030636988 -0.0008256111
0000f0 51 71 0c ba 27 de 7a 3a 00 1f 30 b9 c5 4d 22 ba
       -0.00053574616 0.00095698464 -0.00016796216 -0.0006191398

actor.0.weight f4 [64, 32, 3, 3]
000000 4f cd 9f bc e2 e5 75 3c 77 4c d3 bd a5 0c be bd
       -0.019507078 0.015008422 -0.10317319 -0.092797555
000010 c5 31 37 3d c6 9d 8c 3c 53 3a b2 3c ec 46 e2 bd
       0.0447252 0.017165076 0.021756327 -0.110486835
000020 41 7c 78 bd ad 5d 89 3d ed a9 5a 3d 4f 6b 78 bd
       -0.060665373 0.0670732 0.05338471 -0.060649212
000030 de 3f 13 3c aa 25 f2 3c 34 83 32 be cc ef aa 3d
       0.008987395 0.029558975 -0.17432863 0.08346519
000040 64 e1 8b 3d 9f 5c 8a 3e dc 1e b5 bc 36 28 31 bd
       0.06830099 0.2702379 -0.022109441 -0.04325124
000050 aa 21 ec bd d9 ff b3 bd c1 4e 96 3b e0 7a a8 3b
       -0.115298584 -0.087890334 0.004587025 0.005141601
000060 48 8f bc bd b7 6f 9e 3d 89 a6 32 3e cd 03 e2 bd
       -0.09207016 0.07736152 0.1744634 -0.11035881
000070 53 94 f4 bd b1 2f 7b bd 50 72 af bd 64 5f eb bd
       -0.11942353 -0.06132478 -0.08566725 -0.11492804
000080 1e cd b5 bd 82 b3 1f 3e d9 ce dd bd 3e b9 6b 3d
       -0.088770136 0.1559582 -0.10830469 0.057549708
000090 a2 2b 96 3c dc 97 8f 3d f2 fa 9d 3d e8 4b 31 bd
       0.018331353 0.07011387 0.0771388 -0.04328528
0000a0 d8 56 ba bd 07 6b 78 bb ac e8 a0 3d b2 ec 8d bd
       -0.090985954 -0.003790559 0.07856879 -0.06929912
0000b0 6d 5b 22 3d 9e 86 f5 bd df 27 1c be e5 e7 c3 b8
       0.03963797 -0.11988567 -0.15249585 -9.341518e-05
0000c0 39 a5 47 bc f3 34 ac ba 60 e1 44 3d 89 aa ec 3b
       -0.012185388 -0.0013138339 0.048066497 0.007222478
0000d0 95 3d 71 bd 34 30 91 3d 16 ef bf 3b 32 27 eb 3d
       -0.05889662 0.07089272 0.0058573587 0.11482085
0000e0 6d ed 20 be e9 84 68 3d 72 ea a8 bb 81 2e 16 3d
       -0.15715571 0.056767378 -0.005154901 0.036665443
0000f0 8e 94 2c 3a 26 dd 9b 3c 3e 18 b1 bd 63 e2 08 bd
       0.00065834157 0.01902635 -0.08647202 -0.033419024
000100 db e5 24 3d 39 ae a1 3c 61 b9 e9 ba 8b a7 9b 3d
       0.04025827 0.019736396 -0.0017831736 0.07600316
000110 1b 91 b7 3d 00 24 0f 3d a6 b7 6f bd 3c cf a1 bd
       0.089632235 0.03494644 -0.05852475 -0.07900855
000120 96 ab 8f bd f2 e6 7d 3d 97 7d a5 3d 67 82 15 be
       -0.07015149 0.061987825 0.08080595 -0.14600526
000130 5d c1 b3 bc 43 39 91 bd b3 d2 2c bd c1 80 ac 3d
       -0.021942789 -0.07091 -0.042193126 0.08422995
000140 50 a8 b4 3b 00 ef ac 3d 84 42 98 bd 4b 94 bb 3d
       0.0055132285 0.08444023 -0.07434562 0.09159144
000150 2e 90 0a 3d 9c 93 88 3c e7 fb 1d 3d 74 0e c3 3b
       0.033828907 0.016671948 0.03857031 0.0059526507
000160 14 da 1b bc 29 26 8e 3d 13 cd cf bc 44 c4 4b 3d
       -0.009512443 0.06940872 -0.025366342 0.04974772
000170 54 d5 b2 3d 33 d5 12 be 02 fe dc bc c9 ac 26 bd
       0.08732095 -0.14339142 -0.02697659 -0.040692125
000180 ce aa 24 bd 1d c1 46 3d 8b e4 d6 bb 7d a5 a4 3d
       -0.040201955 0.04852401 -0.006558006 0.08039377
000190 12 5f 5c bd 2e 67 30 bd fd 3b 5b b9 7b 28 f1 3c
       -0.053801604 -0.04306715 -0.00020907815 0.029438248
0001a0 83 93 33 3d ad 78 89 bd f5 90 cb bd f0 12 d8 3d
       0.04384185 -0.0671247 -0.09939758 0.10550487
0001b0 57 11 d0 ba e5 2a 8e 3c dc f9 ed 3d 50 f5 fa bb
       -0.0015874308 0.017354438 0.116199225 -0.007658638
0001c0 ac c0 33 3e 1c 59 02 be e3 a4 31 be bd 8c 5e b9
       0.17553967 -0.12729305 -0.17348056 -0.00021223999
0001d0 b9 be 14 be 8b 52 77 3d ef de 11 3e be 21 9d 3c
       -0.1452588 0.060381453 0.14245199 0.019181129
0001e0 9b b1 ca bc 74 c0 b5 3d 93 75 4c 3c 3f 4a e9 bc
       -0.024742892 0.08874598 0.012479204 -0.028477786
0001f0 77 eb 77 bd 40 7b 08 3c 74 fc c2 3d 11 4d 93 3c
       -0.06052729 0.008330166 0.09520808 0.017981084
000200 2a 08 96 bc 78 8c 53 3e b3 82 52 3d c2 ff bb 3d
       -0.01831444 0.20659053 0.051394176 0.09179641
000210 9d 67 b8 3c 97 33 41 3e c0 d5 de 3d 4b af 2f 3d
       0.022510344 0.18867336 0.10880613 0.04289178
000220 56 43 12 bc 1a f2 fe bb 55 c7 0b bc c3 c0 a0 bd
       -0.008927187 -0.0077803256 -0.008531411 -0.078492664
000230 04 de dc 3d 58 a1 87 bd f4 b6 a6 3d 3b 43 f2 3d
       0.107845336 -0.06622571 0.08140364 0.118292294
000240 0d 0e 0a bd 73 14 08 bd c2 98 a9 3c 27 cf 07 be
       -0.033704806 -0.033222627 0.020702723 -0.13262616
000250 12 ca 70 3d a9 4a 04 bc b1 8a 26 3e 6b 69 11 bd
       0.05878646 -0.008074441 0.16263844 -0.035500925
000260 c9 1e c9 3d 96 b3 c0 bd 20 f2 05 bd bf bb 1c 3d
       0.09820325 -0.09409253 -0.03270161 0.038264986
000270 e3 89 9f 3d 9b 51 d1 ba 36 b8 f6 bc f7 1a 86 3d
       0.07789972 -0.0015969755 -0.030117135 0.06548112
000280 83 ca e7 bd d0 97 cd 3d 51 af b9 bd 65 7f cd 3c
       -0.11317923 0.100387216 -0.09066642 0.02508516
000290 43 c1 f7 bc bb 8b cb 3b eb 28 cc bc 73 cd 15 3e
       -0.030243522 0.0062117255 -0.024921855 0.14629154
0002a0 70 3e 5d 3c ab 3f 5c bc 79 12 6f 3d 60 09 48 3e
       0.013503656 -0.013442914 0.058367226 0.19534826
0002b0 57 0f 54 3d ff 78 6f 3c 88 6d 45 be 35 89 8b 3d
       0.05177244 0.01461625 -0.19280064 0.068132795
0002c0 2e 24 5a bc 26 4e 0f 3e 7b cc b0 3d 53 51 b1 3d
       -0.01331429 0.13994655 0.086327516 0.086580895
0002d0 1e db 1c bd 4e c5 33 bd fe 5b 18 bd f7 49 32 bc
       -0.038294904 -0.043889336 -0.037197106 -0.010881892
0002e0 73 61 13 3e 20 52 b3 3d 1e 1b 95 3d 65 69 a0 3d
       0.14392643 0.087558985 0.07280563 0.078326024
0002f0 fe 16 2a be dd 68 cc 3d 4c bf 0c bd be 64 3e bd
       -0.16610333 0.099809386 -0.034362122 -0.046482794
000300 00 70 25 be 60 5e a7 3a cc 3e 27 3e 47 84 6c bc
       -0.16156006 0.0012769215 0.16332549 -0.014435834
000310 f4 aa 4c 3d 1e fe 56 bd eb 2e 05 3d 31 e4 d0 3b
       0.04996772 -0.05248844 0.032515448 0.006374859
000320 c6 bb 50 3d 2c cf 62 3d 3a 72 89 bd 11 92 98 3d
       0.050960325 0.055373356 -0.0671124 0.07449735
000330 2c 2d a3 3d 55 7d ce 3d 69 51 fb bc 57 66 06 3c
       0.079676 0.10082499 -0.030678468 0.008203111
000340 0c d6 40 bd 04 dd 8d bd e2 9b ad bd d5 ea 27 bd
       -0.04707913 -0.06926921 -0.08476998 -0.040995438
000350 aa 62 e6 b8 8b ce 0c 3e f3 be 46 3e c3 5a 59 3d
       -0.00010985632 0.13750665 0.19408779 0.053065073
000360 97 ab 4d bd 8f 38 04 3d e6 2c c4 3b 04 8a aa 3d
       -0.05021247 0.0322805 0.0059867976 0.08327106
000370 73 34 25 be a7 ce d5 3a c2 9f d1 bd 15 2e 3d 3d
       -0.16133289 0.0016312198 -0.102355495 0.046186525
000380 82 97 87 3d 76 4d ba bc 6a 65 4f 3d d2 02 7f bd
       0.06620695 -0.022742014 0.050633825 -0.06225855
000390 93 86 d4 bd fd 98 42 3e 7b fd 17 3d f2 34 30 3e
       -0.103772305 0.19003673 0.037106972 0.17207697
0003a0 59 b4 a2 3c 44 52 c3 3c 1d b8 9b 3d fd 08 c9 bd
       0.019861387 0.023842938 0.07603476 -0.098161675
0003b0 04 b2 54 3e 96 e3 51 be f3 34 59 bc 08 44 c8 3c
       0.20771033 -0.20496973 -0.013257253 0.024446502
0003c0 27 16 ad bd 8a f3 9e 3c 83 ee af bd 31 cb 5d 3d
       -0.08451491 0.019403238 -0.085904144 0.054148857
0003d0 b4 56 0a 3e fe a0 7b bd ea 53 22 3d ee 05 88 3d
       0.13509637 -0.06143283 0.039630808 0.06641756
0003e0 c5 70 cb bd 13 58 02 be 05 1d 8a bd 5e 90 f3 bd
       -0.099336185 -0.1272891 -0.06743816 -0.1189277
0003f0 86 16 6a 3d a7 c9 8e 3c e8 08 e0 3d 58 9e 41 bb
       0.057150386 0.01743014 0.10939199 -0.0029543843

actor.0.bias f4 [32]
000000 de 7c 5b 3a f2 4d a8 3a 9d dd 01 b9 1b d7 22 b8
       0.00083727937 0.0012840612 -0.00012384956 -3.8824142e-05
000010 eb 03 19 39 07 ac 94 ba 80 ea 05 38 41 0d 4b 39
       0.00014592677 -0.0011342772 3.1928066e-05 0.00019364526
000020 69 12 fc ba 9d b5 66 b9 f8 b7 2f ba f4 5b 9d ba
       -0.0019231561 -0.00022002165 -0.00067031337 -0.0012005554
000030 0b 5c 67 3a 93 47 51 39 49 0a 6e b8 06 b7 e6 ba
       0.0008825666 0.00019958457 -5.67532e-05 -0.0017602153
000040 96 16 9f ba 9b 82 8c ba 16 93 f2 ba f1 e6 95 39
       -0.0012137468 -0.0010720076 -0.001850697 0.0002859156
000050 46 f4 79 3a 7e be 63 3a 8a 92 aa ba da 32 0f ba
       0.0009534996 0.00086877483 -0.0013013643 -0.00054625946
000060 fa 17 5d ba c3 1c 20 3a 03 60 7e ba 27 d7 7c 39
       -0.0008434054 0.00061078015 -0.0009703638 0.00024112743
000070 2e e9 75 ba 57 6b 0e 3b 4f 41 13 ba 5c b0 31 ba
       -0.0009380755 0.002173146 -0.0005617337 -0.0006778294

actor.2.weight f4 [32, 78, 3, 3]
000000 7a 83 a0 3b 4e 3c e9 bc ae c6 9a 3b f5 3f 6f bc
       0.0048984857 -0.028471138 0.0047233915 -0.014602651
000010 04 16 85 ba 6a 42 d6 3d 40 10 26 3d 4e 75 83 3d
       -0.0010153656 0.10461886 0.04054284 0.064188585
000020 5f 73 54 bb 4c 77 20 3c f2 7b 47 bd d9 5c 31 bd
       -0.00324174 0.009794068 -0.048702188 -0.043301437
000030 5d 5e 35 3d 54 a4 72 bd b2 b9 af ba 66 c2 0c 3d
       0.044279445 -0.059238747 -0.0013406782 0.03436508
000040 81 fb 0c 3c a7 84 1f 3d e1 2f 88 bd 64 b4 7d bd
       0.008604885 0.038944867 -0.06649757 -0.061939612
000050 e0 68 45 3d 35 28 d0 bc 05 8e ca 3d 71 c7 30 3c
       0.04819572 -0.025409797 0.09890369 0.010789738
000060 39 52 cd 3c 14 9b 8b 3d ec 49 14 3d 31 7c 22 bc
       0.02506362 0.06816688 0.03620331 -0.009917305
000070 c8 14 40 39 10 cd 4d bd 87 49 5f bd 5a 6d 37 bc
       0.00018318288 -0.05024439 -0.05451348 -0.011195505
000080 4d 5b 85 3d 7c 53 1e 3c 96 2b c1 3d c7 f6 6a bd
       0.06511555 0.009663459 0.094321415 -0.05736425
000090 64 c9 2d bd ec cd da bd 2d 3e 46 3d 7c f2 a7 bd
       -0.04242839 -0.10683808 0.04839914 -0.08200547
0000a0 4e 76 27 bd e0 88 dd 3b d3 d5 4c bd 7f da a9 bd
       -0.04088431 0.0067607015 -0.050008606 -0.08293628
0000b0 01 e3 07 bd dd da 85 bc e8 3a df bc ef 4a 8a 3d
       -0.033175472 -0.016339714 -0.027249768 0.06752574
0000c0 8a 88 cf bd 75 b3 7c bd 5f cf 10 3c a6 d8 04 bc
       -0.10133465 -0.06169458 0.008838504 -0.008108294
0000d0 7c 9d 5e 3d 9c a9 16 3d c0 07 ad bc 38 e4 81 3d
       0.054349408 0.036782846 -0.02112186 0.063423574
0000e0 80 ac a0 bd 22 20 a1 3d 84 12 3f 3d 76 43 7d bc
       -0.07845402 0.07867457 0.046648517 -0.0154579785
0000f0 c7 05 90 bc 48 e0 ee bc 32 3e ca 3d 14 f2 39 3b
       -0.01758088 -0.02915968 0.09875144 0.002837305
000100 e6 9f 69 3d 01 94 95 bd c4 0e 86 3c 7e 5c d3 3c
       0.057037257 -0.0730362 0.016364463 0.02580094
000110 36 09 5b 3d 66 ae f5 bb ed f5 0a 3d 29 26 4d bb
       0.05347558 -0.0074975966 0.03392594 -0.0031303263
000120 72 7c 30 bd f9 a5 88 bc ef 96 06 be a2 05 b2 3a
       -0.04308743 -0.016680704 -0.13143514 0.0013582001
000130 f9 3a 8f bd c3 8e e3 bc de f8 90 ba bc 34 03 3d
       -0.0699367 -0.027778035 -0.0011060496 0.032032713
000140 b1 57 e4 bc 61 72 74 3c 2e 47 a3 3d 1b 5b 3e 3d
       -0.027873846 0.014919848 0.07972561 0.046473604
000150 d7 65 20 3d cc a9 06 3c 24 ab 9e 3d ec 91 12 3d
       0.039159622 0.008219194 0.07747486 0.035783693
000160 aa 9e 94 3c 9c 43 41 3c db f6 67 3d 42 a1 8c 3d
       0.018142063 0.0117959045 0.056631904 0.06866695
000170 32 cb 75 bd ec 86 11 3d 55 d3 c1 bd 13 06 a9 bd
       -0.060008235 0.035529062 -0.094641365 -0.08253112
000180 e8 d8 2b 3d 19 56 1c 3d a3 d3 52 bb b0 cb 91 bd
       0.041954905 0.038168047 -0.0032169602 -0.071189284
000190 aa 8b 06 3d bc 0f bb bc 81 c7 a8 bc 61 3d de ba
       0.032848038 -0.022834651 -0.020602943 -0.0016955548
0001a0 2b 7f b7 3d f1 90 a3 3d be df 5c 3d 24 51 95 3b
       0.08959802 0.0798663 0.053924315 0.004556792
0001b0 52 1a b1 bc 82 39 8c 3c 73 1e ba bd 12 a7 2d bd
       -0.021618996 0.017117266 -0.09087839 -0.04239566
0001c0 a7 a6 df bd 50 95 24 bb bd 63 87 3d 60 d3 1e bd
       -0.10920458 -0.0025113411 0.066108204 -0.0387758
0001d0 84 46 00 bd bb cf 30 3c b5 1a 8a bd f9 a5 5f bc
       -0.03131725 0.010791714 -0.06743375 -0.013650411
0001e0 24 3e 0d bc 10 55 8d bc 5d fe 82 ba 73 ff 39 bd
       -0.0086207725 -0.017252475 -0.0009994019 -0.04540963
0001f0 23 8d 3f bd e3 0d 9c 3c 1c 1f 8c bc 27 cd 7d 3d
       -0.046765458 0.01904959 -0.017104678 0.061963227
000200 b9 56 1d 3d d1 6c 3a 3d fd 54 2f bd f6 c1 b0 3c
       0.038412783 0.04551393 -0.04280566 0.021576863
000210 c1 7d 0f bc c5 62 ae 3d 71 b9 b1 bd 35 7a 37 bd
       -0.008758009 0.085149325 -0.08677948 -0.04479428
000220 62 96 82 bd 26 3e 09 3d d4 48 91 bd c3 69 60 bc
       -0.063763395 0.033506535 -0.07093969 -0.013697091
000230 f8 25 89 bd 2c 7a 92 bd ae b6 6e bb aa e9 cb bc
       -0.06696695 -0.07152209 -0.0036424804 -0.024891693
000240 ec ee f7 3c 00 31 e5 38 5f 2d 53 3d 96 55 8d bd
       0.030265294 0.00010928698 0.05155694 -0.0690109
000250 88 dc 34 3d 4f 67 5f 3d 4d 5e 75 bc 87 a4 57 3c
       0.044155627 0.054541882 -0.014976096 0.013161785
000260 dd 73 e9 3c a8 5a c8 bc 6a a1 bb 3c 39 36 2e 3d
       0.02849763 -0.02445729 0.022904117 0.04253218
000270 ec 98 d6 3d ac fb 92 3c d1 3d 95 3d 1a 40 45 bd
       0.10478386 0.017942272 0.07287181 -0.048156835
000280 c7 1b 37 bd a5 ee 77 3d 40 dc 9f 3c 73 c4 17 3d
       -0.044704225 0.060530324 0.019514203 0.037052583
000290 7e f8 1c bd cf 3d 35 bd 4d 2c bb bd 35 be 57 3c
       -0.038322918 -0.0442484 -0.09139309 0.0131679075
0002a0 fd 23 f9 3c 2f 45 26 bd 8b 7a b4 3c 08 d4 85 3d
       0.030412668 -0.040593322 0.02203109 0.065345824
0002b0 45 75 96 bc cd f5 65 3c 07 d8 28 3d 62 01 fa 3c
       -0.018366465 0.014035654 0.041221645 0.030518238
0002c0 35 75 2a bd 95 8c 1e 3d e6 0e 93 bd 51 da 94 bd
       -0.041615684 0.03870829 -0.07180576 -0.07268203
0002d0 65 1a e0 3c 36 88 01 3d 05 f8 2b 3d 1e 8b cc bc
       0.027356336 0.03162404 0.041984577 -0.02496868
0002e0 5f 69 ea 3c 04 c3 65 3d b4 de 37 bd a0 2b dc bc
       0.028614698 0.056094185 -0.04489012 -0.02687627
0002f0 ca b6 6d 3c 10 1c ce bc bc 26 eb 3d d1 fa 6f bd
       0.014508912 -0.025159866 0.11481997 -0.058588807
000300 59 7c c0 3c ff 21 d3 3d ab 19 af bd e0 8e 2a bd
       0.023496794 0.103092186 -0.08549818 -0.041640162
000310 50 d3 c0 bc 83 2f 7d 3d e2 39 94 bd 47 74 f8 3c
       -0.023538262 0.06181289 -0.07237603 0.030328883
000320 38 49 99 bd 16 fa 39 bc a3 52 af 3d 99 89 ba 3a
       -0.074846685 -0.011351129 0.085606836 0.0014231681
000330 e8 3b 21 3c f9 6b 15 bd 4a 8e a5 bc e8 8b 6d 3c
       0.009840943 -0.036479924 -0.02020945 0.014498688
000340 37 75 ba 3d a9 78 71 3c 11 14 14 bd 89 0a 8b bd
       0.09104388 0.01473824 -0.03615195 -0.06789119
000350 95 b3 07 3c ae a5 d2 3c d4 86 33 bd ca a8 9a bb
       0.008282562 0.025713768 -0.043829754 -0.0047198283
000360 41 e0 95 bd 2d 68 22 3b 80 ba fc 3c b9 35 70 3d
       -0.07318164 0.0024781332 0.030850649 0.058644984
000370 d4 71 3a bd 45 52 94 bd 2c ca b3 3d a6 ea 9a bc
       -0.04551871 -0.07242254 0.087787956 -0.018910717
000380 2e 7f 2f bc 2d f5 1b 3d 23 e5 1e bd 32 db a3 bd
       -0.010711474 0.038075615 -0.03879274 -0.080007926
000390 0e 59 87 3d f0 6a 7f bd 83 d2 0f 3d b0 76 da bd
       0.06608783 -0.062357843 0.03511287 -0.10667169
0003a0 68 0d 76 bd bc b7 2c bc 12 13 9f bd c0 69 ff 3c
       -0.06007138 -0.010541853 -0.07767309 0.031178355
0003b0 89 b7 da 3c b9 dc cc 3c 21 bf bc 3c 09 28 f6 3d
       0.026698845 0.025007593 0.023040356 0.12019355
0003c0 5e 71 f3 3b 74 cd 9e 3d f2 54 16 bd f6 56 82 bc
       0.007429286 0.07754031 -0.036702104 -0.015910607
0003d0 a9 d1 c5 bc 24 31 8c 3d 91 29 18 bc 7c de 5a 3d
       -0.024147825 0.0684531 -0.009287254 0.053434834
0003e0 b6 29 d9 bb 6d d2 b0 3c 12 27 70 bc 40 97 81 bd
       -0.006627287 0.021584714 -0.014657753 -0.06327677
0003f0 67 81 cf 3c a7 17 6b 3c 19 4d 39 bc e0 dc 44 bd
       0.025330259 0.014348901 -0.011309885 -0.048062205

actor.2.bias f4 [78]
000000 3c 00 7a ba 1e 9a ca b9 a1 5a e5 3a 60 81 1c 3b
       -0.0009536778 -0.0003864327 0.0017498323 0.0023880824
000010 c2 87 00 3b de ee ab 3a c1 01 b1 3a 3a 7d fa ba
       0.0019612168 0.0013117453 0.0013504551 -0.0019110807
000020 1e e1 e4 ba dc 01 bb 3a 00 00 00 00 00 00 00 00
       -0.001746211 0.0014267522 0.0 0.0
000030 00 00 00 00 00 00 00 00 00 00 00 00 00 00 00 00
       0.0 0.0 0.0 0.0
000040 00 00 00 00 00 00 00 00 cd 2f aa 38 b5 9d b2 3a
       0.0 0.0 8.115135e-05 0.0013627323
000050 e8 e8 06 ba 66 26 3b bb 00 00 00 00 00 00 00 00
       -0.00051464 -0.0028556823 0.0 0.0
000060 00 00 00 00 00 00 00 00 00 00 00 00 00 00 00 00
       0.0 0.0 0.0 0.0
000070 00 00 00 00 00 00 00 00 00 00 00 00 00 00 00 00
       0.0 0.0 0.0 0.0
000080 00 00 00 00 00 00 00 00 00 00 00 00 00 00 00 00
       0.0 0.0 0.0 0.0
000090 00 00 00 00 00 00 00 00 00 00 00 00 00 00 00 00
       0.0 0.0 0.0 0.0
0000a0 00 00 00 00 00 00 00 00 00 00 00 00 00 00 00 00
       0.0 0.0 0.0 0.0
0000b0 00 00 00 00 00 00 00 00 00 00 00 00 00 00 00 00
       0.0 0.0 0.0 0.0
0000c0 00 00 00 00 00 00 00 00 00 00 00 00 00 00 00 00
       0.0 0.0 0.0 0.0
0000d0 42 04 12 bb 00 00 00 00 9a 65 30 bb 00 00 00 00
       -0.002228037 0.0 -0.0026916028 0.0
0000e0 00 00 00 00 00 00 00 00 00 00 00 00 00 00 00 00
       0.0 0.0 0.0 0.0
0000f0 34 ad 31 3b 00 00 00 00 00 00 00 00 00 00 00 00
       0.0027111294 0.0 0.0 0.0
000100 00 00 00 00 00 00 00 00 00 00 00 00 00 00 00 00
       0.0 0.0 0.0 0.0
000110 00 00 00 00 00 00 00 00 00 00 00 00 00 00 00 00
       0.0 0.0 0.0 0.0
000120 00 00 00 00 00 00 00 00 00 00 00 00 00 00 00 00
       0.0 0.0 0.0 0.0
000130 00 00 00 00 00 00 00 00
       0.0 0.0

critic.1.weight f4 [128, 1024]
000000 2a c5 67 bc da 03 5e 3c 0e d6 31 3d 75 89 3d bd
       -0.014146129 0.013550723 0.04341703 -0.046273667
000010 06 27 ba 3b 79 08 8e bd df 2a df 36 9e 2e 92 3c
       0.0056809215 -0.0693521 6.6509087e-06 0.017844494
000020 74 96 b2 3d a9 bf 06 bc 0b c6 c0 3c 71 07 11 bd
       0.08720103 -0.008224406 0.023531934 -0.035407487
000030 4e 48 2a 3d df a4 e2 bc 11 6a d2 3c 08 d0 1e 3d
       0.04157286 -0.027666507 0.025685342 0.038772613
000040 14 40 3b bd 6e 2d a7 bc 12 a3 3b 3d 19 d6 b0 bd
       -0.045715407 -0.020407405 0.045809813 -0.08634586
000050 4a 02 c2 bc 58 a9 8e 3c 14 19 e6 3c c7 84 03 3c
       -0.023682732 0.017414734 0.02808813 0.008027262
000060 8d 6e 9b bb 22 a8 1f bd 45 b5 80 bc ad 9c 79 3d
       -0.0047434033 -0.038978703 -0.015711436 0.060940433
000070 87 59 5a 3a 99 cc b0 3c 79 ab 2f bc f2 66 94 bd
       0.00083293807 0.021581935 -0.010722035 -0.07246198
000080 23 65 c4 bc 03 47 98 bd 9e 32 c6 3d 93 1b 8b 3d
       -0.023974007 -0.074354194 0.09677623 0.06792369
000090 a6 ed 8c 3d d9 54 98 3c 58 26 1e 3c 09 1b 21 bd
       0.06881265 0.018595146 0.009652697 -0.039332423
0000a0 f0 38 11 bd 9b 41 40 bd 48 95 85 bc bf 31 1b bc
       -0.03545469 -0.046937566 -0.016306534 -0.00947231
0000b0 c2 0e 87 3c 0a d5 30 bc 80 5e c7 bb ee b8 50 3d
       0.01648653 -0.01079298 -0.0060842633 0.050957613
0000c0 f4 27 8a bc 3c d8 8d 3c b1 d3 37 3d 51 25 0f bd
       -0.016864754 0.017315023 0.04487962 -0.034947697
0000d0 cf 1a 44 3d 3c 13 31 3e 0d 0b 89 3c 1f 53 9b bd
       0.04787713 0.17292494 0.016728902 -0.075842135
0000e0 f8 4e ab 3c 84 50 33 3d e9 48 4e 3a c5 db 03 3d
       0.020911679 0.043777958 0.0007869141 0.03219201
0000f0 ad ed 9c 3d 43 38 4b 3c 31 9c 2f bc 1e f6 5e 3c
       0.076625206 0.012403551 -0.010718391 0.013608484
000100 5f 34 eb 3d f6 ae 56 bd 69 d2 05 3c 74 ff a1 3c
       0.11484598 -0.05241295 0.0081678415 0.01977513
000110 44 1b a9 bb a2 38 3b 3d 31 1c 40 bd 9c b1 58 3b
       -0.005160721 0.045708306 -0.046901885 0.0033064848
000120 15 3d ab bc a8 74 1e 3b 51 42 92 bd 09 3c b6 bc
       -0.02090315 0.002417842 -0.07141555 -0.022245424
000130 00 55 95 bc f8 4e 17 3d 9c 03 40 bc b0 7d 03 3d
       -0.018229008 0.036940545 -0.011719611 0.032102287
000140 de d6 08 bd 41 3c 47 3d 3a ce 28 bd 18 4d 14 3b
       -0.03340804 0.048641447 -0.041212298 0.002262896
000150 a6 c6 a0 bd 6b 8f 6a bb 97 f3 69 bd 65 d7 bf bb
       -0.07850389 -0.003579105 -0.05711707 -0.0058545345
000160 f6 ce c9 bd 9d 53 40 3b 91 dd 1f bd a2 5b 22 3d
       -0.09853928 0.0029346712 -0.03902966 0.03963817
000170 fb 12 0c bd 8a 0b a0 bb 65 06 db 3b 22 af fa bb
       -0.03419779 -0.004884188 0.006684112 -0.007650272
000180 04 3f f9 bb 04 b8 7f 3d 19 48 85 3d da ff b7 bd
       -0.007606389 0.06243135 0.06507892 -0.08984347
000190 e9 87 08 3c 10 e1 a5 3a 94 a9 a5 bd e1 23 c4 3c
       0.008333185 0.0012655575 -0.08088985 0.02394289
0001a0 02 51 d6 3c a8 80 af bc 24 ad 46 bc 44 f8 8d bc
       0.026161674 -0.021423653 -0.012126241 -0.017330296
0001b0 16 e8 3b 3d 2d 15 41 3c 15 35 89 3c b7 43 14 3d
       0.04587563 0.011784834 0.016748944 0.03619739
0001c0 92 7d 1d bd 5b 18 11 3d 25 00 74 3c 08 32 f8 3c
       -0.03844983 0.035423618 0.014892613 0.030297294
0001d0 49 85 c6 bc ed 9b 55 3b 67 20 af 3c 90 f5 64 bd
       -0.024233477 0.003259416 0.021377755 -0.05589825
0001e0 41 1e 1e bb 06 5a 34 3c 00 4b 08 3d 63 01 9b 3c
       -0.002412692 0.011007791 0.03327465 0.01892156
0001f0 dc 56 58 3d 2b 33 fd 3c 9c 65 16 ba 67 ab 8b 3a
       0.05281721 0.030908188 -0.0005737187 0.001065594
000200 1c ac 7d 3c 31 ef 95 3d 91 3e ad 3c fb ec 6b 3c
       0.015482929 0.07321013 0.021147998 0.014399762
000210 e0 8d 9e 3c 86 f3 f0 3c cb fe 10 bc 16 2a 9e bc
       0.01935476 0.029412996 -0.00884981 -0.019307178
000220 70 70 12 bd b5 fd f1 3c 2a b8 38 bd 93 aa 42 bc
       -0.03575176 0.029539922 -0.045097508 -0.011881488
000230 4c b9 af 3d c9 ab a1 3c 55 1b 4c bd 59 9c 44 bc
       0.085802644 0.019735234 -0.049830753 -0.012000167
000240 43 b1 06 be 58 82 ad bc ad ef b3 bd 14 7c 2e 3d
       -0.13153557 -0.021180317 -0.08785949 0.0425988
000250 f9 fe 60 3d d8 73 6b 3c 94 9e 06 3d e8 df 9f 3c
       0.05493066 0.014370881 0.032866076 0.019515947
000260 7a 9e 42 3d 4d ec 88 bd d4 e6 c3 3d b6 ba 8a 3d
       0.047514416 -0.06685696 0.09565511 0.067738935
000270 4b 1b 63 3c 4a b9 87 3c 11 a3 0d 3d 06 60 56 bd
       0.013861488 0.016567845 0.03457934 -0.05233767
000280 be 0f f7 bc 18 3c 5a bd e1 10 c8 3c 25 4e 2c bd
       -0.030158874 -0.053279966 0.024422111 -0.042066712
000290 d2 48 85 bc 1d 6a c6 bc cc 21 ba bc 63 df c4 3d
       -0.016270075 -0.02422052 -0.022721194 0.0961292
0002a0 59 a2 8a bd 13 d7 af bc db 1f c6 3b 67 2a 87 bc
       -0.067692466 -0.02146486 0.006046278 -0.016499711
0002b0 8c f3 22 3d 1e e3 00 3d 65 97 72 bc e4 37 43 bc
       0.039783046 0.031466596 -0.014806603 -0.011915181
0002c0 77 9e 81 bd 0b e3 1f 3d 91 f5 80 3c 4d ea 1c bd
       -0.06329053 0.039034884 0.015742095 -0.038309384
0002d0 d9 82 97 3d b1 13 02 3e 47 85 31 bd 27 b3 94 bc
       0.07398004 0.12702824 -0.043339994 -0.018151833
0002e0 75 34 f6 3c 2b 47 8b bc a1 eb fe bc 85 3c 30 bd
       0.03005431 -0.017001709 -0.031118216 -0.043026466
0002f0 8b c9 e3 bc d7 70 c7 bd ee 80 86 bd 49 ef 4e bc
       -0.027806064 -0.09738319 -0.0656756 -0.012630292
000300 d4 c5 84 bc a3 fe 3d 3c b2 ed 4e bd 69 66 d2 3a
       -0.016207613 0.011596355 -0.050519653 0.0016052249
000310 16 a1 98 bc 89 37 08 bd 0e 40 88 bc 2a 42 13 bd
       -0.0186315 -0.033256087 -0.016632106 -0.03595177
000320 83 82 2c 3d 0d a9 0e 3d f8 e8 05 bb 76 39 5a bb
       0.042116653 0.03482919 -0.002043305 -0.003329841
000330 f4 81 98 3c fe ce 88 3c c0 e4 3e bd 2e cf 4c 3d
       0.018616654 0.016700264 -0.04660487 0.05000227
000340 77 b3 aa 3d b8 6e 8b bb 69 b2 c2 bb a1 ce 1a 3d
       0.083350115 -0.004255142 -0.0059416783 0.037794713
000350 f9 a4 c1 3b 81 b0 7f 3c da 71 60 3b 07 bf 19 3d
       0.005909559 0.015606047 0.0034247548 0.037535693
000360 1f a5 c9 bc 19 2d ba 3c 4e f8 18 bd bc 35 be bd
       -0.024614869 0.022726582 -0.037346177 -0.09287593
000370 3d 01 72 3d cd 7f 74 bc ae 24 1d 3d 59 5f b0 3d
       0.059083212 -0.014923048 0.03836506 0.08611936
000380 4a 9d 90 3c a9 64 3f 3b 33 6c d7 3c c7 b8 07 3d
       0.017653126 0.0029204285 0.02629671 0.0331352
000390 99 41 1a bd 84 71 81 3d 02 95 fb bc 2a e9 59 bc
       -0.037660215 0.063204795 -0.0307107 -0.01330022
0003a0 a1 12 7f 3d 9b d2 96 3d f2 9e 62 bc 72 d8 6d 3d
       0.062273625 0.073643886 -0.013831841 0.058067746
0003b0 da 62 b3 bc fc ab de 3c 1e b8 55 3c 74 9c 11 bd
       -0.021897722 0.027181618 0.013044385 -0.035549596
0003c0 5e 81 60 bd 34 c9 b5 bc 50 69 0c 3c 44 7a d6 bc
       -0.054810874 -0.022190668 0.00857003 -0.026181348
0003d0 d9 b8 a4 b8 ea a3 c1 bd 65 9b cd bc 84 8c b4 3a
       -7.85456e-05 -0.09455092 -0.025098512 0.0013774787
0003e0 5d cd 19 3d ca ff 0d 3d 31 49 2c bd 6c 16 10 bd
       0.037549365 0.034667768 -0.04206199 -0.035177633
0003f0 25 02 f1 bc e3 69 1d 3e c6 79 95 bb cc 07 e6 bd
       -0.029419968 0.15372424 -0.0045616357 -0.11231956

critic.1.bias f4 [128]
000000 8a e7 e2 b9 a3 82 82 b9 11 70 fd 38 87 e7 05 b9
       -0.0004327859 -0.00024892864 0.00012084854 -0.00012770119
000010 4a 5c a5 39 e8 d6 1c b7 58 6b 04 b9 00 00 00 00
       0.00031540013 -9.348361e-06 -0.0001262849 0.0
000020 00 00 00 00 ba b3 f4 38 98 d9 17 b9 52 1f f4 38
       0.0 0.00011668303 -0.00014481542 0.000116406605
000030 da 86 9d b9 00 00 00 00 00 4d b9 38 90 73 53 39
       -0.00030045846 0.0 8.83583e-05 0.00020165578
000040 80 c2 f4 38 d4 6b 09 b9 34 c9 fb 38 f7 9f 69 b8
       0.00011671055 -0.00013105507 0.0001200609 -5.5700508e-05
000050 18 69 ae 39 00 00 00 00 ba 55 03 b9 1d 2d f7 38
       0.00033266167 0.0 -0.00012525069 0.00011786281
000060 25 04 9d b9 bc 9e 67 b6 00 00 00 00 a1 09 f1 38
       -0.0002994846 -3.4514078e-06 0.0 0.00011493569
000070 00 00 00 00 00 00 00 00 00 00 00 00 e9 73 04 b9
       0.0 0.0 0.0 -0.00012631681
000080 00 00 00 00 91 b9 fb 37 8f 59 ed 38 5b f6 08 b9
       0.0 3.0007943e-05 0.00011317722 -0.00013061745
000090 34 89 f5 38 41 14 6b ba f2 16 c3 b9 6e ad f9 38
       0.000117080664 -0.00089675566 -0.00037210394 0.00011905549
0000a0 00 00 00 00 66 11 e4 b9 bc 72 47 ba e5 36 c3 38
       0.0 -0.00043500512 -0.00076083443 9.3085495e-05
0000b0 ab e3 8e ba 7a 66 ee b8 f5 43 05 b9 00 00 00 00
       -0.001090159 -0.00011367812 -0.00012709184 0.0
0000c0 84 19 5c ba 21 da b1 b9 7d 40 e1 ba 66 36 a4 b9
       -0.0008396136 -0.0003392259 -0.0017185357 -0.00031321048
0000d0 96 31 fd 38 00 00 00 00 00 00 00 00 06 2b e4 b8
       0.00012073216 0.0 0.0 -0.00010879901
0000e0 00 00 00 00 00 00 00 00 c0 f9 cc 38 bf 90 05 b9
       0.0 0.0 9.7739976e-05 -0.0001273779
0000f0 74 e2 26 b9 b6 cf 2d b9 d4 df f4 38 00 00 00 00
       -0.00015915354 -0.00016575944 0.00011676518 0.0
000100 41 23 04 b9 a3 ac f7 38 1c db ef b3 bb df db 38
       -0.00012601634 0.00011810034 -1.11691605e-07 0.00010484407
000110 d0 f4 06 b9 00 00 00 00 58 ab 5b ba 00 00 00 00
       -0.00012870436 0.0 -0.0008379719 0.0
000120 b8 ba b5 b9 74 6b f7 38 a4 c5 fc 38 6a 76 84 38
       -0.00034662127 0.000117978925 0.0001205311 6.316307e-05
000130 e1 48 01 ba 00 00 00 00 05 a6 56 b8 00 00 00 00
       -0.0004931819 0.0 -5.1176194e-05 0.0
000140 a8 ed e0 38 62 ba 13 b9 68 69 5e b9 fa 20 f2 38
       0.00010725419 -0.00014088445 -0.00021210837 0.000115456016
000150 77 80 02 b8 de 5f a7 b9 81 dc a1 ba 00 00 00 00
       -3.1114057e-05 -0.0003192415 -0.001234904 0.0
000160 52 5c 05 b9 00 00 00 00 7b d5 06 b9 00 00 00 00
       -0.0001271826 0.0 -0.00012858764 0.0
000170 c6 0e 69 b9 00 00 00 00 d1 c1 14 ba 2a 5d e2 38
       -0.00022226115 0.0 -0.0005674633 0.00010793873
000180 a6 a0 ec 37 a4 26 04 b9 2c 72 f8 38 93 73 f5 38
       2.82082e-05 -0.00012602896 0.00011846828 0.00011704038
000190 76 ae b4 38 70 1a f6 38 fe 9d 08 b9 52 10 fb 38
       8.615565e-05 0.000117351185 -0.00013028827 0.000119716526
0001a0 1d 84 0b b9 00 00 00 00 7a 4c 18 b9 d8 a8 16 b9
       -0.00013305289 0.0 -0.0001452434 -0.00014368014
0001b0 b0 b8 c6 38 2e 7b a5 38 00 00 00 00 d1 94 b4 38
       9.4757765e-05 7.890757e-05 0.0 8.610788e-05
0001c0 04 c3 44 b9 06 6c d6 ba 41 05 05 b9 00 00 00 00
       -0.00018764666 -0.0016359098 -0.00012685826 0.0
0001d0 7c 18 89 39 00 00 00 00 00 00 00 00 32 e0 04 b9
       0.0002614892 0.0 0.0 -0.0001267202
0001e0 98 00 04 b9 da 38 07 b9 32 c7 f5 38 00 00 00 00
       -0.00012588722 -0.00012895782 0.000117196134 0.0
0001f0 d5 c1 05 b9 d0 4c 00 bb 00 00 00 00 4e 52 05 b9
       -0.00012756076 -0.0019577034 0.0 -0.0001271453

critic.3.weight f4 [1, 128]
000000 3e 30 da 3c 83 d3 1d bd 80 7b 12 3e 63 7e 90 bd
       0.026634332 -0.03853179 0.14304924 -0.07055356
000010 60 6f 10 3d 59 63 5a 3c 6a ad 16 be 67 20 83 bd
       0.035262465 0.01332935 -0.1471459 -0.06402665
000020 e5 bf 39 bd cf e7 ce 3d d1 27 6d bc 8c 13 5a 3d
       -0.04534902 0.10102808 -0.014474825 0.053241298
000030 05 f5 c6 bc c8 73 45 3e b1 69 36 3c ee 76 52 bd
       -0.024286756 0.19282448 0.011133597 -0.05138295
000040 7d aa 6c 3d ab bd 75 bc 72 06 f9 3d 24 b6 ab 3d
       0.057779778 -0.014998834 0.121594325 0.0838435
000050 bf 56 9d 3d 39 c9 07 3d a7 1e 36 be d7 f9 94 3d
       0.07682561 0.033150885 -0.1778513 0.07274216
000060 f6 d8 20 bc 18 18 93 3d ce ed ea bc 1f af af 3d
       -0.0098173525 0.0718233 -0.028677847 0.085783236
000070 7a 1f 17 3e 0a a4 9e 3d 03 a6 b7 3d 4c 01 e9 bd
       0.14758101 0.07746132 0.08967211 -0.113772005
000080 33 2a b0 3b 7f bb 5d bb 3f e8 1c 3d 0d b1 1e bd
       0.0053761243 -0.003383368 0.038307425 -0.038743068
000090 cb 3d 7a 3d 1f 5f dc bd 06 29 1d 3d cd eb ba 3d
       0.061094087 -0.107603304 0.0383692 0.09127007
0000a0 8e 6b cf 3c f5 39 10 bb 5f a0 06 3e 23 de 21 3e
       0.02531984 -0.0022007201 0.13147114 0.15807395
0000b0 dd 66 37 bd 07 24 e4 3d b2 c3 b8 bd 3b 7e 2b bd
       -0.044775832 0.11139684 -0.09021701 -0.04186843
0000c0 92 5e fe 3d 1a 76 56 bd e0 8a aa 3b 4d 5a af bd
       0.124203816 -0.052358724 0.0052045435 -0.085621454
0000d0 9c 5d 14 3e 40 13 f4 3a 42 8f 71 bc a2 c3 a0 bd
       0.14488834 0.001862146 -0.014743628 -0.07849814
0000e0 05 c9 c5 3d 7a e5 b2 bd b8 e3 75 3c af 98 a8 bd
       0.09657482 -0.087351754 0.015007906 -0.08232247
0000f0 6e 68 58 bd 19 0a 09 bc b6 49 76 3d a1 0c 98 3d
       -0.052833967 -0.008364224 0.06012889 0.07424284
000100 5c 7a ef bd 3a df 99 3d 31 38 0a bb 6d fb 8f 3d
       -0.1169326 0.0751328 -0.0021090622 0.070303775
000110 ab e2 76 bd 8e f4 e0 3c fb 7c b1 3d 3d f6 29 be
       -0.06027476 0.027460363 0.08666416 -0.16597839
000120 d6 6f a4 bd c4 22 96 3d 93 4a 0d 3e 85 6a c9 3b
       -0.080291435 0.0733085 0.13797979 0.0061467313
000130 ef d7 df 3d 3b 6f 72 b9 49 03 fd 3a 5f d5 39 3e
       0.10929858 -0.00023120355 0.0019303347 0.18147801
000140 c8 0b bb 3c 58 bd 85 bc d5 6b 7f 3d f5 9e 48 3d
       0.022832766 -0.016325638 0.062358696 0.04897972
000150 0d a6 8e 3d c9 ca a2 3d b3 3f 3a 3e 20 80 4e 3d
       0.069652654 0.079488344 0.18188362 0.05041516
000160 34 27 9c bd f0 6c 5e 3d 6a dd 6c bd cb 85 85 bc
       -0.07624665 0.05430311 -0.057828344 -0.016299149
000170 7d e8 c0 3d b5 fc b5 bc e3 20 23 bd 93 e1 1f 3e
       0.094193436 -0.022215227 -0.039826285 0.15613393
000180 4f 97 cc 3c fa df fb bd e5 37 aa 3d ca 83 80 3d
       0.024974493 -0.122985795 0.08311442 0.06275137
000190 fc 2f 74 3d 28 89 8d 3d f8 1d 71 bd f5 03 d5 3d
       0.059616074 0.06910926 -0.05886647 0.10401145
0001a0 0a 60 09 bd 5f 7b 00 be e1 ba d3 bc 72 71 7c bc
       -0.033538856 -0.12547062 -0.025845947 -0.015407907
0001b0 cb 52 25 3e ff 0a 9b bd e7 e1 fe bc 77 e4 26 3c
       0.16144864 -0.07570457 -0.031113578 0.010186306
0001c0 34 c0 80 be 13 2c 0f 3e d5 98 b7 bd 7c 47 e0 3d
       -0.2514664 0.13981657 -0.08964697 0.109511346
0001d0 e1 27 14 3e 00 f4 30 3e 99 07 21 3c 56 63 f5 bd
       0.14468338 0.17280579 0.009828472 -0.119818375
0001e0 bc 64 03 be 9f 04 4b bd 53 ff 7e 3d 38 1a 8a bc
       -0.12831396 -0.049564954 0.062255215 -0.016858205
0001f0 d8 24 99 bd 88 34 03 3e 3a 38 a4 bd 4b f6 ad bd
       -0.074777305 0.12813008 -0.08018537 -0.08494242
