experiments/ppo_hrl/models/MicroRTSGridModeVecEnv__ppo_utils__1__1721366908/16384/attack.pt (torch, 802531 bytes, 11 tensors)

encoder.1.weight f4 [32, 30, 3, 3]
00000000: f02a 533d 3479 d53b e006 04be 9a9e d43d
00000010: 7caa a3bd 72c0 87bc db57 483b 1eba 963d
00000020: 889e 7dbd e8f6 28bd c45c 1cbc e6d6 b33b
00000030: f5bd 0fbd 1d96 47bd 9613 e5bc 81ec 7b3d
00000040: b2de 93bc a977 cfbc b501 053d 32f7 1e3c
00000050: 67f6 2a3d 00c2 16be df59 61bc a3f6 9fbc
00000060: 59b9 493c 9560 093d 35ad 323e 3c90 8b3d
00000070: 897e 783c fe3c 09bb 3dc7 a8bd 32b3 bebd
00000080: 76c0 1ebe fafa f93c 11c9 043d 1fdc aebd
00000090: cce1 f53c 1a20 823d 7233 81bd 390a 68bd
000000a0: 76e9 dfbd d4da 20bd e8a2 3a3d b67f bcbd
000000b0: 3750 7a3d 4830 07be 9f07 133e 771f 463d
000000c0: eab7 903b 4ea3 143d d01a 1a3d ac83 f9bc
000000d0: b872 30be a2cb 083e 92e3 9f3d 229f ff3c
000000e0: 5e4d 6f3e e384 ccbd 5b53 acbc 5bf1 16be
000000f0: a452 0cbd a1df ff3d 4c2c 86bc a6a9 29bd
00000100: 98a6 56bd b1b5 0a3d 7fd4 a6ba f167 3bbc
00000110: 5e5f 0e3d cd53 ed3c 75a2 bf3d 3d5e 0cbe
00000120: 7aad 493e 324c eebc 6baf bcbd e02a a2bd
00000130: fac0 85bd 6308 f43c 239f 47bd f450 60be
00000140: f015 a9bd ebc0 44be dc32 fd3c eeca 883d
00000150: a4bd c63c fbb5 c03c c526 a23d f255 22bd
00000160: 925d 943d 1419 1ebd b052 9bbd 400e 983c
00000170: 2c61 7c3d de0d 333e bc57 7c3d 7dae f03d
00000180: 149e ae3d 376b cf3c 478c 7c3d 22b3 b03d
00000190: 58cf 493d 08ea 8d3d 5bb8 023e 7727 c4bd
000001a0: 3d24 043c 5a47 ee3b 8289 613e 1666 55bc
000001b0: b1cb a8bc 2206 00be e3a6 aebd a542 03ba
000001c0: e627 a1bd c6bb 9abc 80b2 84bd 671f 96bd
000001d0: a095 573d 295c 02bd 5a02 4b3d d183 ab3d
000001e0: 61d4 06be 3818 8fbc 975c 043d 6cc0 10be
000001f0: 58c8 03be 7546 0e3d e742 40bd 4658 b23d
00000200: 900a 4d3e 63f3 83bd 6595 ce3c 51dd 63bc
00000210: 31c4 fabc a9c0 b03d 93b0 763d 065a 913d
00000220: 3bf6 71bd 2cf2 d8bd ec3c 113e ba33 e13d
00000230: 79ac 043d cf96 8bbd 293c 0abd 45dd e23d
00000240: e6c0 b2bd 5399 10bc 575b e039 3636 0eba
00000250: e40b e5bc 3fa3 bf3d c14a a83c 121b 8a3d
00000260: caa6 56bd 3288 703e 90e8 823c c30f 1bbd
00000270: 082d 143c 1a40 043d 9aee 6f3d a281 203e
00000280: 2e1f 44bd 2067 a9bd 2d74 debb 3003 393b
00000290: 3273 c83c dab5 3a3d 822e 44bd 0b6f e2bd
000002a0: aa87 5b3c bdb1 88bb b20c a0bd 355f 36bd
000002b0: 4d98 98bd 50df d2bd 3622 5d3b f650 e3bd
000002c0: 34d7 88bc 8e83 ae3d 5fd6 c33d 7cba 183e
000002d0: b0ff 2b3e fc5b 063d 0fbf af3d c6b5 f93c
000002e0: b1e5 7d3d f880 db3c 4fca ed3c 5b4a 193a
000002f0: 82b3 883c 1e06 a33d 3bd8 dbba c37f dabc
00000300: ea35 14bc 4990 08bd 468f 83bc 778c 24bd
00000310: 352d fa3c f7fc 283d 36ec aebc ee81 023d
00000320: ad7d 613d ed4f f33d f125 29be 7cb7 11be
00000330: 7c98 5a3e 5a22 3f3d 9c1f 8a3d eea8 11bc
00000340: 00f0 df3d 641e 18bc 0694 9e3d 3b5c ccbb
00000350: f402 7d3c 5296 2e3e af6b 503c b435 8cbe
00000360: 8271 72bd 6918 92bd b9d3 05bd b28e 313d
00000370: e481 27bd 495f ecbd 098f 1d3e 2126 5b3d
00000380: 3f40 04be 7e37 663d a238 94bd cf83 6c3c
00000390: b55f 253d 1063 05be 8780 d2bc 46ed 44bd
000003a0: dca7 0abe 95d5 ed3d 4df0 7ebc 62c2 32bd
000003b0: ae24 453e c62a 843c 9754 933c e4fa d9bb
000003c0: 98eb 47bd 4aea 683d 0eed cd3d ea79 b83d
000003d0: 2516 f03c 6bdb 9ebc 65e2 503d 2a8b 0fbe
000003e0: 2cee 983e 8aab 043d fe44 f3bd 5e6b 3f3d
000003f0: 0795 733d fcc9 bb3d b7f9 e13c 28e2 8e3c
0.05155462 0.0065146927 -0.12893248 0.10381813 -0.07991502 -0.016571257 0.0030569944 0.07359718
-0.061918765 -0.041251093 -0.009543601 0.0054882644 -0.035093267 -0.048727144 -0.02796344 0.061504845
-0.018050525 -0.025325613 0.03247233 0.009702491 0.041738894 -0.14722443 -0.013754337 -0.019526785
0.012312257 0.033539373 0.17448886 0.0681462 0.015166887 -0.0020940895 -0.08241127 -0.093115225
-0.15503106 0.030515183 0.032418314 -0.085380785 0.030014895 0.06353779 -0.063086405 -0.056650374
-0.10933201 -0.03927119 0.045565516 -0.092040464 0.061111655 -0.13202012 0.14358376 0.04836985
0.0044164555 0.036288552 0.037623227 -0.030458294 -0.17231262 0.1335893 0.078070775 0.03120381
0.23369357 -0.09986284 -0.02103584 -0.14740507 -0.0342585 0.12493826 -0.016378544 -0.041421555
-0.05240497 0.03386468 -0.0012728124 -0.011438356 0.034758918 0.028970623 0.09357158 -0.13707824
0.19695082 -0.029089067 -0.09213146 -0.07918334 -0.06530948 0.029789155 -0.04873575 -0.21905881
-0.08256137 -0.19214217 0.03090804 0.06679331 0.02426035 0.023524275 0.07917551 -0.039632745
0.072444096 -0.038598135 -0.07584131 0.018561482 0.061616108 0.17485759 0.061607108 0.11752031
0.08526245 0.025319679 0.061657216 0.08627917 0.049270004 0.069294035 0.12765639 -0.0957784
0.0080652805 0.0072716894 0.22025111 -0.013024827 -0.02060494 -0.1250234 -0.08527925 -0.0005007184
-0.07868938 -0.018888365 -0.06479359 -0.07330208 0.052632928 -0.031826172 0.04956279 0.08374751
-0.13166954 -0.017467603 0.032314863 -0.14135903 -0.12869394 0.03473516 -0.046938803 0.08708243
0.2002356 -0.06442907 0.025217721 -0.013907746 -0.03061113 0.08630497 0.060226988 0.07097249
-0.059072714 -0.105930656 0.14183396 0.10996194 0.032391045 -0.06815874 -0.03374878 0.1107736
-0.08728199 -0.008825618 0.00042792663 -0.0005424948 -0.027959771 0.093573086 0.020543458 0.067434445
-0.052405156 0.23489454 0.015980035 -0.03785683 0.009043939 0.032287695 0.058577158 0.15674451
-0.047881298 -0.08271623 -0.0067887516 0.002823066 0.024468992 0.045583583 -0.047895916 -0.11056336
0.013399044 -0.0041715787 -0.078149214 -0.04452439 -0.07450924 -0.102965 0.0033742315 -0.110994264
-0.01670418 0.08521186 0.095623724 0.14914888 0.16796756 0.032802567 0.085813634 0.030482184
0.06198663 0.026794896 0.029027132 0.00058475666 0.016687158 0.07960151 -0.0016772816 -0.02667225
-0.009046057 -0.033340726 -0.016059529 -0.04017302 0.030539135 0.04125687 -0.021352869 0.03186219
0.055051494 0.11880479 -0.1651838 -0.1423015 0.2134723 0.04666362 0.0674431 -0.008890374
0.10934448 -0.009284589 0.07743077 -0.0062365807 0.015442599 0.1704953 0.012720986 -0.27384722
-0.05919028 -0.07133562 -0.032672618 0.043348975 -0.040895358 -0.11541612 0.15386595 0.05350316
-0.12915133 0.056205265 -0.07237364 0.0144357225 0.040374476 -0.1302607 -0.025696052 -0.048077844
-0.13540596 0.11613003 -0.015560222 -0.04364241 0.19252273 0.016133677 0.017984672 -0.006652223
-0.048808664 0.05686406 0.1005498 0.09007628 0.029307434 -0.019391736 0.050997157 -0.1401793
0.2986921 0.032390155 -0.118783936 0.046733253 0.059468295 0.09169385 0.027584894 0.017441824

encoder.1.bias f4 [32]
00000000: 3e45 f6ba 1aea 223a a81e 1bbb 59f0 7ebb
00000010: 6043 353a 5a73 7e3a 3f3c e0ba 3b1d 00b9
00000020: c619 e4ba 1813 f8ba a130 413b 39bb 48ba
00000030: 692b 72ba 7825 c4ba 77ec 2fbb 2fbf faba
00000040: 4518 3fbb 58e5 f4b9 5da1 e03a 9ce0 04ba
00000050: 9ea1 b9ba b037 2bbb 8727 203a de87 31ba
00000060: f5e2 1e3b 85a4 4bba 6207 25ba 8419 64ba
00000070: f385 64ba b814 293b 00b2 a0b9 f3f2 2b3b
-0.0018788946 0.00062146934 -0.0023669396 -0.0038900583 0.00069146417 0.000970652 -0.0017107798 -0.0001221792
-0.0017402701 -0.0018926589 0.0029478448 -0.0007657293 -0.0009238036 -0.001496478 -0.0026843825 -0.0019130463
-0.0029158753 -0.0004671018 0.0017137934 -0.000506887 -0.0014162546 -0.0026125722 0.00061094057 -0.000677226
0.0024244164 -0.0007768351 -0.00062953506 -0.0008701312 -0.000871747 0.0025799703 -0.00030650198 0.0026237338

encoder.4.weight f4 [64, 32, 3, 3]
00000000: 4975 a53d a73d 2c3d bc3d 12be 45cf 0cbd
00000010: a90a debc afe4 5ebd 958e b93a 6bf8 fa3d
00000020: fe16 be3c 27c3 85bd 7263 413e 2600 223e
00000030: 9ed4 023e 2897 22bd 7975 343c eebe 8abd
00000040: cdb0 ecbc 727f df3c 784c ecbd 9da6 973d
00000050: e487 c9bb 792e f63d 02a8 dcbc 316e 1bbd
00000060: b56c 0a3d 710c 4fbd aa8d a8bd be2e 293d
00000070: 9e71 a13c 6405 48be 1dfe bf3c 80fe bdbd
00000080: 0489 00be 7fef d23d 6eb5 223a d4a5 76bc
00000090: d9de 5c3c 0ee8 03bd 9ceb aa3d 8da6 a9bd
000000a0: 079d 8bbd 7eb1 6a3e c9d7 10bd d566 263c
000000b0: 2f65 cabb f4c8 e43d 20e8 f8bd 79f1 afbd
000000c0: 0683 f6bd 1644 cdbd b1d6 b7bd 1944 fabb
000000d0: 717f 27bb 8b3a 76bd 92d7 da3d 7ba2 973d
000000e0: 6f93 913c 873e ebbd af9c ec3c 6775 5d3d
000000f0: 7afc 0bbc 4081 0d3e 0e10 ffbc 367d 213d
00000100: ea6a fcbd c131 203d 593b 08bc c579 d9bc
00000110: 1794 b4bd 4969 113d 17f6 2abd 83b2 39bc
00000120: be15 ec3d 30f5 ac3c 1988 503c 9da9 9bbc
00000130: 2f5d 33bd 0b4e 083d e226 883b d10d 703b
00000140: 7d2a d4bb bc7c bdbd 22a2 ce3d ac44 ddbd
00000150: 7e91 debd 8245 d73c 89d1 34be 665b ef3d
00000160: 3e67 77bd 5f9c a43b 0767 58bd c903 17bc
00000170: 6a52 bbbd c267 e6bc 5235 733d 5d26 cfbc
00000180: 6f2c 51bd fa84 b03d 05a6 8dbb bbe6 ab3c
00000190: a902 843d d0ec 0dbe a098 793d 3349 3f3d
000001a0: e812 8ebd 93ae eabd a4fb 1bbd 0d7a 943b
000001b0: 88b9 c6bd 628a 64bc 180e 193d fa22 e4bd
000001c0: b801 86bd ca89 ac3d caca aebd 3faa afbd
000001d0: b028 07bc 404f c1bd 1393 a3bd 8769 9ebd
000001e0: 7462 dcbd a970 56bd 2cd3 3f3c d5d4 72bc
000001f0: 068e 8dbc c348 e53c a792 91bd 665f 123e
00000200: 2bf4 35bc 3992 3f3d adf9 903d a70e e1bd
00000210: 64f2 30bd 8b80 2abc d5c1 cfbd 5b83 cabd
00000220: 6531 a03d c618 69bd 4df3 80bd 3620 f53d
00000230: adc5 39bd 7cb8 adbd 2725 d13d f83b 523b
00000240: e8aa 06be 331b 973d 0ef4 88bd 071a 6cbc
00000250: 8c68 51bd 4bec 00be 6bc6 5b3d 4153 2b3e
00000260: 8c09 793c d4bc 25be 6847 a73d dcfc 1d3e
00000270: 61d8 01bc 3abf 6c3d a241 f1bd b442 6dbe
00000280: 07db 2d39 e146 a3bd 1d76 13be 97ed 02be
00000290: 15ad 0ebe a5de a7bd a905 c1bd 17d7 893c
000002a0: f692 f6bd ec38 babd 4ac0 6f3d feba ccbc
000002b0: 4ab6 b83c 9538 9a3c 3364 9fbd c52e 88bd
000002c0: 21a6 c9bc 18de 0abe 5d8a 8a3d 4c05 12bb
000002d0: a45d a73d d9f6 7a3d 2dd6 1c3d aed0 8cbd
000002e0: d92f 573c b64b de3d 06a9 05be 9f87 023e
000002f0: 0243 d4bd 1215 663d 2d57 3ebd c0e2 7b3c
00000300: c834 123e 1319 92bd 268f 40be 5618 7e3c
00000310: 4845 a4bd 147b 973d f200 173c fa28 aebd
00000320: cd3c 1ebe 118e 4bbd 389a 8c3c 2423 1bbd
00000330: 3aca 1abe a44e 6dbc eebf ca3d 607e 753c
00000340: 8208 123d 58c3 5b3d 6448 74bd 05e3 d9bd
00000350: 0a3a cc3d 5481 a73e 37e3 bc3b 3db7 153e
00000360: c62d 12be 4531 223d bc9f 8bbb 42fc aabd
00000370: 9c45 123d b2b9 a6bd 489f 14bc 9388 b33d
00000380: 9afc 5a3d e58e c3bd e898 093d 63f3 54bc
00000390: 8914 df3c 8d53 63bd 6484 8ebd 8dc4 333c
000003a0: 3810 64bd 1a09 fc3d 41d3 f53b e747 453d
000003b0: b808 78bd c47a 93bd c06e c9bd 1b89 7fbc
000003c0: e900 47bd 3424 0fbe 7686 bd3c 29ca c63d
000003d0: 7a4f e03d 3aec 063e 56af 803d a4e9 e43d
000003e0: db5d 153c a18b 9fbd 0114 a33d bbdb be3c
000003f0: 0f09 c33c 1e28 1ebe 5f39 54bd dea2 db3c
0.08079011 0.042050984 -0.14281362 -0.034377355 -0.027104693 -0.05441731 0.0014156873 0.12254413
0.023204323 -0.06531363 0.18885592 0.15820369 0.1277642 -0.039694935 0.011014336 -0.06774698
-0.028892899 0.02728245 -0.11538023 0.07404826 -0.0061502326 0.12020583 -0.026935581 -0.037946884
0.033795077 -0.050548974 -0.08230145 0.041304342 0.019707497 -0.19533306 0.0234366 -0.09277058
-0.12552267 0.102995865 0.00062068447 -0.015054185 0.013480865 -0.032203726 0.0834572 -0.0828372
-0.0681706 0.2291927 -0.03536204 0.010156353 -0.006176613 0.11171141 -0.12153649 -0.08590979
-0.120367095 -0.10022752 -0.08976496 -0.0076375124 -0.0025558139 -0.060114425 0.10685648 0.074040376
0.017770497 -0.114865355 0.028883306 0.05406704 -0.008544082 0.13818836 -0.031135585 0.03942605
-0.1232508 0.03910995 -0.008314931 -0.026547322 -0.088173084 0.0355008 -0.041738596 -0.011334064
0.115275845 0.021113008 0.012727761 -0.019001776 -0.04379004 0.033277553 0.004155026 0.003662933
-0.0064747916 -0.09252307 0.10089518 -0.10804114 -0.10867594 0.026278261 -0.17658056 0.11687355
-0.060401194 0.0050235237 -0.05283263 -0.009217211 -0.091465786 -0.028125647 0.059377022 -0.025286848
-0.051067766 0.08619113 -0.0043227696 0.020984044 0.0644582 -0.13859868 0.06093657 0.046700668
-0.069372 -0.11459079 -0.03808178 0.004531151 -0.09703356 -0.013949009 0.037366956 -0.11139484
-0.065432966 0.08424719 -0.08534773 -0.08577394 -0.008249447 -0.09438944 -0.079870366 -0.077349715
-0.10760966 -0.052353535 0.011708062 -0.014821251 -0.017279636 0.027988797 -0.0710805 0.14294204
-0.011105577 0.04677031 0.07078872 -0.10989123 -0.04319991 -0.010406624 -0.101443924 -0.09888335
0.07821921 -0.05690839 -0.06296406 0.119690344 -0.045354534 -0.08482453 0.10212164 0.0032079201
-0.13151133 0.07378235 -0.06687175 -0.014410502 -0.051125094 -0.12590139 0.053656023 0.16730978
0.01520003 -0.16185313 0.081679165 0.1542849 -0.007925124 0.057799555 -0.117800966 -0.23169976
0.0001658016 -0.079725035 -0.14400525 -0.12785946 -0.13933213 -0.08196763 -0.09424908 0.016826196
-0.12039749 -0.09092888 0.05853299 -0.024991509 0.02254786 0.018825809 -0.07782783 -0.066495456
-0.02461535 -0.13561285 0.06764672 -0.002228099 0.081721574 0.06127057 0.03829019 -0.0687574
0.013133966 0.108542845 -0.13052759 0.12747048 -0.10364343 0.056172438 -0.046469856 0.015373886
0.14277947 -0.07133689 -0.18804607 0.015508732 -0.08021027 0.07396522 0.009216534 -0.085039094
-0.15452881 -0.049696032 0.017163381 -0.03787531 -0.15116206 -0.014484081 0.09899889 0.014983743
0.035652645 0.05365309 -0.05963935 -0.10639004 0.099720076 0.32715857 0.005764391 0.14620681
-0.14275274 0.03959777 -0.004260985 -0.083488956 0.035710916 -0.08140887 -0.009071179 0.08766284
0.053463556 -0.09548739 0.03359309 -0.012997481 0.027231472 -0.055499602 -0.06958845 0.010972154
-0.05567953 0.123064235 0.00750199 0.048164275 -0.06055519 -0.0720115 -0.09835577 -0.015596653
-0.048584852 -0.13978654 0.023135405 0.09706528 0.10952659 0.13176051 0.06283443 0.11177376
0.009116615 -0.07790304 0.079628 0.023298135 0.02380803 -0.15444991 -0.051812526 0.02681106

encoder.4.bias f4 [64]
00000000: 0000 0000 f6e2 c8ba 9790 18ba 70d5 123a
00000010: c4c9 f0ba 1f0b 85ba abac 29ba 9eb7 18bb
00000020: 487b 3739 c8d2 943a 49a7 8b39 b6d9 f4b9
00000030: 94d1 35ba 375a 04ba dc47 b1b9 2b9f fdba
00000040: f8ed 1039 607c 9eb9 8b2c f0ba 5bf4 d139
00000050: 7e60 2239 1a0a 203a fca3 d4b9 d92b 8839
00000060: c82b 563b 1cf2 7e39 fbee 443a 24d8 beb9
00000070: a117 17ba bd63 b6b9 a5bb feba 53a7 18ba
00000080: 6c0c e4ba 752f 85ba 544a 8937 de74 e737
00000090: 2455 b53a 4888 38bb 4d9d 5739 c1c2 d5b9
000000a0: 0000 0000 7f12 c938 37b0 1139 26d0 27ba
000000b0: e935 6eba 119a 23bb e4fa 34ba bfa3 efb9
000000c0: c9c1 0bba 56d9 dcba af2d 5ab9 7193 e9b9
000000d0: 66da 10ba 0000 0000 fed4 61ba 7c95 59b9
000000e0: b99d 2c39 1735 8139 221c 6439 eaca 9538
000000f0: 81b2 9dba f1af dcba 97f1 2a3a b422 3439
0.0 -0.0015326429 -0.00058198854 0.00056012627 -0.0018370678 -0.0010150409 -0.0006472568 -0.0023302804
0.00017498166 0.0011354322 0.00026636783 -0.00046701514 -0.00069358316 -0.00050488434 -0.0003381361 -0.0019349804
0.0001382156 -0.00030228775 -0.0018323822 0.00040045645 0.0001548547 0.0006105021 -0.0004055797 0.0002597261
0.0032679904 0.0002431352 0.00075124175 -0.0003640066 -0.0005763714 -0.00034788056 -0.0019434585 -0.0005823273
-0.0017398722 -0.0010161238 1.6366284e-05 2.7591766e-05 0.0013834578 -0.0028157402 0.00020562597 -0.0004077163
0.0 9.587872e-05 0.00013893923 -0.0006401561 -0.0009087013 -0.0024963657 -0.00069038407 -0.00045707633
-0.00053313054 -0.0016849439 -0.00020807119 -0.00044551076 -0.0005525708 0.0 -0.0008614807 -0.0002075042
0.00016461955 0.00024644352 0.00021754255 7.142669e-05 -0.0012031348 -0.0016837103 0.0006520985 0.00017179066

actor.0.weight f4 [64, 32, 3, 3]
00000000: acb5 aa3c 5fa3 9fbd 81a6 7ebd 09a2 87bd
00000010: 3581 163c cdb7 3f3c af5c 5b3d d01b 7d3d
00000020: b4e0 d1bd 358b bf3c 29cb b53b 1f8d cabc
00000030: 4cf9 d83c fa54 0e3c 728d 90bd 6406 39bd
00000040: 0da2 413c 285b f7bc bb6f 8fba bf04 843c
00000050: be36 853a ecba 873d b552 dcbd 2f9f 8d3d
00000060: 941f 19be 6816 763d b70b c43d 2174 c33d
00000070: 8b9c 323b 1afd d83d 4442 4e3d 670d 8ebb
00000080: 21cc 1abe 8fec af3d 1a1d 1c3d 340e 4c3d
00000090: e558 333e 7069 f5bc 47f4 2dbe 86f0 afbd
000000a0: 8481 c43a b772 f33c ff78 d1bd dc47 d13d
000000b0: 948c 113e b17e 3dbd 155a dc3c d4ac ce3d
000000c0: 0d55 b53d 4b55 0e3c 43a3 293d cd6c 203c
000000d0: de7d 833d 4021 003e 0aa5 323d e7ed 9c3d
000000e0: ca26 23bd 22b7 943d d517 2bbd c928 593d
000000f0: 9c26 afbc a215 b2bb 70ca 72bc c945 12bd
00000100: a2b1 a73d 4908 1abe 9064 283e 0931 8a3b
00000110: 2be6 00be 7968 213e 62f0 23bd 3cbd 4c3b
00000120: b21b 8f3d 6c35 103d 0f55 ab3d 7816 d2bd
00000130: 684a a03d 8196 513d 368c 473d 0672 43bd
00000140: 81c1 c8ba 337b c03c 76a5 7abc 6a2a 59bd
00000150: df92 833d b2e3 093e b0dd aebd fb28 783d
00000160: 3b3e 02be fa88 09be db5b c5bc f247 0ebe
00000170: 23e7 553d 129f d93c f61d 47bd 29f9 aa3d
00000180: f24f 853c 7e70 b73c 16f8 183e 9435 953c
00000190: 3f72 423d 72ed 08be 8eb1 8f3d 9790 44bd
000001a0: 090a 70bd 3e48 6a3c e027 02be 4d2b 993d
000001b0: 46a3 a83d 7389 73bc d00e 10bc 0c4c f7bd
000001c0: 388b 0b3e 4a01 92bd 9f7c babd 4f75 23be
000001d0: a283 f23d 7fd3 1fbc ed4e 363d 1f41 05be
000001e0: d3e6 f13d 1b9e bfbc df2b 47be 73da 5d3c
000001f0: 11c8 803c 0163 5abc b640 a5bd a7c2 01bd
00000200: bd48 a0bd 8763 303d 79e9 3ebd 7ff5 5bbd
00000210: b2c3 903d f3b3 623d b866 75bd f48d 133e
00000220: e401 533d 14c1 713b e16b 3f3e fa39 183c
00000230: f790 8fbd d536 80bd 26c1 da3d e035 3a3d
00000240: a7ee 313e b347 cfbc 7635 673c cedb 43bd
00000250: 9bf7 9bbd ae07 9bbd ce38 2ebe f613 7f3d
00000260: 2a62 66bb 479a 77bc 03e8 c23d cc21 083e
00000270: 9566 903a 17fa b0bd 6e54 d8bb 2794 bfbd
00000280: fd3f 8c3d 3fe2 f33b fd8e 48bd ecea e43d
00000290: 4129 133e f2f4 e23c 3769 733d 43fd 74bd
000002a0: b13b e6bd 6672 0f3c 7f22 543d e039 cfbc
000002b0: 3bc4 1abd e401 f7bb 8b2c 2e3d e681 b03d
000002c0: ba80 86bd ccb1 7e3c 7f81 6a3e ba3b 69bd
000002d0: fefe 663e 9a36 ba3d 8b49 b8bc 1d6b 023e
000002e0: 0577 943d 4456 7c3d 2358 eb3d b30f f33d
000002f0: 564f e3bd 007f 803d 6459 19bd 9bfc ec3d
00000300: 9e89 023d 4955 87bc 7648 cc3d 3a33 903d
00000310: 4111 323d 3edc bbbd 38b6 973e 2bff f83d
00000320: a5f8 ef3d 4998 923a fd7a 343d d511 b73d
00000330: b568 e2bc 8f9e cc3d 9b90 d9bd 0e85 443e
00000340: 4b3c a83d 7512 a83d 6687 37bc b7e6 bbbd
00000350: 28f8 bc3d edca 9c3d 5e1b c63d ecc3 d73d
00000360: f555 f83c 3016 c03d bbe8 043d 93a6 e7bd
00000370: f747 1f3e ac19 adbd 907f e73d 5bc4 c8bd
00000380: a874 f23b d337 27bd f8b0 cdbc 2e1a 353d
00000390: c219 42be 3f4c e2bd 10b6 c2bd bc4a 52bd
000003a0: 082b 423d 9a54 27be b709 0ebd d0f2 893c
000003b0: afe1 bc3c 6376 8d3d a9dc ebbd 7f7e 3cbd
000003c0: 0596 55bd c2f2 5b3d d9f1 b83c 8e1d 85bc
000003d0: a3dc 92bc b50c d6bb c10e efbc d02a 46bb
000003e0: 0557 3bbd b2a9 7a3d 48c6 d8bd 3772 cebd
000003f0: 0434 0ebe a612 6ebd 7b68 a03c 89d1 573d
0.020838581 -0.077948324 -0.06217051 -0.06622703 0.009186079 0.011701536 0.053555187 0.061794102
-0.10247937 0.023381809 0.0055479 -0.024725495 0.026486062 0.008687252 -0.070582286 -0.04517211
0.011818421 -0.030194834 -0.0010943332 0.016115544 0.0010163409 0.066274494 -0.107579626 0.069151275
-0.14953452 0.060079962 0.09572547 0.09543634 0.0027253951 0.1059515 0.050356165 -0.004335094
-0.15116931 0.08590042 0.03811369 0.049818233 0.1751438 -0.029957503 -0.16987716 -0.08590798
0.0014992212 0.029717786 -0.10228156 0.10218784 0.14213783 -0.0462634 0.026898423 0.10091558
0.08854113 0.008687328 0.041415464 0.009791565 0.06420492 0.12512684 0.043614425 0.07662564
-0.039831914 0.07261492 -0.041770775 0.05301741 -0.021380715 -0.0054347077 -0.014818773 -0.035711084
0.08188178 -0.15042223 0.16444612 0.004217271 -0.12587802 0.1576251 -0.04002417 0.0031240722
0.06987704 0.035207197 0.08365833 -0.10258192 0.07826692 0.051168922 0.0487177 -0.047716163
-0.0015316458 0.023496246 -0.015298238 -0.053018965 0.06424498 0.13465765 -0.08538377 0.060585957
-0.12719052 -0.13431159 -0.024091652 -0.13894632 0.052222382 0.026565108 -0.048612557 0.08348305
0.016273472 0.022392508 0.14938387 0.018214025 0.047472235 -0.13371828 0.07016288 -0.047989454
-0.05860332 0.01429945 -0.12710524 0.07478962 0.08234267 -0.014864313 -0.008792594 -0.12075052
0.13627326 -0.07129152 -0.09105801 -0.15962718 0.11841513 -0.009755014 0.044508863 -0.13013123
0.11811604 -0.02339082 -0.19450329 0.013540852 0.0157204 -0.013329268 -0.08068983 -0.031679776
-0.07826374 0.043063667 -0.046609376 -0.05370092 0.07068576 0.055347394 -0.059912413 0.1440962
0.051515475 0.0036888765 0.18693496 0.009291166 -0.07010072 -0.062604584 0.106813714 0.045461535
0.17376195 -0.025302744 0.014111867 -0.047817044 -0.07615586 -0.07569824 -0.17013857 0.062274896
-0.0035153725 -0.015112466 0.09516909 0.13294142 0.00110169 -0.08641451 -0.0066018617 -0.0935443
0.06848142 0.007442742 -0.04896449 0.1117762 0.14371206 0.02770469 0.059426513 -0.05981184
-0.11241854 0.008755302 0.05179071 -0.025296152 -0.037784796 -0.007538067 0.04252295 0.08618526
-0.065675214 0.01554532 0.22900961 -0.056941725 0.2255821 0.09092446 -0.022496006 0.12736173
0.07249264 0.061605707 0.1149142 0.11868229 -0.110991165 0.06274223 -0.037438765 0.11571618
0.031869523 -0.01652016 0.09974758 0.07041021 0.043473486 -0.09172867 0.2963121 0.121580444
0.11717347 0.00111843 0.044062603 0.08938948 -0.027637819 0.0999118 -0.106232844 0.19191381
0.08214625 0.082066454 -0.011201715 -0.09174865 0.092270195 0.076558925 0.096731886 0.10535416
0.030314425 0.09379232 0.03244851 -0.113110684 0.15554796 -0.08452162 0.113036275 -0.09803077
0.0073991604 -0.040824722 -0.0251088 0.04421442 -0.18955138 -0.11049699 -0.09507382 -0.051340804
0.04740432 -0.16340867 -0.034677234 0.016839415 0.023056833 0.06907346 -0.11516697 -0.046019074
-0.052145023 0.05369831 0.02257626 -0.016249444 -0.017927473 -0.0065322765 -0.02918184 -0.003023792
-0.045737285 0.06119699 -0.10584694 -0.100803785 -0.1388703 -0.058123253 0.01958107 0.052690063

actor.0.bias f4 [32]
00000000: f110 a5ba 4c74 f2b9 7c80 ba38 b77a 5f3b
00000010: f576 6bba 9a9a b0ba 880f 483a cfab f53a
00000020: 221d c93a 7302 35ba 4fb1 4238 e8e2 f338
00000030: 1f0e 4fba ac1d a43a 34c5 ef38 d3bf 13bb
00000040: 2c85 56bb 4736 1e3a ec3e 44bb dac7 d9b8
00000050: 6169 143b b03b d1b9 c18e 343a ea17 ff39
00000060: 1809 f3ba ac5d b9ba 23b8 30ba a0af 5cba
00000070: 9678 9d38 933e 89ba c439 063b 8577 a5ba
-0.001259355 -0.00046244485 8.893103e-05 0.0034100243 -0.00089822646 -0.0013473809 0.0007631709 0.001874322
0.0015343765 -0.0006904967 4.6418336e-05 0.000116294075 -0.00078985275 0.001252105 0.0001143314 -0.0022544756
-0.0032733185 0.00060353096 -0.002994473 -0.000103845916 0.0022645819 -0.00039908057 0.0006887727 0.00048655208
-0.0018542139 -0.0014142296 -0.00067413057 -0.0008418504 7.508804e-05 -0.0010470919 0.0020481208 -0.001262412

actor.2.weight f4 [32, 78, 3, 3]
00000000: e578 833d 035f bd3d f78a 143c 9381 82bc
00000010: 5d26 97bc c981 c4bb 6b33 cdbc 3bd9 86bd
00000020: 4d56 0a3d ad4a cc3d a77c eabd 2df8 fbbc
00000030: 9be2 98bd 2d67 8bbc 7f28 6abd e260 03be
00000040: 46e5 b5bc 6d80 9bbd bc7f 8ebc 5633 d9bc
00000050: 2966 b83b 32df 84bb cb06 e93d 2f04 933c
00000060: d442 69bc 1396 ba3b 4f27 80bd c8e3 363d
00000070: 2133 333d e684 3b3d 31ae 9c3d 5f36 103d
00000080: e020 00bd ced5 cabb 97c9 0fbc 093b b43d
00000090: e247 4cbd 81a3 94bc 67af 943d 6455 053c
000000a0: 025c babd ec17 d83d 91a3 063c 54b0 0d3c
000000b0: a969 9e3d ffa5 03bd 508f 013d 682f 83bc
000000c0: 4c1c 7e3b eb5d 473c cf8d 2e3c 2d66 173d
000000d0: 16d6 523d 8112 903c 8e35 fe3c 915a 8ebd
000000e0: 133f e43c 5147 4ebc 5119 c6bd 1e46 033e
000000f0: ef68 313d 24ba 2a3c 9233 a0bc d47f f13d
00000100: 6280 58bd e445 583c 288f f8bd 792c d43c
00000110: 921d 71bd 1e3b 9c3c 085d fa3c 054b 16bd
00000120: 0e1a a13c d556 cbbd fb2f 57bd 65bc 853d
00000130: 7116 1b3e 578e 703c 8245 06bb 6866 3d3c
00000140: caf3 a0bc 5527 a43d 4314 25bc 340f f2bb
00000150: 1c94 863c b7d1 1dbd 5ab7 90bd 328a 303d
00000160: afcf 7d3d 9ab0 873d 61e9 a0bd 0abc 42bd
00000170: 6c98 bcbc d631 06bd ff40 a33d c05f 003c
00000180: 1241 de3c b776 213d b486 db3c 94fc b23c
00000190: 6017 2b3d a6a4 a23d 4b86 7e3d a725 11bd
000001a0: ffcb 7fbd 3a4f 59bd 6279 ed3c 9c52 893d
000001b0: 5870 7c3c cda3 f63c 2cd9 373d b7ba 883d
000001c0: 3ab2 123d 8b63 413d 2188 dfbd 81aa 6fbd
000001d0: 5a0f ca3c c110 d43d fbe4 b6bc a0b2 6e3d
000001e0: 7edb 933d 78c3 b63d 7262 933d a000 9abc
000001f0: 2329 98bd f85d 2bbd 44a8 febd 428a f4bc
00000200: deb3 b4bc b95f 023d e228 20bd 734f c23c
00000210: 3a28 f3bc 7fa4 723c b2d7 613d 598c ddbd
00000220: 802f 06bd 0ae0 e4bc c29b 04bd a7b5 91bc
00000230: 5e3b 96bc 3df0 733c a340 b13c 13cf 1cbd
00000240: 1728 5f3d 7b63 6138 db44 e33c 3015 d83d
00000250: 8139 92bd 0950 04bc cf1c 9d3d 06a8 cf3c
00000260: a736 723c 253d 98bd b663 c43d 5cd5 223d
00000270: 035a a93d 9cc0 06bd c446 d8bd 16e9 91bc
00000280: ab9e cd3d b040 273e 0245 423d 72d3 75bc
00000290: 3a09 d63d 6539 bfbc 5016 443d 1089 c0bd
000002a0: 01ec 8cbd dc7d 843d c819 fd3d 26e9 a4bc
000002b0: 9a06 b5bd c15a 52bb 6383 8f3d 0d99 353d
000002c0: 5731 40bd 226f 763d 9cc1 1cbc 3c66 8cbd
000002d0: 2dff 9c3c a02b 013d f2c5 ffbc 2eec f23c
000002e0: c2b9 a0bc 664c 02bd 28d3 c8bc bf0f c93d
000002f0: cb6d 853d 0f3b 933d 8c1e b4bd a7bb f63c
00000300: 1a39 0dbd b676 d03c 8fca a13d ff72 f03a
00000310: defa 983d d1b1 0f3d d641 ddbc 281e 5c3c
00000320: 4b23 43bb c03b cb3c 6b12 ee3b 67a6 45bd
00000330: 432c 1f3d 82a4 233d b3dc a6bd fe5e 653d
00000340: c0fc 90bd 682a 17bd 8eb4 b9bd a5ba eb3b
00000350: 89ef 303d f599 f83b 2d91 33bc 74a9 2fbc
00000360: d924 0b3e 385f 9dbd 834d 8dbc 0768 923d
00000370: 1ad2 42bd bbb8 053c 2952 7dbd f1a3 2e3d
00000380: 6dda 36bd 9853 cabc 6934 4bbb d8dd c53c
00000390: 5f88 193d 9e3e 063d 10e2 363d 67a1 09be
000003a0: b013 713c 212e 07bd d1c2 b2bc 0a94 5c3c
000003b0: c28f c7bc c0d8 07bd e4b7 71ba cb16 013d
000003c0: aef1 043c de77 2f3d 0eb9 30bd 8924 69bd
000003d0: 0dbf f43b 6e43 003d f44d 05bd abd1 6f3d
000003e0: ac7d 383c 1ffb b83c 2fad dbbd 8181 803d
000003f0: 4455 dcbc 97de 3c3d d4b7 8f3b 9c1c 4e3c
0.06419543 0.09246638 0.009066335 -0.015930926 -0.01845091 -0.005996917 -0.025048932 -0.06584402
0.03377371 0.09975181 -0.11449557 -0.030757988 -0.074650966 -0.017016971 -0.057167526 -0.12829927
-0.022204053 -0.07592855 -0.017394893 -0.026513737 0.005627413 -0.0040549273 0.11378249 0.01794633
-0.0142371245 0.00569416 -0.062574975 0.044650823 0.043749932 0.04578104 0.07650412 0.035208102
-0.031281352 -0.0061900383 -0.00877609 0.088003226 -0.04987324 -0.018144371 0.07260018 0.0081380345
-0.0909958 0.10551438 0.008217708 0.008647997 0.07734997 -0.032140728 0.031630814 -0.016013816
0.003877419 0.012168388 0.010653927 0.036962677 0.0514737 0.017586948 0.031031396 -0.06950868
0.027862107 -0.012590245 -0.096727975 0.12819716 0.043312963 0.010420356 -0.01955584 0.117919594
-0.05285681 0.013200257 -0.1213668 0.025900112 -0.05886609 0.019071158 0.030561939 -0.036692638
0.019665744 -0.09928671 -0.052535992 0.06530074 0.1514528 0.014682374 -0.0020488207 0.01156006
-0.019647498 0.080153145 -0.010075632 -0.0073870663 0.016428046 -0.038530078 -0.070662215 0.043100543
0.06196564 0.06625481 -0.078570135 -0.04754261 -0.0230219 -0.03276237 0.079713814 0.007835329
0.027130637 0.039419856 0.02679763 0.021848954 0.04177034 0.079415604 0.06213979 -0.0354363
-0.062450405 -0.053054072 0.028988544 0.067052096 0.015407644 0.030107403 0.044884846 0.06676238
0.0358145 0.047214072 -0.109146364 -0.058512215 0.024665523 0.10354758 -0.022325983 0.05827582
0.07219599 0.089240015 0.07196511 -0.018799126 -0.07429721 -0.041837662 -0.12434438 -0.029851083
-0.022058424 0.03182957 -0.03910149 0.023719525 -0.029682267 0.014809727 0.055137344 -0.10817785
-0.032760143 -0.027938861 -0.032375105 -0.017786814 -0.018338855 0.01488882 0.021637267 -0.03828342
0.054481592 5.373683e-05 0.027742794 0.10550916 -0.07139874 -0.0080757225 0.076715104 0.025348675
0.014783538 -0.074335374 0.09589331 0.039754257 0.082691215 -0.03289853 -0.105603725 -0.01781134
0.10040029 0.1633327 0.047429092 -0.015004026 0.104509786 -0.023342798 0.04787284 -0.094011426
-0.06880952 0.06469318 0.12358433 -0.020130705 -0.0883915 -0.003209755 0.07007482 0.044335414
-0.046922054 0.06016458 -0.009567644 -0.06855437 0.019164646 0.031535745 -0.031222317 0.029653635
-0.019619826 -0.03181114 -0.02451475 0.098174565 0.06515082 0.07188999 -0.08794889 0.030118776
-0.034478284 0.02544723 0.07899963 0.0018344818 0.07469724 0.03508169 -0.027008932 0.013434924
-0.0029775675 0.024808764 0.007265379 -0.048254397 0.03886057 0.03995181 -0.08147564 0.055998795
-0.07079458 -0.036905676 -0.09067641 0.0071938806 0.04319719 0.0075867125 -0.010959906 -0.010721553
0.13588275 -0.07684177 -0.017248875 0.07148748 -0.04756365 0.008161719 -0.061845932 0.042636815
-0.0446419 -0.024698064 -0.003100658 0.024153635 0.03748357 0.03277456 0.044649184 -0.13440476
0.0147141665 -0.033002976 -0.021821411 0.01346303 -0.024360541 -0.033165693 -0.0009220822 0.031515878
0.008114262 0.042838924 -0.043145232 -0.05691961 0.007469064 0.031314306 -0.032545045 0.058549564
0.011260431 0.022580681 -0.107263915 0.06274701 -0.026896127 0.046110716 0.0043859277 0.012580063

actor.2.bias f4 [78]
00000000: 202b 203b 401d 44bb a9a3 c43a 982e 143b
00000010: 83f9 03bb 35b2 ff3a fb3a f0b9 0380 4a3b
00000020: 977b dcba 2014 863a 0000 0000 0000 0000
00000030: 0000 0000 0000 0000 0000 0000 0000 0000
00000040: 0000 0000 0000 0000 5a75 b639 1eb5 7ebb
00000050: 36bd 933b 52f5 1ebb 0000 0000 0000 0000
00000060: 0000 0000 0000 0000 0000 0000 0000 0000
00000070: 0000 0000 0000 0000 0000 0000 0000 0000
00000080: 0000 0000 0000 0000 0000 0000 0000 0000
00000090: 0000 0000 0000 0000 0000 0000 0000 0000
000000a0: 0000 0000 0000 0000 0000 0000 0000 0000
000000b0: 0000 0000 0000 0000 c244 8cbb 0000 0000
000000c0: 0000 0000 0000 0000 0000 0000 0000 0000
000000d0: 9def a63b 0000 0000 7bb9 353b 0000 0000
000000e0: 0000 0000 0000 0000 0000 0000 0000 0000
000000f0: 264a 10bb 0000 0000 0000 0000 0000 0000
00000100: 0000 0000 0000 0000 0000 0000 0000 0000
00000110: 0000 0000 0000 0000 0000 0000 0000 0000
00000120: 0000 0000 0000 0000 0000 0000 0000 0000
00000130: 0000 0000 0000 0000
0.0024439767 -0.002992466 0.0015002388 0.002261078 -0.0020137734 0.0019508066 -0.0004582031 0.0030899055
-0.0016821501 0.0010229386 0.0 0.0 0.0 0.0 0.0 0.0
0.0 0.0 0.0003480118 -0.0038865278 0.0045086397 -0.002425511 0.0 0.0
0.0 0.0 0.0 0.0 0.0 0.0 0.0 0.0
0.0 0.0 0.0 0.0 0.0 0.0 0.0 0.0
0.0 0.0 0.0 0.0 0.0 0.0 -0.0042806575 0.0
0.0 0.0 0.0 0.0 0.005094482 0.0 0.0027728963 0.0
0.0 0.0 0.0 0.0 -0.0022016852 0.0 0.0 0.0
0.0 0.0 0.0 0.0 0.0 0.0 0.0 0.0
0.0 0.0 0.0 0.0 0.0 0.0

critic.1.weight f4 [128, 1024]
00000000: bc69 07bd 463e c2bc c950 913c 0268 e53d
00000010: 0d81 70bb d111 b83c 3319 7bbd 766e 12bd
00000020: 84c7 a23d b295 35bb d9d1 063d c988 4d3d
00000030: 18ed b23a d303 3dbc 6b56 c2bd fa3f 833d
00000040: b8ab 843c 745f c7bd 4970 203c 2ecd fd3c
00000050: 4c29 1dbc 0a05 bf3c 4c6d 8b3c 04bb 86bb
00000060: 1f82 413d 5f2e cb3c c195 31bd 6836 34bd
00000070: 3ea8 43bc 050a 0dbd 2977 2dba f868 103d
00000080: 4d57 153d a8fb ce3c 5e4f 073d 22ac 9bbd
00000090: 19e7 21bd 758d 6ebc 37b3 1d3d 3b52 803d
000000a0: d0cf 173c c200 6abc a5bd 903b 5956 cc3d
000000b0: e4c9 283d 8a28 a5bd b736 203d cc46 1d3d
000000c0: 9f0b 933c 5041 03bc 352a 913d 776d d43c
000000d0: 73d0 8bbc bae3 123d fcb9 8c3c 164d 1ebc
000000e0: 4985 55bb d535 273d d4ea cd3c 937a c4bc
000000f0: 1fc1 853c ab1f a43c 8f39 1dbd 4a3d ce3c
00000100: f267 0fbc 0089 6a3d b007 44bc 7f4a 85bc
00000110: 3867 3bbd 0d2b 0a3d 6918 9f3c 7949 c63d
00000120: 7d98 06bd 954c b23b 82d4 e83d 0cc3 123b
00000130: b37d 94bc 4fad 8fbb 3ae3 1bbd 3244 fc3b
00000140: c6fe b8bc 0db8 69bd 4b36 19bd df05 d33c
00000150: 867f ba3c 1d2d 96bd 0f9f 4b3d c76f 083c
00000160: 2f91 ab3c 5554 0a3d 046d 233d 5ac9 253d
00000170: 9ee7 3a3b 84ef 793b 3ff4 e6bc 775b a43d
00000180: 132c 683b cba4 b9bb f4de b5bd 19a7 c43d
00000190: fcc1 2a3d 78f2 f8bc b609 87bc b0ba 31bd
000001a0: 0a1d 56bc 7027 703d 1039 99bd 1848 233d
000001b0: 323e 66bb 7410 97bd 259e 4cbd 5c4b 003d
000001c0: 3056 8a3d 7886 9fbc 4c48 c8bb bf55 64bd
000001d0: bc86 9a3c 2de0 753b 9a86 4f3d 9892 373d
000001e0: 6fa6 54bd 5e33 833b ea3f 8ebc 02f9 ba3b
000001f0: 8a4e 673c 22b7 b8bb 85ee 30bd 56f8 cd3c
00000200: 189e 9dbd 7362 49bd 02a2 c23c df31 1e3c
00000210: 9c89 aabc b5c4 61bc f9c7 c23c b978 f23a
00000220: e062 0dbd 8ec2 0fbb 9af0 213c c3cb eebb
00000230: 41e2 123d 2697 073d 35d9 903c f4b8 8bbc
00000240: 67c8 ad3c 77e0 053d 083d 5cbc 73ac 1e3a
00000250: 6bc6 a33c 00fa c0bc 9b36 093d f333 54bd
00000260: 97d2 9abb 737e 1e3d 553d 1d3d af55 9abc
00000270: a734 333c f017 6bbb cdea 94bd ec34 713d
00000280: e87d 10bd b411 323d ee07 8fbd 5a3e 0c3d
00000290: e531 1f3d 06fb f7bc 51cd a53d 6525 883d
000002a0: e698 583d a5c9 bcbd c69a 163d 85a4 b43b
000002b0: 6f8f 9fbc 4e32 21bd 51f0 8cbd 661c a33d
000002c0: 73f2 983c c0db 893c fbc4 9ebc 4c24 1a3d
000002d0: 6947 213d 47cc e0bc 5707 54bd 0aed c1bb
000002e0: 7038 df3c 8342 843b 9ed5 013d e97d d13b
000002f0: 742f 033c aadd a93c 9fbd 683c 582f abbc
00000300: 9e4f 503b d8ab ef3c 46f5 9e3d 6c7e a93a
00000310: 706a 9e3d d788 4e3b 764a 1c3d f21d 40bd
00000320: 0e90 82bd 9afc 603d 7064 5ebb 090a 543c
00000330: 1fa7 d5bc afdb 3a3d 1615 58bc 14d3 4cbd
00000340: 7e74 bc3d 9c61 653d a921 fc3b 2036 ad3d
00000350: e915 dfbc 4721 443c 9ed8 13bb 856b 633c
00000360: d9df 133d e7e1 5f3c 9d28 073d 32b7 c4bc
00000370: 34fd babc 001a 00bc b87d 5f3c 6c14 f1bc
00000380: 17f5 77bd 4936 59bb 381b 07bc b7a2 acbd
00000390: 9083 88bb 58a5 84bc fc75 283d 72df 79bd
000003a0: d9d9 1cbd be5b 4f3d 4683 813d 801b 903c
000003b0: dc90 473d 7bf0 51bc 9c5b b4ba 1b99 933c
000003c0: e4ed d03c 5761 0f3e 6a2b 983b 01dc 21bd
000003d0: fe5c f43c cb7d 30bd 0340 8f3d 4823 943d
000003e0: 45c9 5b3d 0f05 31bd f424 c33c 3bc8 6a3d
000003f0: 5d5c 2ebd 5961 d8bc e954 3bbd 6cf8 8cbb
-0.03305982 -0.023711335 0.017738717 0.112014785 -0.0036698014 0.022469433 -0.06130333 -0.035749875
0.07948211 -0.0027707634 0.03291497 0.050179277 0.0013650982 -0.011536556 -0.09489139 0.06408687
0.016195163 -0.09735003 0.009792396 0.030981626 -0.0095923655 0.023317832 0.01701989 -0.0041116495
0.047243234 0.024802385 -0.043355707 -0.0439972 -0.0119419675 -0.034433383 -0.00066171825 0.035256356
0.03646021 0.025266483 0.033034675 -0.07601191 -0.039527033 -0.014560093 0.03850099 0.06265684
0.009265855 -0.014282407 0.0044171386 0.09977407 0.041208163 -0.08064373 0.03911468 0.038397595
0.017949877 -0.008011177 0.070881285 0.025931103 -0.01706717 0.03586171 0.017178528 -0.009661933
-0.0032580665 0.040822823 0.025136389 -0.02398423 0.016327439 0.020034632 -0.03838497 0.02517571
-0.00875281 0.05725956 -0.0119647235 -0.016270874 -0.045752734 0.033732463 0.01942082 0.096819825
-0.032860268 0.005441258 0.11368658 0.002239409 -0.018126344 -0.0043846737 -0.038058497 0.007698559
-0.022582423 -0.05706029 -0.037405293 0.025759635 0.022765886 -0.073328234 0.049712237 0.008327431
0.020943252 0.03377183 0.039898887 0.040475227 0.0028519402 0.0038137147 -0.028192637 0.08025258
0.003542666 -0.005665397 -0.088804156 0.09602184 0.041688904 -0.030389056 -0.016484123 -0.04339093
-0.013068447 0.05863136 -0.07481587 0.039863676 -0.0035132286 -0.07376185 -0.049955506 0.03132187
0.0675472 -0.0194733 -0.006112134 -0.055745836 0.018863074 0.0037517652 0.050665475 0.044817537
-0.051916536 0.004003926 -0.017364461 0.0057059536 0.014117846 -0.0056370655 -0.04319622 0.02514283
-0.076961696 -0.049166154 0.023758892 0.009655445 -0.02081757 -0.013779809 0.023776995 0.0018499113
-0.034518123 -0.0021936032 0.009884024 -0.007287474 0.035860304 0.03310313 0.017681697 -0.017055966
0.021213723 0.03268477 -0.013442285 0.00060529186 0.019992074 -0.02355671 0.03349934 -0.051807355
-0.0047248113 0.03869481 0.03838857 -0.018839685 0.010937846 -0.0035872422 -0.07271347 0.05888836
-0.035276324 0.043473914 -0.06983934 0.03423915 0.038865943 -0.030271064 0.080958016 0.066477574
0.05288019 -0.09218148 0.036768697 0.0055127763 -0.019477574 -0.039354615 -0.06881774 0.07964401
0.018670296 0.016828418 -0.019381037 0.03763227 0.039374743 -0.027441157 -0.051764812 -0.00591815
0.027248591 0.004036249 0.03169786 0.0063931835 0.008006919 0.02073558 0.014205365 -0.020896599
0.0031785737 0.029256746 0.07761626 0.0012931353 0.07735145 0.0031514668 0.03815695 -0.046903558
-0.063751325 0.0549284 -0.0033934377 0.012941846 -0.026080666 0.045619663 -0.013188621 -0.050005987
0.092019066 0.05600129 0.0076944423 0.08457589 -0.027232127 0.011970825 -0.0022559534 0.013880615
0.03610215 0.013664699 0.032997716 -0.024013136 -0.022825815 -0.007818699 0.0136408135 -0.029428683
-0.06053647 -0.0033143929 -0.008246236 -0.08429473 -0.004166074 -0.016192123 0.041128144 -0.06100411
-0.038293693 0.0506246 0.063238665 0.017591238 0.048722133 -0.012813683 -0.0013760212 0.018017342
0.02550406 0.14001976 0.0046438472 -0.039516453 0.029829498 -0.043088716 0.06994631 0.07233292
0.053658742 -0.043217715 0.023821332 0.05731986 -0.042568553 -0.026413606 -0.045735274 -0.004302075

critic.1.bias f4 [128]
00000000: e5d4 68ba 97e5 bd39 0874 9e39 26d0 ad39
00000010: 5b89 c5b9 0000 0000 3bc5 a8ba 1601 1bba
00000020: d42e c039 34e3 b939 0000 0000 0000 0000
00000030: 5e52 c3b9 0000 0000 6789 cdba 6a11 5cba
00000040: 0000 0000 4291 2cba fde3 cbb9 bc72 d6b9
00000050: bb11 c5b9 390c c4b9 0000 0000 e06f 3bb9
00000060: 0000 0000 0000 0000 abd4 e8b9 8512 33ba
00000070: 03a7 a5ba 0000 0000 d472 ffb9 57e1 c3b9
00000080: 0000 0000 e853 84ba c310 c3b9 c0a8 92b9
00000090: 9237 c8b9 8bdf 7ab9 3cf8 cbba dbc5 1dba
000000a0: 0000 0000 7dfb b739 1a25 84b9 7d8e bd39
000000b0: 1702 a8ba 0000 0000 f097 a3ba 0000 0000
000000c0: 42fd c2b9 5bbf aab9 0000 0000 e416 65ba
000000d0: c463 c2b9 a25c bab9 0000 0000 e16d 28ba
000000e0: 574b 3bba 7b85 bdba 094d 9fba 4218 9bb7
000000f0: 0000 0000 6a31 d8b9 7804 d039 0000 0000
00000100: 2ecf b239 d3f2 b0b9 0000 0000 1432 c3b9
00000110: 9ee9 c1b9 ffe0 e3b9 1e71 c6b9 3bef cdb9
00000120: 4675 19ba 205e c539 bf6d a3ba 13af e838
00000130: 7c68 9eba 2776 c1b9 0000 0000 0000 0000
00000140: 803e bd39 b800 b639 f738 783a 30b3 8d39
00000150: 3641 bcb9 37f5 cdb9 f348 c3b9 0806 98b9
00000160: ce69 ba39 1237 b339 6241 92ba 7617 a339
00000170: 05ad c1b9 c78f b739 32fa 51ba 7a80 7935
00000180: 0000 0000 668e b8b8 0000 0000 0000 0000
00000190: 0a53 04ba 43e8 8839 b15f 1c39 0000 0000
000001a0: c9e1 6dba cc61 ceb9 0000 0000 f02f deb8
000001b0: 9950 bc39 8e44 9bba 0000 0000 2a84 bc39
000001c0: 0000 0000 730d 13ba a39f b3ba 6b03 bc39
000001d0: f4e4 c2b9 359a ae39 b025 a2b9 0000 0000
000001e0: 0000 0000 4464 20b9 9824 91ba 0000 0000
000001f0: 95ab b339 bb0d 25ba 0000 0000 c3cd da39
-0.00088818214 0.00036219947 0.00030222558 0.00033152214 -0.00037677106 0.0 -0.0012876162 -0.00059129426
0.00036655983 0.0003545523 0.0 0.0 -0.00037254667 0.0 -0.0015681208 -0.0008394929
0.0 -0.00065829244 -0.00038889042 -0.00040902745 -0.00037587978 -0.0003739314 0.0 -0.00017875386
0.0 0.0 -0.00044408938 -0.0006831068 -0.0012638274 0.0 -0.00048722944 -0.0003736119
0.0 -0.0010095807 -0.00037205787 -0.0002797302 -0.00038188376 -0.00023925134 -0.001556165 -0.00060185575
0.0 0.00035091853 -0.00025204645 0.0003615505 -0.0012818006 0.0 -0.0012481194 0.0
-0.00037191255 -0.00032567498 0.0 -0.00087390677 -0.00037076895 -0.000355457 0.0 -0.00064250646
-0.00071447104 -0.0014459336 -0.0012153696 -1.8488736e-05 0.0 -0.00041235547 0.0003967618 0.0
0.00034105167 -0.00033750254 0.0 -0.0003723061 -0.00036985887 -0.0004346445 -0.00037849782 -0.00039278888
-0.0005853962 0.00037644897 -0.001246862 0.00011095232 -0.0012085582 -0.0003689986 0.0 0.0
0.00036095455 0.0003471428 0.00094689376 0.0002702712 -0.0003590674 -0.00039283346 -0.0003724765 -0.00028996193
0.00035555515 0.0003418257 -0.0011158402 0.00031107262 -0.00036940738 0.00035011602 -0.00080099993 9.2946686e-07
0.0 -8.8003275e-05 0.0 0.0 -0.0005047774 0.0002611299 0.00014912967 0.0
-0.0009074477 -0.00039364246 0.0 -0.00010594714 0.00035918204 -0.0011845992 0.0 0.00035956624
0.0 -0.0005609609 -0.0013704192 0.000358607 -0.00037173147 0.0003330276 -0.00030927127 0.0
0.0 -0.00015296141 -0.0011073528 0.0 0.0003426938 -0.00062962965 0.0 0.00041733505

critic.3.weight f4 [1, 128]
00000000: 7815 0e3d 28e1 46be 080c 3dbc 6fd5 a3bc
00000010: eb5f 003d 39ba 33be 813d 6abb 4d36 4bbd
00000020: d09e 6abc 0eab 8abd 9048 be3d 0227 f83c
00000030: 83a2 7d3d 28a1 d6bd d103 96bd 8332 513d
00000040: cd67 ccbd d393 35bd ba0d 2e3e 6a48 253c
00000050: a763 353d 8790 333d e454 56be ec11 b1bc
00000060: ed36 453a 9a42 72be 997f ef3c 72a5 1ebd
00000070: e5e1 763d db4d 053d 83dc 5a3b 032d 4b3d
00000080: 678c 253c e6eb 70bd ce10 933d 1fa7 c93d
00000090: c220 de3c 5781 0d3b 74c9 e1bd 08b3 a3bd
000000a0: f7e1 b63c 2052 50bd c7b0 5d3a 292f 30be
000000b0: 1367 953d 638a e33c 1cdd 45be 88ed e4bd
000000c0: f7c1 983d 7494 493d a5bd 013e fb23 d33d
000000d0: e7f6 a13d 334d 223c a479 4a3d b7b0 803d
000000e0: 56eb ebbd d30b 9fbd 5bde 65bc 3853 22bc
000000f0: a596 bb3d bdff 023c d633 32bb 7d06 23bd
00000100: c3a3 4bbd e1b2 bf3c 64fe 26bc 4a20 783d
00000110: 4335 d23d d469 cb3c 8fff 163d 7925 873c
00000120: 3d4a 713a 8138 fabd c72a 533d 5dfa 23bb
00000130: 93c7 4e3e 5540 103e d750 833e 5bdf f4bc
00000140: 6365 0bbe 6ddc 11bd 2b12 c83c 348c 80bc
00000150: 3b99 063e fae6 7f3c 2477 8a3d 9881 13bd
00000160: c5f7 93bd ef56 ecbc 554c c5bd 31f3 40bd
00000170: 865c fb3d 5975 40bd 229f 203e c652 e83c
00000180: f36a 1b3e 6f2e e03d be1c 2bbe 10d3 abbd
00000190: 0112 983c 42de 203e 20ae 43bd 2e33 2d3d
000001a0: 97cb 603d 29ac 483c e916 75bd 21aa a03d
000001b0: 12cd dcbd 4e64 dd3d 1711 02bc 9008 e6bd
000001c0: 3d0c 3abd aa44 ea3a 4665 3cbe dcab cebd
000001d0: cb37 a53d 81eb aebc fba7 3ebc f440 943d
000001e0: 2b22 de3d a11a 93bd 610c a83c 43bd 8ebd
000001f0: 3bf1 02bd db2a f63d 210f 22bd b0ee bcbd
0.034688443 -0.19421828 -0.011538513 -0.019999234 0.031341475 -0.17551507 -0.0035742226 -0.049612332
-0.01432009 -0.06770907 0.09291184 0.030292038 0.06192256 -0.10479957 -0.07324947 0.051073562
-0.09980736 -0.04433043 0.16997424 0.010088066 0.04428449 0.043839004 -0.2093082 -0.021614991
0.0007523138 -0.23658219 0.029235648 -0.038732 0.060274024 0.032544952 0.0033395595 0.049603473
0.010104275 -0.05881872 0.071809396 0.09846329 0.02711523 0.0021591985 -0.11024752 -0.07993132
0.022324545 -0.05085957 0.0008456823 -0.1720549 0.072950505 0.027775949 -0.19322628 -0.11178118
0.07458871 0.04921384 0.1267 0.10309597 0.07908421 0.009906101 0.04943241 0.06283706
-0.11519496 -0.07765927 -0.014030064 -0.009907536 0.091595925 0.007995543 -0.002719154 -0.03980111
-0.049716722 0.023400726 -0.010192487 0.06057767 0.10264065 0.024830736 0.036864813 0.01649736
0.0009204483 -0.122178085 0.051554468 -0.0025021054 0.20193319 0.1408704 0.25647613 -0.02989166
-0.13612895 -0.035610605 0.024422726 -0.015691854 0.1314439 0.015619034 0.067610055 -0.036012262
-0.07224993 -0.028850047 -0.096337 -0.047106925 0.12273507 -0.04698691 0.15685704 0.028359782
0.15177517 0.109463565 -0.16710183 -0.08389866 0.018563272 0.15709785 -0.04777348 0.042285137
0.05488166 0.012248077 -0.059836302 0.078449495 -0.107813016 0.10810147 -0.007938645 -0.11232102
-0.045421828 0.0017873247 -0.18398008 -0.10091373 0.08067282 -0.021352531 -0.011636729 0.07238951
0.10846361 -0.071828134 0.020513715 -0.069696926 -0.031968337 0.12019893 -0.03956521 -0.092252135
