experiments/ppo_hrl/models/MicroRTSGridModeVecEnv__ppo_utils__1__1721366908/16384/harvest.pt (torch, 802530 bytes, 11 tensors)

encoder.1.weight f4 [32, 30, 3, 3]
0	0xbcc6009d	-0.024170214
1	0x3d94ec7c	0.07271668
2	0x3d9077af	0.07054078
3	0x3de10694	0.10987583
4	0xbc6c3808	-0.014417656
5	0x3d99a450	0.07502043
6	0x3d148e12	0.0362683
7	0xbd9bd11b	-0.07608243
8	0xbd482c4b	-0.048870366
9	0xbd1fdc45	-0.039028425
10	0x3d88bfb9	0.06677193
11	0x3dceb046	0.10092215
12	0x3d84b800	0.06480408
13	0x3db14863	0.08656385
14	0xbd329993	-0.04360349
15	0x3e0111d3	0.12604456
16	0xbd82e203	-0.063907646
17	0x3ddac424	0.10681942
18	0xbdc38079	-0.095459886
19	0x3dea701f	0.11447167
20	0xbd957750	-0.07298148
21	0x3dbad501	0.091226585
22	0x3e6199a1	0.22031261
23	0xbc5f03d6	-0.013611754
24	0x3dcbbf99	0.09948654
25	0xbdda9d88	-0.10674578
26	0x3c2aaad7	0.010416708
27	0xbd481849	-0.048851285
28	0xbd5dd2fb	-0.054156285
29	0xbe197428	-0.14985716
30	0xbd6b3dd5	-0.057432014
31	0x3b94e23e	0.0045435717
32	0x3b17e477	0.0023176947
33	0x3e0786f2	0.13235071
34	0x3de61718	0.112348735
35	0xbd4e16e5	-0.050314803
36	0x3e10987f	0.14120673
37	0xbe103c19	-0.14085425
38	0x3cfecad8	0.031102583
39	0xbca601f4	-0.020264603
40	0x3c8b8905	0.01703311
41	0x3d2f5d40	0.04281354
42	0xbd281d69	-0.041043673
43	0x3e5e93ad	0.21736021
44	0xbe0b90bc	-0.1362943
45	0x3d8eccd2	0.0697266
46	0x3e037d8a	0.12840858
47	0x3dd2e809	0.102981634
48	0xbe77b542	-0.24190238
49	0x3e22178a	0.15829292
50	0xbdaced44	-0.08443692
51	0xbe1fb0f6	-0.15594849
52	0x3db8a0f4	0.09015074
53	0xbd5bf15c	-0.053696975
54	0x3e0f7484	0.14009291
55	0x3d8da6ec	0.069166034
56	0xbcc9fef8	-0.024657711
57	0xbe000a12	-0.12503842
58	0xbe3d5196	-0.18488154
59	0xbdf8bdcf	-0.12145578
60	0xbaf145e5	-0.0018407671
61	0xbccfa2f2	-0.025346253
62	0xbce882cf	-0.028382687
63	0xbd092d15	-0.03349026
64	0xbe7caef9	-0.24676122
65	0x3d097006	0.0335541
66	0x3d6b9f80	0.057525158
67	0xbdd098a4	-0.10185364
68	0xbd61038b	-0.05493502
69	0xbe2c3011	-0.16815211
70	0x3d90e638	0.07075161
71	0x3d25187c	0.040306553
72	0x3d234bc0	0.039867163
73	0x3d56777b	0.05236004
74	0x3d536377	0.05160853
75	0xbdc823d7	-0.09772461
76	0xbd365299	-0.044512365
77	0xbd8674d4	-0.06565252
78	0x3dcada4f	0.0990492
79	0x3dbad113	0.09121909
80	0xbdaa4d1d	-0.083154894
81	0xbd94896a	-0.07252772
82	0xbd83e121	-0.06439424
83	0xbe4ef6dd	-0.20211358
84	0xbdc8ace3	-0.097986005
85	0x3dd4f4c3	0.10398247
86	0xbd1f4a82	-0.038889416
87	0x3cf79cfb	0.030226221
88	0xbba7fc6b	-0.005126526
89	0x3ce8c08e	0.02841213
90	0x3d28d632	0.041219898
91	0xbc75ccfe	-0.015002487
92	0xbcabee46	-0.020987641
93	0x3dff912f	0.124788634
94	0x3ddef12f	0.10885846
95	0x3debddea	0.11516936
96	0xbd9fdaf6	-0.07805435
97	0xbdddf2e1	-0.10837341
98	0x3b483d80	0.0030554235
99	0xbd35eab0	-0.04441327
100	0x3d296a43	0.041361105
101	0xbb3c14eb	-0.0028698992
102	0x3b550f7f	0.0032510457
103	0xbe38a99a	-0.18033448
104	0xbe4f4b4e	-0.2024357
105	0xbcf0839f	-0.029359637
106	0x3d23854d	0.039922047
107	0xbc5fef97	-0.0136679625
108	0xbd106c89	-0.035259757
109	0xbdd23bf5	-0.10265342
110	0xbcad101c	-0.021125846
111	0x3d2d9aed	0.042384077
112	0xbdc02591	-0.09382165
113	0x3b94e598	0.0045439713
114	0xbc090487	-0.008362896
115	0x3e4ed5c3	0.20198731
116	0x3bd7af8b	0.0065822056
117	0xbe060c2f	-0.13090585
118	0xbd639e55	-0.05557092
119	0x3d8a6ca5	0.067590035
120	0x3e2182d6	0.15772566
121	0xbc79b835	-0.015241672
122	0x3dc0c509	0.094125815
123	0xbde8ca12	-0.11366667
124	0xbc1d2248	-0.009590693
125	0xbdd18461	-0.102303274
126	0xbccb028f	-0.024781493
127	0x3d727eba	0.059202887
128	0x3d440c58	0.047863334
129	0x3dbcd039	0.09219403
130	0xbd6f7d78	-0.058469266
131	0x3d92fcfb	0.071771584
132	0x3dba31f1	0.09091557
133	0xbd85c16e	-0.065310344
134	0xbd428a78	-0.047495335
135	0x3dad939b	0.08475419
136	0x3d8c127f	0.06839465
137	0xbdc27d9a	-0.09496613
138	0xbd987d6c	-0.07445797
139	0x3cdf1985	0.027233848
140	0xbd68d7c8	-0.05684641
141	0xbd4fa8b8	-0.050698012
142	0xbe09a86f	-0.13443159
143	0xbe00910b	-0.1255533
144	0x3e019e5d	0.12658067
145	0xbe32f6bb	-0.17476933
146	0x3e38b139	0.18036355
147	0x3cbd069d	0.023074443
148	0xbbb2bf57	-0.0054549384
149	0x3dc6d4e8	0.097085774
150	0xbcd7b915	-0.026333371
151	0xbc5ba170	-0.013405189
152	0xbcafe346	-0.021470677
153	0xbdbf471b	-0.09339734
154	0x3db2bc3f	0.08727311
155	0x3d97618a	0.07391651
156	0xbd035d16	-0.032071196
157	0xbd481170	-0.048844755
158	0x3d48bceb	0.04900829
159	0xbdb41976	-0.08793919
160	0x3dad4783	0.084609054
161	0x3df81a67	0.12114411
162	0xbb999099	-0.004686427
163	0xbdbc6a13	-0.091999196
164	0xbdf59b66	-0.119925305
165	0xbde7285c	-0.11286995
166	0xbd2ed339	-0.042681906
167	0x3cc47f46	0.02398647
168	0x3c70c7e5	0.014696096
169	0xbcec8605	-0.0288725
170	0xbdb2a64d	-0.087231256
171	0xbd1f5d5c	-0.038907394
172	0xbe00efbb	-0.1259145
173	0xbd470a49	-0.048593793
174	0x3d7f356f	0.062306818
175	0xbd25b26d	-0.040453363
176	0x3dc8f86f	0.0981301
177	0x3c3844eb	0.0112469
178	0xbdd2cdcb	-0.10293158
179	0xbd304b41	-0.043040518
180	0xbc031e74	-0.008002866
181	0xba4bc1a4	-0.000777269
182	0x3dc11f10	0.09429753
183	0x3dd8d584	0.105876
184	0xbc5a74c9	-0.013333508
185	0x3ccac700	0.024753094
186	0x3d6f243c	0.058384165
187	0x3d497a4f	0.04918891
188	0xbc97f1a1	-0.018547835
189	0x3cd1f549	0.025629656
190	0xbda55392	-0.080725804
191	0x3e23e2d8	0.16004503
192	0xbc78aa0a	-0.015177259
193	0xbb2c7610	-0.0026315488
194	0x3d372e66	0.044721983
195	0x3e0c5df4	0.13707715
196	0x3d454fb1	0.048171703
197	0x3cbbaca7	0.022909475
198	0x3dc6efb4	0.097136885
199	0x3dc5028c	0.096196264
200	0xbbf4c8ae	-0.007470212
201	0xbd3141cd	-0.043275643
202	0xbb955cff	-0.004558205
203	0x3de171bc	0.11008021
204	0xbcfbda9f	-0.030743895
205	0x3e29b4a2	0.16572812
206	0xbd4663f9	-0.048435185
207	0xbc9af978	-0.018917784
208	0x3e31b53e	0.17354295
209	0xbdeeab39	-0.11653752
210	0xbe3192a3	-0.17341094
211	0xbbec62e4	-0.007213937
212	0x3d374565	0.044743914
213	0xbd2506aa	-0.04028956
214	0xbdad9fa2	-0.08477713
215	0xbe170687	-0.14748584
216	0xbc1d9f15	-0.009620448
217	0x3afd1dee	0.0019311288
218	0x3dd73e38	0.10509914
219	0xbe274bb7	-0.16337477
220	0xbc2625df	-0.010140865
221	0x3cce79cc	0.025204562
222	0xbd9dcb7f	-0.077048294
223	0x3d9f5c5e	0.077812895
224	0x3d71d916	0.05904492
225	0x3c87a242	0.016556863
226	0x3b365be5	0.002782577
227	0x3d7ac9e5	0.061227698
228	0x3d62fcd0	0.055416882
229	0x3d10ef26	0.03538432
230	0x3d8c3e30	0.06847799
231	0xbd1ac65c	-0.037786826
232	0x3e1e7b43	0.15476708
233	0xbda3e2d4	-0.080022484
234	0xbc2bfb94	-0.010496993
235	0xbd937650	-0.07200301
236	0x3e10515a	0.14093533
237	0x3db1e960	0.08687091
238	0xbd06d0bd	-0.032913912
239	0xbc8a7752	-0.0169026
240	0xbd24bd77	-0.04021975
241	0x3d9078fc	0.07054326
242	0x3ca900b9	0.020630227
243	0xbd19168e	-0.037375025
244	0x3d16700f	0.03672796
245	0x3d10022c	0.03515832
246	0x3c59426c	0.013260465
247	0xbcba8ccf	-0.02277222
248	0x3e073346	0.13203153
249	0xbda07c3e	-0.07836197
250	0xbd4ff4b6	-0.050770484
251	0xbd4ed037	-0.050491538
252	0x3d4f0dce	0.050550275
253	0x3d5bdc91	0.053677145
254	0xbdb6a108	-0.08917433
255	0x3c9be8ad	0.019031847

encoder.1.bias f4 [32]
0	0x391d01a4	0.00014973298
1	0xbb4e03ce	-0.0031435373
2	0x39820849	0.00024801705
3	0xb9e10cc5	-0.00042924858
4	0x3ad32544	0.0016109128
5	0xbb36c2d0	-0.0027887113
6	0xbb074c5c	-0.002064488
7	0xba26f7d6	-0.0006369328
8	0x3a534610	0.00080594514
9	0xbb0f12a3	-0.0021831177
10	0xb913e394	-0.00014103792
11	0xb8b8237d	-8.780414e-05
12	0x3aa7b4cf	0.0012794974
13	0xba838add	-0.0010035891
14	0xbad6f2b9	-0.0016399241
15	0xbb556178	-0.0032559317
16	0xb98c9e9f	-0.00026821063
17	0xbaa74118	-0.0012760488
18	0xb98e1670	-0.00027101068
19	0xbab695e8	-0.0013930174
20	0xb9c75b23	-0.0003802414
21	0xbabaa214	-0.0014238977
22	0xb9c54d21	-0.00037632234
23	0xba4acf9f	-0.00077366264
24	0x3a5c5143	0.0008404443
25	0x3b27abb2	0.0025584516
26	0x3b095324	0.0020954097
27	0xb9d271b8	-0.00040139048
28	0xbacd71b0	-0.001567414
29	0x3a0d0feb	0.0005381095
30	0xba1f6466	-0.0006080329
31	0x3b67ae0e	0.0035351547

encoder.4.weight f4 [64, 32, 3, 3]
0	0xbe204271	-0.15650345
1	0xbdb6f3e0	-0.08933234
2	0x3d1d060a	0.038335837
3	0x3d821d02	0.06353189
4	0x3d83b934	0.06431809
5	0x3d23d459	0.039997432
6	0xbdc0109d	-0.09378169
7	0xbdd7dd26	-0.105402276
8	0x3c04dbf2	0.00810908
9	0x3e09f022	0.1347051
10	0x3df6f464	0.120583326
11	0xbe180dbd	-0.1484899
12	0xbe445bb9	-0.19175614
13	0xbd5befb0	-0.05369538
14	0xbdb3ec18	-0.08785266
15	0x3d8357dc	0.06413242
16	0xbda35132	-0.07974471
17	0xbd962cb9	-0.07332749
18	0x3dea45ef	0.1143912
19	0x3ceaa008	0.028640762
20	0xbe1eab9c	-0.15495151
21	0x3bfcb1a0	0.0077116042
22	0x3da3a071	0.07989586
23	0xbd8707f8	-0.06593317
24	0xbd582840	-0.05277276
25	0x3c453c32	0.012038277
26	0x3d044085	0.032288093
27	0xbde2de2e	-0.11077534
28	0xbdc17275	-0.09445659
29	0xbc9f519e	-0.019448098
30	0xbd3ef66c	-0.046621725
31	0x3d8b9819	0.0681612
32	0xbd7b7069	-0.0613865
33	0xbe05baf0	-0.13059592
34	0xbdc8f085	-0.098115005
35	0xbcef2d76	-0.029196482
36	0x3e359dd9	0.17735995
37	0xbd068996	-0.032846056
38	0x3e191221	0.14948322
39	0xbc0d16df	-0.00861141
40	0xbddf8007	-0.10913091
41	0xbe075469	-0.13215794
42	0xbe16c4f5	-0.1472357
43	0xbcf8d22b	-0.030373653
44	0xbcd0a873	-0.025470948
45	0x3dcdcb37	0.10048526
46	0xbcdf2491	-0.027239116
47	0x3d50fb49	0.051020894
48	0xbdb5b739	-0.088728376
49	0xbd071044	-0.032974496
50	0x3e0a526b	0.13508002
51	0x3daf3617	0.08555239
52	0xbcdec0b9	-0.027191507
53	0x3dfd82a0	0.1237843
54	0x3d75de10	0.06002623
55	0x3cd59a08	0.026074424
56	0xbc5389f0	-0.012911305
57	0x3db45ae2	0.08806397
58	0x3d209da2	0.03921283
59	0x3d680dc8	0.056653768
60	0xbdc635e5	-0.09678248
61	0xbdeaa89a	-0.114579394
62	0x3d1bbd13	0.038022112
63	0x3bc461a2	0.005993084
64	0x3e2677b7	0.16256605
65	0x3d8dc55f	0.06922411
66	0xbe2a1491	-0.16609408
67	0x3daaffdb	0.08349582
68	0xbc98d655	-0.018656889
69	0xbda07e1d	-0.07836554
70	0xbe522370	-0.20521331
71	0x3cc7e247	0.02439989
72	0x3dc7a241	0.09747744
73	0x3da6195e	0.08110307
74	0x3d62412b	0.05523793
75	0x3d1ae6cc	0.03781776
76	0xbb60b9b5	-0.0034290378
77	0x3d2e8786	0.042609714
78	0x3dcf984e	0.10136472
79	0xbd33b3e4	-0.04387273
80	0xbd6e34e0	-0.058155894
81	0x3bafee39	0.0053689745
82	0x3c67bbd0	0.014143899
83	0xbcc2db27	-0.02378614
84	0x3d8d9315	0.06912819
85	0xbd3bcf22	-0.045851834
86	0x3c7b8407	0.015351302
87	0x3cb99544	0.022654183
88	0x3d849f78	0.06475729
89	0x3c907c38	0.017637357
90	0xbb68fdfb	-0.0035551775
91	0x3df011b9	0.1172213
92	0x3d707e72	0.058714338
93	0x3bd29ed4	0.006427625
94	0xbd445702	-0.04793454
95	0xbdb29b23	-0.08720996
96	0x3dd49726	0.10380392
97	0x3cffdf41	0.031234385
98	0xbe398dd4	-0.1812051
99	0xbe119f08	-0.14220822
100	0xbc9504b6	-0.018190723
101	0x3e21528d	0.15754147
102	0x3de098e5	0.10966662
103	0xbb305674	-0.0026906999
104	0x3cefe54f	0.029284148
105	0x3d52c6ab	0.051458996
106	0x3d767f17	0.060179796
107	0x3e2d747f	0.16938971
108	0xbd9a8403	-0.075447105
109	0xbd629106	-0.055314086
110	0x3dc625c0	0.09675169
111	0xbd867bae	-0.06566559
112	0x3dd402f7	0.10352128
113	0x3d5919e6	0.053003214
114	0xbd999443	-0.07498982
115	0xbd2c0e50	-0.042005837
116	0x3d6b019d	0.057374585
117	0xbd6e055c	-0.05811058
118	0xbcfb6f9e	-0.030692872
119	0xbca3844f	-0.01996055
120	0xbde870be	-0.11349629
121	0x3c1a8072	0.009430038
122	0xbd6fc435	-0.058536727
123	0x3b8df965	0.0043327087
124	0xbd9b3cff	-0.075799935
125	0xbd346736	-0.044043742
126	0xbd87d138	-0.06631702
127	0x3d6b0dac	0.057386085
128	0xbba96345	-0.0051693046
129	0x3d952e3d	0.0728421
130	0xbd9b8ac7	-0.07594829
131	0x3c3d5861	0.011556716
132	0xbe48bb5d	-0.19602723
133	0xbdf01b8c	-0.11724004
134	0x3d5b108d	0.05348258
135	0xbe65aa29	-0.22428192
136	0x3bde68e0	0.0067874044
137	0xbd754241	-0.059877638
138	0xbe0a3873	-0.13498096
139	0xb93cd156	-0.00018007061
140	0xbda1e29e	-0.07904552
141	0x3ba22eb9	0.0049494174
142	0x3d7df29a	0.06199894
143	0x3dd4c481	0.10389043
144	0xbdb70650	-0.08936751
145	0x3c9e0cfc	0.0192933
146	0x3df46953	0.119341515
147	0xbd05b977	-0.032647576
148	0x3e11716a	0.1420342
149	0x3d3fb604	0.046804443
150	0xbe07d0e9	-0.13263287
151	0x3e210392	0.15724018
152	0x3da191c4	0.07889131
153	0xbe486d60	-0.19572973
154	0xbbc44241	-0.0059893434
155	0x3d49f2cf	0.049303826
156	0x3c09cbf7	0.008410445
157	0xbd289814	-0.041160658
158	0xbdcaa557	-0.09894817
159	0xbc952110	-0.018204242
160	0xbc0410a9	-0.008060613
161	0xbce54389	-0.027986305
162	0x3d8d6665	0.06904296
163	0xbd52f4c2	-0.05150295
164	0xbdd5a4e2	-0.104318395
165	0x3d2dec89	0.042461906
166	0xbda5cc47	-0.080956034
167	0xbdabe361	-0.083929785
168	0xbbf12387	-0.0073589715
169	0x3c831c7a	0.01600479
170	0x3d954ae6	0.07289676
171	0xbaa37fe5	-0.0012474029
172	0x3d79e619	0.061010454
173	0xbd9f6270	-0.07782447
174	0x3d546d44	0.051862016
175	0x3d874f98	0.06606978
176	0xbcb34ccd	-0.021887207
177	0xbbc74317	-0.006080996
178	0x3c22af82	0.00992954
179	0xbd7da045	-0.061920423
180	0x3daeb958	0.08531445
181	0xbc80bcf9	-0.01571511
182	0xbdbe742f	-0.09299504
183	0x3e73471a	0.23757592
184	0xbd203323	-0.039111268
185	0x3e061ebc	0.13097662
186	0x3d12c4bc	0.03583215
187	0xbd3bfc35	-0.04589482
188	0xbc9007a8	-0.017581776
189	0x3c81b337	0.015832527
190	0xbdef7c7b	-0.11693665
191	0x3db4ab26	0.088217065
192	0xbdcf07ac	-0.10108885
193	0xbe09b065	-0.13446195
194	0x3d1abb9b	0.03777657
195	0xbd86e4d2	-0.06586613
196	0x3d958e1c	0.07302496
197	0xbc0d6b58	-0.00863155
198	0xbd399d78	-0.04531619
199	0xbbbcc862	-0.005761192
200	0xbda6944d	-0.08133755
201	0x3d34eb29	0.04416958
202	0xbde48912	-0.111589566
203	0xbda6ed41	-0.08150721
204	0xbab56d6c	-0.0013841814
205	0x3d7ff63c	0.062490687
206	0x3bb9c9a1	0.005669788
207	0x3d87eec1	0.066373356
208	0xbaac52dc	-0.0013147253
209	0x3bc64237	0.006050374
210	0xbd7609a4	-0.060067788
211	0x3cddc8d1	0.027073296
212	0x3da470ca	0.08029325
213	0x3e1fcf2a	0.1560637
214	0xbda35b01	-0.07976342
215	0xbd1a24fc	-0.037632927
216	0xbc486b13	-0.01223256
217	0xbdf9755b	-0.12180587
218	0x3d99cf1e	0.075102076
219	0x3c78e23d	0.015190658
220	0xbdc87593	-0.097880505
221	0x3bb467b4	0.0055055264
222	0xbd4d92ca	-0.050188817
223	0xbd84a1c6	-0.06476168
224	0xbd8f1b7e	-0.069876656
225	0x3e011b51	0.12608077
226	0x3d83f9ed	0.06444154
227	0x3bf08dfc	0.0073411446
228	0x3cb18d0b	0.0216737
229	0x3dd19060	0.102326155
230	0x3d9a107b	0.07522675
231	0xbd33d9c0	-0.043908834
232	0xbb894967	-0.0041896584
233	0xbd1b2903	-0.03788091
234	0xbd470e36	-0.048597537
235	0xbdb7adf1	-0.089687236
236	0xbcab658e	-0.020922448
237	0x3bd1004e	0.00637821
238	0x3e038aaf	0.12845872
239	0xbdb3c477	-0.08777707
240	0xbc1fd18e	-0.009754552
241	0xbcb80690	-0.022464067
242	0xbd87916c	-0.06619534
243	0xbd9d4d5b	-0.0768077
244	0xbde6352e	-0.11240612
245	0xbba6645e	-0.0050778827
246	0x3dadac1f	0.08480095
247	0xbd3b3827	-0.045707848
248	0x3cd9e9be	0.026600715
249	0xbda5f2dc	-0.081029624
250	0x3d76e7ab	0.06027953
251	0x3dcc03d1	0.099616654
252	0x3e03263a	0.12807551
253	0xbe1a0460	-0.15040731
254	0xbc0ec52b	-0.008714001
255	0xbc27d4ff	-0.010243653

encoder.4.bias f4 [64]
0	0xbb055054	-0.0020342069
1	0xba5336e9	-0.00080571935
2	0xba625e13	-0.0008635234
3	0xbb045386	-0.0020191385
4	0xbb06ff88	-0.0020599086
5	0x388670d0	6.410631e-05
6	0xbae08894	-0.0017130547
7	0xba26363e	-0.000634048
8	0xba66e901	-0.0008808524
9	0x3a13eda9	0.0005643019
10	0xbb14c83c	-0.0022702357
11	0x3b3c1208	0.002869727
12	0x3a05c285	0.0005102533
13	0x39ef4489	0.00045636695
14	0xb9fe2596	-0.0004847466
15	0xba181899	-0.0005802005
16	0x382a70ee	4.0636332e-05
17	0xb83029ea	-4.2000705e-05
18	0xb9c493f3	-0.00037494264
19	0xb9956a89	-0.0002849887
20	0xb95d451f	-0.00021101952
21	0x3ad6e00b	0.0016393674
22	0xb9efb836	-0.0004572288
23	0x3b9e78ba	0.004836169
24	0xba46f509	-0.00075896137
25	0xb9f0b421	-0.00045910574
26	0xbb05d904	-0.002042354
27	0x3936b95a	0.00017425921
28	0x3b098ae5	0.0020987329
29	0xbb24a4e8	-0.0025122706
30	0x38abbae4	8.1887265e-05
31	0x39dc86a4	0.00042061985
32	0xbb365fd6	-0.0027828119
33	0xb9392739	-0.00017657586
34	0x3ab96cdd	0.0014146824
35	0xbaccc078	-0.0015621325
36	0xba668f48	-0.0008795154
37	0xb807d1b6	-3.2381817e-05
38	0x3975a673	0.00023427028
39	0xba9b4d9b	-0.001184869
40	0xba165ff4	-0.0005736344
41	0xba30280a	-0.00067198335
42	0xb9dddc46	-0.0004231652
43	0x3b1d0b9b	0.0023963216
44	0xb8fcbb24	-0.00012051154
45	0xbabc8d70	-0.0014385413
46	0xb9f52b3b	-0.0004676225
47	0x3a5e0ab6	0.0008470224
48	0x37645d56	1.36115905e-05
49	0xba0d9326	-0.000540065
50	0xb7851495	-1.586442e-05
51	0x385c30f3	5.2497675e-05
52	0x3a8e08fa	0.0010836415
53	0xba763481	-0.0009391979
54	0x3acc22d9	0.001557435
55	0xb86e8fa6	-5.6877405e-05
56	0x3ae5bceb	0.0017527615
57	0x38dcf7ac	0.0001053655
58	0xb9b8c5c0	-0.0003524255
59	0x39f97f38	0.00047587766
60	0xbab47f87	-0.0013770916
61	0xba1f9ce3	-0.00060887466
62	0x3afb38a2	0.0019166658
63	0xbaf41530	-0.0018622037

actor.0.weight f4 [64, 32, 3, 3]
0	0x3ddeae2b	0.10873064
1	0xbda1e908	-0.07905775
2	0x3d6f459e	0.058416
3	0xbdb95dc2	-0.09051086
4	0x3da0c392	0.07849802
5	0xbc22490e	-0.009905113
6	0x3af50a47	0.001869508
7	0xbbaccd63	-0.0052735074
8	0xbbc9977c	-0.0061520915
9	0x3d116190	0.035493433
10	0x3cda0c45	0.026617179
11	0xbd9be54a	-0.07612093
12	0xbdb50169	-0.088381596
13	0x3dbe06b0	0.09278619
14	0xbd914c2b	-0.07094606
15	0xbd0c8eee	-0.034315996
16	0x3dcc371b	0.09971448
17	0xbba95def	-0.0051686685
18	0xbdbe11e5	-0.09280757
19	0xbd9a4896	-0.07533376
20	0xbe2994b2	-0.16560629
21	0x3dee0a70	0.116230845
22	0x3d8b9823	0.06816127
23	0xbddf501d	-0.10903952
24	0x3db92340	0.090399265
25	0x3e0ac6b9	0.13552369
26	0x3d3fdf5f	0.046843883
27	0x3c79783d	0.015226421
28	0x3db64cee	0.08901392
29	0xbcfa3ec4	-0.030547507
30	0x3e0017ca	0.12509075
31	0x3c3709af	0.011171742
32	0x3d758939	0.05994532
33	0x3dd01236	0.101597235
34	0xbd02dae7	-0.031947043
35	0xbcd508f9	-0.026005255
36	0x3d4c1782	0.049827106
37	0xbccceedf	-0.025016246
38	0xbcc47a15	-0.023983994
39	0xbde696e6	-0.1125925
40	0x3dbde450	0.09272063
41	0xbdcefc6c	-0.101067394
42	0xbc52545e	-0.0128374975
43	0x3d41a5e8	0.04727736
44	0x3dbe6d9e	0.092982516
45	0x3d3fc6bb	0.046820384
46	0xbe0b9280	-0.13630104
47	0x3e04092b	0.12894122
48	0xbde3371f	-0.11094498
49	0xbdd749c6	-0.10512118
50	0xbd373e6e	-0.044737272
51	0xbb0fa79d	-0.0021919974
52	0x3dcca63f	0.099926464
53	0xbd2eff50	-0.042723954
54	0x3d2ea5d4	0.042638615
55	0xbd99607d	-0.07489107
56	0xbd19cb9e	-0.0375477
57	0x3c934b4d	0.017980242
58	0xbd5c25db	-0.05374704
59	0x3dbd4545	0.09241728
60	0xbdb68afe	-0.089132294
61	0x3e83a04e	0.2570824
62	0x3e1a782d	0.15084906
63	0x3e658ed4	0.22417766
64	0x3af4134b	0.0018621472
65	0xbd653cb3	-0.05596609
66	0xbdff0dc3	-0.12453797
67	0xbe5813f1	-0.21101357
68	0x3da16d28	0.07882148
69	0xbd002735	-0.03128739
70	0xbde93c43	-0.11388447
71	0x3d29707a	0.04136703
72	0x3d27f73d	0.04100727
73	0xba39587b	-0.00070703746
74	0x3de2227e	0.11041735
75	0x3cddecc3	0.027090436
76	0x3d21aead	0.039473224
77	0xbc8d3999	-0.017239379
78	0x3c92bbc7	0.017911805
79	0xbd1914e9	-0.037373457
80	0xbe035e3a	-0.12828913
81	0x3dd745ee	0.10511385
82	0xbcceaa64	-0.025227733
83	0x3d09e368	0.033664137
84	0x3dc6012d	0.09668193
85	0xbd777db8	-0.06042263
86	0xbd98d098	-0.07461661
87	0xbd90282f	-0.070389144
88	0xbb7105ba	-0.0036777095
89	0xbd28eefc	-0.04124354
90	0x3c4216c1	0.011846245
91	0xbdad4338	-0.084600866
92	0x3d6b0b13	0.057383608
93	0x3d5a8a3b	0.053354483
94	0x3dcc37ae	0.099715576
95	0x3dc80ddf	0.09768271
96	0x3e081a9e	0.13291404
97	0x3d70e061	0.058807734
98	0xbc72ed6b	-0.014827113
99	0xbd00a5ea	-0.031408228
100	0x3dd8047b	0.105477296
101	0xbd528f68	-0.051406294
102	0xba894694	-0.0010473304
103	0xbd879a7b	-0.06621262
104	0x3c3b5dd1	0.011435942
105	0xbde5fa57	-0.11229389
106	0x3d9897fb	0.07450863
107	0xbb4a267c	-0.0030845692
108	0x3e4354c6	0.19075307
109	0xbc83df8a	-0.016097803
110	0x3d1aea20	0.037820935
111	0xbdd3b955	-0.10338084
112	0xbc89499a	-0.016758729
113	0xbc8f6aaa	-0.017506916
114	0x3d0b8295	0.03406008
115	0x3cb4a04c	0.022049092
116	0x3c9008bb	0.017582288
117	0xbb8e2974	-0.0043384377
118	0xbdf6925b	-0.12039634
119	0x3be495e6	0.006975877
120	0x3e45e94b	0.19327275
121	0x3c37c522	0.011216434
122	0x3d4a23b4	0.049350455
123	0xbd3ae7cf	-0.045631226
124	0x3da187c3	0.078872226
125	0x3c0ae6b2	0.008477854
126	0x3c3c81c6	0.01150555
127	0x3c90718d	0.01763227
128	0x3b290841	0.0025792273
129	0x3c2b3c1a	0.010451341
130	0x3e1e4fa7	0.15460072
131	0xbcfd9f78	-0.03095983
132	0x3c0bd052	0.008533554
133	0x3d160f33	0.03663559
134	0xbd3b675a	-0.04575286
135	0x3d6743d3	0.056461167
136	0x3d67ab2a	0.05655972
137	0x3c6ca4e7	0.014443613
138	0xbced2e94	-0.028952874
139	0x3db9829a	0.090581134
140	0x3b1fec1e	0.0024402211
141	0xbde3d85c	-0.11125252
142	0xbcb740cb	-0.022369763
143	0x3d906f86	0.070525214
144	0xbdfb4e71	-0.12270821
145	0x3de3cc90	0.111230016
146	0x3d49e6a3	0.049292218
147	0x3b90f507	0.004423741
148	0xbb755662	-0.0037435521
149	0x3dbd7e7b	0.0925264
150	0xbd229a95	-0.039698202
151	0xbdc5d2a2	-0.09659316
152	0xbd9159fb	-0.070972405
153	0xbc7abf9f	-0.015304475
154	0xbbb80daf	-0.0056168656
155	0x3d98e4e0	0.074655294
156	0xbce13441	-0.027490737
157	0x3d8ac5bb	0.06775995
158	0xbe1ec5f8	-0.15505207
159	0xbe1ec8bf	-0.15506266
160	0xbe219577	-0.15779673
161	0xbd51c40c	-0.051212355
162	0x3e553362	0.20820382
163	0x3c91fafb	0.017819872
164	0x3d906163	0.07049825
165	0xbde1f743	-0.110334896
166	0x3d8a9304	0.06766322
167	0xbb5fa961	-0.0034128057
168	0x3e17ce28	0.14824736
169	0x3dbd21f0	0.09234989
170	0xbe4d0847	-0.20022689
171	0xbd02af27	-0.03190532
172	0x3d2679f3	0.040643644
173	0x3d2d3f80	0.042296886
174	0x3e7badce	0.2457802
175	0xbd152c1b	-0.036419015
176	0xbdb6d730	-0.089277625
177	0x3d6cf440	0.057850122
178	0xbe08267e	-0.13295934
179	0xbd322978	-0.04349658
180	0xbd1673b6	-0.036731444
181	0x3e4acd53	0.19804887
182	0xbe2a0b6d	-0.16605921
183	0xbd88bda2	-0.066767946
184	0xbdf2a20a	-0.11847313
185	0x3c936d47	0.017996443
186	0x3b7998c2	0.0038085436
187	0xbcc8a2d0	-0.024491698
188	0xbcfee8f4	-0.03111694
189	0xbd287b44	-0.04113318
190	0x3d6348b6	0.055489264
191	0xbdbf5095	-0.09341542
192	0x3d97a9c6	0.074054286
193	0x3c31e74e	0.01085837
194	0xbc9a86e4	-0.018863149
195	0xbce1fbf8	-0.027585968
196	0xbcf8ef1b	-0.030387452
197	0x3d8e65f4	0.0695304
198	0x3c2f56ae	0.010701818
199	0x3b5215f3	0.003205654
200	0xbdeb9adf	-0.11504149
201	0x3d3010d8	0.042984813
202	0xbcb36110	-0.021896869
203	0xbd2dad2a	-0.04240147
204	0x3ceeb22f	0.029137699
205	0xbc6bc388	-0.01438988
206	0xbc860efd	-0.016364569
207	0xbdb93160	-0.09042621
208	0xbe493398	-0.19648588
209	0x3c1118a0	0.008855969
210	0xbe4733d2	-0.19453362
211	0xbe0a0d68	-0.13481677
212	0xbd5617fa	-0.05226896
213	0xbda60d5e	-0.08108018
214	0xbc8c4259	-0.01712148
215	0x3d60c6cd	0.05487709
216	0xbd994c1f	-0.07485222
217	0x3cd1d930	0.025616258
218	0x3d47b141	0.048753027
219	0x3d556d72	0.05210633
220	0xbc64e161	-0.01396975
221	0xbcc9689d	-0.024586016
222	0x3ca70ba6	0.020391297
223	0xbe080baf	-0.13285707
224	0xbd7a29d9	-0.061075065
225	0x3e11c95d	0.1423697
226	0xbcfa18dc	-0.030529432
227	0xbd816caa	-0.06319554
228	0x3c901c90	0.017591745
229	0x3ddfc9fb	0.109271966
230	0xbd0f604b	-0.03500394
231	0x3d2d49b7	0.042306628
232	0xbdd42135	-0.10357896
233	0xbd827818	-0.06370562
234	0xbd3f1583	-0.046651375
235	0x3e0d1e49	0.13781084
236	0x3cc9c770	0.024631232
237	0xbcd7927b	-0.026314965
238	0x3d93f19a	0.07223816
239	0xbddbe835	-0.10737649
240	0x3a80bc87	0.000982181
241	0x3dffa44d	0.1248251
242	0x3e415ae9	0.18882336
243	0x3dd3e0f8	0.10345644
244	0xbd9e7aaf	-0.07738244
245	0x3ba57945	0.005049857
246	0xbd137e12	-0.036008902
247	0xbd19e16f	-0.037568506
248	0x3dabd615	0.08390442
249	0xbc9a9713	-0.018870866
250	0xbd13d1d9	-0.0360888
251	0xbd9281a5	-0.07153634
252	0x3dbee5ae	0.09321152
253	0xbd0cedc6	-0.034406446
254	0xbdc62d6a	-0.09676631
255	0xbda6a82b	-0.08137544

actor.0.bias f4 [32]
0	0xbac7544d	-0.0015207619
1	0x39b42d22	0.00034365902
2	0x3aada34d	0.001324752
3	0x39c244b7	0.0003705376
4	0xbb15d8fc	-0.0022864928
5	0xbaf52cdd	-0.0018705387
6	0xbab3b3cb	-0.0013710199
7	0x3af1c792	0.0018446317
8	0xbb34cb42	-0.0027586971
9	0xbb0fdb7b	-0.002195089
10	0x36e41050	6.7968285e-06
11	0x39a82f2e	0.0003207861
12	0x3b56b073	0.003275898
13	0xba8232c2	-0.000993334
14	0xbae708b3	-0.0017626494
15	0x3b738cf0	0.0037162863
16	0xb7ab0718	-2.0388092e-05
17	0xbadaa83b	-0.0016682217
18	0xb86673f4	-5.4944263e-05
19	0x3aa37253	0.0012469984
20	0x3b33955b	0.0027402255
21	0x3a58a2b3	0.000826399
22	0x3a92543e	0.0011164022
23	0xba84c3ae	-0.0010129118
24	0x388f1bdc	6.8239606e-05
25	0x3a5eafec	0.00084948423
26	0xbb4ccc3d	-0.0031249665
27	0x3a6f71d6	0.00091340893
28	0x396fd956	0.0002287378
29	0x3b29d755	0.0025915701
30	0x3b5c57d9	0.0033621697
31	0xbb1427fa	-0.0022606836

actor.2.weight f4 [32, 78, 3, 3]
0	0xbae7deee	-0.001769034
1	0x3d23d673	0.039999437
2	0xbb8bcfd9	-0.0042667207
3	0x3b5f84fb	0.0034106362
4	0x3ce56b51	0.028005274
5	0x3d0ed23e	0.03486847
6	0xbd7e1ad9	-0.062037323
7	0xbca67b48	-0.020322457
8	0xbdac01ec	-0.08398804
9	0xbd99bec1	-0.075070865
10	0xbd68dff0	-0.05685419
11	0x3d1c1471	0.038105432
12	0x3d69b8d5	0.057061035
13	0xbcb6dc27	-0.022321774
14	0x3da26d61	0.079310186
15	0x3d2ac83d	0.04169487
16	0xbd245b98	-0.040126413
17	0xbd8cdda2	-0.068782106
18	0xbd6a68a2	-0.057228692
19	0xbc7e8423	-0.015534434
20	0x3d9427eb	0.07234176
21	0xbd9f9606	-0.077922866
22	0x3dbfa755	0.09358088
23	0xbd6154a8	-0.055012375
24	0x3d8e46e9	0.06947119
25	0xbd6d3248	-0.05790928
26	0xbd83ce38	-0.064358175
27	0x3d05123b	0.03248809
28	0xbc2d4bf9	-0.010577195
29	0x3cad86e9	0.021182494
30	0xbb03d7b1	-0.0020117576
31	0x3da79b5f	0.081839316
32	0x3bfc8026	0.007705706
33	0xbdb51b81	-0.088431366
34	0xbd3e2c74	-0.046429113
35	0x3bbeceb1	0.0058229794
36	0x3cc1db76	0.023664217
37	0xbd8aad81	-0.067713745
38	0x3d7f1ea8	0.062285095
39	0x3c4fef22	0.012691291
40	0xbd296cc8	-0.041363508
41	0x3d19657a	0.03745029
42	0xbd943595	-0.072367825
43	0x3d0c2ba0	0.03422129
44	0x3d2196a7	0.039450314
45	0x3d41a2c2	0.04727436
46	0x3c15d312	0.009144561
47	0x3c88761a	0.016657878
48	0x3bf10b6c	0.007356098
49	0x3c7fc657	0.015611253
50	0x3d2fbc2d	0.042904068
51	0xbc1ce8cd	-0.009576988
52	0xbbff3c36	-0.00778916
53	0xbda40d03	-0.08010294
54	0x3cd79ce5	0.02631993
55	0x3dc0cef7	0.094144754
56	0xbd96d241	-0.073643215
57	0xbd0eb099	-0.034836385
58	0xbdd1cfe9	-0.10244734
59	0x3db6a3e4	0.089179784
60	0x3ac651b2	0.0015130548
61	0xbd6a33f1	-0.05717844
62	0xbd60026b	-0.054689806
63	0x3d9d6a6c	0.07686314
64	0xbd62c6c9	-0.055365358
65	0xbc16d95e	-0.009207098
66	0xbd014c5a	-0.031566955
67	0xbd9664ff	-0.07343482
68	0x3d5763af	0.0525853
69	0x3d049db8	0.032376975
70	0xbdfee65b	-0.124462806
71	0x3d05883c	0.032600626
72	0x3c37cee8	0.011218764
73	0x3b004aa7	0.0019575746
74	0xbd5cded4	-0.053923443
75	0x3d7164e1	0.058934096
76	0x3d279917	0.040917482
77	0xbdb156c9	-0.08659131
78	0xbc9ec638	-0.019381627
79	0xbd8bcd10	-0.06826222
80	0x3d98e6b0	0.07465875
81	0xbc856c23	-0.016286915
82	0xbd7c953f	-0.06166577
83	0xbc90a9d8	-0.017659113
84	0x3cc68ad3	0.024236118
85	0xbc5b7132	-0.013393687
86	0xbd9dcfdf	-0.07705664
87	0xbd7dfa43	-0.062006246
88	0x3d8eb4bc	0.06968066
89	0xbe0b91e3	-0.1362987
90	0x3df18b0c	0.11794099
91	0xbd88144e	-0.06644498
92	0xbda8d973	-0.082446
93	0xbd5fdbe8	-0.05465308
94	0x3d0cfe5f	0.034422275
95	0xbd4d8d99	-0.050183866
96	0x3d226b00	0.039652824
97	0x3c1871bd	0.009304461
98	0x3afd8a8a	0.0019343656
99	0xbd42a75e	-0.047522895
100	0xbbea77ea	-0.007155408
101	0xbda2af40	-0.079435825
102	0x3d49d35a	0.049273826
103	0x3d131abf	0.03591418
104	0x3ce05fcc	0.02738943
105	0x3cb9cb4e	0.022679951
106	0xbd832937	-0.064043455
107	0xbdd8a7c7	-0.10578876
108	0xbc7edb43	-0.015555206
109	0x3c64e83e	0.0139713865
110	0x3e071459	0.13191356
111	0xbd4d4a9b	-0.050119977
112	0x3cb2e930	0.021839708
113	0xbd517f44	-0.05114676
114	0x3c066689	0.008203157
115	0xbcc62de6	-0.024191808
116	0xbdf46eb2	-0.11935176
117	0x3bab3270	0.0052245185
118	0xbda72986	-0.08162217
119	0xbc1cf7f3	-0.0095806
120	0x3d14c8ce	0.036324315
121	0xbd46c629	-0.048528824
122	0xbd54c1df	-0.051942702
123	0xbdd6e67d	-0.10493181
124	0xbde334cf	-0.11094057
125	0x3d1791f7	0.037004437
126	0xbd735033	-0.059402656
127	0xbd86bd96	-0.065791294
128	0x3db4ef3d	0.088346936
129	0x3d470efb	0.04859827
130	0xbd889a5d	-0.066700675
131	0xbd91592a	-0.07097085
132	0xbbd1c1a2	-0.0064012567
133	0xbd84d468	-0.06485826
134	0xbd3fbc7b	-0.04681061
135	0xbd245792	-0.040122576
136	0xbd0011b3	-0.03126688
137	0xbcc4b474	-0.024011828
138	0xbd71b8e1	-0.059014205
139	0xbd6a8b00	-0.057261467
140	0x3c6e3c68	0.014540769
141	0xbd21f888	-0.03954366
142	0x3cf6e76c	0.030139647
143	0xbd7ed30c	-0.06221299
144	0xbca07826	-0.019588541
145	0x3de31efb	0.110898934
146	0x3cd9a3c1	0.026567342
147	0xbd8721a3	-0.065982126
148	0x3d1979c6	0.037469648
149	0x3d27fbd0	0.04101163
150	0x3c229d17	0.009925148
151	0xbcd10855	-0.025516668
152	0x3c36707e	0.011135219
153	0x3d757e1a	0.059934713
154	0xbd02d055	-0.031936962
155	0xbdbd138a	-0.092322424
156	0xbcd47afc	-0.02593755
157	0xbd545b15	-0.051844675
158	0xbd94239c	-0.072333544
159	0x3ceff03a	0.029289354
160	0xbdc26d38	-0.09493488
161	0xbd71ea62	-0.059061415
162	0xbbd21943	-0.006411703
163	0xbd095d10	-0.033536017
164	0xbb8326b5	-0.004002417
165	0xbc5743c9	-0.01313872
166	0x3d2f1c8a	0.042751826
167	0x3d84b421	0.06479669
168	0xbd9d5679	-0.07682509
169	0x3cf1620c	0.029465698
170	0x3d9a45c2	0.075328365
171	0x3d689141	0.05677915
172	0xbd358768	-0.044318587
173	0x3cbae675	0.022814969
174	0xbc99a73a	-0.018756498
175	0xbddb014c	-0.10693607
176	0xbd2e0940	-0.04248929
177	0xbd025e2a	-0.031828083
178	0xbbffc4c4	-0.0078054387
179	0xbd60f743	-0.054923307
180	0x3d6cb145	0.057786245
181	0x3d806454	0.06269136
182	0x3d170a1c	0.036874875
183	0xbd6f27ff	-0.058387753
184	0xbb18cfbd	-0.002331718
185	0xba1386ef	-0.00056277117
186	0x3ce2669a	0.027636815
187	0xbd6041d2	-0.05475027
188	0xbd436b56	-0.047709785
189	0xbdd82f92	-0.10555948
190	0x3c8a5231	0.016884895
191	0x3d6a5c32	0.05721683
192	0xbb72581c	-0.0036978787
193	0x387b80c5	5.996299e-05
194	0x3b781598	0.0037854668
195	0x3db1c619	0.08680362
196	0x3d10cbc3	0.035350572
197	0xbd083c24	-0.03326048
198	0x3d990f45	0.074736156
199	0x3d9a09a7	0.07521372
200	0x3ae3ece7	0.0017389328
201	0x3c02478a	0.007951627
202	0x3d35264e	0.044225983
203	0xbb3bf86c	-0.0028682007
204	0x3d89a395	0.06720654
205	0x3da0f50a	0.078592375
206	0xbd0f572e	-0.03499525
207	0xbc69e4db	-0.014275755
208	0x3c1f220e	0.009712709
209	0x3d865540	0.06559229
210	0x3d86458b	0.06556233
211	0xbd804e13	-0.062648915
212	0xbb811cd2	-0.003940203
213	0xbd6e2d9e	-0.058148973
214	0xbcf02111	-0.029312642
215	0x3da26014	0.07928482
216	0xbd6d18d7	-0.057885017
217	0x3be5a166	0.0070077656
218	0xbd87311a	-0.06601162
219	0xbdb4aa34	-0.08821526
220	0xbcba597a	-0.022747744
221	0xbc184757	-0.0092943525
222	0x3ddea1b9	0.1087069
223	0x3d4dc3d7	0.050235596
224	0x3c8101ed	0.015747989
225	0x3e027fe8	0.12744105
226	0xbdb4f205	-0.08835224
227	0xbaab7759	-0.0013081833
228	0x3d92e4c6	0.07172541
229	0xbadf0993	-0.0017016403
230	0xbcaeba8b	-0.021329185
231	0xbcdc9cf2	-0.026930306
232	0xbcb7e3ce	-0.022447493
233	0x3d88c25f	0.06677698
234	0xbc1b4ef8	-0.009479277
235	0x3d99e712	0.07514776
236	0x3dbea11d	0.09308074
237	0xbbdfc966	-0.0068294285
238	0xbd468bca	-0.048473157
239	0x3d0c2b41	0.034220938
240	0x3ca29fdf	0.019851623
241	0xbc2f07ec	-0.010683041
242	0xbc2649fb	-0.010149474
243	0xbc3cca2e	-0.011522813
244	0xbcdb756c	-0.02678939
245	0xbcf25caa	-0.029585201
246	0x3d8d9c6b	0.069146
247	0xbc7ef245	-0.015560691
248	0x3b8844b6	0.0041585816
249	0xbd532b32	-0.051554866
250	0x3cdb1187	0.026741756
251	0xbd72a011	-0.059234682
252	0x3d4994ab	0.049214046
253	0x3cbda881	0.023151638
254	0xbd5b35c0	-0.053518057
255	0xbbaf9446	-0.0053582517

actor.2.bias f4 [78]
0	0xbac8460f	-0.0015279668
1	0xbaec6585	-0.0018035626
2	0x3c0bd080	0.008533597
3	0x3bfa80d4	0.007644752
4	0x39c514d2	0.0003759028
5	0xbafab0df	-0.0019126198
6	0xba6781d7	-0.00088312983
7	0x3b0c8f30	0.002144765
8	0xbb495b63	-0.0030724637
9	0x3a59bde2	0.0008306188
10	0x00000000	0.0
11	0x00000000	0.0
12	0x00000000	0.0
13	0x00000000	0.0
14	0x00000000	0.0
15	0x00000000	0.0
16	0x00000000	0.0
17	0x00000000	0.0
18	0xbb2081f7	-0.0024491528
19	0xba76382a	-0.00093925244
20	0x3b541e9a	0.0032366873
21	0x3afbd50a	0.0019213271
22	0x00000000	0.0
23	0x00000000	0.0
24	0x00000000	0.0
25	0x00000000	0.0
26	0x00000000	0.0
27	0x00000000	0.0
28	0x00000000	0.0
29	0x00000000	0.0
30	0x00000000	0.0
31	0x00000000	0.0
32	0x00000000	0.0
33	0x00000000	0.0
34	0x00000000	0.0
35	0x00000000	0.0
36	0x00000000	0.0
37	0x00000000	0.0
38	0x00000000	0.0
39	0x00000000	0.0
40	0x00000000	0.0
41	0x00000000	0.0
42	0x00000000	0.0
43	0x00000000	0.0
44	0x00000000	0.0
45	0x00000000	0.0
46	0xbb1a8cda	-0.002358249
47	0x00000000	0.0
48	0x00000000	0.0
49	0x00000000	0.0
50	0x00000000	0.0
51	0x00000000	0.0
52	0xbb171ae1	-0.0023056793
53	0x00000000	0.0
54	0x39672252	0.00022042662
55	0x00000000	0.0
56	0x00000000	0.0
57	0x00000000	0.0
58	0x00000000	0.0
59	0x00000000	0.0
60	0x3b23aceb	0.0024974893
61	0x00000000	0.0
62	0x00000000	0.0
63	0x00000000	0.0
64	0x00000000	0.0
65	0x00000000	0.0
66	0x00000000	0.0
67	0x00000000	0.0
68	0x00000000	0.0
69	0x00000000	0.0
70	0x00000000	0.0
71	0x00000000	0.0
72	0x00000000	0.0
73	0x00000000	0.0
74	0x00000000	0.0
75	0x00000000	0.0
76	0x00000000	0.0
77	0x00000000	0.0

critic.1.weight f4 [128, 1024]
0	0xbb9d7f2b	-0.0048064194
1	0xbd8fab92	-0.07015146
2	0xbcf81085	-0.030281315
3	0xbbf1343e	-0.007360964
4	0xbcc193dd	-0.023630077
5	0x3a4b18d4	0.0007747535
6	0xbb1d797e	-0.0024028714
7	0xbd0c2f58	-0.034224838
8	0x3b62330d	0.0034515292
9	0x3d63a89f	0.05558073
10	0xbc83149b	-0.016001036
11	0x3d016599	0.03159103
12	0xbd21f9ed	-0.03954499
13	0xbd942737	-0.07234042
14	0xbd1030a5	-0.03520264
15	0xbc92df38	-0.017928705
16	0x39eae344	0.00044801284
17	0xbcd93dbd	-0.026518697
18	0x3c19edd7	0.009395084
19	0xbc56b045	-0.013103549
20	0x3b9fcfca	0.0048770653
21	0xbd31ae23	-0.04337896
22	0x3d1579e3	0.036493193
23	0xbd2c27d4	-0.04203017
24	0x3bf04d2e	0.0073334193
25	0xbd0e3d6b	-0.03472654
26	0x3d1c448b	0.038151305
27	0x3c7a9d75	0.01529633
28	0xbc7461a9	-0.014915862
29	0xbd096424	-0.033542767
30	0x3bbdc939	0.00579181
31	0xbca15de1	-0.019698085
32	0x3da866fb	0.08222767
33	0xbd50bee2	-0.05096329
34	0xbbebbb2f	-0.007193945
35	0x3c86c205	0.016449938
36	0xbc2c85a0	-0.010529906
37	0xbc348b9e	-0.011019615
38	0xbd4d01c7	-0.050050523
39	0x3d17f08f	0.03709465
40	0xbd73fa40	-0.05956483
41	0x3ccae5d9	0.024767803
42	0x3ca39878	0.019970164
43	0x3d812cfd	0.06307409
44	0x3d5594c4	0.052143827
45	0x3bba7385	0.0056900405
46	0x3ba0e908	0.004910592
47	0x3ba40f01	0.0050066714
48	0xbc46a032	-0.0121231545
49	0x3b9e6138	0.0048333667
50	0x3d8c1e46	0.06841712
51	0xbbddbed5	-0.0067671337
52	0xbb1e0499	-0.0024111627
53	0xbd159691	-0.036520544
54	0xbc8fbff9	-0.017547594
55	0x3dee34b1	0.11631144
56	0x3d921593	0.07133021
57	0xbd33bcbc	-0.043881163
58	0x3c59e44d	0.01329906
59	0x3c9f014c	0.019409798
60	0xbd328184	-0.043580547
61	0xbcb892ba	-0.022530902
62	0xbd5cc40e	-0.05389791
63	0xbba72ec0	-0.0051020086
64	0xbc8cf6ca	-0.017207522
65	0xba9dcbcb	-0.0012038884
66	0xbd69b9c6	-0.057061933
67	0xbd981606	-0.07426076
68	0x3dc874b7	0.097878866
69	0x3ca9579c	0.020671658
70	0xbb707e11	-0.0036696235
71	0xbd3c2a49	-0.045938764
72	0x3d2f5430	0.042804897
73	0xbc55df2d	-0.0130536975
74	0xbd0b892d	-0.034066368
75	0xbd35fb8b	-0.044429343
76	0x3d78e77b	0.060767632
77	0xbcf5d56d	-0.030008996
78	0x3c123ade	0.008925168
79	0x3cf72153	0.030167257
80	0x3c9b02b0	0.01892218
81	0xbc37922e	-0.011204286
82	0x3c5d02a8	0.013489403
83	0xbb288d54	-0.0025719004
84	0xbcf3bf72	-0.029754374
85	0xbb8357ee	-0.004008285
86	0x3c6a4d0f	0.014300599
87	0x3cc76a18	0.024342582
88	0x3c35ce06	0.011096483
89	0x3c3f8b44	0.011690918
90	0xbd437e9e	-0.047728173
91	0x3d9fb78e	0.07798682
92	0xbc7489ba	-0.014925415
93	0x3d8596a5	0.06522874
94	0x3cc521db	0.024063995
95	0xbc9d89a4	-0.019230671
96	0x3d31b40f	0.043384608
97	0x3c3c1dc4	0.011481706
98	0xbc80799b	-0.015682986
99	0x3e0bab61	0.13639595
100	0xbb896028	-0.004192371
101	0x3ba54f25	0.005044835
102	0x3d60c0b5	0.05487128
103	0x3c04f933	0.008116054
104	0xbce0e1bc	-0.027451389
105	0x3d2e9a84	0.042627826
106	0x3bcd5623	0.006266372
107	0x3dabf8d4	0.083970696
108	0x3d87d1d4	0.066318184
109	0x3d0afbab	0.033931416
110	0x3ccac59a	0.024752427
111	0x3ce01c9c	0.027357392
112	0xba68d89f	-0.0008882377
113	0x3c8996f3	0.016795611
114	0xbd2d42db	-0.042300086
115	0xbd828f37	-0.06374972
116	0xbd11b474	-0.035572484
117	0xbc8a292d	-0.016865337
118	0xbcbc0766	-0.022952747
119	0x3cf6e96a	0.030140597
120	0xbd1bb2d8	-0.038012356
121	0xbca06803	-0.019580847
122	0x3bfdf9b1	0.007750713
123	0xbcafa3cc	-0.02144041
124	0xbcd25291	-0.025674136
125	0x3d72dba5	0.0592915
126	0xbbd4d328	-0.0064948983
127	0x3d3321b6	0.04373332
128	0xbc1661b5	-0.009178569
129	0x3d542840	0.051796198
130	0xbcd221f9	-0.025650965
131	0x3d3bfa3f	0.04589295
132	0x3af3f197	0.0018611428
133	0xbd37cd15	-0.044873316
134	0x3d9e30e8	0.07724172
135	0x3d9828c7	0.07429653
136	0xbd09885a	-0.0335773
137	0x3d54cb18	0.051951498
138	0xbdcf4b80	-0.10121822
139	0x3cca51db	0.024697235
140	0x3b82e23b	0.003994254
141	0x3cfc7d1f	0.030821381
142	0x3ce76892	0.028248105
143	0xbc439be2	-0.011939021
144	0xbcdbf841	-0.026851775
145	0x3d1e5443	0.038654577
146	0xbd681864	-0.056663886
147	0x3db1e0cd	0.086854555
148	0x3d05ab69	0.032634173
149	0x3ae6aa6e	0.00175984
150	0x3d2a504a	0.041580476
151	0x3d4281e6	0.047487162
152	0xbd7fab7c	-0.0624194
153	0xbcb8c0f8	-0.022552952
154	0xbd270aa9	-0.04078165
155	0xbcbbfab9	-0.022946702
156	0x3da9f915	0.08299462
157	0x3d5c896c	0.053841993
158	0xbd6b19c0	-0.057397604
159	0xbcdcfda0	-0.026976407
160	0x3d9f350c	0.0777379
161	0xbcd5c6a7	-0.026095701
162	0x3c5c9c1e	0.013464956
163	0x3d714e31	0.05891246
164	0x3db168f2	0.08662595
165	0xbbeb88cf	-0.0071879397
166	0x3ca32904	0.019917019
167	0xbd15f1ed	-0.03660767
168	0xbb949e57	-0.004535477
169	0x39e968dd	0.00044519352
170	0xbca56a2e	-0.020192232
171	0xbd0e9887	-0.03481343
172	0xbd817866	-0.06321792
173	0xbc037fd4	-0.008026082
174	0x3c8e0d42	0.017340306
175	0xbc150ddb	-0.009097542
176	0x3d393c24	0.04522337
177	0xbcceb50a	-0.02523281
178	0x3d6bbc65	0.057552714
179	0x3a9a991f	0.0011794901
180	0xbd807c36	-0.06273691
181	0xbd9d76c1	-0.07688666
182	0xbcc34757	-0.023837728
183	0x3d0918aa	0.033470787
184	0xbcb8fef7	-0.022582514
185	0x3d8c9ec5	0.068662204
186	0x3c488c4d	0.012240482
187	0xbd451adb	-0.048121314
188	0xbdbc82b5	-0.09204618
189	0x3c8a54a3	0.016886061
190	0xbd69b6cb	-0.05705909
191	0x3b4c1a92	0.0031143767
192	0x3b2077c8	0.0024485458
193	0x3c935def	0.017989127
194	0xbd1637fd	-0.03667449
195	0x3da51a30	0.080616355
196	0xbcbfb200	-0.023400307
197	0x3d32d1df	0.04365718
198	0xbd56df16	-0.052458845
199	0x3d4c2db9	0.049848292
200	0xbcb41424	-0.02198226
201	0xbbebc58f	-0.0071951817
202	0xbc88f700	-0.016719341
203	0x3c30eb3c	0.010798272
204	0xbc81f917	-0.015865846
205	0xbca91d25	-0.02064378
206	0x3d48268f	0.048864897
207	0x3c96f41b	0.018426945
208	0x3bff4408	0.0077900924
209	0xbcf1f64d	-0.02953639
210	0xbd609baf	-0.05483597
211	0x3c0097f2	0.007848727
212	0x3cb2cc08	0.021825805
213	0xbd063452	-0.03276474
214	0xbcb4fac3	-0.022092229
215	0xbc40f4c1	-0.011777104
216	0x3cba9c82	0.022779707
217	0xbcee1aed	-0.029065574
218	0x3d8e8283	0.06958487
219	0xbd333ab4	-0.043757156
220	0x3cae0361	0.021241846
221	0x3b340d49	0.002747374
222	0x3b5de266	0.0033856868
223	0x3b9a7246	0.0047133295
224	0x3d382a78	0.044962376
225	0xbd52e1e9	-0.051484976
226	0x3d6d8d78	0.057996243
227	0x3cac2518	0.021013781
228	0x3cedcfca	0.029029746
229	0xbd9c7b96	-0.0764076
230	0x3bacffe4	0.005279528
231	0xbd795600	-0.06087303
232	0x3b77fd77	0.0037840286
233	0xbb474588	-0.0030406434
234	0xbc2340d6	-0.009964189
235	0x3c6609ef	0.014040454
236	0x3d629eea	0.055327334
237	0x3d147646	0.036245607
238	0xbd63edee	-0.05564683
239	0xbc61abe7	-0.013773895
240	0x3cebca53	0.028783
241	0x3d2a77d6	0.04161819
242	0x3b9b4a37	0.0047390717
243	0x3da37383	0.079810165
244	0x3d378664	0.0448059
245	0xbb23fb9e	-0.0025021802
246	0xbd3e3ff2	-0.0464477
247	0x3c3d5e46	0.011558121
248	0x3ca6f5fd	0.020380968
249	0xbcd44718	-0.025912806
250	0x3d5dfa46	0.054193757
251	0x3c86b816	0.0164452
252	0xbd24b84e	-0.04021483
253	0x39f6ca14	0.00047071336
254	0xbbcfb81f	-0.0063390876
255	0xbb1cc29b	-0.0023919705

critic.1.bias f4 [128]
0	0xb9868613	-0.00025658365
1	0xbaf3f24a	-0.0018611636
2	0xb9386528	-0.00017585291
3	0x391685d2	0.00014354967
4	0xbab832c4	-0.0014053215
5	0x3921aada	0.00015417804
6	0x39073d11	0.00012897352
7	0xb93d0a80	-0.00018028356
8	0x00000000	0.0
9	0xbab60e5a	-0.0013889775
10	0xbac8c976	-0.0015318829
11	0x00000000	0.0
12	0xb9b3dbc1	-0.0003430527
13	0xb9edb824	-0.00045341358
14	0x00000000	0.0
15	0xb89d5f60	-7.504108e-05
16	0xba85483f	-0.0010168626
17	0x00000000	0.0
18	0xb9358fa2	-0.00017315013
19	0x392f5c36	0.00016723652
20	0xb9e12a64	-0.00042946928
21	0xba9a8c1e	-0.0011791026
22	0xba910c2d	-0.0011066251
23	0x3a9b86af	0.00118657
24	0xba91b516	-0.001111659
25	0xb939f67a	-0.00017734795
26	0xb99dba7e	-0.0003008432
27	0x00000000	0.0
28	0x00000000	0.0
29	0xb902a67e	-0.0001245979
30	0xba9b8f66	-0.0011868298
31	0x398ccbaf	0.00026854637
32	0xb7f8a8db	-2.9642533e-05
33	0x3951e366	0.00020016506
34	0xb93f54b9	-0.00018246741
35	0x00000000	0.0
36	0xb6ac7ec2	-5.140756e-06
37	0xb9846684	-0.00025253382
38	0xb944ee0c	-0.00018780696
39	0xbab8ab0c	-0.0014089062
40	0x00000000	0.0
41	0x00000000	0.0
42	0x39287614	0.00016065716
43	0x00000000	0.0
44	0xba95f171	-0.0011439753
45	0x00000000	0.0
46	0x00000000	0.0
47	0x39f6a4b3	0.00047043487
48	0xba0cd0c6	-0.0005371686
49	0x392a78c3	0.0001625745
50	0x00000000	0.0
51	0x00000000	0.0
52	0xb8b5b302	-8.6640954e-05
53	0x00000000	0.0
54	0x38cf6d75	9.890917e-05
55	0xba718351	-0.0009212988
56	0x392a548c	0.0001624396
57	0xb9ed5850	-0.0004526996
58	0x39214164	0.00015378516
59	0x00000000	0.0
60	0xb93b6fb1	-0.00017875318
61	0xb93552e1	-0.0001729238
62	0xb69b3665	-4.6256923e-06
63	0x39283aa2	0.00016043571
64	0xba6cfd2b	-0.00090404105
65	0xbac331f6	-0.0014892209
66	0x39233b06	0.0001556688
67	0xb9ecad1d	-0.00045142407
68	0x39282884	0.00016036822
69	0xb9c53a0f	-0.00037618025
70	0xba80721a	-0.000979963
71	0xba0271c1	-0.0004976057
72	0x3ab0df5b	0.00134943
73	0x00000000	0.0
74	0x00000000	0.0
75	0x3924b5cc	0.00015707983
76	0x38e19bd6	0.00010757863
77	0xb9400eec	-0.00018316106
78	0xb935cdf4	-0.00017338229
79	0xbafccdbb	-0.0019287387
80	0x39b9449a	0.00035337062
81	0xb98321d0	-0.0002501146
82	0x00000000	0.0
83	0xb9430dd7	-0.00018601805
84	0x00000000	0.0
85	0xb9580ee1	-0.00020604908
86	0xbac91629	-0.0015341687
87	0x00000000	0.0
88	0x00000000	0.0
89	0x3928a45b	0.00016082956
90	0x3adcad28	0.0016836273
91	0xb9394bae	-0.00017671168
92	0x00000000	0.0
93	0x00000000	0.0
94	0x00000000	0.0
95	0x3910a2b3	0.0001379352
96	0x392873d6	0.00016064881
97	0x00000000	0.0
98	0x00000000	0.0
99	0xb940b2ff	-0.00018377228
100	0x392d6737	0.00016537016
101	0xba864177	-0.0010242899
102	0xbac2489e	-0.0014822667
103	0xbacfae19	-0.0015844732
104	0x00000000	0.0
105	0x3915c864	0.00014284399
106	0xb9973b4d	-0.00028845147
107	0x3a404889	0.00073350273
108	0x36e96a8e	6.9563457e-06
109	0x00000000	0.0
110	0xb5d41bd4	-1.580333e-06
111	0xb9e5c186	-0.0004382247
112	0xba200971	-0.00061049225
113	0xb96b6e49	-0.00022452431
114	0xb94224bf	-0.0001851497
115	0x00000000	0.0
116	0xba92d910	-0.0011203606
117	0xb966c9de	-0.0002200971
118	0x3920cece	0.0001533583
119	0xb9272686	-0.00015940712
120	0x00000000	0.0
121	0xbab5a6c5	-0.0013858905
122	0x00000000	0.0
123	0xb93626ce	-0.00017371328
124	0xb939439b	-0.0001766816
125	0x00000000	0.0
126	0x389ed946	7.5744974e-05
127	0xb94670f2	-0.00018924827

critic.3.weight f4 [1, 128]
0	0xbbb67bd5	-0.005568961
1	0xbcc1d8cc	-0.023662947
2	0xbdb96956	-0.09053294
3	0x3cbdcde7	0.023169471
4	0x3daeabf2	0.0852889
5	0x3b485471	0.003056791
6	0xbdee046d	-0.11621938
7	0xbd552c35	-0.052044112
8	0xbd52c3c3	-0.051456224
9	0x3d1ef6ba	0.038809516
10	0xbdd279a3	-0.102771066
11	0x3d68de3c	0.056852564
12	0x3d002b5e	0.03129136
13	0x3b03ea37	0.0020128617
14	0x3db163ae	0.086615905
15	0x3d54417c	0.051820263
16	0xbe26c2a0	-0.16285181
17	0xbd5a2b9f	-0.053264257
18	0xbd73c6a0	-0.059515595
19	0x3e6a0bc6	0.22856054
20	0xbd64b962	-0.055840857
21	0x3dace546	0.08442168
22	0x3d653451	0.055958096
23	0x3d3c3716	0.04595097
24	0x3dd39613	0.10331359
25	0xbd881d01	-0.06646157
26	0x39e0c90e	0.00042874407
27	0x3dfce6b3	0.1234869
28	0x3e3361fe	0.1751785
29	0xbd114220	-0.035463452
30	0x3d0f721f	0.035020944
31	0x3cdead7e	0.027182337
32	0x3b3b4e17	0.002858048
33	0x3de92547	0.11384063
34	0xbd168201	-0.036745075
35	0xbd033e1b	-0.03204165
36	0x3de4a0e5	0.11163501
37	0xbca9ddc8	-0.020735636
38	0xbce6ed2f	-0.02818927
39	0x3dd8af15	0.10580269
40	0x3ddaf478	0.1069116
41	0x3dade3ef	0.084907405
42	0x3d807610	0.06272519
43	0xbd1b50dd	-0.037918914
44	0x3d6c44e0	0.05768287
45	0xbdbb3827	-0.091415696
46	0x3d0c0f9e	0.03419458
47	0x3ce2eb89	0.027700203
48	0xba3e9b70	-0.0007271087
49	0x3da9420c	0.082645506
50	0x3e03ef8b	0.12884347
51	0xbe21530a	-0.15754333
52	0xbd8724e0	-0.0659883
53	0xbdba6bef	-0.09102618
54	0xbdee7956	-0.11644237
55	0x3db50cf2	0.0884036
56	0x3da2fa75	0.07957927
57	0xb9a89af5	-0.0003215891
58	0x3d1f26b6	0.038855277
59	0xbe1bd4ec	-0.15217942
60	0xbd6e7d89	-0.05822519
61	0xbe1e2e61	-0.1544738
62	0x3ab798e5	0.0014007358
63	0x3d739023	0.05946363
64	0xb8eab55c	-0.0001119177
65	0x3e0b9582	0.13631251
66	0x3d37a025	0.04483046
67	0xbd974c36	-0.07387583
68	0x3d74898d	0.05970149
69	0xbdadd124	-0.08487156
70	0x3bbc3654	0.005743781
71	0xbb1298f6	-0.0022369004
72	0x3de4ab56	0.11165492
73	0x3e224e1b	0.15850107
74	0x3d76ec6e	0.06028407
75	0x3d3a7639	0.045522902
76	0x3d36af36	0.044600688
77	0xbd228dbe	-0.039685957
78	0xbe113f9f	-0.14184426
79	0x3d9eb917	0.07750147
80	0xbe0012bf	-0.12507151
81	0xbe4c255a	-0.19936123
82	0x3deed34f	0.11661398
83	0xbcfc34e1	-0.030786933
84	0x3e016bdc	0.12638801
85	0xbc6bcdf3	-0.014392364
86	0xbdfe5380	-0.1241827
87	0xbd6094cc	-0.054829404
88	0xbe54c4b8	-0.20778167
89	0x3d96c359	0.07361478
90	0x3d825009	0.06362922
91	0xbd973fb1	-0.07385195
92	0x3e2755f3	0.16341381
93	0xbc863af1	-0.016385527
94	0xbc1bc220	-0.009506732
95	0x3cac6a6f	0.021046845
96	0x3d98712c	0.07443461
97	0x3e000ed1	0.12505652
98	0x3d5dc4d1	0.054142777
99	0xbd19fd4d	-0.037595082
100	0x3e12e8f7	0.14346682
101	0x3daed562	0.08536793
102	0xbde441cb	-0.111453615
103	0xbd5ef545	-0.054433126
104	0xbd3948e6	-0.045235537
105	0x3d18fe15	0.037351687
106	0x3d108bec	0.03528969
107	0xbdf84350	-0.12122214
108	0x3b514990	0.0031934716
109	0xbe02417e	-0.12720296
110	0xb8b3817f	-8.559506e-05
111	0x3d1e65fa	0.03867147
112	0x3d077ea3	0.033079755
113	0xbc0c7758	-0.008573376
114	0xbda2958e	-0.079386815
115	0x3c870def	0.016486136
116	0xbcd71fe2	-0.02626032
117	0xbe77df48	-0.24206269
118	0x3d0b63ab	0.034030598
119	0xbda62e8e	-0.08114348
120	0x3d1e8855	0.038704235
121	0xbe32f800	-0.17477417
122	0xbc7d8806	-0.015474325
123	0xbe087309	-0.13325132
124	0xbd9aa643	-0.07551243
125	0xbd9a928f	-0.07547485
126	0x3ba8e730	0.005154513
127	0xbcb8e457	-0.022569818
