experiments/ppo_hrl/models/MicroRTSGridModeVecEnv__ppo_utils__1__1721366908/16384/macro.pt (torch, 715615 bytes, 11 tensors)

encoder.1.weight f4 [32, 29, 3, 3]
0	0xbc8f8ec2	-0.017524127
1	0x3de86425	0.11347226
2	0x3d11292b	0.03543965
3	0xbc501e7e	-0.012702582
4	0xbc0fbd56	-0.008773169
5	0xbd933c72	-0.071892634
6	0xbdee7ac4	-0.116445094
7	0xbdb6a9a4	-0.08919075
8	0xbd50e79f	-0.05100214
9	0xbe1ce11f	-0.15320252
10	0x3de17109	0.11007888
11	0xbd2d02d4	-0.042239025
12	0x3d9e0995	0.077166714
13	0x3d1328e4	0.03592767
14	0x3e135b9d	0.14390416
15	0xbdf53c03	-0.11974337
16	0xbe10542e	-0.14094612
17	0xbe209874	-0.15683156
18	0x3d81e6b3	0.063428305
19	0xbc9018e6	-0.017589998
20	0xbd915d1a	-0.07097836
21	0xbd824ccc	-0.06362304
22	0x3d6b41cc	0.057435796
23	0xbd0d8487	-0.034550216
24	0x3e7832ea	0.24238172
25	0x3dee97bc	0.11650035
26	0x3c811b3b	0.015760055
27	0xbe3c831a	-0.18409386
28	0x3ceed5cf	0.029154686
29	0xbd8363ce	-0.064155206
30	0x3d141575	0.036153276
31	0xbc8b32ca	-0.016991992
32	0xbd8a3b66	-0.067496106
33	0xbd19adb2	-0.037519164
34	0x3ddc6da4	0.107631
35	0x3d0d1edb	0.034453254
36	0xbc9998fb	-0.018749705
37	0xbda1449d	-0.07874415
38	0x3e5a15d2	0.21297386
39	0xbcdbc13e	-0.026825543
40	0x3d325b4b	0.043544095
41	0xbcd4061a	-0.025881816
42	0xbc19390a	-0.009351978
43	0xbbdbcbd5	-0.0067076483
44	0x3cdb3df4	0.02676294
45	0xbb19ea20	-0.0023485497
46	0x3d853f45	0.06506208
47	0x3d99a7e4	0.07502726
48	0xbdede794	-0.11616436
49	0xbc366177	-0.011131636
50	0xbbcc1b1b	-0.006228817
51	0xbca394ce	-0.019968417
52	0xbcced6a7	-0.025248839
53	0xbcfc743e	-0.030817147
54	0x3d10cc5d	0.035351146
55	0xbcc0f12e	-0.023552503
56	0x3ddecc0f	0.10878765
57	0xbc3ef307	-0.011654622
58	0x3d20b58c	0.039235637
59	0x3e0309bb	0.1279668
60	0x3cac7290	0.021050721
61	0x3d8a9828	0.06767303
62	0xbc14035e	-0.009034006
63	0xbc650a71	-0.01397954
64	0x3c862164	0.016373344
65	0x3c7dac41	0.015482963
66	0x3e6bd59b	0.23030703
67	0xbd55246f	-0.0520367
68	0x3d21b5e4	0.039480105
69	0x3d1913ec	0.037372515
70	0xbc848e5c	-0.016181163
71	0x3dde60fc	0.10858342
72	0x396356bb	0.00021680717
73	0x3b8bad98	0.0042626373
74	0x3c44a330	0.012001798
75	0xbdd1bc68	-0.10241014
76	0xbd83ea30	-0.06441152
77	0x3e4e2d2b	0.20134418
78	0xbdb21134	-0.086946875
79	0xbb861ba5	-0.004092651
80	0x3bbf0543	0.0058294847
81	0x3da192d1	0.07889331
82	0x3d49e8d7	0.04929432
83	0x3de92542	0.113840595
84	0x3becf544	0.0072313864
85	0xbda20c11	-0.07912458
86	0xbc3d2c5a	-0.011546219
87	0xbdfcff96	-0.12353437
88	0x3dfa0127	0.12207251
89	0xbd80fc81	-0.06298161
90	0x3d829534	0.063761145
91	0x3c361757	0.011113963
92	0xbe36b29c	-0.17841572
93	0x3e07a699	0.13247146
94	0xbb5a9767	-0.0033354403
95	0x3d30de6c	0.043180868
96	0xbde1b4f3	-0.110208414
97	0xbda8ab55	-0.08235804
98	0x3dac2dcc	0.084071726
99	0xbce0ade7	-0.027426673
100	0xbc0b9817	-0.008520148
101	0x3da163b7	0.07880347
102	0xbd7e370e	-0.062064223
103	0x3d0f359b	0.03496323
104	0xbb8b3b54	-0.004249016
105	0x3ba9d9bb	0.005183426
106	0xbd95f007	-0.07321172
107	0x3d7abe68	0.06121674
108	0xbe2186dd	-0.15774103
109	0x3dd77d5e	0.10521959
110	0xba9618e8	-0.0011451514
111	0x3da25606	0.07926564
112	0xbd750623	-0.059820306
113	0xbd615e72	-0.05502171
114	0x3b48978f	0.0030607914
115	0xbdc91419	-0.098182864
116	0x3d7c2cdd	0.061566222
117	0x3e0945f8	0.13405597
118	0x3dba0935	0.09083787
119	0xbd33aa9b	-0.043863874
120	0xbd8533bf	-0.065040104
121	0x3de6dba7	0.11272364
122	0xbdb23e17	-0.08703249
123	0x3e2187d1	0.15774466
124	0x3d71b26d	0.05900805
125	0xbd50c16f	-0.050965723
126	0x3abfb69c	0.0014626565
127	0xbcad811c	-0.021179728
128	0xbdda802b	-0.10668977
129	0x3d544a18	0.051828474
130	0xba866bf8	-0.0010255566
131	0xbd408eab	-0.04701106
132	0x3d173bcf	0.036922272
133	0xbdd2e7d9	-0.10298128
134	0xbde7c0bf	-0.1131606
135	0x3db861f5	0.09003059
136	0xbe5f2eff	-0.21795271
137	0x3a2603aa	0.00063329434
138	0xbc1b29de	-0.009470431
139	0x3e23cd02	0.15996173
140	0x3dd67222	0.10470988
141	0xbdfe493e	-0.124163136
142	0xbc6af965	-0.014341687
143	0xbd3cd660	-0.04610288
144	0xbb8217dc	-0.0039701294
145	0xbcc708e5	-0.024296233
146	0xbd85dad4	-0.06535879
147	0xbd063c2c	-0.032772228
148	0xbd7cc50b	-0.061711352
149	0xbd38f1a9	-0.04515234
150	0x3d0a6cc3	0.03379513
151	0xbe22275f	-0.15835331
152	0x3d7d067e	0.06177377
153	0x3cc16d78	0.02361177
154	0x3db3c8e5	0.08778552
155	0x3dcd2ee3	0.100187086
156	0x3c169048	0.009189673
157	0xbd770cb4	-0.06031485
158	0x3e34f131	0.17670132
159	0x3dcfcfdc	0.10147068
160	0xbc506249	-0.0127187455
161	0x3ca49d45	0.020094523
162	0x3da33da5	0.07970742
163	0xbca0f509	-0.019648092
164	0xbe175013	-0.1477664
165	0xbdd3c0a7	-0.1033948
166	0x3cea90d1	0.028633507
167	0x3e2541b9	0.16138352
168	0xbca5c669	-0.02023621
169	0x3e1f4967	0.15555345
170	0x3c862e82	0.016379599
171	0x3d4b8366	0.04968586
172	0x3e396881	0.18106271
173	0x3d956362	0.072943464
174	0xbe126f45	-0.14300258
175	0x3ce1b731	0.027553173
176	0xbdddbc75	-0.10826961
177	0xbe163624	-0.1466909
178	0xbd9b1f1c	-0.07574293
179	0x3d8d39a4	0.0689576
180	0x3d132e10	0.0359326
181	0x3d23eba8	0.04001966
182	0xbd0e159a	-0.03468857
183	0xbdec9bab	-0.11553129
184	0xbdc6d8c2	-0.09709312
185	0xbcb62783	-0.022235638
186	0xbd95d10d	-0.07315264
187	0x3d514006	0.051086448
188	0xbe11cef7	-0.14239107
189	0x3cfe5460	0.031046093
190	0xbdbbf544	-0.0917764
191	0x3d42d4ca	0.047566213
192	0x3d711693	0.05885942
193	0x3dc28a4a	0.09499033
194	0xbcb1bf16	-0.021697562
195	0x3de03154	0.109469086
196	0x3e38e46d	0.18055888
197	0xbe053ba0	-0.13011026
198	0xbd7c605d	-0.061615337
199	0x3bf6f7fc	0.0075368863
200	0x3ce960a4	0.028488465
201	0xbd0b79e2	-0.034051783
202	0xbda42e4b	-0.08016642
203	0xbe38ab74	-0.18034154
204	0xbd3dd840	-0.04634881
205	0xbd06175e	-0.03273713
206	0xbd9990f4	-0.07498351
207	0xbe3c886a	-0.18411413
208	0x3ceef282	0.029168371
209	0xbdff3583	-0.124613784
210	0xbb917e99	-0.0044401404
211	0xbdfbe3d8	-0.12299317
212	0xbd31efe5	-0.043441672
213	0x3ddd0332	0.10791625
214	0x3dd5db7f	0.10442256
215	0x3ce58879	0.028019177
216	0xbd2e1ca6	-0.04250779
217	0xbe67cb98	-0.22636259
218	0xbdc719ef	-0.09721743
219	0x3d1d3f2b	0.03839032
220	0xbce6c966	-0.028172206
221	0x3e2f4566	0.17116317
222	0xbd3d66dd	-0.046240676
223	0xbd07aab6	-0.033121787
224	0x3d9e8b1c	0.07741377
225	0xbc486202	-0.012230398
226	0xbcc0204f	-0.023452906
227	0x3d72509b	0.059158903
228	0x3ddefb6b	0.10887798
229	0xbd538fb4	-0.051650718
230	0x3c9cc628	0.019137457
231	0xbd8bc068	-0.06823808
232	0x3d6b1fa2	0.057403214
233	0xbce09e09	-0.027419107
234	0xbd346c2c	-0.044048473
235	0x3cd8b561	0.026453676
236	0xbdf4e5d5	-0.119578995
237	0xbbd5ae9f	-0.0065210606
238	0x3d827828	0.06370574
239	0xbc897391	-0.01677874
240	0x3db65314	0.08902565
241	0x3df8dfaa	0.121520355
242	0xbd52d9f0	-0.051477373
243	0xbe4145da	-0.18874303
244	0xbe00ac3c	-0.12565702
245	0x3db73f14	0.08947578
246	0x3da4cd1b	0.08046933
247	0xbdd07f57	-0.10180538
248	0x3d96a0db	0.073548995
249	0xbcf9b49f	-0.030481635
250	0x3ccafb83	0.024778133
251	0x3e410886	0.18850908
252	0x3e06d0e2	0.1316562
253	0x3e3abc43	0.18235879
254	0x3d4998f3	0.04921813
255	0x3c2b3c1d	0.010451344

encoder.1.bias f4 [32]
0	0xbb4a3664	-0.0030855173
1	0x3a97182a	0.0011527587
2	0xba0dab25	-0.00054042257
3	0xbb5ac7be	-0.0033383216
4	0x3acdec5f	0.0015710703
5	0x3b1d7ada	0.0024029524
6	0xbb01e68a	-0.001982125
7	0xbb593d1f	-0.0033148003
8	0xbae68662	-0.0017587657
9	0x3a919168	0.0011105957
10	0xbafaec4f	-0.0019143912
11	0x3aca5206	0.0015435822
12	0xbaeffb79	-0.0018309198
13	0xbb886841	-0.0041628187
14	0xbaedf06e	-0.0018153319
15	0xbbcda6f6	-0.006276007
16	0xbba15f20	-0.00492467
17	0xba5b4c18	-0.0008365526
18	0x3b034cda	0.002003482
19	0xbaa5c5d2	-0.0012647456
20	0x3abd0c89	0.0014423291
21	0xbb13ab66	-0.0022532581
22	0xbbe15403	-0.00687647
23	0xbbd277f5	-0.0064229914
24	0x3a5737a2	0.0008209889
25	0x3a4aeadf	0.0007740687
26	0xbbca996d	-0.0061828406
27	0x39b5646e	0.00034597836
28	0xbafae922	-0.0019142965
29	0xbb45a791	-0.0030159692
30	0xbbcd4c66	-0.006265211
31	0x3a77d208	0.00094535993

encoder.4.weight f4 [64, 32, 3, 3]
0	0x3dc5aaa2	0.09651686
1	0x3db81bb4	0.08989659
2	0x3d88e2fd	0.066839196
3	0xbc87ff24	-0.016601153
4	0xbd213578	-0.039357632
5	0xbe6da3c7	-0.23207007
6	0xbd570fc1	-0.05250526
7	0x3d33de62	0.043913253
8	0x3cf8ee59	0.03038709
9	0x3bd3769b	0.006453348
10	0xbcbd3a87	-0.023099197
11	0x3d4c6009	0.049896274
12	0xbdca657a	-0.09882636
13	0x3d15637e	0.036471836
14	0x3e39c28b	0.18140619
15	0xbdaf2b66	-0.085531995
16	0x3d5fd85a	0.05464969
17	0xbe015d4d	-0.12633248
18	0xbdc4c1ac	-0.096072525
19	0x3e0b4430	0.1360023
20	0xbdebbd0d	-0.11510668
21	0x3b3c42ea	0.0028726407
22	0x3d6d7f05	0.057982463
23	0x3bd33d57	0.0064465213
24	0xbdb39d08	-0.08770186
25	0x3d6932c9	0.056933198
26	0xbd7bdd2a	-0.061490215
27	0xbbf1e488	-0.0073819794
28	0x3cd19c99	0.025587367
29	0x3da59b6b	0.08086284
30	0xbd4c5a8e	-0.049891047
31	0x3d8362a5	0.06415299
32	0xbbb4b66c	-0.0055149104
33	0xbda16de5	-0.07882289
34	0x3ccec89d	0.025242144
35	0x3c33fe29	0.0109858895
36	0x3b8e7605	0.004347565
37	0x3b1bc250	0.0023766942
38	0xbd786c9c	-0.060650453
39	0x3e23473f	0.15945147
40	0x3d8be04d	0.06829891
41	0x3b4be1ec	0.0031110002
42	0xbd380032	-0.04492206
43	0x3dd69964	0.10478476
44	0xbdc8ffeb	-0.098144375
45	0xbdba9671	-0.09110726
46	0x3e08dac3	0.13364701
47	0xbd558b87	-0.052135017
48	0xbe135b96	-0.14390406
49	0xbc61c573	-0.013779986
50	0xbda12b93	-0.07869639
51	0xbdc461a6	-0.095889375
52	0xbd5cec97	-0.053936567
53	0xbe0d2585	-0.13783844
54	0xbdadc1e6	-0.08484249
55	0x3d5ca4a0	0.053867936
56	0xbdada874	-0.084793955
57	0xbd34cf6a	-0.044143118
58	0x3c863e42	0.016387109
59	0x3d980f2d	0.074247696
60	0x3dea830d	0.11450777
61	0x3d9559e4	0.07292536
62	0xbd3218a0	-0.043480515
63	0x3d90be7d	0.07067583
64	0xbd9a77d4	-0.07542387
65	0x3d0cdac7	0.03438833
66	0x3d5d1774	0.053977445
67	0x3cc44abd	0.02396142
68	0xbd947011	-0.072479375
69	0xbde6e9fa	-0.11275096
70	0x3e57380c	0.21017474
71	0x3da1b5b8	0.07895988
72	0x3cee41bc	0.029084079
73	0xbdc32854	-0.09529176
74	0xbd44a1cd	-0.048005868
75	0x3dc925f1	0.0982169
76	0xbd04e9cb	-0.032449525
77	0x3dcd6e2e	0.10030781
78	0x3d9a36a4	0.07529953
79	0x3de68589	0.112559386
80	0x3d81c26a	0.0633591
81	0x3cbf43af	0.023347704
82	0x3cb0d441	0.021585586
83	0x3d8079e0	0.06273246
84	0x3caa3423	0.020776814
85	0xbe161e9b	-0.14660113
86	0x3cbf295f	0.023335157
87	0xbd0a3c9d	-0.03374921
88	0xbb3d1aaa	-0.0028855004
89	0x3cb75cde	0.02238315
90	0xbdbcbba9	-0.09215481
91	0x3b7101f4	0.0036774846
92	0x3e26b3c3	0.16279511
93	0x3d634f68	0.05549565
94	0x3de9cb24	0.11415699
95	0xbcbe5225	-0.023232529
96	0xbd7b31d3	-0.061326813
97	0xbb621c46	-0.0034501716
98	0x3c07ed77	0.008296362
99	0x3da9ea0c	0.08296594
100	0xbe28a6e1	-0.16469909
101	0x3d195928	0.03743854
102	0x3dadeec1	0.08492804
103	0xbe2ca671	-0.16860367
104	0x3d926d01	0.07149697
105	0xbdb6f0f2	-0.089326754
106	0x3b958b7a	0.004563746
107	0xbd63ac6e	-0.055584364
108	0xbd1cba95	-0.038263876
109	0xbcd54d23	-0.026037758
110	0xbcfe7b55	-0.031064669
111	0x3bc6222b	0.0060465536
112	0x3bfc99f3	0.007708782
113	0xbe006dbd	-0.12541862
114	0xbb8abda9	-0.004234035
115	0xbd1a4f5d	-0.037673343
116	0x3bfda2b1	0.0077403416
117	0x3db74744	0.0894914
118	0x3c41313a	0.011791522
119	0xbdbdfe61	-0.092770346
120	0x3d2d63e2	0.042331584
121	0x3d87eb41	0.06636668
122	0x3cf23459	0.029565977
123	0x3c934f16	0.017982047
124	0xbe127e4a	-0.14305988
125	0x3ccbf806	0.02489854
126	0x3da60a8d	0.08107481
127	0x3c16d1ef	0.0092053255
128	0x3c0f030e	0.008728756
129	0xbcb198f3	-0.021679377
130	0xbd07f63d	-0.033193815
131	0xbc840f93	-0.016120708
132	0x3c82f6d8	0.015986845
133	0xbcb2ea11	-0.021840127
134	0xbd12ae7d	-0.035810936
135	0xbcbfa018	-0.023391768
136	0xbc69c092	-0.014267104
137	0xbda234cc	-0.079202265
138	0xbd997e52	-0.07494797
139	0x3e90fc5b	0.28317532
140	0xbdc79e9e	-0.09747051
141	0x3b3d503d	0.0028886937
142	0xbd7c06b5	-0.061529834
143	0x3e02eaaf	0.12784837
144	0x3cbc6bb4	0.023000576
145	0xbd613fb1	-0.05499238
146	0xbd1dd626	-0.038534306
147	0x3d0cca63	0.0343727
148	0xbd37df59	-0.044890735
149	0x3dee16d5	0.116254486
150	0x3db8289e	0.08992122
151	0x3d49ee0f	0.049299296
152	0xbdad3107	-0.08456617
153	0x3d3e23f0	0.04642099
154	0xbd683ee0	-0.056700587
155	0xbd86aa62	-0.06575467
156	0xbdd016d7	-0.10160606
157	0x3d7f1fa7	0.062286045
158	0xbadef178	-0.0017009219
159	0xbd898bb1	-0.06716097
160	0x3d7054d2	0.05867464
161	0x3d2b7cd4	0.041867092
162	0xbdd3bb97	-0.10338514
163	0xbd6508af	-0.055916484
164	0xbdcdb041	-0.100433834
165	0x3dd0ed14	0.10201469
166	0x3d114aff	0.035471912
167	0xbda202a9	-0.07910664
168	0x3ddab288	0.106785834
169	0xbda31c89	-0.07964427
170	0xbce59c66	-0.028028678
171	0xbd519550	-0.051167786
172	0xbdc7fd2c	-0.097650856
173	0xbd94ffd1	-0.072753556
174	0x3d31365c	0.04326473
175	0xbc1a244d	-0.009408069
176	0xbd7976e7	-0.06090441
177	0x3d1d3fa5	0.038390774
178	0x3dc2c52c	0.09510264
179	0xbe0d9bc2	-0.13828948
180	0xbd6b7b0e	-0.0574904
181	0xbd82327b	-0.06357285
182	0xbe0fa2e4	-0.14026982
183	0xbd6d3a01	-0.057916645
184	0xbd85053d	-0.0649514
185	0x3d852a20	0.06502175
186	0xbca2aa9e	-0.019856747
187	0xbbeb8cfe	-0.0071884384
188	0xbcae21dc	-0.02125638
189	0xbdba12c1	-0.09085608
190	0xbda9e5bf	-0.08295774
191	0xbca72096	-0.02040128
192	0xbd3cfb71	-0.04613823
193	0xbda3eba2	-0.08003928
194	0xbcf57495	-0.029962817
195	0x3d9c3673	0.07627573
196	0x3d007cef	0.031369146
197	0xbd063977	-0.032769646
198	0x3d2e0bc2	0.042491682
199	0x3d6bd173	0.057572793
200	0x3c8c155d	0.01710003
201	0xbcd458b4	-0.025921203
202	0xbbb93402	-0.005651952
203	0x3d6dfdf5	0.05810352
204	0xbe0b1af3	-0.13584499
205	0x3c9bf986	0.01903988
206	0x3da5280b	0.08064278
207	0xbdc19c5f	-0.094536535
208	0xbe66337a	-0.22480574
209	0x3d7a9984	0.06118156
210	0xbdff02a3	-0.12451675
211	0xbc83a83e	-0.016071435
212	0xbe4b2f5c	-0.19842285
213	0xbd2135cd	-0.03935795
214	0xbd07051b	-0.032963853
215	0x3c8ca975	0.017170647
216	0xbd1912f6	-0.0373716
217	0x3ddad483	0.10685065
218	0xbd40f1bb	-0.047105532
219	0xbdfec253	-0.12439408
220	0x3c8cabb8	0.017171726
221	0xbd06c3a1	-0.03290141
222	0x3e3ed55a	0.18636075
223	0x3d806d2f	0.06270825
224	0xbd99da70	-0.07512367
225	0x3ce229be	0.027607795
226	0xbdc8b316	-0.09799783
227	0xbda87917	-0.08226221
228	0x3d182c71	0.037151758
229	0xbe01bd25	-0.12669809
230	0x3d2fed21	0.042950753
231	0x3dcc7274	0.09982768
232	0x3d7b9eb7	0.06143066
233	0x3df6c4c4	0.12049249
234	0xbdc4d04f	-0.09610044
235	0x3b288f3c	0.002572014
236	0x3e194d6e	0.14970943
237	0x3cedc575	0.029024819
238	0x3dbd8636	0.09254114
239	0x3d8bbf0d	0.068235494
240	0xbe27d932	-0.16391447
241	0x3d7e0691	0.06201798
242	0xbb959ab2	-0.0045655603
243	0xbdd0c80f	-0.10194408
244	0xbe212edb	-0.1574053
245	0x3bf4a9ed	0.007466546
246	0xbd981d18	-0.07427424
247	0x3d128b15	0.03577717
248	0xbdc3c7c0	-0.09559584
249	0x3e13c47b	0.1443042
250	0x3cda3bc5	0.026639828
251	0x3d4a29d5	0.0493563
252	0x3dae9bec	0.085258335
253	0xbd0e5197	-0.03474578
254	0x3d48ddbc	0.049039587
255	0x3d869bf1	0.06572712

encoder.4.bias f4 [64]
0	0xbb223bda	-0.0024754913
1	0xbbae9fa6	-0.00532909
2	0x3ad5565c	0.0016276347
3	0xbb023186	-0.0019865944
4	0xbbc1d307	-0.005915049
5	0xbb30a9e5	-0.0026956734
6	0xbb03d010	-0.0020113029
7	0xbba9a00f	-0.005176551
8	0xbb11b99c	-0.0022235876
9	0x39282440	0.00016035233
10	0x3acbedb2	0.001555851
11	0x3a909d65	0.0011033235
12	0x3a9b136f	0.0011831353
13	0xbb128943	-0.0022359646
14	0x3b5f30eb	0.0034056257
15	0xba368005	-0.00069618254
16	0x3b1f4140	0.0024300367
17	0x3a2daf48	0.0006625545
18	0xba574cd4	-0.00082130474
19	0xbb1ba76b	-0.0023750912
20	0x3b9dd07f	0.0048161144
21	0x390c9cf0	0.00013409904
22	0xb9e5b3ef	-0.00043812345
23	0xbb77ee70	-0.0037831329
24	0xba71903d	-0.00092149136
25	0x3b3d187e	0.002885371
26	0xba071dce	-0.00051542826
27	0xba2c7951	-0.0006579357
28	0xba287d76	-0.00064273865
29	0xbb599fda	-0.0033206851
30	0xbbf659ed	-0.007518044
31	0xbb0335f1	-0.0020021165
32	0xbb06268c	-0.0020469753
33	0xbabb6d2c	-0.0014299504
34	0xbbc00767	-0.0058602574
35	0xbacb980d	-0.0015532986
36	0xba80162a	-0.000977223
37	0xbb9e4132	-0.004829549
38	0x00000000	0.0
39	0xbb019ef5	-0.0019778584
40	0xba37a15b	-0.000700494
41	0xbb766023	-0.0037593923
42	0x3aeac351	0.0017910992
43	0xbb9fd355	-0.0048774877
44	0xbb303673	-0.0026887923
45	0x00000000	0.0
46	0xbab7e871	-0.0014031065
47	0xbb732ef3	-0.0037106841
48	0xbb421931	-0.0029617066
49	0xbbacf614	-0.0052783582
50	0xbb5ca5d2	-0.0033668173
51	0xbb982134	-0.00464263
52	0xbbac9474	-0.0052667204
53	0x3ab7a85a	0.0014011965
54	0xba7cd7fa	-0.000964522
55	0xb8d47691	-0.000101310325
56	0xbb162b36	-0.002291394
57	0xbb0ed0ba	-0.0021791891
58	0xbafb2b4d	-0.0019162685
59	0xbbdcbcef	-0.00673639
60	0x3ae8c74b	0.0017759589
61	0xba0d6f02	-0.00053952646
62	0x3b961049	0.004579578
63	0xba9a5aff	-0.0011776387

actor.0.weight f4 [64, 32, 3, 3]
0	0xbdd12dbf	-0.102138035
1	0xbd8b3c05	-0.06798557
2	0xbc8878ff	-0.016659258
3	0xbe0f94fe	-0.1402168
4	0x3dcd1f9f	0.10015797
5	0x3d5bfa87	0.05370572
6	0xbcc5786d	-0.024105275
7	0x3a2ac5dd	0.0006514469
8	0xbd350671	-0.044195596
9	0xbd212367	-0.039340403
10	0xbdbf8f1d	-0.093534686
11	0xbdbaa414	-0.09113327
12	0xbd878262	-0.066166654
13	0x3df90602	0.12159349
14	0x3e0d468f	0.13796447
15	0x3dec858b	0.11548909
16	0xbdcdc2bf	-0.100469105
17	0x3c8396e5	0.016063163
18	0xbe437900	-0.19089127
19	0xbd54360b	-0.051809352
20	0x3d7b6a6b	0.061380785
21	0x3dcca4ac	0.09992346
22	0x3d313290	0.04326111
23	0xbc9443a6	-0.018098664
24	0xbd37842b	-0.04480378
25	0x3e5dd5d3	0.21663599
26	0xbce4d6f1	-0.027934523
27	0xbd877acd	-0.06615219
28	0xbd363743	-0.044486295
29	0x3caf9471	0.021433087
30	0x3bfe0a42	0.0077526877
31	0xbd9f03ba	-0.07764383
32	0x3ddcb740	0.1077714
33	0xbe16b974	-0.14719182
34	0x3d5aa5b4	0.053380683
35	0xbcf033a3	-0.029321497
36	0x3dc372a7	0.095433526
37	0x3d2ebf40	0.04266286
38	0x3daf2a00	0.08552933
39	0x3d1f94c7	0.038960245
40	0x3d9832bd	0.074315526
41	0x3c1b8571	0.009492264
42	0x3dbf6704	0.093458205
43	0xbe0dd48a	-0.13850608
44	0xbc88bf13	-0.016692674
45	0x3df180f7	0.11792176
46	0xbe0335e4	-0.12813526
47	0xbd86df02	-0.06585504
48	0xbd2a143c	-0.041523203
49	0xbdc3a5c1	-0.095530994
50	0x3d1f7bdf	0.038936492
51	0x3e139485	0.14412124
52	0xbe3cce24	-0.18438011
53	0xbc9e57e4	-0.019329019
54	0x3d9c3243	0.07626774
55	0xbddeafdc	-0.10873386
56	0x3c8d7fcf	0.017272858
57	0xbce2df71	-0.027694436
58	0x3da0d311	0.07852758
59	0x3d2820a0	0.04104674
60	0xbe1702d3	-0.14747171
61	0xbd407499	-0.046986196
62	0xbd9d2a33	-0.076740645
63	0xbd254237	-0.04034635
64	0x3d4b3d25	0.04961886
65	0x3d475c9d	0.048672307
66	0xbc0b5b82	-0.008505704
67	0x3d89894e	0.06715642
68	0xbd8b409f	-0.06799435
69	0xbd476580	-0.048680782
70	0xbd9676cd	-0.07346878
71	0x3d053f0d	0.032530833
72	0xbda96e0b	-0.08272942
73	0x3d85ccf1	0.0653323
74	0x3dfae074	0.12249842
75	0xbcf44932	-0.029820058
76	0xbdca9c6f	-0.098931186
77	0xbe01ad3f	-0.12663744
78	0x3cecc70a	0.028903503
79	0x3d925b61	0.071463354
80	0xbccf12c5	-0.025277505
81	0xbd0131f0	-0.031541765
82	0xbd0bdc98	-0.03414592
83	0xbc029301	-0.007969619
84	0xbdd797bb	-0.10526987
85	0xbcb85e60	-0.022505939
86	0x3d09b82c	0.033622906
87	0xbde4bfc3	-0.11169388
88	0xbcd53c9d	-0.02602988
89	0xbdb7aecd	-0.089688875
90	0x3dafa3bc	0.08576152
91	0xbddb7523	-0.107157014
92	0x3daec874	0.08534327
93	0x3bb4460e	0.005501515
94	0xbdd85819	-0.10563678
95	0x3bea54d2	0.0071512247
96	0x3cc6b056	0.024254005
97	0x3d693e8e	0.056944422
98	0xbc0a2f4b	-0.008434127
99	0x3c581513	0.013188618
100	0xbd087cef	-0.03332227
101	0xbe3b58c4	-0.1829558
102	0xbb544c22	-0.0032394012
103	0xbe4f6d5f	-0.20256566
104	0xbc0c7fa9	-0.008575358
105	0x3db53099	0.0884716
106	0xbccd8fb0	-0.02509293
107	0xbdbe1d6c	-0.092829555
108	0x3baa1470	0.0051904246
109	0xbd7d442a	-0.061832584
110	0x3db7854f	0.089609735
111	0xbdd06511	-0.10175527
112	0x3b838263	0.004013346
113	0xbcbb226c	-0.022843562
114	0xbd0a0a09	-0.033700977
115	0x3c6399c6	0.013891643
116	0xbdafb3ed	-0.0857924
117	0xbd84d5e8	-0.06486112
118	0x3dfa2622	0.122143045
119	0xbc6e7be1	-0.014555902
120	0x3d89485a	0.06703253
121	0x3dca1580	0.09867382
122	0x3d82821d	0.063724734
123	0x3da4f27d	0.080540635
124	0x3d54f375	0.05198999
125	0x3e2739db	0.16330664
126	0xbce51372	-0.027963374
127	0xbe186a95	-0.14884408
128	0x3d55b6d3	0.052176308
129	0xbcb38045	-0.02191175
130	0xbdc57e6f	-0.09643256
131	0xbd537cfe	-0.051632874
132	0x3d80911b	0.06277677
133	0xbd5b7e16	-0.05358704
134	0xbcca438e	-0.024690416
135	0x3de39b92	0.11113657
136	0x3dae526c	0.085118145
137	0xbd09db5b	-0.03365646
138	0x3dbb8d42	0.09157802
139	0xbe137dca	-0.14403453
140	0x3db26ef0	0.08712566
141	0xbe27d21f	-0.16388749
142	0x3d25161d	0.040304292
143	0xbd82f831	-0.06394995
144	0xbd8955a8	-0.06705791
145	0x3d36fa6c	0.044672415
146	0x3c15001c	0.009094264
147	0xbd99e574	-0.07514468
148	0xbd2bd0f8	-0.041947335
149	0xbd7c7596	-0.061635576
150	0x3d43bee7	0.04778948
151	0xbd904361	-0.070441015
152	0x3df21505	0.118204154
153	0x3d4b6b13	0.04966266
154	0xbd06f888	-0.03295186
155	0x3d28e04f	0.041229542
156	0x3b67e35a	0.0035383315
157	0xbdee8ab4	-0.11647549
158	0xbce6ec57	-0.028188867
159	0x3a238e7a	0.0006239187
160	0xbd9b9ff8	-0.07598871
161	0xbca7489f	-0.02042037
162	0xbc7dd96c	-0.015493732
163	0x3d5abe3b	0.053404074
164	0x3bf9ab90	0.007619329
165	0x3e8b5512	0.2721334
166	0x3d978729	0.07398827
167	0xb87b7e14	-5.9960483e-05
168	0x3d4e0de1	0.050306205
169	0xbd5a4571	-0.05328888
170	0x3c9ffa7c	0.01952862
171	0xbca566d5	-0.020190636
172	0x3cc3ba74	0.023892619
173	0xbe29f9ef	-0.16599248
174	0xbd9d2209	-0.07672507
175	0xbcd2202e	-0.02565011
176	0xbdb5e969	-0.0888241
177	0x3c812229	0.01576336
178	0xbd36f454	-0.044666603
179	0xbdbd32db	-0.092382155
180	0x3da6e1ee	0.081485614
181	0xbe26057c	-0.1621303
182	0x3bf1cca6	0.0073791323
183	0x3d83ba77	0.0643205
184	0x3d9af166	0.07565574
185	0xbda2c839	-0.07948346
186	0x3df6f3d2	0.12058224
187	0x3c5fe7d7	0.013666115
188	0xbe4bc2e6	-0.19898567
189	0xbdbf46a1	-0.09339643
190	0x3a1dbea2	0.0006017481
191	0xbda1084a	-0.07862909
192	0x3dc4ff75	0.09619037
193	0x3d12d206	0.035844825
194	0x3d406eca	0.046980657
195	0x3d203184	0.03910972
196	0xbd05d401	-0.032672886
197	0xbd2174ec	-0.039418146
198	0x3db4ef07	0.08834653
199	0xbe1a7c8c	-0.15086573
200	0xbdd83804	-0.10557559
201	0x3c311a7e	0.010809539
202	0xbd77e252	-0.06051857
203	0xbb37a6df	-0.0028023047
204	0x3e23903d	0.15972991
205	0x3d63ed8a	0.055646457
206	0xbc2e7d95	-0.010650058
207	0xbd1d3b41	-0.038386587
208	0xbe005dbc	-0.12535757
209	0x3d93bbdf	0.07213568
210	0xbd5f5f2e	-0.05453413
211	0xbdb542ab	-0.088506065
212	0x3d20d607	0.039266612
213	0xbe147190	-0.14496446
214	0xbd017bab	-0.03161208
215	0xbd7d5a7a	-0.061853863
216	0xbe462797	-0.1935104
217	0x3ce8d29d	0.02842074
218	0x3cce937f	0.025216816
219	0x3d2b3710	0.04180056
220	0x3c2f1d14	0.010688085
221	0x3d209379	0.03920314
222	0x3dcfd81a	0.1014864
223	0x3d34baa8	0.04412332
224	0xbbf974ad	-0.007612786
225	0xbd067c62	-0.032833464
226	0x3c5a6599	0.013329887
227	0x3c9d0f60	0.01917237
228	0xbdf0696b	-0.11738857
229	0x3da780c9	0.08178861
230	0x3deef560	0.11667895
231	0xbe150066	-0.14550933
232	0xbe8e9a58	-0.2785213
233	0x3d7be3b4	0.06149645
234	0xbcf169df	-0.029469429
235	0xbb349fbf	-0.0027561036
236	0xbd7a91de	-0.061174266
237	0xbd94070a	-0.07227905
238	0xbdf01e4c	-0.11724529
239	0xbdf76348	-0.12079483
240	0xbd507f9d	-0.05090295
241	0xbdb6724b	-0.089085184
242	0xbc9d4252	-0.019196663
243	0xbc8572de	-0.016290125
244	0xbc6ea83c	-0.014566477
245	0x3da1483d	0.078751065
246	0x3b7b2143	0.0038319386
247	0x3c455e13	0.012046355
248	0xbd16aaac	-0.03678386
249	0x3c8ac524	0.016939707
250	0x3d25e6c2	0.04050327
251	0x3d485c3f	0.048916098
252	0xbd4edbbe	-0.05050253
253	0xbc3521f9	-0.011055463
254	0x3d45cdb6	0.048291884
255	0xbdd9b7b6	-0.10630743

actor.0.bias f4 [32]
0	0xbb442d94	-0.0029934393
1	0xbb8ed5de	-0.004358991
2	0xbbbc6710	-0.0057495907
3	0xb9e2c438	-0.00043252273
4	0xba694dab	-0.0008899818
5	0xbb32c225	-0.0027276364
6	0x399bdbff	0.00029727814
7	0xbb8855d7	-0.0041606235
8	0xbade4446	-0.0016957603
9	0xbacaaf38	-0.0015463596
10	0x3b299bef	0.0025880297
11	0xbae1db65	-0.0017231522
12	0xbb169e29	-0.0022982454
13	0xba67b39d	-0.0008838715
14	0xbbdd1495	-0.0067468383
15	0xbba64553	-0.005074182
16	0xbb83b4a8	-0.0040193386
17	0xbbd7f3f3	-0.0065903603
18	0xbbe47f67	-0.0069731954
19	0x3aa7fb05	0.0012815899
20	0xbb9561d4	-0.004558781
21	0xbbc041cf	-0.00586722
22	0x391d714d	0.00015014895
23	0x3b5a37c3	0.0033297397
24	0xbb170bf6	-0.00230479
25	0xbaaf2aae	-0.001336416
26	0xbb6bb822	-0.0035967906
27	0xbb946a0a	-0.0045292424
28	0xbbad39d2	-0.0052864337
29	0xbbfde708	-0.0077484883
30	0xbabbfcf5	-0.0014342355
31	0xb9aafc3d	-0.0003261286

actor.2.weight f4 [32, 4, 3, 3]
0	0x3e248f53	0.16070299
1	0xbc999fed	-0.018753016
2	0x3ed831de	0.42225546
3	0x3d626e89	0.055281196
4	0x3cae6ae0	0.021291196
5	0x3e890932	0.26764828
6	0xbd5b791e	-0.053582303
7	0x3dcd36bc	0.100202054
8	0xbad7304c	-0.0016417592
9	0xbd897c75	-0.067131914
10	0x3e6e605c	0.23278946
11	0x3dc77942	0.09739925
12	0xbe885347	-0.26626036
13	0x3e02da07	0.12778483
14	0xbe170999	-0.14749755
15	0xbed105c3	-0.40824708
16	0x3ec8bdd9	0.39207342
17	0x3e82a723	0.2551814
18	0xbe1f6ed8	-0.15569627
19	0xbe456896	-0.19278178
20	0x3d374f8a	0.04475359
21	0x3e84201f	0.25805756
22	0x3dadefb8	0.08492988
23	0xbe6ca894	-0.23111182
24	0xbc2784e8	-0.010224558
25	0xbdeaf67f	-0.11472797
26	0xbe632369	-0.22181477
27	0x3cc69a96	0.024243634
28	0xbf0a324e	-0.5398301
29	0x3ea3a131	0.31958917
30	0x3e79e9cb	0.24405591
31	0xbd60db91	-0.054896895
32	0xbe9faf3a	-0.31188375
33	0x3f036e6a	0.51340353
34	0xbdb9eb38	-0.090780675
35	0xbe6cd81a	-0.23129311
36	0x3e16dae8	0.14731944
37	0xbe6cf708	-0.2314111
38	0x3cdecdc3	0.027197724
39	0x3df43aaf	0.119252555
40	0xbd244422	-0.04010404
41	0xbe22aece	-0.15886995
42	0x3dc48bff	0.09597015
43	0xbe87715d	-0.26453677
44	0xbe9af629	-0.3026593
45	0xbef048e4	-0.4693061
46	0x3eaece6a	0.34141856
47	0x3e76ff4e	0.24120829
48	0x3e95c8da	0.292548
49	0x3cac72d2	0.021050844
50	0x3cefb7ea	0.029262502
51	0x3e212a41	0.15738775
52	0x3e84dbf5	0.25949064
53	0xbe46d078	-0.19415462
54	0x3ea11af6	0.31465882
55	0xbeb68938	-0.35651565
56	0x3e682923	0.22671942
57	0x3e35756e	0.17720577
58	0xbcfb8439	-0.030702697
59	0xbd72401d	-0.059143174
60	0xbe74bc47	-0.23899947
61	0x3d0cac8d	0.034344245
62	0xbdc348bf	-0.095353596
63	0xbce2b9b7	-0.027676446
64	0xbb1fc2b3	-0.0024377524
65	0xbe43bc5b	-0.1911482
66	0x3e4f6910	0.20254922
67	0x3f1bf693	0.6092312
68	0xbdab7073	-0.08371057
69	0x3d4d43a6	0.050113343
70	0x3e54975d	0.20760866
71	0x3eeab194	0.45838606
72	0xbe984df5	-0.29746976
73	0xbea692e9	-0.3253396
74	0x3e5cfe58	0.215814
75	0xbbb568af	-0.005536161
76	0x3e58eed4	0.21184856
77	0x3e750b01	0.23929979
78	0xbdf5fb74	-0.120108515
79	0x3e5aecdf	0.21379422
80	0xbe43b785	-0.19112976
81	0x3d4d66bf	0.050146814
82	0xbedae416	-0.4275214
83	0xbe32d744	-0.1746493
84	0xbd8c9d1f	-0.06865906
85	0xbbeddbd7	-0.007258873
86	0x3ef96b7c	0.48714817
87	0x3e0d7b5c	0.13816589
88	0xbd62573d	-0.05525898
89	0x3e1dd035	0.15411456
90	0xbe0040f1	-0.12524773
91	0x3d7bd728	0.061484486
92	0x3e156ad3	0.14591531
93	0x3f051dd6	0.5199865
94	0xbeb5e9c0	-0.355299
95	0x3e2dba15	0.16965516
96	0xbe8717fc	-0.26385486
97	0x3e12198d	0.1426756
98	0x3ceff516	0.02929167
99	0xbeddf2a6	-0.4334919
100	0x3cca596e	0.024700847
101	0xbeac447e	-0.33646005
102	0x3e617902	0.22018817
103	0xbe113121	-0.14178897
104	0xbd17ee11	-0.037092272
105	0x3e5949ed	0.21219607
106	0xbdd5db97	-0.10442274
107	0x3e6ef349	0.23334993
108	0x3b86bd70	0.004111938
109	0xbeb66ab7	-0.35628292
110	0xbdccc008	-0.099975646
111	0xbd7722d6	-0.060335957
112	0xbd7745e1	-0.060369376
113	0xbe8f3a8a	-0.2797435
114	0x3efc9e30	0.49339437
115	0xbe25be7b	-0.16185944
116	0x3efd5815	0.49481264
117	0x3e36501c	0.17803997
118	0x3e482956	0.19547018
119	0x3e2289a6	0.15872821
120	0xbd2ff9e5	-0.042962927
121	0x3e061e1f	0.13097428
122	0x3d15d44d	0.03657942
123	0xbe8056a3	-0.250661
124	0xbdb79c80	-0.08965397
125	0xbe9422bd	-0.28932753
126	0xbdd9935c	-0.1062381
127	0xbeee6281	-0.46559528
128	0xbe2441c9	-0.1604072
129	0x3dc0c8d6	0.094133064
130	0x3d4d78d2	0.05016405
131	0x3dd6b0c2	0.104829326
132	0xbe8b40d6	-0.27197903
133	0xbe9b9372	-0.3038593
134	0xbdbe5a53	-0.09294572
135	0xbea88333	-0.32912597
136	0x3dc233e3	0.09482553
137	0xbe118600	-0.14211273
138	0x3d1f970e	0.038962416
139	0xbf16c78b	-0.5889823
140	0xbd72e22f	-0.059297737
141	0x3cbbcc50	0.022924572
142	0x3e4759d8	0.19467866
143	0x3d95efe7	0.07321148
144	0xbdea95d0	-0.11454356
145	0xbdbdd782	-0.092696205
146	0xbec13109	-0.37732723
147	0x3eb02ca0	0.34409046
148	0x3d776589	0.060399566
149	0x3d3dd56c	0.046346113
150	0x3c158b17	0.0091274
151	0x3eb7b75a	0.35882074
152	0xbe137de0	-0.14403486
153	0x3e532f63	0.20623545
154	0x3d737c1f	0.059444543
155	0xbe6b1f1d	-0.22961088
156	0xbe92b24e	-0.2865166
157	0xbec814e2	-0.39078432
158	0x3d645226	0.055742405
159	0xbee3dffb	-0.4450682
160	0x3d93f45d	0.07224343
161	0x3da39504	0.07987407
162	0xbdf58954	-0.11989084
163	0xbebaff9d	-0.36523142
164	0x3e434920	0.19070864
165	0xbc8b04ba	-0.016970027
166	0x3ddf213c	0.10895011
167	0x3dc93dbf	0.0982623
168	0x3e9c2479	0.30496576
169	0x3e3fe067	0.18737946
170	0xbeecb61e	-0.46232694
171	0x3e8f41a2	0.2797976
172	0x3e62f8bf	0.22165202
173	0xbd9fd883	-0.07804968
174	0x3ec732d5	0.3890597
175	0x3d5e3e5e	0.054258697
176	0x3e7182b6	0.23585019
177	0xbe46e889	-0.19424643
178	0x3e810ca6	0.25204962
179	0x3e205804	0.15658575
180	0xbe7de1b2	-0.24793127
181	0x3f00b240	0.5027199
182	0x3d067823	0.032829415
183	0xbe2f62c3	-0.17127518
184	0x3ee942d6	0.45558804
185	0xbd92e7f0	-0.07173145
186	0x3e56d3bf	0.20979212
187	0x3e8c6ded	0.27427617
188	0x3d04fe0d	0.032468844
189	0xbe1e9366	-0.15485916
190	0x3c2b6e04	0.0104632415
191	0x3ec4da66	0.38447875
192	0xbda75003	-0.08169558
193	0x3e340d86	0.17583284
194	0x3ebd66ca	0.36992484
195	0x3e24d56f	0.16097043
196	0x3e40fda9	0.18846764
197	0x3e0e5ef3	0.13903408
198	0x3bf9359e	0.0076052686
199	0xbeed3df3	-0.46336326
200	0x3ddac1e9	0.10681517
201	0xbe8f270d	-0.2795948
202	0xbe7c6ab4	-0.24650079
203	0x3ea5212b	0.32251868
204	0x3e98b26a	0.2982362
205	0xbee6b2e3	-0.45058355
206	0x3e4a241c	0.19740337
207	0x3d032ce5	0.032025237
208	0xbc53aa31	-0.012918995
209	0xbda1464c	-0.07874736
210	0x3e1871a3	0.14887099
211	0x3de7e2c8	0.11322552
212	0x3cb90a33	0.022587871
213	0xbd84c8b6	-0.06483595
214	0xbdf32dd2	-0.11873974
215	0xbe1e80cc	-0.1547882
216	0xbe62ae2e	-0.22136757
217	0xbc2d3981	-0.010572792
218	0x3d5da8a4	0.054115906
219	0x3d26f0f2	0.040757127
220	0xbaf42a32	-0.0018628298
221	0xbe9a4d78	-0.3013723
222	0x3eca6bfc	0.3953551
223	0xbca77d32	-0.02044544
224	0xbe60b791	-0.21945025
225	0xbe1745b6	-0.14772686
226	0xbe1f5e51	-0.15563323
227	0xbca039c9	-0.019558804
228	0x3de2d6da	0.11076136
229	0xbe7e45e9	-0.24831356
230	0x3d513394	0.05107458
231	0xbd0ca6ee	-0.034338884
232	0x3dfba91c	0.122881144
233	0xbe63306b	-0.22186439
234	0xbd5d3b8d	-0.05401187
235	0x3eab984a	0.33514625
236	0x3cff0b7c	0.031133406
237	0xbe8d942d	-0.27652112
238	0xbe2c753e	-0.168416
239	0x3daad1b2	0.083407775
240	0xbe8a97bb	-0.27068886
241	0x3cc7e49c	0.024401002
242	0xbf2b0d0f	-0.668168
243	0xbe32d547	-0.17464171
244	0xbdfd7d3b	-0.123774014
245	0x3e6f6073	0.23376636
246	0x3e3982af	0.18116258
247	0x3c81cbae	0.015844192
248	0xbeca61f8	-0.3952787
249	0xbec3d0dc	-0.38245285
250	0xbee0157f	-0.437664
251	0xbe8e9f41	-0.27855876
252	0xbf002475	-0.5005563
253	0x3e36af3e	0.17840287
254	0xbe7121f6	-0.23548111
255	0xbe5765fb	-0.21034996

actor.2.bias f4 [4]
0	0x3b6d3b81	0.0036198797
1	0xba068fdd	-0.00051331316
2	0x3a2b2cbd	0.0006529799
3	0xbb79b1e0	-0.0038100407

critic.1.weight f4 [128, 1024]
0	0xba08fb8c	-0.00052254717
1	0xbd47593d	-0.04866909
2	0xbc2e3890	-0.010633603
3	0xbd3803e5	-0.04492559
4	0xbcc9dd58	-0.024641678
5	0xbd0fe330	-0.035128772
6	0xbdd1af93	-0.10238566
7	0xbd29d0d7	-0.04145893
8	0x3b9c4019	0.004768383
9	0xbc840627	-0.016116215
10	0x3c4d2d58	0.012523018
11	0x3d85bcfc	0.065301865
12	0x3c211e75	0.009833922
13	0xbe140a5d	-0.14457078
14	0x3d42548c	0.04744391
15	0xbc197603	-0.009366515
16	0xbc02c744	-0.007982079
17	0xbd5bf7a6	-0.053702973
18	0xbc8f60a2	-0.017502133
19	0x3cb64841	0.02225125
20	0x3bd8cc95	0.006616185
21	0xbdc230f6	-0.09481995
22	0xbd0bd3b7	-0.034137454
23	0x3b36c932	0.0027890918
24	0x3da5eb5e	0.08101533
25	0x3d05fbd9	0.032710884
26	0x3d0adddc	0.033902988
27	0xbc668018	-0.014068626
28	0xbd14b104	-0.036301628
29	0xbd172dd7	-0.03690895
30	0xbd147828	-0.036247402
31	0x3d10edd3	0.035383057
32	0xbd26664a	-0.040624894
33	0xbcacb4ca	-0.0210823
34	0xbc74e616	-0.014947435
35	0x3d9a90dc	0.07547161
36	0x3da632cf	0.0811516
37	0x3cae23ce	0.021257307
38	0x3d9be492	0.07611956
39	0xbd37979c	-0.04482232
40	0xbcef80aa	-0.029236156
41	0xbbd78fa3	-0.006578402
42	0x3c96cc60	0.018408
43	0x3c48205d	0.012214747
44	0x3d93b228	0.07211715
45	0xbdb333eb	-0.08750137
46	0x3d4bdc44	0.04977061
47	0xbb8737de	-0.004126533
48	0xbd22e9d3	-0.039773773
49	0xbd3b5f1d	-0.045745004
50	0x3d30c684	0.04315807
51	0xbce3eccf	-0.02782288
52	0x3c94733d	0.018121356
53	0xbdc8130c	-0.09769258
54	0x3cd596f5	0.026072958
55	0xbcc09951	-0.023510607
56	0xbc3e20fa	-0.011604542
57	0xbcb3526c	-0.021889888
58	0x3d5ad493	0.053425383
59	0xbb04371d	-0.0020174452
60	0x3d886b79	0.06661124
61	0xbd1e87ad	-0.03870361
62	0xbd636c4e	-0.05552321
63	0x3cbedcfc	0.023298733
64	0x3b636dd2	0.003470291
65	0x3d74f3dd	0.05980288
66	0xbd0108de	-0.031502597
67	0xbce9329b	-0.028466513
68	0x3c07adac	0.008281153
69	0xbd488e1b	-0.048963647
70	0x3c1f4972	0.009722101
71	0x3b953f34	0.0045546535
72	0x3ccc3b43	0.024930602
73	0xbb6cab01	-0.0036112668
74	0xbdc2fd4f	-0.09520971
75	0xbcc6e910	-0.024281055
76	0xbcf32e92	-0.029685292
77	0x3a3a2dcf	0.0007102163
78	0xbd0e98c2	-0.03481365
79	0xbd3949b8	-0.04523632
80	0xbd1a7643	-0.03771044
81	0x3cf6556b	0.030070027
82	0x3d9334f9	0.07187838
83	0xbd1f9e78	-0.038969487
84	0x3d9629ae	0.073321685
85	0x3d4d5a0b	0.0501347
86	0xbd642b09	-0.055705104
87	0xbd8d1431	-0.06888617
88	0xbc793d1e	-0.015212325
89	0xbd48a7e5	-0.04898824
90	0xbd59bd0b	-0.0531588
91	0x39342f2a	0.00017183708
92	0xbdb9a288	-0.090642035
93	0xbda1ec80	-0.07906437
94	0x3d4d8423	0.050174844
95	0xbd4677a7	-0.048453953
96	0xbb9aa00b	-0.0047187856
97	0x3c61249c	0.0137416385
98	0xbd57d870	-0.052696645
99	0xbaaa95f6	-0.0013014663
100	0x3c8d6288	0.017258897
101	0xbcc75b3d	-0.024335498
102	0x3d30d52b	0.043172043
103	0xbd3d22dd	-0.046175826
104	0xbd0e4ed5	-0.03474315
105	0xbd0c7555	-0.034291584
106	0x3d5ad3e8	0.053424746
107	0x3d8959ba	0.06706567
108	0x3d7c932f	0.061663803
109	0xbcbf7a06	-0.023373615
110	0xbc1e7b05	-0.009672885
111	0xbcdbfae9	-0.026853042
112	0x3c0de351	0.0086601535
113	0xbce39120	-0.027779162
114	0xbd996777	-0.074904375
115	0x3c79de84	0.015250806
116	0xbc1dd5d1	-0.009633497
117	0xbb3d88ff	-0.0028920767
118	0xbc2256ae	-0.009908361
119	0x3c6bb7c5	0.014387076
120	0x3d2d9e3f	0.042387243
121	0xbcd3e546	-0.025866162
122	0xbc16b238	-0.009197764
123	0x3c821ea6	0.015883755
124	0x3cca7f5f	0.024718938
125	0x3cc041f9	0.023468958
126	0xbbc52dc0	-0.0060174167
127	0x3d89939f	0.067176096
128	0xbd1e80af	-0.03869694
129	0x3acbcabf	0.0015548094
130	0x3ccd9367	0.025094701
131	0x3d8bd086	0.06826882
132	0xbd2614f6	-0.040547334
133	0x3ca4fecb	0.020141026
134	0xbb48d79b	-0.003064609
135	0x3bb70377	0.00558513
136	0x3d363711	0.04448611
137	0x3d6f94d6	0.05849155
138	0x3d873a66	0.066029355
139	0xbdb1e766	-0.08686714
140	0x3cab4626	0.020907473
141	0xbc7635dc	-0.0150274895
142	0xbcf49e1d	-0.02986055
143	0x3d5a709b	0.053330045
144	0xbc8f9ec7	-0.017531766
145	0xbc12b68a	-0.0089546535
146	0x3d2ecd72	0.042676397
147	0x3de51f4a	0.111876085
148	0x3cf731c9	0.030175107
149	0xbd374b32	-0.044749446
150	0xbb54c4aa	-0.0032465854
151	0x3c31a5db	0.010842766
152	0xbd2e4fa8	-0.042556435
153	0xbdcb1757	-0.09916561
154	0xbd04e4b6	-0.03244468
155	0xbccae599	-0.024767684
156	0x3d642063	0.05569495
157	0xbd03ee31	-0.03220958
158	0xbd8bebfc	-0.0683212
159	0xbc863e8f	-0.016387252
160	0xbb993322	-0.004675285
161	0x3d9a1bd6	0.075248405
162	0xbc9fcb50	-0.019506127
163	0x3b259584	0.002526612
164	0xbd86c507	-0.06580549
165	0xbd53e7b1	-0.05173463
166	0x3daf719b	0.085665904
167	0x3d62ada9	0.055341396
168	0xbc151ce6	-0.009101128
169	0xbcfe3308	-0.031030193
170	0x3da3923d	0.07986877
171	0xbd0b434a	-0.03399972
172	0x3d1f02c5	0.038821
173	0x3d81e722	0.06342913
174	0xbc54aba7	-0.012980378
175	0x3b20baea	0.0024525472
176	0x3d1559c5	0.036462564
177	0xbd7f9505	-0.062397975
178	0x3dda6263	0.10663297
179	0xbd951d05	-0.07280926
180	0x3d30ce9a	0.04316578
181	0x3cc91d65	0.02455015
182	0xbb6fc5fc	-0.0036586514
183	0x3bb4dba5	0.0055193477
184	0xbd0bc4b2	-0.03412313
185	0x3c09ef42	0.00841886
186	0x3c952d9c	0.018210225
187	0xbd105b37	-0.03524324
188	0x3c21a644	0.009866301
189	0xba796ef9	-0.00095151324
190	0x3ce3f419	0.027826356
191	0xbd8ee07c	-0.06976411
192	0x3cba3ff2	0.02273557
193	0x3cb8bf6c	0.022552215
194	0x3ca8d42f	0.02060899
195	0xbc89b8ba	-0.016811717
196	0x3d0a50ae	0.03376835
197	0xbda36b6d	-0.07979474
198	0x3c5abe99	0.013351106
199	0xbb0a16f7	-0.0021070817
200	0xbd0f58aa	-0.034996666
201	0x3d41b1dc	0.04728876
202	0x3da50b08	0.08058745
203	0x3a1e25cc	0.0006032854
204	0x3d983e74	0.07433787
205	0xbd1ef3ce	-0.03880673
206	0xbca7f36f	-0.02050182
207	0xbd058734	-0.032599643
208	0x3d3d602e	0.046234302
209	0x3c82e8cb	0.015980145
210	0xbdb75136	-0.08951037
211	0x3d4fa52c	0.05069463
212	0x3d542d56	0.05180105
213	0x3cfc8b16	0.03082804
214	0x3c2200c1	0.009887875
215	0x3d96a06c	0.07354817
216	0x3cd5a9e0	0.02608198
217	0x3d5f1844	0.0544665
218	0x3ce618a9	0.02808793
219	0x3ce64f3e	0.028113957
220	0xbd5c89ad	-0.053842235
221	0x3c9a74ed	0.018854583
222	0xbcf6f787	-0.030147327
223	0xbd8aa206	-0.06769185
224	0xbd2872f0	-0.041125238
225	0x3cdb3714	0.026759662
226	0xbc59c909	-0.013292559
227	0xbc4087b4	-0.011751104
228	0xbca4a87b	-0.020099869
229	0x3b6f6358	0.003652772
230	0x3d4574ed	0.048207212
231	0xbc080289	-0.008301386
232	0x3b9a5b57	0.0047105956
233	0x3db9a1e8	0.09064084
234	0x3d5e4517	0.054265108
235	0xbd81480d	-0.06312571
236	0x3d173700	0.036917686
237	0xbdcb5098	-0.099274814
238	0xbd69f5ea	-0.057119288
239	0xbd0866fc	-0.03330134
240	0x3d802fa3	0.06259086
241	0xbda00714	-0.0781385
242	0xbd29f1a0	-0.041490197
243	0xbd5f923f	-0.05458283
244	0x3d7ece83	0.062208664
245	0x3d133b31	0.03594512
246	0x3d45aacb	0.048258584
247	0xbdbfa8eb	-0.093583904
248	0xbd5040c6	-0.050843023
249	0xbcdba7ae	-0.026813354
250	0x3bfa55a7	0.007639605
251	0x3d65a7df	0.056068297
252	0xbcf3094f	-0.029667525
253	0x3d20db70	0.039271772
254	0x3d0a61a7	0.033784535
255	0x3be1cc46	0.0068908064

critic.1.bias f4 [128]
0	0x384ba3c4	4.855149e-05
1	0x39f36320	0.00046422426
2	0xba262f7d	-0.0006339474
3	0x00000000	0.0
4	0xba2793b7	-0.00063925557
5	0xba2f0c07	-0.00066775124
6	0xba83901a	-0.0010037452
7	0x3a2b0880	0.0006524399
8	0xba3366ea	-0.00068436435
9	0x3a25c6ba	0.0006323863
10	0xba25f7f3	-0.0006331198
11	0x37681b50	1.3834637e-05
12	0x00000000	0.0
13	0xba27c9b9	-0.00064006035
14	0xb574eb62	-9.123961e-07
15	0xba34f14e	-0.0006902412
16	0xba1f1545	-0.0006068538
17	0xba3cd757	-0.0007203719
18	0x3a19dc5b	0.00058693223
19	0xb1de7f65	-6.4755334e-09
20	0x3a2a853e	0.000650484
21	0x350693d4	5.013401e-07
22	0x37ac8fc5	2.0570946e-05
23	0xb9e375da	-0.0004338462
24	0xba304634	-0.0006724328
25	0x3a231b1c	0.0006221996
26	0xb4882397	-2.535787e-07
27	0x3abe1330	0.0014501568
28	0x3a255778	0.00063072843
29	0xba18dbe6	-0.0005831107
30	0xb7b37a8d	-2.139553e-05
31	0xba26aae5	-0.0006357863
32	0xb41cce55	-1.4603695e-07
33	0xba27abab	-0.0006396125
34	0x3a42876a	0.0007420691
35	0x39cf7b30	0.00039573899
36	0x3a2a4df7	0.0006496603
37	0x00000000	0.0
38	0xba766bfe	-0.00094002474
39	0xba16f98f	-0.0005759233
40	0xb83ad538	-4.454443e-05
41	0x3a2684df	0.0006352197
42	0x3864b814	5.4530872e-05
43	0x00000000	0.0
44	0x00000000	0.0
45	0xb5274535	-6.231306e-07
46	0xba430be1	-0.000744043
47	0x3a19cb35	0.0005866767
48	0x3a2e70c3	0.0006654376
49	0x3a11dfcc	0.00055646594
50	0xb7db5216	-2.6145059e-05
51	0x3a4f688b	0.00079120015
52	0xba5664cd	-0.00081784726
53	0xba61cce1	-0.0008613598
54	0xba26e29a	-0.0006366164
55	0x3a104b58	0.0005504391
56	0x3a2f9e94	0.000669935
57	0x00000000	0.0
58	0x3a270c3b	0.0006372367
59	0xba2a1467	-0.00064880255
60	0xba3a043a	-0.0007095967
61	0x3a39df0c	0.00070904265
62	0x00000000	0.0
63	0xba4ea04e	-0.00078821636
64	0x3a245745	0.00062691077
65	0x36a51975	4.920347e-06
66	0xba32593b	-0.00068034575
67	0x33b3b0f5	8.367525e-08
68	0xb3b73e36	-8.532918e-08
69	0x39c382f1	0.00037290857
70	0x00000000	0.0
71	0x388c9cbf	6.7049164e-05
72	0xba1c01c8	-0.0005951193
73	0xb8691089	-5.556693e-05
74	0xb927527c	-0.00015957089
75	0x00000000	0.0
76	0xba0e0192	-0.0005417104
77	0x00000000	0.0
78	0x3992072b	0.0002785263
79	0xba27cb46	-0.00064008345
80	0xb82c0575	-4.1013078e-05
81	0xba1f1c52	-0.00060695887
82	0xb513c996	-5.5055114e-07
83	0x00000000	0.0
84	0x00000000	0.0
85	0xba9974e6	-0.0011707812
86	0xba2f76ba	-0.0006693412
87	0x00000000	0.0
88	0x34361c0f	1.6960279e-07
89	0x3a28213c	0.0006413644
90	0xbab51720	-0.0013816096
91	0xba54193e	-0.00080909196
92	0x397f53ca	0.00024349909
93	0xba115b4d	-0.0005544916
94	0xb4f86d58	-4.6273158e-07
95	0xba12692c	-0.000558513
96	0xb9be0657	-0.00036244348
97	0xba6f24f8	-0.0009122635
98	0x00000000	0.0
99	0x3a19451c	0.0005846785
100	0x3960ba89	0.00021431794
101	0x38f81f99	0.00011831447
102	0x3a22c911	0.0006209771
103	0x375c0188	1.3113378e-05
104	0x00000000	0.0
105	0xba3c8773	-0.00071918144
106	0x3a17819a	0.0005779505
107	0xba28e7ff	-0.00064432615
108	0xba279623	-0.00063929165
109	0x3a3cbf43	0.0007200131
110	0x00000000	0.0
111	0x3a2f79d3	0.00066938734
112	0x3a1dfc3b	0.000602666
113	0xba0e8df9	-0.00054380257
114	0x00000000	0.0
115	0x3a26e2c4	0.0006366188
116	0x00000000	0.0
117	0x3a16065f	0.0005722995
118	0xb530772d	-6.573853e-07
119	0xbaaf0d16	-0.001335534
120	0xb9531459	-0.00020130108
121	0xba1ffab8	-0.00061027287
122	0x3a1c103e	0.0005953348
123	0x38a6a28c	7.9457735e-05
124	0xba240208	-0.0006256406
125	0x390d213c	0.00013459189
126	0xba6e84ec	-0.00090987864
127	0x3a26f739	0.00063692365

critic.3.weight f4 [1, 128]
0	0x3da0883e	0.07838486
1	0x3b41c930	0.002956938
2	0xbd86a762	-0.065748945
3	0xbe35f10f	-0.17767738
4	0xbd77a969	-0.060464296
5	0xbd08c475	-0.03339048
6	0x3df39fc2	0.11895706
7	0x3d400089	0.04687551
8	0xbbff8fd4	-0.007799128
9	0x3d88f3ad	0.066871025
10	0xbd88d12c	-0.06680521
11	0x3b4c91c1	0.0031214806
12	0xbc2e92be	-0.010655103
13	0xbde42fa3	-0.111418985
14	0x3e257eb4	0.16161615
15	0x3e570641	0.2099848
16	0xbdc63c4a	-0.09679468
17	0xbd68ffe6	-0.05688467
18	0x3df9d2c0	0.121984005
19	0x3b008d64	0.0019615525
20	0x3c2376d9	0.009977066
21	0x3b57fc3b	0.0032956738
22	0xbce3c761	-0.027805032
23	0xbb201f6a	-0.0024432787
24	0xbce8569e	-0.028361615
25	0x3d46fdd7	0.048581924
26	0xbcf62a8f	-0.03004959
27	0xbd8c1154	-0.068392426
28	0x3e0eacdb	0.13933127
29	0xbe02a815	-0.1275943
30	0x3d871afc	0.06596944
31	0xbd983592	-0.07432093
32	0x3d42c157	0.047547664
33	0xbd7ef8ed	-0.062249113
34	0x3dcd15fa	0.10013957
35	0xbd2cad2a	-0.04215733
36	0x3d84b345	0.064795054
37	0x3d4ee00f	0.050506648
38	0xbcf2d4d4	-0.0296425
39	0xbe1691d2	-0.14704064
40	0x3cbf1b54	0.02332846
41	0x3d7982f9	0.06091592
42	0x3db7919d	0.089633204
43	0xbcb998cc	-0.022655867
44	0xbde9d9aa	-0.11418469
45	0x3d57d935	0.05269738
46	0x3dbf0a2f	0.09328114
47	0x3dfa3ecf	0.12219011
48	0x3c5be3bf	0.013420998
49	0x3e2f0dc6	0.17095098
50	0x3d94501e	0.07241844
51	0xbd18867a	-0.03723762
52	0xbd5f3b6e	-0.054500036
53	0x3e3ae5ed	0.18251772
54	0xbd84d0ee	-0.06485163
55	0x3d479b3c	0.048732027
56	0x3d50b4b3	0.05095358
57	0x3e3be4dd	0.18349023
58	0x3d7dfa58	0.062006325
59	0xbd518fc4	-0.051162496
60	0x3dadb023	0.08480861
61	0x3d40ba18	0.047052473
62	0x3e15dee8	0.14635813
63	0xbc80dd51	-0.015730532
64	0x3dad1edd	0.08453152
65	0xbded4489	-0.11585338
66	0xbc0fec23	-0.008784327
67	0x3e0f9da1	0.14024974
68	0x3c7e2ad8	0.015513144
69	0x3e4c61dd	0.19959207
70	0xbcba6657	-0.022753878
71	0xbd7dac57	-0.061931934
72	0xbc79789d	-0.01522651
73	0xbc69da8c	-0.014273297
74	0xbbd10b47	-0.006379518
75	0x3d97df09	0.074155875
76	0xbb5e1fa8	-0.003389338
77	0x3da23000	0.079193115
78	0xbc10c1c8	-0.008835264
79	0xbd760461	-0.06006277
80	0x3e2e86de	0.17043635
81	0xbdc42b54	-0.09578577
82	0x3d4893cc	0.048969075
83	0x3d3334d5	0.043751556
84	0xbd96526c	-0.073399395
85	0xbe0b3fc9	-0.13598551
86	0xbc2bebda	-0.010493243
87	0x3d310085	0.043213386
88	0x3c143446	0.009045666
89	0x3d6ca845	0.05777766
90	0xbe2a27bc	-0.1661672
91	0xbcfa7d48	-0.030577317
92	0x3d39951f	0.04530823
93	0xbe438840	-0.19094944
94	0x3d65f347	0.05614021
95	0xbe681e35	-0.22667773
96	0xbe20f066	-0.15716705
97	0xbdb77f02	-0.08959772
98	0x3d3f3ea8	0.046690613
99	0x3d22a2c1	0.039705995
100	0xbd68885e	-0.056770675
101	0x3e1973b7	0.14985548
102	0x3da23ea7	0.07922106
103	0xbdb8c7f6	-0.090225145
104	0xbd210c97	-0.039318647
105	0xbe0541c8	-0.13013375
106	0x3e0d2888	0.13784993
107	0xbd87ca2e	-0.066303596
108	0xbd80ccbb	-0.06289049
109	0x3cfe3d52	0.0310351
110	0xbcf2e513	-0.029650247
111	0x3c7a1374	0.015263427
112	0x3dcebe21	0.10094858
113	0xbb12e30c	-0.0022413163
114	0xbc522d64	-0.012828205
115	0x3d80b019	0.06283588
116	0xbd46bd51	-0.04852039
117	0x3e136e84	0.14397627
118	0x3d867afa	0.06566425
119	0x3da8821f	0.08227944
120	0x3d1ac828	0.03778854
121	0xbdf24623	-0.11829784
122	0x3de23dd6	0.110469505
123	0x3cda0a67	0.026616288
124	0xbd9b5ebf	-0.07586431
125	0xbd1d9b57	-0.03847822
126	0xbd2087c7	-0.039191987
127	0x3d6d85e1	0.057989005
