experiments/ppo_hrl/models/MicroRTSGridModeVecEnv__ppo_utils__1__1721366908/16384/move.pt (torch, 802531 bytes, 11 tensors)

encoder.1.weight f4 [32, 30, 3, 3]
0.03815027 -0.021045923 0.04370073 -0.03503948 -0.04292406 -0.10428526 -0.016482616 -0.13672088
0.01727233 0.1538279 -0.19621713 -0.049834345 0.13490516 -0.05488802 0.03891234 0.15187897
-0.008221451 -0.09041002 0.021518098 -0.069614306 0.15813258 -0.036006514 0.107997745 0.10746699
0.060727507 -0.11961269 -0.059430953 -0.04379105 -0.038711913 -0.07396424 -0.036056694 0.034930307
0.025257995 0.04349452 0.03867201 -0.040545575 0.08189349 0.17320007 -0.06074395 -0.020753352
0.099003404 0.10855238 -0.13001242 0.031749353 0.02399794 -0.03244128 -0.11239423 0.0040954747
-0.014690697 0.0058362866 0.09687573 0.008347722 0.06093908 -0.11641059 -0.10393403 0.05201877
-0.022381509 -0.09848651 -0.13783494 -0.05763163 -0.06526073 -0.092037044 -0.13307582 -0.0071582748
0.013086999 -0.11345371 0.122958206 0.07564081 0.086888775 0.05284315 -0.14664824 0.22259505
0.00018382567 -0.07889883 -0.030181363 0.012936206 -0.04905699 -0.043236166 0.10956808 0.052290462
-0.0055210064 -0.011184459 0.097939454 0.062227715 -0.102626584 -0.16430973 -0.08796839 -0.05910179
-0.026698144 0.06600443 0.13316326 -0.020722017 -0.12099465 -0.11369821 0.019264512 0.12765408
0.06132149 0.09344417 0.049866654 0.14715257 -0.016641239 0.06812604 -0.10431183 -0.050456114
0.09132282 -0.1464371 -0.030937556 0.12398907 0.02422309 -0.012723888 0.064539656 -0.045428958
-0.0030172286 0.013185868 0.079056986 0.048311755 -0.1459806 -0.03500162 -0.053613424 -0.099965855
0.03586046 -0.052835006 0.0060177892 0.006817025 -0.08248278 -0.05835063 -0.0030384792 -0.13011613
0.001616893 0.17148869 -0.019692922 -0.08610468 -0.12342242 -0.11045188 0.020358754 -0.14360666
-0.15699515 -0.05948486 0.050532363 -0.034280904 -0.11544579 0.034891672 0.21105745 -0.007114104
0.029298214 -0.1298689 -0.05077958 -0.018953148 -0.14344433 0.045640357 0.05082657 -0.0060878666
0.051979147 0.043974 0.026092654 -0.00566833 -0.2094612 0.046018694 0.010861792 0.03362077
-0.043297812 -0.067397684 -0.06581833 -0.07598563 0.09445479 -0.07621744 -0.10485479 0.23922212
-0.12194668 -0.05013304 0.0071411724 -0.077637576 -0.08092619 0.001312677 -0.11283715 -0.13347854
0.051776815 0.007736247 -0.09186704 0.036322735 0.10787539 -0.097978026 -0.05052192 0.063448764
0.13815665 -0.04061549 -0.07125794 -0.027482964 0.07860433 -0.046751365 -0.06413213 0.07291257
0.03396289 0.032018125 0.060237978 0.005659833 0.04546365 0.011011562 -0.13797827 0.04152123
0.09675322 0.013435177 0.010319105 -0.03504413 0.15233184 -0.01728871 -0.0077175787 -0.02836189
0.09628365 0.23189972 0.039032638 0.026020177 -0.030044194 0.00060387887 -0.053995185 -0.086236894
-0.032705586 0.10715028 -0.12106425 -0.12794545 0.12306782 -0.10275508 -0.14894947 -0.17694055
-0.06135222 0.0912898 0.052168783 -0.0269903 -0.0018759973 0.16618538 -0.059755195 -0.027997438
0.10173567 -0.010344539 -0.051715605 0.048702747 0.13932249 -0.07147065 0.016378203 0.009380575
-0.01711031 -0.13200533 -0.04020649 0.07576076 0.09105734 0.046012737 -0.08052484 0.054542053
0.15411367 0.11663824 -0.01461456 -0.056931373 -0.19755135 0.14844133 -0.053363137 -0.03148366
00000000: 7543 1c3d 8068 acbc 89ff 323d 8f85 0fbd
00000010: 24d1 2fbd 8393 d5bd 8d06 87bc 8f00 0cbe
00000020: b47e 8d3c 1085 1d3e 25ed 48be 191f 4cbd
00000030: 9424 0a3e 43d2 60bd 8c62 1f3d 2986 1b3e
00000040: 44b3 06bc e328 b9bd b946 b03c f291 8ebd
00000050: 82ed 213e 917b 13bd ec2d dd3d a717 dc3d
00000060: 68bd 783d 7ff7 f4bd df6d 73bd 3e5e 33bd
00000070: 6290 1ebd 907a 97bd 2fb0 13bd 1513 0f3d
00000080: dbe9 ce3c 4f27 323d 8b66 1e3d 1e13 26bd
00000090: c6b7 a73d 5c5b 313e a6ce 78bd ef02 aabc
000000a0: 4cc2 ca3d b650 de3d fa21 05be 9c0b 023d
000000b0: 5497 c43c 26e1 04bd f22e e6bd 5533 863b
000000c0: 40b1 70bc 523e bf3b c866 c63d e2c4 083c
000000d0: 429b 793d ad68 eebd 5ddb d4bd a211 553d
000000e0: 6d59 b7bc 4cb3 c9bd 9a24 0dbe 250f 6cbd
000000f0: 6ba7 85bd eb7d bcbd 0745 08be f68f eabb
00000100: da6a 563c 6b5a e8bd 83d1 fb3d 92e9 9a3d
00000110: bef2 b13d 0f72 583d f52a 16be f5ef 633e
00000120: 54c1 4039 b695 a1bd e83e f7bc 61f2 533c
00000130: fbef 48bd 6818 31bd 3b65 e03d 862e 563d
00000140: 8fe9 b4bb 053f 37bc 7b94 c83d 7de2 7e3d
00000150: e32d d2bd cf40 28be c528 b4bd b814 72bd
00000160: 11b6 dabc 552d 873d f35b 083e 38c1 a9bc
00000170: 0bcc f7bd 9bda e8bd 9cd0 9d3c c0b7 023e
00000180: 3e2c 7b3d a85f bf3d fa40 4c3d 2aaf 163e
00000190: 3553 88bc aa85 8b3d 71a1 d5bd 12ab 4ebd
000001a0: 7507 bb3d 9bf3 15be c270 fdbc fbed fd3d
000001b0: 806f c63c db77 50bc 5e2d 843d b713 3abd
000001c0: b2bc 45bb 8a09 583c a1e8 a13d 8ce2 453d
000001d0: f07b 15be dc5d 0fbd c099 5bbd e6ba ccbd
000001e0: 6be2 123d 8569 58bd e030 c53b 5a61 df3b
000001f0: bbec a8bd 1201 6fbd 3921 47bb 2a3d 05be
00000200: eded d33a bb9a 2f3e 0d53 a1bc a757 b0bd
00000210: e5c4 fcbd 9834 e2bd 67c7 a63c a00d 13be
00000220: 56c3 20be 66a6 73bd 06fb 4e3d 226a 0cbd
00000230: d86e ecbd 92ea 0e3d 721f 583e 6e1d e9bb
00000240: cf02 f03c 5afc 04be 40fe 4fbd a243 9bbc
00000250: 12e3 12be 62f1 3a3d 852f 503d ba7c c7bb
00000260: 16e8 543d 151e 343d 43c0 d53c 66bd b9bb
00000270: ff7c 56be 197e 3c3d a8f5 313c efb5 093d
00000280: 0c59 31bd cc07 8abd c3cb 86bd 5b9e 9bbd
00000290: 8371 c13d e417 9cbd 1cbe d6bd a5f6 743e
000002a0: 2ebf f9bd 4d58 4dbd 7f00 ea3b 7300 9fbd
000002b0: a1bc a5bd 220e ac3a 2a17 e7bd 99ae 08be
000002c0: ed13 543d 5880 fd3b c924 bcbd 26c7 143d
000002d0: c6ed dc3d b4a8 c8bd 13f0 4ebd 6df1 813d
000002e0: f078 0d3e 6e5c 26bd afef 91bd f423 e1bc
000002f0: 4ffb a03d 5c7e 3fbd b557 83bd 2f53 953d
00000300: ac1c 0b3d 7025 033d 19bc 763d 1f76 b93b
00000310: 1838 3a3d d769 343c 2d4a 0dbe 2a12 2a3d
00000320: 8d26 c63d 371f 5c3c 7711 293c 6f8a 0fbd
00000330: e1fc 1b3e 0ea1 8dbc bee3 fcbb 3257 e8bc
00000340: 5d30 c53d 1f77 6d3e b0e0 1f3d 4428 d53c
00000350: 3e1f f6bc a04d 1e3a 0e2a 5dbd f89c b0bd
00000360: 4bf6 05bd 9b71 db3d 89f0 f7bd 2204 03be
00000370: fb0a fc3d 4171 d2bd 3686 18be e72f 35be
00000380: 774c 7bbd 26f6 ba3d efae 553d c31a ddbc
00000390: 06e4 f5ba 802c 2a3e ddc1 74bd e25a e5bc
000003a0: ca5a d03d 247c 29bc bed3 53bd 887c 473d
000003b0: 8eaa 0e3e 345f 92bd 952b 863c fcb0 193c
000003c0: ec2a 8cbc 682c 07be 8faf 24bd 7528 9b3d
000003d0: 457c ba3d da77 3c3d 35ea a4bd 7d67 5f3d
000003e0: f9cf 1d3e 08e0 ee3d e871 6fbc df30 69bd
000003f0: e74a 4abe 0101 183e 4e93 5abd 03f5 00bd

encoder.1.bias f4 [32]
-0.0022906326 -0.0007543553 -0.0007722352 0.0015991946 0.0004512804 -0.0011159056 -0.0022969297 -0.0008528713
0.0038071272 -0.00053805683 -0.00032263415 -0.00035289934 0.0021750776 -0.0002964346 -0.00017376945 0.0019441089
0.00020726732 -0.00096950366 -0.00023414927 0.00028534912 -0.0050098402 -0.001900109 0.0014518237 0.0023884985
-9.601465e-05 -9.998834e-05 -0.00037718558 -0.00023697366 0.0005676758 5.3267187e-05 -0.0033906137 -0.0030118627
00000000: 701e 16bb edbf 45ba d46f 4aba 119c d13a
00000010: d499 ec39 9443 92ba 1688 16bb 3993 5fba
00000020: ff80 793b 620c 0dba 3927 a9b9 5905 b9b9
00000030: bf8b 0e3b c76a 9bb9 e235 36b9 78d1 fe3a
00000040: e655 5939 4a26 7eba f785 75b9 e99a 9539
00000050: 9629 a4bb 140d f9ba 1f4b be3a 5b88 1c3b
00000060: 795b c9b8 d5b0 d1b8 fec0 c5b9 227c 78b9
00000070: 14d0 143a 356b 5f38 0f35 5ebb ac62 45bb

encoder.4.weight f4 [64, 32, 3, 3]
0.0042248857 0.08511797 0.0969977 0.08616518 0.15301004 0.02280625 -0.09662207 0.10340651
0.05484488 0.012913537 -0.12335253 -0.09496423 0.02802334 0.052673813 0.003352092 -0.083827175
-0.00092865736 0.07287869 0.08533822 0.044954963 0.05326543 -0.083703995 0.02902293 0.12727232
0.092428274 0.093605556 0.096198745 -0.039693873 0.099201895 -0.09696531 -0.07454424 -0.08856822
-0.091024704 0.08000153 0.13444372 0.028086431 0.09064349 0.025031984 0.05668389 0.021326374
0.03788061 0.08636163 -0.08527897 -0.0493995 -0.051996764 -0.06413764 0.018790754 -0.07523689
0.22983684 0.10589239 0.03359187 0.027046533 -0.124014884 -0.044799022 0.014609043 0.06509801
-0.053497124 0.07890189 0.0038692292 -0.059489258 -0.110872015 -0.035661753 -0.0822317 -0.060122807
-0.07394073 -0.03173769 -0.01457419 -0.03825683 -0.05592255 0.06606633 -0.117884785 0.012578448
-0.07321458 0.060817666 0.0159518 0.0037611208 0.15502167 0.07303913 -0.17493924 0.02111367
-0.011242828 -0.055664446 0.17068993 -0.010092412 0.10679653 0.04402021 0.12109165 0.13999854
0.03213283 -0.108614035 -0.014745578 0.18248637 -0.027691541 -0.0060510584 0.018148184 0.042938367
-0.09995 0.10951436 -0.020236064 0.032826155 0.032273628 -0.058193546 -0.088668846 -0.030816456
0.0038048462 -0.060954828 0.023703514 -0.086019464 0.0013439166 -0.12516394 -0.089165315 -0.0108895125
0.037824016 -0.03054913 0.052309457 0.00079756754 -0.12048317 -0.108921014 -0.018486833 0.006754508
-0.008287801 0.020739248 -0.046787325 0.032377765 0.04160753 0.05241689 0.08698191 0.009350169
-0.03124444 0.11708381 0.026517887 0.00032094851 -0.032773264 -0.008562437 -0.03643991 -0.043486737
-0.015074891 0.005027843 -0.01980835 -0.113661356 -0.017864518 -0.028866144 -0.030262927 -0.009422061
0.05457529 -0.073398225 0.028291091 -0.00723078 -0.13495885 0.011599287 0.091271624 -0.09086165
0.0341195 -0.1165241 0.02198657 -0.16166143 -0.0012101149 -0.13587779 -0.07227909 -0.10899396
0.016126795 -0.052820247 -0.08102797 -0.11012848 0.009364018 0.03990109 0.017884394 0.059236553
0.02746162 -0.019039435 0.00781611 -0.012107362 -0.03958731 -0.09103006 -0.07503044 -0.06718456
0.02036143 -0.13659084 0.083191514 0.035021003 0.07755416 -0.099400975 0.09308454 -0.16001612
-0.062055655 0.044376105 -0.00013584654 -0.043052047 -0.09584103 -0.12919186 -0.069089435 0.2145891
-0.057023797 -0.054356255 0.023291305 -0.10685202 -0.23196565 0.17727014 -0.053590298 -0.010419858
-0.07231069 0.20825422 -0.04113591 0.0011755448 -0.02312016 0.008029849 0.12116159 0.09345399
-0.006492426 0.19117771 -0.13918728 -0.00042971136 -0.011794584 0.032997835 0.07169463 -0.06232756
-0.07214215 -0.034786563 0.14925942 0.04049247 0.10005852 0.0012308208 -0.10115603 0.03354067
0.042914916 -0.037102558 0.09953772 0.11367843 0.15461057 0.017396245 -0.03610474 -0.12473093
-0.06469404 0.066833206 0.047867443 0.06080331 -0.1923289 -0.05927248 0.06102545 0.08354781
-0.050953623 0.015381788 0.019235544 -0.18076804 0.026811825 -0.19518632 -0.13149455 0.103131376
-0.091975145 0.09034792 -0.0588459 -0.027415216 0.17911799 -0.027711336 -0.09831298 0.05022207
00000000: e970 8a3b 5552 ae3d bba6 c63d 5f77 b03d
00000010: aaae 1c3e 2cd4 ba3c cbe1 c5bd cbc6 d33d
00000020: 06a5 603d 4d93 533c 40a0 fcbd 9b7c c2bd
00000030: 3491 e53c 7fc0 573d c6ae 5b3b 95ad abbd
00000040: 2471 73ba 6c41 953d cec5 ae3d b222 383d
00000050: da2c 5a3d 006d abbd 7fc1 ed3c ad53 023e
00000060: 094b bd3d 45b4 bf3d d903 c53d 0b96 22bd
00000070: 5d2a cb3d c095 c6bd a7aa 98bd 4163 b5bd
00000080: 296b babd d8d7 a33d 9dab 093e 8415 e63c
00000090: 4ba3 b93d e00f cd3c 5e2d 683d a6b4 ae3c
000000a0: b328 1b3d 5ede b03d bea6 aebd 2157 4abd
000000b0: 8ffa 54bd 985a 83bd 11ef 993c cc15 9abd
000000c0: 595a 6b3e 1cde d83d a197 093d b190 dd3c
000000d0: 84fb fdbd 2e7f 37bd c45a 6f3c 1b52 853d
000000e0: cd1f 5bbd 5097 a13d e592 7d3b 02ab 73bd
000000f0: de10 e3bd 0f12 12bd 1869 a8bd 5543 76bd
00000100: 3d6e 97bd 61ff 01bd 95c8 6ebc 32b3 1cbd
00000110: 0b0f 65bd c94d 873d 946d f1bd d615 4e3c
00000120: 87f1 95bd f21b 793d 59ad 823c 237d 763b
00000130: 00be 1e3e 8a95 953d 4623 33be 93f6 ac3c
00000140: d733 38bc 6700 64bd 57c9 2e3e a55a 25bc
00000150: 24b8 da3d 894e 343d e6fe f73d c75b 0f3e
00000160: b79d 033d 0971 debd 7097 71bc b5dd 3a3e
00000170: 5fd9 e2bc f547 c6bb 80ab 943c 24e0 2f3d
00000180: 96b2 ccbd 1149 e03d 1ac6 a5bc b874 063d
00000190: 5a31 043d 5b5c 6ebd 0398 b5bd cb72 fcbc
000001a0: ba5a 793b c5ab 79bd df2d c23c f92a b0bd
000001b0: 5c26 b03a fa2a 00be 4e9c b6bd ed69 32bc
000001c0: 5bed 1a3d 2b42 fabc 7142 563d da13 513a
000001d0: e1bf f6bd fb11 dfbd b371 97bc eb54 dd3b
000001e0: 8fc9 07bc 5be5 a93c 11a4 3fbd 8c9e 043d
000001f0: a86c 2a3d 18b3 563d 9223 b23d 7431 193c
00000200: 57f4 ffbc a3c9 ef3d 0a3c d93c fb44 a839
00000210: 423d 06bd 7749 0cbc 0442 15bd 261f 32bd
00000220: adfc 76bc 9bc0 a43b 1f45 a2bc 49c7 e8bd
00000230: 9c58 92bc b178 ecbc f5e9 f7bc fd5e 1abc
00000240: 578a 5f3d cf51 96bd b8c2 e73c 2ef0 ecbb
00000250: a732 0abe f00a 3e3c 9eec ba3d ac15 babd
00000260: e4c0 0b3d 30a4 eebd 2e1d b43c 938a 25be
00000270: b89c 9eba 8c23 0bbe 0f07 94bd 3a38 dfbd
00000280: 571c 843c 0b5a 58bd fef1 a5bd 0a8b e1bd
00000290: 8a6b 193c 536f 233d 4b82 923c 07a2 723d
000002a0: 31f7 e03c 97f8 9bbc 240f 003c f55d 46bc
000002b0: 4e26 22bd f86d babd 8fa9 99bd 0f98 89bd
000002c0: 03cd a63c 78de 0bbe 5060 aa3d 2f72 0f3d
000002d0: b7d4 9e3d bd92 cbbd 1ba3 be3d 44db 23be
000002e0: 122e 7ebd b8c3 353d 0772 0eb9 5857 30bd
000002f0: 4d48 c4bd df4a 04be c37e 8dbd 3fbd 5b3e
00000300: c991 69bd aaa4 5ebd 68cd be3c 3bd5 dabd
00000310: 6788 6dbe 4e86 353e 8081 5bbd 0db8 2abc
00000320: a117 94bd 9840 553e 217e 28bd bd14 9a3a
00000330: 7d66 bdbc a18f 033c 9123 f83d ce64 bf3d
00000340: 6bbe d4bb 17c4 433e 1c87 0ebe e24a e1b9
00000350: 123e 41bc bd28 073d a2d4 923d 2f4b 7fbd
00000360: 43bf 93bd 5b7c 0ebd 76d7 183e 6fdb 253d
00000370: 7beb cc3d 7e53 a13a e52a cfbd f161 093d
00000380: 8dc7 2f3d daf8 17bd 6fda cb3d 3dd0 e83d
00000390: 3c52 1e3e 9282 8e3c 90e2 13bd ee72 ffbd
000003a0: 4f7e 84bd d9df 883d a710 443d e40c 793d
000003b0: def1 44be b3c7 72bd d2f5 793d 1d1b ab3d
000003c0: bfb4 50bd e503 7c3c dc93 9d3c 421b 39be
000003d0: 79a4 db3c ecde 47be 82a6 06be 8b36 d33d
000003e0: 775d bcbd 5508 b93d 6608 71bd e095 e0bc
000003f0: b56a 373e e202 e3bc 5158 c9bd a8b5 4d3d

encoder.4.bias f4 [64]
0.002127199 0.0019146694 -0.001145348 -0.00015574267 -0.0011911293 -0.0002559224 -0.00016631959 -0.00069426687
0.0006831036 -3.9200833e-05 -0.0005191793 -0.00077008695 -0.0005049975 -0.00019207588 -0.0015287916 -0.00029406356
0.0032365413 0.0012003651 -0.001179327 -0.00046712605 0.00029423775 -0.00022665803 -0.0007345927 0.00025640434
-0.00042130105 8.546864e-05 0.00025667105 -0.00019516407 -0.00268927 -0.0012001349 -0.001956625 -0.0021920276
-0.0006010194 -0.00078877626 0.0011283725 -0.0010482775 0.00038822368 -0.0021785558 -0.002898193 -0.0029242078
0.0006475369 -0.0025616682 -0.001275671 6.844235e-06 7.0059294e-05 -0.002107672 -0.0014896176 0.00069424417
0.0 -0.00026034834 -0.001981423 0.0004903733 -0.0019089613 -0.00040774696 -0.00081274076 0.0022460052
-0.00034149387 -0.0012230123 0.00036555345 -0.00031283373 -0.0003246064 -0.0013633044 -0.0005158222 -0.00012517393
00000000: 7a68 0b3b a5f5 fa3a 801f 96ba db4e 23b9
00000010: ab1f 9cba 532d 86b9 1366 2eb9 76ff 35ba
00000020: 4e12 333a 936b 24b8 8819 08ba a9df 49ba
00000030: cf61 04ba fa67 49b9 bc61 c8ba 8b2c 9ab9
00000040: 271c 543b 9255 9d3a a693 9aba 99e8 f4b9
00000050: ec43 9a39 0dab 6db9 ae91 40ba 026e 8639
00000060: 12e2 dcb9 a03d b338 ce91 8639 f5a4 4cb9
00000070: 773e 30bb d84d 9dba b83a 00bb 1fa8 0fbb
00000080: bb8d 1dba e1c5 4eba e6e5 933a 5b66 89ba
00000090: 808a cb39 1ac6 0ebb 9cef 3dbb 11a4 3fbb
000000a0: 77bf 293a a9e1 27bb 6a34 a7ba 88a7 e536
000000b0: ccec 9238 de20 0abb 463f c3ba f0fd 353a
000000c0: 0000 0000 5d7f 88b9 c3da 01bb 658c 003a
000000d0: 1d36 faba dfc6 d5b9 1c0e 55ba b731 133b
000000e0: 880a b3b9 7c4d a0ba c1a7 bf39 d503 a4b9
000000f0: ef2f aab9 e8b0 b2ba 3e38 07ba 1f41 03b9

actor.0.weight f4 [64, 32, 3, 3]
-0.03624955 -0.054371513 0.006114582 0.014206528 -0.0025357704 0.07681667 0.009594853 0.03414251
0.0037813599 -0.06364201 0.0076150233 -0.046290077 0.079135165 0.0014524302 -0.07140196 -0.02261928
-0.111243315 0.012578477 -0.020379046 -0.006029495 -0.13833284 -0.009356371 -0.06254744 0.058885705
0.09823383 0.020073354 -0.057631474 -0.1023989 0.05100594 -0.040618606 0.12679991 0.059624016
-0.074182086 -0.05989806 0.035596065 -0.09857953 -0.07443358 -0.1145573 -0.21060401 -0.09489202
-0.13412517 0.08938459 0.035497844 -0.03982928 -0.03966779 -0.05282842 0.19482164 0.040880874
-0.07429523 -0.075698346 -0.0014800174 -0.09231564 0.035283346 -0.09271423 -0.066656545 -0.11513137
0.011147939 -0.0069481344 -0.1233474 0.07744363 -0.13683867 0.0058112983 -0.019803572 -0.07086436
-0.028412059 0.0784639 0.04032005 -0.10691379 -0.03898645 0.06163246 0.08251746 0.012386918
-0.17929187 0.052156165 -0.11950558 0.01563697 -0.13813427 0.07352133 0.029672457 0.0069999895
0.024549799 0.0783733 -0.110568956 -0.14180687 -0.06593576 -0.050633576 -0.1864939 0.060295977
-0.12083419 0.030074427 -0.09277481 0.036716748 0.03646587 0.079521425 0.06453401 0.1078817
0.14874937 -0.13841219 -0.043286614 -0.12436124 0.08139627 0.065590635 0.0674635 0.007331942
0.019742765 0.0449095 -0.09894313 0.022967407 0.029951487 -0.030572813 0.039326824 -0.035421554
0.10785432 -0.067962945 0.06855639 0.0065830783 0.034389228 -0.15248045 0.020781485 0.037689783
0.017678557 -0.04597454 -0.024949148 0.033158794 0.21501426 0.10167922 -0.11906441 -0.093504
-0.14291883 -0.08332398 0.014120603 0.19926098 0.06850128 0.06329854 -0.06182505 -0.039692212
0.06564507 0.09213559 0.17702691 -0.041406218 0.0065014777 -0.12071352 -0.027177561 -0.1782906
0.019707369 0.0134795755 0.18083905 -0.048005722 0.13369875 0.08743033 0.02136003 -0.03294785
0.04014811 -0.29936424 0.058007423 -0.1502558 0.07048802 0.13182639 0.0062588905 -0.025509484
-0.020493113 0.10781792 0.060749028 -0.039226115 -0.06974781 0.00452802 -0.08186277 0.09358998
0.062163446 -0.1542042 0.03592296 -0.11364055 -0.058985665 0.009833694 -0.07268039 0.15019648
0.049670465 0.06870698 0.1391413 0.043238558 -0.07075621 -0.048326064 -0.10465805 0.031252768
-0.056542713 -0.01388975 -0.09598523 -0.074605085 -0.022002248 -0.09945694 0.071554095 0.066388726
0.071861684 0.13397968 0.060940105 0.027760508 -0.0849335 -0.085809745 0.0792452 -0.018135307
0.014705226 0.01485141 0.015138617 -0.08752375 -0.06721053 -0.10800027 0.09778227 -0.08972987
-0.023158384 0.017894195 -0.08904678 0.07349298 0.01024607 0.04260181 -0.0997843 0.06734175
0.045726687 0.025919707 -0.006627722 0.027778264 -0.084600024 -0.0019297232 -0.07920993 0.11449094
0.03296133 -0.08537617 0.12299009 0.03097997 -0.075002484 0.21265702 0.12671672 0.13024129
0.028467268 -0.066742405 0.047670387 -0.028464153 0.032574233 -0.007239883 -0.13084003 0.03699409
-0.05789515 -0.011707174 -0.052960552 0.07241249 0.09492569 0.024063937 -0.02978307 -0.10853716
0.1161296 0.01415275 -0.039614685 0.1075146 0.13490696 0.007529292 0.08089562 -0.008417177
00000000: 687a 14bd aab4 5ebd d55c c83b 7fc2 683c
00000010: 2b2f 26bb 0f52 9d3d bb33 1d3c 04d9 0b3d
00000020: b1d0 773b be56 82bd 7287 f93b aa9a 3dbd
00000030: 9e11 a23d 785f be3a 313b 92bd 114c b9bc
00000040: 89d3 e3bd f515 4e3c f5f1 a6bc 1293 c5bb
00000050: 20a7 0dbe 774b 19bc df18 80bd 2332 713d
00000060: d12e c93d e070 a43c fb0e 6cbd 84b6 d1bd
00000070: 9beb 503d b25f 26bd d6d7 013e 5038 743d
00000080: c7ec 97bd ab57 75bd 2ecd 113d 11e4 c9bd
00000090: a270 98bd 059d eabd 94a8 57be bf56 c2bd
000000a0: 1c58 09be 450f b73d 3066 113d 0724 23bd
000000b0: b17a 22bd 9d62 58bd 537f 473e b472 273d
000000c0: 1928 98bd bc07 9bbd 25fd c1ba fb0f bdbd
000000d0: 4585 103d f5e0 bdbd 3a83 88bd ffc9 ebbd
000000e0: d8a5 363c 2dad e3bb 909d fcbd c49a 9e3d
000000f0: 701f 0cbe b46c be3b 1a3b a2bc 5521 91bd
00000100: 68c0 e8bc aeb1 a03d a326 253d 9ef5 dabd
00000110: 41b0 1fbd 5272 7c3d eafe a83d 80f2 4a3c
00000120: 4a98 37be b4a1 553d 57bf f4bd 1a19 803c
00000130: 1273 0dbe 5a92 963d a713 f33c 2b60 e53b
00000140: a91c c93c 2e82 a03d fa71 e2bd d235 11be
00000150: 5409 87bd 2765 4fbd 42f8 3ebe eaf8 763d
00000160: ea77 f7bd a55e f63c b800 bebd 4d64 163d
00000170: 3c5d 153d 21dc a23d 682a 843d 15f1 dc3d
00000180: c151 183e edbb 0dbe 4e4d 31bd 1bb1 febd
00000190: 16b3 a63d 6254 863d 4e2a 8a3d ca40 f03b
000001a0: 94bb a13c 06f3 373d b2a2 cabd 2526 bc3c
000001b0: d25c f53c d673 fabc 2a15 213d 3116 11bd
000001c0: bae2 dc3d 2830 8bbd 4b67 8c3d ddb6 d73b
000001d0: b8db 0c3d d623 1cbe ef3d aa3c 9a60 1a3d
000001e0: 9fd2 903c cd4f 3cbd 2862 ccbc 84d1 073d
000001f0: b32c 5c3e 323d d03d 0bd8 f3bd 067f bfbd
00000200: 5059 12be c3a5 aabd 1a5a 673c 120b 4c3e
00000210: 664a 8c3d aaa2 813d 433c 7dbd 4d94 22bd
00000220: ec70 863d 96b1 bc3d 8b46 353e 9199 29bd
00000230: 590a d53b a638 f7bd 7aa3 debc d091 36be
00000240: 5971 a13c 70d9 5c3c df2d 393e a6a1 44bd
00000250: 53e8 083e ac0e b33d 3bfb ae3c 53f4 06bd
00000260: 5872 243d 4546 99be 3199 6d3d a8dc 19be
00000270: 065c 903d 7ffd 063e 6117 cd3b 44f9 d0bc
00000280: 2ce1 a7bc a4cf dc3d f9d3 783d 90ab 20bd
00000290: f1d7 8ebd c95f 943b aba7 a7bd 1aac bf3d
000002a0: 199f 7e3d b5e7 1dbe f423 133d 60bc e8bd
000002b0: f49a 71bd 811d 213c 75d9 94bd 1bcd 193e
000002c0: 4273 4b3d 3fb6 8c3d 0f7b 0e3e ea1a 313d
000002d0: a2e8 90bd 8df1 45bd f656 d6bd e702 003d
000002e0: 5599 67bd d591 63bc e793 c4bd 8dca 98bd
000002f0: 0f3e b4bc 15b0 cbbd f48a 923d d0f6 873d
00000300: 382c 933d f831 093e 559c 793d 016a e33c
00000310: 9df1 adbd 05bd afbd 4f4b a23d 7f90 94bc
00000320: 30ee 703c 5453 733c f607 783c a73f b3bd
00000330: ada5 89bd 3f2f ddbd 1242 c83d 4bc4 b7bd
00000340: a7b6 bdbc d996 923c 285e b6bd 7d83 963d
00000350: 22df 273c 3c7f 2e3d b65b ccbd 79ea 893d
00000360: e84b 3b3d 9155 d43c 5d2d d9bb 3e8f e33c
00000370: c742 adbd c4ee fcba d138 a2bd 3a7a ea3d
00000380: 7602 073d b4d9 aebd 3ae2 fb3d b5c9 fd3c
00000390: e79a 99bd c3c2 593e 07c2 013e f95d 053e
000003a0: 3034 e93c 3eb0 88bd 0642 433d a82d e9bc
000003b0: 8f6c 053d 8a3c edbb eefa 05be 1d87 173d
000003c0: 7723 6dbd 72cf 3fbc 2aed 58bd 004d 943d
000003d0: 6668 c23d bc21 c53c a0fb f3bc bb48 debd
000003e0: 5bd5 ed3d f0e0 673c 0243 22bd 9d30 dc3d
000003f0: 0d25 0a3e 47b8 f63b 9aac a53d 33e8 09bc

actor.0.bias f4 [32]
0.00017389085 -0.0030739119 0.0032057385 0.0010746302 0.0005597505 -0.0016609915 0.00057137595 -0.0007366371
-9.55284e-05 5.9742193e-05 -0.0007096106 0.002436266 -0.0017728806 -3.5436482e-05 -0.00014092223 0.0015343627
0.001852399 -0.00087386626 -0.00012257767 -0.00061985676 0.0007342461 -0.00015832187 -0.0018324939 0.0011549765
0.0022320761 0.0010171771 -0.00013268697 0.00017034925 -0.005224864 -0.0017126253 -0.0015907428 0.0030215068
00000000: 7856 3639 af73 49bb 5e17 523b 9bda 8c3a
00000010: 38bc 123a a0b5 d9ba 64c8 153a e11a 41ba
00000020: 6b56 c8b8 b193 7a38 2905 3aba c3a9 1f3b
00000030: 0060 e8ba a2a1 14b8 86c4 13b9 ab1c c93a
00000040: 32cc f23a 2c14 65ba 3188 00b9 e27d 22ba
00000050: 6c7a 403a 3403 26b9 4b30 f0ba 9562 973a
00000060: 0648 123b cd52 853a e321 0bb9 c79f 3239
00000070: 5635 abbb 2b7a e0ba 7980 d0ba 7904 463b

actor.2.weight f4 [32, 78, 3, 3]
0.08547033 -0.06925897 -0.019451998 -0.07433179 -0.013716034 0.008099327 0.07006912 -0.019286914
0.0026516235 -0.12765849 0.010038478 -0.039252542 0.0072673806 -0.018373502 0.13511913 -0.028352736
0.02637061 -0.011220987 0.05472594 -0.15614764 0.021730162 -0.059911497 -0.015731003 0.091360085
0.09029185 0.14150056 0.0330144 -0.09220739 0.042970434 0.07522993 0.017342456 -0.0884683
-0.04424277 0.02393435 0.029467525 0.02179823 0.03311863 -0.036471102 -0.049474854 0.037223563
-0.019863445 -0.022606343 -0.032720532 0.024167376 -0.065483354 0.036484316 0.09736591 -0.08993986
-0.114930026 -0.06555382 0.048895586 -0.06319624 -0.079302534 -0.0036872749 -0.003911953 -0.012984827
0.038428355 -0.10023573 0.012126927 -0.0062200516 0.032613765 -0.03402479 0.06309312 -0.06561227
-0.040126044 0.004138139 0.0342228 0.070566684 0.074249566 -0.07244213 0.092309676 -0.08014271
-0.059522964 0.0059292265 -0.010662933 -0.075446054 -0.09560299 -0.055821564 0.0358058 0.021547873
-0.012115097 0.036301628 0.0033278347 -0.030581037 -0.026873687 0.064882405 -0.018509159 -0.07239778
-0.05920344 -0.017259829 -0.017592637 0.062474202 0.12037523 0.037813287 0.024824904 0.052186083
0.029435098 -0.07239438 -0.01948282 0.10651444 0.036337536 -0.05788632 0.037046332 0.013320905
-0.071080975 0.09008383 0.036763944 -0.038216274 -0.04123537 -0.04884892 0.10783919 -0.016245198
-0.032168712 -0.05610328 0.10706224 0.03159898 -0.0059529613 0.04083841 0.05727447 -0.04301871
-0.023193173 0.026648624 -0.04654706 0.12055588 -0.030677047 0.026004815 -0.03600969 0.04234558
-0.11453592 0.038801022 -0.021794088 -0.009654657 0.0064349887 0.023839371 0.023337882 0.0915591
0.031889178 0.02582713 -0.039308783 0.01731763 0.009214394 -0.011244988 0.017248666 0.021566408
-0.010160799 -0.05393548 -0.054038934 0.06134759 0.03227998 -0.033568863 0.07593683 0.0018166205
-0.037837762 -0.10569028 -0.0041336655 -0.009379639 -0.068428606 -0.00735315 0.015177193 0.060097754
0.051558033 0.030300863 -0.11381438 -0.02115514 0.031984027 -0.012278355 0.082463816 -0.020858733
0.0684937 0.03012735 -0.045090348 -0.023818314 0.07432949 0.10197096 0.010924734 0.038621303
0.044515762 -0.02929197 0.05489367 -0.051179864 -0.041740503 0.027147502 0.048581995 0.008144099
0.024206318 0.110381395 -0.032758467 -0.005815435 -0.0550813 -0.077260375 -0.062344626 -0.039327532
0.063316725 -0.15019178 0.053539496 -0.008278965 0.011212759 -0.0043440163 -0.05584906 -0.01187391
0.101239435 0.0054711737 0.02720117 -0.05537059 0.032963153 0.021329818 0.05187973 -0.013063
0.06899531 -0.04920804 -0.010368174 0.0062620468 0.019585598 0.030637344 0.022984419 0.077741094
0.0287788 -0.024709117 0.058503892 -0.042329054 -0.025620282 -0.064503446 0.014040018 -0.016512956
0.009730531 -0.041553095 0.033591233 -0.015585691 0.023864027 -0.002479044 -0.009453857 0.047119606
-0.0098127555 -0.016373945 -0.004395487 -0.07715461 -0.049134526 0.090439446 0.05256709 -0.009481608
0.02585992 0.042642936 -0.0018188686 -0.048522722 -0.08050706 -0.008022563 -0.0551083 -0.064920425
-0.068785705 0.04491882 -0.022364298 -0.02068471 0.0529957 -0.022978177 -0.038241178 -0.01525785
00000000: 120b af3d a6d7 8dbd cc59 9fbc 443b 98bd
00000010: 37b9 60bc 0ab3 043c 6680 8f3d 97ff 9dbc
00000020: dcc6 2d3b e8b8 02be 6e78 243c 46c7 20bd
00000030: 3523 ee3b 0784 96bc ab5c 0a3e ff43 e8bc
00000040: 2d07 d83c 3bd8 37bc 4f28 603d 2be5 1fbe
00000050: 7403 b23c c265 75bd 4ede 80bc ff1a bb3d
00000060: efea b83d 86e5 103e 1c3a 073d 3ad7 bcbd
00000070: c401 303d 2612 9a3d c411 8e3c de2e b5bd
00000080: e837 35bd f811 c43c e165 f13c 3492 b23c
00000090: 67a7 073d b962 15bd 25a6 4abd bc77 183d
000000a0: aab8 a2bc f030 b9bc f705 06bd a9fa c53c
000000b0: 231c 86bd 9470 153d c767 c73d 6432 b8bd
000000c0: 6f60 ebbd 1541 86bd bd46 483d 086d 81bd
000000d0: 5e69 a2bd 35a6 71bb d72f 80bb 50be 54bc
000000e0: 0d67 1d3d 6448 cdbd 05b0 463c 93d1 cbbb
000000f0: 0396 053d 945d 0bbd f736 813d ba5f 86bd
00000100: 355b 24bd 3a99 873b 352d 0c3d 4485 903d
00000110: 2810 983d 8a5c 94bd db0c bd3d dc21 a4bd
00000120: 5ace 73bd f549 c23b 95b3 2ebc 7683 9abd
00000130: 80cb c3bd 27a5 64bd 1aa9 123d 2a85 b03c
00000140: 667e 46bc 04b1 143d cd17 5a3b 1585 fabc
00000150: 3526 dcbc 11e1 843d 85a0 97bc 4a45 94bd
00000160: 4e7f 72bd 7c64 8dbc 6f1e 90bc f3e4 7f3d
00000170: 4a87 f63d 1be2 1a3d 995d cb3c 13c1 553d
00000180: e021 f13c 8143 94bd 6f9a 9fbc 3e24 da3d
00000190: abd6 143d 351a 6dbd e5bd 173d ed3f 5a3c
000001a0: e792 91bd df7d b83d ca95 163d ab88 1cbd
000001b0: 6be6 28bd ce15 48bd cbda dc3d a614 85bc
000001c0: 57c3 03bd 8ecc 65bd 7343 db3d ef6d 013d
000001d0: 0f11 c3bb 2d46 273d a298 6a3d 6334 30bd
000001e0: 9cff bdbc 374e da3c 21a8 3ebd 00e6 f63d
000001f0: 6e4e fbbc 0d08 d53c e67e 13bd 8f72 2d3d
00000200: cf91 eabd d2ed 1e3d 8489 b2bc 912e 1ebc
00000210: 99dc d23b c94a c33c 162f bf3c 5683 bb3d
00000220: 3a9e 023d 6b93 d33c 3f02 21bd b4dd 8d3c
00000230: f8f7 163c e63c 38bc 134d 8d3c 09ac b03c
00000240: 7b79 26bc 73eb 5cbd ee57 5dbd 9c47 7b3d
00000250: 0338 043d 817f 09bd c584 9b3d ab1b ee3a
00000260: c5fb 1abd 2574 d8bd b373 87bb 0fad 19bc
00000270: 4c24 8cbd b1f2 f0bb c3a9 783c 1029 763d
00000280: 842e 533d 8439 f83c 8317 e9bd 8b4d adbc
00000290: af01 033d 272b 49bc cae2 a83d efdf aabc
000002a0: 6d46 8c3d a2cd f63c a8b0 38bd a01e c3bc
000002b0: 0f3a 983d 27d6 d03d a8fd 323c 5f31 1e3d
000002c0: 2956 363d b7f5 efbc 2fd8 603d faa1 51bd
000002d0: 17f8 2abd 7064 de3c eafd 463d d46e 053c
000002e0: 544c c63c a40f e23d be2d 06bd 688f bebb
000002f0: ee9c 61bd b03a 9ebd 145d 7fbd e815 21bd
00000300: 33ac 813d e0cb 19be 3b4c 5b3d 7fa4 07bc
00000310: b8b5 373c 4058 8ebb fcc1 64bd ca8a 42bc
00000320: 9f56 cf3d 8847 b33b fdd4 de3c 46cc 62bd
00000330: 5f04 073d dfbb ae3c d77f 543d 3106 56bc
00000340: 6a4d 8d3d 5f8e 49bd 46df 29bc db31 cd3b
00000350: fa71 a03c 2bfb fa3c d249 bc3c b936 9f3d
00000360: 85c1 eb3c c66a cabc c7a1 6f3d 3b61 2dbd
00000370: a0e1 d1bc 621a 84bd 1b08 663c 2e46 87bc
00000380: ce6c 1f3c 9433 2abd f696 093d 205b 7fbc
00000390: 7e7e c33c 7577 22bb 5ae4 1abc 7d00 413d
000003a0: aec5 20bc a722 86bc 0408 90bb 3c03 9ebd
000003b0: 4941 49bd 5138 b93d 9750 573d bf58 1bbc
000003c0: 2fd8 d33c 5caa 2e3d 1a67 eeba c3bf 46bd
000003d0: e3e0 a4bd 1171 03bc 3eb9 61bd 00f5 84bd
000003e0: 85df 8cbd ccfc 373d 5535 b7bc fb72 a9bc
000003f0: 0512 593d bb3c bcbc c8a2 1cbd 10fc 79bc

actor.2.bias f4 [78]
-0.0038970888 0.00302364 -0.0029999788 0.0018358846 -0.0005724993 0.005816353 0.000105870145 -0.002345681
0.001508041 -0.00048108154 0.0 0.0 0.0 0.0 0.0 0.0
0.0 0.0 -0.00031806147 -0.0010516897 -0.000118530734 0.0012548927 0.0 0.0
0.0 0.0 0.0 0.0 0.0 0.0 0.0 0.0
0.0 0.0 0.0 0.0 0.0 0.0 0.0 0.0
0.0 0.0 0.0 0.0 0.0 0.0 0.0017431935 0.0
0.0 0.0 0.0 0.0 0.00031898535 0.0 -0.0011861967 0.0
0.0 0.0 0.0 0.0 -8.385196e-05 0.0 0.0 0.0
0.0 0.0 0.0 0.0 0.0 0.0 0.0 0.0
0.0 0.0 0.0 0.0 0.0 0.0
00000000: 4d66 7fbb 4328 463b 4b9b 44bb 11a2 f03a
00000010: c713 16ba 1b97 be3b 9a06 de38 ffb9 19bb
00000020: 76a9 c53a ac39 fcb9 0000 0000 0000 0000
00000030: 0000 0000 0000 0000 0000 0000 0000 0000
00000040: 0000 0000 0000 0000 7dc1 a6b9 dad8 89ba
00000050: b493 f8b8 367b a43a 0000 0000 0000 0000
00000060: 0000 0000 0000 0000 0000 0000 0000 0000
00000070: 0000 0000 0000 0000 0000 0000 0000 0000
00000080: 0000 0000 0000 0000 0000 0000 0000 0000
00000090: 0000 0000 0000 0000 0000 0000 0000 0000
000000a0: 0000 0000 0000 0000 0000 0000 0000 0000
000000b0: 0000 0000 0000 0000 de7b e43a 0000 0000
000000c0: 0000 0000 0000 0000 0000 0000 0000 0000
000000d0: 7d3d a739 0000 0000 287a 9bba 0000 0000
000000e0: 0000 0000 0000 0000 0000 0000 0000 0000
000000f0: aed9 afb8 0000 0000 0000 0000 0000 0000
00000100: 0000 0000 0000 0000 0000 0000 0000 0000
00000110: 0000 0000 0000 0000 0000 0000 0000 0000
00000120: 0000 0000 0000 0000 0000 0000 0000 0000
00000130: 0000 0000 0000 0000

critic.1.weight f4 [128, 1024]
-0.040266935 -0.0032552218 0.05578865 0.01501425 0.06804695 0.002295134 -0.007408559 -0.04141694
0.024000842 -0.01875384 0.040679716 -0.01618867 -0.011523785 -0.00392479 -0.01976684 -0.07586579
0.04016727 -0.042148493 -0.09473255 -0.01872236 0.051974643 0.05246116 0.016343722 -0.06721665
0.03655851 -0.067920335 0.08232984 -0.012960776 -0.04271648 0.03608903 0.04166261 -0.0056398213
-0.025420355 -0.0076552876 0.044900015 0.011441892 0.019187506 -0.06893732 -0.009189466 -0.059321687
0.0018560579 0.10964052 -0.03993777 -0.033072304 -0.056965273 -0.082825206 -0.05704348 -0.041077625
0.038475838 0.09931611 -0.005800256 0.0194191 -0.0757593 -0.044276565 0.041669987 -0.037973654
-0.0220357 -0.09950453 -0.033013694 -0.021903044 -0.039143063 0.028838351 -0.07384417 0.043089744
0.011853596 0.1100944 0.043575317 0.059779733 -0.039572973 -0.005510618 -0.0367071 0.08107665
0.058585517 -0.0016145044 0.049632598 0.008991355 0.030947164 -0.116496645 -0.050622724 -0.053877752
-0.004595888 0.054721728 0.016131924 -0.035790194 0.017153105 -0.030231193 0.039084516 -0.0123307565
0.00172881 0.0955872 -0.042717 0.00072950486 -0.014602871 0.030663937 0.039858423 0.07096957
-0.07665592 -0.07113766 0.05418005 -0.0038839825 -0.014860733 -0.0028815866 0.01580821 -0.029453795
-0.07604295 -0.044658754 -0.0478791 -0.005920404 0.056700904 -0.022374278 -0.04199598 0.10354367
-0.03331952 -0.059028104 -0.036443003 0.0048185918 0.059744745 0.03508254 0.045928087 -0.08789829
-0.06287666 0.029865347 0.04824845 0.0257937 0.013935291 0.045962147 0.0300251 0.07746006
-0.051118538 -0.033340156 0.069873326 -0.004410805 0.009040376 -0.00612976 0.016745472 0.0023744735
-0.035670035 0.010376165 -0.024855478 0.023162892 0.07637569 -0.06108418 -0.07156125 0.013131163
-0.012631325 -0.056372765 0.04914359 0.0052109743 0.036733706 0.07109288 -0.08660195 -0.014190133
-0.033757403 -0.01621146 -0.009267816 0.017448442 0.03401706 -0.03899577 -0.0022136383 -0.012056537
0.068819724 0.017408537 -0.022482917 0.08997678 -0.012136223 -0.035379753 -0.0145591255 0.043530814
-0.0069722207 0.043998364 -0.07782259 0.026190722 0.013132876 -0.03613279 -0.026994523 -0.010913036
0.08554095 0.050940737 -0.058392514 0.046828095 0.03914562 -0.050778702 -0.05976971 -0.04686019
0.03880731 0.028661732 0.07543985 -0.065967806 0.063279174 0.06845843 -0.03617611 -0.07135376
0.05216892 0.09678732 0.014621375 0.034343462 -0.01652576 -0.074852675 -0.02035707 0.015265921
0.1327975 0.012948492 0.025978634 0.10271923 0.032475986 0.03206788 0.02190936 0.05476171
0.008665982 0.0009879183 -0.10571798 0.0020776107 0.05471035 0.067408845 0.046840128 -0.07666961
0.017798807 0.0027292764 -0.008524588 -0.040626768 0.069259964 -0.005987145 -0.0015203354 -0.016176315
0.00919683 0.048196763 0.047364105 0.102061845 0.008155619 0.014497882 -0.0055464143 0.027774176
-0.0060446896 -0.029698228 0.01285088 -0.011139397 -0.035074525 0.032311566 0.022722552 -0.029133057
-0.019245716 0.030926354 0.10895538 0.02062416 -0.05305863 -0.06770166 0.046438828 -0.087377265
0.025929745 0.032442734 -0.0517786 0.0061152885 -0.044218346 0.013072931 0.02896929 -0.008856255
00000000: f1ee 24bd 8f55 55bb a482 643d 54fe 753c
00000010: 335c 8b3d f569 163b 7fc3 f2bb cfa4 29bd
00000020: 6a9d c43c a7a1 99bc c69f 263d 1a9e 84bc
00000030: 42ce 3cbc 869b 80bb 11ee a1bc 865f 9bbd
00000040: 6f86 243d e6a3 2cbd 2403 c2bd a25f 99bc
00000050: 5de3 543d 83e1 563d 45e3 853c e2a8 89bd
00000060: 60be 153d d119 8bbd 8c9c a83d 6f59 54bc
00000070: 7af7 2ebd 17d2 133d 6aa6 2a3d 40ce b8bb
00000080: 593e d0bc 35d9 fabb 14e9 373d c676 3b3c
00000090: 1e2f 9d3c 022f 8dbd 6a8f 16bc 4cfb 72bd
000000a0: f846 f33a 358b e03d ca95 23bd d376 07bd
000000b0: 6b54 69bd 43a0 a9bd 6da6 69bd 0341 28bd
000000c0: d798 1d3d 3f66 cb3d 1310 bebb ce14 9f3c
000000d0: b127 9bbd 585b 35bd 26ae 2a3d 438a 1bbd
000000e0: 3684 b4bc 08c9 cbbd 5e39 07bd 036e b3bc
000000f0: 7a54 20bd 683e ec3c 9d3b 97bd df7e 303d
00000100: 9635 423c 2c79 e13d 087c 323d 98db 743d
00000110: 4517 22bd 6a92 b4bb 2f5a 16bd 840b a63d
00000120: 5ef7 6f3d c79d d3ba 8d4b 4b3d 7a50 133c
00000130: e884 fd3c cb95 eebd c659 4fbd ebae 5cbd
00000140: 1a99 96bb e423 603d 1927 843c bd98 12bd
00000150: ab84 8c3c 68a7 f7bc 1617 203d f106 4abc
00000160: 3d99 e23a 39c3 c33d 05f8 2ebd 3e3c 3f3a
00000170: e140 6fbc f032 fb3c 9642 233d 7e58 913d
00000180: c7fd 9cbd 9fb0 91bd e6eb 5d3d 6a8a 7ebb
00000190: 6f7a 73bc 00d9 3cbb 3880 813c 1649 f1bc
000001a0: 68bc 9bbd 19ec 36bd e01c 44bd f3ff c1bb
000001b0: 353f 683d 434a b7bc fa03 2cbd b40e d43d
000001c0: 0d7a 08bd 74c7 71bd 4245 15bd 47e5 9d3b
000001d0: e8b6 743d b6b2 0f3d 171f 3c3d 0504 b4bd
000001e0: 7ac5 80bd 2ca8 f43c 2ba0 453d 4f4d d33c
000001f0: d950 643c ce42 3c3d 33f7 f53c 61a3 9e3d
00000200: ac61 51bd b08f 08bd bf19 8f3d 8488 90bb
00000210: 161e 143c 27dc c8bb cd2d 893c 0e9d 1b3b
00000220: be1a 12bd ca00 2a3c b79d cbbc 1bc0 bd3c
00000230: dc6a 9c3d 6833 7abd b48e 92bd 1724 573c
00000240: 9ef3 4ebc 21e7 66bd ca4a 493d d2c0 aa3b
00000250: 1576 163d 2599 913d 5d5c b1bd bb7d 68bc
00000260: 3445 0abd e5cd 84bc 0ad8 17bc 09f0 8e3c
00000270: 7955 0b3d 07ba 1fbd b012 11bb c888 45bc
00000280: 5bf1 8c3d 599c 8e3c 182e b8bc bf45 b83d
00000290: 02d7 46bc 5cea 10bd 6689 6ebc 5e4d 323d
000002a0: 3a77 e4bb a137 343d 7361 9fbd ed8d d63c
000002b0: 462b 573c faff 13bd 9e23 ddbc 97cc 32bc
000002c0: 1830 af3d 3ca7 503d fd2c 6fbd d1ce 3f3d
000002d0: 2857 203d 54fd 4fbd 15d1 74bd 78f0 3fbd
000002e0: 6af4 1e3d 02cc ea3c 3580 9a3d 211a 87bd
000002f0: 8398 813d ef33 8c3d 672d 14bd ec21 92bd
00000300: 14af 553d 6e38 c63d 7e8e 6f3c bbab 0c3d
00000310: 0861 87bc 5c4c 99bd dfc3 a6bc ea1d 7a3c
00000320: 11fc 073e e925 543c 25d1 d43c 765e d23d
00000330: 8a05 053d 9c59 033d 427b b33c d14d 603d
00000340: c3fb 0d3c 0a7d 813a ab82 d8bd 8628 083b
00000350: f617 603d a60d 8a3d 6fdb 3f3d f504 9dbd
00000360: cece 913c a9dd 323b b7aa 0bbc 4168 26bd
00000370: 2bd8 8d3d d02f c4bb fe45 c7ba 3184 84bc
00000380: 4dae 163c f869 453d dd00 423d cd05 d13d
00000390: 259f 053c 8688 6d3c b2be b5bb ab86 e33c
000003a0: 8812 c6bb b349 f3bc 7f8c 523c 0482 36bc
000003b0: 4eaa 0fbd 2259 043d a524 ba3c 73a8 eebc
000003c0: 31a9 9dbc 4459 fd3c 0024 df3d 00f4 a83c
000003d0: 0254 59bd 2ba7 8abd a436 3e3d daf2 b2bd
000003e0: 9e6a d43c ace2 043d cc15 54bd c262 c83b
000003f0: 4c1e 35bd d92f 563c 0151 ed3c d319 11bc

critic.1.bias f4 [128]
-0.0006558607 0.0 5.3843905e-05 -0.00073939963 0.0012671197 0.00012950151 0.0 0.0
0.0 0.00012279567 0.00012675642 -0.00048086772 0.0 -2.6046204e-05 -0.001197276 0.0
0.0 0.0018252691 -0.001178802 -0.00014325714 -0.00015764534 0.0 0.00036449454 0.00028136806
-0.00087845296 7.2022005e-05 0.0 0.00011881636 1.06962425e-05 -0.0011453022 0.00011242172 0.0
0.00012012757 -0.00019130681 -7.18578e-05 0.0 0.00013346378 0.00011130451 -0.00015926066 0.00058277213
0.0 -0.0007467678 0.00013244564 -9.530851e-05 0.0001372665 0.0 0.00013075884 0.00013184041
6.8686284e-05 4.144255e-05 -0.0009498189 -0.0015706616 0.0 -0.0004974948 0.00013272044 0.00013070769
-0.00075264485 -0.00014773208 -0.00084864977 0.00010849491 0.00012693902 0.00012876723 0.00010564279 -0.0007827162
-1.7353224e-05 -0.00014043103 -0.00011299187 0.0005788787 -0.0011496178 0.00080636103 -0.00014060253 -0.0001655326
0.00011437038 0.0 0.000105587205 -0.0001441415 0.0 0.0 3.3303633e-05 0.0
0.0 -0.0007450853 -0.00033812903 0.0 0.0 0.0 -0.00021134887 0.0
-0.00014355133 -0.00014343504 -0.00064809 -0.0010038624 0.00012720725 0.0 0.00012337028 -0.00058078946
0.0 -0.00014859498 -0.00015480361 0.0 -0.00094004255 -0.00015139168 -7.371558e-05 0.00013260476
0.00047986954 -0.00017591061 0.0 0.000121223384 -0.00084621913 0.0 9.971173e-05 -0.00015599382
-0.00014141852 -0.00044782346 0.0 -0.00039192528 -0.001070268 -7.5341086e-05 -7.947429e-05 -0.00017171008
-1.0759683e-06 0.00013302042 -0.00015398461 -0.00015350168 0.0 0.0 -0.00044198902 0.00011648788
00000000: 11ee 2bba 0000 0000 74d6 6138 45d4 41ba
00000010: 7b15 a63a ccca 0739 0000 0000 0000 0000
00000020: 0000 0000 b6c2 0039 ebe9 0439 f91c fcb9
00000030: 0000 0000 cc7d dab7 ebed 9cba 0000 0000
00000040: 0000 0000 de3d ef3a 0882 9aba 4c37 16b9
00000050: 994d 25b9 0000 0000 a119 bf39 9584 9339
00000060: fb47 66ba 850a 9738 0000 0000 0c2d f938
00000070: 0374 3337 f71d 96ba f4c3 eb38 0000 0000
00000080: 00ed fb38 8899 48b9 5db2 96b8 0000 0000
00000090: 69f2 0b39 276c e938 35ff 26b9 2dc5 183a
000000a0: 0000 0000 bdc2 43ba 1be1 0a39 5ee0 c7b8
000000b0: 32ef 0f39 0000 0000 4f1c 0939 a43e 0a39
000000c0: ab0b 9038 99d2 2d38 44fd 78ba a8de cdba
000000d0: 0000 0000 506a 02ba df2a 0b39 940e 0939
000000e0: 244d 45ba 87e8 1ab9 ec77 5eba c387 e338
000000f0: ef1a 0539 b105 0739 8a8c dd38 322f 4dba
00000100: c491 91b7 ab40 13b9 0cf6 ecb8 e4bf 173a
00000110: c6ae 96ba f961 533a b46e 13b9 d292 2db9
00000120: 21da ef38 0000 0000 b36e dd38 b024 17b9
00000130: 0000 0000 0000 0000 81af 0b38 0000 0000
00000140: 0000 0000 d451 43ba e946 b1b9 0000 0000
00000150: 0000 0000 0000 0000 889d 5db9 0000 0000
00000160: 4486 16b9 0d67 16b9 95e4 29ba 0894 83ba
00000170: f062 0539 0000 0000 f55c 0139 1f40 18ba
00000180: 0000 0000 29d0 1bb9 c752 22b9 0000 0000
00000190: 306d 76ba e5be 1eb9 c097 9ab8 d20b 0b39
000001a0: 0097 fb39 a574 38b9 0000 0000 4f39 fe38
000001b0: ced4 5dba 0000 0000 541c d138 4692 23b9
000001c0: bf49 14b9 d9c9 eab9 0000 0000 527b cdb9
000001d0: 3c48 8cba 7000 9eb8 6fab a6b8 130d 34b9
000001e0: fd69 90b5 667b 0b39 ee76 21b9 4bf5 20b9
000001f0: 0000 0000 0000 0000 c3ba e7b9 f44a f438

critic.3.weight f4 [1, 128]
0.06924772 0.044110283 0.0704317 0.06636828 0.06098061 -0.098326474 -0.00052075705 -0.05403484
0.0657282 -0.14601061 -0.06927186 -0.190602 0.14717418 0.057544786 0.14273155 -0.100042805
-0.13969587 0.057749715 -0.017213998 0.08691758 0.02773382 0.009883971 -0.06288486 0.006035085
0.037617076 0.035694294 0.06398715 -0.0387796 0.04298881 0.016976977 -0.11983409 0.10769363
-0.04038796 0.010353885 -0.0017066485 0.08632022 -0.20920186 0.006917491 0.027004862 -0.01475689
0.047250584 0.09865332 -0.18421924 0.07618592 -0.1653429 -0.051310834 -0.11322422 -0.14084046
-0.009676106 0.116886154 0.017369075 0.09123969 -0.036890022 -0.048064023 -0.25651875 -0.11609027
0.047503553 0.051748507 0.042178404 -0.024643455 -0.07060561 -0.041011866 -0.043996967 0.13040802
0.034539804 0.15089034 0.124850005 -0.047800798 0.022754144 0.030677667 0.14514145 0.022946766
-0.031020299 0.071234696 -0.021320922 0.08469704 0.077444956 -0.013667961 0.023967357 -0.008183939
0.021394769 0.079124406 0.037577823 0.14956164 -0.10649445 -0.08940275 0.0071173226 0.02627026
0.09098726 0.08217004 0.04731458 -0.10807414 -0.071408734 -0.10814845 -0.059996363 -0.13191287
0.06592612 0.06064385 0.027912516 0.07337653 0.11998905 0.14234635 0.0057096314 -0.065861195
-0.035595957 0.014523886 -0.10138508 -0.044423092 0.15605935 -0.04044504 -0.04676695 0.098502055
0.12580521 -0.056961346 -0.015241515 -0.076686665 0.0043978295 -0.0029025204 0.20406908 0.1245789
-0.004896109 -0.12107439 0.02965237 0.034203038 -0.21688774 0.019386616 0.073482804 -0.03444361
00000000: c0d1 8d3d fcac 343d 7f3e 903d 18ec 873d
00000010: cec6 793d 645f c9bd 6a83 08ba a353 5dbd
00000020: 829c 863d ce83 15be 68de 8dbd 2c2d 43be
00000030: d4b4 163e 15b4 6b3d 3828 123e 3ee3 ccbd
00000040: 6f0c 0fbe f78a 6c3d 5f04 8dbc d801 b23d
00000050: 0932 e33c 61f0 213c c7c9 80bd f6c1 c53b
00000060: 5d14 1a3d 2e34 123d b20b 833d 5cd7 1ebd
00000070: 0915 303d 4d13 8b3c 936b f5bd 7a8e dc3d
00000080: d86d 25bd 57a3 293c 9fb1 dfba a8c8 b03d
00000090: 0339 56be 1fac e23b 4d39 dd3c e2c6 71bc
000000a0: d489 413d c00a ca3d f8a3 3cbe 5d07 9c3d
000000b0: a64f 29be 4f2b 52bd 1ae2 e7bd 7b38 10be
000000c0: 8888 1ebc 0262 ef3d 9749 8e3c e0db ba3d
000000d0: fe19 17bd c8de 44bd 6d56 83be bcc0 edbd
000000e0: 1693 423d 3ef6 533d 43c3 2c3d 12e1 c9bc
000000f0: ad99 90bd 0ffc 27bd 2a36 34bd ae89 053e
00000100: 9c79 0d3d ff82 1a3e 5cb1 ff3d c5ca 43bd
00000110: e666 ba3c bb4f fb3c f69f 143e dbfa bb3c
00000120: 481e febc 7fe3 913d 37a9 aebc a475 ad3d
00000130: 769b 9e3d 95ef 5fbc 3157 c43c ee15 06bc
00000140: 1544 af3c fa0b a23d 34eb 193d b026 193e
00000150: c319 dabd ca18 b7bd 6e38 e93b ba34 d73c
00000160: 8757 ba3d c448 a83d efcc 413d fa55 ddbd
00000170: be3e 92bd ef7c ddbd bfbe 75bd 2b14 07be
00000180: 4604 873d b065 783d caa8 e43c 6f46 963d
00000190: d2bc f53d 3ec3 113e dc17 bb3b 3ce2 86bd
000001a0: 11cd 11bd 98f5 6d3c fba2 cfbd fdf4 35bd
000001b0: 06ce 1f3e b3a9 25bd b48e 3fbd 72bb c93d
000001c0: 15d3 003e 4d50 69bd 8cb7 79bc e60d 9dbd
000001d0: ab1b 903b 3638 3ebb 7cf7 503e 3923 ff3d
000001e0: 8a6f a0bb daf5 f7bd 87e9 f23c 7c18 0c3d
000001f0: d217 5ebe aed0 9e3c 277e 963d be14 0dbd
