experiments/ppo_hrl/models/MicroRTSGridModeVecEnv__ppo_utils__1__1721366908/16384/produce.pt (torch, 802531 bytes, 11 tensors)

encoder.1.weight f4 [32, 30, 3, 3]
-0.11255216 0.1365525 0.17252551 0.15944271 0.11477192 0.1359458 0.22285491 0.2175097
-0.01856064 0.07854222 -0.16473371 0.08162337 -0.066492565 -0.06489658 0.02807017 0.069704026
0.11824999 0.16321635 -0.04365105 -0.106326595 -0.056614447 0.039427504 0.068396226 -0.08433665
0.011978182 -0.09759828 -0.044121914 -0.065015845 0.0055303304 -0.085572176 0.075100966 0.04576574
0.008313143 0.04558877 0.11539918 0.018848848 0.039296385 -0.07276479 -0.014913562 0.025896786
0.044298753 0.015319927 0.07173933 0.12826237 -0.044163167 -0.17354028 -0.039368488 -0.0652443
-0.057440046 0.12219563 0.06738633 0.034776475 0.0019160262 0.057088982 0.057533365 -0.012347748
0.029064627 -0.19143957 0.033152316 -0.18184786 0.032384284 -0.0061055375 0.080513306 -0.06921319
0.079971805 -0.044959977 0.004464975 0.00072710373 0.109054215 -0.0015315897 -0.008040395 0.022540163
-0.10363538 0.07526171 0.1494609 -0.060714047 -0.15405881 0.006113912 -0.037519287 -0.010708297
0.049104776 0.022112794 0.06979883 0.10907639 0.2238319 0.12554756 -0.04193048 0.10140756
-0.09374198 0.069963165 0.04448367 0.056101482 -0.033393517 -0.00050451356 0.0045210905 -0.05097501
0.020778287 0.08254635 -0.04160596 -0.08068849 0.012026762 0.016048858 -0.061128214 -0.123844676
0.15658642 0.17057638 -0.028194433 0.080341965 -0.03836633 0.046206463 0.0072333463 0.06800848
-0.013847662 -0.0187209 0.038988095 0.013508257 0.066790685 -0.08892726 0.032708265 0.11816544
0.040462356 -0.06602376 0.057838496 -0.04980483 -0.02365917 0.07893043 0.00855132 0.18534495
0.05356213 0.028745808 0.06871007 -0.013674988 -0.00036576 0.058499668 -0.060967766 0.12541421
-0.04622733 0.0702636 0.10992345 -0.059032343 -0.14631169 -0.031872135 -0.21831124 -0.061969895
-0.019062044 -0.11149022 -0.015318064 -0.015029681 -0.08871512 -0.02757271 -0.025569005 -0.008153589
0.11900337 0.18769047 -0.054519992 -0.05183598 -0.03667717 0.037373226 -0.031370707 -0.17961644
0.021104133 -0.0156132 -0.06586115 -0.09212793 -0.11986946 0.027065646 -0.00053963665 -0.021445433
0.027417231 0.04099199 0.06621858 0.026309403 0.11849179 -0.044660088 0.010565816 0.066662386
0.12161339 0.1505507 -0.03650982 -0.05960239 0.07394413 0.107832685 -0.0019225423 -0.021157796
-0.10253561 0.10729269 -0.10179979 -0.06309016 -0.099319585 -0.019586569 -0.1527001 -0.051704828
-0.10690225 0.10496917 0.045855615 -0.20914339 -0.085423134 0.03600163 0.044760995 0.10766173
-0.07717057 -0.046215747 -0.06876013 0.007407 0.1503264 -0.030175962 -0.1090529 0.04478046
-0.09345477 -0.17528465 -0.13923506 0.17331116 -0.06913611 -0.008469261 -0.011512686 -0.09554357
0.05924224 -0.008588157 -0.0640288 -0.056148127 0.07461384 -0.022875333 0.16641952 -0.021519016
0.08269857 0.01153523 -0.00403605 -0.05421948 0.055796456 -0.0862167 0.0070440373 0.034010682
0.018135482 -0.03934121 -0.00346363 -0.038098685 -0.15383315 -0.08740443 -0.09189893 -0.03655414
-0.019041825 0.15035543 -0.1700918 0.08099358 0.013064429 0.044441573 0.19389908 0.018211944
-0.031672403 0.08169601 0.045403596 0.12361571 -0.046096366 -0.0051138806 0.01318103 -0.12169845
00000000: bf81 e6bd 6bd4 0b3e 87aa 303e f344 233e
00000010: 8a0d eb3d 6035 0b3e 1434 643e ddba 5e3e
00000020: 7c0c 98bc beda a03d f4af 28be 272a a73d
00000030: 412d 88bd 80e8 84bd 6af3 e53c fcc0 8e3d
00000040: 0d2d f23d 3022 273e 72cb 32bd c2c1 d9bd
00000050: 8de4 67bd bc7e 213d 5213 8c3d b2b8 acbd
00000060: 2340 443c 9be1 c7bd 2eb9 34bd 0727 85bd
00000070: c637 b53b 7740 afbd 89ce 993d db74 3b3d
00000080: d933 083c 4abb 3a3d 6856 ec3d e668 9a3c
00000090: 3ff5 203d b505 95bd 0358 74bc 7f25 d43c
000000a0: 9c72 353d 6e00 7b3c 12ec 923d 3657 033e
000000b0: 70e4 34bd 8bb4 31be da40 21bd ce9e 85bd
000000c0: 4146 6bbd b441 fa3d d801 8a3d c771 0e3d
000000d0: 2c23 fb3a 23d6 693d 1ba8 6b3d 354e 4abc
000000e0: f118 ee3c bc08 44be b9ca 073d 5336 3abe
000000f0: 62a5 043d f610 c8bb 29e4 a43d a5bf 8dbd
00000100: 42c8 a33d f427 38bd ed4e 923b 1b9b 3e3a
00000110: d157 df3d 9fbf c8ba dcbb 03bc 26a6 b83c
00000120: c93e d4bd d022 9a3d 470c 193e 4baf 78bd
00000130: 98c1 1dbe 3657 c83b d3ad 19bd da71 2fbc
00000140: 1722 493d e425 b53c b0f2 8e3d 7163 df3d
00000150: 3134 653e 8a8f 003e 4cbf 2bbd c4ae cf3d
00000160: ccfb bfbd d948 8f3d 8234 363d abca 653d
00000170: a4c7 08bd 5541 04ba a825 943b 2ccb 50bd
00000180: 3a37 aa3c 100e a93d 036b 2abd 0240 a5bd
00000190: e50b 453c e578 833c 9461 7abd 47a2 fdbd
000001a0: 3158 203e 93ab 2e3e 03f8 e6bc 548a a43d
000001b0: 0326 1dbd fd42 3d3d b505 ed3b 0848 8b3d
000001c0: 4ee1 62bc 935c 99bc fbb1 1f3d bd51 5d3c
000001d0: 8ec9 883d 7f1f b6bd 1af9 053d b900 f23d
000001e0: dbbb 253d 7737 87bd 0fe8 6c3d 2600 4cbd
000001f0: e0d0 c1bc 47a6 a13d d61a 0c3c 11cb 3d3e
00000200: f763 5b3d 547c eb3c ddb7 8c3d 0f0d 60bc
00000210: 7ac3 bfb9 599d 6f3d 56b9 79bd 956c 003e
00000220: de58 3dbd 5de6 8f3d 8c1f e13d e6cb 71bd
00000230: bbd2 15be 5b8c 02bd fb8c 5fbe 25d4 7dbd
00000240: 0128 9cbc fc54 e4bd 9ef8 7abc 0d3f 76bc
00000250: 46b0 b5bd 2ae0 e1bc 1776 d1bc a296 05bc
00000260: 0ab8 f33d ee31 403e 5b50 5fbd f751 54bd
00000270: cd3a 16bd ab14 193d 927e 00bd 5fed 37be
00000280: 93e2 ac3c 82ce 7fbc 36e2 86bd 91ad bcbd
00000290: 1f7e f5bd c6b8 dd3c 6776 0dba 55ae afbc
000002a0: 1a9a e03c 38e7 273d 9b9d 873d d186 d73c
000002b0: d3ab f23d 7fed 36bd 3f1c 2d3c 4a86 883d
000002c0: 7110 f93d f629 1a3e 528b 15bd a321 74bd
000002d0: 0570 973d 62d7 dc3d d1fd fbba 1d53 adbc
000002e0: 31fe d1bd 45bc db3d 697c d0bd 6a35 81bd
000002f0: 1168 cbbd 0374 a0bc 6a5d 1cbe 71c8 53bd
00000300: 91ef dabd 14fa d63d 19d3 3b3d af29 56be
00000310: 53f2 aebd 7276 133d 4e57 373d c17d dc3d
00000320: 9b0b 9ebd b94c 3dbd 1cd2 8cbd 6bb6 f23b
00000330: 2aef 193e 9433 f7bc 2057 dfbd b76b 373d
00000340: 3765 bfbd d27d 33be a393 0ebe 7b78 313e
00000350: 3c97 8dbd a8c2 0abc b49f 3cbc 59ac c3bd
00000360: fea7 723d 57b5 0cbc 8821 83bd 94fb 65bd
00000370: 24cf 983d 0d65 bbbc e169 2a3e a648 b0bc
00000380: de5d a93d 43fe 3c3c d740 84bb 3f15 5ebd
00000390: d38a 643d 6292 b0bd abd1 e63b c94e 0b3d
000003a0: dd90 943c 4024 21bd 12fe 62bb 5e0d 1cbd
000003b0: 7086 1dbe 1801 b3bd 8235 bcbd cbb9 15bd
000003c0: 9afd 9bbc c6f6 193e 8b2c 2ebe f6df a53d
000003d0: 300c 563c 5e08 363d 7b8d 463e 3731 953c
000003e0: ecba 01bd 3d50 a73d 1ff9 393d 3c2a fd3d
000003f0: 8bcf 3cbd 5792 a7bb 3ff5 573c 093d f9bd

encoder.1.bias f4 [32]
-0.00031747072 0.0017877766 -0.0010602417 -0.00070615567 -0.0012422937 0.00048409955 -0.0014158877 -0.0034277448
-0.00018008758 0.00023499122 0.0032308144 0.003055079 -0.00037149957 0.0018221946 -0.0022302275 -0.0011591953
-0.0006048642 -0.00010835463 -0.003322188 -0.0028671653 -0.003322287 -0.0016813849 -0.00054388336 0.0024635189
-0.0017345331 -0.0011288744 0.0007332691 0.00092176715 0.0017313072 -0.00025590768 -0.001706254 -8.6415865e-05
00000000: 3372 a6b9 d453 ea3a cff7 8aba 4e1d 39ba
00000010: 76d4 a2ba bece fd39 4f95 b9ba 04a4 60bb
00000020: e4d5 3cb9 fa67 7639 12bc 533b b837 483b
00000030: d4c5 c2b9 b4d6 ee3a 0229 12bb 24f0 97ba
00000040: c08f 1eba 733c e3b8 11b9 59bb 0de7 3bbb
00000050: baba 59bb ea61 dcba 6593 0eba fd72 213b
00000060: 4659 e3ba bdf6 93ba db38 403a bfa2 713a
00000070: 08ed e23a 592b 86b9 62a4 dfba 2a3a b5b8

encoder.4.weight f4 [64, 32, 3, 3]
0.036613528 0.05015207 0.04883632 -0.11013261 0.008383015 0.029266307 0.12390189 -0.06910914
-0.06167062 -0.062174536 -0.024096226 -0.012761913 0.038049873 0.080273695 0.114589505 0.0010343087
-0.028839713 -0.002991406 0.096337885 0.06357748 -0.074617974 -0.028036999 -0.02154055 -0.033170734
0.026569748 0.058219295 -0.13620245 0.055981535 0.059641402 0.10760164 -0.04267253 0.009383645
0.15998144 -0.043434106 -0.025980903 -0.04579183 0.08982218 0.06315404 0.13187218 0.020021044
0.00867036 -0.037534513 0.04860235 0.09841385 8.465314e-05 -0.06790579 0.06918839 0.10134369
0.1069648 -0.101452224 -0.015260389 -0.0512877 0.07968424 -0.010257888 -0.19020447 -0.06866485
0.00809517 0.08977993 -0.017798439 -0.22952479 0.19255608 0.11442854 -0.119335175 0.013533927
-0.04602379 -0.054580703 0.0052018063 0.0061593745 -0.010955542 0.013221561 0.13313423 0.1317747
-0.05851686 0.03131802 -0.10580662 -0.06517395 0.095223956 -0.0017118335 -0.061310384 0.11420789
-0.020764053 0.009073848 0.034112196 0.07540276 0.015750287 0.12205973 0.04776356 0.023845464
-0.09573247 0.0770497 0.014687 0.02977697 0.072245464 0.06963016 -0.13218758 0.070743434
0.08692728 -0.030899724 0.002136207 0.06411511 -0.07339175 -0.072795995 0.14116238 0.0146506885
0.050238203 0.05861128 -0.059813984 -0.052063324 0.15113574 -0.12385831 -0.20443057 0.020211412
-0.0710066 -0.15261008 0.07494075 0.09143382 -0.13352622 0.062062446 -0.031425793 -0.056312777
-0.05755754 0.077103436 0.012218868 0.048086766 0.08400642 0.11893652 0.032998744 -0.051552124
-0.042755045 0.019753497 -0.009925659 -0.04181862 0.027349122 0.058850873 -0.13237692 0.08561478
-0.059361067 0.06270933 -0.062090117 -0.10147684 -0.023832643 -0.012641112 -0.11768021 0.049851973
-0.018406605 0.08775843 0.0017947226 0.074531384 -0.10148346 0.076814525 -0.11607706 0.055431645
0.040680777 -0.018937381 -0.04561994 -0.07955359 -0.0031765308 0.052664924 -0.093123645 0.071304254
-0.11808088 -0.112727694 0.057544548 0.13979925 0.08626935 0.06365774 -0.011538317 0.013382754
0.015645819 -0.01719652 -0.042748008 0.051216856 0.011297332 0.010823534 0.051332045 -0.02255187
-0.12382775 -0.008645747 0.077737056 -0.14204724 0.01374539 -0.12251758 -0.017167786 0.0920956
-0.031409442 -0.15836729 0.13769282 0.12028556 0.035430484 0.06488177 -0.09544511 0.061255757
-0.11083735 0.02027668 -0.051168073 -0.02588671 -0.05282445 0.015212117 -0.13861395 0.07992175
0.013529432 0.17528851 -0.0885683 0.008731978 -0.106414005 -0.08068536 -0.028500764 -0.085690886
0.023839373 0.075946674 0.2055718 -0.030627273 -0.060420323 0.108451195 -0.14941351 0.015109917
-0.0625447 -0.06556915 -0.12165119 0.003482241 -0.118255466 0.019545663 -0.07801579 -0.01567424
-0.09184716 0.047605217 -0.07989168 -0.021167126 -0.018343203 0.022832854 -0.1011923 -0.07985593
-0.008463604 -0.01111911 0.18280104 -0.009779775 0.1372594 0.08737746 0.018491153 -0.1782934
-0.14470156 -0.17632475 0.049135208 -0.089502744 0.20472535 -0.15054739 0.03880905 -0.041593835
-0.072419584 0.06400432 0.038856607 -0.08106627 0.0051488024 -0.108733974 0.12369357 -0.057593368
00000000: 11f8 153d 426c 4d3d 9808 483d 358d e1bd
00000010: ea58 093c e5bf ef3c 46c0 fd3d 1889 8dbd
00000020: 559a 7cbd baaa 7ebd 7365 c5bc 5817 51bc
00000030: 2fda 1b3d 8966 a43d e7ad ea3d a491 873a
00000040: 4341 ecbc 770b 44bb cc4c c53d e934 823d
00000050: 4fd1 98bd d9ad e5bc cf75 b0bc 09de 07bd
00000060: cda8 d93c 5b77 6e3d a878 0bbe e54c 653d
00000070: 8b4a 743d 405e dc3d 64c9 2ebd dcbd 193c
00000080: 2dd2 233e f6e7 31bd e7d5 d4bc 3790 3bbd
00000090: b1f4 b73d e856 813d 8009 073e 2c03 a43c
000000a0: 200e 0e3c cabd 19bd 4213 473d 338d c93d
000000b0: cf87 b138 3112 8bbd a5b2 8d3d 488d cf3d
000000c0: 5c10 db3d 2fc6 cfbd b606 7abc 0d13 52bd
000000d0: 7e31 a33d b310 28bc f6c4 42be 28a0 8cbd
000000e0: 9ba1 043c 8ade b73d 08ce 91bc 8c08 6bbe
000000f0: 6c2d 453e 8359 ea3d 0066 f4bd 67bd 5d3c
00000100: 7183 3cbd 0490 5fbd ea73 aa3b 94d4 c93b
00000110: e07e 33bc 3f9f 583c 5754 083e f2ef 063e
00000120: 60af 6fbd 5347 003d 24b1 d8bd eb79 85bd
00000130: c704 c33d 9a5f e0ba 9920 7bbd d4e5 e93d
00000140: 6019 aabc 7aaa 143c 3bb9 0b3d c36c 9a3d
00000150: bf06 813c 74fa f93d b9a3 433d 9057 c33c
00000160: 630f c4bd 3ccc 9d3d bea1 703c d5ee f33c
00000170: 6ef5 933d 429a 8e3d 2e5c 07be efe1 903d
00000180: ee06 b23d 6b21 fdbc 9bff 0b3b c84e 833d
00000190: 6a4e 96bd 1116 95bd df8c 103e 7109 703c
000001a0: 93c6 4d3d 6212 703d 82ff 74bd 5a40 55bd
000001b0: 54c3 1a3e 6da9 fdbd 3f56 51be 6792 a53c
000001c0: e96b 91bd d145 1cbe 897a 993d a841 bb3d
000001d0: 19bb 08be 3135 7e3d 55b8 00bd 3aa8 66bd
000001e0: 74c1 6bbd 68e8 9d3d a631 483c a1f6 443d
000001f0: 8f0b ac3d fd94 f33d b129 073d 5228 53bd
00000200: ea1f 2fbd 16d2 a13c 3b9f 22bc 004a 2bbd
00000210: 440b e03c 9d0d 713d d18d 07be cd56 af3d
00000220: 9724 73bd c06d 803d 3552 7ebd 17d3 cfbd
00000230: ad3c c3bc ab1c 4fbc 5202 f1bd 9531 4c3d
00000240: 73c9 96bc b1ba b33d e63c eb3a e9a3 983d
00000250: 8fd6 cfbd ef50 9d3d cfb9 edbd 4b0c 633d
00000260: e3a0 263d 9122 9bbc f9db 3abd feec a2bd
00000270: 582d 50bb 2db7 573d 9cb7 bebd f707 923d
00000280: 63d4 f1bd c7dd e6bd d5b3 6b3d 8927 0f3e
00000290: fcad b03d fd5e 823d 360b 3dbc 5743 5b3c
000002a0: a92b 803c b7df 8cbc 8918 2fbd c4c8 513d
000002b0: 7218 393c 3155 313c 8d41 523d b3be b8bc
000002c0: 6799 fdbd e4a6 0dbc 9b34 9f3d d574 11be
000002d0: 5834 613c 7fea fabd 75a3 8cbc 9e9c bc3d
000002e0: 30a7 00bd 092b 22be 59ff 0c3e 4758 f63d
000002f0: 8e1f 113d bce0 843d ba78 c3bd 51e7 7a3d
00000300: b1fe e2bd 481b a63c 9d95 51bd 5e10 d4bc
00000310: 735e 58bd 3e3c 793c d1f0 0dbe 04ae a33d
00000320: 8daa 5d3c d57e 333e 4c63 b5bd 9210 0f3c
00000330: 96ef d9bd 5e3e a5bd 6f7a e9bc b47e afbd
00000340: ca4a c33c ee89 9b3d 6a81 523e 0ce6 fabc
00000350: 4d7b 77bd a91b de3d dbff 18be 968f 773c
00000360: 7017 80bd 1e49 86bd 4224 f9bd 4f36 643b
00000370: ec2f f2bd 3a1e a03c bec6 9fbd 4467 80bc
00000380: 5d1a bcbd b0fd 423d 409e a3bd ae66 adbc
00000390: 7c44 96bc f70b bb3c e93d cfbd 818b a3bd
000003a0: eeaa 0abc ed2c 36bc 3230 3b3e 593b 20bc
000003b0: ba8d 0c3e f4f2 b23d c27a 973c 8c92 36be
000003c0: a52c 14be 7a8e 34be 0042 493d 374d b7bd
000003d0: 86a3 513e 1829 1abe 3df6 1e3d 4c5e 2abd
000003e0: b850 94bd b214 833d 1b28 1f3d 1306 a6bd
000003f0: 49b7 a83b ebaf debd 0e53 fd3d 06e7 6bbd

encoder.4.bias f4 [64]
3.0162939e-05 0.00097311137 -0.00029628832 -0.00033332026 -0.000372351 0.0006633 -0.0004512978 0.0011945101
4.858464e-05 0.00013182862 -0.0006354251 -0.0003656638 -0.0005927922 -0.00014868689 -0.0007455683 0.0003756469
0.00024758076 0.0038568056 -0.00030475607 -0.0004964586 0.0009988309 -0.0011220359 -0.00037982667 0.0015174322
-0.0027263188 -0.00051759847 -0.0011955366 0.0020211283 -0.0003947496 -0.0030526363 0.00011680433 -0.0010640306
-0.0002146123 -0.0013799339 -2.6546168e-05 -0.00029927137 0.004173256 -0.0005253595 -0.0009826005 0.0048404126
-0.002233977 -0.00018103626 0.0018189285 7.5759046e-05 0.0005662109 -0.0002292157 0.0024946514 0.00036374052
0.0002940111 -0.0014569934 0.00023460704 -0.00068582816 0.0029991737 0.00014378356 -0.0004330612 0.00036087798
-0.00051884557 -0.00037850448 -0.0015160154 0.00079292123 -0.0009770101 -0.0003184956 -0.0002482777 -0.0006120964
00000000: 6b06 fd37 6618 7f3a 2557 9bb9 7dc1 aeb9
00000010: 1b38 c3b9 4fe1 2d3a 2a9c ecb9 1c91 9c3a
00000020: 5cc7 4b38 7a3b 0a39 a892 26ba 90b6 bfb9
00000030: 9c65 1bba d5e8 1bb9 3e72 43ba 79f2 c439
00000040: bacd 8139 76c2 7c3b abc7 9fb9 c624 02ba
00000050: 34eb 823a 4711 93ba 7923 c7b9 93e4 c63a
00000060: 0aac 32bb 72af 07ba 8db3 9cba e874 043b
00000070: 65f6 ceb9 bd0e 48bb d9f4 f438 f176 8bba
00000080: 8d09 61b9 e6de b4ba 76af deb7 86e7 9cb9
00000090: cfbf 883b 47b8 09ba 9aca 80ba 539c 9e3b
000000a0: ea67 12bb 8dd4 3db9 1d69 ee3a d4e0 9e38
000000b0: c56d 143a 9f59 70b9 4e7d 233b 6db4 be39
000000c0: 8025 9a39 96f8 beba d900 7639 26c9 33ba
000000d0: c98d 443b 9bc4 1639 7e0c e3b9 3934 bd39
000000e0: 2303 08ba 0372 c6b9 09b5 c6ba 0bdc 4f3a
000000f0: 050f 80ba c1fb a6b9 452b 82b9 1875 20ba

actor.0.weight f4 [64, 32, 3, 3]
-0.019342482 0.015008422 -0.10299994 -0.093333535 0.0447252 0.016408551 0.021819597 -0.110486835
-0.06062127 0.06793967 0.05338471 -0.060321186 0.0103970915 0.03172497 -0.17336133 0.08464311
0.06830099 0.27025852 -0.020337619 -0.040401913 -0.11318128 -0.0892026 0.0036708224 0.0032682524
-0.09064222 0.07959873 0.17555892 -0.11035881 -0.11992054 -0.06132478 -0.08660475 -0.10989968
-0.09063788 0.15595639 -0.10841487 0.057547927 0.020554045 0.06897837 0.07937047 -0.04389959
-0.0925943 -0.0045585018 0.08071707 -0.06969728 0.042060558 -0.12239879 -0.15249585 -0.0022353402
-0.011422952 0.0023135704 0.04951237 0.0042932904 -0.05889662 0.0681951 0.0058573587 0.11712141
-0.15793052 0.05621342 -0.005154901 0.035584584 0.00065834157 0.020547273 -0.08737794 -0.03195388
0.040213384 0.021167424 -0.0019380484 0.0762703 0.089477375 0.036135167 -0.05898639 -0.07782195
-0.07015149 0.06326437 0.08080595 -0.1476983 -0.022251064 -0.07237283 -0.042193126 0.08414864
0.0055132285 0.0816296 -0.07434562 0.088352226 0.032107644 0.018040573 0.03746186 0.003961592
-0.009512443 0.06842203 -0.025366342 0.048946753 0.08732095 -0.14122486 -0.026751108 -0.038375992
-0.040201955 0.047670193 -0.006558006 0.079221874 -0.054805424 -0.044149674 -0.00020907815 0.02533367
0.04384185 -0.06840757 -0.09884046 0.10492189 -0.0013132808 0.017826097 0.116163656 -0.007658638
0.17814556 -0.12714174 -0.1725592 -0.0011425775 -0.1446111 0.05999368 0.14165336 0.018955259
-0.024742892 0.08895029 0.0140961 -0.02685948 -0.06088304 0.008719655 0.095938995 0.016288532
-0.017482514 0.20444153 0.049245507 0.09013521 0.02255166 0.18738987 0.10873809 0.04289178
-0.010256274 -0.007962938 -0.009994969 -0.078492664 0.10672211 -0.066067934 0.080001846 0.11833814
-0.03573084 -0.032678083 0.018757278 -0.13262616 0.058243968 -0.008074441 0.1594002 -0.03373651
0.0954502 -0.09467328 -0.032814074 0.037933968 0.07568859 -0.003426335 -0.03268714 0.06697927
-0.11319454 0.102116995 -0.0899512 0.02508516 -0.029749475 0.009374056 -0.024841592 0.14969665
0.0151116 -0.013442914 0.059891596 0.19498047 0.0513916 0.014323104 -0.19412318 0.068132795
-0.015566533 0.1388204 0.08597076 0.08888635 -0.039129276 -0.040864065 -0.037856735 -0.010881892
0.14228024 0.087558985 0.071467 0.08158901 -0.16718939 0.09862496 -0.034357406 -0.04812485
-0.16138984 0.003543276 0.16303928 -0.015477785 0.049972437 -0.05398816 0.034721173 0.005249705
0.052616406 0.053384345 -0.06728701 0.07229086 0.082221 0.100034654 -0.029915337 0.008547947
-0.047120128 -0.06954936 -0.08476998 -0.039363038 -0.00010985632 0.13875641 0.19414335 0.052951604
-0.05021247 0.031972628 0.0062922216 0.08326433 -0.1610489 0.0018634001 -0.102355495 0.045118727
0.06637549 -0.022742014 0.05128181 -0.061543204 -0.10569034 0.18928413 0.03563301 0.17207697
0.019590123 0.024529915 0.07586762 -0.09653914 0.20979229 -0.20496973 -0.013257253 0.024446502
-0.084933616 0.019551937 -0.08487171 0.054148857 0.13693495 -0.059688143 0.04011706 0.06686067
-0.09837683 -0.12604351 -0.06559553 -0.11665611 0.058516033 0.018755658 0.110586695 0.00031556987
00000000: 2074 9ebc e2e5 753c a2f1 d2bd a725 bfbd
00000010: c531 373d 3a6b 863c 03bf b23c ec46 e2bd
00000020: 024e 78bd f423 8b3d eda9 5a3d 5913 77bd
00000030: 9058 2a3c 0bf2 013d a285 31be 5e59 ad3d
00000040: 64e1 8b3d 535f 8a3e 149b a6bc 7a7c 25bd
00000050: 96cb e7bd daaf b6bd 2e92 703b 2d30 563b
00000060: a1a2 b9bd a904 a33d b8c5 333e cd03 e2bd
00000070: e698 f5bd b12f 7bbd d55d b1bd 1513 e1bd
00000080: 5aa0 b9bd 08b3 1f3e 9e08 debd 60b7 6b3d
00000090: f560 a83c 8844 8d3d fc8c a23d 0ed0 33bd
000000a0: 15a2 bdbd 7c5f 95bb fe4e a53d 73bd 8ebd
000000b0: b147 2c3d 38ac fabd df27 1cbe c97e 12bb
000000c0: 5527 3bbc 459f 173b 7ccd 4a3d bbae 8c3b
000000d0: 953d 71bd dfa9 8b3d 16ef bf3b 5add ef3d
000000e0: 8ab8 21be 0b40 663d 72ea a8bb 24c1 113d
000000f0: 8e94 2c3a c152 a83c 35f3 b2bd 12e2 02bd
00000100: cab6 243d 4e67 ad3c 1d06 feba 9a33 9c3d
00000110: ea3f b73d 7802 143d b69b 71bd 1d61 9fbd
00000120: 96ab 8fbd c090 813d 977d a53d 393e 17be
00000130: dd47 b6bc 3538 94bd b3d2 2cbd 1f56 ac3d
00000140: 50a8 b43b 6b2d a73d 8442 98bd 03f2 b43d
00000150: 4e83 033d d3c9 933c 9b71 193d 3ed0 813b
00000160: 14da 1bbc d920 8c3d 13cd cfbc 647c 483d
00000170: 54d5 b23d 409d 10be 2425 dbbc 2530 1dbd
00000180: ceaa 24bd d241 433d 8be4 d6bb 143f a23d
00000190: a77b 60bd 4ad6 34bd fd3b 5bb9 8f88 cf3c
000001a0: 8393 333d 4519 8cbd de6c cabd 4ae1 d63d
000001b0: 6422 acba 0908 923c 36e7 ed3d 50f5 fabb
000001c0: ca6b 363e 7231 02be 5cb3 30be 8ac2 95ba
000001d0: ef14 14be efbb 753d 940d 113e 0f48 9b3c
000001e0: 9bb1 cabc 922b b63d 54f3 663c 6a08 dcbc
000001f0: 7f60 79bd e2dc 0e3c aa7b c43d 876f 853c
00000200: 7d37 8fbc 1f59 513e a8b5 493d cf98 b83d
00000210: 42be b83c 21e3 3f3e 13b2 de3d 4baf 2f3d
00000220: ee09 28bc fc76 02bc f0c1 23bc c3c0 a0bd
00000230: 1f91 da3d a04e 87bd 02d8 a33d 445b f23d
00000240: 805a 12bd 74d9 05bd dda8 993c 27cf 07be
00000250: 3a91 6e3d a94a 04bc ce39 233e 4b2f 0abd
00000260: 657b c33d 11e4 c1bd 0d68 06bd a660 1b3d
00000270: 9f02 9b3d 5d8c 60bb f3e2 05bd 6d2c 893d
00000280: 8ad2 e7bd b722 d13d 5638 b8bd 657f cd3c
00000290: 2cb5 f3bc a495 193c 9880 cbbc 144a 193e
000002a0: a596 773c ab3f 5cbc e450 753d f6a8 473e
000002b0: 0080 523d 74ab 6a3c 3ac8 46be 3589 8b3d
000002c0: c60a 7fbc ef26 0e3e 7011 b03d 0c0a b63d
000002d0: 0546 20bd 1461 27bd aa0f 1bbd f749 32bc
000002e0: e9b1 113e 2052 b33d 4a5d 923d 2418 a73d
000002f0: b233 2bbe e2fb c93d 5aba 0cbd 901e 45bd
00000300: 6143 25be 4f36 683b c5f3 263e 8996 7dbc
00000310: e6af 4c3d b022 5dbd ca37 0e3d b805 ac3b
00000320: 4d84 573d 8ba9 5a3d c6cd 89bd 3b0d 943d
00000330: 7c63 a83d f8de cc3d 0211 f5bc b00c 0c3c
00000340: 0901 41bd e56f 8ebd e29b adbd 233b 21bd
00000350: aa62 e6b8 2916 0e3e 84cd 463e c8e3 583d
00000360: 97ab 4dbd bbf5 023d fb2e ce3b 7d86 aa3d
00000370: 01ea 24be 553d f43a c29f d1bd 6ace 383d
00000380: dfef 873d 764d babc e00c 523d ba14 7cbd
00000390: 2d74 d8bd b3d3 413e ebf3 113d f234 303e
000003a0: 777b a03c f6f2 c83c 7c60 9b3d 50b6 c5bd
000003b0: cad3 563e 96e3 51be f334 59bc 0844 c83c
000003c0: adf1 adbd 622b a03c 38d1 adbd 31cb 5d3d
000003d0: ad38 0c3e 8e7b 74bd c951 243d 3fee 883d
000003e0: cb79 c9bd 8d11 01be f356 86bd 66e9 eebd
000003f0: 82ae 6f3d 77a5 993c 477b e23d 1273 a539

actor.0.bias f4 [32]
0.00070170476 0.0039812443 0.0020847067 0.00027777048 0.0013647226 -0.0008007768 0.0017365008 0.00208885
-0.0024485956 -0.0020307514 -0.0016163562 -0.004744736 0.0030606654 -0.0008204996 -0.0024922553 -0.0035106542
-0.0032206732 -0.0030153822 0.0009425812 -0.0013836268 0.00051348895 0.0020665966 -0.0022443845 0.0013174168
-0.00091856584 0.00037850655 0.0010165854 0.0021864867 -0.00022838579 0.0017924438 -0.00016022811 -0.0007217159
00000000: 9cf2 373a 1975 823b 939f 083b b9a1 9139
00000010: 7ee0 b23a 39eb 51ba 4c9b e33a 16e5 083b
00000020: 9e78 20bb 5b16 05bb eadb d3ba bb79 9bbb
00000030: 7295 483b cc16 57ba 1b55 23bb 0113 66bb
00000040: ee11 53bb b89d 45bb 8e17 773a d05a b5ba
00000050: a99b 063a bd6f 073b 8616 13bb 2cad ac3a
00000060: e9cb 70ba 4a72 c639 f23e 853a 294b 0f3b
00000070: d87a 6fb9 6ff0 ea3a e802 28b9 8931 3dba

actor.2.weight f4 [32, 78, 3, 3]
0.007866626 -0.028896501 0.0060254144 -0.0138148535 -0.004510151 0.10840313 0.040106084 0.06279245
-0.0010999197 0.0070141824 -0.048529357 -0.04457618 0.043536063 -0.055694327 -0.004903973 0.03441697
0.010460012 0.036597922 -0.06649757 -0.061939612 0.04819572 -0.026122414 0.09890369 0.010789738
0.026006576 0.06816688 0.03620331 -0.009917305 0.00081170833 -0.05024439 -0.05451348 -0.011195505
0.06511555 0.009663459 0.09137284 -0.05736425 -0.043293033 -0.10683808 0.04796758 -0.083592646
-0.03787103 0.00652916 -0.050323732 -0.08227898 -0.033996485 -0.015911642 -0.026263634 0.06639966
-0.10240713 -0.06424741 0.008033456 -0.006966498 0.053681668 0.03753661 -0.02095153 0.06785546
-0.08211085 0.079581216 0.044042915 -0.013595138 -0.015600395 -0.030135594 0.09723397 0.004960573
0.056339514 -0.07430746 0.01871812 0.023821667 0.049782265 -0.009867441 0.03128092 -0.0026030461
-0.045928143 -0.016519355 -0.13156031 -0.0014825916 -0.06681105 -0.026388599 -0.00186904 0.033947557
-0.026988093 0.015120198 0.0796681 0.051057745 0.03982371 0.007974662 0.07945597 0.036013544
0.020519597 0.012781322 0.056631904 0.06866695 -0.060008235 0.035529062 -0.094641365 -0.08253112
0.041954905 0.038168047 -0.0032169602 -0.071189284 0.032848038 -0.022834651 -0.020602943 -0.0016955548
0.08959802 0.0798663 0.053924315 0.004556792 -0.021618996 0.017117266 -0.09087839 -0.04239566
-0.10920458 -0.0025113411 0.066108204 -0.0387758 -0.03131725 0.010791714 -0.06743375 -0.013650411
-0.0086207725 -0.017252475 -0.0009994019 -0.04540963 -0.046765458 0.01904959 -0.017104678 0.061963227
0.038412783 0.04551393 -0.04280566 0.021576863 -0.008758009 0.085149325 -0.08677948 -0.04479428
-0.063763395 0.033506535 -0.07093969 -0.013697091 -0.06696695 -0.07152209 -0.0036424804 -0.024891693
0.030265294 0.00010928698 0.05155694 -0.0690109 0.044155627 0.054541882 -0.014976096 0.013161785
0.02849763 -0.02445729 0.022904117 0.04253218 0.10478386 0.017942272 0.07287181 -0.048156835
-0.044704225 0.060530324 0.01855213 0.037052583 -0.036735617 -0.04392763 -0.08836577 0.013613611
0.028837442 -0.038780283 0.020845568 0.06407141 -0.018366465 0.013656706 0.040568527 0.030037817
-0.04062696 0.040808447 -0.07472777 -0.073569395 0.028871555 0.03162404 0.04153908 -0.024337614
0.027285073 0.05489334 -0.045186557 -0.02687627 0.016321491 -0.025746495 0.11481997 -0.0599701
0.023348754 0.10252165 -0.085687675 -0.04163952 -0.023335023 0.061477218 -0.07237603 0.030328883
-0.074846685 -0.011351129 0.085606836 0.0014231681 0.009840943 -0.036479924 -0.02020945 0.014498688
0.09104388 0.01473824 -0.03615195 -0.06789119 0.008282562 0.025713768 -0.043829754 -0.0047198283
-0.07318164 0.0024781332 0.030850649 0.058644984 -0.04551871 -0.07242254 0.087787956 -0.018910717
-0.010711474 0.038075615 -0.03879274 -0.080007926 0.06608783 -0.062357843 0.03511287 -0.10667169
-0.06007138 -0.010541853 -0.07767309 0.031178355 0.026698845 0.025007593 0.023040356 0.12019355
0.007429286 0.07754031 -0.036702104 -0.015910607 -0.024147825 0.0684531 -0.009287254 0.053434834
-0.006627287 0.021584714 -0.014657753 -0.06327677 0.025330259 0.014348901 -0.011309885 -0.048062205
00000000: 05e3 003c 5bb8 ecbc d770 c53b b257 62bc
00000010: e4c9 93bb 7602 de3d 4746 243d 5499 803d
00000020: 2e2b 90ba 3ad7 e53b b8c6 46bd 8395 36bd
00000030: df52 323d bc1f 64bd 82b1 a0bb cff8 0c3d
00000040: 7860 2b3c b4e7 153d e12f 88bd 64b4 7dbd
00000050: e068 453d acfe d5bc 058e ca3d 71c7 303c
00000060: be0b d53c 149b 8b3d ec49 143d 317c 22bc
00000070: d3c8 543a 10cd 4dbd 8749 5fbd 5a6d 37bc
00000080: 4d5b 853d 7c53 1e3c af21 bb3d c7f6 6abd
00000090: 0954 31bd eccd dabd a779 443d 9f32 abbd
000000a0: a71e 1bbd 90f2 d53b 4220 4ebd e281 a8bd
000000b0: e63f 0bbd 2259 82bc d526 d7bc 8cfc 873d
000000c0: d4ba d1bd 2594 83bd c29e 033c 3947 e4bb
000000d0: 4fe1 5b3d fdbf 193d 8ba2 abbc cef7 8a3d
000000e0: bc29 a8bd 7afb a23d 5866 343d 24be 5ebc
000000f0: cd98 7fbc ecde f6bc 9b22 c73d 4d8c a23b
00000100: 43c4 663d 822e 98bd be56 993c a825 c33c
00000110: 7de8 4b3d 0cab 21bc 6c20 003d de97 2abb
00000120: 261f 3cbd 9953 87bc bfb7 06be 8553 c2ba
00000130: 3bd4 88bd e72c d8bc 93fa f4ba 980c 0b3d
00000140: 2216 ddbc b5ba 773c 0729 a33d ed21 513d
00000150: 301e 233d 28a8 023c d0b9 a23d f082 133d
00000160: b718 a83c c068 513c dbf6 673d 42a1 8c3d
00000170: 32cb 75bd ec86 113d 55d3 c1bd 1306 a9bd
00000180: e8d8 2b3d 1956 1c3d a3d3 52bb b0cb 91bd
00000190: aa8b 063d bc0f bbbc 81c7 a8bc 613d deba
000001a0: 2b7f b73d f190 a33d bedf 5c3d 2451 953b
000001b0: 521a b1bc 8239 8c3c 731e babd 12a7 2dbd
000001c0: a7a6 dfbd 5095 24bb bd63 873d 60d3 1ebd
000001d0: 8446 00bd bbcf 303c b51a 8abd f9a5 5fbc
000001e0: 243e 0dbc 1055 8dbc 5dfe 82ba 73ff 39bd
000001f0: 238d 3fbd e30d 9c3c 1c1f 8cbc 27cd 7d3d
00000200: b956 1d3d d16c 3a3d fd54 2fbd f6c1 b03c
00000210: c17d 0fbc c562 ae3d 71b9 b1bd 357a 37bd
00000220: 6296 82bd 263e 093d d448 91bd c369 60bc
00000230: f825 89bd 2c7a 92bd aeb6 6ebb aae9 cbbc
00000240: ecee f73c 0031 e538 5f2d 533d 9655 8dbd
00000250: 88dc 343d 4f67 5f3d 4d5e 75bc 87a4 573c
00000260: dd73 e93c a85a c8bc 6aa1 bb3c 3936 2e3d
00000270: ec98 d63d acfb 923c d13d 953d 1a40 45bd
00000280: c71b 37bd a5ee 773d a3fa 973c 73c4 173d
00000290: 1678 16bd 75ed 33bd 1df9 b4bd a00b 5f3c
000002a0: 803c ec3c 13d8 1ebd 53c4 aa3c df37 833d
000002b0: 4575 96bc 60c0 5f3c 2f2b 263d de11 f63c
000002c0: 7568 26bd c226 273d e00a 99bd 8dab 96bd
000002d0: 0a84 ec3c 3688 013d e224 2a3d ad5f c7bc
000002e0: f284 df3c d7d7 603d 8a15 39bd a02b dcbc
000002f0: a6b4 853c 50ea d2bc bc26 eb3d 35a3 75bd
00000300: e345 bf3c dff6 d13d 057d afbd 348e 2abd
00000310: 1729 bfbc 89cf 7b3d e239 94bd 4774 f83c
00000320: 3849 99bd 16fa 39bc a352 af3d 9989 ba3a
00000330: e83b 213c f96b 15bd 4a8e a5bc e88b 6d3c
00000340: 3775 ba3d a978 713c 1114 14bd 890a 8bbd
00000350: 95b3 073c aea5 d23c d486 33bd caa8 9abb
00000360: 41e0 95bd 2d68 223b 80ba fc3c b935 703d
00000370: d471 3abd 4552 94bd 2cca b33d a6ea 9abc
00000380: 2e7f 2fbc 2df5 1b3d 23e5 1ebd 32db a3bd
00000390: 0e59 873d f06a 7fbd 83d2 0f3d b076 dabd
000003a0: 680d 76bd bcb7 2cbc 1213 9fbd c069 ff3c
000003b0: 89b7 da3c b9dc cc3c 21bf bc3c 0928 f63d
000003c0: 5e71 f33b 74cd 9e3d f254 16bd f656 82bc
000003d0: a9d1 c5bc 2431 8c3d 9129 18bc 7cde 5a3d
000003e0: b629 d9bb 6dd2 b03c 1227 70bc 4097 81bd
000003f0: 6781 cf3c a717 6b3c 194d 39bc e0dc 44bd

actor.2.bias f4 [78]
-0.00014116644 -0.004047661 0.0019720297 0.0018549246 0.0069799623 0.002632727 0.0052104015 -0.005731673
-0.0034282673 0.0030337132 0.0 0.0 0.0 0.0 0.0 0.0
0.0 0.0 0.0011229302 0.0022392608 -0.0015280298 -0.0039629205 0.0 0.0
0.0 0.0 0.0 0.0 0.0 0.0 0.0 0.0
0.0 0.0 0.0 0.0 0.0 0.0 0.0 0.0
0.0 0.0 0.0 0.0 0.0 0.0 -0.0013655215 0.0
0.0 0.0 0.0 0.0 -0.0017421343 0.0 -0.00469878 0.0
0.0 0.0 0.0 0.0 0.0044964286 0.0 0.0 0.0
0.0 0.0 0.0 0.0 0.0 0.0 0.0 0.0
0.0 0.0 0.0 0.0 0.0 0.0
00000000: 1406 14b9 3ea2 84bb 2b3d 013b f120 f33a
00000010: 2bb8 e43b d489 2c3b 04bc aa3b c2d0 bbbb
00000020: c8ac 60bb 43d1 463b 0000 0000 0000 0000
00000030: 0000 0000 0000 0000 0000 0000 0000 0000
00000040: 0000 0000 0000 0000 492f 933a 90c0 123b
00000050: 2c48 c8ba 63db 81bb 0000 0000 0000 0000
00000060: 0000 0000 0000 0000 0000 0000 0000 0000
00000070: 0000 0000 0000 0000 0000 0000 0000 0000
00000080: 0000 0000 0000 0000 0000 0000 0000 0000
00000090: 0000 0000 0000 0000 0000 0000 0000 0000
000000a0: 0000 0000 0000 0000 0000 0000 0000 0000
000000b0: 0000 0000 0000 0000 4cfb b2ba 0000 0000
000000c0: 0000 0000 0000 0000 0000 0000 0000 0000
000000d0: 5458 e4ba 0000 0000 39f8 99bb 0000 0000
000000e0: 0000 0000 0000 0000 0000 0000 0000 0000
000000f0: c756 933b 0000 0000 0000 0000 0000 0000
00000100: 0000 0000 0000 0000 0000 0000 0000 0000
00000110: 0000 0000 0000 0000 0000 0000 0000 0000
00000120: 0000 0000 0000 0000 0000 0000 0000 0000
00000130: 0000 0000 0000 0000

critic.1.weight f4 [128, 1024]
-0.012997815 0.01472277 0.044584386 -0.04532638 0.007294355 -0.06803834 0.0006285589 0.018781919
0.08789328 -0.007458333 0.023887865 -0.034070946 0.042338964 -0.026802437 0.026490267 0.039759453
-0.0473914 -0.020222872 0.045809615 -0.08634586 -0.024851464 0.017070528 0.028054083 0.008027262
-0.0068259174 -0.038959526 -0.015710555 0.060935978 -0.000756083 0.021699248 -0.010604188 -0.07243749
-0.022797192 -0.0731709 0.09838285 0.06917495 0.070140764 0.019833824 0.01026589 -0.037930228
-0.03463869 -0.046775363 -0.01549061 -0.008950594 0.01784654 -0.009429304 -0.0049405294 0.051959652
-0.015776558 0.018522358 0.04615987 -0.034704026 0.0489881 0.1746431 0.018055085 -0.074711956
0.020170415 0.044203576 0.001500929 0.033147216 0.07764599 0.0131446095 -0.009696926 0.013999895
0.11587576 -0.051689792 0.008835263 0.020854812 -0.0043683387 0.04579572 -0.046265244 0.00474729
-0.020704156 0.0018734101 -0.07117481 -0.021395566 -0.017084394 0.038167875 -0.010909535 0.03295352
-0.03227292 0.048641723 -0.041212298 0.0022794656 -0.07874402 -0.003364846 -0.056962766 -0.0059104958
-0.09848505 0.003168094 -0.038913213 0.03955946 -0.034236833 -0.004838192 0.005626901 -0.008719363
-0.008557867 0.061902393 0.06451059 -0.08897992 0.009762636 0.0016071977 -0.081512585 0.024592519
0.02725646 -0.02103596 -0.012704963 -0.016996756 0.046716206 0.012051038 0.016661217 0.03643431
-0.03745005 0.035819788 0.014938398 0.030966917 -0.02304604 0.0034122602 0.021464514 -0.055239875
-0.0018709215 0.009757241 0.03301112 0.019161629 0.05362226 0.030474339 -0.0014176595 0.00036097606
0.015106522 0.07222927 0.02045705 0.015291591 0.019157814 0.028966809 -0.008482964 -0.018280812
-0.03594625 0.029723747 -0.044257443 -0.0106693385 0.085744426 0.019738905 -0.04972066 -0.011637252
-0.131332 -0.022237249 -0.087223 0.044454247 0.055242226 0.0137906065 0.032675147 0.023214161
0.049054604 -0.06629024 0.095898494 0.06762712 0.014844829 0.017046234 0.034478545 -0.052708678
-0.028933972 -0.051890608 0.026035633 -0.040770233 -0.014383719 -0.023535568 -0.02314064 0.09732242
-0.06631619 -0.02095294 0.005376678 -0.015533533 0.040594373 0.032223925 -0.014154175 -0.011028218
-0.062250607 0.04010297 0.016758602 -0.037369825 0.07505496 0.12804982 -0.04224591 -0.017083963
0.030912109 -0.016139887 -0.030087033 -0.04200858 -0.026972638 -0.0967128 -0.0648662 -0.011944602
-0.01465859 0.011596355 -0.050519653 0.0016052249 -0.01842941 -0.033256087 -0.016632106 -0.03595177
0.042231854 0.03482919 -0.002043305 -0.003329841 0.01899643 0.01667272 -0.04651791 0.050039366
0.08461768 -0.0030412483 -0.0052622883 0.03863419 0.007329095 0.016829727 0.0041730497 0.038443692
-0.023654714 0.023539012 -0.03667322 -0.09184769 0.060200397 -0.014344744 0.039115433 0.087162115
0.019210534 0.00447697 0.026411306 0.033884812 -0.03753197 0.062264204 -0.029771417 -0.012058957
0.06420304 0.076015234 -0.012023844 0.05895552 -0.021110933 0.028187556 0.013649514 -0.034451578
-0.054798968 -0.022190668 0.00857003 -0.026181348 -7.85456e-05 -0.09455092 -0.025098512 0.0013774787
0.037549365 0.034667768 -0.04206199 -0.035177633 -0.029419968 0.15372424 -0.0045616357 -0.11231956
00000000: caf4 54bc c637 713c 1e9e 363d 27a8 39bd
00000010: 7c05 ef3b af57 8bbd e0c5 243a 8adc 993c
00000020: 6401 b43d 0865 f4bb 7cb0 c33c fa8d 0bbd
00000030: 9f6b 2d3d c990 dbbc 1e02 d93c cfda 223d
00000040: 7c1d 42bd 70aa a5bc dda2 3b3d 19d6 b0bd
00000050: 4c95 cbbc 7ed7 8b3c add1 e53c c784 033c
00000060: f2ab dfbb 0694 1fbd 6cb3 80bc 0198 793d
00000070: df33 46ba 9fc2 b13c 30bd 2dbc 1b5a 94bd
00000080: 2dc1 babc a0da 95bd f37c c93d 99ab 8d3d
00000090: f6a5 8f3d 8b7a a23c 4332 283c ba5c 1bbd
000000a0: 4de1 0dbd 8697 3fbd 54cc 7dbc 83a5 12bc
000000b0: e832 923c 5e7d 1abc 2ae4 a1bb a5d3 543d
000000c0: d73d 81bc 33bc 973c 2212 3d3d cf25 0ebd
000000d0: bfa7 483d a4d5 323e 42e8 933c 9502 99bd
000000e0: 6d3c a53c cf0e 353d d2ba c43a 60c5 073d
000000f0: dc04 9f3d 7d5c 573c dbdf 1ebc d15f 653c
00000100: 4550 ed3d adb8 53bd c7c1 103c b6d7 aa3c
00000110: 4824 8fbb 4b94 3b3d a080 3dbd 288f 9b3b
00000120: c39b a9bc 368d f53a 19c4 91bd c145 afbc
00000130: 92f4 8bbc eb55 1c3d e8bd 32bc 45fa 063d
00000140: 9c30 04bd 8b3c 473d 3ace 28bd 1663 153b
00000150: 8b44 a1bd c084 5cbb ca51 69bd d5ac c1bb
00000160: 88b2 c9bd cc9f 4f3b 7663 1fbd 1a09 223d
00000170: ec3b 0cbd b289 9ebb de61 b83b a9db 0ebc
00000180: 4c36 0cbc 5d8d 7d3d 211e 843d 1b3b b6bd
00000190: 77f3 1f3c 9ba8 d23a 12f0 a6bd 4076 c93c
000001a0: f148 df3c 9b53 acbc 7a28 50bc c83c 8bbc
000001b0: 7e59 3f3d b871 453c 1b7d 883c 253c 153d
000001c0: 3965 19bd c5b7 123d 2fc0 743c 55ae fd3c
000001d0: 0dcb bcbc 3aa0 5f3b 59d6 af3c 3543 62bd
000001e0: b539 f5ba d6dc 1f3c ab36 073d d9f8 9c3c
000001f0: 04a3 5b3d 52a5 f93c c2d0 b9ba 6341 bd39
00000200: 5881 773c f1ec 933d 8b95 a73c 9589 7a3c
00000210: d9f0 9c3c cd4b ed3c 21fc 0abc a4c1 95bc
00000220: 603c 13bd 377f f33c 4b47 35bd 73ce 2ebc
00000230: c69a af3d 7cb3 a13c e4a7 4bbd 2caa 3ebc
00000240: e57b 06be e42a b6bc f9a1 b2bd a815 363d
00000250: ac45 623d fff1 613c 60d6 053d a02b be3c
00000260: 7bed 483d 2dc3 87bd 6e66 c43d 1680 8a3d
00000270: ba37 733c 8ba4 8b3c 6039 0d3d 0ee5 57bd
00000280: f006 edbc 3f8b 54bd ae48 d53c b0fe 26bd
00000290: b1a9 6bbc aacd c0bc 7191 bdbc fa50 c73d
000002a0: c8d0 87bd 80a5 abbc d82e b03b 5c80 7ebc
000002b0: 4946 263d 3cfd 033d eae6 67bc b3af 34bc
000002c0: 7efa 7ebd 0343 243d 5649 893c 1a11 19bd
000002d0: 6ab6 993d 7e1f 033e 0c0a 2dbd abf3 8bbc
000002e0: 643b fd3c cc37 84bc 1579 f6bc 3011 2cbd
000002f0: b9f5 dcbc 5c11 c6bd 92d8 84bd 4bb3 43bc
00000300: 952a 70bc a3fe 3d3c b2ed 4ebd 6966 d23a
00000310: 46f9 96bc 8937 08bd 0e40 88bc 2a42 13bd
00000320: 4ffb 2c3d 0da9 0e3d f8e8 05bb 7639 5abb
00000330: 679e 9b3c 3a95 883c 9089 3ebd 14f6 4c3d
00000340: 094c ad3d ae4f 47bb 466f acbb e23e 1e3d
00000350: e828 f03b 7fde 893c 14be 883b 2277 1d3d
00000360: 88c7 c1bc e3d4 c03c a936 16bd a41a bcbd
00000370: b194 763d 3806 6bbc 8137 203d 0d82 b23d
00000380: 695f 9d3c 8cb3 923b 865c d83c cdca 0a3d
00000390: 1fbb 19bd c008 7f3d 30e3 f3bc ee92 45bc
000003a0: e27c 833d e0ad 9b3d a8ff 44bc 587b 713d
000003b0: d6f0 acbc 97e9 e63c 36a2 5f3c 191d 0dbd
000003c0: e274 60bd 34c9 b5bc 5069 0c3c 447a d6bc
000003d0: d9b8 a4b8 eaa3 c1bd 659b cdbc 848c b43a
000003e0: 5dcd 193d caff 0d3d 3149 2cbd 6c16 10bd
000003f0: 2502 f1bc e369 1d3e c679 95bb cc07 e6bd

critic.1.bias f4 [128]
0.0005586192 -0.00033463017 6.842063e-05 -7.370592e-05 0.00064989936 -0.000721457 -5.533443e-06 0.0
0.0 5.1367388e-05 -0.000110510315 6.1275154e-05 6.9835187e-06 0.0004675599 1.9705854e-05 -0.00041979115
6.1890336e-05 -0.0005711337 6.738588e-05 0.00076127413 0.00033753272 0.0 -7.586981e-05 6.429997e-05
-0.0007919787 -0.0006433919 0.0 2.0080328e-05 0.0 0.0 1.0888302e-05 -7.770696e-05
0.0 0.002454154 5.662295e-05 -8.724114e-05 6.236793e-05 -0.0007973858 -0.00066962483 6.575633e-05
0.0 -0.0008641483 -0.0011545001 -2.926713e-06 -0.0014029662 0.00076145283 -7.9314e-05 0.0
-0.0010650973 0.00039510734 -0.0019562126 -0.000600922 6.835331e-05 0.0 0.0 -0.00078480924
0.0 0.0 3.2387914e-05 -8.019495e-05 -0.00022351659 -0.00014771814 6.2055056e-05 0.0
-7.718543e-05 6.4072214e-05 -3.6313366e-05 -0.00010138985 -8.227753e-05 0.0 -0.0012136613 0.0
-0.001299796 6.415395e-05 6.8347894e-05 -2.298052e-05 -0.0004388326 0.0 7.269302e-06 2.498114e-05
4.59585e-05 -0.00010755354 -0.0009771488 5.995759e-05 0.00017364464 -0.0007169087 -0.0014179521 0.00023611209
-7.9910606e-05 0.0 -8.253085e-05 0.0 -0.0006109212 4.6967634e-06 -0.00047718582 4.014594e-05
-0.00022375683 -7.735276e-05 6.524999e-05 6.243867e-05 0.0006705089 6.348643e-05 -6.966475e-05 7.1900606e-05
-9.082691e-05 0.0 -9.302575e-05 -0.00010956248 0.0005879224 -0.00096796046 0.0 1.2979414e-05
-0.00016272055 -0.0019942145 -7.900142e-05 0.0006819076 0.00055116246 0.0 0.0 -0.00021318649
-7.748394e-05 -8.2760365e-05 6.2572995e-05 -1.8822018e-05 -8.023608e-05 -0.0023812908 0.0 -7.9565936e-05
00000000: 4d70 123a 4d71 afb9 0c7d 8f38 9192 9ab8
00000010: 025e 2a3a 2920 3dba eaab b9b6 0000 0000
00000020: 0000 0000 5073 5738 c6c1 e7b8 d980 8038
00000030: f853 ea36 d422 f539 004e a537 6a17 dcb9
00000040: 1fcb 8138 22b8 15ba 8551 8d38 3e90 473a
00000050: e0f6 b039 0000 0000 4b1c 9fb8 c9d8 8638
00000060: ca9c 4fba 4da9 28ba 0000 0000 2d72 a837
00000070: 0000 0000 0000 0000 e7ac 3637 9bf6 a2b8
00000080: 0000 0000 dfd5 203b 6e7e 6d38 3bf5 b6b8
00000090: 87cb 8238 a807 51ba c389 2fba a9e6 8938
000000a0: 0000 0000 0388 62ba 9852 97ba 8c68 44b6
000000b0: bce3 b7ba 3c9c 473a 6155 a6b8 0000 0000
000000c0: bc9a 8bba 6926 cf39 cd33 00bb 3187 1dba
000000d0: e758 8f38 0000 0000 0000 0000 a8bb 4dba
000000e0: 0000 0000 0000 0000 42d8 0738 562e a8b8
000000f0: c75f 6ab9 c9e4 1ab9 8e23 8238 0000 0000
00000100: 9dde a1b8 825e 8638 2e4f 18b8 43a1 d4b8
00000110: 6a8c acb8 0000 0000 b713 9fba 0000 0000
00000120: eb5d aaba 648a 8638 ff55 8f38 4ac6 c0b7
00000130: 1d13 e6b9 0000 0000 d4ea f336 978e d137
00000140: 90c3 4038 5e8e e1b8 ac13 80ba f97a 7b38
00000150: 6114 3639 eeee 3bba 94da b9ba db94 7739
00000160: ae95 a7b8 0000 0000 6a14 adb8 0000 0000
00000170: 3a26 20ba e498 9d36 cc2e fab9 6062 2838
00000180: 44a0 6ab9 7238 a2b8 d2d6 8838 81f1 8238
00000190: 17c5 2f3a 0424 8538 fa18 92b8 58c9 9638
000001a0: 537a beb8 0000 0000 d216 c3b8 e9c4 e5b8
000001b0: ce1e 1a3a babe 7dba 0000 0000 29c2 5937
000001c0: f79f 2ab9 5eb1 02bb 90ad a5b8 0bc2 323a
000001d0: e37b 103a 0000 0000 0000 0000 d08a 5fb9
000001e0: e07e a2b8 a28f adb8 9f39 8338 fae3 9db7
000001f0: 6b44 a8b8 6e0f 1cbb 0000 0000 a3dc a6b8

critic.3.weight f4 [1, 128]
0.028111689 -0.038516972 0.14291938 -0.070692725 0.034854896 0.011544421 -0.14627929 -0.06402665
-0.04534902 0.100201085 -0.015304576 0.053338144 -0.024632372 0.19333775 0.010647714 -0.05147816
0.057687867 -0.014646314 0.12145894 0.082999825 0.07821543 0.033150885 -0.17819314 0.07216466
-0.008566493 0.07174268 -0.028677847 0.084556036 0.14758101 0.07746132 0.08967357 -0.11445023
0.0053761243 -0.0075381794 0.038352747 -0.038095344 0.06127677 -0.107604876 0.038073607 0.090809196
0.02531984 -0.0016368162 0.13110043 0.15707454 -0.043782543 0.11203078 -0.09062649 -0.04186843
0.12420669 -0.05172623 0.0048303786 -0.08548024 0.14480132 0.001862146 -0.014743628 -0.07801668
0.09657482 -0.087351754 0.014905946 -0.08303971 -0.052479696 -0.009690908 0.060073297 0.07424284
-0.117903925 0.07517641 -0.0017861718 0.070700794 -0.06048149 0.027460363 0.08597727 -0.16597839
-0.078030884 0.073375255 0.13704593 0.006132757 0.110386156 -0.00023120355 0.0021269873 0.18147953
0.023176925 -0.015671162 0.062040623 0.04916298 0.06978581 0.07913194 0.1818487 0.05048226
-0.07616731 0.05430311 -0.057781775 -0.016299149 0.09436897 -0.02222979 -0.040086936 0.1565505
0.02250316 -0.123094514 0.08197119 0.06281711 0.0623575 0.06863831 -0.059879437 0.10418326
-0.033210736 -0.12547062 -0.02570405 -0.015726054 0.16306446 -0.07459236 -0.031113578 0.010194494
-0.25211802 0.13948858 -0.08968548 0.11201093 0.14673652 0.17280579 0.009828472 -0.119641304
-0.12840703 -0.050648306 0.062352397 -0.016531741 -0.074964404 0.12776372 -0.08018537 -0.08505922
00000000: 7c4a e63c f9c3 1dbd 7559 123e 59c7 90bd
00000010: 02c4 0e3d d024 3d3c 3dca 15be 6720 83bd
00000020: e5bf 39bd 3a36 cd3d 0bc0 7abc 1979 5a3d
00000030: d4c9 c9bc 55fa 453e c073 2e3c c3da 52bd
00000040: 1d4a 6c3d 18f7 6fbc 77bf f83d d0fb a93d
00000050: 692f a03d 39c9 073d 4378 36be 11cb 933d
00000060: 7a5a 0cbc d4ed 923d ceed eabc b72b ad3d
00000070: 7a1f 173e 0aa4 9e3d c7a6 b73d e264 eabd
00000080: 332a b03b d502 f7bb c517 1d3d dd09 1cbd
00000090: 5afd 7a3d f25f dcbd 12f3 1b3d 2cfa b93d
000000a0: 8e6b cf3c 708a d6ba 313f 063e 26d8 203e
000000b0: 5355 33bd 6570 e53d 629a b9bd 3b7e 2bbd
000000c0: 1460 fe3d e2de 53bd 2748 9e3b 4410 afbd
000000d0: cc46 143e 4013 f43a 428f 71bc 36c7 9fbd
000000e0: 05c9 c53d 7ae5 b2bd 1238 743c b910 aabd
000000f0: f3f4 56bd 9dc6 1ebc 6b0f 763d a10c 983d
00000100: 9d77 f1bd 17f6 993d fb1d eaba 94cb 903d
00000110: 70bb 77bd 8ef4 e03c da14 b03d 3df6 29be
00000120: a8ce 9fbd c445 963d c555 0c3e 4bf5 c83b
00000130: 2312 e23d 3b6f 72b9 ed64 0b3b c5d5 393e
00000140: 89dd bd3c cf60 80bc 4f1e 7e3d 1f5f 493d
00000150: ddeb 8e3d ed0f a23d 8c36 3a3e 7cc6 4e3d
00000160: 9bfd 9bbd f06c 5e3d 95ac 6cbd cb85 85bc
00000170: 8544 c13d 401b b6bc 3332 24bd c64e 203e
00000180: 8c58 b83c fa18 fcbd 83e0 a73d 42a6 803d
00000190: 946a 7f3d 3e92 8c3d 2444 75bd 085e d53d
000001a0: fb07 08bd 5f7b 00be 4d91 d2bc edd3 80bc
000001b0: 5ffa 263e e1c3 98bd e7e1 febc cf06 273c
000001c0: 9d15 81be 18d6 0e3e 05ad b7bd fd65 e53d
000001d0: 1942 163e 00f4 303e 9907 213c 8006 f5bd
000001e0: 227d 03be 9974 4fbd 3a65 7f3d 936d 87bc
000001f0: f086 99bd 7ed4 023e 3a38 a4bd 8733 aebd
