experiments/ppo_hrl/models/MicroRTSGridModeVecEnv__ppo_utils__1__1721366908/attack_agent.pt (torch, 802531 bytes, 11 tensors)

encoder.1.weight f4 [32, 30, 3, 3]
00000000: ede3 523d 80b8 d23b db36 04be 976a d43d
00000010: 26d8 a3bd 178a 88bc c0aa 403b 6b9b 963d
00000020: d4fe 7dbd 5826 29bd 2cbc 15bc 8c65 c03b
00000030: 05bc 0ebd 3065 47bd fefc e3bc 112f 7d3d
00000040: 5944 94bc 5d62 cebc ae0a 063d 3dbe 1e3c
00000050: 0646 293d b994 16be 6faa 62bc 38e9 9fbc
00000060: ac94 453c c0df 083d ea5c 323e 0d52 8c3d
00000070: c444 7c3c 535e fbba 9675 a8bd a68e bebd
00000080: 1ebe 1ebe bbc7 f83c 7c5d 043d 0d66 afbd
00000090: 02d7 f43c 2f3e 813d f4e3 80bd 6846 69bd
000000a0: 6113 e0bd 0d66 21bd 486a 3a3d 918b bdbd
000000b0: c0a2 7a3d 1d50 07be 07f2 123e 01ad 453d
000000c0: dc02 8d3b e75e 143d afb8 193d 1a41 fabc
000000d0: 7286 30be 0bb6 083e 1aa2 9f3d 1219 003d
000000e0: b8a6 6f3e 41f1 ccbd 3360 a7bc 30e9 16be
000000f0: 37e1 0bbd 2e10 003e 28e0 86bc a6a9 29bd
00000100: 8510 57bd 4f88 0a3d 7fd4 a6ba f167 3bbc
00000110: 1571 0e3d cd53 ed3c e86b bf3d 025e 0cbe
00000120: 7aad 493e 214c eebc 97ee bcbd e02a a2bd
00000130: 5dc7 85bd f146 f33c 239f 47bd f450 60be
00000140: 4021 a9bd 3e53 44be b02a 003d 37ec 883d
00000150: 2896 c83c 22f9 be3c 7f46 a23d c13d 22bd
00000160: 1fd5 933d c2c8 1dbd 8860 9bbd 8c9d 973c
00000170: 62b7 7b3d 8ffd 323e 6fea 7b3d 9682 f03d
00000180: fe62 ae3d a5c5 ce3c fc2d 7c3d 7f3a b03d
00000190: 8dd1 493d 294f 8f3d fd28 023e 832e c3bd
000001a0: 6bbb 023c 48c0 ed3b d859 613e 9dd1 51bc
000001b0: 0bc4 a7bc 3bff ffbd 2963 aebd 003c 93b9
000001c0: d609 a1bd 7862 99bc 0c24 84bd c80a 95bd
000001d0: 2de4 563d 2ca3 02bd 43aa 4a3d e023 ab3d
000001e0: 64ee 06be e1ce 8fbc c4f7 033d 1fdf 10be
000001f0: b3d7 03be 29e6 0d3d 3c8c 3ebd b61c b33d
00000200: 9715 4d3e 417d 83bd 7bd9 cc3c b8ee 62bc
00000210: d093 fabc 3338 b03d ade4 763d a407 913d
00000220: 8d5b 73bd faa5 d8bd 70be 103e 4e06 e13d
00000230: 3e29 063d 6526 8bbd 2a72 0cbd 9ca3 e33d
00000240: 0b01 b2bd 66a8 0ebc 7219 bc39 220c 2eba
00000250: d54b e5bc b2db be3d 169f a63c bc60 893d
00000260: 9d56 57bd 6b39 703e 1e7d 853c b8a5 18bd
00000270: 1419 143c b6de 063d a89c 703d e4a9 203e
00000280: 78d1 43bd 6e8a a9bd 2a69 dfbb f616 383b
00000290: d8e0 c93c 8ba8 3b3d 36c3 43bd 86ae e2bd
000002a0: ec56 583c 7568 87bb 5de2 a0bd 252e 36bd
000002b0: a372 99bd 0d82 d2bd ddd6 4c3b fe9b e3bd
000002c0: 9674 88bc 1d5c ae3d 156a c43d f0ec 183e
000002d0: ca3b 2c3e fa5a 063d f3d2 af3d 515e fa3c
000002e0: f421 7e3d 1ce9 db3c e6c8 ef3c c58c 4c3a
000002f0: 9bb5 8a3c 32f6 a23d bbe4 e2ba db94 dbbc
00000300: d38c 15bc f4e0 08bd 854b 84bc 8706 25bd
00000310: 2c77 f93c 6da4 283d 1af8 b0bc 7656 023d
00000320: 10b9 623d d282 f43d 7e3a 29be 7998 11be
00000330: 0dd3 5a3e cd44 3f3d d1b5 893d dfb6 15bc
00000340: 8321 e03d 1655 17bc f402 9e3d 549c b9bb
00000350: 1dac 803c 9fee 2e3e 608f 543c 1833 8cbe
00000360: bbcf 73bd f602 92bd 5f1c 05bd f1f8 303d
00000370: 9aea 26bd e263 ecbd 4938 1d3e a18f 5c3d
00000380: e245 04be d545 653d 5555 94bd a82c 743c
00000390: 3093 233d fdba 05be dc49 d2bc e3a3 43bd
000003a0: a51a 0bbe 76c4 ee3d 0652 7ebc 3d9a 32bd
000003b0: e175 453e 1213 853c ee73 933c 286b d6bb
000003c0: add7 47bd a6ba 693d 7b61 cd3d 754a b83d
000003d0: 26ab ef3c ee54 9fbc 988f 503d ad9e 0fbe
000003e0: 9be3 983e e557 043d c66c f3bd 2c16 3f3d
000003f0: 0795 733d fcc9 bb3d b7f9 e13c 28e2 8e3c
0.0514869 0.0064306855 -0.1291155 0.10371893 -0.080002114 -0.016667409 0.002939865 0.073538624
-0.0620106 -0.041296333 -0.009139102 0.0058714803 -0.03484728 -0.048680484 -0.027830597 0.061812464
-0.018098997 -0.025193388 0.03272503 0.009688911 0.041326545 -0.1470517 -0.01383458 -0.019520387
0.012059372 0.03341651 0.17418256 0.068515874 0.015397254 -0.0019177891 -0.08225553 -0.09304552
-0.15502211 0.030368676 0.032315716 -0.085643865 0.02988768 0.06310689 -0.062934786 -0.05695191
-0.10941196 -0.039403964 0.045511514 -0.09255136 0.061190367 -0.13214155 0.14350139 0.048260693
0.0043033194 0.03622332 0.037529644 -0.030548621 -0.17238787 0.13350694 0.0779459 0.03127391
0.23403442 -0.10006953 -0.020431614 -0.14737391 -0.03415033 0.12506172 -0.016464308 -0.041421555
-0.05250599 0.0338214 -0.0012728124 -0.011438356 0.034775812 0.028970623 0.09346753 -0.13707736
0.19695082 -0.029089035 -0.09225195 -0.07918334 -0.06532166 0.029696913 -0.04873575 -0.21905881
-0.08258295 -0.1917238 0.03129071 0.066856794 0.024485663 0.023312155 0.07923602 -0.039609674
0.07218384 -0.038521536 -0.07586771 0.018507741 0.061454184 0.17479537 0.06150287 0.11743657
0.08514975 0.025240729 0.06156729 0.08604907 0.04927211 0.069975205 0.12710948 -0.09530356
0.007979254 0.0072555877 0.22006929 -0.012806323 -0.020479223 -0.12499853 -0.08515007 -0.00028082728
-0.07863204 -0.018723711 -0.06452188 -0.07277447 0.0524637 -0.031893894 0.04947878 0.08356452
-0.13176876 -0.017554702 0.03221871 -0.14147614 -0.12875251 0.034643326 -0.046520457 0.087457106
0.20027767 -0.06420375 0.025006047 -0.01385086 -0.03058806 0.08604469 0.060276676 0.070815355
-0.05941348 -0.105785325 0.14135146 0.10987531 0.032754175 -0.067944326 -0.034288563 0.111151904
-0.08691605 -0.0087071415 0.00035877113 -0.0006639381 -0.027990261 0.09319247 0.02033953 0.06707904
-0.052572835 0.23459403 0.016295012 -0.037267417 0.009039182 0.032927237 0.05874315 0.15689808
-0.047807187 -0.082783565 -0.0068179565 0.0028089858 0.024643347 0.045815032 -0.04779359 -0.11068444
0.013204318 -0.0041323253 -0.07855675 -0.0444776 -0.07492568 -0.102787115 0.0031255998 -0.111137375
-0.016657155 0.08513663 0.09590546 0.14934134 0.16819683 0.032801606 0.08585157 0.030562552
0.0620441 0.026844554 0.0292706 0.0007802959 0.0169323 0.07957114 -0.0017310599 -0.026804378
-0.009127813 -0.033417657 -0.016149292 -0.040289428 0.030452333 0.041172434 -0.021602679 0.031820737
0.05535227 0.119390145 -0.16526219 -0.1421832 0.21369572 0.046696473 0.06724132 -0.009137838
0.10943892 -0.009236595 0.07715407 -0.0056643877 0.01570707 0.17083214 0.012973636 -0.2738273
-0.05952428 -0.07129471 -0.03249776 0.04320616 -0.040751077 -0.11542489 0.15353502 0.053847913
-0.12917283 0.0559748 -0.07242838 0.014903225 0.03993529 -0.13059612 -0.025669985 -0.047763716
-0.13584383 0.11658566 -0.015522486 -0.043604124 0.19283248 0.016244445 0.017999616 -0.0065435357
-0.04878967 0.057062767 0.100283585 0.089985766 0.029256415 -0.019449677 0.05091819 -0.14025374
0.2986115 0.032310385 -0.11885981 0.046652004 0.059468295 0.09169385 0.027584894 0.017441824

encoder.1.bias f4 [32]
00000000: e002 00bb a7b5 353a 4cd0 12bb 1e95 87bb
00000010: 1c26 5d3a bfdf a03a f4b5 ceba 61ff fab8
00000020: 240f e4ba 6ff3 01bb c6b7 3b3b e60a 82ba
00000030: ad23 8eba ed38 d0ba 5ec8 34bb a1cb e0ba
00000040: b938 47bb 11aa fdb9 1a56 ef3a 5822 13ba
00000050: fc8f a9ba 7a78 30bb b52e 293a bd3d 56ba
00000060: 286a 1c3b 7510 58ba 4b76 42ba b572 28ba
00000070: bcb3 60ba fc10 353b 3046 9ab9 7940 4f3b
-0.0019532964 0.00069316704 -0.0022401987 -0.004137649 0.00084361597 0.0012273713 -0.0015770779 -0.00011968497
-0.0017399532 -0.0019828936 0.0028643473 -0.0009921461 -0.0010844372 -0.0015886106 -0.0027585248 -0.001715053
-0.00303988 -0.0004838263 0.0018259913 -0.00056127226 -0.0012936587 -0.0026927278 0.0006453798 -0.0008172652
0.0023866985 -0.00082421984 -0.000741814 -0.0006425784 -0.00085717044 0.0027628532 -0.00029425463 0.0031624122

encoder.4.weight f4 [64, 32, 3, 3]
00000000: 4975 a53d a73d 2c3d bc3d 12be 45cf 0cbd
00000010: a90a debc afe4 5ebd 958e b93a 6bf8 fa3d
00000020: fe16 be3c 27c3 85bd 7263 413e 2600 223e
00000030: 9ed4 023e 2897 22bd 7975 343c eebe 8abd
00000040: cdb0 ecbc 727f df3c 784c ecbd 9da6 973d
00000050: e487 c9bb 792e f63d 02a8 dcbc 316e 1bbd
00000060: b56c 0a3d 710c 4fbd aa8d a8bd be2e 293d
00000070: 9e71 a13c 6405 48be 1dfe bf3c 80fe bdbd
00000080: 0489 00be 7fef d23d 6eb5 223a d4a5 76bc
00000090: d9de 5c3c 0ee8 03bd 9ceb aa3d 8da6 a9bd
000000a0: 079d 8bbd 7eb1 6a3e c9d7 10bd d566 263c
000000b0: 2f65 cabb f4c8 e43d 20e8 f8bd 79f1 afbd
000000c0: 0683 f6bd 1644 cdbd b1d6 b7bd 1944 fabb
000000d0: 717f 27bb 8b3a 76bd 92d7 da3d 7ba2 973d
000000e0: 6f93 913c 873e ebbd af9c ec3c 6775 5d3d
000000f0: 7afc 0bbc 4081 0d3e 0e10 ffbc 367d 213d
00000100: ea6a fcbd c131 203d 593b 08bc c579 d9bc
00000110: 1794 b4bd 4969 113d 17f6 2abd 83b2 39bc
00000120: be15 ec3d 30f5 ac3c 1988 503c 9da9 9bbc
00000130: 2f5d 33bd 0b4e 083d e226 883b d10d 703b
00000140: 7d2a d4bb bc7c bdbd 22a2 ce3d ac44 ddbd
00000150: 7e91 debd 8245 d73c 89d1 34be 665b ef3d
00000160: 3e67 77bd 5f9c a43b 0767 58bd c903 17bc
00000170: 6a52 bbbd c267 e6bc 5235 733d 5d26 cfbc
00000180: 6f2c 51bd fa84 b03d 05a6 8dbb bbe6 ab3c
00000190: a902 843d d0ec 0dbe a098 793d 3349 3f3d
000001a0: e812 8ebd 93ae eabd a4fb 1bbd 0d7a 943b
000001b0: 88b9 c6bd 628a 64bc 180e 193d fa22 e4bd
000001c0: b801 86bd ca89 ac3d caca aebd 3faa afbd
000001d0: b028 07bc 404f c1bd 1393 a3bd 8769 9ebd
000001e0: 7462 dcbd a970 56bd 2cd3 3f3c d5d4 72bc
000001f0: 068e 8dbc c348 e53c a792 91bd 665f 123e
00000200: 2bf4 35bc 3992 3f3d adf9 903d a70e e1bd
00000210: 64f2 30bd 8b80 2abc d5c1 cfbd 5b83 cabd
00000220: 6531 a03d c618 69bd 4df3 80bd 3620 f53d
00000230: adc5 39bd 7cb8 adbd 2725 d13d f83b 523b
00000240: e8aa 06be 331b 973d 0ef4 88bd 071a 6cbc
00000250: 8c68 51bd 4bec 00be 6bc6 5b3d 4153 2b3e
00000260: 8c09 793c d4bc 25be 6847 a73d dcfc 1d3e
00000270: 61d8 01bc 3abf 6c3d a241 f1bd b442 6dbe
00000280: 07db 2d39 e146 a3bd 1d76 13be 97ed 02be
00000290: 15ad 0ebe a5de a7bd a905 c1bd 17d7 893c
000002a0: f692 f6bd ec38 babd 4ac0 6f3d feba ccbc
000002b0: 4ab6 b83c 9538 9a3c 3364 9fbd c52e 88bd
000002c0: 21a6 c9bc 18de 0abe 5d8a 8a3d 4c05 12bb
000002d0: a45d a73d d9f6 7a3d 2dd6 1c3d aed0 8cbd
000002e0: d92f 573c b64b de3d 06a9 05be 9f87 023e
000002f0: 0243 d4bd 1215 663d 2d57 3ebd c0e2 7b3c
00000300: c834 123e 1319 92bd 268f 40be 5618 7e3c
00000310: 4845 a4bd 147b 973d f200 173c fa28 aebd
00000320: cd3c 1ebe 118e 4bbd 389a 8c3c 2423 1bbd
00000330: 3aca 1abe a44e 6dbc eebf ca3d 607e 753c
00000340: 8208 123d 58c3 5b3d 6448 74bd 05e3 d9bd
00000350: 0a3a cc3d 5481 a73e 37e3 bc3b 3db7 153e
00000360: c62d 12be 4531 223d bc9f 8bbb 42fc aabd
00000370: 9c45 123d b2b9 a6bd 489f 14bc 9388 b33d
00000380: 9afc 5a3d e58e c3bd e898 093d 63f3 54bc
00000390: 8914 df3c 8d53 63bd 6484 8ebd 8dc4 333c
000003a0: 3810 64bd 1a09 fc3d 41d3 f53b e747 453d
000003b0: b808 78bd c47a 93bd c06e c9bd 1b89 7fbc
000003c0: e900 47bd 3424 0fbe 7686 bd3c 29ca c63d
000003d0: 7a4f e03d 3aec 063e 56af 803d a4e9 e43d
000003e0: db5d 153c a18b 9fbd 0114 a33d bbdb be3c
000003f0: 0f09 c33c 1e28 1ebe 5f39 54bd dea2 db3c
0.08079011 0.042050984 -0.14281362 -0.034377355 -0.027104693 -0.05441731 0.0014156873 0.12254413
0.023204323 -0.06531363 0.18885592 0.15820369 0.1277642 -0.039694935 0.011014336 -0.06774698
-0.028892899 0.02728245 -0.11538023 0.07404826 -0.0061502326 0.12020583 -0.026935581 -0.037946884
0.033795077 -0.050548974 -0.08230145 0.041304342 0.019707497 -0.19533306 0.0234366 -0.09277058
-0.12552267 0.102995865 0.00062068447 -0.015054185 0.013480865 -0.032203726 0.0834572 -0.0828372
-0.0681706 0.2291927 -0.03536204 0.010156353 -0.006176613 0.11171141 -0.12153649 -0.08590979
-0.120367095 -0.10022752 -0.08976496 -0.0076375124 -0.0025558139 -0.060114425 0.10685648 0.074040376
0.017770497 -0.114865355 0.028883306 0.05406704 -0.008544082 0.13818836 -0.031135585 0.03942605
-0.1232508 0.03910995 -0.008314931 -0.026547322 -0.088173084 0.0355008 -0.041738596 -0.011334064
0.115275845 0.021113008 0.012727761 -0.019001776 -0.04379004 0.033277553 0.004155026 0.003662933
-0.0064747916 -0.09252307 0.10089518 -0.10804114 -0.10867594 0.026278261 -0.17658056 0.11687355
-0.060401194 0.0050235237 -0.05283263 -0.009217211 -0.091465786 -0.028125647 0.059377022 -0.025286848
-0.051067766 0.08619113 -0.0043227696 0.020984044 0.0644582 -0.13859868 0.06093657 0.046700668
-0.069372 -0.11459079 -0.03808178 0.004531151 -0.09703356 -0.013949009 0.037366956 -0.11139484
-0.065432966 0.08424719 -0.08534773 -0.08577394 -0.008249447 -0.09438944 -0.079870366 -0.077349715
-0.10760966 -0.052353535 0.011708062 -0.014821251 -0.017279636 0.027988797 -0.0710805 0.14294204
-0.011105577 0.04677031 0.07078872 -0.10989123 -0.04319991 -0.010406624 -0.101443924 -0.09888335
0.07821921 -0.05690839 -0.06296406 0.119690344 -0.045354534 -0.08482453 0.10212164 0.0032079201
-0.13151133 0.07378235 -0.06687175 -0.014410502 -0.051125094 -0.12590139 0.053656023 0.16730978
0.01520003 -0.16185313 0.081679165 0.1542849 -0.007925124 0.057799555 -0.117800966 -0.23169976
0.0001658016 -0.079725035 -0.14400525 -0.12785946 -0.13933213 -0.08196763 -0.09424908 0.016826196
-0.12039749 -0.09092888 0.05853299 -0.024991509 0.02254786 0.018825809 -0.07782783 -0.066495456
-0.02461535 -0.13561285 0.06764672 -0.002228099 0.081721574 0.06127057 0.03829019 -0.0687574
0.013133966 0.108542845 -0.13052759 0.12747048 -0.10364343 0.056172438 -0.046469856 0.015373886
0.14277947 -0.07133689 -0.18804607 0.015508732 -0.08021027 0.07396522 0.009216534 -0.085039094
-0.15452881 -0.049696032 0.017163381 -0.03787531 -0.15116206 -0.014484081 0.09899889 0.014983743
0.035652645 0.05365309 -0.05963935 -0.10639004 0.099720076 0.32715857 0.005764391 0.14620681
-0.14275274 0.03959777 -0.004260985 -0.083488956 0.035710916 -0.08140887 -0.009071179 0.08766284
0.053463556 -0.09548739 0.03359309 -0.012997481 0.027231472 -0.055499602 -0.06958845 0.010972154
-0.05567953 0.123064235 0.00750199 0.048164275 -0.06055519 -0.0720115 -0.09835577 -0.015596653
-0.048584852 -0.13978654 0.023135405 0.09706528 0.10952659 0.13176051 0.06283443 0.11177376
0.009116615 -0.07790304 0.079628 0.023298135 0.02380803 -0.15444991 -0.051812526 0.02681106

encoder.4.bias f4 [64]
00000000: 0000 0000 7e1f d1ba 9fe9 14ba 327b 013a
00000010: 064e f9ba 49c3 89ba a5e9 3bba a5d7 16bb
00000020: 7b7b 0f39 332d ab3a 0769 7f39 2c06 f0b9
00000030: 8861 23ba e9bb e8b9 29c4 e4b9 b0cf 00bb
00000040: 26d8 c0b6 3340 98b9 20a8 ecba 247b e139
00000050: 0ab3 5639 0483 2d3a 2876 e2b9 b49b 3239
00000060: 4131 613b 66fc 5c39 17c6 433a 0a67 e5b9
00000070: 4f65 f1b9 d47c a0b9 cdae fcba 0c4a 22ba
00000080: 1b29 d7ba 1b57 94ba 50d8 9538 23ab 1f38
00000090: be9a b83a b388 46bb 72d4 6e39 deff adb9
000000a0: 0000 0000 7ac5 2d39 047f 9c38 8ede 37ba
000000b0: 3337 83ba 1382 2ebb 012c 34ba 48f3 0cba
000000c0: f3af 0bba 19f8 d5ba 8770 3cb9 10cd 28ba
000000d0: cd36 12ba 0000 0000 fc62 57ba 007b cdb8
000000e0: ae3a 2839 e600 9739 9d4a 5b39 0a16 39b7
000000f0: 7df2 b6ba 7d98 eaba a2ff 343a 7394 0739
0.0 -0.001595482 -0.0005680564 0.0004939317 -0.0019020445 -0.001051047 -0.00071682996 -0.0023016718
0.00013683543 0.0013059735 0.00024357821 -0.00045780966 -0.000623249 -0.00044390492 -0.000436337 -0.0019655041
-5.747209e-06 -0.0002903953 -0.0018055476 0.0004300709 0.00020475328 0.0006618949 -0.00043194112 0.00017033407
0.0034361633 0.0002107486 0.00074681774 -0.00043755054 -0.00046042583 -0.00030610582 -0.0019278169 -0.00061908434
-0.0016415449 -0.0011317463 7.145165e-05 3.8067938e-05 0.0014084203 -0.0030293881 0.00022776591 -0.00033187767
0.0 0.00016572131 7.462318e-05 -0.0007014059 -0.0010010957 -0.0026627823 -0.0006873012 -0.0005376828
-0.00053286477 -0.0016324549 -0.00017970997 -0.0006439248 -0.0005577624 0.0 -0.0008216349 -9.798072e-05
0.00016043588 0.00028801634 0.00020913263 -1.1031991e-05 -0.0013957765 -0.0017898228 0.00069045473 0.00012929905

actor.0.weight f4 [64, 32, 3, 3]
00000000: acb5 aa3c 5fa3 9fbd 81a6 7ebd 09a2 87bd
00000010: 3581 163c cdb7 3f3c af5c 5b3d d01b 7d3d
00000020: b4e0 d1bd 358b bf3c 29cb b53b 1f8d cabc
00000030: 4cf9 d83c fa54 0e3c 728d 90bd 6406 39bd
00000040: 0da2 413c 285b f7bc bb6f 8fba bf04 843c
00000050: be36 853a ecba 873d b552 dcbd 2f9f 8d3d
00000060: 941f 19be 6816 763d b70b c43d 2174 c33d
00000070: 8b9c 323b 1afd d83d 4442 4e3d 670d 8ebb
00000080: 21cc 1abe 8fec af3d 1a1d 1c3d 340e 4c3d
00000090: e558 333e 7069 f5bc 47f4 2dbe 86f0 afbd
000000a0: 8481 c43a b772 f33c ff78 d1bd dc47 d13d
000000b0: 948c 113e b17e 3dbd 155a dc3c d4ac ce3d
000000c0: 0d55 b53d 4b55 0e3c 43a3 293d cd6c 203c
000000d0: de7d 833d 4021 003e 0aa5 323d e7ed 9c3d
000000e0: ca26 23bd 22b7 943d d517 2bbd c928 593d
000000f0: 9c26 afbc a215 b2bb 70ca 72bc c945 12bd
00000100: a2b1 a73d 4908 1abe 9064 283e 0931 8a3b
00000110: 2be6 00be 7968 213e 62f0 23bd 3cbd 4c3b
00000120: b21b 8f3d 6c35 103d 0f55 ab3d 7816 d2bd
00000130: 684a a03d 8196 513d 368c 473d 0672 43bd
00000140: 81c1 c8ba 337b c03c 76a5 7abc 6a2a 59bd
00000150: df92 833d b2e3 093e b0dd aebd fb28 783d
00000160: 3b3e 02be fa88 09be db5b c5bc f247 0ebe
00000170: 23e7 553d 129f d93c f61d 47bd 29f9 aa3d
00000180: f24f 853c 7e70 b73c 16f8 183e 9435 953c
00000190: 3f72 423d 72ed 08be 8eb1 8f3d 9790 44bd
000001a0: 090a 70bd 3e48 6a3c e027 02be 4d2b 993d
000001b0: 46a3 a83d 7389 73bc d00e 10bc 0c4c f7bd
000001c0: 388b 0b3e 4a01 92bd 9f7c babd 4f75 23be
000001d0: a283 f23d 7fd3 1fbc ed4e 363d 1f41 05be
000001e0: d3e6 f13d 1b9e bfbc df2b 47be 73da 5d3c
000001f0: 11c8 803c 0163 5abc b640 a5bd a7c2 01bd
00000200: bd48 a0bd 8763 303d 79e9 3ebd 7ff5 5bbd
00000210: b2c3 903d f3b3 623d b866 75bd f48d 133e
00000220: e401 533d 14c1 713b e16b 3f3e fa39 183c
00000230: f790 8fbd d536 80bd 26c1 da3d e035 3a3d
00000240: a7ee 313e b347 cfbc 7635 673c cedb 43bd
00000250: 9bf7 9bbd ae07 9bbd ce38 2ebe f613 7f3d
00000260: 2a62 66bb 479a 77bc 03e8 c23d cc21 083e
00000270: 9566 903a 17fa b0bd 6e54 d8bb 2794 bfbd
00000280: fd3f 8c3d 3fe2 f33b fd8e 48bd ecea e43d
00000290: 4129 133e f2f4 e23c 3769 733d 43fd 74bd
000002a0: b13b e6bd 6672 0f3c 7f22 543d e039 cfbc
000002b0: 3bc4 1abd e401 f7bb 8b2c 2e3d e681 b03d
000002c0: ba80 86bd ccb1 7e3c 7f81 6a3e ba3b 69bd
000002d0: fefe 663e 9a36 ba3d 8b49 b8bc 1d6b 023e
000002e0: 0577 943d 4456 7c3d 2358 eb3d b30f f33d
000002f0: 564f e3bd 007f 803d 6459 19bd 9bfc ec3d
00000300: 9e89 023d 4955 87bc 7648 cc3d 3a33 903d
00000310: 4111 323d 3edc bbbd 38b6 973e 2bff f83d
00000320: a5f8 ef3d 4998 923a fd7a 343d d511 b73d
00000330: b568 e2bc 8f9e cc3d 9b90 d9bd 0e85 443e
00000340: 4b3c a83d 7512 a83d 6687 37bc b7e6 bbbd
00000350: 28f8 bc3d edca 9c3d 5e1b c63d ecc3 d73d
00000360: f555 f83c 3016 c03d bbe8 043d 93a6 e7bd
00000370: f747 1f3e ac19 adbd 907f e73d 5bc4 c8bd
00000380: a874 f23b d337 27bd f8b0 cdbc 2e1a 353d
00000390: c219 42be 3f4c e2bd 10b6 c2bd bc4a 52bd
000003a0: 082b 423d 9a54 27be b709 0ebd d0f2 893c
000003b0: afe1 bc3c 6376 8d3d a9dc ebbd 7f7e 3cbd
000003c0: 0596 55bd c2f2 5b3d d9f1 b83c 8e1d 85bc
000003d0: a3dc 92bc b50c d6bb c10e efbc d02a 46bb
000003e0: 0557 3bbd b2a9 7a3d 48c6 d8bd 3772 cebd
000003f0: 0434 0ebe a612 6ebd 7b68 a03c 89d1 573d
0.020838581 -0.077948324 -0.06217051 -0.06622703 0.009186079 0.011701536 0.053555187 0.061794102
-0.10247937 0.023381809 0.0055479 -0.024725495 0.026486062 0.008687252 -0.070582286 -0.04517211
0.011818421 -0.030194834 -0.0010943332 0.016115544 0.0010163409 0.066274494 -0.107579626 0.069151275
-0.14953452 0.060079962 0.09572547 0.09543634 0.0027253951 0.1059515 0.050356165 -0.004335094
-0.15116931 0.08590042 0.03811369 0.049818233 0.1751438 -0.029957503 -0.16987716 -0.08590798
0.0014992212 0.029717786 -0.10228156 0.10218784 0.14213783 -0.0462634 0.026898423 0.10091558
0.08854113 0.008687328 0.041415464 0.009791565 0.06420492 0.12512684 0.043614425 0.07662564
-0.039831914 0.07261492 -0.041770775 0.05301741 -0.021380715 -0.0054347077 -0.014818773 -0.035711084
0.08188178 -0.15042223 0.16444612 0.004217271 -0.12587802 0.1576251 -0.04002417 0.0031240722
0.06987704 0.035207197 0.08365833 -0.10258192 0.07826692 0.051168922 0.0487177 -0.047716163
-0.0015316458 0.023496246 -0.015298238 -0.053018965 0.06424498 0.13465765 -0.08538377 0.060585957
-0.12719052 -0.13431159 -0.024091652 -0.13894632 0.052222382 0.026565108 -0.048612557 0.08348305
0.016273472 0.022392508 0.14938387 0.018214025 0.047472235 -0.13371828 0.07016288 -0.047989454
-0.05860332 0.01429945 -0.12710524 0.07478962 0.08234267 -0.014864313 -0.008792594 -0.12075052
0.13627326 -0.07129152 -0.09105801 -0.15962718 0.11841513 -0.009755014 0.044508863 -0.13013123
0.11811604 -0.02339082 -0.19450329 0.013540852 0.0157204 -0.013329268 -0.08068983 -0.031679776
-0.07826374 0.043063667 -0.046609376 -0.05370092 0.07068576 0.055347394 -0.059912413 0.1440962
0.051515475 0.0036888765 0.18693496 0.009291166 -0.07010072 -0.062604584 0.106813714 0.045461535
0.17376195 -0.025302744 0.014111867 -0.047817044 -0.07615586 -0.07569824 -0.17013857 0.062274896
-0.0035153725 -0.015112466 0.09516909 0.13294142 0.00110169 -0.08641451 -0.0066018617 -0.0935443
0.06848142 0.007442742 -0.04896449 0.1117762 0.14371206 0.02770469 0.059426513 -0.05981184
-0.11241854 0.008755302 0.05179071 -0.025296152 -0.037784796 -0.007538067 0.04252295 0.08618526
-0.065675214 0.01554532 0.22900961 -0.056941725 0.2255821 0.09092446 -0.022496006 0.12736173
0.07249264 0.061605707 0.1149142 0.11868229 -0.110991165 0.06274223 -0.037438765 0.11571618
0.031869523 -0.01652016 0.09974758 0.07041021 0.043473486 -0.09172867 0.2963121 0.121580444
0.11717347 0.00111843 0.044062603 0.08938948 -0.027637819 0.0999118 -0.106232844 0.19191381
0.08214625 0.082066454 -0.011201715 -0.09174865 0.092270195 0.076558925 0.096731886 0.10535416
0.030314425 0.09379232 0.03244851 -0.113110684 0.15554796 -0.08452162 0.113036275 -0.09803077
0.0073991604 -0.040824722 -0.0251088 0.04421442 -0.18955138 -0.11049699 -0.09507382 -0.051340804
0.04740432 -0.16340867 -0.034677234 0.016839415 0.023056833 0.06907346 -0.11516697 -0.046019074
-0.052145023 0.05369831 0.02257626 -0.016249444 -0.017927473 -0.0065322765 -0.02918184 -0.003023792
-0.045737285 0.06119699 -0.10584694 -0.100803785 -0.1388703 -0.058123253 0.01958107 0.052690063

actor.0.bias f4 [32]
00000000: fcdf abba dbb5 e7b9 e0d4 bab7 7067 713b
00000010: 5a52 86ba 35b5 94ba 9ae8 1c3a f802 173b
00000020: 41af b83a ecbf f5b9 ae2d 4c39 3f4a ae39
00000030: 5d55 8bba 452d bb3a 9308 86b9 8b0d 0dbb
00000040: 5644 55bb 8e8f 1e3a a655 43bb f056 afb9
00000050: 5a58 173b f0bc 96b9 429b 073a cb49 123a
00000060: 95d8 feba 5552 deba 3d39 57ba f51f 1fba
00000070: aa59 f0b5 edda 8aba 162e 013b df82 88ba
-0.0013113017 -0.00044195246 -2.2272056e-05 0.0036835335 -0.0010247931 -0.0011345508 0.0005985588 0.002304254
0.0014090316 -0.00046873034 0.00019471973 0.00033243184 -0.0010630299 0.0014280459 -0.0002556486 -0.0021522965
-0.0032541952 0.0006048613 -0.002980569 -0.00033443375 0.0023093433 -0.00028751 0.00051729765 0.0005580454
-0.0019443209 -0.0016961793 -0.0008210128 -0.00060701306 -1.7907489e-06 -0.001059381 0.0019711307 -0.0010414979

actor.2.weight f4 [32, 78, 3, 3]
00000000: 12b5 833d f14c bd3d 302d 153c 3b6c 80bc
00000010: 2c74 96bc 4c5f c5bb 57b3 cabc 780c 87bd
00000020: 4dbc 0a3d ef2e cc3d 032e eabd 2b3b fcbc
00000030: 7332 99bd 61ee 8bbc b6fe 69bd d8ab 03be
00000040: 1c1e b5bc 43c0 9bbd bc7f 8ebc 5633 d9bc
00000050: 4f5b b73b f724 78bb 6788 e83d 780b 933c
00000060: 2b8a 6abc 1396 ba3b 4f27 80bd c8e3 363d
00000070: 7dfb 323d e684 3b3d cb8c 9c3d 5f36 103d
00000080: d0e1 ffbc ced5 cabb df28 0cbc 093b b43d
00000090: 66b5 4cbd 201b 95bc c1c9 943d fa02 033c
000000a0: f242 babd 3443 d83d 4a71 093c 82c8 0b3c
000000b0: 974d 9e3d e76b 04bd b207 003d 6a5e 83bc
000000c0: bccf 5c3b dd61 4b3c f601 2c3c d90e 173d
000000d0: c4bd 523d dedd 913c a065 003d 9311 8ebd
000000e0: 00c8 e33c 56b9 4fbc ed40 c6bd c97b 033e
000000f0: d903 313d 5900 2a3c dfe6 a0bc 86b6 f03d
00000100: f12d 58bd 2408 573c 884c f8bd 74d4 d33c
00000110: ea33 72bd c32b 9d3c cb86 fc3c 929c 16bd
00000120: cb3f 9f3c e061 cbbd 5a32 56bd 30a1 853d
00000130: 391d 1b3e 0aba 743c e429 10bb 04bb 3b3c
00000140: bebd 9fbc cdc2 a43d 5e1c 28bc 9cd0 f6bb
00000150: 45b3 863c 3f8b 1dbd ae46 91bd e897 313d
00000160: 3c3f 7d3d 96df 873d 61e9 a0bd 0abc 42bd
00000170: 6c98 bcbc d631 06bd ff40 a33d c05f 003c
00000180: 1241 de3c b776 213d b486 db3c 94fc b23c
00000190: 6017 2b3d a6a4 a23d 4b86 7e3d a725 11bd
000001a0: ffcb 7fbd 3a4f 59bd 6279 ed3c 9c52 893d
000001b0: 5870 7c3c cda3 f63c 2cd9 373d b7ba 883d
000001c0: 3ab2 123d 8b63 413d 2188 dfbd 81aa 6fbd
000001d0: 5a0f ca3c c110 d43d fbe4 b6bc a0b2 6e3d
000001e0: 7edb 933d 78c3 b63d 7262 933d a000 9abc
000001f0: 2329 98bd f85d 2bbd 44a8 febd 428a f4bc
00000200: deb3 b4bc b95f 023d e228 20bd 734f c23c
00000210: 3a28 f3bc 7fa4 723c b2d7 613d 598c ddbd
00000220: 802f 06bd 0ae0 e4bc c29b 04bd a7b5 91bc
00000230: 5e3b 96bc 3df0 733c a340 b13c 13cf 1cbd
00000240: 1728 5f3d 7b63 6138 db44 e33c 3015 d83d
00000250: 8139 92bd 0950 04bc cf1c 9d3d 06a8 cf3c
00000260: a736 723c 253d 98bd b663 c43d 5cd5 223d
00000270: 035a a93d 9cc0 06bd c446 d8bd 16e9 91bc
00000280: ab9e cd3d b040 273e 013a 423d 8e99 75bc
00000290: a819 d63d 7e42 bebc 2315 443d ba80 c0bd
000002a0: 0e0e 8dbd f255 843d fc12 fd3d e8dd a4bc
000002b0: 3005 b5bd 23e3 54bb 5cc4 8f3d 15b9 353d
000002c0: 7486 40bd 9b23 773d 5187 1bbc 7941 8cbd
000002d0: 708d 9d3c 4c24 013d 8abc ffbc ec57 f13c
000002e0: 33f4 a0bc dad5 01bd 928e c9bc 82e6 c83d
000002f0: 835c 853d 0f1c 933d c723 b4bd 8fd9 f63c
00000300: 9350 0dbd 3374 d03c 77a4 a13d 13f3 eb3a
00000310: f91d 993d a491 0f3d d641 ddbc 281e 5c3c
00000320: 4b23 43bb c03b cb3c 6b12 ee3b 67a6 45bd
00000330: 432c 1f3d 82a4 233d b3dc a6bd fe5e 653d
00000340: c0fc 90bd 682a 17bd 8eb4 b9bd a5ba eb3b
00000350: 89ef 303d f599 f83b 2d91 33bc 74a9 2fbc
00000360: d924 0b3e 385f 9dbd 834d 8dbc 0768 923d
00000370: 1ad2 42bd bbb8 053c 2952 7dbd f1a3 2e3d
00000380: 6dda 36bd 9853 cabc 6934 4bbb d8dd c53c
00000390: 5f88 193d 9e3e 063d 10e2 363d 67a1 09be
000003a0: b013 713c 212e 07bd d1c2 b2bc 0a94 5c3c
000003b0: c28f c7bc c0d8 07bd e4b7 71ba cb16 013d
000003c0: aef1 043c de77 2f3d 0eb9 30bd 8924 69bd
000003d0: 0dbf f43b 6e43 003d f44d 05bd abd1 6f3d
000003e0: ac7d 383c 1ffb b83c 2fad dbbd 8181 803d
000003f0: 4455 dcbc 97de 3c3d d4b7 8f3b 9c1c 4e3c
0.06431021 0.09243191 0.009105012 -0.015676608 -0.018365942 -0.006023323 -0.024743719 -0.06594175
0.033870984 0.099698894 -0.11434557 -0.030789932 -0.074803255 -0.017081441 -0.057127677 -0.12858522
-0.022109084 -0.076050304 -0.017394893 -0.026513737 0.0055956016 -0.003786383 0.11354142 0.017949805
-0.014315168 0.00569416 -0.062574975 0.044650823 0.04369687 0.04578104 0.07644042 0.035208102
-0.031235605 -0.0061900383 -0.008554666 0.088003226 -0.049977683 -0.01820141 0.07265044 0.007996315
-0.090948 0.10559693 0.008388827 0.0085316915 0.07729643 -0.032329466 0.03125734 -0.016036231
0.0033693155 0.012413469 0.010498514 0.036879394 0.051450506 0.01780599 0.031346917 -0.06936946
0.027805328 -0.012678465 -0.09680352 0.12840189 0.04321656 0.010376059 -0.019641338 0.117535636
-0.05277819 0.0131244995 -0.12123972 0.025858141 -0.05913154 0.019185906 0.030825993 -0.03677041
0.019439599 -0.099307775 -0.052294113 0.06524885 0.15147866 0.014936933 -0.0021997625 0.011458162
-0.019499656 0.08044968 -0.0102606695 -0.0075321924 0.016442904 -0.038462874 -0.07093559 0.04335776
0.061827883 0.066344425 -0.078570135 -0.04754261 -0.0230219 -0.03276237 0.079713814 0.007835329
0.027130637 0.039419856 0.02679763 0.021848954 0.04177034 0.079415604 0.06213979 -0.0354363
-0.062450405 -0.053054072 0.028988544 0.067052096 0.015407644 0.030107403 0.044884846 0.06676238
0.0358145 0.047214072 -0.109146364 -0.058512215 0.024665523 0.10354758 -0.022325983 0.05827582
0.07219599 0.089240015 0.07196511 -0.018799126 -0.07429721 -0.041837662 -0.12434438 -0.029851083
-0.022058424 0.03182957 -0.03910149 0.023719525 -0.029682267 0.014809727 0.055137344 -0.10817785
-0.032760143 -0.027938861 -0.032375105 -0.017786814 -0.018338855 0.01488882 0.021637267 -0.03828342
0.054481592 5.373683e-05 0.027742794 0.10550916 -0.07139874 -0.0080757225 0.076715104 0.025348675
0.014783538 -0.074335374 0.09589331 0.039754257 0.082691215 -0.03289853 -0.105603725 -0.01781134
0.10040029 0.1633327 0.047418598 -0.014990224 0.10454112 -0.023225065 0.04787172 -0.09399553
-0.06887446 0.06461705 0.123571366 -0.020125344 -0.0883888 -0.0032484017 0.070198745 0.04436596
-0.047003224 0.06033669 -0.009492711 -0.068484254 0.019232482 0.031528756 -0.031217832 0.02946087
-0.019647693 -0.031698085 -0.024604116 0.09809591 0.06511786 0.07183086 -0.087958865 0.030133037
-0.03450067 0.025446033 0.07892697 0.0018001519 0.0747642 0.035051003 -0.027008932 0.013434924
-0.0029775675 0.024808764 0.007265379 -0.048254397 0.03886057 0.03995181 -0.08147564 0.055998795
-0.07079458 -0.036905676 -0.09067641 0.0071938806 0.04319719 0.0075867125 -0.010959906 -0.010721553
0.13588275 -0.07684177 -0.017248875 0.07148748 -0.04756365 0.008161719 -0.061845932 0.042636815
-0.0446419 -0.024698064 -0.003100658 0.024153635 0.03748357 0.03277456 0.044649184 -0.13440476
0.0147141665 -0.033002976 -0.021821411 0.01346303 -0.024360541 -0.033165693 -0.0009220822 0.031515878
0.008114262 0.042838924 -0.043145232 -0.05691961 0.007469064 0.031314306 -0.032545045 0.058549564
0.011260431 0.022580681 -0.107263915 0.06274701 -0.026896127 0.046110716 0.0043859277 0.012580063

actor.2.bias f4 [78]
00000000: b44e 3f3b bada 58bb 6bed ad3a 234a 033b
00000010: 7088 12bb 89ff e23a 1d81 a2b9 2934 4a3b
00000020: d7f3 ecba 79b2 873a 0000 0000 0000 0000
00000030: 0000 0000 0000 0000 0000 0000 0000 0000
00000040: 0000 0000 0000 0000 35e3 b039 b3f1 60bb
00000050: cae2 853b b3cb 1fbb 0000 0000 0000 0000
00000060: 0000 0000 0000 0000 0000 0000 0000 0000
00000070: 0000 0000 0000 0000 0000 0000 0000 0000
00000080: 0000 0000 0000 0000 0000 0000 0000 0000
00000090: 0000 0000 0000 0000 0000 0000 0000 0000
000000a0: 0000 0000 0000 0000 0000 0000 0000 0000
000000b0: 0000 0000 0000 0000 1092 90bb 0000 0000
000000c0: 0000 0000 0000 0000 0000 0000 0000 0000
000000d0: 5bff a83b 0000 0000 e9ed 4f3b 0000 0000
000000e0: 0000 0000 0000 0000 0000 0000 0000 0000
000000f0: 924a 17bb 0000 0000 0000 0000 0000 0000
00000100: 0000 0000 0000 0000 0000 0000 0000 0000
00000110: 0000 0000 0000 0000 0000 0000 0000 0000
00000120: 0000 0000 0000 0000 0000 0000 0000 0000
00000130: 0000 0000 0000 0000
0.0029191198 -0.0033089356 0.0013269609 0.0020033203 -0.0022359155 0.0017318587 -0.00030995245 0.0030853844
-0.0018078041 0.0010352872 0.0 0.0 0.0 0.0 0.0 0.0
0.0 0.0 0.00033738618 -0.0034323751 0.0040858733 -0.0024382889 0.0 0.0
0.0 0.0 0.0 0.0 0.0 0.0 0.0 0.0
0.0 0.0 0.0 0.0 0.0 0.0 0.0 0.0
0.0 0.0 0.0 0.0 0.0 0.0 -0.0044119433 0.0
0.0 0.0 0.0 0.0 0.005157394 0.0 0.00317275 0.0
0.0 0.0 0.0 0.0 -0.002308522 0.0 0.0 0.0
0.0 0.0 0.0 0.0 0.0 0.0 0.0 0.0
0.0 0.0 0.0 0.0 0.0 0.0

critic.1.weight f4 [128, 1024]
00000000: bc69 07bd 463e c2bc c950 913c 0268 e53d
00000010: 0d81 70bb d111 b83c 3319 7bbd 766e 12bd
00000020: 84c7 a23d b295 35bb d9d1 063d c988 4d3d
00000030: 18ed b23a d303 3dbc 6b56 c2bd fa3f 833d
00000040: 9aab 843c 7d5f c7bd f46f 203c fecc fd3c
00000050: 4c29 1dbc f304 bf3c 4c6d 8b3c 02bb 86bb
00000060: 1f82 413d 5a2e cb3c c195 31bd 6836 34bd
00000070: 58a8 43bc 0a0a 0dbd 1e7c 2dba e368 103d
00000080: 3257 153d 70fb ce3c 464f 073d 2cac 9bbd
00000090: 32e7 21bd 968d 6ebc 2db3 1d3d 3b52 803d
000000a0: accf 173c d300 6abc a5bd 903b 5956 cc3d
000000b0: e0c9 283d 8f28 a5bd ad36 203d c146 1d3d
000000c0: 7b0b 933c 5041 03bc 352a 913d 776d d43c
000000d0: 73d0 8bbc bae3 123d fcb9 8c3c 164d 1ebc
000000e0: 4985 55bb d535 273d d4ea cd3c 937a c4bc
000000f0: 1fc1 853c ab1f a43c 8f39 1dbd 4a3d ce3c
00000100: 9068 0fbc df88 6a3d 3008 44bc bf4a 85bc
00000110: 6067 3bbd ec2a 0a3d 2818 9f3c 6949 c63d
00000120: 9d98 06bd 8c4b b23b 72d4 e83d 36c1 123b
00000130: f47d 94bc 61ae 8fbb 61e3 1bbd ff42 fc3b
00000140: 10ff b8bc 32b8 69bd 7036 19bd 9705 d33c
00000150: 397f ba3c 312d 96bd ea9e 4b3d 3d6f 083c
00000160: e590 ab3c 3154 0a3d e36c 233d 3cc9 253d
00000170: 8de5 3a3b 46ed 793b 82f4 e6bc 645b a43d
00000180: 132c 683b cba4 b9bb f4de b5bd 19a7 c43d
00000190: fcc1 2a3d 78f2 f8bc b609 87bc b0ba 31bd
000001a0: 0a1d 56bc 7027 703d 1039 99bd 1848 233d
000001b0: 323e 66bb 7410 97bd 259e 4cbd 5c4b 003d
000001c0: 2156 8a3d 7886 9fbc 8c48 c8bb bf55 64bd
000001d0: 7f86 9a3c 0ce0 753b 9586 4f3d 9892 373d
000001e0: 88a6 54bd 5e33 833b e73f 8ebc 12f9 ba3b
000001f0: 384e 673c 53b7 b8bb 88ee 30bd 56f8 cd3c
00000200: 189e 9dbd 7d62 49bd e9a1 c23c 7a31 1e3c
00000210: af89 aabc e8c4 61bc dec7 c23c 8575 f23a
00000220: e962 0dbd 45c3 0fbb 72f0 213c 94cc eebb
00000230: 37e2 123d 1497 073d 14d9 903c 27b9 8bbc
00000240: 3fc8 ad3c 5ce0 053d 603d 5cbc 1ea7 1e3a
00000250: 50c6 a33c 00fa c0bc 9b36 093d f333 54bd
00000260: 97d2 9abb 737e 1e3d 4f3d 1d3d c055 9abc
00000270: a734 333c 2d18 6bbb d4ea 94bd db34 713d
00000280: 067e 10bd 9311 323d fd07 8fbd 393e 0c3d
00000290: c131 1f3d 4efb f7bc 42cd a53d 5625 883d
000002a0: c598 583d b7c9 bcbd ab9a 163d 84a3 b43b
000002b0: a88f 9fbc 6b32 21bd 60f0 8cbd 541c a33d
000002c0: 26f2 983c 6edb 893c 4dc5 9ebc 2324 1a3d
000002d0: 4847 213d 8acc e0bc 7207 54bd d6ed c1bb
000002e0: 3838 df3c a341 843b 83d5 013d 1b7d d13b
000002f0: 122f 033c 76dd a93c 16bd 683c 9e2f abbc
00000300: 094d 503b 83ab ef3c 2ff5 9e3d 7379 a93a
00000310: 596a 9e3d 1286 4e3b 4e4a 1c3d 191e 40bd
00000320: 2490 82bd 71fc 603d 5366 5ebb 8309 543c
00000330: 62a7 d5bc 8edb 3a3d a015 58bc 37d3 4cbd
00000340: 6f74 bc3d 9461 653d 8b21 fc3b 2036 ad3d
00000350: 2016 dfbc 3621 443c d7d8 13bb 856b 633c
00000360: bfdf 133d e7e1 5f3c 9d28 073d 32b7 c4bc
00000370: 67fd babc 4a1a 00bc 7e7d 5f3c 9414 f1bc
00000380: 48f5 77bd 5839 59bb f91b 07bc d0a2 acbd
00000390: 1685 88bb bda5 84bc cb75 283d a0df 79bd
000003a0: 0ada 1cbd 8e5b 4f3d 2d83 813d 221b 903c
000003b0: ab90 473d 43f1 51bc b461 b4ba bd98 933c
000003c0: e0ed d03c 5761 0f3e c52a 983b 0fdc 21bd
000003d0: f45c f43c db7d 30bd fa3f 8f3d 4023 943d
000003e0: 38c9 5b3d 1f05 31bd cc24 c33c 25c8 6a3d
000003f0: 6a5c 2ebd 7761 d8bc fd54 3bbd 05f9 8cbb
-0.03305982 -0.023711335 0.017738717 0.112014785 -0.0036698014 0.022469433 -0.06130333 -0.035749875
0.07948211 -0.0027707634 0.03291497 0.050179277 0.0013650982 -0.011536556 -0.09489139 0.06408687
0.016195107 -0.0973501 0.009792317 0.030981537 -0.0095923655 0.02331779 0.01701989 -0.0041116485
0.047243234 0.024802376 -0.043355707 -0.0439972 -0.011941992 -0.034433402 -0.0006617921 0.035256278
0.03646011 0.02526638 0.033034585 -0.076011986 -0.039527126 -0.014560124 0.038500953 0.06265684
0.009265821 -0.014282423 0.0044171386 0.09977407 0.041208148 -0.080643766 0.039114643 0.038397554
0.01794981 -0.008011177 0.070881285 0.025931103 -0.01706717 0.03586171 0.017178528 -0.009661933
-0.0032580665 0.040822823 0.025136389 -0.02398423 0.016327439 0.020034632 -0.03838497 0.02517571
-0.008752957 0.057259437 -0.011964843 -0.016270993 -0.045752883 0.03373234 0.019420698 0.096819706
-0.032860387 0.005441135 0.11368646 0.0022392995 -0.018126465 -0.0043848013 -0.038058642 0.0076984162
-0.02258256 -0.057060428 -0.03740543 0.025759501 0.022765743 -0.07332838 0.0497121 0.0083273025
0.020943115 0.033771697 0.039898764 0.040475115 0.002851817 0.003813581 -0.028192762 0.08025244
0.003542666 -0.005665397 -0.088804156 0.09602184 0.041688904 -0.030389056 -0.016484123 -0.04339093
-0.013068447 0.05863136 -0.07481587 0.039863676 -0.0035132286 -0.07376185 -0.049955506 0.03132187
0.06754709 -0.0194733 -0.006112164 -0.055745836 0.01886296 0.0037517576 0.050665457 0.044817537
-0.05191663 0.004003926 -0.017364455 0.005705961 0.01411777 -0.0056370883 -0.04319623 0.02514283
-0.076961696 -0.04916619 0.023758845 0.009655351 -0.020817606 -0.013779856 0.023776945 0.0018498158
-0.034518156 -0.0021936458 0.009883987 -0.007287571 0.035860267 0.033103064 0.017681636 -0.017056061
0.021213649 0.03268467 -0.013442367 0.0006052124 0.019992024 -0.02355671 0.03349934 -0.051807355
-0.0047248113 0.03869481 0.038388547 -0.018839717 0.010937846 -0.0035872564 -0.072713524 0.058888298
-0.035276435 0.04347379 -0.069839455 0.034239028 0.03886581 -0.030271199 0.080957904 0.06647746
0.052880067 -0.092181616 0.036768597 0.0055126566 -0.01947768 -0.039354723 -0.068817854 0.079643875
0.018670153 0.016828265 -0.01938119 0.03763212 0.03937462 -0.027441282 -0.051764913 -0.005918245
0.027248487 0.004036145 0.03169776 0.0063930876 0.008006828 0.020735484 0.014205238 -0.02089673
0.0031784198 0.029256588 0.07761609 0.0012929871 0.07735128 0.0031513018 0.0381568 -0.046903703
-0.06375149 0.054928247 -0.0033935502 0.012941721 -0.02608079 0.04561954 -0.01318875 -0.050006118
0.092018954 0.05600126 0.0076944283 0.08457589 -0.02723223 0.011970809 -0.0022559667 0.013880615
0.036102053 0.013664699 0.032997716 -0.024013136 -0.02282591 -0.007818768 0.0136407595 -0.029428758
-0.060536653 -0.0033145752 -0.008246415 -0.084294915 -0.0041662557 -0.016192311 0.04112796 -0.06100428
-0.038293876 0.050624423 0.06323848 0.017591063 0.04872195 -0.012813869 -0.0013762028 0.018017167
0.025504053 0.14001976 0.0046437704 -0.039516505 0.02982948 -0.043088775 0.069946244 0.07233286
0.053658694 -0.043217774 0.023821257 0.05731978 -0.0425686 -0.026413662 -0.045735348 -0.0043021464

critic.1.bias f4 [128]
00000000: 73dd 68ba cd1e cf39 1865 ad39 3027 be39
00000010: 60fd d6b9 0000 0000 48d6 a8ba 2f18 20ba
00000020: c487 d139 b4d6 ca39 0000 0000 0000 0000
00000030: b1c7 d4b9 0000 0000 9f9e cdba d96a 58ba
00000040: 0000 0000 2e71 2dba a431 d9b9 eece e8b9
00000050: e8ae d6b9 1084 d5b9 0000 0000 6bc7 4cb9
00000060: 0000 0000 0000 0000 3667 07ba cdad 39ba
00000070: 3ac6 b2ba 0000 0000 6b28 fab9 f65e d5b9
00000080: 0000 0000 8bc5 84ba 1c89 d4b9 28d3 90b9
00000090: 9de7 d9b9 cc62 94b9 650e ccba 28c4 22ba
000000a0: 0000 0000 3ed2 c839 2258 9db9 7ec1 ce39
000000b0: d055 a8ba 0000 0000 c6a3 a3ba 0000 0000
000000c0: a26f d4b9 845a b8b9 0000 0000 2f1f 65ba
000000d0: aecb d3b9 ee19 a5b9 0000 0000 87e5 0dba
000000e0: 2bcd 3dba 849a bdba 3b5b 9fba 8b77 1bb8
000000f0: 0000 0000 4da7 eab9 78a3 083a 0000 0000
00000100: 1b1d c439 0baf bcb9 0000 0000 79bb d4b9
00000110: a655 d3b9 f005 afb9 fb14 d8b9 ced0 dfb9
00000120: 492e 27ba 88ad d239 fb76 a3ba a330 0639
00000130: 6879 9eba 16dc d2b9 0000 0000 0000 0000
00000140: cd70 ce39 14c6 c639 dbb3 7a3a b404 7b39
00000150: cab8 f6b9 f3e3 dfb9 7ec0 d4b9 47cd 8ab9
00000160: a66f cb39 2fd5 c339 7652 92ba fedd b339
00000170: 1918 d3b9 df63 c839 6c69 4aba 517d 0c38
00000180: 0000 0000 bbe0 0eba 0000 0000 0000 0000
00000190: 42ac 3eba 9f3a 5439 567a 4339 0000 0000
000001a0: f584 6eba d51d e0b9 0000 0000 006e fab8
000001b0: 4571 cd39 6f4d 9bba 0000 0000 1eac cd39
000001c0: 0000 0000 bea0 1dba e5b3 b3ba b51b cd39
000001d0: 305e d4b9 a6f3 be39 78ed aab9 0000 0000
000001e0: 0000 0000 2634 24b8 766e 8eba 0000 0000
000001f0: 1a30 c439 aede 29ba 0000 0000 af3c ec39
-0.0008883096 0.00039505065 0.00033072452 0.0003626882 -0.0004100604 0.0 -0.0012881244 -0.0006107119
0.0003996474 0.0003868841 0.0 0.0 -0.00040584573 0.0 -0.0015687532 -0.00082556676
0.0 -0.00066162914 -0.0004142645 -0.00044404663 -0.00040947576 -0.0004072492 0.0 -0.00019529245
0.0 0.0 -0.0005165221 -0.0007083088 -0.0013639398 0.0 -0.0004771383 -0.00040697277
0.0 -0.0010129673 -0.00040537945 -0.00027623144 -0.0004156203 -0.0002830237 -0.0015568255 -0.0006209039
0.0 0.00038303615 -0.00030011038 0.00039435545 -0.0012842957 0.0 -0.0012484721 0.0
-0.00040518964 -0.00035162654 0.0 -0.00087403035 -0.0004039681 -0.00031490572 0.0 -0.00054129254
-0.000724035 -0.0014465605 -0.0012157926 -3.7066213e-05 0.0 -0.00044756607 0.0005212347 0.0
0.00037405718 -0.00035988571 0.0 -0.0004057547 -0.0004030887 -0.00033383025 -0.00041214362 -0.00042689446
-0.00063774415 0.00040183612 -0.0012471372 0.00012797354 -0.0012090625 -0.00040218298 0.0 0.0
0.00039375425 0.00037913083 0.0009563544 0.00023938977 -0.00047058455 -0.0004270371 -0.0004057921 -0.00026474355
0.00038802362 0.00037352132 -0.0011163491 0.00034306938 -0.0004026301 0.00038221382 -0.00077213976 3.349531e-05
0.0 -0.00054503576 0.0 0.0 -0.0007273593 0.00020239734 0.00018642223 0.0
-0.00090987916 -0.00042746836 0.0 -0.00011941418 0.0003918504 -0.0011848639 0.0 0.00039228884
0.0 -0.0006013027 -0.0013710229 0.0003912129 -0.00040505966 0.00036421156 -0.00032601855 0.0
0.0 -3.9149214e-05 -0.001086666 0.0 0.00037419872 -0.000648002 0.0 0.0004505864

critic.3.weight f4 [1, 128]
00000000: 6e15 0e3d b5e2 46be 6688 3cbc 1c48 a4bc
00000010: 2906 003d 39ba 33be a231 6abb 8b20 4bbd
00000020: d70d 6bbc 36b5 8abd 9048 be3d 0227 f83c
00000030: ef74 7d3d 28a1 d6bd 7f03 96bd aa39 513d
00000040: cd67 ccbd 4a90 35bd c202 2e3e 02d5 243c
00000050: 6828 353d 2e3d 333d e454 56be db37 b1bc
00000060: ed36 453a 9a42 72be 36a4 ee3c 6597 1ebd
00000070: 58a2 763d db4d 053d 5bc2 613b e920 4b3d
00000080: 678c 253c 93ea 70bd 8cff 923d 3e91 c93d
00000090: a8da dd3c 8879 0d3b 13c9 e1bd a3ac a3bd
000000a0: f7e1 b63c 6468 50bd 9033 263a ef3d 30be
000000b0: fe66 953d 638a e33c 11dd 45be 88ed e4bd
000000c0: e9ae 983d bc77 493d a5bd 013e fb23 d33d
000000d0: cfd9 a13d f7a7 233c a479 4a3d 7ef0 803d
000000e0: 10ea ebbd 810b 9fbd 0cdc 65bc 8c32 22bc
000000f0: a596 bb3d 41ea 023c 820a 46bb 7d06 23bd
00000100: 94e7 4bbd df52 bf3c 64fe 26bc 1517 783d
00000110: 560b d23d b8a2 cc3c 0303 173d 4def 863c
00000120: d4cc 623a 9e20 fabd 822a 533d 1190 24bb
00000130: 7ec7 4e3e 833f 103e d750 833e 5bdf f4bc
00000140: 9673 0bbe 54dc 11bd b044 c93c 02aa 7ebc
00000150: 2a95 063e 516a 7f3c 9f66 8a3d b98b 13bd
00000160: fded 93bd 21e7 ecbc 054c c5bd 9d10 41bd
00000170: f446 fb3d b389 40bd 1ea3 203e f1d0 e83c
00000180: f36a 1b3e b243 df3d be1c 2bbe 10d3 abbd
00000190: 210d 973c 9ace 203e a707 44bd 2e33 2d3d
000001a0: 7cc9 603d 528d 473c e916 75bd a6f9 a03d
000001b0: 21d9 dcbd 2864 dd3d 1711 02bc 0521 e6bd
000001c0: 3d0c 3abd 0012 f23a 1b65 3cbe 5594 cebd
000001d0: 002f a53d 6387 afbc 68f5 3dbc f440 943d
000001e0: 2b22 de3d bf59 93bd ea1f a83c 43bd 8ebd
000001f0: b3e4 02bd 642b f63d 210f 22bd db13 bdbd
0.034688406 -0.1942242 -0.011507129 -0.020053916 0.031255875 -0.17551507 -0.003573515 -0.049591582
-0.014346561 -0.067728445 0.09291184 0.030292038 0.061879095 -0.10479957 -0.073248856 0.051080383
-0.09980736 -0.044327058 0.1699324 0.010060551 0.044227988 0.043759517 -0.2093082 -0.02163308
0.0007523138 -0.23658219 0.029131036 -0.0387186 0.060213417 0.032544952 0.003444812 0.049591932
0.010104275 -0.058817457 0.07177648 0.09842156 0.027081802 0.002158733 -0.1102468 -0.07991912
0.022324545 -0.050880805 0.0006340081 -0.17211126 0.07295035 0.027775949 -0.19322611 -0.11178118
0.074552365 0.049186453 0.1267 0.10309597 0.07902872 0.009988776 0.04943241 0.0629587
-0.11519253 -0.07765866 -0.014029514 -0.009899747 0.091595925 0.007990421 -0.0030218665 -0.03980111
-0.049781397 0.023354946 -0.010192487 0.060568888 0.102560684 0.024979934 0.036868107 0.01647153
0.00086517376 -0.122132525 0.05155421 -0.0025110284 0.20193288 0.14086728 0.25647613 -0.02989166
-0.13618311 -0.035610512 0.024568886 -0.015543463 0.13142839 0.015589313 0.06757855 -0.03602192
-0.07223127 -0.028918805 -0.0963364 -0.047134984 0.122693926 -0.04700632 0.15687224 0.028419944
0.15177517 0.10901584 -0.16710183 -0.08389866 0.018438878 0.15703812 -0.04785886 0.042285137
0.05487965 0.0121796895 -0.059836302 0.07860117 -0.107836016 0.10810119 -0.007938645 -0.11236767
-0.045421828 0.0018468499 -0.18397944 -0.10086886 0.08065605 -0.021426862 -0.011594154 0.07238951
0.10846361 -0.07194852 0.02052303 -0.069696926 -0.031956386 0.12019995 -0.03956521 -0.09232303
