experiments/ppo_hrl/models/MicroRTSGridModeVecEnv__ppo_utils__1__1721366908/move_agent.pt (torch, 802531 bytes, 11 tensors)

encoder.1.weight f4 [32, 30, 3, 3]
0	0x3d1a6e09	0.037702594
1	0xbcaf40d6	-0.02139322
2	0x3d325cef	0.04354566
3	0xbd125a42	-0.035730608
4	0xbd3261a1	-0.043550137
5	0xbdd5eaeb	-0.10445198
6	0xbc8b7bd2	-0.017026816
7	0xbe0c7abf	-0.13718699
8	0x3c89182b	0.016735157
9	0x3e1e097f	0.1543331
10	0xbe488ddd	-0.19585367
11	0xbd4d9a0f	-0.05019575
12	0x3e0ae07f	0.13562201
13	0xbd5c6ce9	-0.053814802
14	0x3d1e62e7	0.03866854
15	0x3e1ba4d2	0.15199593
16	0xbc0b93c4	-0.008519117
17	0xbdb95950	-0.09050238
18	0x3cb08691	0.021548541
19	0xbd8f5ef9	-0.070005365
20	0x3e21dcaa	0.15806833
21	0xbd14c629	-0.036321793
22	0x3ddcda8f	0.10783874
23	0x3ddbf701	0.10740472
24	0x3d777480	0.060413837
25	0xbdf4ff93	-0.119628094
26	0xbd74f4c0	-0.059803724
27	0xbd335917	-0.043786135
28	0xbd1e9291	-0.038713995
29	0xbd97802c	-0.07397494
30	0xbd121430	-0.035663784
31	0x3d0ed918	0.034875005
32	0x3cd09cb2	0.025465343
33	0x3d317a07	0.043329265
34	0x3d1dba19	0.038507555
35	0xbd25f18c	-0.04051356
36	0x3da611e3	0.0810888
37	0x3e31333d	0.17304702
38	0xbd7875e0	-0.06065929
39	0xbca97468	-0.02068539
40	0x3dc9077e	0.09815882
41	0x3ddc7a3a	0.107655
42	0xbe055e1a	-0.13024178
43	0x3d03a559	0.03214011
44	0x3cc9e6b9	0.02464615
45	0xbd0615ac	-0.03273551
46	0xbde6e51d	-0.11274169
47	0x3b7e2e1b	0.0038784805
48	0xbc7719e9	-0.015081861
49	0x3bb039e6	0.005377996
50	0x3dc5a6f6	0.09650986
51	0x3c012848	0.007883139
52	0x3d77e56c	0.060521528
53	0xbdef385a	-0.1168067
54	0xbdd48265	-0.10376433
55	0x3d55ba35	0.052179534
56	0xbcbb2cd4	-0.022848524
57	0xbdc92bd6	-0.09822814
58	0xbe0cfc11	-0.1376803
59	0xbd6dec12	-0.058086462
60	0xbd84aaaa	-0.06477864
61	0xbdbd2c3a	-0.09236951
62	0xbe08d2f3	-0.1336172
63	0xbbea8ff6	-0.0071582748
64	0x3c566ada	0.013086999
65	0xbde85a6b	-0.11345371
66	0x3dfbd183	0.122958206
67	0x3d9ae992	0.07564081
68	0x3db1a2ca	0.08673628
69	0x3d58720f	0.05284315
70	0xbe162af5	-0.14664824
71	0x3e63d404	0.22248846
72	0x3940c154	0.00018382567
73	0xbda195b6	-0.07889883
74	0xbcf73ee8	-0.030181363
75	0x3c53f261	0.012936206
76	0xbd48effb	-0.04905699
77	0xbd317bf8	-0.043331116
78	0x3de0653b	0.10956808
79	0x3d54d3ad	0.051959682
80	0xbbb9dd6c	-0.0056721475
81	0xbc358eea	-0.011081437
82	0x3dc8947b	0.097939454
83	0x3d7ee27d	0.062227715
84	0xbdd1e936	-0.102495596
85	0xbe283dc4	-0.16429812
86	0xbdb417e3	-0.087936185
87	0xbd73472b	-0.059394043
88	0xbcdca662	-0.026934806
89	0x3d87b50c	0.06626329
90	0x3e07dc82	0.13267711
91	0xbcac998e	-0.021069314
92	0xbdf81d59	-0.121149726
93	0xbdea6881	-0.11445714
94	0x3c98afd0	0.018638521
95	0x3e028bcf	0.12748645
96	0x3d78db44	0.060755983
97	0x3dbe66d9	0.092969604
98	0x3d4a03c1	0.049319986
99	0x3e161ebd	0.14660163
100	0xbc8735c4	-0.01650513
101	0x3d8a99be	0.06767605
102	0xbdd4fecc	-0.10400161
103	0xbd4bc2b6	-0.049746238
104	0x3dbafe5d	0.09130547
105	0xbe16901f	-0.14703415
106	0xbcf906ca	-0.030398745
107	0x3dff34ed	0.12461267
108	0x3ccd6b00	0.025075436
109	0xbc50e220	-0.012749225
110	0x3d83e41a	0.06439991
111	0xbd36eacd	-0.044657517
112	0xbb32dc92	-0.0027292115
113	0x3c495cb6	0.01229017
114	0x3da28738	0.07935947
115	0x3d44fffd	0.048095692
116	0xbe15f1e4	-0.14643055
117	0xbd113348	-0.035449296
118	0xbd5d05ed	-0.05396073
119	0xbdcd0c34	-0.10012093
120	0x3d100db8	0.035169333
121	0xbd5afa02	-0.053461082
122	0x3bbfba67	0.0058510783
123	0x3bcd8c4b	0.0062728277
124	0xbda9e11b	-0.082948886
125	0xbd713457	-0.058887806
126	0xbb4060cd	-0.0029354573
127	0xbe053d2a	-0.13011613
128	0x3ad3eded	0.001616893
129	0x3e2fbd14	0.17161971
130	0xbca122f0	-0.01966998
131	0xbdb08085	-0.08618263
132	0xbdfd5e1d	-0.12371466
133	0xbde3094b	-0.11085757
134	0x3ca6d32a	0.020364363
135	0xbe13fab9	-0.14451112
136	0xbe20e143	-0.1571093
137	0xbd71cdcb	-0.05903415
138	0x3d4f89b3	0.05066843
139	0xbd0e1cec	-0.03469555
140	0xbdec2504	-0.11530498
141	0x3d0da871	0.034584466
142	0x3e583a0f	0.21115898
143	0xbbd44759	-0.006478232
144	0x3cf14b29	0.029454784
145	0xbe05617b	-0.13025467
146	0xbd4eca70	-0.05048603
147	0xbc9ae465	-0.018907735
148	0xbe135184	-0.14386564
149	0x3d3ab665	0.0455841
150	0x3d4fcf8f	0.050735053
151	0xbbabe480	-0.005245745
152	0x3d54a083	0.05191089
153	0x3d328b9d	0.043590177
154	0x3cd89eb1	0.026442857
155	0xbbcbccac	-0.006219467
156	0xbe56755f	-0.20943211
157	0x3d3f5d03	0.046719562
158	0x3c2feaa3	0.010737094
159	0x3d0707a0	0.032966256
160	0xbd32e015	-0.043670733
161	0xbd8a4d29	-0.067529984
162	0xbd86d040	-0.06582689
163	0xbd9b5e2a	-0.0758632
164	0x3dc0eaca	0.094197825
165	0xbd9cea7a	-0.0766191
166	0xbdd7f3bb	-0.10544535
167	0x3e741cdf	0.23839138
168	0xbdf97185	-0.12179855
169	0xbd4af206	-0.049547218
170	0x3bd8459d	0.0066000954
171	0xbd9e02d7	-0.077153854
172	0xbda52697	-0.08064001
173	0x3a4d9149	0.00078417786
174	0xbde68983	-0.11256697
175	0xbe0968c4	-0.13418871
176	0x3d50d8d1	0.050988022
177	0x3bf21484	0.0073876996
178	0xbdbce473	-0.09223261
179	0x3d12c73b	0.035834532
180	0x3ddeaf7d	0.108733155
181	0xbdc8a669	-0.09797365
182	0xbd4d0c1d	-0.05006038
183	0x3d838dbd	0.06423519
184	0x3e0e6701	0.1390648
185	0xbd27b1fc	-0.040941224
186	0xbd909cc8	-0.07061154
187	0xbcdfd767	-0.027324392
188	0x3da0d18a	0.078524664
189	0xbd41cece	-0.047316365
190	0xbd842c22	-0.0645373
191	0x3d94def6	0.07269089
192	0x3d087033	0.033310127
193	0x3d00a340	0.031405687
194	0x3d75996a	0.05996076
195	0x3ba8ec26	0.005155104
196	0x3d385e69	0.04501191
197	0x3c2d7b93	0.010588544
198	0xbe0cdce2	-0.13756135
199	0x3d2c02a9	0.041994724
200	0x3dc53638	0.09629482
201	0x3c686bd0	0.014185861
202	0x3c32c0df	0.010910242
203	0xbd1222a4	-0.035677567
204	0x3e1bdded	0.15221377
205	0xbc92115c	-0.017830543
206	0xbc045c9e	-0.008078722
207	0xbce5279d	-0.02797299
208	0x3dc6890a	0.09694107
209	0x3e6d8c4c	0.2319805
210	0x3d20762a	0.03917519
211	0x3cd492b1	0.025948854
212	0xbcf51405	-0.029916773
213	0x3aa635b4	0.00126808
214	0xbd5eb55d	-0.05437218
215	0xbdb0b399	-0.086280055
216	0xbd054074	-0.03253217
217	0x3ddb1546	0.10697417
218	0xbdf8b0d9	-0.12143106
219	0xbe030422	-0.12794545
220	0x3dfd8bed	0.12380204
221	0xbdd29613	-0.10282531
222	0xbe17ff4b	-0.1484348
223	0xbe351a7d	-0.17685886
224	0xbd7b68ba	-0.061379172
225	0x3db9309a	0.09042473
226	0x3d554825	0.052070756
227	0xbcde86c0	-0.027163863
228	0xbb189a35	-0.0023285274
229	0x3e2ac3bf	0.16676234
230	0xbd7495eb	-0.059713285
231	0xbce0856a	-0.027407367
232	0x3dd0fc1f	0.10204338
233	0xbc249f04	-0.010047678
234	0xbd510af4	-0.051035836
235	0x3d45bfb8	0.04827854
236	0x3e0f5f35	0.14001162
237	0xbd91b040	-0.07113695
238	0x3c8bb40c	0.017053626
239	0x3c1093c3	0.008824292
240	0xbc8a0345	-0.016847262
241	0xbe06b0fd	-0.13153453
242	0xbd23c386	-0.039981388
243	0x3d9a745d	0.07541726
244	0x3db9c89e	0.09071468
245	0x3d3b25cc	0.045690343
246	0xbda5ce23	-0.08095958
247	0x3d5da081	0.054108147
248	0x3e1d6315	0.15369828
249	0x3dedf9f4	0.116199404
250	0xbc769f13	-0.015052575
251	0xbd6ae8c0	-0.057350874
252	0xbe4a4ae7	-0.19755135
253	0x3e180101	0.14844133
254	0xbd5a934e	-0.053363137
255	0xbd00f503	-0.03148366

encoder.1.bias f4 [32]
0	0xbb328e35	-0.0027245407
1	0xba8f195c	-0.0010917592
2	0xb9d402eb	-0.00040437965
3	0x3b00789c	0.0019603139
4	0x39b4f99c	0.0003451825
5	0xba72ecfd	-0.00092668814
6	0xbb0f2fd3	-0.0021848574
7	0xba3db4d5	-0.0007236724
8	0x3b8ef0d5	0.0043622055
9	0xba15ce93	-0.0005714681
10	0xb9905c1a	-0.0002753444
11	0xb9f0f25b	-0.00045956936
12	0x3b328fc2	0.002724633
13	0xb9497475	-0.00019212237
14	0x34bc9040	3.5122684e-07
15	0x3b0b3c94	0.0021245824
16	0x3a0ca24e	0.00053647615
17	0xba699b3e	-0.00089113775
18	0xb951bd44	-0.000200023
19	0x3a037ee1	0.000501616
20	0xbbb399e5	-0.005480992
21	0xbaae05ff	-0.0013276933
22	0x3ae63e74	0.001756622
23	0x3b2bda3f	0.0026222614
24	0xba4e4ec0	-0.0007870011
25	0xb9015aa7	-0.0001233617
26	0xb9a8976c	-0.00032156275
27	0xb94ba50f	-0.00019421078
28	0x3a1f8cdc	0.00060863583
29	0xb7322a3e	-1.0619462e-05
30	0xbb5f0186	-0.0034028008
31	0xbb3f45ab	-0.0029185812

encoder.4.weight f4 [64, 32, 3, 3]
0	0x3b8b76cb	0.0042561046
1	0x3dae3286	0.0850573
2	0x3dc6927d	0.09695909
3	0x3db05c33	0.086113356
4	0x3e1cba1f	0.15305375
5	0x3cbb14cf	0.02283707
6	0xbdc618b5	-0.09672681
7	0x3dd40669	0.10352785
8	0x3d615a70	0.05501789
9	0x3c5619a6	0.0130676385
10	0xbdfd1e6f	-0.1235932
11	0xbdc33697	-0.095318966
12	0x3ce542a0	0.02798587
13	0x3d580704	0.052741066
14	0x3b5fe1de	0.0034161727
15	0xbdabcb90	-0.08388436
16	0xba2264e4	-0.00061948434
17	0x3d9611c9	0.07327611
18	0x3daf05c5	0.08546022
19	0x3d3799fe	0.044824593
20	0x3d593ffc	0.053039536
21	0xbdab5a1f	-0.083667986
22	0x3ceef8e0	0.029171407
23	0x3e026074	0.12732106
24	0x3dbd1b47	0.09233718
25	0x3dbf7f36	0.093504354
26	0x3dc53cbe	0.09630726
27	0xbd22dca0	-0.039761186
28	0x3dcb739d	0.09934161
29	0xbdc660bf	-0.096864216
30	0xbd991278	-0.07474226
31	0xbdb56006	-0.08856206
32	0xbdba284b	-0.090897165
33	0x3da36a59	0.079792686
34	0x3e096ef0	0.13421226
35	0x3ce47ee3	0.027892536
36	0x3db991bb	0.09060999
37	0x3ccd3724	0.025050707
38	0x3d67d478	0.05659911
39	0x3cae3dbd	0.021269673
40	0x3d1b1a84	0.037867084
41	0x3db0e1c4	0.086368114
42	0xbdaedf7e	-0.085387215
43	0xbd4a4a59	-0.04938731
44	0xbd53f7bd	-0.051749934
45	0xbd834266	-0.06409149
46	0x3c99cc9e	0.018774327
47	0xbd9a149d	-0.07523463
48	0x3e6b1ddd	0.2296061
49	0x3dd8a920	0.10579133
50	0x3d09803a	0.033569552
51	0x3cdc3e9f	0.026885329
52	0xbdfe3415	-0.124122776
53	0xbd377aa1	-0.044794682
54	0x3c6fa331	0.01462631
55	0x3d858312	0.0651914
56	0xbd5bac5c	-0.05363117
57	0x3da13efb	0.07873341
58	0x3b7d08f6	0.0038610077
59	0xbd738c0c	-0.05945973
60	0xbde31cf0	-0.11089504
61	0xbd12276f	-0.035682138
62	0xbda87166	-0.08224754
63	0xbd7672fa	-0.060168244
64	0xbd977a36	-0.07396357
65	0xbd0255e8	-0.031820208
66	0xbc704d46	-0.014666861
67	0xbd1caede	-0.038252704
68	0xbd64f55e	-0.055898063
69	0x3d87172b	0.06596216
70	0xbdf159ac	-0.11784682
71	0x3c4f1e85	0.012641554
72	0xbd95e5ad	-0.07319198
73	0x3d7a0784	0.061042324
74	0x3c837e0f	0.01605132
75	0x3b6a6fc0	0.0035772175
76	0x3e1eaa1b	0.15494578
77	0x3d9682cc	0.07349166
78	0xbe332490	-0.17494416
79	0x3cacc2eb	0.021089038
80	0xbc381e4e	-0.011237694
81	0xbd6425ca	-0.0557001
82	0x3e2ed52d	0.17073508
83	0xbc257ff4	-0.010101307
84	0x3ddab178	0.10678381
85	0x3d34bc0f	0.04412466
86	0x3df7ec98	0.121056736
87	0x3e0f45b6	0.13991436
88	0x3d042e2a	0.032270588
89	0xbdde1b37	-0.108450346
90	0xbc7091d9	-0.01468321
91	0x3e3ab10f	0.18231605
92	0xbce2c923	-0.0276838
93	0xbbc7a8ea	-0.006093134
94	0x3c948c5f	0.01813334
95	0x3d2fff2f	0.04296797
96	0xbdccf0f5	-0.100068964
97	0x3de0158b	0.10941609
98	0xbca4ddef	-0.020125357
99	0x3d068742	0.032843836
100	0x3d04038f	0.032229956
101	0xbd6efb8b	-0.05834536
102	0xbdb5f61f	-0.088848345
103	0xbcfc673f	-0.03081095
104	0x3b7a289d	0.003817118
105	0xbd7a5b67	-0.061122324
106	0x3cc2ae5a	0.023764778
107	0xbdafeb02	-0.08589746
108	0x3ac30347	0.0014878296
109	0xbe0012b6	-0.12507138
110	0xbdb69d3f	-0.08916711
111	0xbc3287d1	-0.010896639
112	0x3d1b5ada	0.03792844
113	0xbcfa516d	-0.030556405
114	0x3d559827	0.052147057
115	0x3a3094f0	0.00067360606
116	0xbdf658ad	-0.12028632
117	0xbdde938e	-0.108679876
118	0xbc97a4e8	-0.01851125
119	0x3be8971c	0.0070980918
120	0xbc0871c8	-0.008327909
121	0x3ca90a25	0.02063472
122	0xbd40f168	-0.047105223
123	0x3d042637	0.032263007
124	0x3d2a04fe	0.041508667
125	0x3d5637de	0.052299373
126	0x3db21cfc	0.086969346
127	0x3c195e4c	0.009360861
128	0xbd0007cd	-0.03125744
129	0x3defa1ab	0.117007576
130	0x3cda53f7	0.026651366
131	0x39cc42f2	0.0003895979
132	0xbd068d32	-0.032849498
133	0xbc0b34a6	-0.008496439
134	0xbd14d7e6	-0.03633871
135	0xbd321583	-0.043477546
136	0xbc760ee3	-0.015018198
137	0x3ba3d54f	0.0049997936
138	0xbca23b56	-0.019803684
139	0xbde8c697	-0.11366003
140	0xbc936d9a	-0.017996598
141	0xbcec7859	-0.02886598
142	0xbcf7e0a6	-0.030258488
143	0xbc1a5efd	-0.009422061
144	0x3d5fab6e	0.054606847
145	0xbd96238b	-0.07330998
146	0x3ce6f6a9	0.028193789
147	0xbbee9244	-0.00728062
148	0xbe0a13a1	-0.1348405
149	0x3c3d9676	0.011571517
150	0x3dba9787	0.09110933
151	0xbdba2df3	-0.09090795
152	0x3d0c694a	0.0342801
153	0xbdeeb2be	-0.11655186
154	0x3cb430ae	0.021995869
155	0xbe259162	-0.1616874
156	0xbaa6ab30	-0.0012715813
157	0xbe0b263e	-0.13588807
158	0xbd9411a8	-0.0722993
159	0xbddf7b3c	-0.10912177
160	0x3c84659f	0.016161738
161	0xbd583cb2	-0.05279226
162	0xbda5fb5c	-0.081045836
163	0xbde18484	-0.110116035
164	0x3c193057	0.009349904
165	0x3d2330b8	0.039841384
166	0x3c92d106	0.017921936
167	0x3d729e39	0.059232924
168	0x3cdff2da	0.02733748
169	0xbc9b376f	-0.018947331
170	0x3c00e1a1	0.007866294
171	0xbc45c54b	-0.012070964
172	0xbd215181	-0.03938437
173	0xbdba68bd	-0.091020085
174	0xbd99c8f7	-0.07509034
175	0xbd89e385	-0.06732849
176	0x3ca6b0d4	0.02034799
177	0xbe0bf6f3	-0.13668422
178	0x3daa1483	0.083046935
179	0x3d0f77a2	0.0350262
180	0x3d9ef10d	0.077608205
181	0xbdcb8d3e	-0.09939049
182	0x3dbe93f8	0.093055665
183	0xbe23ead1	-0.16007544
184	0xbd7e0502	-0.062016495
185	0x3d35e3c2	0.04440666
186	0xb949e3fc	-0.00019253785
187	0xbd303a2c	-0.043024227
188	0xbdc3f022	-0.09567286
189	0xbe044d53	-0.12920122
190	0xbd8d7e21	-0.06908823
191	0x3e5baf87	0.21453677
192	0xbd69d415	-0.057087023
193	0xbd5e7c0d	-0.054317523
194	0x3cbe7a2b	0.023251614
195	0xbddb1005	-0.10696415
196	0xbe6d7439	-0.23188867
197	0x3e3580b8	0.17724884
198	0xbd5b37cd	-0.053520013
199	0xbc2a99a1	-0.010412605
200	0xbd9417a1	-0.07231069
201	0x3e555bd7	0.20835815
202	0xbd275ff2	-0.040862985
203	0x3a99fb3e	0.001174785
204	0xbcbd61d0	-0.02311793
205	0x3c0483f6	0.008088103
206	0x3df82391	0.12116159
207	0x3dc00292	0.0937549
208	0xbbd752e4	-0.0065711606
209	0x3e4397ee	0.19100925
210	0xbe0e989d	-0.13925405
211	0xb9d50a54	-0.0004063422
212	0xbc415349	-0.011799642
213	0x3d06335a	0.032763816
214	0x3d92762e	0.07151447
215	0xbd7fa2fc	-0.062411293
216	0xbd93b3ee	-0.07212053
217	0xbd0e6173	-0.034760904
218	0x3e18c336	0.14918217
219	0x3d25ad40	0.040448427
220	0x3dcd10c9	0.10012967
221	0x3a9be255	0.0011893014
222	0xbdcf5648	-0.10123879
223	0x3d09c4ca	0.03363494
224	0x3d303067	0.04301491
225	0xbd1793a1	-0.037006024
226	0x3dcbe7b7	0.099563055
227	0x3de8c0c0	0.11364889
228	0x3e1e4fdd	0.15460153
229	0x3c8f9849	0.01752867
230	0xbd13c7fb	-0.036079388
231	0xbdffa8e5	-0.12483386
232	0xbd841f9f	-0.06451344
233	0x3d893d91	0.06701196
234	0x3d44c398	0.048038095
235	0x3d7870ff	0.060654636
236	0xbe450958	-0.19241846
237	0xbd733f65	-0.05938663
238	0x3d79e3ee	0.061008386
239	0x3dab44f6	0.08362763
240	0xbd511101	-0.051041607
241	0x3c7c26e0	0.015390128
242	0x3c9df534	0.019281961
243	0xbe393074	-0.1808489
244	0x3cdb8781	0.026798012
245	0xbe47da7c	-0.19516939
246	0xbe06af89	-0.13152899
247	0x3dd36d12	0.10323538
248	0xbdbc6c3d	-0.09200332
249	0x3db8c93e	0.09022759
250	0xbd70b99f	-0.058770772
251	0xbce0bae1	-0.02743286
252	0x3e377916	0.17917284
253	0xbce27872	-0.027645323
254	0xbdc95abd	-0.0983176
255	0x3d4d986f	0.0501942

encoder.4.bias f4 [64]
0	0x3b0adfc7	0.002119051
1	0x3b00d83f	0.0019660143
2	0xba9f1995	-0.0012138361
3	0xb91e57a7	-0.00015100707
4	0xba6345ba	-0.0008669753
5	0xb9912b87	-0.00027688986
6	0xb86aa0d1	-5.593972e-05
7	0xba52fe69	-0.00080487743
8	0x3a435529	0.00074513495
9	0xb8c53c66	-9.404942e-05
10	0xb9f088bd	-0.00045878245
11	0xba5c58b0	-0.00084055495
12	0xb9b4fb0e	-0.00034519326
13	0xb8435644	-4.6571964e-05
14	0xbac49015	-0.0014996553
15	0xb9eaef00	-0.00044810027
16	0x3b535134	0.0032244446
17	0x3ac74074	0.0015201704
18	0xba929ab9	-0.0011185027
19	0xba147337	-0.00056629203
20	0x39b250df	0.0003401106
21	0xb990e004	-0.00027632725
22	0xba3e8484	-0.0007267671
23	0x399fe9f5	0.00030501155
24	0xb9f67c21	-0.0004701326
25	0x397be9ba	0.00024024295
26	0x398b37c3	0.00026553692
27	0xb930a11d	-0.00016844687
28	0xbb3071b0	-0.0026923232
29	0xba45bade	-0.0007542799
30	0xbb0303e3	-0.001999133
31	0xbb0cc5f1	-0.0021480287
32	0xba0ebcc0	-0.0005444996
33	0xb9b61e4d	-0.0003473632
34	0x3a3c8edb	0.0007192918
35	0xba9e5ec7	-0.0012082689
36	0x3a462901	0.00075592106
37	0xbb1f2df3	-0.0024288862
38	0xbb409995	-0.0029388417
39	0xbb379bbc	-0.002801641
40	0x3a46f4c2	0.00075895723
41	0xbb32d74f	-0.0027288978
42	0xba902a58	-0.0010998948
43	0x392a9be0	0.00016270531
44	0x38d67a87	0.00010227138
45	0xbae961d7	-0.0017805648
46	0xbaf9e164	-0.0019064364
47	0x3a604548	0.00085552456
48	0x00000000	0.0
49	0xb9795d67	-0.00023781286
50	0xbb04a5e6	-0.0020240485
51	0x3a8722c7	0.0010310047
52	0xbb18dda3	-0.0023325465
53	0xb9b77f7a	-0.00034999457
54	0xba53906a	-0.00080705306
55	0x3b02476b	0.0019878994
56	0xb9ba3b13	-0.00035520698
57	0xbabb06be	-0.0014268977
58	0x39e3358d	0.00043336712
59	0xb99545a5	-0.00028471384
60	0xb9d47f71	-0.00040530742
61	0xbaaf3ce3	-0.0013369586
62	0xb9391e6f	-0.00017654312
63	0xb8c44b68	-9.360054e-05

actor.0.weight f4 [64, 32, 3, 3]
0	0xbd14baf4	-0.036311105
1	0xbd5f5008	-0.054519683
2	0x3bc583d3	0.0060276776
3	0x3c6b2653	0.014352399
4	0xbb292116	-0.0025807074
5	0x3d9e1a60	0.077198744
6	0x3c24e2ac	0.010063808
7	0x3d0a73eb	0.033801954
8	0x3b838839	0.0040140417
9	0xbd828c89	-0.06374461
10	0x3bf742e8	0.0075458176
11	0xbd3e0198	-0.04638824
12	0x3da21121	0.07913423
13	0x3abe54a9	0.001452108
14	0xbd923b31	-0.07140196
15	0xbcbcedd0	-0.023062617
16	0xbde3c247	-0.1112104
17	0x3c4c4231	0.012466953
18	0xbca70a7c	-0.020390742
19	0xbbcd216b	-0.0062600872
20	0xbe0da6d9	-0.13833179
21	0xbc13dec3	-0.0090252785
22	0xbd801916	-0.06254785
23	0x3d729c3b	0.059231024
24	0x3dc94569	0.09827692
25	0x3ca38a93	0.019963538
26	0xbd6c214a	-0.057648934
27	0xbdd1c343	-0.10242321
28	0x3d50eb9b	0.05100594
29	0xbd2661bc	-0.04062055
30	0x3e0208d5	0.12698682
31	0x3d72d14d	0.059281636
32	0xbd97a215	-0.074039616
33	0xbd75e52e	-0.060033016
34	0x3d11cc3b	0.03559516
35	0xbdc94a87	-0.09828668
36	0xbd9870a2	-0.07443358
37	0xbdea8ba4	-0.114524156
38	0xbe57a894	-0.21060401
39	0xbdc256bf	-0.09489202
40	0xbe099812	-0.13436916
41	0x3db70f45	0.08938459
42	0x3d116630	0.035497844
43	0xbd24383a	-0.040092684
44	0xbd227ab1	-0.03966779
45	0xbd58629d	-0.05282842
46	0x3e477f41	0.19482137
47	0x3d2772b4	0.040880874
48	0xbd97a17f	-0.0740385
49	0xbd9b138d	-0.075720884
50	0xba9f5e5d	-0.001215886
51	0xbdbd0ffb	-0.09231564
52	0x3d103c7d	0.035213936
53	0xbdbde10b	-0.09271439
54	0xbd88833a	-0.066656545
55	0xbdebf3a7	-0.11521082
56	0x3c36a5d8	0.011147939
57	0xbbe3ad2d	-0.0069481344
58	0xbdfcb755	-0.12339655
59	0x3d9e9ac4	0.07744363
60	0xbe0c1f70	-0.13683867
61	0x3bb6b258	0.0055754595
62	0xbca23b1a	-0.019803572
63	0xbd911609	-0.07084281
64	0xbce8c005	-0.028411875
65	0x3da0eaf4	0.07857314
66	0x3d237573	0.03990693
67	0xbdda3473	-0.10654535
68	0xbd1ef6b3	-0.03880949
69	0x3d7d658a	0.061864413
70	0x3da8e86a	0.082474545
71	0x3c4eea50	0.012629107
72	0xbe37ad69	-0.17937244
73	0x3d555eff	0.05209255
74	0xbdf4d963	-0.11955526
75	0x3c7d968c	0.015477788
76	0xbe0d7689	-0.13814749
77	0x3d96f454	0.07370821
78	0x3cf667fc	0.03007888
79	0x3be1824d	0.006881988
80	0x3ccb63f6	0.024827939
81	0x3da0c2ab	0.0784963
82	0xbde26eed	-0.11056314
83	0xbe1146c9	-0.14187159
84	0xbd870810	-0.06593335
85	0xbd4f6527	-0.050633576
86	0xbe3ef1ff	-0.18647002
87	0x3d76fbca	0.06029872
88	0xbdf78b02	-0.120870605
89	0x3cf45ad9	0.029828476
90	0xbdbe00b8	-0.09277481
91	0x3d16a24e	0.03677588
92	0x3d155d3c	0.03646587
93	0x3da2eb8b	0.079550825
94	0x3d84efc3	0.064910434
95	0x3ddd425b	0.10803672
96	0x3e184f59	0.14874019
97	0xbe0d92f8	-0.13825595
98	0xbd314cff	-0.04328632
99	0xbdfe5d1a	-0.124201015
100	0x3da68f87	0.081328444
101	0x3d85f114	0.06540123
102	0x3d89e52a	0.06733163
103	0x3bf9e811	0.0076265414
104	0x3ca1c386	0.019746553
105	0x3d38e79b	0.04514275
106	0xbdcb01b9	-0.09912438
107	0x3cbdeb44	0.023183472
108	0x3cf55c8b	0.029951354
109	0xbcfaaf84	-0.03060127
110	0x3d211122	0.03932298
111	0xbd10a915	-0.0353175
112	0x3ddd393a	0.10801931
113	0xbd8a3499	-0.067483135
114	0x3d8c6741	0.068556316
115	0x3bca3cb3	0.0061717867
116	0x3d0cdb97	0.034389105
117	0xbe1c23d6	-0.15248045
118	0x3caa9a88	0.02082564
119	0x3d1a609a	0.037689783
120	0x3c8f4566	0.017489146
121	0xbd3d4fd9	-0.046218727
122	0xbccf4377	-0.025300724
123	0x3d07d184	0.033158794
124	0x3e5c0d0f	0.21489356
125	0x3dd03d32	0.10167922
126	0xbdf3d80b	-0.11906441
127	0xbdbf7f62	-0.09350468
128	0xbe12595c	-0.142919
129	0xbdaac9ae	-0.083392486
130	0x3c675a1a	0.014120603
131	0x3e4bbb02	0.19895557
132	0x3d8c4a66	0.06850128
133	0x3d81d83f	0.06340074
134	0xbd7d35de	-0.06181895
135	0xbd229b58	-0.03969893
136	0x3d864cfb	0.065576516
137	0x3dbc69e5	0.09199885
138	0x3e35560a	0.17708603
139	0xbd299991	-0.041406218
140	0x3bd6cc1c	0.0065550935
141	0xbdf74b36	-0.12074892
142	0xbce1fd6d	-0.027586663
143	0xbe36cafc	-0.1785087
144	0x3ca0fdf2	0.01965234
145	0x3c5dfb8f	0.013548746
146	0x3e3918f1	0.1807592
147	0xbd433317	-0.047656145
148	0x3e08e364	0.13367993
149	0x3db29a15	0.08720795
150	0x3ca9993e	0.020702954
151	0xbd05f6ee	-0.032706194
152	0x3d226a5d	0.039652217
153	0xbe993ba5	-0.29928318
154	0x3d6cbe6e	0.057798795
155	0xbe19e04c	-0.15026969
156	0x3d905c06	0.07048802
157	0x3e071ba3	0.13194136
158	0x3bcd1761	0.0062588905
159	0xbcd1182c	-0.025524221
160	0xbca76433	-0.02043352
161	0x3ddcf74f	0.10789358
162	0x3d78d27f	0.06074762
163	0xbd20e49c	-0.03928052
164	0xbd8ed7f1	-0.06974781
165	0x3b9cf9c8	0.0047905184
166	0xbda74659	-0.081677146
167	0x3dc038f2	0.093858615
168	0x3d7e9ef7	0.06216332
169	0xbe1d761f	-0.15377091
170	0x3d1323f4	0.03592296
171	0xbde8be2c	-0.113643974
172	0xbd719af4	-0.058985665
173	0x3c21266b	0.00983582
174	0xbd94dc76	-0.07268612
175	0x3e19a8b8	0.15005767
176	0x3d4ce393	0.05002172
177	0x3d8cb63f	0.06870698
178	0x3e0e7b0f	0.1391413
179	0x3d311b0e	0.043238692
180	0xbd909fea	-0.07061751
181	0xbd45f18d	-0.048326064
182	0xbdd66a6a	-0.104695156
183	0x3d005a06	0.031335853
184	0xbd68ca94	-0.05683382
185	0xbc5eeeb0	-0.013606712
186	0xbdc44b79	-0.09584708
187	0xbd98ca8d	-0.074605085
188	0xbcb3da85	-0.021954784
189	0xbdcbc305	-0.099493064
190	0x3d928b09	0.07155425
191	0x3d87bd9a	0.066279605
192	0x3d932c38	0.071861684
193	0x3e0930f1	0.13397576
194	0x3d799c55	0.060940105
195	0x3ce2b2cc	0.027673148
196	0xbdadf1c6	-0.0849338
197	0xbdb02d28	-0.08602363
198	0x3da24f00	0.07925224
199	0xbc947ea4	-0.018126793
200	0x3c71f627	0.01476816
201	0x3c731668	0.014836885
202	0x3c7807f6	0.015138617
203	0xbdb34213	-0.08752837
204	0xbd89bbd9	-0.06725282
205	0xbddd2d55	-0.10799662
206	0x3dc81a08	0.0977059
207	0xbdb7b1d1	-0.08969463
208	0xbcbd48ee	-0.023106065
209	0x3c93288f	0.017963676
210	0xbdb65e28	-0.08904678
211	0x3d95cf5b	0.073149405
212	0x3c27df22	0.01024607
213	0x3d2f682a	0.042823948
214	0xbdccc30c	-0.0999814
215	0x3d8af585	0.067851104
216	0x3d3b566a	0.045736708
217	0x3cd45591	0.025919707
218	0xbbda4c88	-0.0066619553
219	0x3ce5682d	0.028003776
220	0xbdad42c7	-0.084600024
221	0xbafa12e2	-0.0019079114
222	0xbda14f24	-0.07876423
223	0x3dea7a3a	0.11449094
224	0x3d078220	0.03308308
225	0xbdaed2d5	-0.08536307
226	0x3dfbe23a	0.12299009
227	0x3cfe9cf3	0.031080699
228	0xbd98794a	-0.07445009
229	0x3e59b24b	0.2125942
230	0x3e023bd7	0.1271814
231	0x3e04c71e	0.12966582
232	0x3ce8fc1f	0.028440533
233	0xbd89929d	-0.067174174
234	0x3d440805	0.04785921
235	0xbce92da8	-0.028464153
236	0x3d055f99	0.032561872
237	0xbbed3c8a	-0.007239883
238	0xbe05f11b	-0.13080256
239	0x3d1786c3	0.036993753
240	0xbd6ec7d6	-0.058296047
241	0xbc3fcf72	-0.011707174
242	0xbd5854ac	-0.052815124
243	0x3d944a6d	0.07240758
244	0x3dc2ab1e	0.09505294
245	0x3cc39756	0.023875874
246	0xbcf47f42	-0.029845838
247	0xbdde077f	-0.108412735
248	0x3dedb009	0.11605842
249	0x3c6eee8c	0.014583241
250	0xbd238710	-0.039923728
251	0x3ddc69f5	0.10762397
252	0x3e0a31bb	0.13495533
253	0x3bf6b847	0.007529292
254	0x3da5f01d	0.081024386
255	0xbc09e833	-0.008417177

actor.0.bias f4 [32]
0	0x39339215	0.0001712519
1	0xbb6b87f3	-0.0035939186
2	0x3b7a5d47	0.003820257
3	0x3ab106f3	0.0013506099
4	0x3a18caf5	0.0005828583
5	0xbafcf05d	-0.0019297708
6	0x37b8995a	2.200592e-05
7	0xb981888a	-0.00024706527
8	0x39fe825a	0.00048543775
9	0xb93ec544	-0.00018193299
10	0xb9923629	-0.00027887642
11	0x3b43a726	0.0029854267
12	0xbaeab770	-0.0017907452
13	0xb9b21b21	-0.00033971018
14	0xba771d78	-0.00094266934
15	0x3ab23e67	0.001359892
16	0x3aef021d	0.0018234883
17	0xba40090c	-0.0007325567
18	0x3951d241	0.00020010119
19	0xb9a45e05	-0.00031350568
20	0x39f91ab0	0.00047512865
21	0x384603d3	4.721044e-05
22	0xbad343f1	-0.001611827
23	0x3a991ed7	0.0011682165
24	0x3b0a010d	0.0021057755
25	0x3a44a194	0.00075008837
26	0xba6b60c8	-0.000897896
27	0x364516bc	2.936852e-06
28	0xbbb15dc8	-0.005412791
29	0xbabeae72	-0.0014547838
30	0xbaeae2c4	-0.0017920365
31	0x3b5751ec	0.0032855226

actor.2.weight f4 [32, 78, 3, 3]
0	0x3daf30ba	0.08554216
1	0xbd8eb5b6	-0.06968252
2	0xbc9ed9b2	-0.019390915
3	0xbd98adb5	-0.07455007
4	0xbc5e1b5d	-0.013556329
5	0x3c050097	0.008117816
6	0x3d8fed6c	0.070277065
7	0xbc9e29a1	-0.01930696
8	0x3b411bcb	0.0029466029
9	0xbe02ef50	-0.12786603
10	0x3c2d35bf	0.010571896
11	0xbd21a461	-0.039463405
12	0x3bf68c36	0.0075240387
13	0xbc94ea06	-0.018177997
14	0x3e0a551e	0.13509032
15	0xbceb75dd	-0.028742725
16	0x3cd82512	0.026384864
17	0xbc3f908f	-0.01169218
18	0x3d61ec88	0.055157214
19	0xbe1fe52b	-0.15614764
20	0x3cb5f620	0.022212088
21	0xbd754dd4	-0.059888676
22	0xbc87ccc6	-0.016577136
23	0x3dbb5d8e	0.091487035
24	0x3dba0203	0.09082415
25	0x3e10e586	0.14150056
26	0x3d090338	0.033450335
27	0xbdbcd73a	-0.09220739
28	0x3d2f8221	0.04284871
29	0x3d9a1226	0.07522993
30	0x3c8d07c5	0.017215619
31	0xbdb52ede	-0.0884683
32	0xbd357370	-0.044299543
33	0x3cc411f8	0.02393435
34	0x3cef5f49	0.02922024
35	0x3cb29234	0.02179823
36	0x3d057bc6	0.032588743
37	0xbd164f03	-0.036696445
38	0xbd4ca288	-0.04995969
39	0x3d173f7f	0.03692579
40	0xbca3d699	-0.01999979
41	0xbcbcfe64	-0.023070522
42	0xbd07d226	-0.033159398
43	0x3cc51164	0.024056144
44	0xbd873c1d	-0.066032626
45	0x3d15fa21	0.036615495
46	0x3dc6968f	0.096966855
47	0xbdb79ffb	-0.08966061
48	0xbdeb6cd8	-0.1149537
49	0xbd86161c	-0.06547186
50	0x3d48c1c7	0.049012925
51	0xbd806064	-0.06268385
52	0xbda210a2	-0.07913329
53	0xbb52158f	-0.0032056307
54	0xbb8c8c1b	-0.004289163
55	0xbc4fa3c2	-0.01267332
56	0x3d1bb7fe	0.038017265
57	0xbdccc367	-0.099982075
58	0x3c4a1a1f	0.012335329
59	0xbbc2d3df	-0.005945667
60	0x3d059c0c	0.03261952
61	0xbd0b8c36	-0.034069262
62	0x3d81a9eb	0.063312374
63	0xbd851d9d	-0.06499789
64	0xbd256799	-0.040382
65	0x3b9625b3	0.004582131
66	0x3d0b7889	0.0340505
67	0x3d905551	0.07047523
68	0x3d9741cb	0.07385596
69	0xbd93a0be	-0.072083935
70	0x3dbd4c58	0.09243077
71	0xbda31e7c	-0.07964799
72	0xbd742dfd	-0.05961417
73	0x3bada4a8	0.0052991696
74	0xbc2be43f	-0.01049143
75	0xbd9b00f8	-0.07568544
76	0xbdc422fe	-0.09576987
77	0xbd63f6d0	-0.0556553
78	0x3d11683e	0.035499804
79	0x3cada18e	0.0211952
80	0xbc517de8	-0.012786366
81	0x3d13af54	0.036055878
82	0x3b867bcb	0.0041041127
83	0xbcfc0436	-0.030763727
84	0xbcdac433	-0.026704883
85	0x3d852dea	0.06502898
86	0xbc977504	-0.018488415
87	0xbd94500b	-0.072418295
88	0xbd71527d	-0.058916558
89	0xbc8d7d7b	-0.017271748
90	0xbc901e6f	-0.017592637
91	0x3d7fe4f3	0.062474202
92	0x3df6874a	0.12037523
93	0x3d1ae21b	0.037813287
94	0x3ccb5d99	0.024824904
95	0x3d55c113	0.052186083
96	0x3cf121e0	0.029435098
97	0xbd944381	-0.07239438
98	0xbc9f9a6f	-0.01948282
99	0x3dda243e	0.10651444
100	0x3d14d6ab	0.036337536
101	0xbd6d1a35	-0.05788632
102	0x3d17bde5	0.037046332
103	0x3c5a3fed	0.013320905
104	0xbd9192e7	-0.071080975
105	0x3db87ddf	0.09008383
106	0x3d1695ca	0.036763944
107	0xbd1c88ab	-0.038216274
108	0xbd28e66b	-0.04123537
109	0xbd4815ce	-0.04884892
110	0x3ddcdacb	0.10783919
111	0xbc8514a6	-0.016245198
112	0xbd03c357	-0.032168712
113	0xbd65cc8e	-0.05610328
114	0x3ddb4373	0.10706224
115	0x3d016def	0.03159898
116	0xbbc3110f	-0.0059529613
117	0x3d27462d	0.04083841
118	0x3d6a98a2	0.05727447
119	0xbd303463	-0.04301871
120	0xbcbdff9c	-0.023193173
121	0x3cda4e37	0.026648624
122	0xbd3ea821	-0.04654706
123	0x3df6e600	0.12055588
124	0xbcfb4e6e	-0.030677047
125	0x3cd5080d	0.026004815
126	0xbd137ee6	-0.03600969
127	0x3d2d728f	0.04234558
128	0xbdea91cf	-0.11453592
129	0x3d1eedd2	0.038801022
130	0xbcb28984	-0.021794088
131	0xbc1e2e91	-0.009654657
132	0x3bd2dc99	0.0064349887
133	0x3cc34ac9	0.023839371
134	0x3cbf2f16	0.023337882
135	0x3dbb8356	0.0915591
136	0x3d029e3a	0.031889178
137	0x3cd3936b	0.02582713
138	0xbd21023f	-0.039308783
139	0x3c8dddb4	0.01731763
140	0x3c16f7f8	0.009214394
141	0xbc383ce6	-0.011244988
142	0x3c8d4d13	0.017248666
143	0x3cb0ac09	0.021566408
144	0xbc26797b	-0.010160799
145	0xbd5ceb73	-0.05393548
146	0xbd5d57ee	-0.054038934
147	0x3d7b479c	0.06134759
148	0x3d043803	0.03227998
149	0xbd097f81	-0.033568863
150	0x3d9b84c5	0.07593683
151	0x3aee1bab	0.0018166205
152	0xbd1afbc5	-0.037837762
153	0xbdd87425	-0.10569028
154	0xbb8773b3	-0.0041336655
155	0xbc19ad0f	-0.009379639
156	0xbd8c244c	-0.068428606
157	0xbbf0f2b1	-0.00735315
158	0x3c78a9c3	0.015177193
159	0x3d762910	0.060097754
160	0x3d532e84	0.051558033
161	0x3cf83984	0.030300863
162	0xbde8a36d	-0.11359296
163	0xbcb09248	-0.021554127
164	0x3d041beb	0.032253187
165	0xbc4d63ec	-0.01253603
166	0x3da9194b	0.082567774
167	0xbcad2f42	-0.021140698
168	0x3d8c3ddb	0.068477355
169	0x3cf44173	0.029816365
170	0xbd3856a3	-0.0450045
171	0xbcc67977	-0.02422784
172	0x3d98065d	0.07423089
173	0x3dd00830	0.10157812
174	0x3c31428a	0.010819087
175	0x3d1eca33	0.03876705
176	0x3d35de5a	0.044401504
177	0xbcf3619e	-0.029709633
178	0x3d61214f	0.054963406
179	0xbd52ce06	-0.05146601
180	0xbd2a4fb3	-0.041579913
181	0x3ce06bc4	0.027395137
182	0x3d471cfe	0.048611633
183	0x3c08fd77	0.008361212
184	0x3cc66a30	0.024220556
185	0x3de25e30	0.11053121
186	0xbd053ea8	-0.032530457
187	0xbbb6df23	-0.005580799
188	0xbd60d582	-0.054891117
189	0xbd9ddf9f	-0.07708668
190	0xbd7d8c81	-0.061901573
191	0xbd202b98	-0.039104074
192	0x3d81df10	0.06341374
193	0xbe1a4704	-0.15066153
194	0x3d5c2b74	0.053752378
195	0xbc046161	-0.008079858
196	0x3c38e779	0.011285656
197	0xbb88c366	-0.004173684
198	0xbd64c1fc	-0.05584906
199	0xbc428aca	-0.01187391
200	0x3dcf569f	0.101239435
201	0x3bb34788	0.0054711737
202	0x3cded4fd	0.02720117
203	0xbd62cc46	-0.05537059
204	0x3d07045f	0.032963153
205	0x3caebbdf	0.021329818
206	0x3d547fd7	0.05187973
207	0xbc560631	-0.013063
208	0x3d8d4d6a	0.06899531
209	0xbd498e5f	-0.04920804
210	0xbc29df46	-0.010368174
211	0x3bcd31db	0.0062620468
212	0x3ca071fa	0.019585598
213	0x3cfafb2b	0.030637344
214	0x3cbc49d2	0.022984419
215	0x3d9f36b9	0.077741094
216	0x3cebc185	0.0287788
217	0xbcca6ac6	-0.024709117
218	0x3d6fa1c7	0.058503892
219	0xbd2d613b	-0.042329054
220	0xbcd1e1a0	-0.025620282
221	0xbd841a62	-0.064503446
222	0x3c66081b	0.014040018
223	0xbc87462e	-0.016512956
224	0x3c1f6cce	0.009730531
225	0xbd2a3394	-0.041553095
226	0x3d0996f6	0.033591233
227	0xbc7f5b20	-0.015585691
228	0x3cc37e7e	0.023864027
229	0xbb227775	-0.002479044
230	0xbc1ae45a	-0.009453857
231	0x3d41007d	0.047119606
232	0xbc20c5ae	-0.0098127555
233	0xbc8622a7	-0.016373945
234	0xbb900804	-0.004395487
235	0xbd9e033c	-0.07715461
236	0xbd494149	-0.049134526
237	0x3db93851	0.090439446
238	0x3d575097	0.05256709
239	0xbc1b58bf	-0.009481608
240	0x3cd3d82f	0.02585992
241	0x3d2eaa5c	0.042642936
242	0xbaee671a	-0.0018188686
243	0xbd46bfc3	-0.048522722
244	0xbda4e0e3	-0.08050706
245	0xbc037111	-0.008022563
246	0xbd61b93e	-0.0551083
247	0xbd84f500	-0.064920425
248	0xbd8cdf85	-0.068785705
249	0x3d37fccc	0.04491882
250	0xbcb73555	-0.022364298
251	0xbca972fb	-0.02068471
252	0x3d591205	0.0529957
253	0xbcbc3cbb	-0.022978177
254	0xbd1ca2c8	-0.038241178
255	0xbc79fc10	-0.01525785

actor.2.bias f4 [78]
0	0xbb7a9c7e	-0.003824025
1	0x3b462462	0.0030234088
2	0xbb4f2566	-0.0031607985
3	0x3ad5744e	0.0016285272
4	0xba745282	-0.0009320156
5	0x3bc204fc	0.0059210043
6	0x39823e36	0.00024841883
7	0xbb1058a7	-0.0022025497
8	0x3a822051	0.0009927844
9	0xb93c8bbc	-0.00017981132
10	0x00000000	0.0
11	0x00000000	0.0
12	0x00000000	0.0
13	0x00000000	0.0
14	0x00000000	0.0
15	0x00000000	0.0
16	0x00000000	0.0
17	0x00000000	0.0
18	0xb9b4ccd8	-0.00034484896
19	0xba74354f	-0.0009315805
20	0xb90732cd	-0.00012893528
21	0x3a8ac2bd	0.0010586601
22	0x00000000	0.0
23	0x00000000	0.0
24	0x00000000	0.0
25	0x00000000	0.0
26	0x00000000	0.0
27	0x00000000	0.0
28	0x00000000	0.0
29	0x00000000	0.0
30	0x00000000	0.0
31	0x00000000	0.0
32	0x00000000	0.0
33	0x00000000	0.0
34	0x00000000	0.0
35	0x00000000	0.0
36	0x00000000	0.0
37	0x00000000	0.0
38	0x00000000	0.0
39	0x00000000	0.0
40	0x00000000	0.0
41	0x00000000	0.0
42	0x00000000	0.0
43	0x00000000	0.0
44	0x00000000	0.0
45	0x00000000	0.0
46	0x3aec75a7	0.0018040434
47	0x00000000	0.0
48	0x00000000	0.0
49	0x00000000	0.0
50	0x00000000	0.0
51	0x00000000	0.0
52	0x39f2b2e9	0.00046291135
53	0x00000000	0.0
54	0xbac5d6de	-0.0015093943
55	0x00000000	0.0
56	0x00000000	0.0
57	0x00000000	0.0
58	0x00000000	0.0
59	0x00000000	0.0
60	0x3978f7c6	0.00023743426
61	0x00000000	0.0
62	0x00000000	0.0
63	0x00000000	0.0
64	0x00000000	0.0
65	0x00000000	0.0
66	0x00000000	0.0
67	0x00000000	0.0
68	0x00000000	0.0
69	0x00000000	0.0
70	0x00000000	0.0
71	0x00000000	0.0
72	0x00000000	0.0
73	0x00000000	0.0
74	0x00000000	0.0
75	0x00000000	0.0
76	0x00000000	0.0
77	0x00000000	0.0

critic.1.weight f4 [128, 1024]
0	0xbd24f769	-0.04027501
1	0xbb553485	-0.0032532525
2	0x3d6482a4	0.05578865
3	0x3c75fe54	0.01501425
4	0x3d8b5c33	0.06804695
5	0x3b166a14	0.002295141
6	0xbbf2c37f	-0.007408559
7	0xbd29a4cf	-0.04141694
8	0x3cc49d6a	0.024000842
9	0xbc99a1a7	-0.01875384
10	0x3d269fc6	0.040679716
11	0xbc849e1a	-0.01618867
12	0xbc3cce42	-0.011523785
13	0xbb80a1f1	-0.003925555
14	0xbca1defc	-0.019759648
15	0xbd9b584e	-0.07585202
16	0x3d24866f	0.04016727
17	0xbd2ca3e6	-0.042148493
18	0xbdc20324	-0.09473255
19	0xbc995fa2	-0.01872236
20	0x3d54e3b4	0.051974967
21	0x3d56d3e8	0.052448183
22	0x3c85f6bc	0.016353004
23	0xbd89a19b	-0.06720277
24	0x3d15bf5a	0.03655944
25	0xbd8b1d18	-0.067926586
26	0x3da89e50	0.08233321
27	0xbc544ad3	-0.012957293
28	0xbd2ef6a5	-0.042715687
29	0x3d13cd0e	0.036084227
30	0x3d2a9a9d	0.041651357
31	0xbbb8d726	-0.005640882
32	0xbcd03ee0	-0.025420606
33	0xbbfae80c	-0.0076570567
34	0x3d37eddc	0.044904575
35	0x3c3b8ee1	0.011447639
36	0x3c9d3b54	0.019193329
37	0xbd8d2b88	-0.068930686
38	0xbc16739c	-0.009182837
39	0xbd72f463	-0.059315097
40	0x3af476af	0.0018651093
41	0x3de0876b	0.10963329
42	0xbd23968a	-0.039938487
43	0xbd076ed0	-0.033064663
44	0xbd6953e0	-0.056964755
45	0xbda9a520	-0.08283448
46	0xbd69b2e9	-0.057055388
47	0xbd2843d2	-0.041080303
48	0x3d1d94e7	0.038472082
49	0x3dcb6a77	0.09932416
50	0xbbbe14f8	-0.0058008395
51	0x3c9f1b26	0.019422125
52	0xbd9b23c1	-0.07575179
53	0xbd355472	-0.044269986
54	0x3d2ab348	0.041674882
55	0xbd1b856e	-0.037969045
56	0xbcb48480	-0.022035837
57	0xbdcbcdd5	-0.09951369
58	0xbd073478	-0.033009022
59	0xbcb3660c	-0.021899246
60	0xbd204496	-0.03912791
61	0x3cec3d7c	0.028837912
62	0xbd973d77	-0.0738477
63	0x3d308042	0.043091066
64	0x3c4255e1	0.011861295
65	0x3de1792c	0.1100944
66	0x3d327171	0.043565217
67	0x3d74deb5	0.059782702
68	0xbd221758	-0.039573044
69	0xbbb492b1	-0.005510651
70	0xbd166432	-0.036716647
71	0x3da60d12	0.08107962
72	0x3d6fff89	0.058593307
73	0xbad39f98	-0.0016145585
74	0x3d4b4b7c	0.049632534
75	0x3c13503f	0.0089913
76	0x3cfd8325	0.030946324
77	0xbdee95cb	-0.116496645
78	0xbd4f59ce	-0.050622754
79	0xbd5caee3	-0.053877722
80	0xbb9676df	-0.0045918073
81	0x3d602a85	0.05472805
82	0x3c843de1	0.016142787
83	0xbd1294a8	-0.0357863
84	0x3c8c8bcf	0.01715651
85	0xbcf79b9c	-0.030225568
86	0x3d2024bc	0.039097533
87	0xbc49f8b1	-0.012327359
88	0x3ae30f62	0.001732331
89	0x3dc3c50b	0.09559067
90	0xbd2ef020	-0.04270947
91	0x3a4135b8	0.00073703704
92	0xbc6f45b9	-0.0146040255
93	0x3cfb37a1	0.030666174
94	0x3d234c82	0.039867885
95	0x3d915d64	0.07097891
96	0xbd9cf8d0	-0.07664645
97	0xbd91ac49	-0.07112939
98	0x3d5df2ab	0.054186504
99	0xbb7e4a87	-0.0038801746
100	0xbc737bf1	-0.014861093
101	0xbb3cdc05	-0.0028817665
102	0x3c819786	0.015819322
103	0xbcf1411b	-0.02944999
104	0xbd9bba33	-0.07603874
105	0xbd36f0cd	-0.04466324
106	0xbd44134a	-0.047869958
107	0xbbc1cc22	-0.005914227
108	0x3d684115	0.056702692
109	0xbcb73b6c	-0.022367202
110	0xbd2c00b3	-0.041992854
111	0x3dd411b6	0.103549406
112	0xbd087c9f	-0.033321973
113	0xbd71c872	-0.05902905
114	0xbd15346a	-0.03642694
115	0x3b9dfd30	0.004821442
116	0x3d74b544	0.05974318
117	0x3d0fbc8b	0.035091918
118	0x3d3c2ea1	0.045942906
119	0xbdb4027b	-0.087895356
120	0xbd80bd47	-0.06286102
121	0x3cf4be94	0.029876031
122	0x3d45aadd	0.04825865
123	0x3cd36562	0.025805179
124	0x3c645410	0.013936058
125	0x3d3c3d6d	0.045957018
126	0x3cf5f906	0.03002597
127	0x3d9ea651	0.07746566
128	0xbd51526f	-0.051104005
129	0xbd0881ed	-0.033327032
130	0x3d8f24b0	0.069894195
131	0xbb9091e8	-0.0044119246
132	0x3c144e28	0.009051837
133	0xbbc80906	-0.0061045913
134	0x3c8960dc	0.016769819
135	0x3b1b8aec	0.0023733927
136	0xbd121501	-0.035664562
137	0x3c2a445c	0.010392275
138	0xbccb871d	-0.0248447
139	0x3cbda6f0	0.023150891
140	0x3d9c6dfb	0.076381646
141	0xbd7a2729	-0.061072502
142	0xbd928984	-0.07155135
143	0x3c570d63	0.01312575
144	0xbc4ee504	-0.012627844
145	0xbd66e141	-0.056367163
146	0x3d495a34	0.04915829
147	0x3baaea9f	0.0052159573
148	0x3d1676a2	0.03673423
149	0x3d919e0e	0.07110225
150	0xbdb15b23	-0.08659961
151	0xbc683fb1	-0.014175341
152	0xbd0a4777	-0.03375956
153	0xbc84c7a4	-0.016208477
154	0xbc17d2f0	-0.0092666
155	0x3c8f0aed	0.017461265
156	0x3d0b549c	0.034016237
157	0xbd1fc14d	-0.039002705
158	0xbb120cdb	-0.0022285494
159	0xbc456ac1	-0.012049378
160	0x3d8ceec2	0.06881477
161	0x3c8e8235	0.017396072
162	0xbcb82e18	-0.022482917
163	0x3db84655	0.0899779
164	0xbc46f8a1	-0.012144239
165	0xbd10ea58	-0.035379738
166	0xbc6e8966	-0.0145591255
167	0x3d324e91	0.043531958
168	0xbbe4dfbe	-0.00698468
169	0x3d3437a1	0.043998364
170	0xbd9f6173	-0.07782259
171	0x3cd67e7a	0.026183356
172	0x3c570d09	0.013125666
173	0xbd13fffa	-0.03613279
174	0xbcdd239e	-0.026994523
175	0xbc32cabd	-0.010912594
176	0x3daf33bc	0.085547894
177	0x3d50b1d5	0.050950844
178	0xbd6f2601	-0.058385853
179	0x3d3fd084	0.046829715
180	0x3d20621f	0.039156076
181	0xbd4fef2e	-0.05076521
182	0xbd74c79b	-0.05976067
183	0xbd3fee17	-0.04685792
184	0x3d1ef104	0.03880407
185	0x3ceae260	0.028672397
186	0x3d9a8ae8	0.075460255
187	0xbd871534	-0.06595841
188	0x3d819ca0	0.06328702
189	0x3d8c388c	0.06846723
190	0xbd14255f	-0.036168452
191	0xbd921e84	-0.07134727
192	0x3d55a0a4	0.052155152
193	0x3dc633cc	0.09677848
194	0x3c6f8d15	0.014621039
195	0x3d0cad97	0.034345236
196	0xbc876210	-0.016526252
197	0xbd994c5c	-0.074852675
198	0xbca6c3df	-0.02035707
199	0x3c7a1dea	0.015265921
200	0x3e07fbf5	0.13279708
201	0x3c5425e9	0.012948492
202	0x3cd4d125	0.025978634
203	0x3dd25e76	0.10271923
204	0x3d050764	0.03247775
205	0x3d03599c	0.03206788
206	0x3cb37b42	0.02190936
207	0x3d604dd1	0.05476171
208	0x3c0e3486	0.008679515
209	0x3a82d092	0.0009980372
210	0xbdd880b7	-0.105714254
211	0x3b086ede	0.0020818035
212	0x3d6026df	0.05472457
213	0x3d8a0f7b	0.06741234
214	0x3d3fd83b	0.046837073
215	0xbd9d017f	-0.07666301
216	0x3c9200f3	0.017822718
217	0x3b3329f5	0.002733824
218	0xbc0bb78d	-0.008527649
219	0xbd266265	-0.04062118
220	0x3d8dd640	0.069256306
221	0xbbc3f6c8	-0.0059803464
222	0xbac5f3aa	-0.0015102525
223	0xbc848b1a	-0.01617961
224	0x3c16a942	0.009195628
225	0x3d456950	0.048196137
226	0x3d420949	0.047372136
227	0x3dd10819	0.10206623
228	0x3c05912f	0.00815229
229	0x3c6d8ab8	0.014498405
230	0xbbb57225	-0.0055372887
231	0x3ce39d2f	0.027784912
232	0xbbc5ebd6	-0.0060400767
233	0xbcf34a11	-0.029698404
234	0x3c529653	0.012853223
235	0xbc3659c0	-0.0111297965
236	0xbd0fa5b3	-0.035070132
237	0x3d0457f7	0.032310452
238	0x3cba2859	0.022724317
239	0xbcee9b4a	-0.029126782
240	0xbc9db060	-0.019249141
241	0x3cfd4a85	0.030919323
242	0x3ddf2451	0.10895599
243	0x3ca8fa19	0.020627068
244	0xbd594e27	-0.053053048
245	0xbd8aaea8	-0.06771594
246	0x3d3e38fb	0.04644106
247	0xbdb2f045	-0.08737234
248	0x3cd46f8c	0.025932096
249	0x3d04e475	0.032444436
250	0xbd541584	-0.05177833
251	0x3bc85601	0.006113768
252	0xbd3528d6	-0.044228397
253	0x3c5617ab	0.013067166
254	0x3ced530f	0.02897027
255	0xbc10fc5f	-0.008849232

critic.1.bias f4 [128]
0	0xba2ae10a	-0.0006518519
1	0x00000000	0.0
2	0x37d26360	2.5080226e-05
3	0xba51a7ea	-0.00079977384
4	0x3a9d699c	0.0012009623
5	0x393d7cc6	0.00018070926
6	0x00000000	0.0
7	0x00000000	0.0
8	0x00000000	0.0
9	0x3936ac1e	0.00017420991
10	0x393a8d44	0.00017790968
11	0xba00d214	-0.00049141166
12	0x00000000	0.0
13	0xb8a63d8d	-7.9269616e-05
14	0xba9cf892	-0.0011975935
15	0x00000000	0.0
16	0x00000000	0.0
17	0x3ae0f4a8	0.0017162757
18	0xba9a9754	-0.0011794367
19	0xb94c312e	-0.00019473277
20	0xb95b0560	-0.0002088747
21	0x00000000	0.0
22	0x3a4d5f20	0.0007834304
23	0x39c9911f	0.0003844583
24	0xba62cd43	-0.0008651802
25	0x37f120a6	2.8744642e-05
26	0x00000000	0.0
27	0x3931dd85	0.00016962558
28	0x3739c480	1.10726105e-05
29	0xba949c76	-0.0011338133
30	0x392b73df	0.00016350996
31	0x00000000	0.0
32	0x39335a94	0.00017104513
33	0xb97e46c0	-0.00024249684
34	0xb8a42f9e	-7.828999e-05
35	0x00000000	0.0
36	0x3941eb10	0.00018493482
37	0x394dbf7f	0.00019621661
38	0xb95cf84f	-0.00021073337
39	0x3a2f29e7	0.0006681964
40	0x00000000	0.0
41	0xba04c969	-0.0005065413
42	0x39415065	0.00018435864
43	0xb903d0fb	-0.00012570985
44	0x39467faf	0.00018930317
45	0x00000000	0.0
46	0x393ef83b	0.00018212285
47	0x39401ce9	0.00018321317
48	0x38f3e489	0.00011629711
49	0x396ab9e1	0.00022385224
50	0xba8f5e64	-0.0010938165
51	0xbacdf2e2	-0.0015712644
52	0x00000000	0.0
53	0xba068cf7	-0.00051327
54	0x39411e70	0.00018417253
55	0x393ee223	0.00018204055
56	0xba4571dc	-0.000753192
57	0xb950f3f3	-0.00019927304
58	0xba6e643b	-0.0009093915
59	0x39263963	0.00015852372
60	0x393a9e87	0.00017797398
61	0x393d8348	0.0001807335
62	0x393383f4	0.00017119927
63	0xba4750b0	-0.0007603271
64	0xb8200739	-3.81537e-05
65	0xb94942b9	-0.0001919371
66	0xb921d03d	-0.00015431731
67	0x3a3ec9b8	0.0007277983
68	0xba96b675	-0.0011498468
69	0x3a097e5a	0.0005244963
70	0xb9497e67	-0.00019215942
71	0xb966e872	-0.00022021102
72	0x392d0ee5	0.00016504114
73	0x00000000	0.0
74	0x39233001	0.00015562774
75	0xb94d4cbe	-0.00019578912
76	0x00000000	0.0
77	0x00000000	0.0
78	0x38294a2b	4.0361814e-05
79	0x00000000	0.0
80	0x00000000	0.0
81	0xba437bc5	-0.0007457103
82	0xb9025a3a	-0.00012431378
83	0x00000000	0.0
84	0x00000000	0.0
85	0x00000000	0.0
86	0xb988e113	-0.00026107635
87	0x00000000	0.0
88	0xb94caaf8	-0.00019518647
89	0xb94c43d1	-0.0001948022
90	0xba46172e	-0.00075565546
91	0xba839b51	-0.0010040795
92	0x393b273a	0.00017848323
93	0x00000000	0.0
94	0x39381031	0.00017553639
95	0xba184bd3	-0.00058096385
96	0x00000000	0.0
97	0xb951be1f	-0.00020002619
98	0xb9578975	-0.00020555205
99	0x00000000	0.0
100	0xba73d682	-0.00093016785
101	0xb9673a49	-0.0002205159
102	0xb8ac0f09	-8.2044e-05
103	0x3921cfda	0.00015431587
104	0x3a2ebda6	0.0006665833
105	0xb96ebe66	-0.00022768378
106	0x00000000	0.0
107	0x39348b57	0.00017218046
108	0xba57b962	-0.00082292233
109	0x00000000	0.0
110	0x391e8bd1	0.0001512014
111	0xb95a2dfc	-0.0002080723
112	0xb94f5edb	-0.00019776395
113	0xb9ead084	-0.00044787314
114	0x00000000	0.0
115	0xb9d0f15c	-0.00039852678
116	0xba881bf9	-0.0010384313
117	0xb810b632	-3.4501958e-05
118	0xb8de1742	-0.00010590117
119	0xb9533cf2	-0.00020145232
120	0x383f74a4	4.564658e-05
121	0x3941ea18	0.00018493121
122	0xb94cc53c	-0.00019528432
123	0xb956b930	-0.00020477618
124	0x00000000	0.0
125	0x00000000	0.0
126	0xb95794f1	-0.00020559483
127	0x392f67ab	0.0001672792

critic.3.weight f4 [1, 128]
0	0x3d8ddbe9	0.0692671
1	0x3d34acfc	0.044110283
2	0x3d90e3e3	0.07074716
3	0x3d87ee7d	0.06637285
4	0x3d7aa450	0.061191857
5	0xbdc94ca0	-0.09829068
6	0xba08836a	-0.00052075705
7	0xbd5d53a3	-0.05403484
8	0x3d869c82	0.0657282
9	0xbe1595a6	-0.14607868
10	0xbd8df4a9	-0.06931431
11	0xbe432cb3	-0.1906002
12	0x3e16b4d4	0.14717418
13	0x3d6baeca	0.05753974
14	0x3e12281f	0.14273117
15	0xbdcce33e	-0.100042805
16	0xbe0f0c6f	-0.13969587
17	0x3d6d4820	0.057930112
18	0xbc8d033a	-0.017213453
19	0x3db1c977	0.086810045
20	0x3ce2a1fe	0.027665135
21	0x3c21f061	0.009883971
22	0xbd81d182	-0.063387886
23	0x3bc372b4	0.0059646014
24	0x3d1a2079	0.037628625
25	0x3d1262c8	0.035738736
26	0x3d830bb2	0.06398715
27	0xbd1f1e70	-0.038847387
28	0x3d30150c	0.042988822
29	0x3c8b214a	0.016983647
30	0xbdf547cb	-0.11976584
31	0x3ddc8e7a	0.10769363
32	0xbd259980	-0.040429592
33	0x3c28d327	0.010304249
34	0xbae3f1c2	-0.0017390775
35	0x3db0c8a8	0.08632022
36	0xbe5646cf	-0.20925449
37	0x3bf53a57	0.0074837613
38	0x3cdcda5c	0.02695959
39	0xbc75a350	-0.01499255
40	0x3d4189d4	0.047250584
41	0x3dca9a32	0.09892692
42	0xbe3cbcf3	-0.18431453
43	0x3d9bdea2	0.07610823
44	0xbe296169	-0.16541065
45	0xbd522b4f	-0.051310834
46	0xbde811c3	-0.11331513
47	0xbe1033bf	-0.1408224
48	0xbc1e8f52	-0.009677725
49	0x3df08688	0.1174441
50	0x3c8d8c73	0.017278885
51	0x3dbadba3	0.09123924
52	0xbd1719fe	-0.036890022
53	0xbd44d97d	-0.048058975
54	0xbe8362b8	-0.25661254
55	0xbdedd99e	-0.11613773
56	0x3d429252	0.047502823
57	0x3d53c5de	0.051702373
58	0x3d2e50f1	0.04255766
59	0xbcca5f2e	-0.024703588
60	0xbd90bad0	-0.07066882
61	0xbd286fc8	-0.041122228
62	0xbd347fd8	-0.044067234
63	0x3e058ab6	0.13041195
64	0x3d0e5666	0.034750365
65	0x3e1a7657	0.15084206
66	0x3dffb268	0.124852
67	0xbd45303f	-0.048141714
68	0x3cba6638	0.02275382
69	0x3cfcf20f	0.030877141
70	0x3e14a0ba	0.14514437
71	0x3cbbd1e9	0.022927241
72	0xbcfeb578	-0.03109239
73	0x3d91e37f	0.071234696
74	0xbcaf196a	-0.021374423
75	0x3dad9451	0.08475555
76	0x3d9e9b76	0.077444956
77	0xbc5fef95	-0.013667961
78	0x3cc45da8	0.02397044
79	0xbc0615ee	-0.008183939
80	0x3caf4415	0.021394769
81	0x3da20b93	0.07912364
82	0x3d1a6b73	0.037700128
83	0x3e1926b0	0.14956164
84	0xbdda19c3	-0.10649445
85	0xbdb718ca	-0.08940275
86	0x3be5d6fc	0.0070141535
87	0x3cd734ba	0.02627026
88	0x3dba8cc8	0.09108883
89	0x3da830c8	0.08212429
90	0x3d41ca7d	0.04731225
91	0xbddd55eb	-0.10807403
92	0xbd925e72	-0.0714692
93	0xbddd7cef	-0.10814845
94	0xbd75e9e3	-0.060037505
95	0xbe07142b	-0.13191287
96	0x3d870446	0.06592612
97	0x3d77ce7b	0.06049965
98	0x3ce43933	0.027859306
99	0x3d96466f	0.07337653
100	0x3df5bc1f	0.11998772
101	0x3e11cc4b	0.14238088
102	0x3bba8fda	0.005693418
103	0xbd86ae2e	-0.06576191
104	0xbd126cdf	-0.03574836
105	0x3c6d5fc2	0.0144881625
106	0xbdcfa2fb	-0.10138508
107	0xbd36216e	-0.044465475
108	0x3e1fd539	0.15608682
109	0xbd25a9b3	-0.04044504
110	0xbd3ff8f7	-0.04686829
111	0x3dc9aed3	0.09847798
112	0x3e00cc03	0.12577824
113	0xbd695047	-0.056961324
114	0xbc79b78c	-0.015241515
115	0xbd9d0c92	-0.07668413
116	0x3b90b8cd	0.004416561
117	0xbb3f3df6	-0.0029181219
118	0x3e50f5ee	0.20406315
119	0x3dfef460	0.124489546
120	0xbba0f9e1	-0.0049126004
121	0xbdf863e8	-0.121284306
122	0x3cf2fc9a	0.029661465
123	0x3d0c3fa9	0.0342404
124	0xbe5e17d2	-0.21688774
125	0x3c9ed0ae	0.019386616
126	0x3d97acce	0.07406007
127	0xbd0d4bc7	-0.034496095
