experiments/ppo_hrl/models/MicroRTSGridModeVecEnv__ppo_utils__1__1721366908/produce_agent.pt (torch, 802531 bytes, 11 tensors)

encoder.1.weight f4 [32, 30, 3, 3]
0	0xbde69500	-0.11258888
1	0x3e0be98c	0.1366331
2	0x3e30bbd2	0.17259148
3	0x3e2353d1	0.15949942
4	0x3deb2db0	0.114833236
5	0x3e0b520d	0.13605519
6	0x3e645a90	0.22300172
7	0x3e5ed173	0.21759586
8	0xbc96d498	-0.01841192
9	0x3da1a234	0.07892266
10	0xbe28be7c	-0.16478914
11	0x3da77939	0.08177418
12	0xbd878c65	-0.06618575
13	0xbd85123f	-0.06497621
14	0x3ce52d67	0.027975751
15	0x3d8e7bc1	0.06957198
16	0x3df23473	0.1182641
17	0x3e274bbd	0.16337486
18	0xbd32be7a	-0.043638684
19	0xbdd98647	-0.106213145
20	0xbd67d33b	-0.05659793
21	0x3d218dc6	0.039441846
22	0x3d8c0365	0.06836585
23	0xbdad36d6	-0.08457725
24	0x3c43f630	0.011960551
25	0xbdc78107	-0.09741407
26	0xbd33569f	-0.04378378
27	0xbd85879d	-0.06520007
28	0x3bb5ceb9	0.005548325
29	0xbdaf38cf	-0.08555757
30	0x3d99b2d5	0.07504813
31	0x3d3bfe39	0.045896742
32	0x3c06d0ec	0.008228522
33	0x3d3b0a96	0.045664392
34	0x3dec6616	0.11542909
35	0x3c9aa062	0.018875305
36	0x3d214fec	0.03938286
37	0xbd94a061	-0.07257152
38	0xbc701a72	-0.014654743
39	0x3ccec9f3	0.025242781
40	0x3d372b6a	0.044719137
41	0x3c73b2bf	0.014874159
42	0x3d926132	0.07147445
43	0x3e0329f3	0.12808971
44	0xbd37334a	-0.044726647
45	0xbe31acac	-0.17351025
46	0xbd20eb91	-0.039287154
47	0xbd857442	-0.06516315
48	0xbd6b2f37	-0.057418074
49	0x3dfa7160	0.12228656
50	0x3d8a2a62	0.06746365
51	0x3d0edcda	0.03487859
52	0x3b036498	0.0020048972
53	0x3d6a33f1	0.05717844
54	0x3d6bd732	0.057578273
55	0xbc4983fd	-0.012299535
56	0x3cee7ea1	0.029113116
57	0xbe4416aa	-0.1914927
58	0x3d0789a4	0.03309025
59	0xbe3a1bc3	-0.18174653
60	0x3d03d936	0.03218957
61	0xbbcb0b34	-0.006196404
62	0x3da4ba30	0.08043325
63	0xbd8dbfa5	-0.06921319
64	0x3da3c842	0.079971805
65	0xbd3827f4	-0.044959977
66	0x3b924eed	0.004464975
67	0x3a3e9b1b	0.00072710373
68	0x3ddf705b	0.10910102
69	0xbac8bf9f	-0.0015315897
70	0xbc03bbdc	-0.008040395
71	0x3cb8ec13	0.022573506
72	0xbdd43ec9	-0.10363538
73	0x3d9a22d0	0.07526171
74	0x3e190c47	0.1494609
75	0xbd78af4b	-0.060714047
76	0xbe1dc198	-0.15405881
77	0x3bc66265	0.00605421
78	0xbd19add3	-0.037519287
79	0xbc2a69eb	-0.010401229
80	0x3d4ae043	0.04953028
81	0x3cb71800	0.022350311
82	0x3d8ed271	0.06973732
83	0x3ddf2026	0.10894804
84	0x3e6580ed	0.22412463
85	0x3e003e99	0.12523879
86	0xbd2b0ff7	-0.041763272
87	0x3dcf968c	0.101361364
88	0xbdc0bec9	-0.094113894
89	0x3d8ee2a1	0.0697682
90	0x3d36529c	0.044512376
91	0x3d661e28	0.056181103
92	0xbd08830d	-0.033328105
93	0xb9c22485	-0.00037029773
94	0x3b95fb04	0.0045770425
95	0xbd505224	-0.050859585
96	0x3cab6bde	0.020925459
97	0x3da93a64	0.0826309
98	0xbd29cec3	-0.04145695
99	0xbda4a45e	-0.08039163
100	0x3c4b9082	0.01242459
101	0x3c867330	0.016412348
102	0xbd7ca1b8	-0.061677665
103	0xbdfde042	-0.123962894
104	0x3e1fe75d	0.15615602
105	0x3e2e65d5	0.17031033
106	0xbce7ba41	-0.028287055
107	0x3da39a27	0.079883866
108	0xbd1da52b	-0.038487595
109	0x3d3c90d3	0.046036553
110	0x3be23025	0.006902712
111	0x3d8a5821	0.067550905
112	0xbc597059	-0.013271415
113	0xbc99b724	-0.018764086
114	0x3d1f4569	0.038884554
115	0x3c5f62ec	0.013634425
116	0x3d88c16b	0.066775165
117	0xbdb632c0	-0.088963985
118	0x3d064da0	0.032788873
119	0x3df22352	0.11823143
120	0x3d25f74d	0.040519048
121	0xbd871751	-0.06596244
122	0x3d6d5abe	0.057947867
123	0xbd4b6633	-0.04965801
124	0xbcc11c33	-0.023573017
125	0x3da1f43f	0.07907914
126	0x3c0fff0f	0.008788838
127	0x3e3dbaf1	0.18528344
128	0x3d5add60	0.053433776
129	0x3cede238	0.029038534
130	0x3d8c15ff	0.06840133
131	0xbc5d7692	-0.013517039
132	0xb9d7fb47	-0.00041195212
133	0x3d6ea223	0.058260094
134	0xbd7a2e7a	-0.06107948
135	0x3e00a35d	0.12562318
136	0xbd3c75a9	-0.046010647
137	0x3d908517	0.07056635
138	0x3ddfeb73	0.1093358
139	0xbd6f7fb7	-0.058471408
140	0xbe1648d5	-0.1467622
141	0xbd049731	-0.03237075
142	0xbe600350	-0.21876264
143	0xbd800ec5	-0.06252817
144	0xbc9ee471	-0.019396039
145	0xbde3d76a	-0.11125071
146	0xbc7b94d7	-0.01535531
147	0xbc783e36	-0.015151551
148	0xbdb586b8	-0.08863586
149	0xbce0bfce	-0.02743521
150	0xbcd38541	-0.025820376
151	0xbc06a70e	-0.00821854
152	0x3df3c4ca	0.11902769
153	0x3e4084bf	0.18800639
154	0xbd5d96a4	-0.05409874
155	0xbd530e95	-0.05152758
156	0xbd15ee85	-0.036604423
157	0x3d190047	0.03735378
158	0xbd00e2ab	-0.031466167
159	0xbe383417	-0.1798862
160	0x3cae2d2c	0.021261774
161	0xbc7e0377	-0.015503756
162	0xbd86ba11	-0.06578458
163	0xbdbce353	-0.09223046
164	0xbdf593ee	-0.11991106
165	0x3cd9bdd2	0.026579771
166	0xba4f708e	-0.00079131953
167	0xbcaf4224	-0.021393843
168	0x3ce2c417	0.027681394
169	0x3d273b66	0.04082813
170	0x3d877ef1	0.06616009
171	0x3cd4a89b	0.025959304
172	0x3df28e63	0.11843564
173	0xbd37600d	-0.044769336
174	0x3c2a48d1	0.010393337
175	0x3d883369	0.06650431
176	0x3df85f96	0.121276066
177	0x3e1a03ff	0.15040587
178	0xbd139a03	-0.03603555
179	0xbd73d1d1	-0.05952627
180	0x3d971e0c	0.07378778
181	0x3ddc555b	0.10758468
182	0xbb1c2402	-0.0023825173
183	0xbcacc8ca	-0.021091837
184	0xbdd1eeda	-0.102506354
185	0x3ddb93a3	0.10721519
186	0xbdcff1fb	-0.10153576
187	0xbd81d996	-0.06340329
188	0xbdcb27bd	-0.09919689
189	0xbc9f9e3c	-0.019484632
190	0xbe1c4728	-0.15261519
191	0xbd53777f	-0.051627632
192	0xbddaaed3	-0.10677876
193	0x3dd72a4f	0.105061166
194	0x3d3c4a23	0.04596914
195	0xbe560654	-0.20900851
196	0xbdaec61d	-0.08533881
197	0x3d13f592	0.036122866
198	0x3d36f9f5	0.04467197
199	0x3ddc4690	0.10755646
200	0xbd9dd6f1	-0.077070124
201	0xbd3d8cdd	-0.046276916
202	0xbd8cc366	-0.06873207
203	0x3be6859a	0.0070349695
204	0x3e19ec70	0.150316
205	0xbcf34dea	-0.029700238
206	0xbdde7ec2	-0.10864021
207	0x3d36f4f9	0.044667218
208	0xbdbeb1e5	-0.093112744
209	0xbe3385e7	-0.17531548
210	0xbe0ea4fd	-0.13930126
211	0x3e310a57	0.172891
212	0xbd8e1140	-0.06936884
213	0xbc0e0990	-0.008669272
214	0xbc45856e	-0.012055738
215	0xbdc3adf3	-0.095546626
216	0x3d70b9eb	0.058771055
217	0xbc12ab6e	-0.008952005
218	0xbd83454b	-0.06409701
219	0xbd66051a	-0.05615721
220	0x3d98fcf2	0.074701205
221	0xbcbb83ac	-0.022889934
222	0x3e2a5f77	0.1663798
223	0xbcb0b752	-0.021571789
224	0x3da8bfd5	0.08239714
225	0x3c414ade	0.011797635
226	0xbb74d4c4	-0.0037358264
227	0xbd5d3fe3	-0.054016005
228	0x3d6281cd	0.05529957
229	0xbdafd688	-0.085858405
230	0x3bda8a4d	0.006669319
231	0x3d093bdb	0.03350435
232	0x3c91242b	0.017717442
233	0xbd242a94	-0.04007967
234	0xbb488c8b	-0.0030601348
235	0xbd1c5d94	-0.03817518
236	0xbe1da2be	-0.15394112
237	0xbdb3b845	-0.08775381
238	0xbdbbd27e	-0.091710076
239	0xbd159498	-0.036518663
240	0xbc9b73a8	-0.018976048
241	0x3e19a62c	0.15004796
242	0xbe2e794f	-0.17038463
243	0x3da61107	0.081087165
244	0x3c576854	0.013147432
245	0x3d3660a5	0.04452576
246	0x3e46a665	0.19399412
247	0x3c95e083	0.018295532
248	0xbd0161f4	-0.031587556
249	0x3da782c4	0.081792384
250	0x3d3a521d	0.045488466
251	0x3dfd5763	0.12370183
252	0xbd3ccf8b	-0.046096366
253	0xbba79257	-0.0051138806
254	0x3c57f53f	0.01318103
255	0xbdf93d09	-0.12169845

encoder.1.bias f4 [32]
0	0xb9753ef5	-0.00023388474
1	0x3af7e97e	0.0018914191
2	0xba9cda6b	-0.0011966949
3	0xba2cb62c	-0.0006588425
4	0xba882ee2	-0.0010389949
5	0x39d88a1d	0.00041301633
6	0xbae3e394	-0.0017386549
7	0xbb5fedc7	-0.0034168826
8	0xb8f5cd37	-0.000117207346
9	0x39efd83f	0.00045746748
10	0x3b5f7ea2	0.0034102579
11	0x3b49e951	0.0030809233
12	0xba0b51e4	-0.0005314632
13	0x3aeb1b38	0.0017937189
14	0xbb140b48	-0.0022589732
15	0xbab1cb57	-0.0013564628
16	0xba2a84c0	-0.00065047666
17	0xb974dd11	-0.00023352007
18	0xbb4a5bab	-0.0030877392
19	0xbb377ceb	-0.002799804
20	0xbb6a6e52	-0.0035771322
21	0xbace152b	-0.0015722861
22	0xba018cc0	-0.0004941933
23	0x3b229b3e	0.002481177
24	0xbb168f28	-0.0022973511
25	0xba6c8f62	-0.0009024051
26	0x3a560022	0.0008163472
27	0x3a687845	0.0008868019
28	0x3ae15c12	0.0017193577
29	0xb975f769	-0.00023457188
30	0xbaf43c6c	-0.001863373
31	0x38e94967	0.00011123978

encoder.4.weight f4 [64, 32, 3, 3]
0	0x3d163306	0.036669753
1	0x3d4d8e5d	0.050184596
2	0x3d482b7e	0.048869602
3	0xbde1734f	-0.110083215
4	0x3c09e499	0.008416318
5	0x3cf00b5e	0.029302295
6	0x3dfdee7d	0.12399004
7	0xbd8d6e26	-0.06905775
8	0xbd7c821e	-0.061647527
9	0xbd7ed7b6	-0.062217437
10	0xbcc7f22a	-0.024407465
11	0xbc566188	-0.013084777
12	0x3d1b8c0b	0.037975352
13	0x3da3a87b	0.079911195
14	0x3dea3af1	0.114370234
15	0x3a4154df	0.00073750125
16	0xbceef31a	-0.029168654
17	0xbb35c13a	-0.002773358
18	0x3dc56791	0.09638894
19	0x3d82393f	0.06358575
20	0xbd98cd9d	-0.074610926
21	0xbce500e1	-0.02795452
22	0xbcb01f72	-0.02149937
23	0xbd07c47f	-0.033146378
24	0x3cd9f549	0.026606219
25	0x3d6e9c9c	0.058254823
26	0xbe0b7145	-0.13617428
27	0x3d66cd45	0.056348104
28	0x3d758af4	0.05994697
29	0x3ddc97ce	0.10771142
30	0xbd2ec3e1	-0.042667273
31	0x3c1c390f	0.009535088
32	0x3e23b9e2	0.15988877
33	0xbd31aaf0	-0.04337591
34	0xbcd29148	-0.025704041
35	0xbd399cc5	-0.045315523
36	0x3db84f6a	0.08999522
37	0x3d819f01	0.06329156
38	0x3e071c28	0.13194335
39	0x3ca55163	0.02018041
40	0x3c106188	0.008812316
41	0xbd1942a0	-0.037417054
42	0x3d47841a	0.048709966
43	0x3dc9c831	0.098526366
44	0x3930d063	0.00016862298
45	0xbd8b1d1e	-0.06792663
46	0x3d8dc63a	0.06922574
47	0x3dcfc0c0	0.10144186
48	0x3ddb3032	0.10702552
49	0xbdcf671a	-0.10127087
50	0xbc75ea47	-0.015009469
51	0xbd520173	-0.051270913
52	0x3da3995e	0.07988237
53	0xbc21f58b	-0.009885202
54	0xbe42d3f9	-0.19026174
55	0xbd8c7ad0	-0.06859362
56	0x3c070369	0.008240559
57	0x3db844c1	0.08997489
58	0xbc933892	-0.01797131
59	0xbe6b1484	-0.22957045
60	0x3e451362	0.19245675
61	0x3dea503c	0.11441085
62	0xbdf4660e	-0.11933528
63	0x3c60ab11	0.01371266
64	0xbd3c8a15	-0.046030123
65	0xbd5f917f	-0.054582115
66	0x3baeadf2	0.0053307945
67	0x3bcb18a5	0.006198006
68	0xbc339828	-0.01096157
69	0x3c58f008	0.013240822
70	0x3e0855f3	0.13314037
71	0x3e06ef5d	0.13177247
72	0xbd6faf4d	-0.05851679
73	0x3d00829f	0.03137457
74	0xbdd8a1d2	-0.1057774
75	0xbd863e3e	-0.065548405
76	0x3dc2f7dc	0.09519932
77	0xbaf6aa60	-0.0018819086
78	0xbd7b1e30	-0.061308086
79	0x3de9ca7a	0.114155725
80	0xbca8f855	-0.020626226
81	0x3c1322ad	0.008980435
82	0x3d0b4718	0.034003347
83	0x3d9a0cc1	0.07521964
84	0x3c81aa31	0.015828224
85	0x3df9cebf	0.12197637
86	0x3d42f670	0.047598302
87	0x3cc3a5ad	0.023882711
88	0xbdc43b7d	-0.09581659
89	0x3d9db0c1	0.07699729
90	0x3c764d59	0.01503309
91	0x3cf5d3c2	0.0300082
92	0x3d944cbb	0.07241198
93	0x3d8f676a	0.070021465
94	0xbe070364	-0.13184887
95	0x3d90fae7	0.07079106
96	0x3db22140	0.08697748
97	0xbcfd9851	-0.03095642
98	0x3b12a088	0.0022373516
99	0x3d840b4c	0.06447467
100	0xbd9610f8	-0.07327455
101	0xbd948d95	-0.07253567
102	0x3e10e32e	0.14149162
103	0x3c7227be	0.014779983
104	0x3d4ee10b	0.050507586
105	0x3d714719	0.058905695
106	0xbd73a76e	-0.059485845
107	0xbd53b0bb	-0.051682215
108	0x3e1ac586	0.15114412
109	0xbdfded94	-0.1239883
110	0xbe51940a	-0.20466629
111	0x3ca6037a	0.02026533
112	0xbd91976a	-0.07108958
113	0xbe1c6719	-0.15273704
114	0x3d98a0d1	0.07452548
115	0x3dbabac6	0.091176555
116	0xbe08ac67	-0.13347016
117	0x3d7f5325	0.062335152
118	0xbd002c22	-0.03129209
119	0xbd665d84	-0.056241527
120	0xbd6ac13d	-0.057313193
121	0x3d9e2888	0.077225745
122	0x3c4c2bc0	0.012461603
123	0x3d4491c0	0.04799056
124	0x3dac25f7	0.08405679
125	0x3df4492c	0.11928019
126	0x3d07642d	0.03305452
127	0xbd534687	-0.051580932
128	0xbd2ed9f7	-0.042688336
129	0x3ca1c90c	0.019749187
130	0xbc23f309	-0.010006675
131	0xbd2ad4e5	-0.04170694
132	0x3ce04e55	0.027381102
133	0x3d70ced7	0.058791008
134	0xbe0782fe	-0.13233563
135	0x3dafa284	0.08575919
136	0xbd734407	-0.059391048
137	0x3d80138e	0.0625373
138	0xbd7e0090	-0.062012255
139	0xbdcfe1cd	-0.1015049
140	0xbcc3e9aa	-0.02391513
141	0xbc504127	-0.012710846
142	0xbdf142c3	-0.11780312
143	0x3d4bdced	0.049771238
144	0xbc95e267	-0.018296434
145	0x3db3c845	0.08778433
146	0x3aec8bc1	0.0018047021
147	0x3d98caca	0.07460554
148	0xbdcfc205	-0.10144428
149	0x3d9d5380	0.07681942
150	0xbded850c	-0.11597642
151	0x3d6330be	0.055466406
152	0x3d2691c1	0.040666346
153	0xbc9b67c1	-0.018970372
154	0xbd3abc88	-0.045589954
155	0xbda2dc0e	-0.07952128
156	0xbb4ea8de	-0.0031533758
157	0x3d57e815	0.052711565
158	0xbdbe80ab	-0.09301885
159	0x3d9202a2	0.071294084
160	0xbdf1d463	-0.11808088
161	0xbde695de	-0.11259054
162	0x3d6cb0d1	0.057785813
163	0x3e0f1727	0.13973676
164	0x3db095d9	0.08622331
165	0x3d824a4e	0.06361829
166	0xbc3fb6ba	-0.01170128
167	0x3c59535f	0.013264506
168	0x3c80dfb1	0.015731664
169	0xbc8dc24c	-0.017304562
170	0xbd2e8a47	-0.04261234
171	0x3d521098	0.051285356
172	0x3c3d1e9b	0.011542941
173	0x3c331404	0.010930065
174	0x3d525e19	0.05135927
175	0xbcba3c8c	-0.02273395
176	0xbdfd7db0	-0.123774886
177	0xbc0d883c	-0.008638438
178	0x3d9eda92	0.07756533
179	0xbe115092	-0.14190891
180	0x3c615c82	0.013754966
181	0xbdfae26a	-0.12250216
182	0xbc8d4766	-0.01724596
183	0x3dbcc47c	0.09217164
184	0xbd0080c3	-0.031372797
185	0xbe222d71	-0.15837647
186	0x3e0cdbf7	0.13755785
187	0x3df62137	0.12018054
188	0x3d116421	0.03549588
189	0x3d8509fa	0.064960435
190	0xbdc33531	-0.0953163
191	0x3d7b3fe4	0.061340228
192	0xbde2a283	-0.11066153
193	0x3ca7f719	0.020503568
194	0xbd5096dd	-0.050925124
195	0xbcd26f8f	-0.02568796
196	0xbd575a04	-0.05257608
197	0x3c7d47ae	0.015458984
198	0xbe0d9363	-0.13825755
199	0x3da450a1	0.08023191
200	0x3c61b014	0.01377489
201	0x3e33c9f9	0.17557515
202	0xbdb4c802	-0.08827211
203	0x3c14923a	0.009068066
204	0xbdd9de68	-0.10638124
205	0xbda534d5	-0.080667175
206	0xbce65f88	-0.028121725
207	0xbdaf0887	-0.08546548
208	0x3cc4ddd5	0.024031559
209	0x3d9baf56	0.07601802
210	0x3e52b8d0	0.20578313
211	0xbcf933d9	-0.03042023
212	0xbd769f53	-0.060210537
213	0x3dde57d7	0.10856598
214	0xbe18f001	-0.14935304
215	0x3c7a6876	0.0152836945
216	0xbd7f7e8c	-0.062376544
217	0xbd85f19f	-0.06540226
218	0xbdf8d9bf	-0.12150907
219	0x3b75921e	0.0037471126
220	0xbdf1b4d1	-0.11802066
221	0x3ca260b7	0.019821508
222	0xbd9f5491	-0.07779802
223	0xbc7bd694	-0.015370984
224	0xbdbb540d	-0.09146891
225	0x3d4368cb	0.04770736
226	0xbda43886	-0.080185935
227	0xbcae6fb4	-0.021293499
228	0xbc95b84a	-0.018276352
229	0x3cba390d	0.022732282
230	0xbdcf1a7b	-0.101124726
231	0xbda375f4	-0.07981482
232	0xbc1035ac	-0.008801859
233	0xbc3738ac	-0.011182945
234	0x3e3b4b05	0.18290336
235	0xbc1f24e1	-0.009713382
236	0x3e0c8fd1	0.13726737
237	0x3db3105e	0.08743356
238	0x3c9843a7	0.018586947
239	0xbe36850e	-0.17824194
240	0xbe142775	-0.14468177
241	0xbe347d0f	-0.17625831
242	0x3d49775c	0.049186096
243	0xbdb71874	-0.08940211
244	0x3e51c0c1	0.20483686
245	0xbe1a0e79	-0.15044583
246	0x3d1f779a	0.03893242
247	0xbd29d535	-0.041463096
248	0xbd93f69c	-0.072247714
249	0x3d8347d7	0.06410187
250	0x3d1f9ab6	0.038965903
251	0xbda58b61	-0.08083225
252	0x3baad2f5	0.0052131363
253	0xbddea01f	-0.108703844
254	0x3dfd4e98	0.12368506
255	0xbd6c9382	-0.057757862

encoder.4.bias f4 [64]
0	0x389e17d2	7.538464e-05
1	0x3a8bd2aa	0.0010667641
2	0xb9705a52	-0.0002292183
3	0xba0c68a0	-0.00053561665
4	0xb9e40d1b	-0.00043497313
5	0x3a40df01	0.0007357449
6	0xb9bc8c96	-0.000359629
7	0x3aaaa7c1	0.0013019965
8	0x38b3b325	8.5687534e-05
9	0x38f0e6be	0.00011487071
10	0xba1c7e3a	-0.0005969737
11	0xb9923be0	-0.000278919
12	0xb9d4bfd4	-0.00040578714
13	0xb9403293	-0.00018329387
14	0xb993e2f8	-0.0002820713
15	0x39c679a6	0.00037856138
16	0xb88100b0	-6.1513274e-05
17	0x3b8c87a2	0.0042886296
18	0xb9979085	-0.0002890864
19	0xb9f9b275	-0.00047625942
20	0x3a7a22e7	0.0009541944
21	0xbaa4ada3	-0.0012563955
22	0xb9b5e13a	-0.00034690817
23	0x3ade0f5f	0.0016941837
24	0xbb31e9ed	-0.0027147487
25	0xba361594	-0.00069459644
26	0xba9acfc6	-0.0011811189
27	0x3b0dd683	0.0021642752
28	0xba08304c	-0.0005195185
29	0xbb4b966c	-0.0031065
30	0x39697b10	0.00022266456
31	0xbaa05dd2	-0.0012234992
32	0xb9680bc8	-0.00022129633
33	0xbaf1147b	-0.0018392944
34	0x3829692a	4.039068e-05
35	0xb9c66061	-0.0003783731
36	0x3b937ddc	0.0045010876
37	0xba02ee06	-0.00049945747
38	0xba5ff86a	-0.00085437915
39	0x3ba302ec	0.0049747135
40	0xbb27a555	-0.0025580723
41	0xb92b53b9	-0.0001633902
42	0x3ad7f9f0	0.0016477685
43	0x39577421	0.00020547259
44	0x3a273783	0.00063788163
45	0xb999201d	-0.0002920636
46	0x3b269c29	0.0025422669
47	0x3a0f0eb3	0.00054572074
48	0x392ab3f4	0.00016279501
49	0xbac284df	-0.0014840624
50	0x39dfbef7	0.00042676154
51	0xba464aaf	-0.00075642293
52	0x3b3a77d9	0.0028452782
53	0xb91a669d	-0.00014724811
54	0xb9d17849	-0.00039953206
55	0x39bf5e5f	0.0003650067
56	0xba02c216	-0.00049880275
57	0xb9381e20	-0.0001755883
58	0xbac3b510	-0.001493128
59	0x3a47315d	0.0007598603
60	0xba8ea7d6	-0.0010883759
61	0xb9cef8b2	-0.00039476674
62	0xb972de0c	-0.00023161637
63	0xba0018a5	-0.0004886485

actor.0.weight f4 [64, 32, 3, 3]
0	0xbc9e72ed	-0.01934191
1	0x3c75e5e2	0.015008422
2	0xbdd2f152	-0.102999344
3	0xbdbfc821	-0.093643434
4	0x3d37486e	0.04474681
5	0x3c838277	0.016053421
6	0x3cb2bf6f	0.021819798
7	0xbde246ec	-0.110486835
8	0xbd784dde	-0.060621135
9	0x3d8c14c0	0.06839895
10	0x3d5aa9ed	0.05338471
11	0xbd754725	-0.0598823
12	0x3c2500c4	0.010070983
13	0x3d01eb78	0.0317187
14	0xbe31dc43	-0.1736918
15	0x3dae0dd3	0.084987305
16	0x3d8be164	0.06830099
17	0x3e8a77ad	0.2704443
18	0xbca6fe33	-0.020384884
19	0xbd257671	-0.040396158
20	0xbde7f931	-0.11326826
21	0xbdb73db7	-0.08947318
22	0x3b68ce1d	0.0035523244
23	0x3b41f8c5	0.002959774
24	0xbdb9bc02	-0.09069063
25	0x3da34b95	0.079734005
26	0x3e33b457	0.17549263
27	0xbde203cd	-0.11035881
28	0xbdf5ca13	-0.12001433
29	0xbd7b2fb1	-0.06132478
30	0xbdb102f0	-0.086431384
31	0xbde03b91	-0.109488614
32	0xbdb96f0d	-0.090543844
33	0x3e1fb3ad	0.15595885
34	0xbddd9fbe	-0.10821484
35	0x3d6bb9f5	0.05755039
36	0x3caa1e10	0.020766288
37	0x3d8cfde6	0.06884365
38	0x3da30264	0.0795944
39	0xbd33e75e	-0.04392182
40	0xbdbd563a	-0.09244962
41	0xbb990a53	-0.00467042
42	0x3da5fde9	0.0810507
43	0xbd8ed718	-0.069746196
44	0x3d2da7c5	0.042396326
45	0xbdfac9a6	-0.12245493
46	0xbe1c27df	-0.15249585
47	0xbb13e130	-0.0022564642
48	0xbc3c06bf	-0.011476218
49	0x3b209358	0.0024501886
50	0x3d4aef2a	0.04954449
51	0x3b8a9fe0	0.0042304844
52	0xbd713d95	-0.05889662
53	0x3d8bbf34	0.068235785
54	0x3bbfef16	0.0058573587
55	0x3df086a2	0.11744429
56	0xbe21cc1e	-0.15800521
57	0x3d665331	0.05623168
58	0xbba8ea72	-0.005154901
59	0x3d118cb3	0.03553457
60	0x3a2c948e	0.00065834157
61	0x3caa224b	0.020768305
62	0xbdb30e80	-0.08743
63	0xbd0235f8	-0.03178975
64	0x3d24d56b	0.040242594
65	0x3caf2228	0.021378592
66	0xbaff2137	-0.0019464855
67	0x3d9bc6ae	0.076062545
68	0x3db73b7d	0.08946893
69	0x3d1419d3	0.03615744
70	0xbd7188c3	-0.058968317
71	0xbd9f6833	-0.07783546
72	0xbd8fab96	-0.07015149
73	0x3d81d5e5	0.06339625
74	0x3da57d97	0.08080595
75	0xbe17b503	-0.14815144
76	0xbcb5248f	-0.022112159
77	0xbd951eac	-0.07281241
78	0xbd2cd2b3	-0.042193126
79	0x3dac5ebc	0.08416507
80	0x3bb4a850	0.0055132285
81	0x3da6c029	0.081421204
82	0xbd984284	-0.07434562
83	0x3db4803d	0.08813522
84	0x3d034d89	0.032056365
85	0x3c93977a	0.018016566
86	0x3d192a88	0.037394077
87	0x3b772253	0.0037709668
88	0xbc1bda14	-0.009512443
89	0x3d8bbb6e	0.06822859
90	0xbccfcd13	-0.025366342
91	0x3d47d2c1	0.048784975
92	0x3db2d554	0.08732095
93	0xbe10537f	-0.14094351
94	0xbcdc61fc	-0.026902191
95	0xbd1c0399	-0.03808937
96	0xbd24aace	-0.040201955
97	0x3d43234f	0.047641095
98	0xbbd6e48b	-0.006558006
99	0x3da1b8dd	0.07896588
100	0xbd5fbc3d	-0.054622877
101	0xbd35d21c	-0.04438983
102	0xb95b3bfd	-0.00020907815
103	0x3ccec55d	0.025240595
104	0x3d339383	0.04384185
105	0xbd8c8d86	-0.06862931
106	0xbdc9b3e0	-0.098487616
107	0x3dd67be4	0.10472849
108	0xbaa4990a	-0.0012557816
109	0x3c91cc8f	0.017797736
110	0x3dee0de0	0.1162374
111	0xbbfaf550	-0.007658638
112	0x3e36683c	0.178132
113	0xbe023159	-0.12714137
114	0xbe30979d	-0.17245336
115	0xbaaa5595	-0.0012995476
116	0xbe140002	-0.14453128
117	0x3d74793f	0.05968594
118	0x3e10e76a	0.14150777
119	0x3c9869bb	0.018605104
120	0xbccab19b	-0.024742892
121	0x3db5e0dd	0.0888078
122	0x3c6768a9	0.014124074
123	0xbcdeaa71	-0.027180882
124	0xbd79f841	-0.06102777
125	0x3c08db75	0.008353104
126	0x3dc49175	0.09598056
127	0x3c87d132	0.016579244
128	0xbc8ebdec	-0.017424546
129	0x3e5114e9	0.20418133
130	0x3d48b965	0.04900493
131	0x3db829da	0.089923576
132	0x3cb829d3	0.02248088
133	0x3e403973	0.18771915
134	0x3dde9cb4	0.108697325
135	0x3d2faf4b	0.04289178
136	0xbc2dae53	-0.010600644
137	0xbc035bfc	-0.008017536
138	0xbc2608d1	-0.010133938
139	0xbda0c0c3	-0.078492664
140	0x3dda51f3	0.10660162
141	0xbd873059	-0.066010185
142	0x3da31dea	0.0796469
143	0x3df2557e	0.118327126
144	0xbd13c729	-0.036078606
145	0xbd04859f	-0.032353994
146	0x3c96dd93	0.018416202
147	0xbe07cf27	-0.13262616
148	0x3d6d84ac	0.057987854
149	0xbc044aa9	-0.008074441
150	0x3e22d470	0.15901351
151	0xbd08a1b9	-0.033357356
152	0x3dc2cafb	0.09511372
153	0xbdc14de0	-0.094386816
154	0xbd07f2bb	-0.03319047
155	0x3d1c6b92	0.038188525
156	0x3d9b38e3	0.0757921
157	0xbb58d441	-0.0033085498
158	0xbd057a53	-0.03258736
159	0x3d89d0a6	0.0672925
160	0xbde81d28	-0.11333686
161	0x3dd19a96	0.10234563
162	0xbdb74122	-0.0894797
163	0x3ccd7f65	0.02508516
164	0xbcefc522	-0.029268805
165	0x3c25e6ea	0.010125855
166	0xbccb7395	-0.024835387
167	0x3e1a1773	0.15048008
168	0x3c7f1bde	0.015570609
169	0xbc5c3fab	-0.013442914
170	0x3d77210e	0.060334258
171	0x3e478794	0.19485313
172	0x3d529e52	0.051420517
173	0x3c68e282	0.01421416
174	0xbe46a22a	-0.19397798
175	0x3d8b8935	0.068132795
176	0xbc7ce2bd	-0.015434918
177	0x3e0e1af1	0.13877465
178	0x3db061a4	0.086123735
179	0x3db611b2	0.08890094
180	0xbd204c35	-0.039135177
181	0xbd258b5d	-0.04041611
182	0xbd1b8022	-0.037963994
183	0xbc3249f7	-0.010881892
184	0x3e1203a3	0.142592
185	0x3db35220	0.087558985
186	0x3d925898	0.07145804
187	0x3da811c2	0.08206512
188	0xbe2b4cb4	-0.16728479
189	0x3dca6693	0.09882846
190	0xbd0cba62	-0.034357436
191	0xbd444586	-0.047917865
192	0xbe25b3ce	-0.16181871
193	0x3b6f147b	0.0036480713
194	0x3e266fa8	0.16253531
195	0xbc784839	-0.015153938
196	0x3d4cafde	0.049972408
197	0xbd5bf13e	-0.053696863
198	0x3d100d29	0.0351688
199	0x3ba62407	0.0050702128
200	0x3d594b73	0.05305047
201	0x3d5c4545	0.053776998
202	0xbd89c88b	-0.06727704
203	0x3d94cc10	0.07265484
204	0x3da93759	0.0826251
205	0x3dccfdd7	0.100093536
206	0xbcf2ad41	-0.02962363
207	0x3c0bb768	0.008527614
208	0xbd402542	-0.04691053
209	0xbd8e7fce	-0.069579706
210	0xbdad9be2	-0.08476998
211	0xbd20f83a	-0.039299227
212	0xb8e662aa	-0.00010985632
213	0x3e0e0898	0.13870466
214	0x3e46f868	0.19430697
215	0x3d584a1f	0.052805062
216	0xbd4dab97	-0.05021247
217	0x3d02cc23	0.03193296
218	0x3bcdadb6	0.0062768115
219	0x3da99b66	0.08281593
220	0xbe24da84	-0.16098982
221	0x3ab99122	0.0014157633
222	0xbdd19fc2	-0.102355495
223	0x3d38cbcb	0.045116227
224	0x3d87f139	0.066378064
225	0xbcba4d76	-0.022742014
226	0x3d514071	0.051086847
227	0xbd7bf7ff	-0.061515804
228	0xbdd8b307	-0.10581022
229	0x3e41c877	0.18924128
230	0x3d116b15	0.035502512
231	0x3e3034f2	0.17207697
232	0x3c9e8ecf	0.019355206
233	0x3cc927dc	0.02455514
234	0x3d9b5316	0.07584207
235	0xbdc523fd	-0.09626005
236	0x3e56deb3	0.2098339
237	0xbe51e396	-0.20496973
238	0xbc5934f3	-0.013257253
239	0x3cc84408	0.024446502
240	0xbdadfae9	-0.08495123
241	0x3ca232c2	0.019799594
242	0xbdadb78c	-0.084822744
243	0x3d5dcb31	0.054148857
244	0x3e0c6db5	0.13713725
245	0xbd742c30	-0.059612453
246	0x3d25837f	0.040408608
247	0x3d886ae7	0.06661015
248	0xbdc8d622	-0.098064676
249	0xbe01047e	-0.1259937
250	0xbd85eab1	-0.065389045
251	0xbdeebd24	-0.116571695
252	0x3d6f64b7	0.05844566
253	0x3c9cbcd1	0.019133003
254	0x3de252f3	0.110509776
255	0x3a679486	0.00088340824

actor.0.bias f4 [32]
0	0x39c5e0f3	0.00037742368
1	0x3b83c2e6	0.0040210364
2	0x3afe5431	0.0019403753
3	0x3a05e1ec	0.00051072123
4	0x3ac4d793	0.0015017859
5	0xba39d582	-0.0007089005
6	0x3b0a3afc	0.0021092286
7	0x3b08bd25	0.0020864692
8	0xbb27cef5	-0.0025605534
9	0xbb0c6c03	-0.0021426685
10	0xbae5fd84	-0.0017546867
11	0xbb9a8f95	-0.0047168233
12	0x3b4cbdfd	0.0031241172
13	0xba907581	-0.0011021347
14	0xbb28a46a	-0.0025732764
15	0xbb7e31ab	-0.0038786929
16	0xbb6738ce	-0.003528166
17	0xbb359536	-0.0027707345
18	0x3ae0562a	0.0017115523
19	0xba9d2e21	-0.0011991897
20	0x3a85643e	0.0010176969
21	0x3b040d75	0.0020149623
22	0xbb04cbbc	-0.0020263037
23	0x3ac2b9e4	0.0014856425
24	0xba9dbcfa	-0.0012034469
25	0x396b5e8f	0.00022446572
26	0x3aa89b77	0.0012863715
27	0x3b20a3cb	0.002451169
28	0x34404bc0	1.7908951e-07
29	0x3b048c1c	0.0020225113
30	0x370f8151	8.553573e-06
31	0xba643f6e	-0.00087069615

actor.2.weight f4 [32, 78, 3, 3]
0	0x3bff3b08	0.0077890195
1	0xbcedb747	-0.029018058
2	0x3bca9711	0.0061825593
3	0xbc6287ab	-0.013826291
4	0xbb95c094	-0.0045700762
5	0x3dde089e	0.10841487
6	0x3d246615	0.040136416
7	0x3d7fd873	0.06246228
8	0xba3cabc0	-0.00071972236
9	0x3be62d64	0.007024454
10	0xbd4637d5	-0.04839309
11	0xbd3736d4	-0.044730023
12	0x3d323007	0.043502834
13	0xbd63c10b	-0.055604022
14	0xbb996291	-0.0046809395
15	0x3d0cba8f	0.034357604
16	0x3c3011b8	0.010746412
17	0x3d1438ac	0.03618686
18	0xbd882fe1	-0.06649757
19	0xbd7db464	-0.061939612
20	0x3d4568e0	0.04819572
21	0xbcd5eff8	-0.026115403
22	0x3dca8e05	0.09890369
23	0x3c30c771	0.010789738
24	0x3cd5d409	0.026102083
25	0x3d8b9b14	0.06816688
26	0x3d1449ec	0.03620331
27	0xbc227c31	-0.009917305
28	0x3a7de900	0.0009685904
29	0xbd4dcd10	-0.05024439
30	0xbd5f4987	-0.05451348
31	0xbc376d5a	-0.011195505
32	0x3d855b4d	0.06511555
33	0x3c1e537c	0.009663459
34	0x3dbacd90	0.09121239
35	0xbd6af6c7	-0.05736425
36	0xbd31ae1c	-0.043378934
37	0xbddace52	-0.10683884
38	0x3d438fc7	0.04774454
39	0xbdaab5e8	-0.08335477
40	0xbd1bc552	-0.038029976
41	0x3bd69e37	0.0065496224
42	0xbd4e0009	-0.050293002
43	0xbda8b5c5	-0.08237795
44	0xbd09fd7f	-0.03368902
45	0xbc7f758e	-0.015591992
46	0xbcd892a5	-0.026437113
47	0x3d87fe89	0.066403456
48	0xbdd0ee13	-0.10201659
49	0xbd83bdfb	-0.0643272
50	0x3bf46baa	0.0074591236
51	0xbbe28d81	-0.0069138412
52	0x3d5dc1d4	0.054139927
53	0x3d19f763	0.037589442
54	0xbcab0b0f	-0.020879297
55	0x3d8bd23a	0.06827207
56	0xbda8e7ab	-0.08247312
57	0x3da245b8	0.07923454
58	0x3d3549e4	0.04425992
59	0xbc5e83ff	-0.013581275
60	0xbc7c623f	-0.015404283
61	0xbcf62f1d	-0.030051762
62	0x3dc782e5	0.09741763
63	0x3ba49d9a	0.0050236704
64	0x3d67427f	0.0564599
65	0xbd984767	-0.07435494
66	0x3c9c82e7	0.019105388
67	0x3cc0f846	0.023555886
68	0x3d4a45f2	0.04938311
69	0xbc258d13	-0.0101044355
70	0x3cff62f9	0.031175124
71	0xbb229440	-0.0024807602
72	0xbd3b7ecb	-0.045775216
73	0xbc881419	-0.016611146
74	0xbe06a3f8	-0.13148487
75	0xbadfc71c	-0.0017072889
76	0xbd88c758	-0.06678647
77	0xbcd372cb	-0.025811573
78	0xbb02196c	-0.0019851578
79	0x3d0a076a	0.033698477
80	0xbcde3779	-0.02712606
81	0x3c73b371	0.014874325
82	0x3da2ae62	0.07943417
83	0x3d5232b0	0.05131787
84	0x3d231ae6	0.039820574
85	0x3c0734cb	0.008252333
86	0x3da28b1d	0.0793669
87	0x3d143d7f	0.03619146
88	0x3caab953	0.020840323
89	0x3c4f81b5	0.012665202
90	0x3d67f6db	0.056631904
91	0x3d8ca142	0.06866695
92	0xbd75cb32	-0.060008235
93	0x3d1186ec	0.035529062
94	0xbdc1d355	-0.094641365
95	0xbda90613	-0.08253112
96	0x3d2bd8e8	0.041954905
97	0x3d1c5619	0.038168047
98	0xbb52d3a3	-0.0032169602
99	0xbd91cbb0	-0.071189284
100	0x3d068baa	0.032848038
101	0xbcbb0fbc	-0.022834651
102	0xbca8c781	-0.020602943
103	0xbade3d61	-0.0016955548
104	0x3db77f2b	0.08959802
105	0x3da390f1	0.0798663
106	0x3d5cdfbe	0.053924315
107	0x3b955124	0.004556792
108	0xbcb11a52	-0.021618996
109	0x3c8c3982	0.017117266
110	0xbdba1e73	-0.09087839
111	0xbd2da712	-0.04239566
112	0xbddfa6a7	-0.10920458
113	0xbb249550	-0.0025113411
114	0x3d8763bd	0.066108204
115	0xbd1ed360	-0.0387758
116	0xbd004684	-0.03131725
117	0x3c30cfbb	0.010791714
118	0xbd8a1ab5	-0.06743375
119	0xbc5fa5f9	-0.013650411
120	0xbc0d3e24	-0.0086207725
121	0xbc8d5510	-0.017252475
122	0xba82fe5d	-0.0009994019
123	0xbd39ff73	-0.04540963
124	0xbd3f8d23	-0.046765458
125	0x3c9c0de3	0.01904959
126	0xbc8c1f1c	-0.017104678
127	0x3d7dcd27	0.061963227
128	0x3d1d56b9	0.038412783
129	0x3d3a6cd1	0.04551393
130	0xbd2f54fd	-0.04280566
131	0x3cb0c1f6	0.021576863
132	0xbc0f7dc1	-0.008758009
133	0x3dae62c5	0.085149325
134	0xbdb1b971	-0.08677948
135	0xbd377a35	-0.04479428
136	0xbd829662	-0.063763395
137	0x3d093e26	0.033506535
138	0xbd9148d4	-0.07093969
139	0xbc6069c3	-0.013697091
140	0xbd8925f8	-0.06696695
141	0xbd927a2c	-0.07152209
142	0xbb6eb6ae	-0.0036424804
143	0xbccbe9aa	-0.024891693
144	0x3cf7eeec	0.030265294
145	0x38e53100	0.00010928698
146	0x3d532d5f	0.05155694
147	0xbd8d5596	-0.0690109
148	0x3d34dc88	0.044155627
149	0x3d5f674f	0.054541882
150	0xbc755e4d	-0.014976096
151	0x3c57a487	0.013161785
152	0x3ce973dd	0.02849763
153	0xbcc85aa8	-0.02445729
154	0x3cbba16a	0.022904117
155	0x3d2e3639	0.04253218
156	0x3dd698ec	0.10478386
157	0x3c92fbac	0.017942272
158	0x3d953dd1	0.07287181
159	0xbd45401a	-0.048156835
160	0xbd371bc7	-0.044704225
161	0x3d77eea5	0.060530324
162	0x3c9508d0	0.018192679
163	0x3d17c473	0.037052583
164	0xbd154f09	-0.036452327
165	0xbd3314b1	-0.043720905
166	0xbdb4de0e	-0.08831416
167	0x3c5f0f71	0.013614521
168	0x3ce8e82d	0.028431023
169	0xbd1ebd01	-0.038754467
170	0x3cac4161	0.021027269
171	0x3d83c92e	0.06434856
172	0xbc967757	-0.018367453
173	0x3c5c9d8a	0.013465295
174	0x3d248362	0.04016436
175	0x3cf7d961	0.030255022
176	0xbd26586d	-0.040611673
177	0x3d276887	0.04087117
178	0xbd995bc7	-0.07488208
179	0xbd96d7b9	-0.073653646
180	0x3cede8a9	0.029041605
181	0x3d018b4f	0.031626996
182	0x3d292ae7	0.04130068
183	0xbcc41731	-0.02393684
184	0x3cdefd80	0.027220488
185	0x3d60cc7d	0.054882515
186	0xbd37f273	-0.044908952
187	0xbcdc2ba0	-0.02687627
188	0x3c84a797	0.016193194
189	0xbcd4ee2b	-0.025992474
190	0x3deb25ba	0.11481805
191	0xbd767837	-0.06017324
192	0x3cbdcbd0	0.023168474
193	0x3dd17da4	0.10229042
194	0xbdaf8025	-0.085693635
195	0xbd2a8e46	-0.04163959
196	0xbcbe731a	-0.023248244
197	0x3d7c0e69	0.06153718
198	0xbd9439e2	-0.07237603
199	0x3cf87447	0.030328883
200	0xbd994938	-0.074846685
201	0xbc39fa16	-0.011351129
202	0x3daf52a3	0.085606836
203	0x3aba8999	0.0014231681
204	0x3c213be8	0.009840943
205	0xbd156bf9	-0.036479924
206	0xbca58e4a	-0.02020945
207	0x3c6d8be8	0.014498688
208	0x3dba7537	0.09104388
209	0x3c7178a9	0.01473824
210	0xbd141411	-0.03615195
211	0xbd8b0a89	-0.06789119
212	0x3c07b395	0.008282562
213	0x3cd2a5ae	0.025713768
214	0xbd3386d4	-0.043829754
215	0xbb9aa8ca	-0.0047198283
216	0xbd95e041	-0.07318164
217	0x3b22682d	0.0024781332
218	0x3cfcba80	0.030850649
219	0x3d7035b9	0.058644984
220	0xbd3a71d4	-0.04551871
221	0xbd945245	-0.07242254
222	0x3db3ca2c	0.087787956
223	0xbc9aeaa6	-0.018910717
224	0xbc2f7f2e	-0.010711474
225	0x3d1bf52d	0.038075615
226	0xbd1ee523	-0.03879274
227	0xbda3db32	-0.080007926
228	0x3d87590e	0.06608783
229	0xbd7f6af0	-0.062357843
230	0x3d0fd283	0.03511287
231	0xbdda76b0	-0.10667169
232	0xbd760d68	-0.06007138
233	0xbc2cb7bc	-0.010541853
234	0xbd9f1312	-0.07767309
235	0x3cff69c0	0.031178355
236	0x3cdab789	0.026698845
237	0x3cccdcb9	0.025007593
238	0x3cbcbf21	0.023040356
239	0x3df62809	0.12019355
240	0x3bf3715e	0.007429286
241	0x3d9ecd74	0.07754031
242	0xbd1654f2	-0.036702104
243	0xbc8256f6	-0.015910607
244	0xbcc5d1a9	-0.024147825
245	0x3d8c3124	0.0684531
246	0xbc182991	-0.009287254
247	0x3d5ade7c	0.053434834
248	0xbbd929b6	-0.006627287
249	0x3cb0d26d	0.021584714
250	0xbc702712	-0.014657753
251	0xbd819740	-0.06327677
252	0x3ccf8167	0.025330259
253	0x3c6b17a7	0.014348901
254	0xbc394d19	-0.011309885
255	0xbd44dce0	-0.048062205

actor.2.bias f4 [78]
0	0xb98b6056	-0.00026583922
1	0xbb857e07	-0.0040738615
2	0x3b037c70	0.0020063184
3	0x3abaaadb	0.0014241593
4	0x3bf03af5	0.007331247
5	0x3b42d275	0.0029727493
6	0x3bab05d0	0.0052191988
7	0xbbc87df9	-0.0061185327
8	0xbb448104	-0.0029984126
9	0x3b47b690	0.0030473806
10	0x00000000	0.0
11	0x00000000	0.0
12	0x00000000	0.0
13	0x00000000	0.0
14	0x00000000	0.0
15	0x00000000	0.0
16	0x00000000	0.0
17	0x00000000	0.0
18	0x3a82e4ec	0.0009986437
19	0x3b110467	0.0022127868
20	0xbad0a56b	-0.0015918439
21	0xbb73adb0	-0.0037182383
22	0x00000000	0.0
23	0x00000000	0.0
24	0x00000000	0.0
25	0x00000000	0.0
26	0x00000000	0.0
27	0x00000000	0.0
28	0x00000000	0.0
29	0x00000000	0.0
30	0x00000000	0.0
31	0x00000000	0.0
32	0x00000000	0.0
33	0x00000000	0.0
34	0x00000000	0.0
35	0x00000000	0.0
36	0x00000000	0.0
37	0x00000000	0.0
38	0x00000000	0.0
39	0x00000000	0.0
40	0x00000000	0.0
41	0x00000000	0.0
42	0x00000000	0.0
43	0x00000000	0.0
44	0x00000000	0.0
45	0x00000000	0.0
46	0xbab8bfd5	-0.0014095256
47	0x00000000	0.0
48	0x00000000	0.0
49	0x00000000	0.0
50	0x00000000	0.0
51	0x00000000	0.0
52	0xbaf08dc7	-0.00183528
53	0x00000000	0.0
54	0xbb9a61ba	-0.004711357
55	0x00000000	0.0
56	0x00000000	0.0
57	0x00000000	0.0
58	0x00000000	0.0
59	0x00000000	0.0
60	0x3b94898a	0.0045329975
61	0x00000000	0.0
62	0x00000000	0.0
63	0x00000000	0.0
64	0x00000000	0.0
65	0x00000000	0.0
66	0x00000000	0.0
67	0x00000000	0.0
68	0x00000000	0.0
69	0x00000000	0.0
70	0x00000000	0.0
71	0x00000000	0.0
72	0x00000000	0.0
73	0x00000000	0.0
74	0x00000000	0.0
75	0x00000000	0.0
76	0x00000000	0.0
77	0x00000000	0.0

critic.1.weight f4 [128, 1024]
0	0xbc525bda	-0.012839282
1	0x3c72828c	0.014801633
2	0x3d367ef1	0.044554655
3	0xbd39f097	-0.04539546
4	0x3bf11d76	0.0073582483
5	0xbd8b46e0	-0.06800628
6	0x3a0e3ff0	0.00054263975
7	0x3c99362e	0.018702593
8	0x3db3fe70	0.087887645
9	0xbbf4b531	-0.0074678888
10	0x3cc3521a	0.02384286
11	0xbd0b7b92	-0.034053393
12	0x3d2d5aff	0.04232311
13	0xbcdbc287	-0.026826156
14	0x3cd8a871	0.026447507
15	0x3d22b39a	0.039722063
16	0xbd448cfa	-0.04798601
17	0xbca613c2	-0.020273093
18	0x3d3ba1c9	0.045808587
19	0xbdb0d619	-0.08634586
20	0xbcce6ecb	-0.025199315
21	0x3c8be8f2	0.01707885
22	0x3ce5c82b	0.02804955
23	0x3c0384c7	0.008027262
24	0xbbe842d7	-0.007088046
25	0xbd1f95d4	-0.038961247
26	0xbc80af31	-0.015708538
27	0x3d799477	0.060932603
28	0xba6de52a	-0.00090749806
29	0x3cb25d3a	0.02177297
30	0xbc2c4b17	-0.01051595
31	0xbd945558	-0.072428405
32	0xbcba8b71	-0.022771569
33	0xbd95cce8	-0.073144734
34	0x3dc96862	0.098343626
35	0x3d8d86c6	0.069104716
36	0x3d8fdfe9	0.07025129
37	0x3ca3186f	0.019909112
38	0x3c27e1f5	0.010246743
39	0xbd1b87bb	-0.03797124
40	0xbd0de21a	-0.034639455
41	0xbd3fe41e	-0.04684841
42	0xbc7e8280	-0.015534043
43	0xbc134190	-0.008987799
44	0x3c9268a9	0.017872171
45	0xbc1b1657	-0.009465775
46	0xbba2287d	-0.0049486742
47	0x3d54af92	0.05192525
48	0xbc7ed963	-0.015554759
49	0x3c994047	0.018707408
50	0x3d3d0b99	0.04615364
51	0xbd0df69f	-0.034659024
52	0x3d497049	0.04917935
53	0x3e3307f3	0.17483501
54	0x3c93d329	0.018045025
55	0xbd98d4e2	-0.07462479
56	0x3ca401d8	0.02002041
57	0x3d34aff0	0.0441131
58	0x3ad26415	0.0016051555
59	0x3d0861d9	0.03329644
60	0x3d9f1997	0.07768553
61	0x3c597b88	0.013274081
62	0xbc1beafb	-0.009516473
63	0x3c646069	0.013939002
64	0x3ded4c62	0.115868345
65	0xbd53da05	-0.05172159
66	0x3c102a07	0.008799083
67	0x3cab5acf	0.020917324
68	0xbb9018c2	-0.0043974826
69	0x3d3b3696	0.045706354
70	0xbd3e0457	-0.046390858
71	0x3b9a9aff	0.004718184
72	0xbcaa4278	-0.020783648
73	0x3ae70db6	0.0017627988
74	0xbd91fba5	-0.071280755
75	0xbcafdd64	-0.021467872
76	0xbc8bfe95	-0.017089168
77	0x3d1c5d5d	0.038174976
78	0xbc334a3a	-0.01094299
79	0x3d06cdd4	0.032911137
80	0xbd02eab3	-0.031962108
81	0x3d47400c	0.048645064
82	0xbd28ce3a	-0.041212298
83	0x3b15b00e	0.0022840532
84	0xbda16fb3	-0.07882633
85	0xbb550606	-0.003250481
86	0xbd695409	-0.056964908
87	0xbbc2ecf1	-0.005948656
88	0xbdc994e6	-0.09842853
89	0x3b59c9a5	0.0033231762
90	0xbd200702	-0.039069183
91	0x3d214374	0.03937097
92	0xbd0c391f	-0.034234162
93	0xbb9befeb	-0.004758825
94	0x3bb802f4	0.0056155864
95	0xbc0ee0a1	-0.008720548
96	0xbc1152f5	-0.008869876
97	0x3d7d42c3	0.061831247
98	0x3d840d44	0.06447843
99	0xbdb6701e	-0.089081034
100	0x3c21f176	0.009884229
101	0x3acfd078	0.0015854975
102	0xbda734a2	-0.08164336
103	0x3cc82fe8	0.024436906
104	0x3cded2fb	0.027200213
105	0xbcad10ab	-0.021126112
106	0xbc526999	-0.012842559
107	0xbc8bed8a	-0.01708104
108	0x3d3f7d20	0.046750188
109	0x3c4450e9	0.011982181
110	0x3c87a1cb	0.016556641
111	0x3d1501b8	0.036378592
112	0xbd199b06	-0.037501357
113	0x3d1337b4	0.035941795
114	0x3c71f518	0.014767908
115	0x3cfeba39	0.031094657
116	0xbcbcc2eb	-0.023042163
117	0x3b6419c9	0.0034805408
118	0x3cae133f	0.021249412
119	0xbd61b823	-0.055107247
120	0xbafb6c86	-0.0019182123
121	0x3c1d17e6	0.009588217
122	0x3d05aa23	0.03263296
123	0x3c9c527f	0.019082306
124	0x3d5b7eea	0.05358783
125	0x3cf8b133	0.030357933
126	0xbacc9f14	-0.0015611374
127	0x38ca1d8f	9.637616e-05
128	0x3c77fd9d	0.01513615
129	0x3d93f24f	0.07223951
130	0x3ca6d9f1	0.020367594
131	0x3c7a5561	0.015279145
132	0x3c9d7170	0.01921913
133	0x3cee3a6c	0.029080592
134	0xbc092005	-0.00836945
135	0xbc95d338	-0.018289194
136	0xbd133f0f	-0.03594881
137	0x3cf5dfe5	0.030013988
138	0xbd346214	-0.044038847
139	0xbc2ecc3e	-0.010668812
140	0x3dafb1dd	0.085788466
141	0x3ca23930	0.01980266
142	0xbd4b59c9	-0.049646173
143	0xbc3f6452	-0.011681633
144	0xbe067a7b	-0.1313266
145	0xbcb77b7f	-0.022397755
146	0xbdb2da4c	-0.08733043
147	0x3d366bc9	0.044536386
148	0x3d623de2	0.055234797
149	0x3c5f0c68	0.013613798
150	0x3d05c88e	0.032661967
151	0x3cbf3bf0	0.02334401
152	0x3d48c381	0.049014572
153	0xbd87e8fb	-0.066362344
154	0x3dc4862b	0.09595903
155	0x3d8a5424	0.0675433
156	0x3c742072	0.014900314
157	0x3c8b7b7f	0.017026661
158	0x3d0d872e	0.034552746
159	0xbd5849d7	-0.052804794
160	0xbcec5b64	-0.028852172
161	0xbd542c2c	-0.051799938
162	0x3cd5b705	0.026088247
163	0xbd27bbd2	-0.040950604
164	0xbc690cdd	-0.014224258
165	0xbcc0ddfe	-0.023543354
166	0xbcbe2e30	-0.023215383
167	0x3dc74eb8	0.09731811
168	0xbd87c3a5	-0.06629113
169	0xbcac265c	-0.021014385
170	0x3babf791	0.005248018
171	0xbc7e32cd	-0.015515042
172	0x3d26549b	0.04060803
173	0x3d03ee44	0.03220965
174	0xbc69b95e	-0.014265386
175	0xbc349056	-0.0110207405
176	0xbd7f5d15	-0.06234463
177	0x3d241570	0.040059507
178	0x3c88f94d	0.016720438
179	0xbd19343a	-0.037403323
180	0x3d99a1b5	0.07501546
181	0x3e03171e	0.12801787
182	0xbd2d1802	-0.042259224
183	0xbc8c46c9	-0.017123597
184	0x3cfd2a0a	0.030903835
185	0xbc846588	-0.016161695
186	0xbcf699b1	-0.030102583
187	0xbd2c242c	-0.042026684
188	0xbcdd3112	-0.027000938
189	0xbdc62400	-0.09674835
190	0xbd84e77a	-0.06489463
191	0xbc442b0d	-0.011973155
192	0xbc6d0bb1	-0.0144681195
193	0x3c3dfea3	0.011596355
194	0xbd4eedb2	-0.050519653
195	0x3ad26669	0.0016052249
196	0xbc9737e7	-0.018459274
197	0xbd083789	-0.033256087
198	0xbc88400e	-0.016632106
199	0xbd13422a	-0.03595177
200	0x3d2cf7d1	0.042228524
201	0x3d0ea90d	0.03482919
202	0xbb05e8f8	-0.002043305
203	0xbb5a3976	-0.003329841
204	0x3c9b7e4f	0.018981127
205	0x3c88286e	0.01662084
206	0xbd3f0226	-0.04663291
207	0x3d4cf399	0.050037
208	0x3dad6b7c	0.08467767
209	0xbb46a35b	-0.003030977
210	0xbbafb31a	-0.0053619267
211	0x3d1e2309	0.03860763
212	0x3bf27611	0.0073993285
213	0x3c8a0b88	0.016851202
214	0x3b85c3f9	0.0040821997
215	0x3d1d5b35	0.03841706
216	0xbcc192a7	-0.0236295
217	0x3cc0f211	0.023552926
218	0xbd167278	-0.03673026
219	0xbdbc2967	-0.09187584
220	0x3d769532	0.060200877
221	0xbc6b7a38	-0.014372401
222	0x3d201744	0.039084688
223	0x3db28b78	0.08718008
224	0x3c9f66d1	0.019458206
225	0x3b9c2554	0.004765192
226	0x3cd5f52f	0.02611789
227	0x3d0ac0be	0.03387522
228	0xbd1b44d8	-0.03790745
229	0x3d7ddbbc	0.061977133
230	0xbcf59db5	-0.029982427
231	0xbc452fc9	-0.012035319
232	0x3d83b330	0.06430662
233	0x3d9c265b	0.07624503
234	0xbc402c59	-0.011729323
235	0x3d72893c	0.05921291
236	0xbcac8405	-0.021059046
237	0x3ce7e884	0.028309114
238	0x3c619570	0.013768539
239	0xbd0cd465	-0.034382243
240	0xbd6074ac	-0.054798767
241	0xbcb5c934	-0.022190668
242	0x3c0c6950	0.00857003
243	0xbcd67a44	-0.026181348
244	0xb8a4b8d9	-7.85456e-05
245	0xbdc1a3ea	-0.09455092
246	0xbccd9b65	-0.025098512
247	0x3ab48c84	0.0013774787
248	0x3d19cd5d	0.037549365
249	0x3d0dffca	0.034667768
250	0xbd2c4931	-0.04206199
251	0xbd10166c	-0.035177633
252	0xbcf10225	-0.029419968
253	0x3e1d69e3	0.15372424
254	0xbb9579c6	-0.0045616357
255	0xbde607db	-0.11231967

critic.1.bias f4 [128]
0	0x3a0f0af6	0.00054566504
1	0xb9af88b6	-0.0003348046
2	0x37d3d7b9	2.5253614e-05
3	0xb803d766	-3.143344e-05
4	0x3a7ea171	0.00097133877
5	0xba4cd300	-0.0007813424
6	0x3834c05b	4.309449e-05
7	0x00000000	0.0
8	0x00000000	0.0
9	0x37070a26	8.04899e-06
10	0xb88ea034	-6.800928e-05
11	0x37978bd5	1.8065717e-05
12	0x38c2cce2	9.288803e-05
13	0xb8ba0fbc	-8.872102e-05
14	0xb7ba170c	-2.218366e-05
15	0xba0ee196	-0.0005450485
16	0x379d4b5f	1.8750956e-05
17	0xba19bdcc	-0.0005864769
18	0x37cb71e6	2.4252524e-05
19	0x3a395aa3	0.0007070696
20	0x3999fb03	0.00029369452
21	0x00000000	0.0
22	0xb8099756	-3.2804288e-05
23	0x37b3051a	2.1340838e-05
24	0xba3168bf	-0.00067676225
25	0xba2a6d4b	-0.0006501271
26	0x00000000	0.0
27	0xb7da4ce9	-2.602344e-05
28	0x00000000	0.0
29	0x00000000	0.0
30	0x3737db67	1.0958734e-05
31	0xb811567c	-3.465124e-05
32	0x00000000	0.0
33	0x3b2544dd	0.0025218048
34	0x376248f0	1.3487632e-05
35	0xb83dfba7	-4.529548e-05
36	0x37a05f4d	1.9117864e-05
37	0xba7af409	-0.0009573107
38	0xba2f9ffe	-0.0006699561
39	0x37be62c0	2.2695749e-05
40	0x00000000	0.0
41	0xba6ba87a	-0.00089896435
42	0xbaa8ce77	-0.0012878914
43	0x3801f42c	3.09834e-05
44	0xbab81c40	-0.0014046505
45	0x3a48db45	0.0007662068
46	0xb818991c	-3.638222e-05
47	0x00000000	0.0
48	0xba8ada4d	-0.0010593623
49	0x39f424fc	0.00046566862
50	0xbb003ac7	-0.0019566284
51	0xba031207	-0.00049999397
52	0x37d34d51	2.5189163e-05
53	0x00000000	0.0
54	0x00000000	0.0
55	0xba4e26c4	-0.0007864053
56	0x00000000	0.0
57	0x00000000	0.0
58	0xb7313974	-1.0563399e-05
59	0xb81c056a	-3.719834e-05
60	0xb95e5842	-0.00021204448
61	0xb8e2fedb	-0.0001082399
62	0x379e7a37	1.8891978e-05
63	0x00000000	0.0
64	0xb80ebfe6	-3.4034158e-05
65	0x37af2174	2.0877203e-05
66	0xb831a435	-4.235302e-05
67	0xb8f37ff4	-0.00011610976
68	0xb825c054	-3.9518185e-05
69	0x00000000	0.0
70	0xba9f2046	-0.0012140356
71	0x00000000	0.0
72	0xbaba5bfb	-0.0014218086
73	0x37b01412	2.0990181e-05
74	0x37d4a3ba	2.534861e-05
75	0xb88a0376	-6.5809974e-05
76	0xb9f7e3fb	-0.0004728137
77	0x00000000	0.0
78	0x37150383	8.88191e-06
79	0x37dd1834	2.6356523e-05
80	0x36265560	2.4785622e-06
81	0xb88d18fa	-6.728056e-05
82	0xba8090f1	-0.0009808821
83	0x378c30e0	1.671206e-05
84	0x3917adef	0.00014465277
85	0xba73c724	-0.00092993886
86	0xbab9e53e	-0.0014182699
87	0x39acb4ce	0.00032941106
88	0xb81bf521	-3.7183174e-05
89	0x00000000	0.0
90	0xb82782c7	-3.99377e-05
91	0x00000000	0.0
92	0xba41eb0c	-0.00073973904
93	0x36a6a87b	4.966799e-06
94	0xb9fe9b5f	-0.00048562416
95	0xb798100a	-1.812728e-05
96	0xb98f3e7b	-0.00027321637
97	0xb81046f0	-3.439834e-05
98	0x37bbf636	2.2406788e-05
99	0x37a17c2a	1.9250514e-05
100	0x3a21a2b1	0.00061659055
101	0x37ac17a0	2.0514999e-05
102	0xb84b52de	-4.8476148e-05
103	0x37fa54da	2.9841834e-05
104	0xb84cafe6	-4.880121e-05
105	0x00000000	0.0
106	0xb81ae742	-3.6931837e-05
107	0xb88e5285	-6.786458e-05
108	0x3a22bfc3	0.00062083843
109	0xba76f114	-0.0009420079
110	0x00000000	0.0
111	0xb7fd73a0	-3.0213792e-05
112	0xb8ff5d8c	-0.00012176772
113	0xbb02bbd0	-0.001994837
114	0xb817a980	-3.6159065e-05
115	0x3a2b046c	0.0006523791
116	0x3a052e0f	0.00050804106
117	0x00000000	0.0
118	0x00000000	0.0
119	0xb934474d	-0.000171927
120	0xb811630e	-3.4662946e-05
121	0xb8266e12	-3.9679995e-05
122	0x37a25a2b	1.9353893e-05
123	0x38d976af	0.00010369473
124	0xb81cd691	-3.739313e-05
125	0xbb1c1bea	-0.002382035
126	0x00000000	0.0
127	0xb81a06d4	-3.672282e-05

critic.3.weight f4 [1, 128]
0	0x3ce84711	0.0283542
1	0xbd1dc3d0	-0.03851682
2	0x3e1240fd	0.14282604
3	0xbd90e683	-0.070752166
4	0x3d10155a	0.035176612
5	0x3c3c2a47	0.011484689
6	0xbe15c163	-0.14624552
7	0xbd832067	-0.06402665
8	0xbd39bfe5	-0.04534902
9	0x3dcd47b9	0.10023446
10	0xbc7c891d	-0.01541355
11	0x3d5a6749	0.053321157
12	0xbccc62e3	-0.024949497
13	0x3e45805e	0.1928725
14	0x3c2d11e6	0.010563349
15	0xbd528482	-0.0513959
16	0x3d6c3dae	0.05767601
17	0xbc6fe606	-0.014642244
18	0x3df8c05a	0.12146063
19	0x3da9de60	0.08294368
20	0x3da05413	0.07828536
21	0x3d07c939	0.033150885
22	0xbe368a11	-0.17826106
23	0x3d93d84b	0.07218989
24	0xbc0d6331	-0.008629606
25	0x3d92ecec	0.071740955
26	0xbceaedce	-0.028677847
27	0x3dad1cd4	0.08452764
28	0x3e171f7a	0.14758101
29	0x3d9ea40a	0.07746132
30	0x3db7a6c7	0.08967357
31	0xbdeaa5fa	-0.11457439
32	0x3bb02a33	0.0053761243
33	0xbbfad32a	-0.0076545672
34	0x3d1d0323	0.03833307
35	0xbd1c0d2c	-0.0380985
36	0x3d7b1573	0.061299752
37	0xbddc09fc	-0.10744092
38	0x3d1bf2e0	0.03807342
39	0x3db9f23b	0.09079405
40	0x3ccf6b8e	0.02531984
41	0xbadb34ee	-0.0016724148
42	0x3e062f54	0.13103992
43	0x3e20cf99	0.15704192
44	0xbd335410	-0.04378134
45	0x3de51625	0.11185864
46	0xbdb9c6f1	-0.09071148
47	0xbd2b7e3b	-0.04186843
48	0x3dfe6153	0.12420907
49	0xbd5402eb	-0.051760595
50	0x3b9e4213	0.004829654
51	0xbdaf33b2	-0.08554782
52	0x3e1449d6	0.14481291
53	0x3af41340	0.001862146
54	0xbc718f42	-0.014743628
55	0xbd9fc6db	-0.078016005
56	0x3dc5c905	0.09657482
57	0xbdb2e57a	-0.087351754
58	0x3c731142	0.014835658
59	0xbdaa2da4	-0.083094865
60	0xbd574070	-0.052551687
61	0xbc21d08c	-0.009876382
62	0x3d75e0c5	0.06002881
63	0x3d980ca1	0.07424284
64	0xbdf1a04e	-0.11798154
65	0x3d99f88e	0.07518111
66	0xbae186f4	-0.0017206357
67	0x3d9114db	0.07084056
68	0xbd77d641	-0.060507063
69	0x3ce0f48e	0.027460363
70	0x3db014aa	0.08597691
71	0xbe29f63d	-0.16597839
72	0xbd9f88b4	-0.07789746
73	0x3d962da0	0.07332921
74	0x3e0c4524	0.1369825
75	0x3bca35d1	0.006170966
76	0x3de176b5	0.1100897
77	0xb9726f3b	-0.00023120355
78	0x3b0df794	0.002166246
79	0x3e39d5c8	0.18147957
80	0x3cbde3ae	0.023179855
81	0xbc801f18	-0.015639827
82	0x3d7e1c6f	0.062038835
83	0x3d4921dc	0.049104556
84	0x3d8efa8f	0.06981384
85	0x3da1c7d6	0.07899444
86	0x3e3a3680	0.18184853
87	0x3d4ee3b1	0.050510112
88	0xbd9c1cf3	-0.07622709
89	0x3d5e6cf0	0.05430311
90	0xbd6cf6bc	-0.05785249
91	0xbc8585cb	-0.016299149
92	0x3dc1124e	0.094273195
93	0xbcb61cdc	-0.022230558
94	0xbd242cca	-0.040081777
95	0x3e207ead	0.15673323
96	0x3cb6d1f8	0.022316918
97	0xbdfc4788	-0.12318331
98	0x3da78803	0.08180239
99	0x3d8089f5	0.06276313
100	0x3d7fa6f9	0.062415097
101	0x3d8c816d	0.068606235
102	0xbd75396e	-0.059869222
103	0x3dd53738	0.10410923
104	0xbd084e18	-0.0332776
105	0xbe007b5f	-0.12547062
106	0xbcd3e8ad	-0.025867784
107	0xbc8163aa	-0.015794594
108	0x3e274f03	0.16338734
109	0xbd98c4fb	-0.07459446
110	0xbcfee1e7	-0.031113578
111	0x3c26c3b1	0.010178492
112	0xbe8130c6	-0.25232524
113	0x3e0ed5f1	0.139488
114	0xbdb7cb23	-0.08974292
115	0x3de619e8	0.1123541
116	0x3e163511	0.1466868
117	0x3e30f400	0.17280579
118	0x3c210799	0.009828472
119	0xbdf52a4a	-0.119709566
120	0xbe039ab4	-0.12851983
121	0xbd5026d8	-0.050818294
122	0x3d7f50b0	0.06233281
123	0xbc892b1d	-0.01674419
124	0xbd99945c	-0.074990004
125	0x3e02d453	0.12776308
126	0xbda4383a	-0.08018537
127	0xbdae7429	-0.085182495
