experiments/ppo_hrl/models/MicroRTSGridModeVecEnv__ppo_utils__1__1721366908/8192/attack.pt (torch, 802531 bytes, 11 tensors)

encoder.1.weight f4 [32, 30, 3, 3]
0	0x3d54c325	0.051943917
1	0x3bec6b67	0.007214952
2	0xbe030bf2	-0.12797526
3	0x3dd66b18	0.10469645
4	0xbda27741	-0.07932902
5	0xbc820b5b	-0.015874555
6	0x3b75ce7a	0.0037507103
7	0x3d984ac1	0.07436133
8	0xbd7ad3b3	-0.06123705
9	0xbd248119	-0.04016218
10	0xbc1ba636	-0.009500077
11	0x3bad9dce	0.005298353
12	0xbd16c32e	-0.03680723
13	0xbd45db8f	-0.04830509
14	0xbceaaa4d	-0.028645659
15	0x3d74a098	0.059723467
16	0xbc98f756	-0.018672626
17	0xbcd8f491	-0.026483806
18	0x3d04e38e	0.032443576
19	0x3c186869	0.009302237
20	0x3d29980d	0.041404773
21	0xbe180b8c	-0.14848155
22	0xbc5e9963	-0.013586375
23	0xbc9ea93c	-0.019367807
24	0x3c38b769	0.011274197
25	0x3d048c4f	0.03236037
26	0x3e32e03c	0.17468351
27	0x3d899c5e	0.06719278
28	0x3c6a7440	0.014309943
29	0xbb68a6e0	-0.0035499856
30	0xbdaaf60c	-0.08347711
31	0xbdbf34ff	-0.0933628
32	0xbe1eb633	-0.15499191
33	0x3d013134	0.031541064
34	0x3d025dec	0.031827852
35	0xbdad30f9	-0.084566064
36	0x3cf9444e	0.030428078
37	0x3d8545a5	0.06507424
38	0xbd7ef0ac	-0.06224124
39	0xbd68d48c	-0.056843325
40	0xbddfa677	-0.109204225
41	0xbd1ae292	-0.03781373
42	0x3d3c5eb6	0.04598876
43	0xbdba68fd	-0.09102056
44	0x3d78fd24	0.06078829
45	0xbe065e83	-0.13121991
46	0x3e13d715	0.14437516
47	0x3d49a935	0.049233634
48	0x3baa6716	0.005200277
49	0x3d173194	0.036912516
50	0x3d1ce644	0.038305536
51	0xbcf47286	-0.029839765
52	0xbe2fa8e2	-0.17154267
53	0x3e09618a	0.13416114
54	0x3da1804e	0.078858
55	0x3cf60171	0.030029984
56	0x3e6fca1f	0.23416947
57	0xbdc9a460	-0.09845805
58	0xbcb69315	-0.022286931
59	0xbe16edc7	-0.14739142
60	0xbd0ff707	-0.035147693
61	0x3dfd699a	0.123736575
62	0xbc8b5668	-0.017008975
63	0xbd29a9a6	-0.041421555
64	0xbd56041b	-0.05225001
65	0x3d0c98a9	0.034325276
66	0xbaa6d47f	-0.0012728124
67	0xbc3b67f1	-0.011438356
68	0x3d0e2cd5	0.034710724
69	0x3ced53cd	0.028970623
70	0x3dc02f8c	0.09384069
71	0xbe0c5f7b	-0.13708298
72	0x3e49ad7a	0.19695082
73	0xbcee4de7	-0.029089881
74	0xbdbbbd2b	-0.0916694
75	0xbda22ae0	-0.07918334
76	0xbd852bca	-0.06502493
77	0x3cf48966	0.029850673
78	0xbd479f23	-0.04873575
79	0xbe6050f4	-0.21905881
80	0xbda805be	-0.0820422
81	0xbe46c367	-0.19410478
82	0x3cfc6c9d	0.03081351
83	0x3d8885e8	0.066661656
84	0x3cb91dd7	0.022597237
85	0x3cc3446b	0.023836335
86	0x3da2295d	0.07918046
87	0xbd26b284	-0.04069759
88	0x3d942c10	0.07234967
89	0xbd1c24de	-0.038121097
90	0xbd9ae910	-0.075639844
91	0x3c9d86d2	0.019229326
92	0x3d7ff32b	0.062487762
93	0x3e33a423	0.17543082
94	0x3d7ea806	0.06217196
95	0x3df1fc45	0.11815695
96	0x3dafe458	0.08588475
97	0x3cd52a01	0.026021006
98	0x3d7f5bcf	0.062343415
99	0x3db3f0d2	0.08786167
100	0x3d4d5665	0.05013122
101	0x3d8d9891	0.06913865
102	0x3e04f58a	0.1298429
103	0xbdc717b9	-0.097213216
104	0x3bf0c6e0	0.0073479265
105	0x3beccb95	0.0072264173
106	0x3e60db59	0.21958674
107	0xbc7255d3	-0.01479097
108	0xbcb3cbb9	-0.021947728
109	0xbdffd862	-0.124924436
110	0xbdaefa26	-0.08543806
111	0xbb12f1c3	-0.0022421933
112	0xbd9e134e	-0.07718526
113	0xbc94e4c0	-0.018175483
114	0xbd86ad01	-0.065759666
115	0xbd98d0b1	-0.0746168
116	0x3d5a6339	0.053317282
117	0xbd00c3f4	-0.031436875
118	0x3d4de0a2	0.050263055
119	0x3dad79a9	0.084704705
120	0xbe05ee20	-0.13079119
121	0xbc8a4b4f	-0.016881613
122	0x3d073722	0.033011563
123	0xbe100a8e	-0.14066526
124	0xbe030006	-0.12792978
125	0x3d11114a	0.03541688
126	0xbd484cd1	-0.048901383
127	0x3db22bd4	0.08699766
128	0x3e4d1bad	0.20030089
129	0xbd875b59	-0.0660922
130	0x3cd1376d	0.025539124
131	0xbc63c5a2	-0.0139021
132	0xbd01beab	-0.031675976
133	0x3db0a2d7	0.08624809
134	0x3d79c5d4	0.06097968
135	0x3d93764f	0.072003
136	0xbd6aec29	-0.057354126
137	0xbdd8ff45	-0.10595564
138	0x3e13f452	0.1444867
139	0x3de03d28	0.10949165
140	0x3d026b7b	0.031840783
141	0xbd8a6924	-0.06758335
142	0xbd045454	-0.032306984
143	0x3ddd39af	0.10802018
144	0xbdb27bce	-0.0871502
145	0xbc0ce511	-0.008599536
146	0xba2a41fe	-0.0006494819
147	0xb8dcf838	-0.00010536652
148	0xbce224f8	-0.027605519
149	0x3dc3d45d	0.095619895
150	0x3ca0a290	0.019608766
151	0x3d88eee5	0.066861905
152	0xbd541d33	-0.05178566
153	0x3e7271c4	0.2367621
154	0x3c8298fc	0.01594209
155	0xbd1b9d49	-0.037991796
156	0x3c24d54d	0.0100606205
157	0x3d001005	0.031265277
158	0x3d69e4d1	0.057102982
159	0x3e1fa515	0.15590318
160	0xbd470789	-0.04859117
161	0xbda9dfbd	-0.08294628
162	0xbc093c37	-0.008376173
163	0x3b0ac3d6	0.0021173856
164	0x3cc7b94f	0.024380354
165	0x3d2cb586	0.0421653
166	0xbd426179	-0.04745624
167	0xbddee08b	-0.10882672
168	0x3c59bc74	0.01328956
169	0xbbabb9e7	-0.005240667
170	0xbd99c435	-0.07508127
171	0xbd3d2316	-0.04617604
172	0xbd97777a	-0.07395835
173	0xbdd25a08	-0.10271078
174	0x3b91eaf0	0.0044530556
175	0xbde2652c	-0.11054453
176	0xbc913101	-0.017723562
177	0x3db19cca	0.08672483
178	0x3dc1ae2f	0.09457051
179	0x3e16b016	0.14715609
180	0x3e2bc2a9	0.16773476
181	0x3d08677c	0.033301815
182	0x3daf6f37	0.085661344
183	0x3cf1c6d7	0.02951376
184	0x3d82123c	0.06351134
185	0x3cd93838	0.026516065
186	0x3ce801d1	0.028321179
187	0xba00c50c	-0.0004912175
188	0x3c721330	0.0147750825
189	0x3da37e40	0.07983065
190	0xba6f3fd8	-0.000912664
191	0xbcd3990e	-0.025829818
192	0xbc0af991	-0.008482353
193	0xbd066661	-0.03281248
194	0xbc7d1f21	-0.015449316
195	0xbd2204c8	-0.03955534
196	0x3cff1a3f	0.031140445
197	0x3d2b905a	0.04188571
198	0xbc97914f	-0.018501906
199	0x3cfba1b0	0.030716747
200	0x3d6243a2	0.05524028
201	0x3df0087d	0.11720369
202	0xbe271691	-0.16317202
203	0xbe115854	-0.14193851
204	0x3e5a15cd	0.21297379
205	0x3d3d477f	0.046210762
206	0x3d8ca530	0.068674445
207	0xbc10ce7c	-0.008838292
208	0x3de04c92	0.10952105
209	0xbc176b2b	-0.009241859
210	0x3da2b65c	0.079449385
211	0xbc09315e	-0.008373586
212	0x3c6bf1c4	0.014400903
213	0x3e2d357e	0.16914937
214	0x3c3d700a	0.011562357
215	0xbe8be943	-0.27326402
216	0xbd6d81eb	-0.057985228
217	0xbd92742e	-0.07151066
218	0xbd0230fd	-0.031785
219	0x3d32d841	0.043663267
220	0xbd27e505	-0.040989894
221	0xbdeccee8	-0.11562902
222	0x3e1eb82e	0.15499946
223	0x3d572a41	0.05253053
224	0xbe04b34d	-0.12959023
225	0x3d6a0388	0.057132274
226	0xbd91752f	-0.07102429
227	0x3c5f38d3	0.013624388
228	0x3d2e3056	0.042526565
229	0xbe054e10	-0.1301806
230	0xbccc811d	-0.02496391
231	0xbd5005eb	-0.050786894
232	0xbe089878	-0.13339412
233	0x3de88695	0.113537945
234	0xbc7d0134	-0.015442181
235	0xbd2ce595	-0.042211134
236	0x3e44cc9b	0.19218676
237	0x3c6113d9	0.013737642
238	0x3c8ff83d	0.017574424
239	0xbbcaba6d	-0.0061867745
240	0xbd49356e	-0.04912322
241	0x3d654356	0.05597242
242	0x3dce8c9e	0.10085414
243	0x3db9d649	0.09074075
244	0x3cf60f79	0.030036675
245	0xbc986f16	-0.018607657
246	0x3d53029b	0.051516157
247	0xbe0ef3c9	-0.13960184
248	0x3e993fc0	0.2993145
249	0x3d06a5b9	0.03287289
250	0xbdf22e35	-0.118252195
251	0x3d41be34	0.047300532
252	0x3d739507	0.059468295
253	0x3dbbc9fc	0.09169385
254	0x3ce1f9b7	0.027584894
255	0x3c8ee228	0.017441824

encoder.1.bias f4 [32]
0	0xbaaa9490	-0.0013014246
1	0x3a2981a0	0.0006466154
2	0xba671e70	-0.0008816486
3	0xbb475926	-0.0030418127
4	0x3ab28198	0.0013618944
5	0x38ae2c48	8.3052146e-05
6	0xbb604832	-0.003422272
7	0xb9967d50	-0.00028703595
8	0xbaa6a577	-0.0012714107
9	0xba7e45f3	-0.00096997543
10	0x3b4a04c1	0.0030825587
11	0xba5ba21e	-0.00083783444
12	0xba542458	-0.0008092574
13	0xbabbdfb7	-0.001433364
14	0xbb0e1c84	-0.0021684477
15	0xbacacc33	-0.0015472233
16	0xbb441a74	-0.0029922994
17	0xb9d31be5	-0.0004026584
18	0x3a784c3a	0.0009471808
19	0xb8eafbe2	-0.00011204906
20	0xba86514c	-0.0010247617
21	0xbad6d7ff	-0.0016391276
22	0x39e23709	0.00043147083
23	0xba9421b4	-0.0011301548
24	0x3b119f7d	0.0022220307
25	0xb9e8df34	-0.00044416788
26	0xba71dd04	-0.00092263543
27	0xba006a89	-0.00048986875
28	0xba20c468	-0.00061327824
29	0x3b091053	0.002091427
30	0x36444980	2.9249059e-06
31	0x3a1eaf32	0.0006053328

encoder.4.weight f4 [64, 32, 3, 3]
0	0x3da57549	0.08079011
1	0x3d2c3da7	0.042050984
2	0xbe123dbc	-0.14281362
3	0xbd0ccf45	-0.034377355
4	0xbcde0aa9	-0.027104693
5	0xbd5ee4af	-0.05441731
6	0x3ab98e95	0.0014156873
7	0x3dfaf86b	0.12254413
8	0x3cbe16fe	0.023204323
9	0xbd85c327	-0.06531363
10	0x3e416372	0.18885592
11	0x3e220026	0.15820369
12	0x3e02d49e	0.1277642
13	0xbd229728	-0.039694935
14	0x3c347579	0.011014336
15	0xbd8abeee	-0.06774698
16	0xbcecb0cd	-0.028892899
17	0x3cdf7f72	0.02728245
18	0xbdec4c78	-0.11538023
19	0x3d97a69d	0.07404826
20	0xbbc987e4	-0.0061502326
21	0x3df62e79	0.12020583
22	0xbcdca802	-0.026935581
23	0xbd1b6e31	-0.037946884
24	0x3d0a6cb5	0.033795077
25	0xbd4f0c71	-0.050548974
26	0xbda88daa	-0.08230145
27	0x3d292ebe	0.041304342
28	0x3ca1719e	0.019707497
29	0xbe480564	-0.19533306
30	0x3cbffe1d	0.0234366
31	0xbdbdfe80	-0.09277058
32	0xbe008904	-0.12552267
33	0x3dd2ef7f	0.102995865
34	0x3a22b56e	0.00062068447
35	0xbc76a5d4	-0.015054185
36	0x3c5cded9	0.013480865
37	0xbd03e80e	-0.032203726
38	0x3daaeb9c	0.0834572
39	0xbda9a68d	-0.0828372
40	0xbd8b9d07	-0.0681706
41	0x3e6ab17e	0.2291927
42	0xbd10d7c9	-0.03536204
43	0x3c2666d5	0.010156353
44	0xbbca652f	-0.006176613
45	0x3de4c8f4	0.11171141
46	0xbdf8e820	-0.12153649
47	0xbdaff179	-0.08590979
48	0xbdf68306	-0.120367095
49	0xbdcd4416	-0.10022752
50	0xbdb7d6b1	-0.08976496
51	0xbbfa4419	-0.0076375124
52	0xbb277f71	-0.0025558139
53	0xbd763a8b	-0.060114425
54	0x3ddad792	0.10685648
55	0x3d97a27b	0.074040376
56	0x3c91936f	0.017770497
57	0xbdeb3e87	-0.114865355
58	0x3cec9caf	0.028883306
59	0x3d5d7567	0.05406704
60	0xbc0bfc7a	-0.008544082
61	0x3e0d8140	0.13818836
62	0xbcff100e	-0.031135585
63	0x3d217d36	0.03942605
64	0xbdfc6aea	-0.1232508
65	0x3d2031c1	0.03910995
66	0xbc083b59	-0.008314931
67	0xbcd979c5	-0.026547322
68	0xbdb49417	-0.088173084
69	0x3d116949	0.0355008
70	0xbd2af617	-0.041738596
71	0xbc39b283	-0.011334064
72	0x3dec15be	0.115275845
73	0x3cacf530	0.021113008
74	0x3c508819	0.012727761
75	0xbc9ba99d	-0.019001776
76	0xbd335d2f	-0.04379004
77	0x3d084e0b	0.033277553
78	0x3b8826e2	0.004155026
79	0x3b700dd1	0.003662933
80	0xbbd42a7d	-0.0064747916
81	0xbdbd7cbc	-0.09252307
82	0x3dcea222	0.10089518
83	0xbddd44ac	-0.10804114
84	0xbdde917e	-0.10867594
85	0x3cd74582	0.026278261
86	0xbe34d189	-0.17658056
87	0x3def5b66	0.11687355
88	0xbd77673e	-0.060401194
89	0x3ba49c5f	0.0050235237
90	0xbd586707	-0.05283263
91	0xbc1703c9	-0.009217211
92	0xbdbb526a	-0.091465786
93	0xbce667c2	-0.028125647
94	0x3d733552	0.059377022
95	0xbccf265d	-0.025286848
96	0xbd512c6f	-0.051067766
97	0x3db084fa	0.08619113
98	0xbb8da605	-0.0043227696
99	0x3cabe6bb	0.020984044
100	0x3d8402a9	0.0644582
101	0xbe0decd0	-0.13859868
102	0x3d7998a0	0.06093657
103	0x3d3f4933	0.046700668
104	0xbd8e12e8	-0.069372
105	0xbdeaae93	-0.11459079
106	0xbd1bfba4	-0.03808178
107	0x3b947a0d	0.004531151
108	0xbdc6b988	-0.09703356
109	0xbc648a62	-0.013949009
110	0x3d190e18	0.037366956
111	0xbde422fa	-0.11139484
112	0xbd8601b8	-0.065432966
113	0x3dac89ca	0.08424719
114	0xbdaecaca	-0.08534773
115	0xbdafaa3f	-0.08577394
116	0xbc0728b0	-0.008249447
117	0xbdc14f40	-0.09438944
118	0xbda39313	-0.079870366
119	0xbd9e6987	-0.077349715
120	0xbddc6274	-0.10760966
121	0xbd5670a9	-0.052353535
122	0x3c3fd32c	0.011708062
123	0xbc72d4d5	-0.014821251
124	0xbc8d8e06	-0.017279636
125	0x3ce548c3	0.027988797
126	0xbd9192a7	-0.0710805
127	0x3e125f66	0.14294204
128	0xbc35f42b	-0.011105577
129	0x3d3f9239	0.04677031
130	0x3d90f9ad	0.07078872
131	0xbde10ea7	-0.10989123
132	0xbd30f264	-0.04319991
133	0xbc2a808b	-0.010406624
134	0xbdcfc1d5	-0.101443924
135	0xbdca835b	-0.09888335
136	0x3da03165	0.07821921
137	0xbd6918c6	-0.05690839
138	0xbd80f34d	-0.06296406
139	0x3df52036	0.119690344
140	0xbd39c5ad	-0.045354534
141	0xbdadb87c	-0.08482453
142	0x3dd12527	0.10212164
143	0x3b523bf8	0.0032079201
144	0xbe06aae8	-0.13151133
145	0x3d971b33	0.07378235
146	0xbd88f40e	-0.06687175
147	0xbc6c1a07	-0.014410502
148	0xbd51688c	-0.051125094
149	0xbe00ec4b	-0.12590139
150	0x3d5bc66b	0.053656023
151	0x3e2b5341	0.16730978
152	0x3c79098c	0.01520003
153	0xbe25bcd4	-0.16185313
154	0x3da74768	0.081679165
155	0x3e1dfcdc	0.1542849
156	0xbc01d861	-0.007925124
157	0x3d6cbf3a	0.057799555
158	0xbdf141a2	-0.117800966
159	0xbe6d42b4	-0.23169976
160	0x392ddb07	0.0001658016
161	0xbda346e1	-0.079725035
162	0xbe13761d	-0.14400525
163	0xbe02ed97	-0.12785946
164	0xbe0ead15	-0.13933213
165	0xbda7dea5	-0.08196763
166	0xbdc105a9	-0.09424908
167	0x3c89d717	0.016826196
168	0xbdf692f6	-0.12039749
169	0xbdba38ec	-0.09092888
170	0x3d6fc04a	0.05853299
171	0xbcccbafe	-0.024991509
172	0x3cb8b64a	0.02254786
173	0x3c9a3895	0.018825809
174	0xbd9f6433	-0.07782783
175	0xbd882ec5	-0.066495456
176	0xbcc9a621	-0.02461535
177	0xbe0ade18	-0.13561285
178	0x3d8a8a5d	0.06764672
179	0xbb12054c	-0.002228099
180	0x3da75da4	0.081721574
181	0x3d7af6d9	0.06127057
182	0x3d1cd62d	0.03829019
183	0xbd8cd0ae	-0.0687574
184	0x3c572fd9	0.013133966
185	0x3dde4bb6	0.108542845
186	0xbe05a906	-0.13052759
187	0x3e02879f	0.12747048
188	0xbdd44302	-0.10364343
189	0x3d661512	0.056172438
190	0xbd3e572d	-0.046469856
191	0x3c7be2c0	0.015373886
192	0x3e1234c8	0.14277947
193	0xbd921913	-0.07133689
194	0xbe408f26	-0.18804607
195	0x3c7e1856	0.015508732
196	0xbda44548	-0.08021027
197	0x3d977b14	0.07396522
198	0x3c1700f2	0.009216534
199	0xbdae28fa	-0.085039094
200	0xbe1e3ccd	-0.15452881
201	0xbd4b8e11	-0.049696032
202	0x3c8c9a38	0.017163381
203	0xbd1b2324	-0.03787531
204	0xbe1aca3a	-0.15116206
205	0xbc6d4ea4	-0.014484081
206	0x3dcabfee	0.09899889
207	0x3c757e60	0.014983743
208	0x3d120882	0.035652645
209	0x3d5bc358	0.05365309
210	0xbd744864	-0.05963935
211	0xbdd9e305	-0.10639004
212	0x3dcc3a0a	0.099720076
213	0x3ea78154	0.32715857
214	0x3bbce337	0.005764391
215	0x3e15b73d	0.14620681
216	0xbe122dc6	-0.14275274
217	0x3d223145	0.03959777
218	0xbb8b9fbc	-0.004260985
219	0xbdaafc42	-0.083488956
220	0x3d12459c	0.035710916
221	0xbda6b9b2	-0.08140887
222	0xbc149f48	-0.009071179
223	0x3db38893	0.08766284
224	0x3d5afc9a	0.053463556
225	0xbdc38ee5	-0.09548739
226	0x3d0998e8	0.03359309
227	0xbc54f363	-0.012997481
228	0x3cdf1489	0.027231472
229	0xbd63538d	-0.055499602
230	0xbd8e8464	-0.06958845
231	0x3c33c48d	0.010972154
232	0xbd641038	-0.05567953
233	0x3dfc091a	0.123064235
234	0x3bf5d341	0.00750199
235	0x3d4547e7	0.048164275
236	0xbd7808b8	-0.06055519
237	0xbd937ac4	-0.0720115
238	0xbdc96ec0	-0.09835577
239	0xbc7f891b	-0.015596653
240	0xbd4700e9	-0.048584852
241	0xbe0f2434	-0.13978654
242	0x3cbd8676	0.023135405
243	0x3dc6ca29	0.09706528
244	0x3de04f7a	0.10952659
245	0x3e06ec3a	0.13176051
246	0x3d80af56	0.06283443
247	0x3de4e9a4	0.11177376
248	0x3c155ddb	0.009116615
249	0xbd9f8ba1	-0.07790304
250	0x3da31401	0.079628
251	0x3cbedbbb	0.023298135
252	0x3cc3090f	0.02380803
253	0xbe1e281e	-0.15444991
254	0xbd54395f	-0.051812526
255	0x3cdba2de	0.02681106

encoder.4.bias f4 [64]
0	0x00000000	0.0
1	0xba87c655	-0.001035879
2	0xba67f728	-0.000884878
3	0x39f0db4d	0.0004593976
4	0xbad25c99	-0.0016049325
5	0xba3025e4	-0.00067195133
6	0xb9f03884	-0.00045818475
7	0xba9c9508	-0.001194627
8	0xb86d70a4	-5.6610108e-05
9	0x3a0b0702	0.00053034734
10	0x39f79883	0.0004722514
11	0xba8282cb	-0.0009957192
12	0xba2e522b	-0.0006649817
13	0xb9a280b8	-0.0003099495
14	0xb95d6d6a	-0.00021116962
15	0xbb27bdaa	-0.0025595226
16	0xba655690	-0.00087485556
17	0xb9b73ec6	-0.0003495125
18	0xbac31ea5	-0.0014886452
19	0x38ee2a57	0.00011356611
20	0xb92242e3	-0.00015474441
21	0x39f8b9cb	0.00047440673
22	0xb9ec843b	-0.00045111947
23	0x391f5cf5	0.00015198051
24	0x3a80736d	0.0009800025
25	0x3938defc	0.00017630676
26	0x3a2f3e45	0.0006684999
27	0xba44bed1	-0.00075052405
28	0xba04a4ea	-0.00050599745
29	0xb8ff1e91	-0.00012165041
30	0xbb2d9073	-0.0026483804
31	0xba203d57	-0.0006112656
32	0xba6b1a41	-0.0008968451
33	0xba3df48f	-0.000724622
34	0xb9184ae0	-0.00014523743
35	0x00000000	0.0
36	0x3a3c0c74	0.00071734865
37	0xba84f3e1	-0.0010143482
38	0x3991202e	0.0002768053
39	0xb99770fc	-0.00028885144
40	0x00000000	0.0
41	0xb9db57b7	-0.00041836288
42	0xb9f6791e	-0.00047011016
43	0xba02effb	-0.00049948663
44	0xba63799e	-0.0008677485
45	0xbaa868f8	-0.0012848666
46	0xba1ce5b0	-0.0005985154
47	0xb8e3d95a	-0.000108646884
48	0xb9ba4e52	-0.00035535038
49	0xba859b17	-0.0010193315
50	0xb96973bd	-0.00022263727
51	0x383cbe8a	4.5000146e-05
52	0xb9e0f87a	-0.0004290974
53	0x00000000	0.0
54	0xba865b29	-0.0010250557
55	0xbaadc52a	-0.0013257612
56	0xba2029e0	-0.00061097555
57	0x385a932f	5.2112326e-05
58	0xb99d11f8	-0.0002995876
59	0x39f5879c	0.00046831078
60	0xba2adaae	-0.0006517571
61	0xbafc5589	-0.0019251566
62	0x3758b31c	1.2916305e-05
63	0xb9a99fe4	-0.0003235332

actor.0.weight f4 [64, 32, 3, 3]
0	0x3caab5ac	0.020838581
1	0xbd9fa35f	-0.077948324
2	0xbd7ea681	-0.06217051
3	0xbd87a209	-0.06622703
4	0x3c168135	0.009186079
5	0x3c3fb7cd	0.011701536
6	0x3d5b5caf	0.053555187
7	0x3d7d1bd0	0.061794102
8	0xbdd1e0b4	-0.10247937
9	0x3cbf8b35	0.023381809
10	0x3bb5cb29	0.0055479
11	0xbcca8d1f	-0.024725495
12	0x3cd8f94c	0.026486062
13	0x3c0e54fa	0.008687252
14	0xbd908d72	-0.070582286
15	0xbd390664	-0.04517211
16	0x3c41a20d	0.011818421
17	0xbcf75b28	-0.030194834
18	0xba8f6fbb	-0.0010943332
19	0x3c8404bf	0.016115544
20	0x3a8536be	0.0010163409
21	0x3d87baec	0.066274494
22	0xbddc52b5	-0.107579626
23	0x3d8d9f2f	0.069151275
24	0xbe191f94	-0.14953452
25	0x3d761668	0.060079962
26	0x3dc40bb7	0.09572547
27	0x3dc37421	0.09543634
28	0x3b329c8b	0.0027253951
29	0x3dd8fd1a	0.1059515
30	0x3d4e4244	0.050356165
31	0xbb8e0d67	-0.004335094
32	0xbe1acc21	-0.15116931
33	0x3dafec8f	0.08590042
34	0x3d1c1d1a	0.03811369
35	0x3d4c0e34	0.049818233
36	0x3e3358e5	0.1751438
37	0xbcf56970	-0.029957503
38	0xbe2df447	-0.16987716
39	0xbdaff086	-0.08590798
40	0x3ac48184	0.0014992212
41	0x3cf372b7	0.029717786
42	0xbdd178ff	-0.10228156
43	0x3dd147dc	0.10218784
44	0x3e118c94	0.14213783
45	0xbd3d7eb1	-0.0462634
46	0x3cdc5a15	0.026898423
47	0x3dceacd4	0.10091558
48	0x3db5550d	0.08854113
49	0x3c0e554b	0.008687328
50	0x3d29a343	0.041415464
51	0x3c206ccd	0.009791565
52	0x3d837dde	0.06420492
53	0x3e002140	0.12512684
54	0x3d32a50a	0.043614425
55	0x3d9cede7	0.07662564
56	0xbd2326ca	-0.039831914
57	0x3d94b722	0.07261492
58	0xbd2b17d5	-0.041770775
59	0x3d5928c9	0.05301741
60	0xbcaf269c	-0.021380715
61	0xbbb215a2	-0.0054347077
62	0xbc72ca70	-0.014818773
63	0xbd1245c9	-0.035711084
64	0x3da7b1a2	0.08188178
65	0xbe1a0849	-0.15042223
66	0x3e286490	0.16444612
67	0x3b8a3109	0.004217271
68	0xbe00e62b	-0.12587802
69	0x3e216879	0.1576251
70	0xbd23f062	-0.04002417
71	0x3b4cbd3c	0.0031240722
72	0x3d8f1bb2	0.06987704
73	0x3d10356c	0.035207197
74	0x3dab550f	0.08365833
75	0xbdd21678	-0.10258192
76	0x3da04a68	0.07826692
77	0x3d519681	0.051168922
78	0x3d478c36	0.0487177
79	0xbd437206	-0.047716163
80	0xbac8c181	-0.0015316458
81	0x3cc07b33	0.023496246
82	0xbc7aa576	-0.015298238
83	0xbd592a6a	-0.053018965
84	0x3d8392df	0.06424498
85	0x3e09e3b2	0.13465765
86	0xbdaeddb0	-0.08538377
87	0x3d7828fb	0.060585957
88	0xbe023e3b	-0.12719052
89	0xbe0988fa	-0.13431159
90	0xbcc55bdb	-0.024091652
91	0xbe0e47f2	-0.13894632
92	0x3d55e723	0.052222382
93	0x3cd99f12	0.026565108
94	0xbd471df6	-0.048612557
95	0x3daaf929	0.08348305
96	0x3c854ff2	0.016273472
97	0x3cb7707e	0.022392508
98	0x3e18f816	0.14938387
99	0x3c953594	0.018214025
100	0x3d42723f	0.047472235
101	0xbe08ed72	-0.13371828
102	0x3d8fb18e	0.07016288
103	0xbd449097	-0.047989454
104	0xbd700a09	-0.05860332
105	0x3c6a483e	0.01429945
106	0xbe0227e0	-0.12710524
107	0x3d992b4d	0.07478962
108	0x3da8a346	0.08234267
109	0xbc738973	-0.014864313
110	0xbc100ed0	-0.008792594
111	0xbdf74c0c	-0.12075052
112	0x3e0b8b38	0.13627326
113	0xbd92014a	-0.07129152
114	0xbdba7c9f	-0.09105801
115	0xbe23754f	-0.15962718
116	0x3df283a2	0.11841513
117	0xbc1fd37f	-0.009755014
118	0x3d364eed	0.044508863
119	0xbe05411f	-0.13013123
120	0x3df1e6d3	0.11811604
121	0xbcbf9e1b	-0.02339082
122	0xbe472bdf	-0.19450329
123	0x3c5dda73	0.013540852
124	0x3c80c811	0.0157204
125	0xbc5a6301	-0.013329268
126	0xbda540b6	-0.08068983
127	0xbd01c2a7	-0.031679776
128	0xbda048bd	-0.07826374
129	0x3d306387	0.043063667
130	0xbd3ee979	-0.046609376
131	0xbd5bf57f	-0.05370092
132	0x3d90c3b2	0.07068576
133	0x3d62b3f3	0.055347394
134	0xbd7566b8	-0.059912413
135	0x3e138df4	0.1440962
136	0x3d5301e4	0.051515475
137	0x3b71c114	0.0036888765
138	0x3e3f6be1	0.18693496
139	0x3c1839fa	0.009291166
140	0xbd8f90f7	-0.07010072
141	0xbd8036d5	-0.062604584
142	0x3ddac126	0.106813714
143	0x3d3a35e0	0.045461535
144	0x3e31eea7	0.17376195
145	0xbccf47b3	-0.025302744
146	0x3c673576	0.014111867
147	0xbd43dbce	-0.047817044
148	0xbd9bf79b	-0.07615586
149	0xbd9b07ae	-0.07569824
150	0xbe2e38ce	-0.17013857
151	0x3d7f13f6	0.062274896
152	0xbb66622a	-0.0035153725
153	0xbc779a47	-0.015112466
154	0x3dc2e803	0.09516909
155	0x3e0821cc	0.13294142
156	0x3a906695	0.00110169
157	0xbdb0fa17	-0.08641451
158	0xbbd8546e	-0.0066018617
159	0xbdbf9427	-0.0935443
160	0x3d8c3ffd	0.06848142
161	0x3bf3e23f	0.007442742
162	0xbd488efd	-0.04896449
163	0x3de4eaec	0.1117762
164	0x3e132941	0.14371206
165	0x3ce2f4f2	0.02770469
166	0x3d736937	0.059426513
167	0xbd74fd43	-0.05981184
168	0xbde63bb1	-0.11241854
169	0x3c0f7266	0.008755302
170	0x3d54227f	0.05179071
171	0xbccf39e0	-0.025296152
172	0xbd1ac43b	-0.037784796
173	0xbbf701e4	-0.007538067
174	0x3d2e2c8b	0.04252295
175	0x3db081e6	0.08618526
176	0xbd8680ba	-0.065675214
177	0x3c7eb1cc	0.01554532
178	0x3e6a817f	0.22900961
179	0xbd693bba	-0.056941725
180	0x3e66fefe	0.2255821
181	0x3dba369a	0.09092446
182	0xbcb8498b	-0.022496006
183	0x3e026b1d	0.12736173
184	0x3d947705	0.07249264
185	0x3d7c5644	0.061605707
186	0x3deb5823	0.1149142
187	0x3df30fb3	0.11868229
188	0xbde34f56	-0.110991165
189	0x3d807f00	0.06274223
190	0xbd195964	-0.037438765
191	0x3decfc9b	0.11571618
192	0x3d02899e	0.031869523
193	0xbc875549	-0.01652016
194	0x3dcc4876	0.09974758
195	0x3d90333a	0.07041021
196	0x3d321141	0.043473486
197	0xbdbbdc3e	-0.09172867
198	0x3e97b638	0.2963121
199	0x3df8ff2b	0.121580444
200	0x3deff8a5	0.11717347
201	0x3a929849	0.00111843
202	0x3d347afd	0.044062603
203	0x3db711d5	0.08938948
204	0xbce268b5	-0.027637819
205	0x3dcc9e8f	0.0999118
206	0xbdd9909b	-0.106232844
207	0x3e44850e	0.19191381
208	0x3da83c4b	0.08214625
209	0x3da81275	0.082066454
210	0xbc378766	-0.011201715
211	0xbdbbe6b7	-0.09174865
212	0x3dbcf828	0.092270195
213	0x3d9ccaed	0.076558925
214	0x3dc61b5e	0.096731886
215	0x3dd7c3ec	0.10535416
216	0x3cf855f5	0.030314425
217	0x3dc01630	0.09379232
218	0x3d04e8bb	0.03244851
219	0xbde7a693	-0.113110684
220	0x3e1f47f7	0.15554796
221	0xbdad19ac	-0.08452162
222	0x3de77f90	0.113036275
223	0xbdc8c45b	-0.09803077
224	0x3bf274a8	0.0073991604
225	0xbd2737d3	-0.040824722
226	0xbccdb0f8	-0.0251088
227	0x3d351a2e	0.04421442
228	0xbe4219c2	-0.18955138
229	0xbde24c3f	-0.11049699
230	0xbdc2b610	-0.09507382
231	0xbd524abc	-0.051340804
232	0x3d422b08	0.04740432
233	0xbe27549a	-0.16340867
234	0xbd0e09b7	-0.034677234
235	0x3c89f2d0	0.016839415
236	0x3cbce1af	0.023056833
237	0x3d8d7663	0.06907346
238	0xbdebdca9	-0.11516697
239	0xbd3c7e7f	-0.046019074
240	0xbd559605	-0.052145023
241	0x3d5bf2c2	0.05369831
242	0x3cb8f1d9	0.02257626
243	0xbc851d8e	-0.016249444
244	0xbc92dca3	-0.017927473
245	0xbbd60cb5	-0.0065322765
246	0xbcef0ec1	-0.02918184
247	0xbb462ad0	-0.003023792
248	0xbd3b5705	-0.045737285
249	0x3d7aa9b2	0.06119699
250	0xbdd8c648	-0.10584694
251	0xbdce7237	-0.100803785
252	0xbe0e3404	-0.1388703
253	0xbd6e12a6	-0.058123253
254	0x3ca0687b	0.01958107
255	0x3d57d189	0.052690063

actor.0.bias f4 [32]
0	0xba5f2bd6	-0.0008513307
1	0xb9e1e419	-0.0004308529
2	0x3b3c00ea	0.0028687068
3	0x3ac26da2	0.0014833699
4	0xba2ec145	-0.00066663726
5	0xbb54619d	-0.0032406815
6	0x3a150ae0	0.00056855194
7	0x3b0f60af	0.0021877696
8	0x3aed9817	0.0018126991
9	0xbab38437	-0.0013696019
10	0x3a066eb3	0.000512819
11	0x377b87b0	1.4992358e-05
12	0xba07473d	-0.00051604566
13	0x3a4fa959	0.0007921658
14	0x3935e140	0.00017345417
15	0xbb3ce114	-0.002882068
16	0xbb328c0b	-0.0027244117
17	0xb986356e	-0.0002559828
18	0xbb0ba765	-0.0021309492
19	0x3a0e6300	0.0005431622
20	0x3b0d58b1	0.0021567757
21	0xb8fcae26	-0.00012048734
22	0x3996ce4b	0.0002876393
23	0xba0d183c	-0.00053823343
24	0xbaf71688	-0.0018851319
25	0x39fadc30	0.00047847768
26	0xba807a8e	-0.0009802149
27	0xbadcb609	-0.0016838919
28	0x3a95c2c5	0.0011425844
29	0xb9d75fc8	-0.00041079358
30	0x3a900ee6	0.0010990768
31	0xbb14f3aa	-0.0022728243

actor.2.weight f4 [32, 78, 3, 3]
0	0x3d842ae5	0.06453494
1	0x3dc0cadb	0.094136916
2	0x3c0cf4c2	0.008603277
3	0xbc855887	-0.016277565
4	0xbc8b649f	-0.017015753
5	0xbbbb2a6a	-0.0057118433
6	0xbce134f5	-0.027491072
7	0xbd8299f8	-0.063770235
8	0x3d0a8c3c	0.033825144
9	0x3dcba8d0	0.09944308
10	0xbded7481	-0.11594487
11	0xbcf8b9c0	-0.03036201
12	0xbd989b3a	-0.07451482
13	0xbc9a59c1	-0.018841626
14	0xbd696944	-0.056985155
15	0xbe0107d9	-0.1260065
16	0xbcc40155	-0.023926416
17	0xbd9ba260	-0.0759933
18	0xbc8e7fbc	-0.017394893
19	0xbcd93356	-0.026513737
20	0x3bb5e324	0.005550759
21	0xbb98770e	-0.0046528643
22	0x3deccf79	0.1156301
23	0x3c907590	0.017634183
24	0xbc7f98fe	-0.015600441
25	0x3bba9613	0.00569416
26	0xbd802607	-0.06257253
27	0x3d36e3c8	0.044650823
28	0x3d325f4b	0.04354791
29	0x3d3b84e6	0.04578104
30	0x3da04641	0.078259
31	0x3d10365f	0.035208102
32	0xbd058f5c	-0.03260742
33	0xbbcad5ce	-0.0061900383
34	0xbc27ca38	-0.010241084
35	0x3db43b09	0.088003226
36	0xbd4d664d	-0.05014639
37	0xbc8e997e	-0.017407175
38	0x3d93fdb8	0.072261274
39	0x3bfde49a	0.0077481987
40	0xbdba6dc6	-0.09102969
41	0x3dd7afd2	0.10531582
42	0x3c09ac33	0.008402872
43	0x3c03f42a	0.008053819
44	0x3d9e9146	0.077425525
45	0xbd05b75a	-0.03264556
46	0x3cf1a09e	0.029495534
47	0xbc75d2cf	-0.015003874
48	0x3b47de58	0.0030497517
49	0x3c3c4097	0.011490009
50	0x3c338923	0.010957989
51	0x3d1b2901	0.0378809
52	0x3d4f4395	0.05060156
53	0x3c911a0b	0.017712614
54	0x3cfd302c	0.03090676
55	0xbd8db7e0	-0.06919837
56	0x3cdece1c	0.02719789
57	0xbc57db92	-0.013174908
58	0xbdc6f74d	-0.09715138
59	0x3e010094	0.12597877
60	0x3d30567d	0.04305123
61	0x3c31b4ec	0.010846358
62	0xbca4a673	-0.0200989
63	0x3df2fb9f	0.11864399
64	0xbd57e95d	-0.052712787
65	0x3c690e42	0.014224591
66	0xbdfa52ba	-0.1222281
67	0x3cd4cb60	0.025975883
68	0xbd6a636a	-0.057223715
69	0x3c8d0af8	0.017217144
70	0x3cf9356c	0.030420981
71	0xbd151399	-0.036395643
72	0x3ca638fb	0.020290842
73	0xbdcb2212	-0.09918608
74	0xbd5b943b	-0.05360816
75	0x3d867ce5	0.065667905
76	0x3e1ac323	0.15113501
77	0x3c6a42f0	0.014298186
78	0xba1808aa	-0.0005799631
79	0x3c3d56cd	0.011556339
80	0xbca53f33	-0.020171737
81	0x3da185ef	0.07886874
82	0xbc2db3ec	-0.010601979
83	0xbbdeca34	-0.006799007
84	0x3c946598	0.01811485
85	0xbd1c3beb	-0.03814308
86	0xbd8e19dd	-0.06938527
87	0x3d316974	0.04331346
88	0x3d7bb511	0.061451975
89	0x3d897118	0.06711024
90	0xbda0e961	-0.078570135
91	0xbd42bc0a	-0.04754261
92	0xbcbc986c	-0.0230219
93	0xbd0631d6	-0.03276237
94	0x3da340ff	0.079713814
95	0x3c005fc0	0.007835329
96	0x3cde4112	0.027130637
97	0x3d2176b7	0.039419856
98	0x3cdb86b4	0.02679763
99	0x3cb2fc94	0.021848954
100	0x3d2b1760	0.04177034
101	0x3da2a4a6	0.079415604
102	0x3d7e864b	0.06213979
103	0xbd1125a7	-0.0354363
104	0xbd7fcbff	-0.062450405
105	0xbd594f3a	-0.053054072
106	0x3ced7962	0.028988544
107	0x3d89529c	0.067052096
108	0x3c7c7058	0.015407644
109	0x3cf6a3cd	0.030107403
110	0x3d37d92c	0.044884846
111	0x3d88bab7	0.06676238
112	0x3d12b23a	0.0358145
113	0x3d41638b	0.047214072
114	0xbddf8821	-0.109146364
115	0xbd6faa81	-0.058512215
116	0x3cca0f5a	0.024665523
117	0x3dd410c1	0.10354758
118	0xbcb6e4fb	-0.022325983
119	0x3d6eb2a0	0.05827582
120	0x3d93db7e	0.07219599
121	0x3db6c378	0.089240015
122	0x3d936272	0.07196511
123	0xbc9a00a0	-0.018799126
124	0xbd982923	-0.07429721
125	0xbd2b5df8	-0.041837662
126	0xbdfea844	-0.12434438
127	0xbcf48a42	-0.029851083
128	0xbcb4b3de	-0.022058424
129	0x3d025fb9	0.03182957
130	0xbd2028e2	-0.03910149
131	0x3cc24f73	0.023719525
132	0xbcf3283a	-0.029682267
133	0x3c72a47f	0.014809727
134	0x3d61d7b2	0.055137344
135	0xbddd8c59	-0.10817785
136	0xbd062f80	-0.032760143
137	0xbce4e00a	-0.027938861
138	0xbd049bc2	-0.032375105
139	0xbc91b5a7	-0.017786814
140	0xbc963b5e	-0.018338855
141	0x3c73f03d	0.01488882
142	0x3cb140a3	0.021637267
143	0xbd1ccf13	-0.03828342
144	0x3d5f2817	0.054481592
145	0x3861637b	5.373683e-05
146	0x3ce344db	0.027742794
147	0x3dd81530	0.10550916
148	0xbd923981	-0.07139874
149	0xbc045009	-0.0080757225
150	0x3d9d1ccf	0.076715104
151	0x3ccfa806	0.025348675
152	0x3c7236a7	0.014783538
153	0xbd983d25	-0.074335374
154	0x3dc463b6	0.09589331
155	0x3d22d55c	0.039754257
156	0x3da95a03	0.082691215
157	0xbd06c09c	-0.03289853
158	0xbdd846c4	-0.105603725
159	0xbc91e916	-0.01781134
160	0x3dcd9eab	0.10040029
161	0x3e2740b0	0.1633327
162	0x3d4349ec	0.04767792
163	0xbc7c6d1a	-0.015406871
164	0x3dd49db6	0.103816435
165	0xbcbe5cb0	-0.023237556
166	0x3d44267f	0.047888275
167	0xbdc09c9f	-0.09404873
168	0xbd8d1b09	-0.06889922
169	0x3d86267b	0.06550308
170	0x3dfd25a5	0.12360696
171	0xbca510a7	-0.020149542
172	0xbdb48fc7	-0.08816486
173	0xbb148d78	-0.002266733
174	0x3d8f159d	0.06986544
175	0x3d35a08b	0.04434256
176	0xbd3f2497	-0.046665754
177	0x3d750796	0.059821688
178	0xbc245dc1	-0.010032118
179	0xbd8c1a00	-0.068408966
180	0x3ca17c53	0.019712603
181	0x3d00db72	0.03145928
182	0xbd011996	-0.03151854
183	0x3cf34338	0.029695138
184	0xbca10836	-0.019657236
185	0xbd03c5f8	-0.03217122
186	0xbcc5eec1	-0.024161698
187	0x3dc9b909	0.09849746
188	0x3d85942d	0.06522403
189	0x3d91babd	0.071156956
190	0xbdb37f5b	-0.087645255
191	0x3cf6ada6	0.030112099
192	0xbd0d391a	-0.034478284
193	0x3cd09925	0.02546365
194	0x3da23d9f	0.079219095
195	0x3b0150ec	0.001973207
196	0x3d97b074	0.07406703
197	0x3d0ed40a	0.034870185
198	0xbcdd41d6	-0.027008932
199	0x3c5c1e28	0.013434924
200	0xbb43234b	-0.0029775675
201	0x3ccb3bc0	0.024808764
202	0x3bee126b	0.007265379
203	0xbd45a667	-0.048254397
204	0x3d1f2c43	0.03886057
205	0x3d23a482	0.03995181
206	0xbda6dcb3	-0.08147564
207	0x3d655efe	0.055998795
208	0xbd90fcc0	-0.07079458
209	0xbd172a68	-0.036905676
210	0xbdb9b48e	-0.09067641
211	0x3bebbaa5	0.0071938806
212	0x3d30ef89	0.04319719
213	0x3bf899f5	0.0075867125
214	0xbc33912d	-0.010959906
215	0xbc2fa974	-0.010721553
216	0x3e0b24d9	0.13588275
217	0xbd9d5f38	-0.07684177
218	0xbc8d4d83	-0.017248875
219	0x3d926807	0.07148748
220	0xbd42d21a	-0.04756365
221	0x3c05b8bb	0.008161719
222	0xbd7d5229	-0.061845932
223	0x3d2ea3f1	0.042636815
224	0xbd36da6d	-0.0446419
225	0xbcca5398	-0.024698064
226	0xbb4b3469	-0.003100658
227	0x3cc5ddd8	0.024153635
228	0x3d19885f	0.03748357
229	0x3d063e9e	0.03277456
230	0x3d36e210	0.044649184
231	0xbe09a167	-0.13440476
232	0x3c7113b0	0.0147141665
233	0xbd072e21	-0.033002976
234	0xbcb2c2d1	-0.021821411
235	0x3c5c940a	0.01346303
236	0xbcc78fc2	-0.024360541
237	0xbd07d8c0	-0.033165693
238	0xba71b7e4	-0.0009220822
239	0x3d0116cb	0.031515878
240	0x3c04f1ae	0.008114262
241	0x3d2f77de	0.042838924
242	0xbd30b90e	-0.043145232
243	0xbd692489	-0.05691961
244	0x3bf4bf0d	0.007469064
245	0x3d00436e	0.031314306
246	0xbd054df4	-0.032545045
247	0x3d6fd1ab	0.058549564
248	0x3c387dac	0.011260431
249	0x3cb8fb1f	0.022580681
250	0xbddbad2f	-0.107263915
251	0x3d808181	0.06274701
252	0xbcdc5544	-0.026896127
253	0x3d3cde97	0.046110716
254	0x3b8fb7d4	0.0043859277
255	0x3c4e1c9c	0.012580063

actor.2.bias f4 [78]
0	0x3a93797a	0.0011251413
1	0xba9700b4	-0.0011520595
2	0x3aa3a653	0.0012485482
3	0x3aff76ec	0.0019490398
4	0xbb53f0e7	-0.0032339634
5	0x3aa6ddd1	0.0012730901
6	0xbb191927	-0.002336094
7	0x3b0606bc	0.0020450791
8	0x3a36dfcf	0.0006976099
9	0x3ac97d84	0.001537249
10	0x00000000	0.0
11	0x00000000	0.0
12	0x00000000	0.0
13	0x00000000	0.0
14	0x00000000	0.0
15	0x00000000	0.0
16	0x00000000	0.0
17	0x00000000	0.0
18	0x3a13c369	0.00056367234
19	0xbb138c0b	-0.0022513892
20	0x3b47eff1	0.0030508006
21	0xbb28d0ad	-0.0025759146
22	0x00000000	0.0
23	0x00000000	0.0
24	0x00000000	0.0
25	0x00000000	0.0
26	0x00000000	0.0
27	0x00000000	0.0
28	0x00000000	0.0
29	0x00000000	0.0
30	0x00000000	0.0
31	0x00000000	0.0
32	0x00000000	0.0
33	0x00000000	0.0
34	0x00000000	0.0
35	0x00000000	0.0
36	0x00000000	0.0
37	0x00000000	0.0
38	0x00000000	0.0
39	0x00000000	0.0
40	0x00000000	0.0
41	0x00000000	0.0
42	0x00000000	0.0
43	0x00000000	0.0
44	0x00000000	0.0
45	0x00000000	0.0
46	0xbb157cab	-0.0022809904
47	0x00000000	0.0
48	0x00000000	0.0
49	0x00000000	0.0
50	0x00000000	0.0
51	0x00000000	0.0
52	0x3b31ba61	0.0027119147
53	0x00000000	0.0
54	0x3b127673	0.0022348433
55	0x00000000	0.0
56	0x00000000	0.0
57	0x00000000	0.0
58	0x00000000	0.0
59	0x00000000	0.0
60	0xbb21102d	-0.0024576292
61	0x00000000	0.0
62	0x00000000	0.0
63	0x00000000	0.0
64	0x00000000	0.0
65	0x00000000	0.0
66	0x00000000	0.0
67	0x00000000	0.0
68	0x00000000	0.0
69	0x00000000	0.0
70	0x00000000	0.0
71	0x00000000	0.0
72	0x00000000	0.0
73	0x00000000	0.0
74	0x00000000	0.0
75	0x00000000	0.0
76	0x00000000	0.0
77	0x00000000	0.0

critic.1.weight f4 [128, 1024]
0	0xbd0769bc	-0.03305982
1	0xbcc23e46	-0.023711335
2	0x3c9150c9	0.017738717
3	0x3de56802	0.112014785
4	0xbb70810d	-0.0036698014
5	0x3cb811d1	0.022469433
6	0xbd7b1933	-0.06130333
7	0xbd126e76	-0.035749875
8	0x3da2c784	0.07948211
9	0xbb3595b2	-0.0027707634
10	0x3d06d1d9	0.03291497
11	0x3d4d88c9	0.050179277
12	0x3ab2ed18	0.0013650982
13	0xbc3d03d3	-0.011536556
14	0xbdc2566b	-0.09489139
15	0x3d833ffa	0.06408687
16	0x3c84b68b	0.016200325
17	0xbdc75bda	-0.09734316
18	0x3c208f17	0.00979974
19	0x3cfdde5b	0.030989816
20	0xbc1d28fe	-0.009592293
21	0x3cbf0d46	0.023321759
22	0x3c8b6e7d	0.017020458
23	0xbb86bcf6	-0.0041118814
24	0x3d418224	0.047243252
25	0x3ccb30d3	0.024803555
26	0xbd3194a3	-0.04335464
27	0xbd3435e9	-0.043996725
28	0xbc439e7f	-0.011939644
29	0xbd0d0786	-0.034431003
30	0xba2ba676	-0.0006547937
31	0x3d107038	0.03526327
32	0x3d1560dc	0.036469325
33	0x3ccf0f98	0.02527599
34	0x3d07579f	0.033042546
35	0xbd9ba81d	-0.076004244
36	0xbd21dea5	-0.03951897
37	0xbc6e80cc	-0.014557075
38	0x3d1db786	0.0385051
39	0x3d805243	0.0626569
40	0x3c17dd40	0.009269059
41	0xbc69fa8e	-0.014280928
42	0x3b90bd91	0.0044171293
43	0x3dcc563e	0.09977387
44	0x3d28cc0d	0.041210223
45	0xbda52620	-0.080639124
46	0x3d203b0b	0.039118808
47	0x3d1d4b38	0.038401812
48	0x3c9318a5	0.017956087
49	0xbc034150	-0.008011177
50	0x3d912a35	0.070881285
51	0x3cd46d77	0.025931103
52	0xbc8bd073	-0.01706717
53	0x3d12e3ba	0.03586171
54	0x3c8cb9fc	0.017178528
55	0xbc1e4d16	-0.009661933
56	0xbb558549	-0.0032580665
57	0x3d2735d5	0.040822823
58	0x3ccdead4	0.025136389
59	0xbcc47a93	-0.02398423
60	0x3c85c11f	0.016327439
61	0x3ca41fab	0.020034632
62	0xbd1d398f	-0.03838497
63	0x3cce3d71	0.025175782
64	0xbc0f31ba	-0.008739883
65	0x3d6a9477	0.057270493
66	0xbc43db3c	-0.011954125
67	0xbc8534bc	-0.016260497
68	0xbd3b597b	-0.045739632
69	0x3d0a36cd	0.03374367
70	0x3c9f2ebf	0.01943147
71	0x3dc64ed5	0.09683005
72	0xbd068d74	-0.032849744
73	0x3bb2aa24	0.0054524112
74	0x3de8d9d3	0.11369672
75	0x3b136810	0.0022492446
76	0xbc946725	-0.01811559
77	0xbb8f4e88	-0.0043733753
78	0xbd1bd5c6	-0.038045667
79	0x3bfcae05	0.0077111744
80	0xbcb8e4b9	-0.022570001
81	0xbd69ab24	-0.057047978
82	0xbd192934	-0.03739281
83	0x3cd31ece	0.025771525
84	0x3cba9a11	0.022778543
85	0xbd9626aa	-0.07331593
86	0x3d4babeb	0.0497245
87	0x3c08a008	0.008338936
88	0x3cabaaab	0.020955404
89	0x3d0a60bd	0.033783663
90	0x3d237894	0.039909914
91	0x3d25d431	0.040485565
92	0x3b3ba09f	0.0028629673
93	0x3b7ab66f	0.0038255712
94	0xbce6dc91	-0.028181346
95	0x3da461a6	0.080264375
96	0x3b682c13	0.003542666
97	0xbbb9a45e	-0.005665346
98	0xbdb5de56	-0.08880298
99	0x3dc4a7ac	0.09602293
100	0x3d2ac1fc	0.041688904
101	0xbcf8f278	-0.030389056
102	0xbc8709b6	-0.016484123
103	0xbd31bab0	-0.04339093
104	0xbc561d0a	-0.013068447
105	0x3d702770	0.05863136
106	0xbd993910	-0.07481587
107	0x3d234818	0.039863676
108	0xbb663e32	-0.0035132286
109	0xbd971074	-0.07376185
110	0xbd4c9e25	-0.049955506
111	0x3d004b5c	0.03132187
112	0x3d8a5b6f	0.06755721
113	0xbc9f850e	-0.019472625
114	0xbbc82fd7	-0.0061092186
115	0xbd645595	-0.05574568
116	0x3c9a9be4	0.018873163
117	0x3b75ece6	0.0037525236
118	0x3d4f8931	0.050667945
119	0x3d379227	0.044817116
120	0xbd549d6d	-0.051907945
121	0x3b83328c	0.0040038284
122	0xbc8e41e1	-0.017365398
123	0x3bbaf31e	0.0057052514
124	0x3c676cc8	0.014125057
125	0xbbb8a451	-0.0056348224
126	0xbd30ec84	-0.04319431
127	0x3ccdf8aa	0.025142986
128	0xbd9d9df9	-0.076961465
129	0xbd495e1d	-0.04916202
130	0x3cc2ab21	0.023763241
131	0x3c1e562e	0.0096641015
132	0xbcaa82cd	-0.020814324
133	0xbc61b1cd	-0.013775301
134	0x3cc2d1af	0.023781626
135	0x3af39e1a	0.0018586547
136	0xbd0d5f4c	-0.03451471
137	0xbb0f7eee	-0.0021895724
138	0x3c21ffbf	0.009887635
139	0xbbee8125	-0.007278579
140	0x3d12e638	0.035864085
141	0x3d079d6f	0.033109125
142	0x3c90e53d	0.017687434
143	0xbc8ba667	-0.01704712
144	0x3cadd71d	0.021220738
145	0x3d05ea2a	0.03269402
146	0xbc5c1dd2	-0.013434844
147	0x3a2098a4	0.0006126261
148	0x3ca3d034	0.01999674
149	0xbcc0f9de	-0.023556646
150	0x3d093643	0.033499014
151	0xbd5434a0	-0.051808
152	0xbb9ad297	-0.0047248113
153	0x3d1e7e9d	0.038694967
154	0x3d1d3ffb	0.038391095
155	0xbc9a4f9e	-0.018836793
156	0x3c3334a7	0.010937846
157	0xbb6b00ab	-0.0035858552
158	0xbd94e7ee	-0.072707996
159	0x3d713adf	0.058894034
160	0xbd10734c	-0.035266206
161	0x3d321d92	0.04348523
162	0xbd8f02bb	-0.06982943
163	0x3d0c499f	0.034249898
164	0x3d1f3e3f	0.038877722
165	0xbcf7e241	-0.030259253
166	0x3da5d274	0.080967814
167	0x3d882a6a	0.06648715
168	0x3d58a497	0.05289134
169	0xbdbcc3b9	-0.09217019
170	0x3d16a485	0.03677799
171	0x3bb4fe08	0.005523447
172	0xbc9f7b13	-0.019467866
173	0xbd21281b	-0.03934489
174	0xbd8ceb38	-0.06880802
175	0x3da3224a	0.079655245
176	0x3c990d1c	0.018683009
177	0x3c89f7b4	0.016841747
178	0xbc9ea86d	-0.019367421
179	0x3d1a3281	0.03764582
180	0x3d215302	0.039385803
181	0xbce0b507	-0.02743007
182	0xbd53fd8f	-0.051755484
183	0xbbc1a41b	-0.0059094555
184	0x3cdf4c4d	0.027258063
185	0x3b8491cd	0.004045701
186	0x3d01df4b	0.03170709
187	0x3bd1c716	0.0064019067
188	0x3c035266	0.008015251
189	0x3ca9f061	0.020744504
190	0x3c68ed48	0.0142167285
191	0xbcab1710	-0.02088502
192	0x3b513252	0.0031920862
193	0x3cefc919	0.029270696
194	0x3d9efc5d	0.07762978
195	0x3aab311f	0.0013060904
196	0x3d9e71ca	0.07736547
197	0x3b4f7921	0.0031657892
198	0x3d1c5862	0.038170226
199	0xbd4010b3	-0.046890926
200	0xbd8288f8	-0.06373781
201	0x3d610ac8	0.054941922
202	0xbb5dbb50	-0.003383357
203	0x3c5438d6	0.012953004
204	0xbcd58fca	-0.02606954
205	0x3d3ae771	0.045630876
206	0xbc57e4a9	-0.013177075
207	0xbd4cc70d	-0.049994517
208	0x3dbc79bf	0.09202909
209	0x3d6564e5	0.056004424
210	0x3bfc2d19	0.0076958057
211	0x3dad362a	0.084575966
212	0xbcdf0272	-0.027222846
213	0x3c44278e	0.011972321
214	0xbb13c2b1	-0.0022546465
215	0x3c636b8b	0.013880621
216	0x3d13e8ef	0.036110815
217	0x3c5fe0d3	0.013664442
218	0x3d072810	0.03299719
219	0xbcc4b778	-0.024013266
220	0xbcbaeb0e	-0.022817161
221	0xbbfffde3	-0.007812248
222	0x3c5f9352	0.013645964
223	0xbcf10597	-0.02942161
224	0xbd77e4b7	-0.060520854
225	0xbb583255	-0.0032988985
226	0xbc06dac9	-0.008230873
227	0xbdac9b03	-0.08428004
228	0xbb880193	-0.0041505783
229	0xbc8483ea	-0.016176183
230	0x3d28866b	0.041143816
231	0xbd79d00e	-0.060989432
232	0xbd1cc9a9	-0.038278256
233	0x3d4f6bb5	0.050639827
234	0x3d818b35	0.0632538
235	0x3c903af6	0.01760624
236	0x3d47a129	0.04873768
237	0xbc51aea5	-0.012797986
238	0xbab25482	-0.0013605508
239	0x3c93b86c	0.018032275
240	0x3cd0f045	0.025505194
241	0x3e0f62b1	0.14002492
242	0x3b9866ee	0.004650942
243	0xbd21d6e7	-0.039511587
244	0x3cf4615c	0.02983158
245	0xbd30782b	-0.04308335
246	0x3d8f43b9	0.06995339
247	0x3d942698	0.07233924
248	0x3d5bce44	0.053663507
249	0xbd30ff3c	-0.04321216
250	0x3cc33389	0.023828285
251	0x3d6acfba	0.05732701
252	0xbd2e5774	-0.04256387
253	0xbcd85613	-0.02640823
254	0xbd3b4dc8	-0.045728475
255	0xbb8cbf90	-0.004295297

critic.1.bias f4 [128]
0	0xba65db50	-0.0008768337
1	0x390b1cfa	0.00013266868
2	0x38be969f	9.0879614e-05
3	0x38e4f12a	0.000109168075
4	0xb91abbef	-0.00014756595
5	0x00000000	0.0
6	0xbaa3bbb2	-0.0012491851
7	0x38aed055	8.3357714e-05
8	0x38c7ca50	9.526743e-05
9	0x39056654	0.00012721989
10	0x00000000	0.0
11	0x00000000	0.0
12	0xb914f18b	-0.00014204362
13	0x00000000	0.0
14	0xbac741b2	-0.0015202074
15	0xba7a1196	-0.00095393637
16	0x00000000	0.0
17	0xba078491	-0.0005169595
18	0xb9236391	-0.00015581983
19	0xb938f43f	-0.00017638596
20	0xb917dc68	-0.0001448259
21	0xb916f514	-0.00014396413
22	0x00000000	0.0
23	0xb99f028f	-0.0003032875
24	0x00000000	0.0
25	0x00000000	0.0
26	0xb9bf5e5a	-0.00036500656
27	0xb9009769	-0.00012263436
28	0xba83fc7e	-0.0010069755
29	0x00000000	0.0
30	0xb9809013	-0.00024521406
31	0xb9169313	-0.00014359904
32	0x00000000	0.0
33	0xba779876	-0.00094450207
34	0xb91431c4	-0.00014132919
35	0xb94e83fd	-0.0001969486
36	0xb91e21f0	-0.00015080697
37	0x37f59fe5	2.9280733e-05
38	0xbac577f3	-0.0015065655
39	0xb9112c9e	-0.00013844899
40	0x00000000	0.0
41	0x3902c06a	0.00012469446
42	0xb918e5f7	-0.00014581518
43	0x390aa0dc	0.0001322063
44	0xba974dbc	-0.0011543552
45	0x00000000	0.0
46	0xba9fbaf0	-0.0012186449
47	0x00000000	0.0
48	0xb9144419	-0.00014139748
49	0xb9153a6c	-0.00014231511
50	0x00000000	0.0
51	0xba622f54	-0.0008628268
52	0xb9132f62	-0.00014036664
53	0xb83bef92	-4.480739e-05
54	0x00000000	0.0
55	0xba00e119	-0.00049163547
56	0xb98f521f	-0.0002733627
57	0xbab7575a	-0.0013987825
58	0xba9ad8fc	-0.0011813934
59	0x00000000	0.0
60	0x00000000	0.0
61	0xb93e471a	-0.000181463
62	0xb997cc18	-0.00028953026
63	0x00000000	0.0
64	0x38ed8f77	0.00011327763
65	0xb95e124f	-0.0002117839
66	0x00000000	0.0
67	0xb9149de1	-0.00014173194
68	0xb9122385	-0.00013936877
69	0xba0d3c43	-0.0005387703
70	0xb91a3872	-0.00014707612
71	0xb9290ab0	-0.00016121077
72	0xb9ef4726	-0.00045638642
73	0x38e586b6	0.00010944663
74	0xbaa07504	-0.0012241905
75	0xb856ad2a	-5.1182848e-05
76	0xba98e1bc	-0.0011663954
77	0xb9112243	-0.00013841041
78	0x00000000	0.0
79	0x00000000	0.0
80	0x3909f86f	0.00013157887
81	0x38fe34fa	0.000121215315
82	0x39f1c178	0.00046111248
83	0x3937bc52	0.00017522395
84	0xb9ee2e92	-0.00045429595
85	0xb928fa80	-0.00016115047
86	0xb9149322	-0.00014169191
87	0xb80f077c	-3.4100827e-05
88	0x390611d9	0.00012785885
89	0x38f5b455	0.000117161
90	0xba8d3cee	-0.0010775605
91	0x38fc9d28	0.00012045569
92	0xb9118f3a	-0.00013881634
93	0x3901bf60	0.00012373691
94	0xba03106b	-0.00049997
95	0x00000000	0.0
96	0x00000000	0.0
97	0xb97b9f5d	-0.00023996593
98	0x00000000	0.0
99	0x00000000	0.0
100	0xba390b43	-0.0007058868
101	0x39c6b59c	0.00037900812
102	0xb90ea6fe	-0.00013604385
103	0x00000000	0.0
104	0xba37b2dc	-0.0007007548
105	0xb92d2073	-0.00016510654
106	0x00000000	0.0
107	0xba03a599	-0.00050219294
108	0x3908c6b3	0.00013043992
109	0xba987bbd	-0.0011633557
110	0x00000000	0.0
111	0x3908fa03	0.00013063107
112	0x00000000	0.0
113	0xb9b241aa	-0.0003399973
114	0xbaadb225	-0.0013251944
115	0x39087a28	0.00013015477
116	0xb913aa6e	-0.00014082502
117	0x38e789a8	0.00011040579
118	0xb93b90f0	-0.00017887703
119	0x00000000	0.0
120	0x00000000	0.0
121	0xb99d9680	-0.00030057505
122	0xba95c38a	-0.0011426073
123	0x00000000	0.0
124	0x38f8deb4	0.00011867043
125	0xba0cfcbe	-0.00053782377
126	0x00000000	0.0
127	0x3932346d	0.00016994933

critic.3.weight f4 [1, 128]
0	0x3d0e199c	0.03469239
1	0xbe46c99c	-0.19412845
2	0xbc40610a	-0.011741886
3	0xbca17d2d	-0.019713009
4	0x3d022d79	0.031781647
5	0xbe33ba39	-0.17551507
6	0xbb6dad0c	-0.0036266474
7	0xbd4ec118	-0.050477117
8	0xbc683ab1	-0.014174149
9	0xbd8ab059	-0.06771917
10	0x3dbe4890	0.09291184
11	0x3cf82702	0.030292038
12	0x3d7e83f4	0.06213756
13	0xbdd6a128	-0.10479957
14	0xbd961c2d	-0.07329593
15	0x3d512c78	0.0510678
16	0xbdcc67cd	-0.09980736
17	0xbd362723	-0.044470917
18	0x3e2e760c	0.17037219
19	0x3c279a2d	0.010229629
20	0x3d35c493	0.04437692
21	0x3d35492c	0.044259235
22	0xbe5654e4	-0.2093082
23	0xbcadf198	-0.021233365
24	0x3a4536ed	0.0007523138
25	0xbe72429a	-0.23658219
26	0x3cedd9e7	0.029034568
27	0xbd208e73	-0.03919835
28	0x3d77a73a	0.060462214
29	0x3d054ddb	0.032544952
30	0x3b604bfb	0.0034224975
31	0x3d4b6e8d	0.049665976
32	0x3c258c67	0.010104275
33	0xbd7118ba	-0.05886147
34	0x3d937d80	0.072016716
35	0x3dc9c45a	0.09851904
36	0x3cdf8c67	0.027288629
37	0x3b279263	0.002556943
38	0xbde1e5cb	-0.11030158
39	0xbda4ca64	-0.080464154
40	0x3cb6e1f7	0.022324545
41	0xbd503900	-0.05083561
42	0x3aa6dfc3	0.0012731481
43	0xbe2fe896	-0.17178568
44	0x3d958e28	0.07302505
45	0x3ce38a63	0.027775949
46	0xbe45e13c	-0.19324201
47	0xbde4ed88	-0.11178118
48	0x3d9932a1	0.0748036
49	0x3d497b4c	0.04918985
50	0x3e01bda5	0.1267
51	0x3dd324fc	0.103097886
52	0x3da2870d	0.07935915
53	0x3c22544f	0.009907796
54	0x3d4a79a4	0.04943241
55	0x3d80315c	0.062594146
56	0xbdec2629	-0.11530716
57	0xbd9f23fc	-0.07770535
58	0xbc668d58	-0.014071785
59	0xbc22b847	-0.00993163
60	0x3dbb96a5	0.091595925
61	0x3c03931c	0.008030679
62	0xb9fb607d	-0.0004794634
63	0xbd23067d	-0.03980111
64	0xbd4a6251	-0.049410168
65	0x3cc0c13f	0.023529647
66	0xbc26fe64	-0.010192487
67	0x3d78068f	0.06055313
68	0x3dd2eaa0	0.102986574
69	0x3ccaf22c	0.02477368
70	0x3d170b40	0.036875963
71	0x3c87b01e	0.016563471
72	0x3a878c1f	0.0010341442
73	0xbdfa049c	-0.122079104
74	0x3d534100	0.05157566
75	0xbb1f84c6	-0.0024340614
76	0x3e4ece68	0.20195925
77	0x3e1058bb	0.14096348
78	0x3e8350d7	0.25647613
79	0xbcf4df5b	-0.02989166
80	0xbe0b04f4	-0.13576108
81	0xbd110aa5	-0.035410542
82	0x3cc0821a	0.023499537
83	0xbc805f6f	-0.015670506
84	0x3e06a542	0.13148978
85	0x3c81387e	0.015774008
86	0x3d8ae8da	0.06782694
87	0xbd144091	-0.036194388
88	0xbd93c294	-0.07214847
89	0xbce9e63d	-0.028552169
90	0xbdc563bd	-0.09638164
91	0xbd3fe622	-0.04685033
92	0x3dfba749	0.122877665
93	0xbd4008ad	-0.046883274
94	0x3e210068	0.15722811
95	0x3ce852c2	0.028359775
96	0x3e1b6af3	0.15177517
97	0x3de01429	0.10941345
98	0xbe2b1cbe	-0.16710183
99	0xbdabd310	-0.08389866
100	0x3c902c21	0.017599167
101	0x3e20f07d	0.15716739
102	0xbd41289e	-0.047157876
103	0x3d2d332e	0.042285137
104	0x3d617957	0.05504736
105	0x3c4f6e75	0.012660612
106	0xbd7516e9	-0.059836302
107	0x3d9f76c7	0.07786327
108	0xbddc6ed6	-0.10763328
109	0x3ddd7038	0.1081242
110	0xbc021117	-0.007938645
111	0xbde54492	-0.111947194
112	0xbd3a0c3d	-0.045421828
113	0x3abefbac	0.0014570854
114	0xbe3c7208	-0.18402874
115	0xbdcef431	-0.101051696
116	0x3da56607	0.08076101
117	0xbcabe248	-0.020981923
118	0xbc477db4	-0.012175966
119	0x3d9440f4	0.07238951
120	0x3dde222b	0.10846361
121	0xbd936243	-0.07196476
122	0x3ca7fb16	0.02050547
123	0xbd8ebd43	-0.069696926
124	0xbd036e7e	-0.032087795
125	0x3df63c90	0.1202327
126	0xbd220f21	-0.03956521
127	0xbdbbab23	-0.09163501
