experiments/ppo_hrl/models/MicroRTSGridModeVecEnv__ppo_utils__1__1721366908/8192/harvest.pt (torch, 802530 bytes, 11 tensors)

encoder.1.weight f4 [32, 30, 3, 3]
-0.024671176 0.07237243 0.0706202 0.11010006 -0.01460477 0.07489244 0.036567077 -0.075942874
-0.0499101 -0.03968034 0.06715192 0.099581696 0.06282426 0.08701859 -0.04350016 0.12559988
-0.06557411 0.108534664 -0.09565942 0.114754595 -0.07438642 0.09105161 0.21972604 -0.013225007
0.09904271 -0.10678729 0.010357478 -0.04600826 -0.0549814 -0.14985943 -0.05665673 0.004749955
0.0011870931 0.13021941 0.11530366 -0.051861495 0.14166228 -0.14230806 0.0316754 -0.021580435
0.01678548 0.043296725 -0.04318829 0.21981673 -0.13686402 0.06928023 0.1280183 0.10281876
-0.24183205 0.15816304 -0.08459589 -0.15587011 0.09021777 -0.054154556 0.14233829 0.0691436
-0.025373243 -0.12500003 -0.18306433 -0.120296374 -0.0025950496 -0.026340079 -0.026875103 -0.03349026
-0.24676122 0.033442866 0.057525158 -0.10185364 -0.052960806 -0.16815211 0.07075161 0.04030065
0.039867163 0.05236004 0.051608823 -0.09772461 -0.044512365 -0.064249665 0.0990492 0.09121909
-0.08318413 -0.07351795 -0.06392244 -0.20189828 -0.0995227 0.10381746 -0.039233174 0.029000292
-0.0048799464 0.029202262 0.04058307 -0.015150413 -0.0209054 0.12472653 0.10865773 0.11508338
-0.07799407 -0.10822801 0.0020314706 -0.041785803 0.042061504 -0.002848416 0.001327164 -0.17804861
-0.20078817 -0.030282088 0.03865701 -0.01148214 -0.038234163 -0.10415654 -0.023102842 0.043112
-0.09463534 0.002552219 -0.009272167 0.20244172 0.0055659264 -0.13140681 -0.055915155 0.06766946
0.15794991 -0.015428786 0.09399782 -0.11336791 -0.009451119 -0.10334301 -0.025771698 0.0596747
0.04800543 0.09065733 -0.05863427 0.07307227 0.08968964 -0.06506377 -0.04670988 0.08709445
0.068187 -0.094076365 -0.07595407 0.025280872 -0.055397034 -0.052578453 -0.13458572 -0.12594932
0.12783644 -0.17454019 0.18052305 0.02360242 -0.004878292 0.097446956 -0.025236461 -0.013040867
-0.022210486 -0.092863604 0.08795606 0.072542526 -0.033411685 -0.04767638 0.048810676 -0.086100385
0.083422154 0.12317953 -0.007617477 -0.093972705 -0.12124646 -0.112825036 -0.0409928 0.02419843
0.013206117 -0.027114132 -0.088285804 -0.040119737 -0.1262358 -0.048396412 0.06205317 -0.042212874
0.09599369 0.009063645 -0.09932442 -0.043609858 -0.01041895 -0.0030754362 0.0940844 0.10621607
-0.012853081 0.023903538 0.056453526 0.046920914 -0.01938232 0.025531879 -0.08075459 0.15998873
-0.015381297 -0.002417817 0.044680506 0.13692775 0.047677323 0.022472749 0.09430932 0.095495194
-0.007794436 -0.041617062 -0.0064982045 0.1085311 -0.030793827 0.16748562 -0.047181178 -0.019024327
0.17420372 -0.11543123 -0.17533198 -0.004857293 0.044998005 -0.039949954 -0.0875579 -0.14776471
-0.009991742 0.0004958044 0.10499353 -0.16387667 -0.010559524 0.025509493 -0.0780669 0.0764116
0.061097346 0.018883148 0.0014377211 0.060790844 0.05473143 0.034046218 0.070105694 -0.037455663
0.15355785 -0.0787601 -0.011308378 -0.071199544 0.13899657 0.085745014 -0.03497136 -0.017736588
-0.042304527 0.070106216 0.018014457 -0.03768828 0.036519818 0.03494933 0.013058583 -0.022878239
0.13192467 -0.07861283 -0.05090125 -0.05062328 0.050550275 0.053677145 -0.08917433 0.019031847
00000000: 351b cabc ff37 943d 53a1 903d 247c e13d
00000010: d848 6fbc 3561 993d 5cc7 153d f087 9bbd
00000020: 886e 4cbd da87 22bd f286 893d 7df1 cb3d
00000030: 01aa 803d cd36 b23d 392d 32bd 419d 003e
00000040: b84b 86bd 6c47 de3d 16e9 c3bd 7504 eb3d
00000050: e857 98bd 4479 ba3d ddff 603e b3ad 58bc
00000060: e8d6 ca3d 4bb3 dabd 69b2 293c 2873 3cbd
00000070: 2d34 61bd c074 19be e310 68bd 83a5 9b3b
00000080: 3c98 9b3a 3d58 053e 5324 ec3d b86c 54bd
00000090: eb0f 113e 34b9 11be 10be 013d 74c9 b0bc
000000a0: b481 893c e857 313d 34e6 30bd a317 613e
000000b0: 1526 0cbe cbe2 8d3d 3b17 033e a492 d23d
000000c0: d2a2 77be 7ef5 213e 9c40 adbd 6a9c 1fbe
000000d0: 18c4 b83d 2bd1 5dbd 21c1 113e 299b 8d3d
000000e0: 8cdb cfbc 0200 00be 3775 3bbe f25d f6bd
000000f0: b511 2abb 26c7 d7bc 2d29 dcbc 152d 09bd
00000100: f9ae 7cbe 63fb 083d 809f 6b3d a498 d0bd
00000110: 6eed 58bd 1130 2cbe 38e6 903d 4b12 253d
00000120: c04b 233d 7b77 563d c663 533d d723 c8bd
00000130: 9952 36bd 5495 83bd 4fda ca3d 13d1 ba3d
00000140: 715c aabd 9490 96bd c5e9 82bd 6cbe 4ebe
00000150: 8fd2 cbbd 409e d43d f7b2 20bd 0592 ed3c
00000160: f5e7 9fbb 9539 ef3c 6f3a 263d 7039 78bc
00000170: cd41 abbc 9f70 ff3d f287 de3d d6b0 eb3d
00000180: 5bbb 9fbd a6a6 ddbd 6c22 053b 9727 2bbd
00000190: af48 2c3d 7eac 3abb 3cf4 ad3a 6052 36be
000001a0: 6a9b 4dbe 2412 f8bc d056 1e3d 961f 3cbc
000001b0: 6d9b 1cbd 0650 d5bd 2c42 bdbc 3596 303d
000001c0: 2cd0 c1bd 2143 273b 4aea 17bc e24c 4f3e
000001d0: 6062 b63b 828f 06be 4a07 65bd 4996 8a3d
000001e0: 9fbd 213e 05c9 7cbc ee81 c03d 6f2d e8bd
000001f0: ded8 1abc 80a5 d3bd 2b1f d3bc 756d 743d
00000200: 57a1 443d 8daa b93d 7d2a 70bd eaa6 953d
00000210: 34af b73d 2740 85bd dc52 3fbd 935e b23d
00000220: a0a5 8b3d 1cab c0bd cf8d 9bbd d519 cf3c
00000230: 00e8 62bd 815c 57bd d7d0 09be dcf8 00be
00000240: 8ee7 023e aaba 32be 09db 383e dd59 c13c
00000250: 14da 9fbb 4592 c73d b2bc cebc 5ca9 55bc
00000260: c4f2 b5bc 462f bebd 4f22 b43d 2d91 943d
00000270: b1da 08bd 4f48 43bd b4ed 473d 6655 b0bd
00000280: 3cd9 aa3d 8d45 fc3d 079c f9bb c374 c0bd
00000290: 1050 f8bd d010 e7bd 11e8 27bd c93b c63c
000002a0: 785e 583c 751e debc 30cf b4bd 9854 24bd
000002b0: f543 01be 513b 46bd 772b 7e3d 68e7 2cbd
000002c0: 5798 c43d af7f 143c 9a6a cbbd 40a0 32bd
000002d0: 3eb4 2abc 428d 49bb 52af c03d d087 d93d
000002e0: bb95 52bc 5ad1 c33c d03b 673d 2530 403d
000002f0: acc7 9ebc 3b28 d13c aa62 a5bd 16d4 233e
00000300: d601 7cbc 3d74 1ebb e802 373d ca36 0c3e
00000310: 4c49 433d c518 b83c 3f25 c13d fc92 c33d
00000320: 7868 ffbb a776 2abd e4ee d4bb 8e45 de3d
00000330: 5643 fcbc 5a81 2b3e 0d41 41bd e8d8 9bbc
00000340: 7662 323e 3567 ecbd 3a8a 33be ed29 9fbb
00000350: d44f 383d 90a2 23bd 8e51 b3bd a24f 17be
00000360: 67b4 23bc dff8 013a d906 d73d 49cf 27be
00000370: db01 2dbc 49f9 d03c 8ae1 9fbd af7d 9c3d
00000380: 3641 7a3d d5b0 9a3c ea71 bc3a d2ff 783d
00000390: 102e 603d 0c74 0b3d 9393 8f3d 1c6b 19bd
000003a0: 453e 1d3e fa4c a1bd c646 39bc 11d1 91bd
000003b0: 1e55 0e3e 159b af3d 213e 0fbd 524c 91bc
000003c0: 8347 2dbd d993 8f3d 0e93 933c 075f 1abd
000003d0: ce95 153d 0727 0f3d abf3 553c 256b bbbc
000003e0: 4317 073e c3ff a0bd d47d 50bd 5b5a 4fbd
000003f0: ce0d 4f3d 91dc 5b3d 08a1 b6bd ade8 9b3c

encoder.1.bias f4 [32]
4.3711534e-05 -0.0025004908 -0.00050383765 -5.1702365e-05 5.347398e-05 -0.001413269 -0.002078376 -0.00028739581
-0.00039661332 -0.0022496379 -7.695912e-05 -4.649906e-05 0.0016607303 -0.0012237016 -0.0009180118 -0.0013038141
-7.071322e-05 -0.0025670081 -0.0016222593 -0.0010693796 -5.1891944e-05 -0.001659924 0.00034383396 -0.00040028695
-8.120298e-05 0.0013953294 0.00090879935 4.5446403e-05 -0.0008419705 -0.00030000205 -0.00015172354 0.00061253353
00000000: e756 3738 46df 23bb f913 04ba feda 58b8
00000010: 4049 6038 703d b9ba 5d35 08bb 9dad 96b9
00000020: 8af0 cfb9 a96e 13bb 1d65 a1b8 fc07 43b8
00000030: ddac d93a 9d64 a0ba bba6 70ba bee4 aaba
00000040: df4b 94b8 403b 28bb fda1 d4ba 6d2a 8cba
00000050: 8da6 59b8 cf91 d9ba 9d44 b439 9bdd d1b9
00000060: 854b aab8 7ce3 b63a 7e3c 6e3a b49d 3e38
00000070: afb7 5cba 9849 9db9 fa17 1fb9 6e92 203a

encoder.4.weight f4 [64, 32, 3, 3]
-0.1556006 -0.088346764 0.03905399 0.06452622 0.065428786 0.040799152 -0.093259744 -0.10462055
0.008788142 0.13498698 0.12149146 -0.14795636 -0.19153047 -0.05352978 -0.08827245 0.064094976
-0.07906208 -0.07276163 0.11441692 0.029196754 -0.15439765 0.007788159 0.080520235 -0.0653412
-0.052765124 0.012569041 0.03254139 -0.110771105 -0.09423631 -0.020038715 -0.04654203 0.06879529
-0.061633848 -0.13058724 -0.09703367 -0.029094514 0.17692207 -0.031397477 0.15138 -0.0087375315
-0.10816969 -0.13094755 -0.14744417 -0.029104088 -0.024254128 0.101054244 -0.026723534 0.050906215
-0.0880905 -0.032372005 0.13542257 0.086035475 -0.026482843 0.12448443 0.06089525 0.026875205
-0.012075019 0.08904475 0.039930694 0.057339437 -0.096331224 -0.11391791 0.038619183 0.006955714
0.16340356 0.06998655 -0.16509601 0.08434743 -0.01794112 -0.07797367 -0.20437 0.025301995
0.0979951 0.0823492 0.056405023 0.038000233 -0.0025262863 0.043147504 0.101368025 -0.04211918
-0.057879344 0.006262354 0.014734035 -0.02331898 0.070012435 -0.04492659 0.015975682 0.023020182
0.06535786 0.018301226 -0.0026363174 0.11812113 0.05957938 0.0074808854 -0.046919912 -0.08664754
0.10411186 0.031520173 -0.18072067 -0.14141537 -0.017364597 0.15841201 0.110516086 -0.0018849607
0.029413879 0.05190049 0.061130516 0.16981407 -0.07455256 -0.054732017 0.09753664 -0.06455039
0.103912175 0.053253125 -0.0747749 -0.042343292 0.05755435 -0.057164993 -0.029858079 -0.019279303
-0.11254662 0.010091933 -0.057979032 0.0049026865 -0.07594338 -0.043650568 -0.066252634 0.057214707
-0.005120597 0.07290545 -0.07635566 0.011153941 -0.1960275 -0.11814204 0.053642377 -0.22426024
0.0068634604 -0.059854068 -0.13498096 -0.00020449201 -0.079101264 0.0049494174 0.061994493 0.103850216
-0.08860018 0.020226637 0.120037176 -0.03215066 0.143191 0.04801164 -0.13234025 0.15798782
0.07989335 -0.19572818 -0.0055234577 0.048160486 0.008829135 -0.040634453 -0.09938778 -0.018204242
-0.008404479 -0.027922276 0.06960478 -0.050752904 -0.10373784 0.042829514 -0.08027642 -0.08413553
-0.007180354 0.017038869 0.07395973 -0.00086862384 0.06275358 -0.076884106 0.05189995 0.0671229
-0.022100074 -0.0057190317 0.010537032 -0.061294816 0.08616296 -0.014794637 -0.09178926 0.2386384
-0.03814565 0.13202018 0.03614013 -0.044845533 -0.016631415 0.016839027 -0.11601844 0.089009926
-0.100050084 -0.13355011 0.038619094 -0.06531791 0.0738427 -0.007866241 -0.04445836 -0.005019363
-0.080583364 0.045248795 -0.11080335 -0.08092866 -0.0009808915 0.0630868 0.0062616095 0.0669043
-0.0008963857 0.006438785 -0.059414465 0.027638894 0.080215596 0.15633485 -0.08033934 -0.037088793
-0.011802477 -0.12122693 0.076103725 0.015593475 -0.09658658 0.0069096703 -0.050130192 -0.06252171
-0.06786209 0.1263681 0.06529978 0.007892522 0.022118177 0.103979014 0.07653169 -0.04379263
-0.0055115395 -0.03922261 -0.047700886 -0.08878277 -0.01999935 0.0074016335 0.12965511 -0.086826704
-0.009429668 -0.021308806 -0.065183334 -0.0759877 -0.11150792 -0.0040813233 0.08575256 -0.04490646
0.027304044 -0.080685556 0.060842413 0.100298256 0.12854148 -0.14982648 -0.007998002 -0.00925053
00000000: c455 1fbe 26ef b4bd 14f7 1f3d 5326 843d
00000010: 87ff 853d 031d 273d f7fe bebd 4d43 d6bd
00000020: 24fc 0f3c 073a 0a3e 84d0 f83d df81 17be
00000030: 9020 44be 0b42 5bbd 30c8 b4bd 3a44 833d
00000040: 4deb a1bd 0d04 95bd 6b53 ea3d 082e ef3c
00000050: 6b1a 1ebe d033 ff3b cbe7 a43d 9bd1 85bd
00000060: 3e20 58bd 61ee 4d3c 1f4a 053d f6db e2bd
00000070: f7fe c0bd 3b28 a4bc dba2 3ebd 8ce4 8c3d
00000080: c673 7cbd a9b8 05be 97b9 c6bd 9e57 eebc
00000090: 0f2b 353e a49a 00bd 5c03 1b3e dd27 0fbc
000000a0: 1288 ddbd 1d17 06be 9bfb 16be b26b eebc
000000b0: 98b0 c6bc 87f5 ce3d 50eb dabc 0983 503d
000000c0: cb68 b4bd 8298 04bd 37ac 0a3e 5e33 b03d
000000d0: 8cf2 d8bc b1f1 fe3d 4c6d 793d 6429 dc3c
000000e0: 4dd6 45bc 185d b63d 5e8e 233d c2dc 6a3d
000000f0: 4e49 c5bd cb4d e9bd 262f 1e3d c2ec e33b
00000100: 4353 273e 1c55 8f3d ee0e 29be 58be ac3d
00000110: 41f9 92bc a9b0 9fbd 5f46 51be 2146 cf3c
00000120: a8b1 c83d b3a6 a83d f408 673d 22a6 1b3d
00000130: 0d90 25bb 70bb 303d 0a9a cf3d 2985 2cbd
00000140: e412 6dbd 6f34 cd3b 0667 713c 7207 bfbc
00000150: ae62 8f3d f204 38bd 6fdf 823c d294 bc3c
00000160: 57da 853d 74ec 953c 11c6 2cbb 7ee9 f13d
00000170: 8209 743d 3722 f53b 182f 40bd 4474 b1bd
00000180: 9938 d53d 4c1b 013d d70e 39be 31cf 10be
00000190: 3340 8ebc c236 223e 4256 e23d c910 f7ba
000001a0: 60f5 f03c 9c95 543d fe63 7a3d bde3 2d3e
000001b0: 03af 98bd ae2e 60bd 4ac1 c73d ff32 84bd
000001c0: e8cf d43d f31f 5a3d 9523 99bd 2970 2dbd
000001d0: 1cbe 6b3d d725 6abd ee98 f4bc a1ef 9dbc
000001e0: d87e e6bd a358 253c 6c7b 6dbd b7a6 a03b
000001f0: 3488 9bbd f0ca 32bd 76af 87bd f859 6a3d
00000200: aeca a7bb 744f 953d 5b60 9cbd 05bf 363c
00000210: 6fbb 48be 74f4 f1bd 1cb8 5b3d 7aa4 65be
00000220: e1e6 e03b 8a29 75bd 7338 0abe e86c 56b9
00000230: d8ff a1bd b92e a23b f0ed 7d3d 6caf d43d
00000240: 0374 b5bd 55b2 a53c 0dd6 f53d 69b0 03bd
00000250: a9a0 123e daa7 443d 3484 07be 8fc7 213e
00000260: 209f a33d f86c 48be 1ffe b4bb ee43 453d
00000270: 14a8 103c 5070 26bd d28b cbbd 1021 95bc
00000280: f1b2 09bc 42bd e4bc f38c 8e3d 47e2 4fbd
00000290: 8174 d4bd 006e 2f3d f767 a4bd 404f acbd
000002a0: 2d49 ebbb 1995 8b3c 3378 973d 5cb4 63ba
000002b0: f384 803d 6a75 9dbd 0b95 543d bb77 893d
000002c0: 370b b5bc b766 bbbb 84a3 2c3c 4610 7bbd
000002d0: 3576 b03d 3565 72bc 02fc bbbd a05d 743e
000002e0: 9d3e 1cbd 4c30 073e ac07 143d f3af 37bd
000002f0: 9b3e 88bc 00f2 893c 139b edbd d64a b63d
00000300: 0fe7 ccbd 5cc1 08be 0e2f 1e3d 65c5 85bd
00000310: d73a 973d 68e1 00bc f819 36bd 7879 a4bb
00000320: e408 a5bd cd56 393d deec e2bd edbd a5bd
00000330: 4291 80ba a733 813d 302e cd3b 1f05 893d
00000340: 6dfb 6aba 72fc d23b 955c 73bd f66a e23c
00000350: 1348 a43d 3e16 203e f488 a4bd 6bea 17bd
00000360: 2d5f 41bc d345 f8bd 45dc 9b3d c67b 7f3c
00000370: 2fcf c5bd 846a e23b 5155 4dbd 620b 80bd
00000380: 48fb 8abd a466 013e e4bb 853d a34f 013c
00000390: 2e31 b53c f3f2 d43d a6bc 9c3d e75f 33bd
000003a0: 259a b4bb e3a7 20bd 0162 43bd bed3 b5bd
000003b0: add5 a3bc 6789 f23b 4fc4 043e 33d2 b1bd
000003c0: e57e 1abc ce8f aebc d77e 85bd 709f 9bbd
000003d0: 445e e4bd 9fbc 85bb 0a9f af3d d6ef 37bd
000003e0: bbac df3c 783e a5bd e535 793d 2c69 cd3d
000003f0: 61a0 033e 1d6c 19be 0d0a 03bc 898f 17bc

encoder.4.bias f4 [64]
-0.0011540918 -0.0008048424 0.00041259525 -0.0015072977 -0.001064956 2.782403e-05 -0.0009646979 -0.0004766145
-0.0007590796 0.00046175663 -0.0025966323 0.0015897116 -0.00090292824 0.00029727904 0.00018712724 -0.00046316488
-0.00014176089 -8.133117e-05 -0.00026971367 -1.4255271e-05 -0.00075071584 0.0017471885 -0.00033638882 0.002351113
-0.00071598706 0.0003963253 -0.0022419393 -4.0037357e-05 0.00087774533 -0.0014006916 6.386574e-05 0.0003313121
-0.002235529 -0.00049017183 0.00095116295 -0.00088353327 -0.0008494114 -0.000296184 -0.0004547082 -0.0005062647
3.0807434e-05 -0.00042067593 -5.9666578e-05 0.0005621243 6.895531e-05 -0.0012279467 -0.0011015681 0.00013183575
-6.6211585e-05 -0.0005011872 8.978859e-06 -0.00021592497 0.00063486863 -0.00067405315 0.00085726095 7.2308194e-06
0.00033610268 0.00020982263 0.00076424744 0.00034258707 -0.0017046289 -0.0002911269 0.0011223984 -0.001075369
00000000: e544 97ba 0ffc 52ba 9951 d839 8590 c5ba
00000010: fe95 8bba a667 e937 c8e3 7cba 1ee2 f9b9
00000020: f8fc 46ba ed17 f239 432c 2abb df5d d03a
00000030: 7db2 6cba 1edc 9b39 9637 4439 f0d4 f2b9
00000040: a6a5 14b9 5790 aab8 5b68 8db9 ec29 6fb7
00000050: b0cb 44ba eb01 e53a 585d b0b9 2115 1a3b
00000060: 14b1 3bba e2c9 cf39 80ed 12bb c9ed 27b8
00000070: 7e18 663a 6997 b7ba a8ef 8538 f5b3 ad39
00000080: f481 12bb e07e 00ba 7757 793a ea9c 67ba
00000090: 09ab 5eba 2549 9bb9 e765 eeb9 d9b6 04ba
000000a0: 3b37 0138 2b8e dcb9 8042 7ab8 865b 133a
000000b0: 1a9c 9038 0ef3 a0ba 7e62 90ba 643d 0a39
000000c0: 13db 8ab8 1b62 03ba e8a3 1637 eb69 62b9
000000d0: 506d 263a f1b2 30ba cfb9 603a 44a0 f236
000000e0: f036 b039 d503 5c39 c757 483a 429d b339
000000f0: db6d dfba 64a2 98b9 711d 933a 65f3 8cba

actor.0.weight f4 [64, 32, 3, 3]
0.10932781 -0.07884259 0.05918193 -0.09051086 0.07960333 -0.009905113 0.0022870607 -0.005484848
-0.004268138 0.03587266 0.026617179 -0.07658866 -0.08835507 0.09190475 -0.0701075 -0.034564964
0.09971448 -0.0050259233 -0.09280757 -0.07460091 -0.16560629 0.11633591 0.0692432 -0.10890862
0.090399265 0.13609987 0.046843883 0.015226421 0.08882752 -0.030543417 0.12532431 0.011171742
0.06113174 0.101597235 -0.031977333 -0.025987968 0.04978591 -0.02522746 -0.02427139 -0.1125925
0.09409849 -0.101067394 -0.01234397 0.04741367 0.09264829 0.0469469 -0.13612711 0.12991714
-0.11094498 -0.10511323 -0.044737272 -0.0019553653 0.10005155 -0.04134598 0.043018542 -0.074672796
-0.036905736 0.017980242 -0.05293582 0.09241728 -0.08883609 0.25859427 0.15123557 0.2238179
0.0013610561 -0.056947347 -0.12453561 -0.21106645 0.077369824 -0.03172929 -0.11520143 0.039856307
0.04075529 0.0005184483 0.10998356 0.026945606 0.04072946 -0.017537642 0.018201098 -0.03608693
-0.1291304 0.105659656 -0.023942422 0.03464812 0.09668193 -0.059884466 -0.07462035 -0.070255905
-0.0046760184 -0.04112858 0.0118688075 -0.084600866 0.057261787 0.053354483 0.10061647 0.09768271
0.13291404 0.058807734 -0.014590072 -0.031499438 0.10539675 -0.051517367 -0.0010318807 -0.067645825
0.011608123 -0.112291984 0.074397966 -0.0037451168 0.19075307 -0.016097803 0.037820935 -0.10295416
-0.016758729 -0.018241435 0.03419634 0.022049092 0.017780418 -0.0043384377 -0.12039634 0.006964553
0.19327275 0.011216434 0.049355667 -0.045631226 0.078872226 0.008325387 0.011664682 0.016749945
0.001840462 0.010384141 0.15471905 -0.031556096 0.008952748 0.035980117 -0.04699738 0.056150194
0.055072907 0.013164897 -0.029317172 0.090581134 0.003730303 -0.11143753 -0.02308552 0.06854768
-0.12270908 0.11090785 0.049270168 0.0044843513 -0.003550905 0.09504067 -0.039532963 -0.09689923
-0.07057809 -0.014498254 -0.0059116604 0.07547341 -0.027790511 0.06900842 -0.1557264 -0.15506035
-0.15739572 -0.053209595 0.20820382 0.017728006 0.07049825 -0.11091776 0.066709444 -0.0036401672
0.14824736 0.09351462 -0.20022689 -0.032115567 0.040650755 0.04257978 0.24603759 -0.035576988
-0.08944287 0.058036257 -0.13295934 -0.04390747 -0.036649715 0.19747505 -0.16593397 -0.06622777
-0.1181961 0.017284175 0.0033843555 -0.025983512 -0.031990364 -0.04109733 0.054486014 -0.09569349
0.07431933 0.0118539855 -0.018935062 -0.027889008 -0.030360674 0.067919485 0.011244228 0.0026043209
-0.11428927 0.042839985 -0.021893699 -0.043187466 0.029264515 -0.015666308 -0.017537795 -0.08980576
-0.19608378 0.00999063 -0.19463034 -0.13687801 -0.05302278 -0.081374206 -0.017295972 0.054364428
-0.07449538 0.025890613 0.04911052 0.05210633 -0.013603686 -0.024586016 0.02019835 -0.13370419
-0.060918335 0.14270014 -0.030529432 -0.062924 0.01759846 0.10878204 -0.03521729 0.041774224
-0.10357896 -0.06442175 -0.04646689 0.13888778 0.02467175 -0.026192505 0.0711147 -0.10661318
0.000809785 0.12574655 0.18796477 0.103797644 -0.07736755 0.0050574476 -0.036487263 -0.03758079
0.08332521 -0.018519301 -0.035799176 -0.07267823 0.09309281 -0.034406446 -0.0973405 -0.08174111
00000000: 42e7 df3d 3978 a1bd c068 723d c25d b9bd
00000010: 1207 a33d 0e49 22bc 83e2 153b 3dba b3bb
00000020: bddb 8bbb 36ef 123d 450c da3c 84da 9cbd
00000030: 81f3 b4bd 8f38 bc3d 8594 8fbd fe93 0dbd
00000040: 1b37 cc3d 80b0 a4bb e511 bebd 5dc8 98bd
00000050: b294 29be 8641 ee3d 61cf 8d3d 7c0b dfbd
00000060: 4023 b93d c45d 0b3e 5fdf 3f3d 3d78 793c
00000070: 34eb b53d 3036 fabc 0455 003e af09 373c
00000080: 4765 7a3d 3612 d03d aafa 02bd b8e4 d4bc
00000090: 4fec 4b3d d1a9 cebc cbd4 c6bc e696 e6bd
000000a0: b6b6 c03d 6cfc cebd 5d3e 4abc d634 423d
000000b0: 63be bd3d 654b 403d e864 0bbe 0009 053e
000000c0: 1f37 e3bd 9b45 d7bd 6e3e 37bd 9625 00bb
000000d0: d4e7 cc3d 675a 29bd 3634 303d 0dee 98bd
000000e0: 782a 17bd 4d4b 933c 3bd3 58bd 4545 bd3d
000000f0: b2ef b5bd 7866 843e 7fdd 1a3e 8530 653e
00000100: 7765 b23a 9f41 69bd 870c ffbd ce21 58be
00000110: 1274 9e3d 92f6 01bd baee ebbd 5e40 233d
00000120: 05ef 263d 7ae8 073a 103f e13d 08bd dc3c
00000130: efd3 263d 1aab 8fbc 781a 953c e4cf 13bd
00000140: c23a 04be 1764 d83d e622 c4bc 30eb 0d3d
00000150: 2d01 c63d 6a49 75bd 8ed2 98bd 54e2 8fbd
00000160: 4939 99bb 7176 28bd 6375 423c 3843 adbd
00000170: 568b 6a3d 3b8a 5a3d 0210 ce3d df0d c83d
00000180: 9e1a 083e 61e0 703d 330b 6fbc 8e05 01bd
00000190: 40da d73d e003 53bd 2c40 87ba e589 8abd
000001a0: ff2f 3e3c 57f9 e5bd f65d 983d a270 75bb
000001b0: c654 433e 8adf 83bc 20ea 1a3d a1d9 d2bd
000001c0: 9a49 89bc 106f 95bc 7611 0c3d 4ca0 b43c
000001d0: 3da8 913c 7429 8ebb 5b92 f6bd e836 e43b
000001e0: 4be9 453e 22c5 373c 2b29 4a3d cfe7 3abd
000001f0: c387 a13d 3467 083c 391d 3f3c 2e37 893c
00000200: a83b f13a 3e22 2a3c ac6e 1e3e f740 01bd
00000210: 8cae 123c e35f 133d 5380 40bd bffd 653d
00000220: 2194 613d 95b1 573c 912a f0bc 9a82 b93d
00000230: 1978 743b 5c39 e4bd d81d bdbc ba62 8c3d
00000240: e64e fbbd a823 e33d 84cf 493d 77f1 923b
00000250: 4db6 68bb afa4 c23d 51ed 21bd 1a73 c6bd
00000260: 3f8b 90bd 168a 6dbc 9ab6 c1bb ce91 9a3d
00000270: eda8 e3bc 4954 8d3d be76 1fbe 24c8 1ebe
00000280: 582c 21be 4ef2 59bd 6233 553e 533a 913c
00000290: 6361 903d da28 e3bd f69e 883d df8f 6ebb
000002a0: 28ce 173e 9884 bf3d 4708 4dbe 9d8b 03bd
000002b0: 6881 263d 2368 2e3d 47f1 7b3e 2db9 11bd
000002c0: d32d b7bd 6db7 6d3d 7e26 08be 52d8 33bd
000002d0: 031e 16bd e636 4a3e 98ea 29be 6da2 87bd
000002e0: cc10 f2bd 8b97 8d3c 10cc 5d3b 60db d4bc
000002f0: 5408 03bd ad55 28bd ba2c 5f3d f3fa c3bd
00000300: bc34 983d 3837 423c b41d 9bbc 7d77 e4bc
00000310: f3b6 f8bc 5f19 8b3d b639 383c 41ad 2a3b
00000320: 7e10 eabd fb78 2f3d 6a5a b3bc 57e5 30bd
00000330: 23bc ef3c a156 80bc 6cab 8fbc 15ec b7bd
00000340: 30ca 48be bdaf 233c 2d4d 47be c029 0cbe
00000350: 6a2e 59bd 85a7 a6bd 48b0 8dbc 3cad 5e3d
00000360: 0991 98bd 8d18 d43c 1d28 493d 726d 553d
00000370: ffe1 5ebc 9d68 c9bc 0377 a53c c0e9 08be
00000380: 8185 79bd fc1f 123e dc18 fabc 4cde 80bd
00000390: a52a 903c 1ec9 de3d 0140 10bd 731b 2b3d
000003a0: 3521 d4bd 8def 83bd 1154 3ebd 9938 0e3e
000003b0: 691c ca3c aa91 d6bc 95a4 913d 0358 dabd
000003c0: c047 543a b4c3 003e d679 403e dc93 d43d
000003d0: e172 9ebd f2b8 a53b ab73 15bd 51ee 19bd
000003e0: 68a6 aa3d cab5 97bc 28a2 12bd 53d8 94bd
000003f0: 71a7 be3d c6ed 0cbd 755a c7bd e267 a7bd

actor.0.bias f4 [32]
-0.000964005 -0.0009451227 0.0005295237 0.00013346871 -0.0016639784 -0.0005069291 -0.0013216417 0.001856858
-0.0017768829 -0.0018528685 0.00069947564 -0.0006833531 0.002496845 -0.0005546715 -0.00085923134 0.0028000425
-0.00019900642 -0.0007271386 0.00063324213 0.0010780862 0.0014170116 5.0817052e-05 0.0003530006 -0.0018472606
-0.0007862147 -0.0005014586 -0.0025297923 0.001764705 0.00073255826 0.0031420614 0.002112898 -0.0014286054
00000000: 48b5 7cba 1cc2 77ba bccf 0a3a bcf3 0b39
00000010: da19 daba 70e3 04ba f03a adba d161 f33a
00000020: 4ce6 e8ba f3db f2ba 045d 373a 0d23 33ba
00000030: 1ca2 233b 6067 11ba 0a3e 61ba eb80 373b
00000040: 61ac 50b9 729d 3eba 2900 263a 924e 8d3a
00000050: 05bb b93a 6524 5538 f012 b939 c81f f2ba
00000060: fa19 4eba 5174 03ba dfca 25bb ad4d e73a
00000070: 2709 403a 0beb 4d3b 8c78 0a3b 0b40 bbba

actor.2.weight f4 [32, 78, 3, 3]
-0.00078301545 0.038746145 -0.0048234034 0.0032215174 0.02767873 0.036339667 -0.06280397 -0.020138271
-0.08337875 -0.075021505 -0.05451052 0.0387677 0.058264088 -0.021282282 0.07840704 0.042546112
-0.040895272 -0.07063513 -0.05892673 -0.015534434 0.0721373 -0.077922866 0.09358029 -0.055012375
0.06947119 -0.05790928 -0.06435863 0.03248809 -0.013753093 0.021182494 -0.003717457 0.081839316
0.005027517 -0.088431366 -0.04743322 0.0058229794 0.02497295 -0.065941595 0.061771598 0.010482565
-0.04252285 0.03810875 -0.0722078 0.0359502 0.039491635 0.04537797 0.008125185 0.015126436
0.0073593277 0.016341127 0.045177836 -0.010330137 -0.004598759 -0.07879529 0.027569309 0.09384178
-0.075971484 -0.03363639 -0.10210964 0.088538185 0.0014005867 -0.057284966 -0.053399477 0.07652586
-0.054455485 -0.008326758 -0.030333309 -0.073517665 0.053374015 0.032554276 -0.12360428 0.0318777
0.010033804 0.0036070244 -0.05388752 0.057772133 0.041412927 -0.08740146 -0.018541597 -0.06878267
0.07528843 -0.016086297 -0.063186236 -0.016553463 0.023339232 -0.014226931 -0.07613164 -0.06287468
0.06925796 -0.13820852 0.11794099 -0.06644498 -0.082446 -0.05465308 0.034422275 -0.050183866
0.039652824 0.009304461 0.0019343656 -0.047522895 -0.007155408 -0.079435825 0.049273826 0.03591418
0.02738943 0.022679951 -0.064043455 -0.10578876 -0.015555206 0.0139713865 0.13191356 -0.050119977
0.021839708 -0.05114676 0.008203157 -0.024191808 -0.11935176 0.0052245185 -0.08162217 -0.0095806
0.036324315 -0.048528824 -0.051942702 -0.10493181 -0.11094057 0.037004437 -0.059402656 -0.065791294
0.088346936 0.04859827 -0.066700675 -0.07097085 -0.0064012567 -0.06485826 -0.04681061 -0.040122576
-0.03126688 -0.024011828 -0.059014205 -0.057261467 0.014540769 -0.03954366 0.030139647 -0.06221299
-0.019588541 0.110898934 0.026567342 -0.065982126 0.037469648 0.04101163 0.009925148 -0.025516668
0.011135219 0.059934713 -0.031936962 -0.092322424 -0.02593755 -0.051844675 -0.072333544 0.029289354
-0.09493488 -0.059061415 -0.005639252 -0.032174934 -0.004590169 -0.014015509 0.04382189 0.065680265
-0.07712281 0.029518485 0.073532574 0.05588857 -0.043704186 0.023113204 -0.019268818 -0.10655654
-0.041895393 -0.031982344 -0.0061798133 -0.052412827 0.057653546 0.062437326 0.03727702 -0.06038052
-0.002278615 -0.0019352557 0.026293853 -0.056597073 -0.04947706 -0.1057995 0.015554058 0.057863094
-0.0004168823 -0.0012964163 0.0038163452 0.087891944 0.03715157 -0.03532149 0.074736156 0.07521372
0.0017389328 0.007951627 0.044225983 -0.0028682007 0.06720654 0.078592375 -0.03499525 -0.014275755
0.009712709 0.06559229 0.06556233 -0.062648915 -0.003940203 -0.058148973 -0.029312642 0.07928482
-0.057885017 0.0070077656 -0.06601162 -0.08821526 -0.022747744 -0.0092943525 0.1087069 0.050235596
0.015747989 0.12744105 -0.08835224 -0.0013081833 0.07172541 -0.0017016403 -0.021329185 -0.026930306
-0.022447493 0.06677698 -0.009479277 0.07514776 0.09308074 -0.0068294285 -0.048473157 0.034220938
0.019851623 -0.010683041 -0.010149474 -0.011522813 -0.02678939 -0.029585201 0.069146 -0.015560691
0.0041585816 -0.051554866 0.026741756 -0.059234682 0.049214046 0.023151638 -0.053518057 -0.0053582517
00000000: 4743 4dba 47b4 1e3d a40d 9ebb 1820 533b
00000010: 81be e23c e7d8 143d 5e9f 80bd 04f9 a4bc
00000020: 7ac2 aabd e0a4 99bd 6c46 5fbd e1ca 1e3d
00000030: 53a6 6e3d 2e58 aebc df93 a03d d544 2e3d
00000040: cd81 27bd 27a9 90bd 285d 71bd 2384 7ebc
00000050: b9bc 933d 0696 9fbd 06a7 bf3d a854 61bd
00000060: e946 8e3d 4832 6dbd 75ce 83bd 3b12 053d
00000070: a754 61bc e986 ad3c 94a0 73bb 5f9b a73d
00000080: dfbd a43b 811b b5bd 5649 42bd b1ce be3b
00000090: 1294 cc3c 630c 87bd 3704 7d3d 10bf 2b3c
000000a0: 712c 2ebd ec17 1c3d afe1 93bd 8440 133d
000000b0: fbc1 213d 40de 393d 7f1f 053c dfd4 773c
000000c0: 8426 f13b d4dd 853c 650c 393d bc3f 29bc
000000d0: 30b1 96bb 6d5f a1bd 08d9 e13c 1f30 c03d
000000e0: f096 9bbd 50c6 09bd dc1e d1bd 8253 b53d
000000f0: e493 b73a a4a3 6abd 69b9 5abd 97b9 9c3d
00000100: b70c 5fbd f46c 08bc 8f7d f8bc 6e90 96bd
00000110: b69e 5a3d a257 053d 3e24 fdbd 3192 023d
00000120: d364 243c d463 6c3b 29b9 5cbd 79a2 6c3d
00000130: 9aa0 293d 89ff b2bd 8ce4 97bc eedd 8cbd
00000140: d230 9a3d 69c7 83bc c967 81bd 219b 87bc
00000150: eb31 bf3c 1318 69bc e8ea 9bbd 71c4 80bd
00000160: 1ed7 8d3d 8986 0dbe 0c8b f13d 4e14 88bd
00000170: 73d9 a8bd e8db 5fbd 5ffe 0c3d 998d 4dbd
00000180: 006b 223d bd71 183c 8a8a fd3a 5ea7 42bd
00000190: ea77 eabb 40af a2bd 5ad3 493d bf1a 133d
000001a0: cc5f e03c 4ecb b93c 3729 83bd c7a7 d8bd
000001b0: 43db 7ebc 3ee8 643c 5914 073e 9b4a 4dbd
000001c0: 30e9 b23c 447f 51bd 8966 063c e62d c6bc
000001d0: b26e f4bd 7032 ab3b 8629 a7bd f3f7 1cbc
000001e0: cec8 143d 29c6 46bd dfc1 54bd 7de6 d6bd
000001f0: cf34 e3bd f791 173d 3350 73bd 96bd 86bd
00000200: 3def b43d fb0e 473d 5d9a 88bd 2a59 91bd
00000210: a2c1 d1bb 68d4 84bd 7bbc 3fbd 9257 24bd
00000220: b311 00bd 74b4 c4bc e1b8 71bd 008b 6abd
00000230: 683c 6e3c 88f8 21bd 6ce7 f63c 0cd3 7ebd
00000240: 2678 a0bc fb1e e33d c1a3 d93c a321 87bd
00000250: c679 193d d0fb 273d 179d 223c 5508 d1bc
00000260: 7e70 363c 1a7e 753d 55d0 02bd 8a13 bdbd
00000270: fc7a d4bc 155b 54bd 9c23 94bd 3af0 ef3c
00000280: 386d c2bd 62ea 71bd 79c9 b8bb ddc9 03bd
00000290: 2169 96bb 4ea1 65bc 957e 333d 6083 863d
000002a0: 90f2 9dbd c0d0 f13c 3f98 963d 6aeb 643d
000002b0: 2903 33bd e757 bd3c a4d9 9dbc 513a dabd
000002c0: 819a 2bbd ebff 02bd 0880 cabb d5ae 56bd
000002d0: 2026 6c3d 48be 7f3d caaf 183d 9051 77bd
000002e0: d154 15bb 68a8 fdba 3566 d73c 55d2 67bd
000002f0: 75a8 4abd 69ad d8bd 73d6 7e3c da01 6d3d
00000300: ff90 dab9 83ec a9ba a61b 7a3b b100 b43d
00000310: 3f2c 183d 44ad 10bd 450f 993d a709 9a3d
00000320: e7ec e33a 8a47 023c 4e26 353d 6cf8 3bbb
00000330: 95a3 893d 0af5 a03d 2e57 0fbd dbe4 69bc
00000340: 0e22 1f3c 4055 863d 8b45 863d 134e 80bd
00000350: d21c 81bb 9e2d 6ebd 1121 f0bc 1460 a23d
00000360: d718 6dbd 66a1 e53b 1a31 87bd 34aa b4bd
00000370: 7a59 babc 5747 18bc b9a1 de3d d7c3 4d3d
00000380: ed01 813c e87f 023e 05f2 b4bd 5977 abba
00000390: c6e4 923d 9309 dfba 8bba aebc f29c dcbc
000003a0: cee3 b7bc 5fc2 883d f84e 1bbc 12e7 993d
000003b0: 1da1 be3d 66c9 dfbb ca8b 46bd 412b 0c3d
000003c0: df9f a23c ec07 2fbc fb49 26bc 2eca 3cbc
000003d0: 6c75 dbbc aa5c f2bc 6b9c 8d3d 45f2 7ebc
000003e0: b644 883b 322b 53bd 8711 db3c 11a0 72bd
000003f0: ab94 493d 81a8 bd3c c035 5bbd 4694 afbb

actor.2.bias f4 [78]
-0.0014524614 -2.8023582e-05 0.005745801 0.0043947506 -0.0011732185 -0.0012860498 0.000754067 0.0022822642
-0.0034850219 -0.00042763032 0.0 0.0 0.0 0.0 0.0 0.0
0.0 0.0 -0.0017265576 -3.1177224e-05 0.002016983 0.0009976162 0.0 0.0
0.0 0.0 0.0 0.0 0.0 0.0 0.0 0.0
0.0 0.0 0.0 0.0 0.0 0.0 0.0 0.0
0.0 0.0 0.0 0.0 0.0 0.0 0.0 0.0
0.0 0.0 0.0 0.0 4.562798e-05 0.0 -0.0014660417 0.0
0.0 0.0 0.0 0.0 0.00011571734 0.0 0.0 0.0
0.0 0.0 0.0 0.0 0.0 0.0 0.0 0.0
0.0 0.0 0.0 0.0 0.0 0.0
00000000: 8460 beba 2f14 ebb7 4647 bc3b d701 903b
00000010: aec6 99ba ac90 a8ba 94ac 453a 0a92 153b
00000020: f764 64bb 9233 e0b9 0000 0000 0000 0000
00000030: 0000 0000 0000 0000 0000 0000 0000 0000
00000040: 0000 0000 0000 0000 a94d e2ba 4ac4 02b8
00000050: 5c2f 043b 72c2 823a 0000 0000 0000 0000
00000060: 0000 0000 0000 0000 0000 0000 0000 0000
00000070: 0000 0000 0000 0000 0000 0000 0000 0000
00000080: 0000 0000 0000 0000 0000 0000 0000 0000
00000090: 0000 0000 0000 0000 0000 0000 0000 0000
000000a0: 0000 0000 0000 0000 0000 0000 0000 0000
000000b0: 0000 0000 0000 0000 0000 0000 0000 0000
000000c0: 0000 0000 0000 0000 0000 0000 0000 0000
000000d0: ac60 3f38 0000 0000 3228 c0ba 0000 0000
000000e0: 0000 0000 0000 0000 0000 0000 0000 0000
000000f0: 46ad f238 0000 0000 0000 0000 0000 0000
00000100: 0000 0000 0000 0000 0000 0000 0000 0000
00000110: 0000 0000 0000 0000 0000 0000 0000 0000
00000120: 0000 0000 0000 0000 0000 0000 0000 0000
00000130: 0000 0000 0000 0000

critic.1.weight f4 [128, 1024]
-0.0049840505 -0.07015486 -0.030281095 -0.007360964 -0.023825547 0.00077284785 -0.0024028714 -0.034224838
0.0031223143 0.05558074 -0.016001044 0.03159103 -0.03931295 -0.071896546 -0.03517912 -0.017627541
0.0008177971 -0.026130693 0.008823089 -0.013680518 0.00514391 -0.04306335 0.035838086 -0.042527664
0.0072866366 -0.034454048 0.03807813 0.0151721295 -0.01481555 -0.033317745 0.0058165253 -0.019452855
0.08222767 -0.05096329 -0.007193945 0.016449938 -0.010529906 -0.011019615 -0.050050523 0.03709465
-0.05956483 0.024767803 0.019970164 0.06307409 0.052143827 0.0056900405 0.004910592 0.0049965032
-0.011991229 0.0049513504 0.06841308 -0.006767195 -0.0020366958 -0.036350835 -0.01765466 0.11620741
0.071403205 -0.044200875 0.013238716 0.019448731 -0.043720685 -0.02267172 -0.05466377 -0.0052414592
-0.017074721 -0.0011793799 -0.05709296 -0.07435194 0.09801228 0.020700388 -0.0036909531 -0.046013836
0.04281597 -0.013061115 -0.034160774 -0.044677593 0.060883023 -0.029856037 0.00913545 0.030154753
0.019220721 -0.010991971 0.013278919 -0.0026279653 -0.029442675 -0.0038133299 0.014109619 0.02425785
0.011239989 0.01175536 -0.0476349 0.07807245 -0.014762719 0.06543482 0.024252528 -0.019151647
0.043382607 0.011629934 -0.01554112 0.13661928 -0.0041993926 0.004900088 0.054636125 0.008162186
-0.027476443 0.042461466 0.0061096884 0.08379023 0.06645745 0.03415641 0.024877949 0.027343132
-0.0007237555 0.01691196 -0.042444125 -0.06398561 -0.035421737 -0.016812216 -0.023146046 0.029919693
-0.03794007 -0.01951851 0.007907227 -0.021308362 -0.025465958 0.059571207 -0.006203185 0.043892376
-0.008929092 0.049983762 -0.02585004 0.045463078 0.0021083802 -0.046512853 0.07709395 0.07436181
-0.033233482 0.051721375 -0.101244524 0.024396796 0.004097047 0.031538025 0.028576972 -0.012085089
-0.026407516 0.038965132 -0.05654016 0.0868096 0.032899152 0.0018906357 0.04166774 0.047442295
-0.06251279 -0.022722868 -0.04107112 -0.02296733 0.08302477 0.05396914 -0.057111245 -0.026954697
0.077584445 -0.025886659 0.013504698 0.058959004 0.08644753 -0.007483789 0.019496031 -0.037214186
-0.004571765 0.00030135884 -0.020701481 -0.035570145 -0.063084766 -0.007812408 0.017740825 -0.00876235
0.04601259 -0.024715833 0.057889555 0.0013611417 -0.0629043 -0.07702208 -0.023653787 0.03373783
-0.023310171 0.06814785 0.011656711 -0.04759566 -0.09205569 0.01678577 -0.05702422 0.003769728
0.0019130984 0.017911633 -0.036067978 0.08098808 -0.023412047 0.043631103 -0.052456267 0.04985088
-0.022251409 -0.0071975417 -0.016718453 0.0108020995 -0.015889151 -0.020690165 0.04826658 0.018219238
0.008310708 -0.029116705 -0.054856114 0.007831561 0.022241151 -0.0325605 -0.022255091 -0.0119499685
0.023120811 -0.028933771 0.06930422 -0.043782793 0.021415055 0.0030776318 0.0033379593 0.004698938
0.044085033 -0.052149154 0.05755847 0.02094504 0.02811222 -0.07693116 0.005147217 -0.061097123
0.0036221705 -0.003331789 -0.010234607 0.014074661 0.05540819 0.03622521 -0.056130543 -0.013848779
0.029197231 0.041990396 0.004769549 0.07999583 0.045138277 -0.0025256074 -0.047655553 0.011127703
0.020785067 -0.025832916 0.05399993 0.01625571 -0.040041253 0.0004226517 -0.00629005 -0.0028554094
00000000: 3f51 a3bb 5aad 8fbd 0f10 f8bc 3e34 f1bb
00000010: cb2d c3bc f198 4a3a 7e79 1dbb 582f 0cbd
00000020: be9f 4c3b a1a8 633d 9f14 83bc 9965 013d
00000030: 9e06 21bd 7f3e 93bd fb17 10bd a267 90bc
00000040: 6f61 563a 0910 d6bc b88e 103c 4024 60bc
00000050: 3f8e a83b 3263 30bd f5ca 123d 7d31 2ebd
00000060: bdc4 ee3b b01f 0dbd d0f7 1b3d 8694 783c
00000070: ecbc 72bc 3078 08bd 8d98 be3b 985b 9fbc
00000080: fb66 a83d e2be 50bd 2fbb ebbb 05c2 863c
00000090: a085 2cbc 9e8b 34bc c701 4dbd 8ff0 173d
000000a0: 40fa 73bd d9e5 ca3c 7898 a33c fd2c 813d
000000b0: c494 553d 8573 ba3b 08e9 a03b b5b9 a33b
000000c0: dc76 44bc f03e a23b 281c 8c3d 59bf ddbb
000000d0: 167a 05bb 9de4 14bd 81a0 90bc 27fe ed3d
000000e0: d83b 923d fa0b 35bd 33e7 583c f252 9f3c
000000f0: 7614 33bd 0bba b9bc 1ee7 5fbd 8cc0 abbb
00000100: 49e0 8bbc 6c95 9aba 4fda 69bd d445 98bd
00000110: aaba c83d dc93 a93c ebe3 71bb 0179 3cbd
00000120: cc5f 2f3d 49fe 55bc 2bec 0bbd daff 36bd
00000130: 7a60 793d a694 f4bc dbac 153c 1a07 f73c
00000140: c674 9d3c ab17 34bc d38f 593c f139 2cbb
00000150: c431 f1bc 0fe9 79bb 082c 673c 66b8 c63c
00000160: ee27 383c 8e99 403c d01c 43bd 73e4 9f3d
00000170: 55df 71bc b102 863d 3dad c63c eae3 9cbc
00000180: f6b1 313d 7b8b 3e3c 2fa0 7ebc ede5 0b3e
00000190: 0f9b 89bb eb90 a03b 21ca 5f3d b0ba 053c
000001a0: 4716 e1bc 13ec 2d3d c833 c83b 369a ab3d
000001b0: d81a 883d 97e7 0b3d d7cc cb3c b4fe df3c
000001c0: 69ba 3dba f38a 8a3c e4d9 2dbd e30a 83bd
000001d0: 6216 11bd c6b9 89bc c79c bdbc 251a f53c
000001e0: 0c67 1bbd 48e5 9fbc 508d 013c e08e aebc
000001f0: fc9d d0bc f000 743d 1644 cbbb 7ec8 333d
00000200: 544b 12bc c6bb 4c3d 77c3 d3bc 7e37 3a3d
00000210: c02c 0a3b 4384 3ebd 6fe3 9d3d 014b 983d
00000220: d51f 08bd cbd9 533d 4a59 cfbd cadb c73c
00000230: 8540 863b 042e 013d 411a ea3c 8a00 46bc
00000240: 9354 d8bc e799 1f3d a896 67bd 3bc9 b13d
00000250: 43c1 063d 35cf f73a cbab 2a3d da52 423d
00000260: b506 80bd 4f25 babc 313a 28bd fb25 bcbc
00000270: e408 aa3d bf0e 5d3d 7bed 69bd 19d0 dcbc
00000280: 98e4 9e3d 4210 d4bc cf42 5d3c ff7e 713d
00000290: 670b b13d 933a f5bb 24b6 9f3c e76d 18bd
000002a0: bfce 95bb b3ff 9d39 2796 a9bc 00b2 11bd
000002b0: 9632 81bd 3aff ffbb 3555 913c f68f 0fbc
000002c0: b377 3c3d dc78 cabc 991d 6d3d 5668 b23a
000002d0: f8d3 80bd c1bd 9dbd 96c5 c1bc ae30 0a3d
000002e0: f9f4 bebc 1a91 8b3d cafb 3e3c abf3 42bd
000002f0: b287 bcbd 5082 893c 3a92 69bd 8a0d 773b
00000300: eec0 fa3a 6bbb 923c 04bc 13bd 14dd a53d
00000310: 9fca bfbc 87b6 323d 62dc 56bd 7030 4c3d
00000320: 9648 b6bc 5bd9 ebbb 23f5 88bc 4afb 303c
00000330: f729 82bc 6c7e a9bc 2db3 453d 8340 953c
00000340: a329 083c 2886 eebc ceb0 60bd f34f 003c
00000350: 1333 b63c 295e 05bd 4f50 b6bc cdc9 43bc
00000360: db67 bd3c 8406 edbc 5fef 8d3d 9655 33bd
00000370: a06e af3c 18b2 493b aac1 5a3b 8df9 993b
00000380: 8292 343d 5a9a 55bd 6ec2 6b3d ef94 ab3c
00000390: 994b e63c 168e 9dbd fca9 a83b fa40 7abd
000003a0: f061 6d3b 255a 5abb 0eaf 27bc 6899 663c
000003b0: b3f3 623d e360 143d 24e9 65bd fde5 62bc
000003c0: 082f ef3c 1ffe 2b3d e049 9c3b dbd4 a33d
000003d0: eae2 383d a984 25bb 7832 43bd f850 363c
000003e0: 7245 aa3c 8d9f d3bc 082f 5d3d b22a 853c
000003f0: 4c02 24bd 5a97 dd39 c41c cebb d221 3bbb

critic.1.bias f4 [128]
-0.00012432107 -0.0017244216 -4.7927075e-05 2.2050146e-05 -0.0013758752 0.000352887 0.00023012984 -5.2812768e-05
0.0 -0.0013603704 -0.0015007312 0.0 -0.00018644579 -0.00045118318 0.0 -0.00012115001
-0.0010024358 0.0 -4.7921803e-05 4.0524497e-05 -0.00010169535 -0.0010920689 -0.0007575547 0.00021912606
-0.0010196939 -4.9717357e-05 -0.000299255 0.0 0.0 0.000101546684 -0.00088933314 -9.989426e-06
-0.00011456312 -0.00012652444 -5.4561344e-05 0.0 -8.0507365e-05 -0.00023945002 -6.0814848e-05 -0.0013794771
0.0 0.0 3.614329e-05 0.0 -0.0011199098 0.0 0.0 0.00022585735
-0.00040477328 3.654893e-05 0.0 0.0 -5.2625594e-05 0.0 0.0 -0.0008523438
3.6886064e-05 -0.00021997039 2.964768e-05 0.0 -5.0514227e-05 -4.537254e-05 8.621048e-07 3.5150122e-05
-0.0008531276 -0.0014003498 3.1598152e-05 -0.00030753002 3.5256588e-05 -0.00025790633 -0.0009627712 -0.00053455634
0.0012166654 0.0 0.0 3.307007e-05 -0.0006285874 -5.4843786e-05 -4.5580302e-05 -0.00039032564
0.00037205577 -4.4541248e-05 0.0 -5.76062e-05 0.0 -7.6049226e-05 -0.0014870978 0.0
0.0 3.528946e-05 0.00091775577 -4.854053e-05 0.0 0.0 0.0 1.8337345e-05
3.48471e-05 0.0 0.0 -5.5631644e-05 3.876953e-05 -0.0010282808 -0.0014511833 -0.0015523749
0.0 2.0197076e-05 2.7482778e-05 -1.9511672e-06 -8.47661e-05 0.0 -6.468699e-07 -0.0005472392
-0.0005763989 -9.3335075e-05 -5.5914566e-05 0.0 -0.0011031266 -0.000114298215 3.004526e-05 -5.3016633e-05
0.0 -0.0013581397 0.0 -4.687096e-05 -4.8731017e-05 0.0 2.3086159e-05 -6.1026232e-05
00000000: 2f5c 02b9 fd05 e2ba 4e05 49b8 54f8 b837
00000010: b656 b4ba b103 b939 024f 7139 4783 5db8
00000020: 0000 0000 754e b2ba 2fb4 c4ba 0000 0000
00000030: a980 43b9 c88c ecb9 0000 0000 eb11 feb8
00000040: 2a64 83ba 0000 0000 a5ff 48b8 d9f8 2938
00000050: 4645 d5b8 c023 8fba a396 46ba 34c5 6539
00000060: 40a7 85ba 9b87 50b8 54e5 9cb9 0000 0000
00000070: 0000 0000 76f5 d438 2322 69ba 4298 27b7
00000080: 9b41 f0b8 a5ab 04b9 ccd8 64b8 0000 0000
00000090: 10d6 a8b8 e014 7bb9 7213 7fb8 92cf b4ba
000000a0: 0000 0000 0000 0000 9098 1738 0000 0000
000000b0: f0c9 92ba 0000 0000 0000 0000 1fd4 6c39
000000c0: c037 d4b9 1d4c 1938 0000 0000 0000 0000
000000d0: 4dba 5cb8 0000 0000 0000 0000 d36f 5fba
000000e0: 1cb6 1a38 daa7 66b9 e8b3 f837 0000 0000
000000f0: 3ddf 53b8 654e 3eb8 646b 6735 286e 1338
00000100: 6da4 5fba f18b b7ba 4288 0438 fb3b a1b9
00000110: 79e0 1338 9a37 87b9 7b62 7cba 7821 0cba
00000120: 8478 9f3a 0000 0000 0000 0000 b8b4 0a38
00000130: c9c7 24ba 1108 66b8 7a2d 3fb8 9fa4 ccb9
00000140: 7b10 c339 cdd1 3ab8 0000 0000 309e 71b8
00000150: 0000 0000 9e7c 9fb8 b9ea c2ba 0000 0000
00000160: 0000 0000 c503 1438 8c95 703a ff97 4bb8
00000170: 0000 0000 0000 0000 0000 0000 26d3 9937
00000180: ca28 1238 0000 0000 0000 0000 0656 69b8
00000190: 779c 2238 61c7 86ba a235 beba 0f79 cbba
000001a0: 0000 0000 e46c a937 d18a e637 ccf0 02b6
000001b0: 74c4 b1b8 0000 0000 90a4 2db5 9a74 0fba
000001c0: 7a19 17ba e3bc c3b8 cf85 6ab8 0000 0000
000001d0: c996 90ba 63b3 efb8 b409 fc37 2d5e 5eb8
000001e0: 0000 0000 9b03 b2ba 0000 0000 4f97 44b8
000001f0: 8864 4cb8 0000 0000 26a9 c137 6bf6 7fb8

critic.3.weight f4 [1, 128]
-0.005520272 -0.023760375 -0.0905379 0.023078285 0.08531889 0.0033820877 -0.11636894 -0.052153163
-0.051456224 0.038839515 -0.10280018 0.056852564 0.031143753 0.0020335154 0.086615905 0.05181762
-0.16285513 -0.053264257 -0.060217813 0.22911124 -0.05604363 0.08450902 0.056145426 0.04527704
0.10339146 -0.066435754 0.00058185385 0.1234869 0.1751785 -0.0353904 0.035127044 0.026957553
0.002701769 0.11312098 -0.03655491 -0.03204165 0.11205956 -0.020745156 -0.028451907 0.105831526
0.1069116 0.084907405 0.06304921 -0.037918914 0.057710897 -0.091415696 0.03419458 0.027393028
-0.0007502954 0.08257458 0.12884347 -0.15754333 -0.06599011 -0.09102618 -0.11640335 0.08847269
0.07986075 -0.0020442537 0.038750913 -0.15217942 -0.05845035 -0.15491621 0.0015030816 0.059345216
-8.547507e-05 0.13638982 0.045241367 -0.0731062 0.059704177 -0.08499983 0.0057677766 -0.002560248
0.11118631 0.15850107 0.06028407 0.045677528 0.04433264 -0.039768554 -0.14167228 0.07839183
-0.12536947 -0.20052472 0.11661398 -0.030688988 0.12638801 -0.014349268 -0.124245025 -0.054829404
-0.20778167 0.073406994 0.062048346 -0.07369894 0.16341381 -0.016385527 -0.009506732 0.02062458
0.07411716 0.12505652 0.054142777 -0.03771664 0.14345023 0.08540138 -0.11148321 -0.054463938
-0.045235537 0.0372717 0.035789832 -0.11956388 0.00358758 -0.12720296 0.00017659854 0.03864436
0.033121515 -0.008597295 -0.07953149 0.016486136 -0.026280742 -0.24181695 0.03427696 -0.080452025
0.038704235 -0.17479387 -0.015474325 -0.13290569 -0.07565771 -0.07547485 0.005158689 -0.022334106
00000000: 66e3 b4bb 1ea5 c2bc ef6b b9bd ac0e bd3c
00000010: acbb ae3d 04a6 5d3b d752 eebd 8e9e 55bd
00000020: c3c3 52bd 2f16 1f3d e788 d2bd 3cde 683d
00000030: 2f21 ff3c ba44 053b ae63 b13d b63e 543d
00000040: 7fc3 26be 9f2b 5abd f4a6 76bd 239c 6a3e
00000050: 018e 65bd 1113 ad3d bff8 653d 6b74 393d
00000060: e7be d33d 780f 88bd 8d87 183a b3e6 fc3d
00000070: fe61 333e 86f5 10bd 60e1 0f3d 16d6 dc3c
00000080: 2910 313b f9ab e73d 9aba 15bd 1b3e 03bd
00000090: 7c7f e53d bff1 a9bc f913 e9bc 33be d83d
000000a0: 78f4 da3d efe3 ad3d f21f 813d dd50 1bbd
000000b0: 4362 6c3d 2738 bbbd 9e0f 0c3d 5867 e03c
000000c0: 79af 44ba dd1c a93d 8bef 033e 0a53 21be
000000d0: d325 87bd ef6b babd e164 eebd 2b31 b53d
000000e0: 088e a33d e3f8 05bb 47b9 1e3d ecd4 1bbe
000000f0: a269 6fbd 5ba2 1ebe 0d03 c53a f813 733d
00000100: 1441 b3b8 c6a9 0b3e 034f 393d b4b8 95bd
00000110: 5e8c 743d 6414 aebd 9eff bc3b d5c9 27bb
00000120: a6b5 e33d 1b4e 223e 6eec 763d 5c18 3b3d
00000130: 2496 353d 5ae4 22bd 8a12 11be e58b a03d
00000140: db60 00be 5a56 4dbe 4fd3 ee3d 7967 fbbc
00000150: dc6b 013e 3119 6bbc 2d74 febd cc94 60bd
00000160: b8c4 54be 6856 963d 6826 7e3d 78ef 96bd
00000170: f355 273e f13a 86bc 20c2 1bbc e1f4 a83c
00000180: bdca 973d d10e 003e d1c4 5d3d c37c 1abd
00000190: 9ee4 123e ebe6 ae3d 4f51 e4bd 9415 5fbd
000001a0: e648 39bd 36aa 183d 5c98 123d e8dd f4bd
000001b0: 9b1d 6b3b 7e41 02be 4f2d 3939 8c49 1e3d
000001c0: 6daa 073d abdb 0cbc 68e1 a2bd ef0d 873c
000001d0: b64a d7bc dd9e 77be ff65 0c3d 08c4 a4bd
000001e0: 5588 1e3d 2afd 32be 0688 7dbc 6e18 08be
000001f0: 6ef2 9abd 8f92 9abd 380a a93b 04f6 b6bc
