experiments/ppo_hrl/models/MicroRTSGridModeVecEnv__ppo_utils__1__1721366908/8192/macro.pt (torch, 715615 bytes, 11 tensors)

encoder.1.weight f4 [32, 29, 3, 3]
000000 89 95 91 bc 4b 15 e8 3d d0 38 11 3d a5 96 51 bc
       -0.0177715 0.11332186 0.03545457 -0.012792264
000010 b2 ad 0f bc b0 3f 93 bd 26 9c ee bd 9e 52 b6 bd
       -0.0087694395 -0.07189882 -0.11650877 -0.08902477
000020 c0 6f 4f bd ab d9 1b be 6d 72 e2 3d 0a db 2a bd
       -0.050643682 -0.15219752 0.11056981 -0.0417128
000030 10 5d 9f 3d 24 01 16 3d 1f 31 14 3e f3 ec f3 bd
       0.07781422 0.03662218 0.14471863 -0.11910429
000040 34 08 11 be e0 37 21 be a1 97 81 3d b1 74 91 bc
       -0.14163285 -0.15743971 0.06327749 -0.017755838
000050 be bc 91 bd 82 4d 82 bd e2 51 68 3d a0 66 0d bd
       -0.07116078 -0.0636244 0.056718715 -0.0345217
000060 33 c2 77 3e 1d 7d ee 3d a7 76 85 3c 30 83 3c be
       0.24195175 0.11644957 0.01629193 -0.18409419
000070 41 85 f4 3c d8 00 84 bd d2 e1 0f 3d c9 b8 89 bc
       0.029848697 -0.064454734 0.03512747 -0.016811745
000080 79 ca 8b bd 04 cb 18 bd e6 0f de 3d e8 3b 08 3d
       -0.06825728 -0.037302986 0.10842876 0.033260256
000090 d0 07 96 bc a8 65 a1 bd b7 0a 5a 3e a8 6f dd bc
       -0.018314272 -0.078807175 0.2129315 -0.02703078
0000a0 9f 20 32 3d c5 47 d5 bc 8d a0 1d bc 7d c7 d9 bb
       0.04348814 -0.026035199 -0.009620798 -0.0066460953
0000b0 ea b4 db 3c f3 77 27 bb 2f 1e 85 3d 27 c4 99 3d
       0.026819665 -0.0025553673 0.06499898 0.07508116
0000c0 4d 4d ee bd 65 13 36 bc e8 44 cb bb 0e 87 a3 bc
       -0.11635838 -0.011113022 -0.0062032826 -0.01996186
0000d0 e2 a9 cd bc 46 8a fa bc 22 80 12 3d 73 cd bc bc
       -0.02510542 -0.030583512 0.03576673 -0.023047185
0000e0 97 0a e1 3d 06 4b 35 bc 0f 1f 23 3d 9b 81 04 3e
       0.10988348 -0.01106525 0.03982454 0.12940066
0000f0 79 8d aa 3c 08 db 88 3d 10 ea 0d bc 71 0a 65 bc
       0.020819413 0.06682402 -0.008661762 -0.01397954
000100 64 21 86 3c 5f 97 81 3c 9b d5 6b 3e 6f 24 55 bd
       0.016373344 0.01581925 0.23030703 -0.0520367
000110 e4 b5 21 3d ec 13 19 3d 5c 8e 84 bc 85 e3 dd 3d
       0.039480105 0.037372515 -0.016181163 0.108344115
000120 bb 56 63 39 98 ad 8b 3b 83 7f 44 3c 68 bc d1 bd
       0.00021680717 0.0042626373 0.011993292 -0.10241014
000130 9e ce 84 bd af d1 4d 3e 34 11 b2 bd a5 1b 86 bb
       -0.064847216 0.20099519 -0.086946875 -0.004092651
000140 f3 12 ba 3b 29 10 a3 3d e7 60 4b 3d 74 71 e9 3d
       0.0056785285 0.07962067 0.04965296 0.113985926
000150 9a f3 03 3c 29 62 a1 bd dc a0 38 bc 59 2b fc bd
       0.008053685 -0.07880051 -0.011268821 -0.123129554
000160 cf 30 f8 3d dd 56 82 bd f8 49 82 3d 5e ea 33 3c
       0.121186845 -0.06364224 0.06361765 0.01098117
000170 46 ad 36 be 1d af 07 3e 19 62 59 bb c2 e4 30 3d
       -0.17839536 0.13250394 -0.0033170043 0.04318691
000180 4b cd e1 bd ca 62 a8 bd 46 e1 ac 3d 1d cc da bc
       -0.11025485 -0.082219675 0.08441405 -0.026708657
000190 24 08 04 bc cd a4 a1 3d ad 25 7a bd 2e af 11 3d
       -0.0080585815 0.078927614 -0.061071087 0.035567455
0001a0 5e b2 35 bb 97 42 c4 3b 9a cd 94 bd b2 0b 7e 3d
       -0.0027724723 0.0059893834 -0.07265778 0.062022872
0001b0 39 f6 20 be a2 d5 d7 3d e2 bf 40 ba e0 35 9f 3d
       -0.15718926 0.10538794 -0.00073528115 0.07773948
0001c0 f0 56 75 bd cf 54 62 bd 95 ad 25 3b db 18 cb bd
       -0.059897363 -0.05525666 0.0025280465 -0.0991685
0001d0 42 d7 78 3d 1d 05 09 3e 5b ba b9 3d f6 9a 33 bd
       0.06075216 0.13380857 0.090687476 -0.043848954
0001e0 c4 62 85 bd 9a dd e6 3d 55 41 b2 bd 1d 77 21 3e
       -0.06512979 0.11272736 -0.08703867 0.15768094
0001f0 7d 60 72 3d 90 49 4f bd 0c 86 0f 3b fd 90 aa bc
       0.05917405 -0.050607264 0.0021899967 -0.020821089
000200 31 37 da bd 57 a8 57 3d fc 3a 3a ba b1 6f 3f bd
       -0.10655058 0.052650776 -0.0007104126 -0.046737377
000210 4f e4 18 3d 30 b8 d4 bd af 34 e9 bd ca 88 b9 3d
       0.037327107 -0.103866935 -0.11387002 0.090592936
000220 30 40 5e be 9e e2 0a 3a 21 96 27 bc 76 9d 23 3e
       -0.21704173 0.0005298051 -0.010228665 0.15978035
000230 03 1a d5 3d e1 b0 fe bd b5 59 63 bc e2 93 3e bd
       0.10405352 -0.12436081 -0.013876368 -0.04652775
000240 43 93 92 bb 07 eb c6 bc a3 85 85 bd 57 15 05 bd
       -0.0044731214 -0.024281992 -0.0651963 -0.032491054
000250 e9 cc 78 bd d8 80 38 bd 83 7b 08 3d 5b ff 21 be
       -0.060742293 -0.04504475 0.033320915 -0.15820067
000260 fd 10 7f 3d 28 1d c6 3c 32 25 b3 3d 96 18 ce 3d
       0.06227206 0.024183825 0.08747329 0.10063283
000270 09 d2 15 3c 83 4b 75 bd ad e3 35 3e d1 8e d0 3d
       0.009144315 -0.059886467 0.17762633 0.1018349
000280 3c 84 4d bc 9e 2a a0 3c a5 3d a3 3d 60 86 9b bc
       -0.012543734 0.019551571 0.07970742 -0.018984973
000290 6f 00 16 be e1 bb d2 bd 73 9b e4 3c a5 b7 25 3e
       -0.14648603 -0.10289741 0.027906155 0.16183336
0002a0 d0 65 b1 bc 43 50 1f 3e ac d7 91 3c 45 83 4b 3d
       -0.021654993 0.15557961 0.017803036 0.049685735
0002b0 70 2f 39 3e 99 e7 93 3d 14 8f 13 be 01 f6 e2 3c
       0.18084502 0.07221908 -0.14410049 0.027705194
0002c0 ed 9d dd bd f4 b6 14 be 54 31 9c bd 40 4c 8b 3d
       -0.108211376 -0.14522916 -0.07626596 0.06801653
0002d0 9a 4e 13 3d 62 4b 27 3d 83 7c 0c bd 87 4a ec bd
       0.035963632 0.040843375 -0.03429843 -0.115376525
0002e0 77 0a c3 bd e1 b7 b5 bc 04 ff 93 bd 3d 8f 4d 3d
       -0.095234804 -0.022182407 -0.07226375 0.05018543
0002f0 59 58 11 be 86 8b fd 3c 83 35 bc bd 45 72 43 3d
       -0.14193858 0.030950319 -0.09189894 0.047716398
000300 72 08 71 3d ad ac c2 3d aa f9 b0 bc ca 1c e0 3d
       0.058845945 0.095055915 -0.021603424 0.10942991
000310 af 04 39 3e ce ea 04 be 76 31 7c bd 0e 03 05 3c
       0.18068193 -0.12980196 -0.061570607 0.008118404
000320 b0 ed ea 3c 25 c2 0a bd 87 b3 a3 bd c7 51 38 be
       0.028677791 -0.033876557 -0.079932265 -0.17999946
000330 e3 50 3b bd 36 d4 06 bd 33 10 99 bd f8 9a 3c be
       -0.045731436 -0.032917224 -0.07473793 -0.18418491
000340 62 c3 ef 3c 89 e3 fe bd ef 59 8b bb df f9 fb bd
       0.02926797 -0.12445743 -0.0042526643 -0.123035185
000350 51 83 30 bd d8 30 df 3d d9 6d d5 3d 08 92 de 3c
       -0.043093983 0.10897988 0.104213424 0.027169243
000360 a3 1c 2e bd 6a ae 67 be 28 a8 c5 bd bf 59 19 3d
       -0.04250778 -0.22625127 -0.09651214 0.037439104
000370 12 6c e6 bc 57 9e 2f 3e b9 b7 3b bd 2f 90 07 bd
       -0.028127704 0.17150246 -0.04582951 -0.03309649
000380 a2 35 a0 3d 55 8f 42 bc 52 3c c1 bc 42 ec 70 3d
       0.0782273 -0.011874993 -0.023588333 0.058819063
000390 68 60 de 3d b5 39 54 bd 10 b0 a3 3c 94 56 8b bd
       0.10858232 -0.051812846 0.019981414 -0.06803623
0003a0 29 76 69 3d d9 1f e2 bc 2e 8f 34 bd ee 9b d3 3c
       0.056997452 -0.027603077 -0.04408186 0.025831189
0003b0 ad 26 f6 bd 6b e0 d7 bb 6a 26 82 3d 2c 08 88 bc
       -0.120190956 -0.006588032 0.06354983 -0.01660546
0003c0 fb 9f b5 3d 9a 4f f6 3d 8f 7e 54 bd 3a 5a 41 be
       0.088684045 0.120269015 -0.05187851 -0.18882075
0003d0 af ad 00 be 4c 92 b7 3d a0 c4 a4 3d 58 61 d0 bd
       -0.12566255 0.08963451 0.08045316 -0.10174817
0003e0 fc 14 97 3d 07 9c f9 bc 29 ad cb 3c d7 49 41 3e
       0.07377049 -0.030469907 0.024862843 0.18875824
0003f0 e2 d0 06 3e 43 bc 3a 3e f3 98 49 3d 1d 3c 2b 3c
       0.1316562 0.18235879 0.04921813 0.010451344

encoder.1.bias f4 [32]
000000 9b 76 46 bb e8 4c fd 36 d2 48 68 ba ce 5e 20 bb
       -0.0030283097 7.5489406e-06 -0.0008860949 -0.002447057
000010 31 c8 ca 39 dd 68 2e 3b 04 88 ad ba 5b aa 3b bb
       0.00038677597 0.0026612796 -0.0013239388 -0.0028635475
000020 5d 30 9b ba 8a e6 b2 39 be dc 68 38 a4 4b c8 3a
       -0.0011839975 0.0003412257 5.5518693e-05 0.0015281332
000030 a4 65 46 ba 73 e3 46 bb 07 0b e5 ba 43 70 82 bb
       -0.0007568246 -0.0030347973 -0.00174746 -0.003980668
000040 b7 76 3c bb f5 0e 69 ba 91 c3 f3 38 1f e7 5c ba
       -0.0028757283 -0.00088904734 0.0001162357 -0.0008426774
000050 fc 71 64 3a e9 54 11 ba 39 53 99 bb 4c 59 a2 bb
       0.0008714495 -0.00055439636 -0.0046791104 -0.0049544927
000060 2f bb 67 3a bb 63 9a 39 03 6b a6 bb d7 e0 4e 3a
       0.0008839843 0.00029447474 -0.0050786748 0.000789178
000070 56 09 31 bb fd fc f4 ba be e8 94 bb 42 37 c8 3a
       -0.0027013621 -0.0018691119 -0.0045443466 0.0015275257

encoder.4.weight f4 [64, 32, 3, 3]
000000 8a 33 c7 3d c9 29 b8 3d 95 b5 88 3d af 10 81 bc
       0.09726627 0.08992345 0.06675259 -0.015755026
000010 c3 15 20 bd 64 8a 6d be 14 49 54 bd d5 45 37 3d
       -0.039083254 -0.23197323 -0.051827505 0.04474433
000020 80 1b fd 3c 94 00 d3 3b c4 26 c5 bc 35 5a 4b 3d
       0.030896902 0.006439278 -0.024066336 0.049646575
000030 5c f0 c9 bd f9 98 14 3d 11 ed 39 3e 02 fe ad bd
       -0.09860298 0.0362787 0.1815684 -0.08495714
000040 02 fd 65 3d 89 6d 00 be 5e c3 c4 bd de 6f 0b 3e
       0.05614949 -0.12541784 -0.09607576 0.13616893
000050 4e 10 ec bd 6a 4b 3c 3b 18 39 6d 3d 3c 11 d3 3b
       -0.11526547 0.0028731474 0.057915777 0.0064412635
000060 7c 47 b3 bd c5 24 6c 3d 39 ca 77 bd 84 81 d6 bb
       -0.08753869 0.057652254 -0.06049559 -0.006546201
000070 7e cc d4 3c 7e 6b a5 3d 82 2b 49 bd ff ef 84 3d
       0.025976416 0.08077143 -0.049113758 0.06491088
000080 00 46 a6 bb 49 1d a0 bd 85 22 d7 3c 20 eb 41 3c
       -0.0050742626 -0.07818086 0.026261577 0.011835843
000090 05 76 8e 3b 2f c2 1b 3b 9c 6c 78 bd 3f 47 23 3e
       0.004347565 0.0023766865 -0.060650453 0.15945147
0000a0 61 e0 8b 3d ef fe 4b 3b 32 00 38 bd 35 0b d7 3d
       0.06829906 0.0031127294 -0.04492206 0.105001844
0000b0 69 1c c9 bd 9b 46 b8 bd 30 fa 08 3e 44 4b 55 bd
       -0.09819872 -0.08997842 0.13376689 -0.052073732
0000c0 67 4e 12 be f5 28 54 bc 30 d7 9f bd 8a 59 c2 bd
       -0.1428772 -0.012949218 -0.07804716 -0.094897345
0000d0 2b 0a 58 bd b1 54 0c be 56 c5 ad bd b6 7b 5a 3d
       -0.052744072 -0.13704182 -0.084849045 0.053340636
0000e0 0e 0d b0 bd 4b e7 34 bd b3 db 85 3c 09 3f 98 3d
       -0.0859624 -0.04416589 0.016340112 0.07433898
0000f0 c1 3b eb 3d dc c8 97 3d a6 5d 2e bd 74 37 92 3d
       0.114860065 0.07411358 -0.04256978 0.07139483
000100 4d 08 99 bd 50 6d 0d 3d f6 83 60 3d 51 4f c6 3c
       -0.074722864 0.034528077 0.054813348 0.024207743
000110 d3 10 93 bd f7 8c e5 bd 4e 17 58 3e de c9 a2 3d
       -0.07180943 -0.112085275 0.2110264 0.07948659
000120 88 36 ee 3c e7 00 c5 bd 26 d9 47 bd 2f 1d c9 3d
       0.029078737 -0.09619313 -0.048791073 0.098200195
000130 98 60 00 bd e0 6f cf 3d 6c 31 9a 3d 75 5e e7 3d
       -0.03134212 0.1012876 0.07528958 0.11297313
000140 0a 32 81 3d cb 0d c7 3c 3f f1 b0 3c b2 37 80 3d
       0.06308372 0.02429857 0.02159941 0.06260623
000150 e9 74 b2 3c f4 43 15 be 30 83 c2 3c 5d ec 06 bd
       0.021784263 -0.14576703 0.023744196 -0.032940257
000160 37 73 e7 ba b5 b6 bc 3c 06 17 bb bd 3b 51 8e 3b
       -0.0017658238 0.02303634 -0.09135251 0.0043431795
000170 92 03 27 3e d9 f4 66 3d 41 cb ea 3d 56 e8 b8 bc
       0.16309956 0.05638585 0.11464549 -0.022571724
000180 43 f2 77 bd a7 ee 34 bb 74 8d 13 3c ed 54 aa 3d
       -0.060533773 -0.0027608068 0.009005893 0.083169796
000190 29 ab 29 be 37 c7 15 3d f8 15 af 3d 5d 39 2d be
       -0.16569199 0.03656694 0.08549112 -0.16916414
0001a0 12 07 91 3d 1b 0f b6 bd f1 bf b8 3b d5 78 60 bd
       0.07081427 -0.088896 0.0056381156 -0.054802734
0001b0 7e ec 18 bd d5 ed d1 bc 06 f9 fc bc 14 e3 e3 3b
       -0.03733491 -0.025626102 -0.030880462 0.00695456
0001c0 ca ea 0d 3c 68 66 ff bd 95 d0 58 bb 84 fd 16 bd
       0.008661935 -0.12470704 -0.003308331 -0.036862865
0001d0 72 a9 07 3c 17 40 b7 3d c4 21 32 3c 87 75 bf bd
       0.008280145 0.08947771 0.010872308 -0.093485884
0001e0 2f 10 2d 3d bf 53 89 3d 45 15 f6 3c c8 12 93 3c
       0.042251762 0.067054264 0.030039439 0.017953292
0001f0 9c c6 11 be c6 88 d4 3c ee 11 a6 3d ae 6a 0f 3c
       -0.1423592 0.025944125 0.081088886 0.008753462
000200 31 9f 0c 3c c0 b6 af bc f2 d8 08 bd 2b 27 84 bc
       0.008582876 -0.021449447 -0.03341002 -0.016131958
000210 99 df 85 3c f6 e9 af bc 31 43 12 bd 29 3e b8 bc
       0.016341971 -0.021473866 -0.03570861 -0.022490578
000220 1c cd 66 bc eb d8 a1 bd 9a a7 97 bd 4f 4c 91 3e
       -0.014086988 -0.07902702 -0.07405014 0.2837853
000230 7c e0 c6 bd b9 2b 78 3b be d0 78 bd 47 7a 03 3e
       -0.09710786 0.0037867858 -0.060745947 0.12839614
000240 01 4d bc 3c bc 66 65 bd 58 3b 21 bd 0f b0 0c 3d
       0.022985937 -0.05600618 -0.039363235 0.03434759
000250 52 65 33 bd d4 2f ed 3d ad bd b8 3d d2 b8 4e 3d
       -0.0437978 0.11581388 0.09020553 0.050469227
000260 4c c7 aa bd 7c a8 3e 3d 05 8b 68 bd a1 f9 86 bd
       -0.08338794 0.046547398 -0.056773204 -0.06590582
000270 9b 51 cf bd a5 42 7f 3d b7 e4 b6 ba 7a 8a 88 bd
       -0.10122987 0.062319417 -0.001395366 -0.06667037
000280 7c 63 73 3d ed 3f 2d 3d b1 bb d3 bd 60 4b 66 bd
       0.059421048 0.042297293 -0.10338534 -0.056224227
000290 a1 f1 ce bd 75 ec d0 3d 56 17 13 3d fe f7 a1 bd
       -0.10104681 0.102013506 0.035910927 -0.07908629
0002a0 2c b2 da 3d 60 9e a0 bd 6b c0 df bc 04 ff 4d bd
       0.10678515 -0.07842708 -0.027313432 -0.05029203
0002b0 53 02 c8 bd d6 2f 95 bd bd a7 34 3d 70 11 11 bc
       -0.09766068 -0.072845146 0.04410528 -0.008854255
0002c0 3a 97 77 bd 8f bb 20 3d 25 b8 c4 3d fc fd 0c be
       -0.060446955 0.03924137 0.09605435 -0.13768762
0002d0 f6 06 6b bd 19 d5 81 bd 4f 54 10 be 08 f5 6b bd
       -0.057379685 -0.06339473 -0.14094661 -0.057606727
0002e0 eb 34 84 bd 58 9f 85 3d be d4 9a bc c2 eb cd bb
       -0.06455406 0.06524533 -0.018900272 -0.006284208
0002f0 ae c5 a5 bc 0a ff b9 bd 8a 17 a9 bd d8 20 a1 bc
       -0.020235863 -0.09081848 -0.08256443 -0.019668981
000300 87 c6 3b bd cb 10 a3 bd 54 2c f1 bc 7c fc 9c 3d
       -0.045843627 -0.079621874 -0.029440083 0.07665345
000310 32 98 02 3d 6d 89 02 bd f4 b7 31 3d ca dc 6c 3d
       0.031883426 -0.03186934 0.043388322 0.05782775
000320 a1 1f 8d 3c 14 2c cd bc 4b 70 a3 bb d4 e4 6f 3d
       0.017226996 -0.025045432 -0.0049877516 0.058567837
000330 bb 3c 0a be b0 c4 a3 3c 49 b3 a6 3d fe dd bf bd
       -0.1349973 0.019991249 0.08139665 -0.093685135
000340 ca c8 65 be 1f b6 7b 3d de 39 fd bd ee a8 7d bc
       -0.22439876 0.06145298 -0.12364553 -0.0154821705
000350 9f 9e 4a be 79 ba 1d bd 1a a8 03 bd ae 3c 91 3c
       -0.19787072 -0.038507912 -0.032142736 0.01772913
000360 cb d7 15 bd 5e cb d9 3d 0d 6e 41 bd ee 28 fd bd
       -0.03658275 0.10634492 -0.047224093 -0.12361322
000370 c5 1c 92 3c 46 d9 03 bd 28 dd 3f 3e 5d cc 83 3d
       0.017835984 -0.03218963 0.18736708 0.064354636
000380 63 23 97 bd 8c 29 e2 3c a8 fc c9 bd 35 5e aa bd
       -0.07379796 0.027607702 -0.098626435 -0.0831875
000390 a6 1b 18 3d 18 26 01 be 69 29 2d 3d e6 ca cc 3d
       0.037135743 -0.12612188 0.04227582 0.09999637
0003a0 59 d1 7f 3d 11 dd f7 3d 11 2e c4 bd 62 ef 23 3b
       0.06245551 0.12102712 -0.09579099 0.002501451
0003b0 e8 5c 19 3e 5a 74 f1 3c bd 27 bd 3d 01 13 8c 3d
       0.14976847 0.029474426 0.09236095 0.06839562
0003c0 26 6a 27 be 54 9b 80 3d e5 77 8d bb a5 b2 d0 bd
       -0.16349086 0.062796265 -0.004317271 -0.10190324
0003d0 65 7e 21 be ee 2e e7 3b 53 13 97 bd 0d f4 12 3d
       -0.15770872 0.007055155 -0.07376733 0.035877276
0003e0 a6 14 c4 bd f5 63 14 3e 0d 72 e1 3c 2e 08 4c 3d
       -0.09574251 0.14491256 0.027520204 0.04981249
0003f0 15 a3 ae 3d 91 c1 12 bd 68 6f 46 3d 5f f0 86 3d
       0.08527199 -0.03582913 0.04844609 0.06588816

encoder.4.bias f4 [64]
000000 0a d6 dc ba 48 4d 91 bb d9 76 94 3a dd 23 15 ba
       -0.0016848457 -0.0044342615 0.0011326923 -0.0005689243
000010 24 66 81 bb 74 52 a9 ba 85 cb 81 ba e8 a3 92 bb
       -0.0039489437 -0.001291825 -0.0009902572 -0.0044751056
000020 6d 75 f6 ba 5b fa c5 39 6a 60 8c 3a b7 45 c4 b7
       -0.0018803306 0.00037761297 0.0010709886 -2.3397484e-05
000030 0e a3 95 ba 2a fc 01 bb bb 67 58 3b 0c 8c e0 39
       -0.0011416392 -0.001983414 0.0033020813 0.00042828952
000040 be 41 8b 3a 0b ae e6 38 09 49 93 b9 91 71 fb ba
       0.0010624451 0.00010999673 -0.0002809244 -0.0019183626
000050 ff 3a 8f 3b 1d 7f 7b ba 8a 1d 21 3a 68 d7 5e bb
       0.0043710466 -0.00095938315 0.0006146064 -0.0034002904
000060 1f f3 2e b9 f8 e6 3e 3b 89 23 1d 3a 79 7c a2 b9
       -0.00016684503 0.0029129367 0.000599437 -0.00030991787
000070 63 33 9e 39 1f db 70 bb 9f 4a 86 bb ce eb 6e ba
       0.00030174394 -0.00367517 -0.004098251 -0.0009114117
000080 ed e1 31 bb db 18 07 bb 61 6d 6b bb cc 64 4a ba
       -0.002714272 -0.002061418 -0.003592335 -0.00077207084
000090 09 f2 9e b9 3c 83 35 bb 00 00 00 00 1d a1 21 ba
       -0.0003031644 -0.002769663 0.0 -0.00061656703
0000a0 73 3b c1 b9 3e 1a 53 bb ba b0 ee 3a c8 ba 8d bb
       -0.00036856122 -0.0032211686 0.0018210628 -0.0043252446
0000b0 c8 70 b1 ba 00 00 00 00 3e 4b 93 ba 6d 83 4a bb
       -0.001353764 0.0 -0.0011237634 -0.003090109
0000c0 05 15 f4 ba bb ea 7a bb 36 85 25 bb 22 66 63 bb
       -0.0018621987 -0.0038286883 -0.0025256402 -0.0034698327
0000d0 af 16 82 bb 60 ec de 3a b1 25 41 b8 41 53 b3 ba
       -0.0039699893 0.0017007701 -4.604989e-05 -0.0013681428
0000e0 bc c7 fd ba 66 ff 36 bb 99 32 d7 ba 48 6e a9 bb
       -0.0019361894 -0.0027923225 -0.0016418278 -0.0051706173
0000f0 59 bc aa 3a ae 6e 29 39 ab ce 7a 3b 50 61 d0 ba
       0.0013026103 0.00016158327 0.0038270156 -0.0015898142

actor.0.weight f4 [64, 32, 3, 3]
000000 3a 2b d1 bd 56 0a 8b bd 8c 47 88 bc fe 94 0f be
       -0.10213323 -0.06789081 -0.016635679 -0.1402168
000010 3c 2f cc 3d 09 f7 5b 3d 0e 74 c5 bc 1b c3 40 3a
       0.09969947 0.053702388 -0.02410319 0.0007353292
000020 89 91 33 bd a3 67 20 bd 1d 8f bf bd 9d 78 bb bd
       -0.043839965 -0.039161336 -0.093534686 -0.091538645
000030 79 69 87 bd 6c 88 f9 3d 00 64 0d 3e ce 84 ec 3d
       -0.06611914 0.121842235 0.13807678 0.11548768
000040 bf c2 cd bd 27 28 81 3c 00 79 43 be 8f 45 53 bd
       -0.100469105 0.015766216 -0.19089127 -0.051580008
000050 6b ee 7a 3d 49 3b cd 3d 52 07 31 3d 36 f1 90 bc
       0.06126253 0.10021073 0.04321987 -0.017693143
000060 c2 45 37 bd 0f b1 5d 3e bd 5a e0 bc cd 7a 87 bd
       -0.04474426 0.21649574 -0.027387017 -0.06615219
000070 8b fb 37 bd 71 94 af 3c 01 33 01 3c da 23 a0 bd
       -0.044917624 0.021433087 0.007885695 -0.07819338
000080 99 08 de 3d 74 b9 16 be c5 f4 5a 3d a1 33 f0 bc
       0.108414836 -0.14719182 0.053456087 -0.029321494
000090 a7 72 c3 3d 40 bf 2e 3d eb 83 ae 3d c7 94 1f 3d
       0.095433526 0.04266286 0.08521255 0.038960245
0000a0 7a 31 98 3d cd 10 1e 3c 04 67 bf 3d 8a d4 0d be
       0.07431312 0.00964756 0.093458205 -0.13850608
0000b0 ef d4 87 bc c8 8f f1 3d 37 7c 03 be cf 9a 85 bd
       -0.016581027 0.11795002 -0.12840353 -0.06523668
0000c0 5e 2d 29 bd ce e8 c3 bd 16 03 20 3d ce 2d 14 3e
       -0.04130303 -0.09565888 0.039065443 0.14470598
0000d0 93 14 3d be c1 b5 99 bc ba 2b 9c 3d 45 9d de bd
       -0.1846488 -0.018763425 0.07625528 -0.108698405
0000e0 4e 8c 8a 3c 1f df e2 bc 95 fa a0 3d 7a 6a 28 3d
       0.016912606 -0.027694283 0.07860295 0.04111717
0000f0 9d f9 16 be 99 74 40 bd c5 e3 9c bd 37 42 25 bd
       -0.14743657 -0.046986196 -0.07660631 -0.04034635
000100 4f b7 4b 3d b9 5c 47 3d 82 5b 0b bc 8c bc 89 3d
       0.049735364 0.04867241 -0.008505704 0.067254156
000110 9f 40 8b bd 80 65 47 bd dd 47 97 bd 0d 3f 05 3d
       -0.06799435 -0.048680782 -0.07386754 0.032530833
000120 0b 6e a9 bd 39 ab 85 3d 74 e0 fa 3d 14 49 f4 bc
       -0.08272942 0.06526799 0.12249842 -0.029820003
000130 ce 9c ca bd fd 05 02 be 11 56 f1 3c 65 61 93 3d
       -0.09893189 -0.12697597 0.029459985 0.07196311
000140 01 d4 c9 bc a9 d6 01 bd 94 13 0a bd 29 a7 01 bc
       -0.024637224 -0.031698857 -0.033710077 -0.007913389
000150 c3 3b d8 bd e5 d7 b7 bc 3e 9f 0c 3d c9 bf e4 bd
       -0.10558274 -0.022441814 0.034331553 -0.111693926
000160 09 87 d5 bc cb 0a b8 bd f5 77 af 3d cb 7d db bd
       -0.026065366 -0.089864336 0.08567802 -0.107173525
000170 b1 fd ad 3d 57 64 bb 3b f9 dd d9 bd ba b0 ee 3b
       0.084956534 0.0057187486 -0.10638041 0.007284251
000180 85 b0 c6 3c ad 5e 68 3d a5 15 15 bc 13 15 58 3c
       0.024254093 0.056730915 -0.009099399 0.013188618
000190 ef 7c 08 bd 4d 4f 3b be 22 4c 54 bb 8d 95 4e be
       -0.03332227 -0.1829197 -0.0032394012 -0.20174237
0001a0 a0 7f 0c bc 99 30 b5 3d b0 8f cd bc 6c 1d be bd
       -0.00857535 0.0884716 -0.02509293 -0.092829555
0001b0 31 da aa 3b 48 7b 7d bd d3 bf b7 3d d8 02 d1 bd
       0.0052139987 -0.06188515 0.089721344 -0.102056205
0001c0 d9 f7 6c 3b ec 84 c0 bc 4a 81 09 bd a0 93 5e 3c
       0.003615847 -0.023500882 -0.033570565 0.013585001
0001d0 20 a9 af bd 06 0f 85 bd b9 d6 fa 3d 68 e4 81 bc
       -0.0857718 -0.06497006 0.12247986 -0.015855983
0001e0 0b ca 88 3d d6 c8 c9 3d ff dc 81 3d 7d f2 a4 3d
       0.06679162 0.098527595 0.0634098 0.080540635
0001f0 1c 98 54 3d 65 c1 26 3e d5 bc e6 bc 81 b6 17 be
       0.051902875 0.16284712 -0.028166214 -0.14815713
000200 cb f4 55 3d 45 80 b3 bc 39 37 c5 bd f1 80 53 bd
       0.052235406 -0.02191175 -0.096296735 -0.05163664
000210 d7 7f 7f 3d 2e 77 59 bd 78 0e c6 bc 2a 91 e3 3d
       0.062377777 -0.053092174 -0.024176821 0.11111672
000220 2e fe af 3d f7 26 07 bd 28 3b bb 3d 0f 40 14 be
       0.08593403 -0.032996144 0.091421425 -0.14477561
000230 90 9f b2 3d ee ae 27 be cd cc 27 3d d7 89 82 bd
       0.087218404 -0.16375324 0.040966798 -0.06373947
000240 a8 55 89 bd 6c fa 36 3d 76 b6 1a 3c 8f eb 99 bd
       -0.06705791 0.044672415 0.009442916 -0.07515632
000250 c3 9f 2b bd 11 b7 7b bd c2 b7 43 3d 61 43 90 bd
       -0.041900408 -0.061453883 0.047782667 -0.070441015
000260 9e b7 f3 3d f3 46 4a 3d af 64 06 bd c3 35 2a 3d
       0.119002566 0.04938407 -0.032810863 0.041555177
000270 a1 09 72 3b 47 8a ee bd ae 11 e1 bc a0 69 26 3a
       0.0036932009 -0.11647468 -0.02747425 0.0006348137
000280 85 eb 9c bd 2c 37 a2 bc 71 19 7e bc ff 69 5c 3d
       -0.07662109 -0.019801699 -0.015508995 0.053812023
000290 e5 ce 0b 3c 92 51 8b 3e 29 87 97 3d 93 1e b6 b8
       0.008533214 0.2721067 0.07398827 -8.684131e-05
0002a0 e3 52 4e 3d a0 20 5a bd eb 2b a6 3c 1b e8 a1 bc
       0.050372016 -0.05325377 0.020284614 -0.019763997
0002b0 da e8 c1 3c c7 75 29 be 3e 0d 9d bd 44 55 cd bc
       0.023670603 -0.16548835 -0.07668541 -0.025065072
0002c0 c5 24 b6 bd 6f 51 76 3c 58 f4 37 bd b8 33 bc bd
       -0.08893732 0.015034064 -0.04491076 -0.09189552
0002d0 72 f8 a6 3d 4a 76 26 be d1 08 f8 3b 77 ba 83 3d
       0.08152856 -0.16256061 0.0075694104 0.0643205
0002e0 43 13 9d 3d 0a bc a2 bd 17 20 f7 3d 1c 00 59 3c
       0.076696895 -0.07946022 0.120666675 0.013244655
0002f0 8a 67 4b be 71 6e bf bd 1c 2d e4 b6 11 94 9f bd
       -0.19863716 -0.09347237 -6.800181e-06 -0.07791913
000300 22 81 c5 3d 55 6d 13 3d c2 ff 42 3d 69 35 20 3d
       0.09643771 0.03599294 0.04760719 0.039113436
000310 5d 58 05 bd 8a 6f 1f bd 82 e5 b5 3d 19 5c 1a be
       -0.032554973 -0.03892473 0.08881666 -0.15074195
000320 e4 70 d8 bd f4 c3 31 3c 45 bf 78 bd 24 9e f8 ba
       -0.10568407 0.0108499415 -0.060729284 -0.0018968028
000330 53 8b 23 3e 82 ba 66 3d 56 8c 32 bc 41 3b 1d bd
       0.15971117 0.05633021 -0.0108977165 -0.038386587
000340 32 07 01 be ac de 92 3d ec fe 5e bd ab 42 b5 bd
       -0.12600401 0.071713775 -0.05444233 -0.088506065
000350 5e 88 1d 3d 39 8b 14 be b3 51 03 bd 63 18 7c bd
       0.038460128 -0.14506234 -0.032060336 -0.061546694
000360 6d 6c 46 be f0 30 ec 3c 55 9c cd 3c 10 37 2b 3d
       -0.19377299 0.028831929 0.025098959 0.04180056
000370 cb 92 2b 3c 79 93 20 3d c8 af cf 3d 49 36 36 3d
       0.01047201 0.03920314 0.101409495 0.044485364
000380 c9 2f eb bb f5 a9 06 bd 98 cc 54 3c c6 d4 9c 3c
       -0.0071773273 -0.032876927 0.012988232 0.019144427
000390 6b 69 f0 bd b0 d6 a7 3d 60 f5 ee 3d bc 39 15 be
       -0.11738857 0.08195245 0.11667895 -0.14572805
0003a0 bf 95 8e be a0 19 7e 3d 71 52 ef bc 9e 9f 34 bb
       -0.27848622 0.062036157 -0.029214116 -0.002756096
0003b0 83 84 7c bd 1e a7 93 bd 78 66 f0 bd 5a 7a f7 bd
       -0.06164981 -0.072096094 -0.11738294 -0.120838836
0003c0 59 2b 4e bd 66 56 b6 bd fd c4 9f bc de 72 85 bc
       -0.05033431 -0.08903198 -0.019503111 -0.016290125
0003d0 6f 4c 6a bc cd 19 a2 3d 43 21 7b 3b af 56 46 3c
       -0.01430045 0.07915077 0.0038319386 0.012105628
0003e0 ac aa 16 bd e6 c4 8a 3c 96 85 28 3d b7 e5 4a 3d
       -0.03678386 0.016939592 0.041143022 0.04953548
0003f0 1c db 4e bd e0 6b 31 bc ca 4b 43 3d 44 13 da bd
       -0.050501928 -0.010828942 0.0476797 -0.10648206

actor.0.bias f4 [32]
000000 8e 3a f0 ba cb 89 4d bb 48 8d a2 bb 3d f9 43 b9
       -0.0018327998 -0.0031362649 -0.0049606897 -0.00018689498
000010 c0 bc 96 ba 55 96 f8 ba d5 1c 97 3a 37 f3 72 bb
       -0.0011500344 -0.0018965701 0.0011528978 -0.0037071237
000020 17 33 85 b8 6e d8 6d ba f4 52 11 3b 5a 66 3b ba
       -6.3514504e-05 -0.0009073083 0.0022174688 -0.00071487355
000030 81 bc 0d bb 6b 07 4e ba b8 12 92 bb 55 2b 4d bb
       -0.002162725 -0.0007859382 -0.004457798 -0.0031306345
000040 2d 39 68 bb 79 ac a8 bb 28 0f ad bb 59 e9 69 3b
       -0.003543447 -0.0051475135 -0.005281348 0.0035692065
000050 d9 53 5f bb 1a 8b 5b bb 90 7d 8f 3a 56 a4 de 3a
       -0.0034077077 -0.003349966 0.0010947455 0.0016986232
000060 1e 49 e8 ba d2 8a 25 b9 36 71 0c bb 33 c8 3f bb
       -0.0017721986 -0.00015787341 -0.0021429784 -0.0029263615
000070 1b 2c 82 bb 37 bb a7 bb 8e 93 2f ba 6a c2 50 b9
       -0.003972543 -0.0051187533 -0.00066977076 -0.0001990885

actor.2.weight f4 [32, 4, 3, 3]
000000 a8 88 23 3e bf c1 96 bc 69 d7 d7 3e bb 29 61 3d
       0.15970099 -0.018402932 0.42156532 0.054971438
000010 b5 07 ad 3c 75 ad 88 3e 3f e7 5e bd 15 b2 d0 3d
       0.021121839 0.26694837 -0.054419752 0.101902165
000020 65 cb 28 bb 64 4e 88 bd 24 6a 6f 3e a8 b0 c7 3d
       -0.0025755998 -0.06655577 0.23380333 0.097504914
000030 62 29 88 be cc f0 02 3e 8f 30 17 be 8c 60 d1 be
       -0.26594073 0.12787169 -0.14764617 -0.40893972
000040 65 fa c8 3e fe d3 82 3e 55 55 1f be b7 86 46 be
       0.39253536 0.25552362 -0.15559895 -0.19387327
000050 80 ef 33 3d 8b 11 84 3e 47 18 ad 3d c3 df 6c be
       0.043929577 0.25794634 0.08451896 -0.23132233
000060 52 92 48 bc ab f4 eb bd 90 3c 63 be 77 89 c8 3c
       -0.012241917 -0.11521276 -0.22191072 0.02447961
000070 27 4c 0a bf ec 46 a4 3e 70 e5 79 3e a9 52 5f bd
       -0.5402245 0.3208536 0.2440393 -0.05452219
000080 af 37 9f be ea 0b 04 3f 52 b8 bd bd 09 61 6c be
       -0.3109717 0.5158068 -0.09263672 -0.23083891
000090 11 a3 15 3e 09 e0 6c be 90 2e df 3c 46 a6 f2 3d
       0.14612986 -0.23132338 0.027243882 0.118481204
0000a0 fa b6 26 bd 15 e5 24 be 69 17 c2 3d cc 9c 87 be
       -0.040701844 -0.16103013 0.094771214 -0.26486814
0000b0 d1 46 9c be 85 3d f0 be b3 d0 ae 3e 22 c1 76 3e
       -0.3052278 -0.46921936 0.341436 0.24097112
0000c0 e8 fa 95 3e ec 24 aa 3c 8e 4b f3 3c c1 4d 21 3e
       0.2929299 0.020769559 0.029699113 0.15752317
0000d0 c7 24 85 3e 04 f0 45 be cb 5d a1 3e e5 7f b6 be
       0.2600462 -0.1932984 0.3151687 -0.3564445
0000e0 d9 35 66 3e 2d 25 35 3e 67 c4 fe bc 77 71 71 bd
       0.22481479 0.17689963 -0.031099511 -0.0589461
0000f0 4c 35 75 be 52 87 0e 3d ae 4f c4 bd 8d b3 df bc
       -0.23946112 0.03479702 -0.0958551 -0.027307296
000100 d0 8d 29 bb c6 47 42 be 44 03 50 3e 35 31 1c 3f
       -0.002587188 -0.18972692 0.20313746 0.61012584
000110 84 5c a9 bd f3 e5 51 3d b0 c4 53 3e cd 41 eb 3e
       -0.08269599 0.051244687 0.20680499 0.4594864
000120 fa ea 98 be 6f 0d a6 be eb da 5b 3e 4c 39 ec bb
       -0.29866773 -0.32432124 0.2147023 -0.0072089788
000130 57 1f 5a 3e 88 bb 74 3e 3c a9 f8 bd 60 78 5b 3e
       0.21301018 0.23899662 -0.12141654 0.21432638
000140 1d 05 44 be 6e 36 4f 3d ac b1 da be d4 19 32 be
       -0.19142576 0.050589018 -0.42713678 -0.17392665
000150 14 8c 8c bd 12 f2 da bb f5 a1 f9 3e 27 90 0d 3e
       -0.06862655 -0.006681689 0.48756376 0.13824521
000160 4d 79 61 bd ae 22 1d 3e 5f 1c 01 be 15 19 7b 3d
       -0.055047322 0.1534526 -0.12608479 0.061303217
000170 2d 5c 15 3e 37 35 05 3f a9 65 b6 be 6c 25 2e 3e
       0.14585944 0.52034324 -0.35624436 0.17006463
000180 f2 3c 87 be d5 b5 11 3e 46 70 e5 3c d1 47 dd be
       -0.26413685 0.1422952 0.028007638 -0.43218854
000190 f0 c5 be 3c 9a 21 ac be 05 73 62 3e fc 3b 12 be
       0.023287743 -0.33619386 0.22114189 -0.14280695
0001a0 fe 34 1a bd 57 30 5a 3e 4f 2d d7 bd 90 eb 70 3e
       -0.037648194 0.21307503 -0.10506689 0.2352736
0001b0 93 5b ba 3a 43 c6 b6 be ed 10 d0 bd ff fd 7c bd
       0.0014217965 -0.35698137 -0.10159478 -0.061765667
0001c0 9c 01 77 bd 16 9f 8f be 2e b0 fc 3e f7 4a 25 be
       -0.06030427 -0.2805106 0.49353164 -0.16141878
0001d0 bf 01 fd 3e 89 c2 37 3e 04 4f 49 3e 8e 70 23 3e
       0.49415395 0.17945303 0.19659048 0.15960905
0001e0 9e dd 2f bd 3f 8e 06 3e dc 88 15 3d 17 bb 80 be
       -0.04293596 0.131402 0.036507472 -0.25142738
0001f0 4b 35 b5 bd 71 f8 93 be ad 1b da bd 0f e4 ee be
       -0.088480555 -0.28900483 -0.1064981 -0.4665837
000200 ca b5 24 be cd aa c3 3d 3c 0b 4a 3d b1 a6 d6 3d
       -0.16084972 0.09554062 0.04932712 0.104810126
000210 8b 5c 8c be bb 01 9c be 4e 56 bf bd ab 18 a8 be
       -0.27414355 -0.3047007 -0.09342633 -0.3283132
000220 b6 1a c3 3d e8 b5 10 be ec 98 1d 3d 0b be 16 bf
       0.09526579 -0.14131892 0.038475916 -0.5888373
000230 cc c1 6f bd dc a3 ca 3c 85 bb 46 3e 69 22 97 3d
       -0.05853443 0.024736337 0.1940747 0.0737961
000240 64 2e ee bd 7b 81 bc bd fc 3f c1 be 33 f3 af 3e
       -0.11629942 -0.09204384 -0.3774413 0.34365234
000250 61 8c 78 3d 2a 16 41 3d 12 dc 15 3c 91 47 b8 3e
       0.06068075 0.047140278 0.009146707 0.359921
000260 fc f4 12 be ee 45 54 3e 51 02 76 3d f8 8d 6a be
       -0.14351267 0.20729801 0.060060803 -0.2290572
000270 17 a0 92 be 35 0e c8 be 2e c4 62 3d 9d bf e3 be
       -0.28637764 -0.3907334 0.055362873 -0.44482127
000280 2d 66 93 3d 97 f6 a2 3d 1c dc f5 bd dd e6 bb be
       0.07197223 0.079571895 -0.12004873 -0.36699572
000290 48 44 42 3e ad 43 8c bc 6a d1 de 3d ab 14 c8 3d
       0.1897136 -0.017122114 0.10879786 0.09769567
0002a0 4d 83 9b 3e 71 3b 40 3e ff c4 ec be 57 7c 8f 3e
       0.30373612 0.18772675 -0.46244046 0.2802455
0002b0 49 e5 62 3e 74 3b 9f bd c6 51 c7 3e 6f 35 5d 3d
       0.22157778 -0.07775012 0.38929576 0.054006036
0002c0 af b5 71 3e 6f 3d 46 be b9 2d 80 3e b6 35 20 3e
       0.23604463 -0.19359373 0.25034884 0.15645489
0002d0 9b 3d 7e be 44 d6 00 3f 37 ee 05 3d 89 ef 2f be
       -0.24828188 0.50326943 0.032697883 -0.17181219
0002e0 cd 76 e9 3e 52 0d 95 bd 4d 91 55 3e 13 d7 8c 3e
       0.4559845 -0.07277931 0.20856209 0.2750784
0002f0 8c b5 03 3d 4d 05 1e be 08 c2 2f 3c 0d 96 c4 3e
       0.03215556 -0.1543171 0.010727413 0.3839573
000300 db d1 a6 bd 84 db 33 3e c8 77 bd 3e 75 83 25 3e
       -0.081454955 0.17564207 0.37005448 0.16163428
000310 7b 88 41 3e 99 4a 0e 3e da cb de 3b 3f ac ed be
       0.1889972 0.13895644 0.0067992033 -0.46420476
000320 fb be d9 3d 1d 49 8f be 75 04 7d be 4a 44 a5 3e
       0.1063213 -0.27985469 -0.24708731 0.32278663
000330 62 62 98 3e c8 be e6 be 77 07 4a 3e 82 71 03 3d
       0.2976256 -0.4506743 0.1972941 0.03209067
000340 21 81 5c bc 01 d2 9f bd 6d c4 18 3e 3e d9 e8 3d
       -0.013458521 -0.07803727 0.1491868 0.11369561
000350 25 75 bb 3c 28 f9 82 bd e5 9d f5 bd dd 10 1e be
       0.022883007 -0.06395179 -0.119930066 -0.1543612
000360 5a fc 63 be b5 b0 1c bc ad 93 5c 3d bb c0 25 3d
       -0.22264233 -0.009563615 0.053851772 0.040467005
000370 9d 7d c2 ba 2f 3e 9b be f9 5d ca 3e 8d f4 9e bc
       -0.0014838461 -0.3032088 0.3952482 -0.01940372
000380 5f 71 62 be 97 f4 15 be de ac 1f be 5b 22 a5 bc
       -0.2211356 -0.14644085 -0.15593287 -0.020157984
000390 31 d7 e2 3d 8d 0a 7e be d0 be 4e 3d d3 95 0f bd
       0.11076201 -0.24808712 0.05047494 -0.035054993
0003a0 ae 08 fe 3d 4e 87 63 be a3 79 64 bd ca ac ab 3e
       0.12403999 -0.22219583 -0.055780064 0.33530265
0003b0 a5 85 f9 3c 27 94 8d be 71 08 2e be 0e c6 ad 3d
       0.030459234 -0.27652094 -0.16995408 0.084850416
0003c0 54 d8 8a be f0 4c c3 3c 87 f5 2a bf 18 f2 31 be
       -0.2711817 0.023840398 -0.66780895 -0.17377508
0003d0 84 18 00 be 88 a5 70 3e 3e bc 39 3e f2 37 8b 3c
       -0.12509352 0.23500645 0.18138215 0.01699445
0003e0 e7 23 ca be df 1e c3 be 05 65 e1 be 2c 0d 8e be
       -0.39480516 -0.3810949 -0.44022384 -0.27744424
0003f0 15 21 00 bf 03 8e 36 3e 99 91 72 be f8 fb 59 be
       -0.5005048 0.1782761 -0.23688354 -0.21287525

actor.2.bias f4 [4]
000000 44 9c 50 3b 6a 69 9b 39 97 82 46 ba 3b 28 36 bb
       0.0031831423 0.00029642443 -0.000757256 -0.0027794975

critic.1.weight f4 [128, 1024]
000000 f1 2d 09 ba 3d 59 47 bd 90 38 2e bc e5 03 38 bd
       -0.0005232981 -0.04866909 -0.010633603 -0.04492559
000010 ce dd c9 bc 30 e3 0f bd 93 af d1 bd d7 d0 29 bd
       -0.024641898 -0.035128772 -0.10238566 -0.04145893
000020 d8 39 9c 3b 27 06 84 bc 58 2d 4d 3c fc bc 85 3d
       0.0047676377 -0.016116215 0.012523018 0.065301865
000030 3c 1c 21 3c 5d 0a 14 be 8c 54 42 3d 33 76 19 bc
       0.009833392 -0.14457078 0.04744391 -0.00936656
000040 5a d1 02 bc 13 fa 5b bd 8d 61 8f bc 14 48 b6 3c
       -0.007984484 -0.053705286 -0.01750257 0.022251166
000050 66 bf d8 3b 0b 32 c2 bd 96 d4 0b bd fd c7 36 3b
       0.0066146133 -0.09482201 -0.034138285 0.0027890198
000060 6f eb a5 3d 24 fc 05 3d 33 dc 0a 3d 45 80 66 bc
       0.08101546 0.032711163 0.033901405 -0.014068668
000070 1a b1 14 bd 3e 2e 17 bd 0c 79 14 bd 1e ef 10 3d
       -0.03630171 -0.036909334 -0.03624825 0.03538429
000080 2b 66 26 bd 8d b1 ac bc f3 dd 74 bc 78 91 9a 3d
       -0.04062478 -0.021080757 -0.014945495 0.07547277
000090 fc 32 a6 3d 34 27 ae 3c 80 e5 9b 3d 65 96 37 bd
       0.08115193 0.021258928 0.07612133 -0.04482116
0000a0 24 7e ef bc 78 88 d7 bb e5 cd 96 3c 67 25 48 3c
       -0.029234953 -0.0065775476 0.018408725 0.012215949
0000b0 a8 b2 93 3d 30 33 b3 bd 54 dd 4b 3d a7 32 87 bb
       0.0721181 -0.087499976 0.04977162 -0.0041259113
0000c0 f2 e7 22 bd 3a 61 3b bd 89 c5 30 3d 6a eb e3 bc
       -0.03977198 -0.04574702 0.043157134 -0.027822215
0000d0 4d 7b 94 3c 73 13 c8 bd 53 93 d5 3c 1f 98 c0 bc
       0.0181252 -0.09769335 0.026071226 -0.023510037
0000e0 07 12 3e bc ea 52 b3 bc 6d d3 5a 3d 68 4a 04 bb
       -0.011600978 -0.021890122 0.053424288 -0.002018595
0000f0 ac 6c 88 3d ff 86 1e bd 54 6a 63 bd 53 e0 be 3c
       0.066613525 -0.03870296 -0.055521324 0.023300325
000100 64 65 63 3b cd f2 74 3d 71 08 01 bd 8f 30 e9 bc
       0.0034697885 0.059801865 -0.03150219 -0.028465537
000110 72 ad 07 3c d8 8d 48 bd 85 4d 1f 3c c0 47 95 3b
       0.008281099 -0.048963398 0.009723072 0.0045556724
000120 5b 3a cc 3c d0 a7 6c bb e8 fc c2 bd d0 ea c6 bc
       0.02493017 -0.0036110766 -0.09520894 -0.02428189
000130 d1 2f f3 bc e9 3b 3a 3a 7a 98 0e bd ae 47 39 bd
       -0.029685887 0.0007104264 -0.03481338 -0.045234375
000140 33 74 1a bd b6 59 f6 3c 35 35 93 3d bd 9b 1f bd
       -0.037708472 0.030072074 0.07187883 -0.038966883
000150 1e 2b 96 3d cb 5d 4d 3d c9 28 64 bd 2c 13 8d bd
       0.07332443 0.050138276 -0.05570296 -0.06888422
000160 b6 31 79 bc b1 a4 48 bd e3 bb 59 bd eb 7d 37 39
       -0.015209606 -0.048985187 -0.0531577 0.00017499148
000170 a7 a1 b9 bd f2 eb a1 bd 13 86 4d 3d 59 74 46 bd
       -0.09064036 -0.07906331 0.05017669 -0.0484508
000180 90 a1 9a bb d0 26 61 3c 2b d8 57 bd 43 92 aa ba
       -0.004718967 0.013742164 -0.05269639 -0.001301356
000190 b5 62 8d 3c d9 5a c7 bc 48 d5 30 3d ea 22 3d bd
       0.017258981 -0.024335312 0.04317215 -0.046175875
0001a0 b1 4e 0e bd 15 75 0c bd b3 d3 5a 3d 94 59 89 3d
       -0.034743015 -0.034291346 0.05342455 0.06706539
0001b0 3d 93 7c 3d d1 79 bf bc c0 78 1e bc 3d f7 db bc
       0.061663855 -0.023373516 -0.009672344 -0.02685129
0001c0 cf e4 0d 3c aa 90 e3 bc a1 67 99 bd 00 dc 79 3c
       0.008660509 -0.027778942 -0.07490469 0.015250206
0001d0 d5 d6 1d bc 5b 94 3d bb 0d 59 22 bc f4 b5 6b 3c
       -0.0096337395 -0.0028927538 -0.009908927 0.014386643
0001e0 24 9d 2d 3d af e7 d3 bc ba b0 16 bc a6 20 82 3c
       0.04238619 -0.025867311 -0.009197408 0.015884709
0001f0 d7 7d ca 3c 0a 40 c0 3c ef 2d c5 bb 22 94 89 3d
       0.024718208 0.023468036 -0.0060174386 0.06717707
000200 b0 80 1e bd d2 c2 cb 3a 60 93 cd 3c 8f d0 8b 3d
       -0.038696945 0.0015545732 0.025094688 0.06826889
000210 bc 14 26 bd c1 fe a4 3c 5f d6 48 bb f1 02 b7 3b
       -0.040547118 0.020141007 -0.0030645353 0.0055850674
000220 11 37 36 3d 11 95 6f 3d 7a 3a 87 3d 8b e7 b1 bd
       0.04448611 0.05849177 0.066029504 -0.086867414
000230 26 46 ab 3c eb 35 76 bc 5e 9d f4 bc 8b 71 5a 3d
       0.020907473 -0.0150275035 -0.029860195 0.05333094
000240 7d a0 8f bc 2f b4 12 bc 9b cd 2e 3d 51 1f e5 3d
       -0.017532581 -0.008954092 0.04267655 0.11187614
000250 4b 31 f7 3c f5 4a 37 bd 2c c3 54 bb e5 a5 31 3c
       0.030174872 -0.04474922 -0.0032464964 0.010842775
000260 44 50 2e bd 3d 17 cb bd a9 e4 04 bd 17 e6 ca bc
       -0.042557016 -0.09916542 -0.03244463 -0.024767919
000270 4f 20 64 3d 42 ee 03 bd e5 eb 8b bd bd 3c 86 bc
       0.055694874 -0.032209642 -0.06832103 -0.016386384
000280 93 38 99 bb 87 1b 9a 3d e3 cb 9f bc 8e 9a 25 3b
       -0.0046759336 0.07524782 -0.0195064 0.0025269124
000290 07 c5 86 bd bc e7 53 bd 97 71 af 3d a9 ad 62 3d
       -0.06580549 -0.05173467 0.085665874 0.055341396
0002a0 e6 1c 15 bc 08 33 fe bc 3d 92 a3 3d 4a 43 0b bd
       -0.009101128 -0.031030193 0.07986877 -0.03399972
0002b0 c5 02 1f 3d 22 e7 81 3d a7 ab 54 bc ea ba 20 3b
       0.038821 0.06342913 -0.012980378 0.0024525472
0002c0 c5 59 15 3d 05 95 7f bd 63 62 da 3d 05 1d 95 bd
       0.036462564 -0.062397975 0.10663297 -0.07280926
0002d0 9a ce 30 3d 65 1d c9 3c ef c5 6f bb 9f db b4 3b
       0.04316578 0.02455015 -0.0036586483 0.005519345
0002e0 b2 c4 0b bd 4c ef 09 3c 9c 2d 95 3c 37 5b 10 bd
       -0.03412313 0.008418869 0.018210225 -0.03524324
0002f0 44 a6 21 3c f9 6e 79 ba 19 f4 e3 3c 7c e0 8e bd
       0.009866301 -0.00095151324 0.027826356 -0.06976411
000300 22 42 ba 3c 64 c1 b8 3c 74 d7 a8 3c b9 b4 89 bc
       0.022736613 0.022553153 0.020610549 -0.016809808
000310 27 52 0a 3d f5 6a a3 bd 20 c4 5a 3c 00 f9 09 bb
       0.033769753 -0.07979385 0.013352424 -0.0021052957
000320 fa 56 0f bd 8e b3 41 3d 7d 0b a5 3d f6 48 1e 3a
       -0.034995057 0.047290377 0.08058832 0.00060380937
000330 0a 3f 98 3d c7 f2 1e bd 44 f2 a7 bc f2 85 05 bd
       0.07433899 -0.03880575 -0.020501263 -0.032598443
000340 cc 60 3d 3d 34 e8 82 3c 41 51 b7 bd 0a a5 4f 3d
       0.04623489 0.015979864 -0.08951045 0.050694503
000350 69 2e 54 3d 6b 8a fc 3c b9 00 22 3c 6c a0 96 3d
       0.051802073 0.030827722 0.009887868 0.07354817
000360 49 a8 d5 3c 29 18 5f 3d cb 18 e6 3c b1 4f e6 3c
       0.026081221 0.0544664 0.028087994 0.028114172
000370 e0 89 5c bd 8e 74 9a 3c 4b f7 f6 bc b4 a1 8a bd
       -0.053842425 0.018854406 -0.030147215 -0.06769124
000380 7d 6f 28 bd 5e 39 db 3c f6 c8 59 bc 7d 83 40 bc
       -0.04112195 0.026760753 -0.013292542 -0.011750099
000390 4c a1 a4 bc 71 86 6f 3b d5 75 45 3d 56 fb 07 bc
       -0.020096444 0.003654864 0.048208077 -0.008299669
0003a0 d3 6d 9a 3b ff a2 b9 3d 33 46 5e 3d 15 47 81 bd
       0.004712799 0.09064292 0.054266166 -0.06312386
0003b0 12 39 17 3d 8d 4f cb bd a7 f3 69 bd d4 64 08 bd
       0.03691966 -0.099272825 -0.05711713 -0.033299282
0003c0 90 30 80 3d 6e 06 a0 bd af f0 29 bd 64 91 5f bd
       0.062592626 -0.07813726 -0.0414893 -0.054582015
0003d0 c5 cd 7e 3d 54 3b 13 3d a5 ab 45 3d d2 a8 bf bd
       0.062207956 0.03594525 0.048259396 -0.09358372
0003e0 31 41 50 bd a8 a6 db bc 54 5a fa 3b ec a8 65 3d
       -0.05084342 -0.026812866 0.0076401625 0.0560693
0003f0 5f 09 f3 bc 42 db 20 3d 35 62 0a 3d 0e d3 e1 3b
       -0.029667554 0.0392716 0.033785064 0.0068916148

critic.1.bias f4 [128]
000000 4f fe 5b 38 4b da db 39 4d 24 0e ba 00 00 00 00
       5.2450512e-05 0.00041933576 -0.00054222794 0.0
000010 32 97 0f ba a0 87 17 ba 86 fe 6c ba 7d 75 13 3a
       -0.0005477547 -0.00057804026 -0.00090406125 0.0005625112
000020 7e 01 1c ba 3a dd 0d 3a 4a 91 0d ba b6 07 73 37
       -0.000595115 0.00054116885 -0.0005400373 1.4485724e-05
000030 00 00 00 00 d1 db 0b ba ba 7b 2b b4 6c 3d 23 ba
       0.0 -0.00053351844 -1.5970627e-07 -0.0006227109
000040 bd a6 06 ba d4 90 29 ba 97 99 01 3a 81 9a a9 30
       -0.000513654 -0.00064684195 0.0004943846 1.2340281e-09
000050 a9 b3 16 3a 2e 8a b9 b0 7c 99 32 34 fa 03 cb b9
       0.00057488173 -1.3499795e-09 1.6633379e-07 -0.0003872214
000060 ac 0d 19 ba 95 b2 0f 3a 21 5a 05 33 cf 54 a1 3a
       -0.0005838524 0.0005481628 3.1048447e-08 0.00123086
000070 1f f7 0b 3a 4e 82 00 ba 76 3a 37 38 3c fc 0b ba
       0.0005339253 -0.00049022294 4.3685046e-05 -0.0005340015
000080 4f a6 56 b3 6d 16 0f ba 6a 05 2a 3a 24 cc b8 39
       -4.9977015e-08 -0.0005458359 0.0006485792 0.00035247311
000090 43 f8 11 3a 00 00 00 00 6d 6d 56 ba c5 50 fa b9
       0.0005568305 0.0 -0.0008179758 -0.00047743894
0000a0 9b 98 16 b8 99 cc 0e 3a 7d d6 51 38 00 00 00 00
       -3.590491e-05 0.00054473575 5.002924e-05 0.0
0000b0 00 00 00 00 00 00 00 00 6f b0 22 ba f1 94 01 3a
       0.0 0.0 -0.00062061 0.00049431535
0000c0 b5 75 19 3a c5 f7 f2 39 8a f3 01 b4 56 17 37 3a
       0.00058540265 0.0004634244 -1.210266e-07 0.00069843733
0000d0 da 8a 36 ba 33 5d 46 ba 60 5e 0e ba 54 3a 01 3a
       -0.00069634395 -0.00075669884 -0.0005430933 0.0004929651
0000e0 a4 b4 27 3a 00 00 00 00 73 2f 0f 3a 38 38 12 ba
       0.0006397462 0.0 0.00054620876 -0.0005577835
0000f0 18 5a 25 ba c3 63 24 3a 00 00 00 00 b9 b1 32 ba
       -0.00063076755 0.0006270969 0.0 -0.0006816644
000100 22 05 0c 3a 90 94 87 33 79 ad 1b ba a8 f2 8b b3
       0.0005341341 6.313451e-08 -0.000593863 -6.516831e-08
000110 00 00 00 00 f4 86 a1 39 00 00 00 00 29 8a cf 37
       0.0 0.0003080886 0.0 2.4740659e-05
000120 f6 34 0a ba 5e b4 68 b8 82 a3 0e b9 00 00 00 00
       -0.0005272174 -5.548109e-05 -0.00013603087 0.0
000130 09 2f fd b9 00 00 00 00 3a 31 83 39 f5 b5 0f ba
       -0.00048290964 0.0 0.00025022944 -0.0005482131
000140 cf 3b a3 37 55 df 06 ba 22 5e d2 b2 00 00 00 00
       1.9458965e-05 -0.00051449734 -2.4490024e-08 0.0
000150 00 00 00 00 f0 2d 88 ba 61 35 1a ba 00 00 00 00
       0.0 -0.0010389667 -0.0005882588 0.0
000160 fb 5a 2d af 97 58 10 3a d0 79 a0 ba 12 0a 37 ba
       -1.5766581e-10 0.0005506365 -0.0012243334 -0.00069823966
000170 49 d9 69 39 61 34 ed b9 ae 61 02 b4 c3 91 ee b9
       0.00022301557 -0.00045243188 -1.2142729e-07 -0.00045503498
000180 a3 4c 97 b9 36 ad 4d ba 00 00 00 00 fb 2f 0b 3a
       -0.00028858063 -0.000784594 0.0 0.0005309579
000190 9e 74 31 39 a5 b4 81 39 d9 c1 0a 3a b0 15 6a 34
       0.00016923479 0.00024739388 0.0005293168 2.1800838e-07
0001a0 00 00 00 00 74 c5 1e ba 7b 36 fe 39 6e 47 0e ba
       0.0 -0.00060566445 0.00048487246 -0.0005427514
0001b0 23 fd 0e ba e5 dd 23 3a 00 00 00 00 09 14 1a 3a
       -0.00054545904 0.00062510214 0.0 0.0005877619
0001c0 3d d1 05 3a a6 10 fe b9 00 00 00 00 5c 07 0f 3a
       0.00051047263 -0.0004845906 0.0 0.0005456114
0001d0 00 00 00 00 f3 64 fb 39 00 00 00 00 50 43 9b ba
       0.0 0.00047949664 0.0 -0.0011845622
0001e0 2c bf 81 b8 b5 a1 04 ba 35 d9 03 3a 00 9c 6b 38
       -6.186808e-05 -0.00050594966 0.000502962 5.6173652e-05
0001f0 a3 85 0b ba d8 a1 17 38 38 07 51 ba 65 5b 0f 3a
       -0.00053223426 3.6151934e-05 -0.0007973793 0.0005468636

critic.3.weight f4 [1, 128]
000000 10 8a a0 3d ce 44 3c 3b 54 dd 86 bd 0f f1 35 be
       0.07838833 0.0028727534 -0.06585184 -0.17767738
000010 5d 13 78 bd 76 37 09 bd 48 ec f3 3d 9e a9 3f 3d
       -0.06056534 -0.033500157 0.119103014 0.04679262
000020 aa 76 01 bc a1 d0 88 3d 62 09 89 bd aa 2a 4e 3b
       -0.007901827 0.06680418 -0.06691243 0.0031458535
000030 be 92 2e bc ae 5f e4 bd b8 7e 25 3e a9 09 57 3e
       -0.010655103 -0.11151062 0.1616162 0.20999779
000040 3e 70 c6 bd 85 57 69 bd 38 a8 f9 3d fb 8e 00 3b
       -0.09689377 -0.05696823 0.12190288 0.0019616473
000050 13 e8 21 3c b6 a8 57 3b 4d 66 e3 bc f2 2c 27 bb
       0.009881991 0.0032906956 -0.027758742 -0.0025508967
000060 40 03 e9 bc f6 c1 46 3d c2 29 f6 bc 6d 9c 8b bd
       -0.028443933 0.04852482 -0.030049209 -0.06816945
000070 7f c8 0e 3e 50 c1 02 be 84 36 87 3d c0 71 98 bd
       0.1394367 -0.12769055 0.06602195 -0.07443571
000080 5b c1 42 3d 43 6f 7f bd 9a f5 cc 3d 67 7e 2c bd
       0.04754768 -0.062361967 0.10007782 -0.042112734
000090 0e 95 84 3d 0f e0 4e 3d 7f f1 f3 bc 79 ac 16 be
       0.064737424 0.050506648 -0.02977824 -0.1471423
0000a0 da 3c bf 3c 2c 55 79 3d 61 90 b7 3d cc 98 b9 bc
       0.023344446 0.06087224 0.08963085 -0.022655867
0000b0 aa d9 e9 bd 6e d9 57 3d 55 2d bf 3d 9a 0a fa 3d
       -0.11418469 0.05269759 0.09334818 0.12209053
0000c0 3c 59 5a 3c 36 f6 2e 3e b1 5a 94 3d f1 21 18 bd
       0.013326939 0.1708611 0.072438605 -0.037141744
0000d0 ac c7 5f bd dc 09 3b 3e 69 0e 85 bd 44 59 47 3d
       -0.05463378 0.1826548 -0.06496889 0.048669115
0000e0 5c c0 50 3d dd e4 3b 3e bc a9 7d 3d 0a fd 51 bd
       0.0509647 0.18349023 0.06192945 -0.051266707
0000f0 69 cf ad 3d 21 a5 40 3d e8 de 15 3e 0a f9 81 bc
       0.08486826 0.04703248 0.14635813 -0.015865821
000100 5a f3 ac 3d ac 43 ed bd 39 59 10 bc a8 9d 0f 3e
       0.08444853 -0.11585173 -0.008810335 0.14024985
000110 82 2b 7e 3c 5b 91 4c 3e 57 66 ba bc b0 a2 7d bd
       0.015513303 0.19977324 -0.022753878 -0.06192273
000120 28 5e 7a bc 1d a1 69 bc 98 41 d2 bb 09 df 97 3d
       -0.015281238 -0.014259604 -0.006416511 0.074155875
000130 68 b9 60 bb 00 30 a2 3d 46 16 0f bc f7 6e 76 bd
       -0.0034290198 0.079193115 -0.008733338 -0.060164418
000140 92 86 2e 3e 2d 5e c4 bd 89 94 48 3d d5 34 33 3d
       0.17043522 -0.09588275 0.04896978 0.043751556
000150 6c 52 96 bd 57 5a 0b be ea 5a 2d bc 85 00 31 3d
       -0.073399395 -0.1360868 -0.010580758 0.043213386
000160 8b 2e 14 3c f1 51 6c 3d c4 4f 2a be e9 5b fb bc
       0.0090443 0.057695333 -0.1663199 -0.030683475
000170 72 7a 39 3d cc a0 43 be c4 f2 65 3d f6 3d 68 be
       0.04528279 -0.19104308 0.056139722 -0.22679886
000180 7a c9 20 be ec c0 b7 bd a8 3e 3f 3d a9 67 22 3d
       -0.15701857 -0.08972344 0.046690613 0.03964964
000190 d6 5e 68 bd a5 88 19 3e 56 15 a2 3d e6 c3 b8 bd
       -0.056731068 0.14993532 0.07914226 -0.0902174
0001a0 97 0c 21 bd 12 60 05 be 25 12 0d 3e 89 06 88 bd
       -0.039318647 -0.13024929 0.13776453 -0.066418715
0001b0 94 f4 80 bd 76 56 fd 3c 13 e5 f2 bc dd a7 78 3c
       -0.062966496 0.030925017 -0.029650247 0.0151767405
0001c0 03 8f ce 3d 56 2e 18 bb 64 2d 52 bc cb 73 80 3d
       0.10085871 -0.0023220978 -0.012828205 0.06272086
0001d0 51 bd 46 bd c1 5b 13 3e db 7a 86 3d 9d cb a8 3d
       -0.04852039 0.1439047 0.065664016 0.08241961
0001e0 91 19 1c 3d b4 5e f2 bd 82 12 e2 3d 14 5f da 3c
       0.03811032 -0.118344694 0.11038686 0.026656665
0001f0 c5 98 9b bd 73 1c 1d bd dc 05 21 bd 76 13 6d 3d
       -0.07597498 -0.03835721 -0.03931223 0.057879888
