experiments/ppo_hrl/models/MicroRTSGridModeVecEnv__ppo_utils__1__1721366908/8192/move.pt (torch, 802531 bytes, 11 tensors)

encoder.1.weight f4 [32, 30, 3, 3]
00000000: 61df 1e3d 55ce a8bc 09c9 313d 02e9 08bd
00000010: c367 2cbd 8bc5 d4bd 4e45 6abc c97e 0bbe
00000020: ffc3 983c 211e 1d3e d757 49be 77da 46bd
00000030: 7e42 083e b489 66bd da8b 243d 8f2c 193e
00000040: 62b6 1cbc e403 b6bd 305d b23c dd47 8dbd
00000050: 469c 233e 4206 0abd 24b4 db3d 6d70 dd3d
00000060: c30e 783d e144 f6bd 3f5e 72bd 6c94 31bd
00000070: 878f 1bbd 152c 92bd a32a 18bd df2f 103d
00000080: 0ad5 d63c 967c 333d 4bff 1f3d 3c32 23bd
00000090: 1ea2 ad3d 7dd3 323e 02c8 7abd a76f a2bc
000000a0: fed7 cf3d c12f de3d c818 06be 2e55 0b3d
000000b0: b121 b23c 30dc 01bd 4f4e e4bd 6ce0 963b
000000c0: 1ebf 61bc f204 d93b 3eaf c73d 08dd 173c
000000d0: b373 7c3d 0050 edbd ffae d3bd a9dd 503d
000000e0: 878a acbc 3c20 c8bd 0345 0dbe 6f52 69bd
000000f0: a450 8abd 2a9f bbbd fe66 05be f68f eabb
00000100: da6a 563c 6b5a e8bd 83d1 fb3d 92e9 9a3d
00000110: 9adf b13d 0f72 583d f52a 16be 6d5c 643e
00000120: 54c1 4039 b695 a1bd e83e f7bc 61f2 533c
00000130: fbef 48bd dd4c 30bd 3b65 e03d d311 5c3d
00000140: 62de cabb 9dfb 3dbc 7b94 c83d 7de2 7e3d
00000150: f838 d3bd 2a46 28be 451e b5bd 4f11 72bd
00000160: b723 d7bc 58ab 873d 9ea1 083e 0d27 a6bc
00000170: 4c67 f8bd 6aff e5bd c7a2 a43c 4520 033e
00000180: de1d 823d dd78 c03d 8d09 523d 53de 183e
00000190: c971 8dbc 857b 903d 4775 d1bd bfbe 50bd
000001a0: d0bc ba3d b8a2 14be 0240 01bd f639 fa3d
000001b0: 94ad b13c 2e62 28bc 49dc 853d 8265 44bd
000001c0: 981a 49bb 2567 793c 4afe 9b3d 0233 4b3d
000001d0: 9444 16be f0c1 0cbd a8cc 59bd 2756 cdbd
000001e0: f87e 193d 2400 55bd 4010 d23b 7878 133c
000001f0: 30e9 a7bd 6f5e 69bd a413 62bb 2a3d 05be
00000200: eded d33a 3315 2f3e b4bf a1bc 8a57 afbd
00000210: 32c3 fcbd bab9 debd eb04 aa3c 8004 10be
00000220: 72af 20be b9f8 76bd 04c4 553d d254 09bd
00000230: 76ea efbd ab05 0e3d bd90 593e a1d2 14bc
00000240: c50b e83c 953e 04be fa01 51bd 6344 98bc
00000250: cb93 10be 678a 393d 8c4a 533d 7f02 ddbb
00000260: 5ac7 4b3d 8ece 3a3d 2c96 cd3c 03ac 8abb
00000270: d3f9 54be 4735 393d 25e4 3a3c b087 093d
00000280: c9cb 34bd b240 87bd ecc8 86bd 04a8 96bd
00000290: 6193 c83d e5f6 98bd 2c54 d6bd 6cee 753e
000002a0: e5a7 f7bd 962b 41bd a611 023c fc91 9ebd
000002b0: 47ec a2bd 9281 453b 8a33 e9bd 8d5e 09be
000002c0: 3553 573d 169a dd3b b27e b7bd bfe1 163d
000002d0: a9f5 d73d 93c1 c4bd b4a5 4fbd bb43 793d
000002e0: 2888 0c3e 3c66 1cbd ff1f 99bd 0487 efbc
000002f0: b58f a03d 408b 3dbd d6ba 81bd c50d 963d
00000300: d986 0f3d 8160 073d 2d59 793d 59f1 f73b
00000310: ac4a 3c3d 4792 473c b390 0cbe 2217 2c3d
00000320: 18a9 c73d 13e6 573c 0dc7 253c 422c 10bd
00000330: 5550 1a3e 4dd6 89bc 9663 fabb 20e6 eebc
00000340: 1466 c03d 9ca4 6d3e 7a89 1f3d 0066 c43c
00000350: 4ac5 fabc b37f 5eba 114b 55bd e324 b3bd
00000360: 8ec6 07bd e005 de3d 5db2 f8bd 2204 03be
00000370: 2f3a fb3d f8c7 d4bd ff29 18be 558f 33be
00000380: 1329 77bd d470 c13d c950 4c3d 1f6b e1bc
00000390: 30ab 1938 75b3 273e 6cc3 7cbd 47f8 edbc
000003a0: f396 d23d ee4d 49bc 55d6 5cbd 718f 4e3d
000003b0: 0603 0f3e e0b2 98bd b08a 823c 65f5 423c
000003c0: b039 94bc 127f 08be d737 28bd 98d0 9c3d
000003d0: 441f bc3d 287c 3f3d 4d67 a3bd ff62 623d
000003e0: 217f 1e3e f666 f03d d863 63bc 766c 66bd
000003f0: e74a 4abe 0101 183e 4e93 5abd 03f5 00bd
0.03878725 -0.0206062 0.043404613 -0.03342534 -0.042091142 -0.10389241 -0.01429875 -0.13622583
0.018648146 0.15343525 -0.19662414 -0.048548188 0.13306615 -0.056283668 0.040172435 0.14958404
-0.009564968 -0.08887461 0.02177295 -0.068984725 0.15977582 -0.033697374 0.107277185 0.10812459
0.060560953 -0.12024856 -0.05917191 -0.043354437 -0.037978675 -0.07137314 -0.037150037 0.035201903
0.026224632 0.043819986 0.039061826 -0.03984283 0.08478187 0.17463489 -0.0612259 -0.01982863
0.10148619 0.10848952 -0.13095391 0.03401678 0.021744581 -0.031704128 -0.11147749 0.00460439
-0.013778476 0.006622904 0.09750222 0.009269007 0.061633777 -0.115875244 -0.10336112 0.05099264
-0.021062149 -0.09771773 -0.13795857 -0.05696338 -0.06753662 -0.091612175 -0.1302757 -0.0071582748
0.013086999 -0.11345371 0.122958206 0.07564081 0.08685227 0.05284315 -0.14664824 0.22300883
0.00018382567 -0.07889883 -0.030181363 0.012936206 -0.04905699 -0.043042053 0.10956808 0.053727936
-0.006191061 -0.011595634 0.097939454 0.062227715 -0.103136 -0.16433015 -0.08843664 -0.059098538
-0.026262147 0.06624478 0.13342902 -0.020282293 -0.12129077 -0.11230357 0.02009715 0.12805279
0.06353353 0.09398053 0.05127864 0.1492856 -0.017266171 0.070548095 -0.10227447 -0.05096316
0.091180444 -0.14515197 -0.031555183 0.122180864 0.021689214 -0.010277314 0.06536157 -0.047948368
-0.0030686017 0.0152223455 0.07616861 0.04960919 -0.14674598 -0.03436464 -0.05317369 -0.10026198
0.037474602 -0.052002087 0.0064106286 0.00900089 -0.08198774 -0.056974825 -0.003449657 -0.13011613
0.001616893 0.1709793 -0.019744731 -0.085616186 -0.12341918 -0.10875268 0.020754298 -0.14064217
-0.15691927 -0.060295794 0.05218889 -0.033528157 -0.11714642 0.034673374 0.2124662 -0.009083421
0.028325925 -0.12914498 -0.051027276 -0.018587297 -0.14118879 0.045298006 0.051584765 -0.0067446823
0.049750663 0.045607142 0.025096022 -0.004231931 -0.20798425 0.045216825 0.011406933 0.033576667
-0.044139657 -0.066041365 -0.065812916 -0.07356265 0.09793735 -0.074689664 -0.10465273 0.24016732
-0.1209257 -0.047160707 0.007938778 -0.07742688 -0.079552226 0.0030137044 -0.113867834 -0.13414975
0.052569587 0.0067627532 -0.08959712 0.036836382 0.10544903 -0.09607234 -0.050695136 0.06085561
0.13723814 -0.038183436 -0.07476806 -0.029239185 0.0783991 -0.046275377 -0.06334464 0.07326845
0.03504071 0.033051018 0.06087606 0.0075666127 0.04596965 0.012180871 -0.13727073 0.04201425
0.09749049 0.013177413 0.010118258 -0.035198458 0.15069707 -0.01682582 -0.007641266 -0.029162467
0.0939447 0.23207325 0.038949467 0.023974419 -0.030611653 -0.00084876566 -0.052073542 -0.0874727
-0.03314834 0.10840964 -0.12143395 -0.12794545 0.12266957 -0.103897035 -0.1485977 -0.17535146
-0.060341906 0.094453484 0.04988173 -0.0275169 3.6637473e-05 0.16377051 -0.061709806 -0.029049052
0.102826975 -0.012286646 -0.05391534 0.050429765 0.13965997 -0.07455993 0.015935272 0.011899327
-0.018093914 -0.13329723 -0.041068878 0.076569736 0.09185651 0.046749264 -0.079786874 0.05527019
0.15478183 0.11738388 -0.013878785 -0.05625578 -0.19755135 0.14844133 -0.053363137 -0.03148366

encoder.1.bias f4 [32]
00000000: a4cc ccba 0e5c 05ba 424a a6ba 6cec 183b
00000010: a370 a33a ce38 2aba e87c d8ba 2e86 60ba
00000020: b844 5a3b 5d7c 6db9 f0cd 4fb9 e61b 71b9
00000030: 77f5 803a 4bdc 1dba de65 80b9 1f4f a63a
00000040: bafa 8b39 88e7 53ba 4b75 88b9 6eab 70b9
00000050: 8d11 81bb 6e13 14bb d6e3 183b 0469 493b
00000060: f325 073a f922 56b9 ac26 3bb9 d126 d6b9
00000070: bb70 2e3a ceb0 dd37 de00 1dbb 9307 fdba
-0.0015624953 -0.00050872646 -0.0012686925 0.0023334278 0.0012469481 -0.000649345 -0.0016516717 -0.0008564916
0.003330512 -0.0002264841 -0.00019817776 -0.00022993944 0.0009838779 -0.0006021901 -0.0002448996 0.0012688375
0.00026698952 -0.0008083512 -0.00026027331 -0.00022952046 -0.00393886 -0.0022594589 0.002332916 0.003073276
0.0005155496 -0.00020421659 -0.00017848116 -0.0004084618 0.00066543714 2.6427584e-05 -0.0023956816 -0.0019304625

encoder.4.weight f4 [64, 32, 3, 3]
00000000: ce63 563b 9329 ad3d 17de c43d 19ea ae3d
00000010: 3303 1c3e bbac b43c 5938 c6bd 2900 d43d
00000020: 85b2 613d 31ff 433c 898b fbbd 524c c0bd
00000030: 66e3 df3c b7c9 513d 3850 1b3b a94f acbd
00000040: 5d45 caba fb87 953d ce1a ad3d d358 3b3d
00000050: c30f 5b3d 58b9 acbd 4551 eb3c c2b5 013e
00000060: 3294 bc3d c9a4 bf3d 41bc c53d 3f64 22bd
00000070: 3f3f cc3d 8dff c7bd 29eb 97bd 7efa b3bd
00000080: 731d bcbd da00 a53d 881b 0a3e e45c e73c
00000090: a2d4 b73d 8fa3 c53c 872f 653d 89c0 a63c
000000a0: d823 173d d58d ae3d 5243 afbd 1b3c 4abd
000000b0: dc60 54bd eba0 85bd 9aa7 953c 21da 99bd
000000c0: 89fc 6a3e b0f2 d83d 3783 093d 72a1 db3c
000000d0: 5eb9 fdbd b3ed 34bd 9cb1 673c 9c3a 863d
000000e0: 69ca 58bd 990f a13d d807 913b caa9 72bd
000000f0: f536 e2bd f95d 10bd fba3 a8bd bace 7abd
00000100: f027 99bd 82cb 05bd 34aa 7ebc 482a 20bd
00000110: 67c0 68bd f848 863d 1f13 f1bd cba7 523c
00000120: 78f2 96bd 5d6a 763d 11a2 843c 03dc 803b
00000130: 76c9 1e3e 485c 963d ab25 33be 656b ac3c
00000140: b950 38bc 69e1 68bd 39a9 2d3e d496 33bc
00000150: 3a5d d83d 7f8b 303d c986 f63d 06f3 0e3e
00000160: 839a 033d e9c2 ddbd b7c8 7bbc 295c 3b3e
00000170: a227 e6bc 5a6c e1bb 5f5d 903c 51b3 2c3d
00000180: c441 cdbd f58f e03d aa07 a5bc 1e8e 003d
00000190: bce2 023d e4d7 6fbd 57b2 b5bd 3f31 ffbc
000001a0: fbae 643b f8a6 7abd 1084 c23c 20aa afbd
000001b0: a651 ad3a 17ad ffbd 6207 b6bd 7774 31bc
000001c0: 68c8 1c3d 57e7 f5bc fd2b 563d 1087 813a
000001d0: f06a f6bd 3345 dfbd c197 94bc e447 c73b
000001e0: 1d8a f2bb 3eb2 b13c be6a 3fbd 9b05 033d
000001f0: 6b96 293d f241 553d b6d7 af3d 3dc0 0c3c
00000200: 6c47 03bd 01d9 ed3d d7e8 d23c cca9 ccb9
00000210: e0f7 08bd 1b6b 08bc f823 14bd 5120 32bd
00000220: f18f 78bc 36c7 a63b b60c a3bc 581f e8bd
00000230: 58b9 8fbc 437d ecbc c803 f8bc fd5e 1abc
00000240: 2efc 5c3d ead4 97bd 7c5b e03c 15cb 00bc
00000250: f0b8 0abe b80f 323c f10e ba3d 5b00 babd
00000260: a5e4 0c3d d6ef f0bd 30d0 ac3c 0197 26be
00000270: 2e64 13bb 5201 0cbe df0c 96bd 64d9 dfbd
00000280: 4fbe 853c 520d 57bd 492f a8bd c122 e3bd
00000290: cbf3 093c 087e 1f3d 1188 8a3c 86f4 6e3d
000002a0: 87e0 de3c 8e8e 99bc 9935 023c 2400 4abc
000002b0: a6c5 21bd 8c66 babd 1069 9abd fabf 89bd
000002c0: 45f9 a73c 0724 0cbe 6881 a93d c197 0f3d
000002d0: 962e 9c3d 12e7 ccbd 3cfe bc3d 6b93 24be
000002e0: 9a89 80bd 66f0 313d 8449 ecb9 9fd7 2ebd
000002f0: 5cc9 c3bd ab59 05be 88f7 8ebd 2bb2 5a3e
00000300: 668d 6dbd a449 62bd 8509 b73c 833f dbbd
00000310: 143c 6dbe 94da 353e 8e9a 5cbd 2bae 2abc
00000320: 3417 94bd 151e 553e 1400 28bd e776 9a3a
00000330: 562c bcbc e004 033c 9123 f83d da7d be3d
00000340: ee3b b2bb 0b10 443e 0a19 0ebe c969 2d3a
00000350: a2b4 46bc ccc8 073d 7845 933d b820 7ebd
00000360: 8a1e 96bd c225 11bd dd14 183e 3aec 213d
00000370: 4b56 cb3d b567 f839 481e d0bd a016 0a3d
00000380: 8976 303d 1670 1cbd 444f ca3d 3948 e73d
00000390: 6546 1d3e 5113 873c 58ed 16bd 21c1 ffbd
000003a0: 5abf 84bd fa6c 893d 3918 413d c86d 753d
000003b0: 2d98 45be 4909 74bd 5bad 753d 1a0f aa3d
000003c0: b95b 51bd a7bd 7e3c d25e a03c af10 3abe
000003d0: d627 d73c 0926 49be ef87 07be 9cb8 d13d
000003e0: 7a45 bebd b051 b83d 4f87 70bd 12eb debc
000003f0: ead7 363e 49c7 e7bc 6140 c9bd ea46 4e3d
0.0032713297 0.08455195 0.09612673 0.08540744 0.15235595 0.02205502 -0.09678716 0.10351593
0.05510189 0.011962698 -0.122824736 -0.09389557 0.027330112 0.05121776 0.0023698937 -0.084136315
-0.0015432049 0.07301327 0.08452378 0.045739006 0.05348183 -0.08433789 0.028725276 0.12666991
0.092079535 0.09357602 0.09655047 -0.039646383 0.09973001 -0.09765539 -0.074179 -0.08788012
-0.091853045 0.08056803 0.13487065 0.028242536 0.08976103 0.024125842 0.05595353 0.02035548
0.036899418 0.08523146 -0.08557762 -0.049373727 -0.051850185 -0.06524833 0.018268395 -0.07512308
0.22947897 0.10593164 0.0335724 0.026810382 -0.123888716 -0.044172 0.0141414665 0.065541476
-0.05292741 0.07864303 0.004425984 -0.059243955 -0.110456385 -0.03524587 -0.08234402 -0.061232306
-0.074783206 -0.032664783 -0.015543509 -0.039102823 -0.056824114 0.065568864 -0.11771225 0.012857388
-0.07370466 0.06016003 0.01619056 0.0039324774 0.15506539 0.0734182 -0.17494838 0.021047303
-0.0112497145 -0.056855593 0.16959085 -0.010961253 0.105646566 0.043101784 0.12037427 0.13959894
0.032129776 -0.10828192 -0.015367678 0.18296875 -0.02809507 -0.0068793716 0.017622648 0.042163197
-0.100223094 0.109649576 -0.020145256 0.031385534 0.031954512 -0.0585555 -0.08871906 -0.031151412
0.0034894336 -0.06119439 0.023744613 -0.08577371 0.0013223186 -0.12484186 -0.08888127 -0.01083099
0.03827706 -0.030017538 0.052288044 0.0009882171 -0.120321155 -0.109018706 -0.018138768 0.006081568
-0.0074017183 0.021691438 -0.046732657 0.031987768 0.041403215 0.052064843 0.085860655 0.008590755
-0.032050535 0.11613656 0.025745792 -0.0003903642 -0.033439517 -0.008326317 -0.036167115 -0.04348785
-0.015171037 0.0050896658 -0.019903522 -0.11334103 -0.017544433 -0.028868323 -0.03027524 -0.009422061
0.053951435 -0.07413657 0.027387373 -0.0078609185 -0.1354711 0.010868005 0.09084881 -0.09082099
0.03439774 -0.11764495 0.021095365 -0.16268541 -0.0022490132 -0.13672379 -0.07326674 -0.10930136
0.016326098 -0.052502938 -0.08212144 -0.11090613 0.008419941 0.038938552 0.016910585 0.058338664
0.027206672 -0.018744733 0.007947349 -0.012329135 -0.039495133 -0.091015905 -0.0753957 -0.0672607
0.020504603 -0.13685618 0.082766354 0.035056833 0.07626073 -0.10005011 0.09228179 -0.1607186
-0.062762454 0.043442152 -0.000450682 -0.0426861 -0.09559891 -0.13022487 -0.069808066 0.21357028
-0.057996176 -0.05524601 0.022343406 -0.10705473 -0.23167449 0.17759162 -0.053858332 -0.010417501
-0.07230988 0.20812257 -0.0410157 0.0011784703 -0.02297036 0.007996768 0.12116159 0.09301348
-0.005439273 0.19146745 -0.13876739 0.00066151895 -0.012128027 0.03315048 0.071909845 -0.06204292
-0.073300436 -0.0354364 0.14851709 0.039531924 0.099285685 0.00047379514 -0.10162026 0.033712983
0.043081794 -0.03819283 0.098784 0.11293072 0.15358885 0.016488703 -0.036847442 -0.12488008
-0.0648181 0.06710239 0.04714224 0.05991915 -0.19296332 -0.059579168 0.059979778 0.08303662
-0.051112864 0.015548146 0.019576464 -0.18170427 0.026264112 -0.19643416 -0.13235448 0.102402896
-0.09290595 0.08999956 -0.05872279 -0.0272117 0.17855802 -0.028293269 -0.098267324 0.050360598

encoder.4.bias f4 [64]
00000000: 5ffe ad3a 388c b43a 354d 96ba 25f8 c7b8
00000010: c7e0 b1ba b328 2db9 fbda 32b9 d8d4 02ba
00000020: 9b6f 1d3a f887 9138 e4c0 09ba 9fc4 b6b9
00000030: 4bce b1b9 daa5 d1b9 3cdc a7ba 9314 89b9
00000040: 456f 283b b500 9939 6cbd 90ba 89b7 b2b9
00000050: 0d18 9838 dcac 57b9 8a6f 00ba c8e9 183a
00000060: 0a23 ddb9 ad42 cdb9 6584 bc39 7208 b837
00000070: 7b54 21bb 652f 20ba abaf b0ba 32d3 f5ba
00000080: 573c eab9 fea9 93ba 66e0 543a 7815 87ba
00000090: ee1e dd39 9379 19bb f2cf fdba 9308 fcba
000000a0: ff11 0e3a 7a0d 29bb 9d5a b2ba f5a2 013a
000000b0: e1eb f639 d9fe 16bb 0ad8 63ba 6495 cf39
000000c0: 0000 0000 5e8c 71b9 1c0e eaba 8a10 c8b6
000000d0: b647 90ba 8daf 1bb9 893d efb9 6fcd 8a3a
000000e0: 44f4 ffb8 ff0f 74ba a922 113a ef9f 41b9
000000f0: ca3e cdb9 d9c2 acba 556b 72ba 1504 61b9
0.0013274661 0.0013774699 -0.0011467101 -9.53528e-05 -0.0013571017 -0.00016513727 -0.0001705698 -0.00049908226
0.0006005705 6.939465e-05 -0.0005254878 -0.0003486024 -0.0003391377 -0.00039987155 -0.0012806724 -0.00026146005
0.0025701087 0.0002918296 -0.001104278 -0.0003408755 7.2524046e-05 -0.00020568393 -0.0004899433 0.0005833176
-0.0004217851 -0.00039150324 0.00035956796 2.1938442e-05 -0.0024617005 -0.0006110578 -0.0013480088 -0.0018754958
-0.00044676915 -0.0011265872 0.0008120596 -0.0010306081 0.0004217545 -0.002341841 -0.0019364341 -0.001922863
0.0005419552 -0.0025795386 -0.0013607327 0.0004945242 0.0004709652 -0.0023040085 -0.0008691555 0.0003959342
0.0 -0.00023035842 -0.0017856988 -5.96239e-06 -0.00110077 -0.0001484735 -0.0004563148 0.0010589788
-0.000122048456 -0.0009310245 0.0005536476 -0.00018465494 -0.00039147428 -0.0013180628 -0.0009247561 -0.00021459193

actor.0.weight f4 [64, 32, 3, 3]
00000000: 810b 14bd f44d 5fbd ff49 b83b 6ec7 693c
00000010: fd27 ddba 2934 9e3d 7673 183c 210f 0b3d
00000020: 8620 713b 6213 82bd c46f f83b e565 3dbd
00000030: ad41 a23d 0f9e bc3a 723a 92bd 9820 b8bc
00000040: 26e5 e3bd a43f 4a3c 2a0e a7bc 08ec bdbb
00000050: 8fae 0dbe b9d4 19bc 4941 80bd b358 713d
00000060: 76c6 c83d b97f a53c d622 6cbd b286 d1bd
00000070: 9beb 503d 3733 28bd 0ccb 013e 52e1 763d
00000080: 06ec 97bd e0aa 74bd 2ecd 113d bbd3 cabd
00000090: a270 98bd aadd e9bd 94a8 57be bf56 c2bd
000000a0: 2811 09be 450f b73d 3066 113d b4b8 23bd
000000b0: b17a 22bd 9d62 58bd e787 473e b472 273d
000000c0: bd1b 98bd 7be8 9abd 6e91 c3ba 1b0f bdbd
000000d0: 3953 113d 76db bdbd 3a83 88bd beb5 ebbd
000000e0: d8a5 363c 2dad e3bb 393b fbbd c49a 9e3d
000000f0: 701f 0cbe 58f4 ad3b 1a3b a2bc 7beb 90bd
00000100: 1ada e8bc de08 a03d 4e2c 233d 45bf dabd
00000110: 3aed 21bd d39d 7c3d ad48 a93d 42f2 4c3c
00000120: 2d12 37be 2764 553d b29f f4bd fe64 823c
00000130: 5849 0dbe b158 973d 993d f13c 5b68 f03b
00000140: 19bc c73c 4fa5 a03d a975 e2bd a70d 11be
00000150: ba01 87bd 2765 4fbd 39fd 3ebe 9f67 763d
00000160: a14a f7bd 9675 f43c b800 bebd e7c5 153d
00000170: 3c5d 153d 0a28 a23d d886 853d 4006 dd3d
00000180: 9954 183e 54d0 0dbe 4261 31bd 8717 febd
00000190: 2e06 a73d f21d 863d 318d 8a3d 1a0a f53b
000001a0: 3d90 a13c 65f4 353d daa9 cabd 6c70 ba3c
000001b0: 3a78 f53c ce58 fbbc 7f14 213d c13d 13bd
000001c0: 020f de3d ee9b 8bbd 686b 8c3d 76bb de3b
000001d0: a9ea 0c3d d623 1cbe 4207 ab3c 9a60 1a3d
000001e0: 6eec 923c ee19 3dbd bedb c9bc 84d1 073d
000001f0: 1684 5b3e 323d d03d 0bd8 f3bd 5f51 c0bd
00000200: eb57 12be 2372 aabd 1a5a 673c dc1e 4c3e
00000210: c54a 8c3d c08c 803d 1eee 7cbd 452d 22bd
00000220: f3b4 863d e466 bc3d 3833 353e 9199 29bd
00000230: 6023 d63b f7a0 f7bd ee65 dbbc 1c3b 36be
00000240: 7db4 a13c e1f4 613c 0823 393e 86ab 44bd
00000250: b7f9 083e 6256 b33d b8aa b23c c480 07bd
00000260: e257 243d d944 99be 0cef 6c3d 1632 1abe
00000270: 065c 903d 65e0 063e 6117 cd3b c526 d0bc
00000280: a7cd abbc 6ab0 dc3d dadb 783d fb9d 22bd
00000290: cdd7 8ebd a549 a33b 2cab a6bd 34c5 c03d
000002a0: 92ac 7e3d cce9 1dbe f423 133d b88f e8bd
000002b0: f49a 71bd 46e5 203c ef0f 95bd d0a9 193e
000002c0: c73a 493d 3fb6 8c3d 0f7b 0e3e 4d17 313d
000002d0: d28d 90bd 8df1 45bd 0165 d6bd 253a ff3c
000002e0: 89e4 66bd 8298 61bc c61d c4bd 8dca 98bd
000002f0: e086 b1bc c06d cbbd 9a85 923d 6197 873d
00000300: 382c 933d df38 093e 559c 793d 95ea e23c
00000310: cff1 adbd 40a8 afbd 2181 a13d 4e7a 94bc
00000320: 5ef4 723c d971 7a3c f607 783c b2ef b2bd
00000330: e950 89bd 1b37 ddbd 1583 c83d 2364 b8bd
00000340: 6e14 bebc 6949 913c 285e b6bd 68e7 963d
00000350: 22df 273c 9b2f 2f3d 002c ccbd 2d7a 893d
00000360: e207 3a3d 9155 d43c b9a1 d9bb b63e e33c
00000370: c742 adbd b579 03bb dee6 a1bd 3a7a ea3d
00000380: 9968 083d a625 afbd 3ae2 fb3d b351 003d
00000390: d54a 9abd 5b87 5a3e 4563 013e 368b 053e
000003a0: 46d5 e93c 028a 88bd 51af 433d a82d e9bc
000003b0: 7a7f 073d 8a3c edbb 482f 06be bcc2 173d
000003c0: c7be 6bbd 72cf 3fbc 0fcc 5abd 4640 943d
000003d0: 794c c23d d3ad c53c 1e69 f0bc 9eed debd
000003e0: e665 ee3d 291c 6b3c 9b7f 20bd a665 dc3d
000003f0: d642 0a3e 47b8 f63b bcda a53d 33e8 09bc
-0.036143783 -0.0545177 0.0056240554 0.014268739 -0.0016872879 0.077247925 0.009304872 0.033949975
0.0036793067 -0.06351353 0.007581683 -0.046239752 0.07922683 0.0014390367 -0.07140054 -0.02247648
-0.11127691 0.012344275 -0.020392496 -0.0057959594 -0.1383612 -0.009389096 -0.06262452 0.05892248
0.098034784 0.020202504 -0.05765041 -0.10230769 0.05100594 -0.041064467 0.12675112 0.060273476
-0.07418065 -0.05973327 0.035596065 -0.09903666 -0.07443358 -0.11419232 -0.21060401 -0.09489202
-0.13385451 0.08938459 0.035497844 -0.03997107 -0.03966779 -0.05282842 0.19485436 0.040880874
-0.07427166 -0.075638734 -0.0014920661 -0.09231397 0.035479758 -0.092703745 -0.066656545 -0.11509274
0.011147939 -0.0069481344 -0.12267155 0.07744363 -0.13683867 0.005308669 -0.019803572 -0.07076164
-0.028424311 0.07814191 0.039837174 -0.10681013 -0.039532878 0.06167395 0.08265815 0.012508931
-0.17878027 0.052097466 -0.11944522 0.015917297 -0.1379751 0.073899634 0.029448317 0.007336659
0.024381684 0.0784403 -0.11057598 -0.14165364 -0.06592126 -0.050633576 -0.18651284 0.060157415
-0.12074781 0.029841226 -0.09277481 0.036565688 0.03646587 0.07917793 0.0651986 0.10792208
0.14876021 -0.13849002 -0.043305643 -0.12406831 0.081554756 0.0654868 0.067652114 0.007478011
0.019722098 0.044422526 -0.09895678 0.022758685 0.029964555 -0.030681994 0.039326187 -0.035947565
0.10842706 -0.068168506 0.068564236 0.0067972494 0.034403477 -0.15248045 0.020877484 0.037689783
0.017935004 -0.046167307 -0.024640914 0.033158794 0.21437106 0.10167922 -0.11906441 -0.0939052
-0.1429135 -0.08322551 0.014120603 0.19933647 0.06850199 0.06276846 -0.061750524 -0.039593954
0.06577482 0.09199312 0.1769532 -0.041406218 0.0065349787 -0.120912485 -0.026782002 -0.17795986
0.019739384 0.013791294 0.1807977 -0.04801514 0.13376509 0.087567106 0.02180992 -0.033081785
0.040122874 -0.2993534 0.05784516 -0.15058169 0.07048802 0.13171537 0.0062588905 -0.025409112
-0.020972086 0.10775836 0.06075654 -0.039701443 -0.069747545 0.0049831443 -0.08138117 0.094126135
0.062176295 -0.15421218 0.03592296 -0.11355537 -0.058985665 0.009820288 -0.0727843 0.15006185
0.04912832 0.06870698 0.1391413 0.043235112 -0.070583 -0.048326064 -0.10468484 0.031155655
-0.05637029 -0.013769271 -0.09575991 -0.074605085 -0.021670759 -0.099330425 0.07154389 0.0662067
0.071861684 0.13400601 0.060940105 0.027699748 -0.08493387 -0.08577013 0.078859575 -0.018124726
0.0148287695 0.015285932 0.015138617 -0.087371245 -0.067048855 -0.10801526 0.09790627 -0.090034746
-0.023203101 0.0177352 -0.08904678 0.07368356 0.01024607 0.04277001 -0.0996933 0.06712756
0.045417674 0.025919707 -0.0066415933 0.027739864 -0.084600024 -0.0020061557 -0.079053625 0.11449094
0.033302877 -0.08552103 0.12299009 0.031327914 -0.07533804 0.21340697 0.12635525 0.13041386
0.02854408 -0.06666948 0.047774617 -0.028464153 0.033080555 -0.007239883 -0.13103974 0.037050948
-0.057554986 -0.011707174 -0.05341726 0.07238822 0.09487242 0.024130737 -0.029346999 -0.10885166
0.11640529 0.014349976 -0.039184194 0.107615754 0.13502058 0.007529292 0.08098361 -0.008417177

actor.0.bias f4 [32]
00000000: eef2 86b9 1a5b caba e8e1 033b e531 2c3a
00000010: 1031 a5ba 885e 77ba 4f8f 013b 11f9 11ba
00000020: a4ae bdba 6490 80b9 50c6 4538 e02b 843a
00000030: ee95 eaba 0ec5 1c39 0472 5c3a 370f a93a
00000040: 210c 743a 1f2f 6cb8 1da2 4aba c25c f139
00000050: 9e01 393a c360 b2ba 9cdc 0abb 0b61 ab39
00000060: fd67 083b d44f 643a a2c1 d43a 1613 dd39
00000070: 6e7d 27bb 9410 e7ba 6cb7 8e37 ec7c 223b
-0.00025739468 -0.0015438527 0.0020123664 0.0006568714 -0.0012603123 -0.00094363885 0.0019769256 -0.0005568425
-0.0014471603 -0.00024521642 4.7153153e-05 0.0010083877 -0.0017897466 0.00014950728 0.00084093236 0.0012898211
0.00093096687 -5.631067e-05 -0.0007729845 0.00046036212 0.0007057431 -0.001360916 -0.0021188622 0.00032687964
0.0020813935 0.0008709405 0.0016232023 0.00042166625 -0.002555694 -0.0017628842 1.7013132e-05 0.0024793698

actor.2.weight f4 [32, 78, 3, 3]
00000000: 0a3f af3d b37f 8bbd d796 9bbc 8781 96bd
00000010: be1e 4bbc 7767 fe3b d5ed 8e3d 1970 96bc
00000020: 8f35 fb3a 11d6 02be 161e 1f3c f0bb 21bd
00000030: 7553 d63b 986f a0bc d5eb 0a3e 68ae e1bc
00000040: 8535 d13c c514 26bc 4b0e 633d 2be5 1fbe
00000050: eaf3 b53c 026c 74bd ef2c 82bc 6972 bb3d
00000060: 4a3d ba3d 86e5 103e e84b 093d 3ad7 bcbd
00000070: d6f7 253d 2612 9a3d 3ed7 953c de2e b5bd
00000080: d6c7 31bd f811 c43c c465 e13c 3492 b23c
00000090: 4852 0c3d 2de1 11bd c904 45bd 7f4c 193d
000000a0: b4f6 a4bc c5f2 adbc f369 01bd d19f dc3c
000000b0: 3ac5 83bd 0ef5 0e3d f567 c43d 2aef bbbd
000000c0: b801 efbd c035 87bd aa48 403d 7353 85bd
000000d0: c29d a2bd a176 babb 3a3e 8bbb 8d98 59bc
000000e0: 496c 1c3d 6827 cebd 0afc 413c 4995 e6bb
000000f0: 001f 013d d19f 09bd f779 7f3d da54 84bd
00000100: 0d17 23bd b484 b13b 6daa 0c3d 1762 903d
00000110: 051a 983d b1d8 92bd 2bfc c03d 4a45 a3bd
00000120: 334c 79bd 7b1a c93b 74db 4bbc 06da 99bd
00000130: f7a9 c2bd 7b8d 63bd 3f6f 143d 23c3 a33c
00000140: 252c 3dbc 75eb 153d ce7f 263b fc65 f8bc
00000150: 306a ddbc c318 843d 3bdd 95bc de86 94bd
00000160: 33ad 77bd 4d74 8dbc 6f1e 90bc f3e4 7f3d
00000170: 4a87 f63d 1be2 1a3d 995d cb3c 13c1 553d
00000180: e021 f13c 8143 94bd 6f9a 9fbc 3e24 da3d
00000190: abd6 143d 351a 6dbd e5bd 173d ed3f 5a3c
000001a0: e792 91bd df7d b83d ca95 163d ab88 1cbd
000001b0: 6be6 28bd ce15 48bd cbda dc3d a614 85bc
000001c0: 57c3 03bd 8ecc 65bd 7343 db3d ef6d 013d
000001d0: 0f11 c3bb 2d46 273d a298 6a3d 6334 30bd
000001e0: 9cff bdbc 374e da3c 21a8 3ebd 00e6 f63d
000001f0: 6e4e fbbc 0d08 d53c e67e 13bd 8f72 2d3d
00000200: cf91 eabd d2ed 1e3d 8489 b2bc 912e 1ebc
00000210: 99dc d23b c94a c33c 162f bf3c 5683 bb3d
00000220: 3a9e 023d 6b93 d33c 3f02 21bd b4dd 8d3c
00000230: f8f7 163c e63c 38bc 134d 8d3c 09ac b03c
00000240: 7b79 26bc 73eb 5cbd ee57 5dbd 9c47 7b3d
00000250: 0338 043d 817f 09bd c584 9b3d ab1b ee3a
00000260: c5fb 1abd 2574 d8bd b373 87bb 0fad 19bc
00000270: 4c24 8cbd b1f2 f0bb c3a9 783c 1029 763d
00000280: 842e 533d 8439 f83c 45f3 ecbd a71f a4bc
00000290: a7f7 f63c b9d1 38bc beb8 a93d 8fae a4bc
000002a0: 0676 883d c8d1 053d 4a5c 3fbd 4248 bebc
000002b0: 0c8a 953d 920e d23d 9e15 2e3c f481 1a3d
000002c0: d05c 343d 2e5b e7bc fd4f 593d de76 4fbd
000002d0: c29d 25bd 0a81 d33c 1104 4d3d 185e 023c
000002e0: 75c9 c83c c038 e23d 4897 02bd dbb4 c3bb
000002f0: 5d49 5dbd e71d 9ebd 5f0a 7bbd 989b 21bd
00000300: 77bf 803d 85d0 18be 058a 593d cc09 06bc
00000310: 2ef3 2e3c 3c0e 83bb fcc1 64bd ca8a 42bc
00000320: 9f56 cf3d 8847 b33b fdd4 de3c 46cc 62bd
00000330: 5f04 073d dfbb ae3c d77f 543d 3106 56bc
00000340: 6a4d 8d3d 5f8e 49bd 46df 29bc db31 cd3b
00000350: fa71 a03c 2bfb fa3c d249 bc3c b936 9f3d
00000360: 85c1 eb3c c66a cabc c7a1 6f3d 3b61 2dbd
00000370: a0e1 d1bc 621a 84bd 1b08 663c 2e46 87bc
00000380: ce6c 1f3c 9433 2abd f696 093d 205b 7fbc
00000390: 7e7e c33c 7577 22bb 5ae4 1abc 7d00 413d
000003a0: aec5 20bc a722 86bc 0408 90bb 3c03 9ebd
000003b0: 4941 49bd 5138 b93d 9750 573d bf58 1bbc
000003c0: 2fd8 d33c 5caa 2e3d 1a67 eeba c3bf 46bd
000003d0: e3e0 a4bd 1171 03bc 3eb9 61bd 00f5 84bd
000003e0: 85df 8cbd ccfc 373d 5535 b7bc fb72 a9bc
000003f0: 0512 593d bb3c bcbc c8a2 1cbd 10fc 79bc
0.085569456 -0.06811466 -0.018992824 -0.07348924 -0.012397466 0.007763799 0.069789566 -0.018364
0.0019165742 -0.12776972 0.009711763 -0.03948587 0.0065407106 -0.019584462 0.13566525 -0.027548984
0.025538215 -0.010136788 0.055433553 -0.15614764 0.022211034 -0.059673317 -0.015890567 0.091526814
0.09093721 0.14150056 0.033519655 -0.09220739 0.040519558 0.07522993 0.018291112 -0.0884683
-0.04340347 0.02393435 0.027514346 0.02179823 0.034258157 -0.035615135 -0.048100267 0.037426468
-0.020137168 -0.021233926 -0.03159518 0.026931675 -0.06434102 0.03490167 0.09590141 -0.09176476
-0.1167025 -0.06602049 0.046944298 -0.06510057 -0.07940246 -0.005690411 -0.0042493613 -0.013281
0.038189206 -0.1006611 0.011839876 -0.007036839 0.031523705 -0.03359968 0.062372174 -0.06461497
-0.039816905 0.005417431 0.03434222 0.07049959 0.07426838 -0.07170237 0.09423097 -0.079722
-0.060863685 0.00613719 -0.012442458 -0.07512288 -0.095050745 -0.05555485 0.036238905 0.01999051
-0.011546169 0.036601502 0.0025405767 -0.030322067 -0.027028173 0.064500354 -0.018293967 -0.072522864
-0.06046791 -0.01726737 -0.017592637 0.062474202 0.12037523 0.037813287 0.024824904 0.052186083
0.029435098 -0.07239438 -0.01948282 0.10651444 0.036337536 -0.05788632 0.037046332 0.013320905
-0.071080975 0.09008383 0.036763944 -0.038216274 -0.04123537 -0.04884892 0.10783919 -0.016245198
-0.032168712 -0.05610328 0.10706224 0.03159898 -0.0059529613 0.04083841 0.05727447 -0.04301871
-0.023193173 0.026648624 -0.04654706 0.12055588 -0.030677047 0.026004815 -0.03600969 0.04234558
-0.11453592 0.038801022 -0.021794088 -0.009654657 0.0064349887 0.023839371 0.023337882 0.0915591
0.031889178 0.02582713 -0.039308783 0.01731763 0.009214394 -0.011244988 0.017248666 0.021566408
-0.010160799 -0.05393548 -0.054038934 0.06134759 0.03227998 -0.033568863 0.07593683 0.0018166205
-0.037837762 -0.10569028 -0.0041336655 -0.009379639 -0.068428606 -0.00735315 0.015177193 0.060097754
0.051558033 0.030300863 -0.115698375 -0.020034624 0.030147387 -0.0112804705 0.0828719 -0.020102767
0.06663136 0.032670766 -0.046718873 -0.023227815 0.07301721 0.10256685 0.010625271 0.03772159
0.044033825 -0.02824172 0.0530548 -0.05065047 -0.040433653 0.025818367 0.050052706 0.007957004
0.024510125 0.110459805 -0.031882554 -0.0059724874 -0.054025043 -0.07720547 -0.061289188 -0.039455026
0.06286519 -0.14923294 0.05311014 -0.008181047 0.010678096 -0.0039994996 -0.05584906 -0.01187391
0.101239435 0.0054711737 0.02720117 -0.05537059 0.032963153 0.021329818 0.05187973 -0.013063
0.06899531 -0.04920804 -0.010368174 0.0062620468 0.019585598 0.030637344 0.022984419 0.077741094
0.0287788 -0.024709117 0.058503892 -0.042329054 -0.025620282 -0.064503446 0.014040018 -0.016512956
0.009730531 -0.041553095 0.033591233 -0.015585691 0.023864027 -0.002479044 -0.009453857 0.047119606
-0.0098127555 -0.016373945 -0.004395487 -0.07715461 -0.049134526 0.090439446 0.05256709 -0.009481608
0.02585992 0.042642936 -0.0018188686 -0.048522722 -0.08050706 -0.008022563 -0.0551083 -0.064920425
-0.068785705 0.04491882 -0.022364298 -0.02068471 0.0529957 -0.022978177 -0.038241178 -0.01525785

actor.2.bias f4 [78]
00000000: d5f6 16bb 63fc f63a d22d 1ebb 4e7b 1fb9
00000010: 2a8d fbb8 6bb3 593b 46b9 7338 097b b6ba
00000020: e343 e23a 6dbe bcba 0000 0000 0000 0000
00000030: 0000 0000 0000 0000 0000 0000 0000 0000
00000040: 0000 0000 0000 0000 a63d 81b9 1853 12bb
00000050: 0604 9a3a a997 f73a 0000 0000 0000 0000
00000060: 0000 0000 0000 0000 0000 0000 0000 0000
00000070: 0000 0000 0000 0000 0000 0000 0000 0000
00000080: 0000 0000 0000 0000 0000 0000 0000 0000
00000090: 0000 0000 0000 0000 0000 0000 0000 0000
000000a0: 0000 0000 0000 0000 0000 0000 0000 0000
000000b0: 0000 0000 0000 0000 eae6 c63a 0000 0000
000000c0: 0000 0000 0000 0000 0000 0000 0000 0000
000000d0: d80e 303a 0000 0000 23ec 5d3a 0000 0000
000000e0: 0000 0000 0000 0000 0000 0000 0000 0000
000000f0: 6a06 1dbb 0000 0000 0000 0000 0000 0000
00000100: 0000 0000 0000 0000 0000 0000 0000 0000
00000110: 0000 0000 0000 0000 0000 0000 0000 0000
00000120: 0000 0000 0000 0000 0000 0000 0000 0000
00000130: 0000 0000 0000 0000
-0.0023035307 0.0018843528 -0.0024136198 -0.00015209356 -0.000119949065 0.0033218514 5.8108264e-05 -0.0013922165
0.0017262663 -0.0014400013 0.0 0.0 0.0 0.0 0.0 0.0
0.0 0.0 -0.0002465073 -0.002232736 0.0011750467 0.0018889803 0.0 0.0
0.0 0.0 0.0 0.0 0.0 0.0 0.0 0.0
0.0 0.0 0.0 0.0 0.0 0.0 0.0 0.0
0.0 0.0 0.0 0.0 0.0 0.0 0.0015175019 0.0
0.0 0.0 0.0 0.0 0.0006716079 0.0 0.0008465668 0.0
0.0 0.0 0.0 0.0 -0.0023960122 0.0 0.0 0.0
0.0 0.0 0.0 0.0 0.0 0.0 0.0 0.0
0.0 0.0 0.0 0.0 0.0 0.0

critic.1.weight f4 [128, 1024]
00000000: e6ef 24bd a066 55bb b282 643d 54fe 753c
00000010: 135c 8b3d ca5d 163b 7fc3 f2bb cfa4 29bd
00000020: 6a9d c43c a7a1 99bc c69f 263d 2e9e 84bc
00000030: ffce 3cbc f114 80bb 63c4 a1bc ac52 9bbd
00000040: 7586 243d e6a3 2cbd 2403 c2bd a25f 99bc
00000050: d8e7 543d 2cf1 563d 22fb 853c 18a9 89bd
00000060: c4c2 153d f60d 8bbd 889e a83d 2f84 54bc
00000070: 4c00 2fbd c9da 133d 9cad 2a3d 19f7 b6bb
00000080: c40c d0bc b37a f9bb 9716 383d cbec 3b3c
00000090: 3573 9d3c ba10 8dbd 51ad 15bc 1fd3 72bd
000000a0: 1335 f53a 87b5 e03d 3338 23bd cd49 07bd
000000b0: 2652 69bd 8e7f a9bd 9f43 69bd 6512 28bd
000000c0: f7b6 1d3d 1672 cb3d 6ec3 bbbb d38e 9f3c
000000d0: 620e 9bbd ab36 35bd 7cee 2a3d bc51 1bbd
000000e0: 1d0b b4bc 219d cbbd 86ee 06bd 97dc b2bc
000000f0: 4e0e 20bd 3ccf ec3c df19 97bd 19c7 303d
00000100: c478 423c 1979 e13d de96 323d 8d1d 753d
00000110: 97fa 21bd 6677 b4bb f43d 16bd 862c a63d
00000120: 82ff 6f3d 0ef2 d2ba b351 4b3d fb50 133c
00000130: 12d1 fd3c d494 eebd 5756 4fbd 11af 5cbd
00000140: d05a 93bb c288 603d 67de 843c 5e32 12bd
00000150: 264d 8d3c 49e2 f6bc a870 203d 7683 48bc
00000160: 2b00 f03a b6f6 c33d aa9b 2ebd 154c 553a
00000170: d356 6dbc 2631 fc3c 51b7 233d 3c8b 913d
00000180: 55c7 9cbd a287 91bd b12a 5e3d 64c9 78bb
00000190: a7fd 71bc 7c5d 38bb 77d7 813c c391 f0bc
000001a0: a18f 9bbd f099 36bd cfe1 43bd 8924 bfbb
000001b0: 5071 683d c3c4 b6bc 9db2 2bbd 053e d43d
000001c0: f926 08bd b074 71bd 3706 15bd 3b50 a03b
000001d0: ced7 743d 1ed7 0f3d 0a3b 3c3d 9edf b3bd
000001e0: e4c0 80bd 931b f53c 05e2 453d e6da d33c
000001f0: 4069 643c 0d85 3c3d 78a6 f63c aad2 9e3d
00000200: 1420 51bd c2a4 08bd 2d18 8f3d 5899 8fbb
00000210: 4d27 153c df18 cabb 2b1a 893c 4442 1d3b
00000220: 4dbd 11bd de56 293c fcc1 cbbc c34f be3c
00000230: 0299 9c3d 980f 7abd 828d 92bd 5522 583c
00000240: 1dad 4dbc a58c 66bd 0f9b 493d 31f4 ac3b
00000250: 4fa4 163d 43b1 913d 6141 b1bd 40c2 67bc
00000260: 6522 0abd 934e 84bc a8b7 16bc 0c5d 8f3c
00000270: 0486 0b3d 4275 1fbd 18c6 0bbb 92a2 44bc
00000280: d303 8d3d c37d 8e3c 182e b8bc 8f55 b83d
00000290: 2cd7 45bc b3ec 10bd 578a 6ebc 2e68 323d
000002a0: 4cb0 e2bb ce37 343d 9d61 9fbd b7ec d63c
000002b0: 5201 583c feff 13bd a823 ddbc a7b1 31bc
000002c0: d35b af3d 15e5 503d 2b2c 6fbd 74ff 3f3d
000002d0: 16ae 203d 4bc1 4fbd a7c6 74bd 11be 3fbd
000002e0: 0e28 1f3d f349 eb3c 9c91 9a3d 1a02 87bd
000002f0: 3fc1 813d 0d62 8c3d 05d8 13bd fdf1 91bd
00000300: 4bd4 553d e957 c63d f58d 703c ecdd 0c3d
00000310: c331 87bc 5c4c 99bd dfc3 a6bc ea1d 7a3c
00000320: 0301 083e e925 543c 25d1 d43c 765e d23d
00000330: 851b 053d 9c59 033d 427b b33c d14d 603d
00000340: 8256 0e3c 9fd4 883a 1f68 d8bd e384 0b3b
00000350: df38 603d 4e22 8a3d 3609 403d 1cea 9cbd
00000360: f714 923c 9ca2 343b f524 0bbc 983a 26bd
00000370: b7ff 8d3d 50df c1bb 5a74 c2ba bc2a 84bc
00000380: 5b30 183c e1d0 453d 5153 423d 1433 d13d
00000390: e8c7 063c 26a6 6e3c af72 b3bb 2c28 e43c
000003a0: 0811 c3bb f089 f2bc 2449 543c e45b 35bc
000003b0: 875f 0fbd b4ac 043d b711 bb3c b8e7 edbc
000003c0: 3459 9dbc 1ba0 fd3c 0c3b df3d 6362 a93c
000003d0: 0213 59bd c493 8abd 9e63 3e3d 15d7 b2bd
000003e0: 0ce9 d43c 352e 053d 82c4 53bd 62a8 c93b
000003f0: cddc 34bd 2583 573c d91b ee3c f463 10bc
-0.040267847 -0.003256239 0.055788703 0.01501425 0.06804671 0.0022944086 -0.007408559 -0.04141694
0.024000842 -0.01875384 0.040679716 -0.016188707 -0.011523961 -0.0039087464 -0.019746965 -0.07584128
0.04016729 -0.042148493 -0.09473255 -0.01872236 0.051978916 0.052476093 0.016355101 -0.06721705
0.036562696 -0.06789772 0.082333624 -0.012970968 -0.042724892 0.03609732 0.041669473 -0.0055836556
-0.025396712 -0.007613504 0.04494342 0.01147003 0.019219974 -0.06887956 -0.00913556 -0.059283372
0.0018707834 0.109721236 -0.039848518 -0.033029366 -0.05696311 -0.08276282 -0.056949254 -0.041033167
0.038504567 0.099338695 -0.005730084 0.019477284 -0.07571103 -0.04424159 0.041731343 -0.037919745
-0.021977955 -0.09942079 -0.032942317 -0.021833701 -0.039076142 0.02890741 -0.073779814 0.043158624
0.011869613 0.11009426 0.04360091 0.059842635 -0.03954562 -0.0055073975 -0.036680177 0.08113961
0.05859328 -0.0016093866 0.04963846 0.008991475 0.030983482 -0.116494805 -0.05061945 -0.053877894
-0.0044969097 0.054817922 0.016219331 -0.035692565 0.017248701 -0.030137198 0.039169937 -0.012238374
0.0018310597 0.09568541 -0.04262892 0.0008136642 -0.014486033 0.030785155 0.039969746 0.07106635
-0.07655207 -0.07105948 0.054239932 -0.0037961835 -0.014769948 -0.0028131893 0.015849812 -0.02936638
-0.075957544 -0.0445804 -0.04782277 -0.0058332128 0.05674869 -0.02231062 -0.041918386 0.10363392
-0.033240292 -0.058949172 -0.03638288 0.0048923767 0.05977612 0.03511726 0.04595474 -0.08782886
-0.06286791 0.029920375 0.048311252 0.025861215 0.013941109 0.046025325 0.030108675 0.07755025
-0.051055983 -0.03336025 0.06987033 -0.0043822937 0.009103608 -0.0061675156 0.01673611 0.0023995796
-0.035580922 0.010335652 -0.024872772 0.023231393 0.076463714 -0.061050028 -0.07155897 0.013191779
-0.01255348 -0.056286473 0.04922014 0.0052781333 0.03677779 0.07113888 -0.08655048 -0.014145434
-0.033724207 -0.016150748 -0.0091990605 0.017500423 0.034063354 -0.038930185 -0.002132779 -0.01200165
0.06885495 0.017393952 -0.022482917 0.09000694 -0.012075227 -0.035381984 -0.01455935 0.043556385
-0.006917989 0.043998532 -0.0778229 0.026235921 0.013183909 -0.036132805 -0.026994541 -0.010845578
0.08562436 0.05099972 -0.05839173 0.04687448 0.03922852 -0.050721448 -0.059759762 -0.04681212
0.03885656 0.028721785 0.07547304 -0.06592198 0.06335687 0.06854639 -0.036094684 -0.07126234
0.05220441 0.09684736 0.014682283 0.03439133 -0.01650322 -0.074852675 -0.02035707 0.015265921
0.13281636 0.012948492 0.025978634 0.10271923 0.032496948 0.03206788 0.02190936 0.05476171
0.008687617 0.0010439343 -0.105667345 0.0021288923 0.054741737 0.06744824 0.046883784 -0.0766184
0.017832262 0.0027562743 -0.008492698 -0.040583223 0.06933539 -0.0059165135 -0.0014835701 -0.016133659
0.009288873 0.048294906 0.047442738 0.102148205 0.008226372 0.01456598 -0.005476318 0.027851187
-0.005952958 -0.02960679 0.012956891 -0.011069272 -0.03500321 0.032391265 0.022835596 -0.029041156
-0.019207574 0.030960133 0.10899934 0.020676797 -0.052996643 -0.06766465 0.04648172 -0.0873243
0.025990032 0.03251477 -0.051701076 0.006154106 -0.044155885 0.013153826 0.029066013 -0.008812893

critic.1.bias f4 [128]
00000000: 51e1 12ba 0000 0000 1437 6338 992d 1bba
00000010: 8df4 9b3a 4eae 7c38 0000 0000 0000 0000
00000020: 0000 0000 660d 6938 663b 7538 0000 0000
00000030: 0000 0000 f845 1e36 e9cb 99ba 0000 0000
00000040: 0000 0000 c544 aa3a 098a 93ba 6db6 95b8
00000050: 488e aeb8 0000 0000 74c8 033a d42c 2937
00000060: c92b 47ba fdcb 2a39 0000 0000 dab8 5b38
00000070: 0000 0000 b010 94ba d2ee 3638 0000 0000
00000080: ccc7 5e38 bc3a e8b8 7d08 eeb8 0000 0000
00000090: d417 8538 681d 83b9 9293 b0b8 a66a 6739
000000a0: 0000 0000 7d23 5eba 7714 8038 2bb2 c1b9
000000b0: edcd 8738 0000 0000 68bd 8038 7c7c 8238
000000c0: 3c2b 6a37 0e6d 9bb9 f8f1 9dba f985 c7ba
000000d0: 0000 0000 8e83 b8b9 0a91 8338 fea4 8038
000000e0: de48 3aba b9ef 9cb8 2979 4eba 4c82 3a38
000000f0: 6d57 7538 c6ef 6138 fb0f 92b9 66f7 54ba
00000100: ca6e f1b8 69c4 90b8 8925 8cb8 1875 4fb9
00000110: fe2f 94ba 6cab 3239 540c 91b8 f7e7 bbb8
00000120: 197c 4c38 0000 0000 4dfd 2f38 1cef 96b8
00000130: 0000 0000 0000 0000 c280 1c37 0000 0000
00000140: 0000 0000 0ed0 36ba 1654 4db9 0000 0000
00000150: 0000 0000 0000 0000 a75d 05b9 0000 0000
00000160: e212 96b8 d909 96b8 c8c7 a3b9 c704 81ba
00000170: 04b9 7538 0000 0000 9b8c 5938 b1dc 13ba
00000180: 0000 0000 d87a 9fb8 1aca a9b8 0000 0000
00000190: 2aac 25ba d048 99b8 0000 0000 8278 6838
000001a0: 257c 22b8 8a5b cdb8 0000 0000 7c47 6238
000001b0: b0d0 62ba 0000 0000 c163 1438 0368 9fb8
000001c0: 827c 93b8 1a3e e8b9 0000 0000 ca60 c5b9
000001d0: b3e5 1fba f854 bfb8 4886 26b8 189c c6b8
000001e0: 2b36 2cb8 fac0 7d38 f1c8 a8b8 bf23 a7b8
000001f0: 0000 0000 0000 0000 253e e3b9 99e0 5238
-0.0005603033 0.0 5.4172313e-05 -0.00059195753 0.0011898443 6.0243816e-05 0.0 0.0
0.0 5.5564007e-05 5.846787e-05 0.0 0.0 2.3584562e-06 -0.0011733744 0.0
0.0 0.0012990466 -0.0011256348 -7.138853e-05 -8.3234685e-05 0.0 0.0005027123 1.0083622e-05
-0.0007597772 0.00016288455 0.0 5.2385825e-05 0.0 -0.0011296477 4.36146e-05 0.0
5.3115e-05 -0.00011073562 -0.000113503054 0.0 6.3463725e-05 -0.00025008176 -8.419821e-05 0.00022069606
0.0 -0.0008473916 6.1073275e-05 -0.00036944574 6.475658e-05 0.0 6.138795e-05 6.22207e-05
1.3957553e-05 -0.00029645156 -0.0012050262 -0.0015222422 0.0 -0.0003519323 6.2735824e-05 6.134248e-05
-0.0007106195 -7.4833115e-05 -0.00078763306 4.4467204e-05 5.8493973e-05 5.3867487e-05 -0.00027859196 -0.00081240234
-0.000115124116 -6.903039e-05 -6.682712e-05 -0.00019784679 -0.0011305807 0.00017039262 -6.916435e-05 -8.960062e-05
4.8752965e-05 0.0 4.1959156e-05 -7.197095e-05 0.0 0.0 9.328303e-06 0.0
0.0 -0.00069737516 -0.00019581648 0.0 0.0 0.0 -0.00012718757 0.0
-7.1560746e-05 -7.154392e-05 -0.0003123863 -0.0009843343 5.858486e-05 0.0 5.186778e-05 -0.00056404906
0.0 -7.604592e-05 -8.096192e-05 0.0 -0.0006319905 -7.309171e-05 0.0 5.5425342e-05
-3.873943e-05 -9.792212e-05 0.0 5.3949174e-05 -0.00086523127 0.0 3.5378853e-05 -7.6010845e-05
-7.0326976e-05 -0.00044296758 0.0 -0.00037646882 -0.00060995965 -9.1234164e-05 -3.9702543e-05 -9.4704505e-05
-4.1058443e-05 6.0499624e-05 -8.0482925e-05 -7.969839e-05 0.0 0.0 -0.00043343115 5.0277074e-05

critic.3.weight f4 [1, 128]
00000000: afed 8d3d fcac 343d ed0c 8f3d 6e1b 883d
00000010: 3d78 753d 65bb c9bd 6a83 08ba a353 5dbd
00000020: 829c 863d 5a6e 15be eac9 8dbd f143 43be
00000030: d4b4 163e af3b 6c3d 782f 123e 3ee3 ccbd
00000040: 6f0c 0fbe 801f 663d d35c 8dbc e76c b23d
00000050: c47a e43c 61f0 213c f5b1 80bd 272b a03b
00000060: 3880 1a3d 6d99 103d b20b 833d f580 1ebd
00000070: 7214 303d 644d 8b3c 4365 f5bd 7a8e dc3d
00000080: 281f 25bd 6d7e 2a3c 9da6 a3ba a8c8 b03d
00000090: 2523 56be b53e 953b 9255 dd3c 0b19 65bc
000000a0: d489 413d 64a4 c93d 0295 3cbe 9bbc 9b3d
000000b0: 5a2a 29be 4f2b 52bd 71b3 e7bd da44 10be
000000c0: 77c6 21bc ea62 ed3d f1c7 8c3c d7ef ba3d
000000d0: fe19 17bd 360b 45bd 7f66 83be bbb6 edbd
000000e0: 1acd 423d 5308 543d 7bd5 293d c3be cabc
000000f0: d7fb 90bd a9d6 26bd 7cf4 31bd 898c 053e
00000100: 5d18 0b3d 00c4 1a3e 9fd2 ff3d 3405 42bd
00000110: fa9b ba3c 20fd ef3c 3cab 143e 57df bd3c
00000120: d56f fdbc 7fe3 913d f9c5 aebc 0225 ad3d
00000130: 769b 9e3d 95ef 5fbc c643 c43c ee15 06bc
00000140: 1544 af3c d02a a23d 3d86 1b3d b026 193e
00000150: c319 dabd ca18 b7bd e916 f33b ba34 d73c
00000160: 98de b93d 4717 a93d def8 423d 475b ddbd
00000170: 95eb 91bd ef7c ddbd fbf5 75bd a814 07be
00000180: 4604 873d 345e 793d bd39 e83c 6f46 963d
00000190: 9c5c f63d 48c7 113e 9326 bc3b 469d 86bd
000001a0: e5d2 11bd f52d 6b3c fba2 cfbd acc6 35bd
000001b0: ecbe 1f3e b3a9 25bd 33ca 3fbd 9264 ca3d
000001c0: e9bd 003e 3153 69bd 8cb7 79bc e738 9dbd
000001d0: cb9d ab3b 78b8 3dbb d632 513e 4b4d 003e
000001e0: 8aaa 9bbb 7958 f7bd 9346 f53c efd7 0c3d
000001f0: d217 5ebe aed0 9e3c e071 943d ddad 0cbd
0.069301 0.044110283 0.06984887 0.06645857 0.05992912 -0.09850196 -0.00052075705 -0.05403484
0.0657282 -0.14592877 -0.06923278 -0.19068886 0.14717418 0.057674106 0.1427592 -0.100042805
-0.13969587 0.056182384 -0.017256176 0.08712178 0.02789057 0.009883971 -0.062839426 0.0048879567
0.037719935 0.03530257 0.06398715 -0.0386972 0.04298825 0.017004676 -0.11982205 0.10769363
-0.040312916 0.010406119 -0.0012485568 0.08632022 -0.20911844 0.0045545944 0.027018342 -0.0139830215
0.047250584 0.09845808 -0.18416217 0.07604333 -0.16520062 -0.051310834 -0.113135226 -0.14088765
-0.009873978 0.11591132 0.017185183 0.09127777 -0.036890022 -0.048106395 -0.25664136 -0.11607119
0.04755888 0.05176575 0.041463356 -0.024749165 -0.07079285 -0.04073206 -0.04344605 0.13041891
0.03395878 0.1511383 0.12491345 -0.047368243 0.022779454 0.029295504 0.14518446 0.023177786
-0.030937115 0.071234696 -0.021334635 0.08454324 0.077444956 -0.013667961 0.023958098 -0.008183939
0.021394769 0.07918322 0.037969816 0.14956164 -0.10649445 -0.08940275 0.0074185026 0.02627026
0.090756595 0.08256393 0.04760062 -0.108084254 -0.07125012 -0.10814845 -0.06004904 -0.13191473
0.06592612 0.060880855 0.028347844 0.07337653 0.120293826 0.14236176 0.005741903 -0.06572966
-0.035601515 0.014354219 -0.10138508 -0.04437892 0.15600175 -0.04044504 -0.04682369 0.098824635
0.12572445 -0.056964103 -0.015241515 -0.07676869 0.0052373162 -0.0028949063 0.20429549 0.12529485
-0.0047505544 -0.12077422 0.029940879 0.034385618 -0.21688774 0.019386616 0.072482824 -0.034345496
