experiments/ppo_hrl/models/MicroRTSGridModeVecEnv__ppo_utils__1__1721366908/8192/produce.pt (torch, 802531 bytes, 11 tensors)

encoder.1.weight f4 [32, 30, 3, 3]
0	0xbde598a9	-0.11210758
1	0x3e0bd080	0.13653755
2	0x3e310f69	0.17291035
3	0x3e233cbb	0.15941136
4	0x3deb6dcc	0.114955515
5	0x3e0b1ad9	0.1358446
6	0x3e63af1f	0.22234772
7	0x3e5e9eee	0.21740314
8	0xbc9a4f36	-0.018836599
9	0x3da14e12	0.07876219
10	0xbe2559a3	-0.16147475
11	0x3da5989c	0.080857486
12	0xbd89ec83	-0.06734564
13	0xbd84b119	-0.06479091
14	0x3cf194ba	0.029489864
15	0x3d91b90e	0.071153745
16	0x3df73676	0.120709345
17	0x3e26fe89	0.16308035
18	0xbd34ca71	-0.044138376
19	0xbdda1714	-0.10648933
20	0xbd681bae	-0.056667022
21	0x3d24908f	0.040176924
22	0x3d8c1b98	0.068412006
23	0xbdab977d	-0.083785035
24	0x3c27890f	0.010225548
25	0xbdc910fd	-0.098176934
26	0xbd3e6d5d	-0.046491016
27	0xbd812036	-0.06304972
28	0x3bce88e4	0.0063029397
29	0xbdacdd2a	-0.08440621
30	0x3d97f9d7	0.074207
31	0x3d3a5805	0.0454941
32	0x3c0a57e0	0.008443803
33	0x3d41fcb3	0.047360133
34	0x3dead6b3	0.11466732
35	0x3c8ad63e	0.016947862
36	0x3d1a6143	0.037690412
37	0xbd947733	-0.07249298
38	0xbc8f9c25	-0.01753051
39	0x3cf0036f	0.029298512
40	0x3d27b150	0.040940583
41	0x3c86ccbf	0.016455052
42	0x3d997ebc	0.07494876
43	0x3e02c6c1	0.12771131
44	0xbd29a180	-0.041413784
45	0xbe314ff3	-0.17315654
46	0xbd2042be	-0.03912615
47	0xbd851d03	-0.06499674
48	0xbd6ad41a	-0.057331182
49	0x3dfa599b	0.12224122
50	0x3d8a16a2	0.06742598
51	0x3d0e3fbc	0.03472875
52	0x3af1cbf8	0.0018447628
53	0x3d69cff4	0.057083085
54	0x3d6a040d	0.05713277
55	0xbc48b521	-0.012250216
56	0x3cf22fbf	0.029563783
57	0xbe439ecb	-0.19103543
58	0x3d01c3e4	0.031680956
59	0xbe3a8bcb	-0.1821739
60	0x3d07e952	0.033181496
61	0xbb685252	-0.0035449457
62	0x3da4ca41	0.08046389
63	0xbd8dbfa5	-0.06921319
64	0x3da3c842	0.079971805
65	0xbd3827f4	-0.044959977
66	0x3b924eed	0.004464975
67	0x3a3e9b1b	0.00072710373
68	0x3dde7d1e	0.10863708
69	0xbac8bf9f	-0.0015315897
70	0xbc03bbdc	-0.008040395
71	0x3cb93c6e	0.022611823
72	0xbdd43ec9	-0.10363538
73	0x3d9a22d0	0.07526171
74	0x3e190c47	0.1494609
75	0xbd78af4b	-0.060714047
76	0xbe1dc198	-0.15405881
77	0x3ba6b535	0.0050875195
78	0xbd19add3	-0.037519287
79	0xbc3e7395	-0.011624237
80	0x3d3e9e1f	0.046537515
81	0x3caf493c	0.021397226
82	0x3d924131	0.071413405
83	0x3de425de	0.11140035
84	0x3e647ff5	0.22314437
85	0x3e0256c6	0.12728414
86	0xbd2d5f79	-0.042327378
87	0x3dd0eb41	0.10201121
88	0xbdc0ac48	-0.0940786
89	0x3d90e1fb	0.07074352
90	0x3d37aa39	0.04484007
91	0x3d65db8a	0.056117572
92	0xbd072960	-0.032998443
93	0xba2e74ae	-0.000665496
94	0x3b9b298d	0.004735178
95	0xbd514537	-0.0510914
96	0x3ca62418	0.020280883
97	0x3da8d3e0	0.08243537
98	0xbd2b84d3	-0.041874718
99	0xbda9d56b	-0.08292659
100	0x3c23b490	0.00999178
101	0x3c5b024f	0.01336725
102	0xbd7478cc	-0.059685513
103	0xbe00017b	-0.12500565
104	0x3e1f7a30	0.15573955
105	0x3e2e8038	0.17041099
106	0xbcd5ffee	-0.026123013
107	0x3da936e9	0.082624264
108	0xbd0e30a8	-0.03471437
109	0x3d4cb468	0.049976736
110	0x3c31e727	0.010858334
111	0x3d90a148	0.07062012
112	0xbc882187	-0.01661755
113	0xbc808947	-0.015690459
114	0x3d2c5128	0.042069584
115	0x3c59aa8c	0.01328529
116	0x3d89f331	0.06735838
117	0xbdb53669	-0.088482685
118	0x3d05e96b	0.032693308
119	0x3df2ca78	0.11855024
120	0x3d259afa	0.040431
121	0xbd86d735	-0.06584016
122	0x3d6c7df2	0.0577373
123	0xbd4e1401	-0.050312046
124	0xbcc2b04d	-0.023765707
125	0x3da1159c	0.0786545
126	0x3c006182	0.007835748
127	0x3e3f7250	0.1869595
128	0x3d64e8ce	0.055886082
129	0x3ce5da83	0.028058296
130	0x3d904659	0.07044668
131	0xbc6a559e	-0.014302639
132	0x397973df	0.00023789656
133	0x3d6d0265	0.05786361
134	0xbd78097a	-0.060555913
135	0x3df9eaf5	0.122030176
136	0xbd3e8231	-0.04651088
137	0x3d895a83	0.06706717
138	0x3de6d078	0.11270231
139	0xbd806112	-0.06268515
140	0xbe140e28	-0.14458525
141	0xbcf07bb0	-0.029355854
142	0xbe5eba7c	-0.21750826
143	0xbd7203bb	-0.05908559
144	0xbc94bcc2	-0.018156413
145	0xbde705b5	-0.112803854
146	0xbc7eba7d	-0.015547392
147	0xbc554c41	-0.013018669
148	0xbdb7f217	-0.08981722
149	0xbcf3b6fc	-0.02975034
150	0xbcc08561	-0.0235011
151	0xbc10b00d	-0.008831036
152	0x3df14e2c	0.11782488
153	0x3e3f48f6	0.18680176
154	0xbd67dee0	-0.056609035
155	0xbd5908a2	-0.05298675
156	0xbd1c36fd	-0.03813838
157	0x3d167bce	0.036739163
158	0xbd04a049	-0.032379422
159	0xbe36c422	-0.17848256
160	0x3cbeafbc	0.023277156
161	0xbc893e2b	-0.016753277
162	0xbd84a418	-0.06476611
163	0xbdbb3ff7	-0.0914306
164	0xbdf47754	-0.119368225
165	0x3ce4d3d6	0.027933042
166	0x3a1d7159	0.0006005965
167	0xbcb2e949	-0.021839755
168	0x3ce64d00	0.028112888
169	0x3d2a802c	0.04162614
170	0x3d8756de	0.066083655
171	0x3cf646de	0.030063089
172	0x3df7bf57	0.12097042
173	0xbd2f1cd7	-0.042752113
174	0x3c5cf34d	0.013485742
175	0x3d88b187	0.06674486
176	0x3dfbdbd6	0.1229779
177	0x3e1d234f	0.153455
178	0xbd1e44d2	-0.03863985
179	0xbd7c7ff4	-0.061645463
180	0x3d9f25f7	0.07770913
181	0x3de4a521	0.11164308
182	0xbab14cbb	-0.0013526896
183	0xbca78bb8	-0.020452365
184	0xbdcec350	-0.10095847
185	0x3de27393	0.110572
186	0xbdcf17d1	-0.101119645
187	0xbd7cab91	-0.061687056
188	0xbdc5a60a	-0.0965081
189	0xbc9f66d8	-0.01945822
190	0xbe1c50c1	-0.1526518
191	0xbd52621c	-0.051363096
192	0xbddb3205	-0.107029
193	0x3dd6d289	0.10489375
194	0x3d3b53f0	0.045734346
195	0xbe56b0f6	-0.20965943
196	0xbdaf221e	-0.08551429
197	0x3d129806	0.035789512
198	0x3d400e5d	0.046888698
199	0x3de359c1	0.111011036
200	0xbd9ff4ad	-0.0781034
201	0xbd40ba48	-0.04705265
202	0xbd885198	-0.06656188
203	0x3c0edf38	0.008720212
204	0x3e1c3b04	0.15256888
205	0xbcf954fe	-0.030436035
206	0xbde163e7	-0.11005383
207	0x3d349732	0.044089504
208	0xbdbfb4b0	-0.09360635
209	0xbe3443d7	-0.17604004
210	0xbe0d8fc3	-0.13824372
211	0x3e3407e2	0.17581132
212	0xbd8ca598	-0.06867522
213	0xbbdbf639	-0.0067127016
214	0xbc067337	-0.00820618
215	0xbdbf64ea	-0.0934542
216	0x3d77b7e5	0.06047811
217	0xbbe13328	-0.0068725534
218	0xbd80abcd	-0.062827684
219	0xbd6578cc	-0.056023404
220	0x3d949cec	0.07256493
221	0xbcbe2278	-0.023209795
222	0x3e291b6d	0.16514368
223	0xbca256a4	-0.019816704
224	0x3dab68dd	0.083696105
225	0x3c049cde	0.008094041
226	0xbbd5ed83	-0.0065285577
227	0xbd68d255	-0.056841213
228	0x3d72bc5f	0.059261676
229	0xbdb497bc	-0.088180035
230	0x3c0ff325	0.0087859975
231	0x3d19f086	0.037582897
232	0x3ca93c29	0.02065857
233	0xbd14297f	-0.036172386
234	0xbaf86e7a	-0.0018953823
235	0xbd13fbe1	-0.036128882
236	0xbe1c9571	-0.15291382
237	0xbdaf6e72	-0.08565988
238	0xbdbeeb71	-0.09322251
239	0xbd09c7d7	-0.033637848
240	0xbc97b30c	-0.018517993
241	0x3e1ad5e2	0.15120652
242	0xbe2b278e	-0.16714308
243	0x3da669b8	0.08125633
244	0x3c5a993e	0.0133422
245	0x3d372d12	0.044720717
246	0x3e468cff	0.19389723
247	0x3c95597b	0.018231144
248	0xbd01a4bb	-0.03165124
249	0x3da74782	0.08167936
250	0x3d39fe0f	0.045408305
251	0x3dfd2dc9	0.123622485
252	0xbd3ccf8b	-0.046096366
253	0xbba79257	-0.0051138806
254	0x3c57f53f	0.01318103
255	0xbdf93d09	-0.12169845

encoder.1.bias f4 [32]
0	0xb99c611e	-0.00029826997
1	0xb968f9e1	-0.00022218331
2	0xba8837ad	-0.0010392569
3	0xbb2a4f78	-0.0025987308
4	0xbac935db	-0.0015351133
5	0x3a175bbc	0.00057738624
6	0xba3d5a9f	-0.00072232814
7	0xbb3f9a30	-0.002923619
8	0xba00a4ad	-0.0004907351
9	0xb8cadbce	-9.6730524e-05
10	0x3aa158d4	0.0012309798
11	0x3ad4cda7	0.0016235606
12	0xba3b36dc	-0.00071416586
13	0x3a509412	0.00079566345
14	0xba7db862	-0.0009678659
15	0xba864d60	-0.0010246448
16	0xb91cfa83	-0.00014970642
17	0x36eafaf8	7.00296e-06
18	0xbafa413e	-0.001909293
19	0xbab88f00	-0.0014080703
20	0xbaf2171c	-0.0018470022
21	0xba6eb8dd	-0.0009106526
22	0xbab3f0fb	-0.0013728434
23	0x3ad6fe61	0.0016402715
24	0xba24e45a	-0.00062901306
25	0xbaea042e	-0.0017854029
26	0x396e5e92	0.00022732679
27	0x3a4a66ca	0.0007721005
28	0xb97c1f8a	-0.00024044342
29	0xb91e48aa	-0.00015095124
30	0xba7330db	-0.00092769944
31	0xb9e0e28c	-0.000428934

encoder.4.weight f4 [64, 32, 3, 3]
0	0x3d15a0d4	0.03653033
1	0x3d4d3c12	0.050106116
2	0x3d477583	0.048696052
3	0xbde19d9e	-0.11016391
4	0x3c0a4754	0.0084398575
5	0x3cefc6ba	0.029269565
6	0x3dfd7768	0.123762906
7	0xbd8d8965	-0.069109716
8	0xbd7c8ad8	-0.06165585
9	0xbd7fc989	-0.06244806
10	0xbcc0079b	-0.023441127
11	0xbc13f6e6	-0.009031033
12	0x3d1eded3	0.03878672
13	0x3da8c44f	0.08240568
14	0x3df0e335	0.11762086
15	0x3b841849	0.0040312153
16	0xbcd088e1	-0.025455894
17	0xba4878f5	-0.00076474185
18	0x3dc54cf5	0.09633819
19	0x3d82b2f5	0.063817896
20	0xbd988568	-0.0744732
21	0xbce60fd0	-0.028083712
22	0xbcaeb5c1	-0.021326901
23	0xbd07a9b8	-0.03312084
24	0x3cdb0be9	0.026739078
25	0x3d6f31c9	0.05839709
26	0xbe0b58ed	-0.13608141
27	0x3d60b805	0.054862995
28	0x3d71d367	0.0590395
29	0x3ddd99d5	0.10820357
30	0xbd2cccad	-0.04218738
31	0x3c17f512	0.009274738
32	0x3e25a992	0.16177967
33	0xbd2d7d58	-0.042355865
34	0xbcd5a2e2	-0.026078645
35	0xbd4403cd	-0.047855187
36	0x3db6b310	0.08920872
37	0x3d804c8c	0.062646
38	0x3e0680ca	0.13135067
39	0x3c9da3db	0.019243171
40	0x3c00e7cf	0.0078677675
41	0xbd1d2332	-0.038363643
42	0x3d46012d	0.048340965
43	0x3dc8e9ad	0.09810195
44	0xb727eca2	-1.0009071e-05
45	0xbd8b17ec	-0.06791672
46	0x3d8d8799	0.06910629
47	0x3dcf47a6	0.10121088
48	0x3ddb0567	0.1069439
49	0xbdd0f4ac	-0.102029175
50	0xbc85ed28	-0.016348436
51	0xbd4f9398	-0.050677866
52	0x3da2e36c	0.079535335
53	0xbc3913a7	-0.011296189
54	0xbe43afa2	-0.19109967
55	0xbd8e2fdd	-0.06942723
56	0x3c04bf96	0.008102318
57	0x3db57fce	0.088622674
58	0xbc8d7791	-0.017268928
59	0xbe6b642e	-0.22987434
60	0x3e460d24	0.1934095
61	0x3deb2236	0.114811346
62	0xbdf59b6f	-0.11992537
63	0x3c5934b0	0.013257191
64	0xbd3b084a	-0.045662202
65	0xbd5f54d2	-0.05452425
66	0x3b896c2d	0.0041938038
67	0x3bc7049f	0.006073549
68	0xbc316626	-0.010827577
69	0x3c579c78	0.013159864
70	0x3e084f13	0.13311414
71	0x3e06f36f	0.131788
72	0xbd6941a1	-0.056947354
73	0x3d06a113	0.032868456
74	0xbdd4b5bd	-0.10386226
75	0xbd8067f8	-0.062698305
76	0x3dc59c70	0.09648979
77	0x393b8e66	0.00017886757
78	0xbd7411d0	-0.0595873
79	0x3dec6ffb	0.11544796
80	0xbc9d04a1	-0.019167246
81	0x3c14932d	0.009068293
82	0x3d0f0f62	0.03492678
83	0x3d9f4f0f	0.07778751
84	0x3c7f8443	0.0155954985
85	0x3dfc4467	0.12317734
86	0x3d4d0ce1	0.05006111
87	0x3cc6bb38	0.024259195
88	0xbdc0781c	-0.09397909
89	0x3da1d07f	0.079010956
90	0x3c450b95	0.012026687
91	0x3ce213df	0.027597366
92	0x3d944542	0.072397724
93	0x3d89a2e3	0.06720521
94	0xbe09979c	-0.1343674
95	0x3d8e6021	0.06951929
96	0x3db026b8	0.08601135
97	0xbd02c403	-0.031925213
98	0x3a99b245	0.0011726102
99	0x3d7c8d4b	0.061658185
100	0xbd971130	-0.07376325
101	0xbd99f686	-0.07517724
102	0x3e0eeab8	0.13956726
103	0x3c655185	0.013996487
104	0x3d476a47	0.04868534
105	0x3d669ddf	0.0563029
106	0xbd807f14	-0.06274238
107	0xbd63b89e	-0.055595987
108	0x3e1af9af	0.15134309
109	0xbdfb622c	-0.12274584
110	0xbe4e9b20	-0.20176363
111	0x3ca9cbba	0.020727027
112	0xbd8e9706	-0.06962399
113	0xbe1a2724	-0.15053993
114	0x3d9f4ccc	0.0777832
115	0x3dc00129	0.09375221
116	0xbe06e6d1	-0.13173987
117	0x3d7a2ca0	0.061077714
118	0xbd01b39e	-0.031665437
119	0xbd63fa7c	-0.055658802
120	0xbd6eb2db	-0.05827604
121	0x3d9dbbb5	0.07701818
122	0x3c29c1ad	0.010361117
123	0x3d46ac10	0.048503935
124	0x3daca021	0.0842898
125	0x3df38f25	0.11892537
126	0x3d079790	0.033103526
127	0xbd5026a3	-0.050818097
128	0xbd29b869	-0.041435633
129	0x3ca4b680	0.020106554
130	0xbc260d1d	-0.010134962
131	0xbd2a89c9	-0.04163531
132	0x3ce21d4a	0.027601857
133	0x3d703d99	0.058652494
134	0xbe073c68	-0.13206637
135	0x3daed262	0.08536221
136	0xbd706029	-0.058685455
137	0x3d82c10a	0.063844755
138	0xbd7dc561	-0.061955813
139	0xbdce35a6	-0.100688264
140	0xbcbb787f	-0.022884605
141	0xbc468f3e	-0.012119113
142	0xbdee7258	-0.11642903
143	0x3d50b79c	0.050956354
144	0xbc9a3946	-0.018826138
145	0x3db36ad7	0.087606125
146	0x3ad82921	0.001649175
147	0x3d984447	0.07434898
148	0xbdcfe500	-0.101511
149	0x3d9d2053	0.07672181
150	0xbdee8784	-0.11646941
151	0x3d63a3e1	0.05557621
152	0x3d27a1c1	0.040925745
153	0xbca46753	-0.0200688
154	0xbd3b2135	-0.045685966
155	0xbda26864	-0.07930067
156	0xbb82c3d6	-0.0039906306
157	0x3d56aba7	0.052409794
158	0xbdbf3578	-0.0933637
159	0x3d91172f	0.070845
160	0xbdf20118	-0.11816615
161	0xbde7cff6	-0.11318962
162	0x3d66b134	0.056321338
163	0x3e1053be	0.14094445
164	0x3db5d47e	0.0887842
165	0x3d820ff8	0.06350702
166	0xbc294b6b	-0.010332922
167	0x3c713dfc	0.014724251
168	0x3c841689	0.016124027
169	0xbc8c770f	-0.017146615
170	0xbd2c8ccd	-0.042126466
171	0x3d53b466	0.051685713
172	0x3c3c2110	0.011482492
173	0x3c451355	0.012028535
174	0x3d550c2b	0.052013557
175	0xbcac21a9	-0.021012144
176	0xbdfa071f	-0.122083895
177	0xbc03dcb7	-0.008048228
178	0x3d9c355b	0.07627364
179	0xbe114860	-0.14187765
180	0x3c642f40	0.013927281
181	0xbdf8a87e	-0.12141512
182	0xbc87cab0	-0.016576141
183	0x3dba9300	0.09110069
184	0xbd003eb1	-0.031309787
185	0xbe2178cc	-0.15768737
186	0x3e0eb88b	0.13937585
187	0x3df8bc58	0.12145299
188	0x3d125c68	0.035732657
189	0x3d848614	0.06470886
190	0xbdc44c47	-0.09584861
191	0x3d79ae47	0.06095722
192	0xbde42fd1	-0.11141933
193	0x3c9ffc73	0.019529557
194	0xbd53a28b	-0.051668685
195	0xbcdef88c	-0.027218126
196	0xbd5ce21e	-0.05392658
197	0x3c6a30e4	0.014293883
198	0xbe0f6bec	-0.14006013
199	0x3da1cac2	0.07900001
200	0x3c5a6435	0.013329555
201	0x3e328010	0.17431664
202	0xbdb7233f	-0.089422695
203	0x3c00815b	0.007843341
204	0xbdd98241	-0.10620547
205	0xbda54961	-0.080706365
206	0xbcf3ea2c	-0.029774748
207	0xbdb14867	-0.08656388
208	0x3cbf095d	0.023319894
209	0x3d9b83ad	0.075934745
210	0x3e51b53f	0.20479296
211	0xbcfdad62	-0.030966464
212	0xbd791327	-0.06080928
213	0x3ddd9f78	0.10821432
214	0xbe190f22	-0.14947179
215	0x3c7e001e	0.015502958
216	0xbd83b3de	-0.06430791
217	0xbd87f81b	-0.06639119
218	0xbdfacdf2	-0.12246312
219	0x3b08bda1	0.002086498
220	0xbdf4471e	-0.11927627
221	0x3c97b31e	0.018518027
222	0xbda346da	-0.07972498
223	0xbc90b7e2	-0.017665807
224	0xbdc05427	-0.09391051
225	0x3d3f6a7d	0.046732415
226	0xbda199d3	-0.07890668
227	0xbca503c9	-0.020143406
228	0xbc98368b	-0.018580696
229	0x3cb45bca	0.022016425
230	0xbdd11b13	-0.10210242
231	0xbda654e9	-0.08121664
232	0xbbeb785d	-0.0071859793
233	0xbc1f50a5	-0.009723817
234	0x3e3aa8ec	0.18228501
235	0xbc210b03	-0.009829286
236	0x3e0c9b86	0.13731202
237	0x3db25780	0.087080956
238	0x3c953e27	0.018218113
239	0xbe36caa7	-0.17850743
240	0xbe1400d6	-0.14453444
241	0xbe341fdd	-0.1759028
242	0x3d4bf2c0	0.04979205
243	0xbdb7772f	-0.08958279
244	0x3e512a6b	0.20426337
245	0xbe1a5de8	-0.15074885
246	0x3d1e243e	0.038608782
247	0xbd2bf699	-0.04198322
248	0xbd952a3b	-0.072834454
249	0x3d82ac90	0.0638057
250	0x3d1eaa22	0.03873647
251	0xbda78b66	-0.08180885
252	0x3ba9a6ec	0.0051773693
253	0xbdddde9f	-0.10833477
254	0x3dfef01a	0.124481395
255	0xbd6c261d	-0.057653535

encoder.4.bias f4 [64]
0	0x37111020	8.646428e-06
1	0x385fa0d2	5.331712e-05
2	0xb9db8200	-0.00041867793
3	0xb9f4aec9	-0.00046669532
4	0xba1eb241	-0.00060537836
5	0xb9d9aabf	-0.0004151668
6	0xba7a70d9	-0.0009553559
7	0x3a3fdea8	0.000731925
8	0xb98475f6	-0.0002526489
9	0xba268fa8	-0.0006353804
10	0xba6a2688	-0.0008932133
11	0xb9f58125	-0.00046826262
12	0xbad57f25	-0.0016288502
13	0xb8a2fb8a	-7.771615e-05
14	0xba8a8303	-0.0010567609
15	0x37eceb7f	2.8243054e-05
16	0x3a0a60c1	0.00052786997
17	0x3a5fa4f5	0.00085313554
18	0xb8202a5e	-3.818643e-05
19	0xb9fcc8c9	-0.00048214782
20	0x39a6a610	0.00031785714
21	0xba9be133	-0.0011892676
22	0xb934cc7b	-0.00017242313
23	0xb9668a7b	-0.00021986097
24	0xbb2d87aa	-0.0026478567
25	0xb883e900	-6.2899664e-05
26	0xba8555d0	-0.0010172669
27	0xb8379994	-4.377363e-05
28	0x3a5774f3	0.0008219026
29	0xbab39608	-0.0013701329
30	0x380114cf	3.0775376e-05
31	0xb99cdb8f	-0.00029918223
32	0xb99fa6b0	-0.00030451035
33	0x388aea58	6.624003e-05
34	0x38ef9298	0.00011423713
35	0xb99cd12f	-0.00029910493
36	0x3b494bfe	0.003071546
37	0xb9f9dbad	-0.00047656652
38	0xb9f57682	-0.00046818337
39	0x3b05f272	0.0020438698
40	0xbadc8462	-0.0016824121
41	0x3775795c	1.4631394e-05
42	0x3a86a581	0.0010272713
43	0xba459da0	-0.00075384416
44	0xb73771d8	-1.0934156e-05
45	0xb868ac7a	-5.547374e-05
46	0x3a83d55b	0.0010058092
47	0xb9c691f2	-0.0003787424
48	0xb8125076	-3.4884048e-05
49	0xbaf04105	-0.0018329924
50	0xb9ab6a55	-0.00032694885
51	0xba1479b2	-0.0005663886
52	0x399870c9	0.0002907573
53	0xba25ce17	-0.000632496
54	0xba0deedf	-0.0005414318
55	0xb90218e0	-0.00012407033
56	0xba5a72ca	-0.0008333145
57	0xbacd7a41	-0.0015676693
58	0xb9bcd5be	-0.00036017405
59	0xb8c90d02	-9.58685e-05
60	0xbaa0cf35	-0.0012268784
61	0x39408760	0.00018360978
62	0xb93ca658	-0.00017991045
63	0xba844508	-0.0010091374

actor.0.weight f4 [64, 32, 3, 3]
0	0xbc9ee8a5	-0.019398043
1	0x3c75e5e2	0.015008422
2	0xbdd31044	-0.10305837
3	0xbdbd3e84	-0.092404395
4	0x3d3731c5	0.0447252
5	0x3c8bed5c	0.017080955
6	0x3cb29614	0.021800078
7	0xbde246ec	-0.110486835
8	0xbd785bc1	-0.06063438
9	0x3d8bceb1	0.06826533
10	0x3d5aa9ed	0.05338471
11	0xbd755111	-0.059891764
12	0x3c24fecd	0.010070515
13	0x3cfd25c5	0.030901799
14	0xbe31c4bc	-0.17360204
15	0x3dad8993	0.08473506
16	0x3d8be164	0.06830099
17	0x3e8ab853	0.27093753
18	0xbca89f58	-0.020583794
19	0xbd2e55c2	-0.042562254
20	0xbde87798	-0.11350936
21	0xbdb4564b	-0.088055216
22	0x3b8ec985	0.004357519
23	0x3b8ed61a	0.004359019
24	0xbdba10b9	-0.09085221
25	0x3d9ff6bf	0.07810735
26	0x3e33de42	0.17565253
27	0xbde203cd	-0.11035881
28	0xbdf44026	-0.11926298
29	0xbd7b2fb1	-0.06132478
30	0xbdafc41d	-0.085823275
31	0xbde60af8	-0.11232561
32	0xbdb7e672	-0.08979501
33	0x3e1fb382	0.1559582
34	0xbddd9d20	-0.10820985
35	0x3d6bb93e	0.057549708
36	0x3c9feb1c	0.019521289
37	0x3d8e29ca	0.069415644
38	0x3da0837d	0.078375794
39	0xbd35ba70	-0.044367254
40	0xbdbc4d3c	-0.09194419
41	0xbb976091	-0.004619666
42	0x3da30a6d	0.07960973
43	0xbd8f4966	-0.069964215
44	0x3d27da92	0.04097993
45	0xbdf77e3f	-0.120846264
46	0xbe1c27df	-0.15249585
47	0xba5f24ae	-0.00085122406
48	0xbc4f601a	-0.01265719
49	0x3a019f1c	0.00049446686
50	0x3d43b5a7	0.04778066
51	0x3bc8a3dc	0.006123049
52	0xbd713d95	-0.05889662
53	0x3d8f192d	0.06987224
54	0x3bbfef16	0.0058573587
55	0x3de9d69e	0.11417888
56	0xbe211e36	-0.15734181
57	0x3d6ce558	0.057835907
58	0xbba8ea72	-0.005154901
59	0x3d18ebf3	0.037334394
60	0x3a2c948e	0.00065834157
61	0x3c93d10c	0.018044017
62	0xbdb1f4bd	-0.08689258
63	0xbd061195	-0.03273161
64	0x3d22fe64	0.039793387
65	0x3ca64a54	0.020299114
66	0xbae9b961	-0.0017831736
67	0x3d9a5343	0.07535412
68	0x3db7911b	0.089632235
69	0x3d11eaa7	0.035624173
70	0xbd72d07b	-0.059280854
71	0xbd9fbd22	-0.07799746
72	0xbd8fab96	-0.07015149
73	0x3d8186b7	0.06324523
74	0x3da57d97	0.08080595
75	0xbe16a1ca	-0.14710155
76	0xbcbe5e69	-0.023238378
77	0xbd940775	-0.07227985
78	0xbd2cd2b3	-0.042193126
79	0x3dad935f	0.084753744
80	0x3bb4a850	0.0055132285
81	0x3daad2f6	0.08341019
82	0xbd984284	-0.07434562
83	0x3db8794b	0.0900751
84	0x3d06bac7	0.03289297
85	0x3c8f2a0b	0.017476102
86	0x3d1a981a	0.03774271
87	0x3bb5fd97	0.005553912
88	0xbc1bda14	-0.009512443
89	0x3d8e34f0	0.06943691
90	0xbccfcd13	-0.025366342
91	0x3d44c955	0.048043568
92	0x3db2d554	0.08732095
93	0xbe11aadb	-0.14225332
94	0xbcd4684e	-0.025928643
95	0xbd2253fc	-0.039630875
96	0xbd24aace	-0.040201955
97	0x3d4105a5	0.047124524
98	0xbbd6e48b	-0.006558006
99	0x3da4edbd	0.080531575
100	0xbd5f9441	-0.054584745
101	0xbd2feb0c	-0.042948768
102	0xb95b3bfd	-0.00020907815
103	0x3cdb2159	0.0267493
104	0x3d339383	0.04384185
105	0xbd890a2e	-0.06691395
106	0xbdca29bc	-0.098712415
107	0x3dd97293	0.106175564
108	0xbaa6325f	-0.0012679807
109	0x3c8f54f3	0.017496562
110	0x3dee12d4	0.11624685
111	0xbbfaf550	-0.007658638
112	0x3e3464a3	0.17616515
113	0xbe023a8d	-0.12717648
114	0xbe313793	-0.17306356
115	0xba5b50bc	-0.00083662174
116	0xbe1482b4	-0.14502984
117	0x3d7acf1c	0.06123267
118	0x3e12f00c	0.14349383
119	0x3ca7728d	0.020440364
120	0xbccab19b	-0.024742892
121	0x3db6093b	0.08888479
122	0x3c607949	0.013700792
123	0xbcd7c123	-0.026337212
124	0xbd72daf3	-0.059290837
125	0x3c1b447b	0.009476776
126	0x3dc2e812	0.0951692
127	0x3c8a9b40	0.016919732
128	0xbc96879b	-0.018375209
129	0x3e520077	0.2050799
130	0x3d5061d1	0.050874535
131	0x3db92637	0.09040492
132	0x3cb6df5b	0.022323301
133	0x3e4036ff	0.1877098
134	0x3dddd116	0.108308956
135	0x3d2faf4b	0.04289178
136	0xbc178b8a	-0.009249577
137	0xbc04b129	-0.008098879
138	0xbc0e43b4	-0.008683134
139	0xbda0c0c3	-0.078492664
140	0x3ddcf3d9	0.10788698
141	0xbd87a158	-0.06622571
142	0x3da5c7c9	0.080947466
143	0x3df2045a	0.11817236
144	0xbd0af264	-0.033922568
145	0xbd054dd7	-0.032544937
146	0x3ca81263	0.02051658
147	0xbe07cf27	-0.13262616
148	0x3d71f25f	0.059069034
149	0xbc044aa9	-0.008074441
150	0x3e25a93b	0.16177838
151	0xbd0c01b5	-0.034181315
152	0x3dc7670f	0.09736454
153	0xbdc36494	-0.09540668
154	0xbd05f220	-0.03270161
155	0x3d181314	0.03712757
156	0x3d9cdb7d	0.076590516
157	0xbb534241	-0.0032235535
158	0xbcfe79ff	-0.031064032
159	0x3d86ea75	0.06587688
160	0xbde7ca83	-0.11317923
161	0x3dd0149d	0.10160182
162	0xbdb8d617	-0.090252094
163	0x3ccd7f65	0.02508516
164	0xbcf60840	-0.03003323
165	0x3bf31fe8	0.007419575
166	0xbccccb2f	-0.02499923
167	0x3e174c14	0.14775115
168	0x3c6fe0de	0.014641015
169	0xbc5c3fab	-0.013442914
170	0x3d745a93	0.05965669
171	0x3e484cff	0.19560622
172	0x3d513e96	0.051085077
173	0x3c734b1c	0.01484945
174	0xbe45fdaf	-0.19335054
175	0x3d8b8935	0.068132795
176	0xbc6c7e78	-0.014434449
177	0x3e0ec779	0.1394328
178	0x3db0737a	0.086157754
179	0x3db47433	0.08811226
180	0xbd1e7342	-0.038684137
181	0xbd2cc207	-0.042177226
182	0xbd183ef4	-0.03716941
183	0xbc3249f7	-0.010881892
184	0x3e12a208	0.14319623
185	0x3db35220	0.087558985
186	0x3d939555	0.07206217
187	0x3da3fe9b	0.080075465
188	0xbe2a6f96	-0.16644129
189	0x3dca5978	0.09880346
190	0xbd0cb6c2	-0.03435398
191	0xbd434ba7	-0.04767957
192	0xbe24b348	-0.16084015
193	0x3b5a13cb	0.0033275958
194	0x3e27a786	0.16372499
195	0xbc7fc621	-0.015611202
196	0x3d4cb37e	0.049975865
197	0xbd5dd608	-0.054159194
198	0x3d0d817f	0.034547325
199	0x3b93e9b8	0.0045139454
200	0x3d583f70	0.052794874
201	0x3d5ec971	0.05439133
202	0xbd8aca50	-0.06776869
203	0x3d974091	0.07385362
204	0x3da6f607	0.08152395
205	0x3dcb294c	0.09919986
206	0xbcf1e250	-0.02952686
207	0x3c064f45	0.00819761
208	0xbd3df72f	-0.04637831
209	0xbd8eccb2	-0.06972636
210	0xbdad9be2	-0.08476998
211	0xbd26e3e8	-0.040744692
212	0xb8e662aa	-0.00010985632
213	0x3e0cf591	0.13765551
214	0x3e474eb6	0.1946362
215	0x3d574381	0.05255461
216	0xbd4dab97	-0.05021247
217	0x3d04f82b	0.032463234
218	0x3bca977f	0.0061826105
219	0x3dabd8c1	0.08390952
220	0xbe247e41	-0.16063787
221	0x3b24fa57	0.0025173628
222	0xbdd19fc2	-0.102355495
223	0x3d3b8f97	0.045791235
224	0x3d87c3c0	0.06629133
225	0xbcba4d76	-0.022742014
226	0x3d532ef0	0.051558435
227	0xbd7c9bfe	-0.061672203
228	0xbdd4fd97	-0.10399931
229	0x3e425254	0.18976718
230	0x3d15cb7e	0.03657102
231	0x3e3034f2	0.17207697
232	0x3ca615e7	0.020274116
233	0x3cc7b75b	0.024379423
234	0x3d9baf93	0.076018475
235	0xbdc9c9e6	-0.09852962
236	0x3e561680	0.2090702
237	0xbe51e396	-0.20496973
238	0xbc5934f3	-0.013257253
239	0x3cc84408	0.024446502
240	0xbdad78f4	-0.084703356
241	0x3c963b39	0.018338786
242	0xbdaebdf0	-0.085323215
243	0x3d5dcb31	0.054148857
244	0x3e0a04fe	0.13478467
245	0xbd76e217	-0.06027421
246	0x3d241739	0.04006121
247	0x3d89852d	0.067148544
248	0xbdc9c5e3	-0.09852197
249	0xbe01a34c	-0.12659949
250	0xbd8a2b1a	-0.06746502
251	0xbdf0c3a2	-0.11756064
252	0x3d6e5b6f	0.058192667
253	0x3c8607b8	0.016361102
254	0x3de1f4eb	0.110330425
255	0xbaddaafa	-0.0016911917

actor.0.bias f4 [32]
0	0x3ae3a57d	0.0017368045
1	0x3b44405e	0.0029945592
2	0x3ac1e17b	0.001479193
3	0x3a7f457c	0.0009737832
4	0x3988971c	0.00026052527
5	0xbb12f8d4	-0.0022426145
6	0x3a70805c	0.00091744005
7	0x3a2a13f1	0.0006487957
8	0xbb221352	-0.0024730754
9	0xba4ef6d6	-0.0007895058
10	0xbb1cff24	-0.0023955787
11	0xbb5d3b76	-0.0033757365
12	0x3ad90b6c	0.001655919
13	0x3a9e65ea	0.0012084816
14	0xbaa33d7f	-0.001245424
15	0xbafb461b	-0.0019170673
16	0xba7b475b	-0.0009585523
17	0xbb3dab7b	-0.0028941322
18	0xba40b805	-0.000735164
19	0xba0feffd	-0.0005490778
20	0x3a04ebb0	0.00050705206
21	0x3b2618c1	0.0025344344
22	0xbb16736e	-0.0022956985
23	0x3a8142fd	0.0009861883
24	0xb8395a96	-4.4191802e-05
25	0x3ac228ff	0.0014813243
26	0xba913e41	-0.0011081175
27	0x399a2a6e	0.00029404782
28	0xba7960a3	-0.0009512996
29	0x3a436f76	0.00074552686
30	0xb9ce1ce9	-0.00039312922
31	0xba3ac678	-0.0007124911

actor.2.weight f4 [32, 78, 3, 3]
0	0x3bc7635d	0.006084843
1	0xbceaba9c	-0.028653435
2	0x3bbcda5b	0.0057633347
3	0xbc66ec25	-0.014094387
4	0xbb15f1aa	-0.0022879639
5	0x3ddb076d	0.10694776
6	0x3d22721b	0.0396596
7	0x3d83d0f5	0.0643634
8	0xbafcf5a1	-0.0019299277
9	0x3c0e1787	0.008672602
10	0xbd482d20	-0.04887116
11	0xbd3672fd	-0.044543255
12	0x3d3218f4	0.04348083
13	0xbd6e33f6	-0.058155023
14	0xbb693afb	-0.0035588134
15	0x3d0f892f	0.035042938
16	0x3c0ad10e	0.008472694
17	0x3d19c529	0.037541542
18	0xbd882fe1	-0.06649757
19	0xbd7db464	-0.061939612
20	0x3d4568e0	0.04819572
21	0xbcce8321	-0.025209012
22	0x3dca8e05	0.09890369
23	0x3c30c771	0.010789738
24	0x3cdba778	0.026813254
25	0x3d8b9b14	0.06816688
26	0x3d1449ec	0.03620331
27	0xbc227c31	-0.009917305
28	0x3987fafa	0.000259362
29	0xbd4dcd10	-0.05024439
30	0xbd5f4987	-0.05451348
31	0xbc376d5a	-0.011195505
32	0x3d855b4d	0.06511555
33	0x3c1e537c	0.009663459
34	0x3dc026b2	0.093823805
35	0xbd6af6c7	-0.05736425
36	0xbd2e7654	-0.042593315
37	0xbddacdec	-0.10683808
38	0x3d479cd8	0.048733562
39	0xbda8c9f2	-0.08241643
40	0xbd1f7422	-0.038929112
41	0x3bdaa836	0.0066728843
42	0xbd4f5e19	-0.050626848
43	0xbdab366f	-0.08359992
44	0xbd0c45d2	-0.034246273
45	0xbc809814	-0.015697517
46	0xbcd075aa	-0.025446732
47	0x3d896eeb	0.06710609
48	0xbdcf7969	-0.10130579
49	0xbd800385	-0.06250671
50	0x3c0cacbf	0.008586108
51	0xbc174829	-0.009233513
52	0x3d5bd19d	0.0536667
53	0x3d1852f9	0.037188504
54	0xbcae7260	-0.021294773
55	0x3d860e29	0.065456696
56	0xbda4a2d9	-0.08038873
57	0x3da4c191	0.08044732
58	0x3d388c0e	0.04505544
59	0xbc4b49fd	-0.012407777
60	0xbc8c3d9b	-0.01711922
61	0xbcf3c76d	-0.02975818
62	0x3dc790b7	0.09744399
63	0x3b87364c	0.0041263457
64	0x3d681040	0.056656122
65	0xbd965d4b	-0.07342013
66	0x3c88168f	0.01661232
67	0x3ccbc547	0.024874343
68	0x3d52f8d1	0.05150682
69	0xbc05a113	-0.008156079
70	0x3d04454f	0.03229266
71	0xbb2fab5b	-0.0026805017
72	0xbd364da0	-0.044507623
73	0xbc870d6a	-0.016485889
74	0xbe0662ed	-0.13123675
75	0x3ab7f22e	0.0014033967
76	0xbd8cb5ea	-0.06870635
77	0xbce812c0	-0.028329253
78	0xba9dbabd	-0.0012033802
79	0x3d06ec36	0.032940112
80	0xbcd90006	-0.026489269
81	0x3c795382	0.015217664
82	0x3da41e12	0.08013548
83	0x3d46cbfa	0.04853437
84	0x3d1bcc73	0.038036775
85	0x3c112b75	0.008860459
86	0x3da15f04	0.07879451
87	0x3d106b93	0.03525884
88	0x3c9cefb9	0.019157277
89	0x3c48cbce	0.012255622
90	0x3d67f6db	0.056631904
91	0x3d8ca142	0.06866695
92	0xbd75cb32	-0.060008235
93	0x3d1186ec	0.035529062
94	0xbdc1d355	-0.094641365
95	0xbda90613	-0.08253112
96	0x3d2bd8e8	0.041954905
97	0x3d1c5619	0.038168047
98	0xbb52d3a3	-0.0032169602
99	0xbd91cbb0	-0.071189284
100	0x3d068baa	0.032848038
101	0xbcbb0fbc	-0.022834651
102	0xbca8c781	-0.020602943
103	0xbade3d61	-0.0016955548
104	0x3db77f2b	0.08959802
105	0x3da390f1	0.0798663
106	0x3d5cdfbe	0.053924315
107	0x3b955124	0.004556792
108	0xbcb11a52	-0.021618996
109	0x3c8c3982	0.017117266
110	0xbdba1e73	-0.09087839
111	0xbd2da712	-0.04239566
112	0xbddfa6a7	-0.10920458
113	0xbb249550	-0.0025113411
114	0x3d8763bd	0.066108204
115	0xbd1ed360	-0.0387758
116	0xbd004684	-0.03131725
117	0x3c30cfbb	0.010791714
118	0xbd8a1ab5	-0.06743375
119	0xbc5fa5f9	-0.013650411
120	0xbc0d3e24	-0.0086207725
121	0xbc8d5510	-0.017252475
122	0xba82fe5d	-0.0009994019
123	0xbd39ff73	-0.04540963
124	0xbd3f8d23	-0.046765458
125	0x3c9c0de3	0.01904959
126	0xbc8c1f1c	-0.017104678
127	0x3d7dcd27	0.061963227
128	0x3d1d56b9	0.038412783
129	0x3d3a6cd1	0.04551393
130	0xbd2f54fd	-0.04280566
131	0x3cb0c1f6	0.021576863
132	0xbc0f7dc1	-0.008758009
133	0x3dae62c5	0.085149325
134	0xbdb1b971	-0.08677948
135	0xbd377a35	-0.04479428
136	0xbd829662	-0.063763395
137	0x3d093e26	0.033506535
138	0xbd9148d4	-0.07093969
139	0xbc6069c3	-0.013697091
140	0xbd8925f8	-0.06696695
141	0xbd927a2c	-0.07152209
142	0xbb6eb6ae	-0.0036424804
143	0xbccbe9aa	-0.024891693
144	0x3cf7eeec	0.030265294
145	0x38e53100	0.00010928698
146	0x3d532d5f	0.05155694
147	0xbd8d5596	-0.0690109
148	0x3d34dc88	0.044155627
149	0x3d5f674f	0.054541882
150	0xbc755e4d	-0.014976096
151	0x3c57a487	0.013161785
152	0x3ce973dd	0.02849763
153	0xbcc85aa8	-0.02445729
154	0x3cbba16a	0.022904117
155	0x3d2e3639	0.04253218
156	0x3dd698ec	0.10478386
157	0x3c92fbac	0.017942272
158	0x3d953dd1	0.07287181
159	0xbd45401a	-0.048156835
160	0xbd371bc7	-0.044704225
161	0x3d77eea5	0.060530324
162	0x3ca1c7cd	0.019748593
163	0x3d17c473	0.037052583
164	0xbd1ba329	-0.0379974
165	0xbd34b760	-0.044120193
166	0xbdb90625	-0.09034375
167	0x3c5dd034	0.013538409
168	0x3cf2f9b0	0.029660076
169	0xbd249f34	-0.04019089
170	0x3cae730b	0.021295091
171	0x3d850a48	0.064961016
172	0xbc967545	-0.018366465
173	0x3c69e61a	0.014276052
174	0x3d2c76b4	0.04210539
175	0x3cf6f911	0.030148061
176	0xbd28516e	-0.041093282
177	0x3d234ac7	0.039866235
178	0xbd95ac86	-0.07308297
179	0xbd95887f	-0.07301425
180	0x3ce05f21	0.027389111
181	0x3d018836	0.03162404
182	0x3d2d99ed	0.042383123
183	0xbcd40301	-0.025880339
184	0x3ce61eca	0.028090853
185	0x3d621f82	0.05520583
186	0xbd38a1b6	-0.045076095
187	0xbcdc2ba0	-0.02687627
188	0x3c7fc9d4	0.015612084
189	0xbccc4dec	-0.0249395
190	0x3deb26bc	0.11481997
191	0xbd729b8b	-0.05923037
192	0x3cc1a67a	0.023638953
193	0x3dd32fca	0.103118494
194	0xbdaf0521	-0.085459
195	0xbd2a87a3	-0.04163326
196	0xbcbd979a	-0.023143578
197	0x3d7c376b	0.06157629
198	0xbd9439e2	-0.07237603
199	0x3cf87447	0.030328883
200	0xbd994938	-0.074846685
201	0xbc39fa16	-0.011351129
202	0x3daf52a3	0.085606836
203	0x3aba8999	0.0014231681
204	0x3c213be8	0.009840943
205	0xbd156bf9	-0.036479924
206	0xbca58e4a	-0.02020945
207	0x3c6d8be8	0.014498688
208	0x3dba7537	0.09104388
209	0x3c7178a9	0.01473824
210	0xbd141411	-0.03615195
211	0xbd8b0a89	-0.06789119
212	0x3c07b395	0.008282562
213	0x3cd2a5ae	0.025713768
214	0xbd3386d4	-0.043829754
215	0xbb9aa8ca	-0.0047198283
216	0xbd95e041	-0.07318164
217	0x3b22682d	0.0024781332
218	0x3cfcba80	0.030850649
219	0x3d7035b9	0.058644984
220	0xbd3a71d4	-0.04551871
221	0xbd945245	-0.07242254
222	0x3db3ca2c	0.087787956
223	0xbc9aeaa6	-0.018910717
224	0xbc2f7f2e	-0.010711474
225	0x3d1bf52d	0.038075615
226	0xbd1ee523	-0.03879274
227	0xbda3db32	-0.080007926
228	0x3d87590e	0.06608783
229	0xbd7f6af0	-0.062357843
230	0x3d0fd283	0.03511287
231	0xbdda76b0	-0.10667169
232	0xbd760d68	-0.06007138
233	0xbc2cb7bc	-0.010541853
234	0xbd9f1312	-0.07767309
235	0x3cff69c0	0.031178355
236	0x3cdab789	0.026698845
237	0x3cccdcb9	0.025007593
238	0x3cbcbf21	0.023040356
239	0x3df62809	0.12019355
240	0x3bf3715e	0.007429286
241	0x3d9ecd74	0.07754031
242	0xbd1654f2	-0.036702104
243	0xbc8256f6	-0.015910607
244	0xbcc5d1a9	-0.024147825
245	0x3d8c3124	0.0684531
246	0xbc182991	-0.009287254
247	0x3d5ade7c	0.053434834
248	0xbbd929b6	-0.006627287
249	0x3cb0d26d	0.021584714
250	0xbc702712	-0.014657753
251	0xbd819740	-0.06327677
252	0x3ccf8167	0.025330259
253	0x3c6b17a7	0.014348901
254	0xbc394d19	-0.011309885
255	0xbd44dce0	-0.048062205

actor.2.bias f4 [78]
0	0xb88d76bc	-6.74552e-05
1	0xbb64e182	-0.0034924452
2	0x3b4f77d9	0.0031657128
3	0x3b862159	0.004093331
4	0x3b85f949	0.004088555
5	0x3b0db132	0.002162051
6	0x3b332f26	0.0027341335
7	0xbb60cd93	-0.003430222
8	0xbb6ffa47	-0.0036617683
9	0x3b3c9586	0.0028775646
10	0x00000000	0.0
11	0x00000000	0.0
12	0x00000000	0.0
13	0x00000000	0.0
14	0x00000000	0.0
15	0x00000000	0.0
16	0x00000000	0.0
17	0x00000000	0.0
18	0x3a13bf2d	0.00056360924
19	0x3b226dd2	0.0024784696
20	0xbad78979	-0.0016444168
21	0xbb610a82	-0.0034338539
22	0x00000000	0.0
23	0x00000000	0.0
24	0x00000000	0.0
25	0x00000000	0.0
26	0x00000000	0.0
27	0x00000000	0.0
28	0x00000000	0.0
29	0x00000000	0.0
30	0x00000000	0.0
31	0x00000000	0.0
32	0x00000000	0.0
33	0x00000000	0.0
34	0x00000000	0.0
35	0x00000000	0.0
36	0x00000000	0.0
37	0x00000000	0.0
38	0x00000000	0.0
39	0x00000000	0.0
40	0x00000000	0.0
41	0x00000000	0.0
42	0x00000000	0.0
43	0x00000000	0.0
44	0x00000000	0.0
45	0x00000000	0.0
46	0x00000000	0.0
47	0x00000000	0.0
48	0x00000000	0.0
49	0x00000000	0.0
50	0x00000000	0.0
51	0x00000000	0.0
52	0xbb50d1f6	-0.0031863428
53	0x00000000	0.0
54	0xbb60ad23	-0.0034282885
55	0x00000000	0.0
56	0x00000000	0.0
57	0x00000000	0.0
58	0x00000000	0.0
59	0x00000000	0.0
60	0x3b64535a	0.003483972
61	0x00000000	0.0
62	0x00000000	0.0
63	0x00000000	0.0
64	0x00000000	0.0
65	0x00000000	0.0
66	0x00000000	0.0
67	0x00000000	0.0
68	0x00000000	0.0
69	0x00000000	0.0
70	0x00000000	0.0
71	0x00000000	0.0
72	0x00000000	0.0
73	0x00000000	0.0
74	0x00000000	0.0
75	0x00000000	0.0
76	0x00000000	0.0
77	0x00000000	0.0

critic.1.weight f4 [128, 1024]
0	0xbc5f1463	-0.0136157
1	0x3c678417	0.014130614
2	0x3d34317a	0.043992497
3	0xbd3af263	-0.045641314
4	0x3bced413	0.0063119023
5	0xbd8ccdee	-0.068752155
6	0x3a319cc3	0.00067753735
7	0x3c98072e	0.018558111
8	0x3db3d22f	0.08780324
9	0xbbf94af0	-0.00760781
10	0x3cc63db2	0.02419934
11	0xbd0e04bf	-0.034672495
12	0x3d2ce08c	0.042206332
13	0xbcdd5951	-0.027020128
14	0x3cd75f33	0.026290512
15	0x3d218697	0.039434996
16	0xbd3a02dd	-0.045412887
17	0xbca70482	-0.020387892
18	0x3d3ba31b	0.045809846
19	0xbdb0d619	-0.08634586
20	0xbcbd3d44	-0.023100503
21	0x3c8e8555	0.017397562
22	0x3ce61914	0.02808813
23	0x3c0384c7	0.008027262
24	0xbb916908	-0.0044375695
25	0xbd1fa820	-0.038978696
26	0xbc80b545	-0.015711436
27	0x3d799cad	0.060940433
28	0x3a4ba6f3	0.0007768713
29	0x3cb0e5d1	0.02159396
30	0xbc2fa677	-0.010720841
31	0xbd946913	-0.07246604
32	0xbcbec96b	-0.023289403
33	0xbd96df6b	-0.07366832
34	0x3dc7c64c	0.09754619
35	0x3d8cb761	0.06870914
36	0x3d8e43f6	0.06946556
37	0x3c9dcba7	0.019262148
38	0x3c29b881	0.010358931
39	0xbd1dcaa9	-0.03852335
40	0xbd0eb266	-0.034838103
41	0xbd3dae56	-0.046308838
42	0xbc803126	-0.015648436
43	0xbc117944	-0.00887901
44	0x3c8c6e92	0.017142568
45	0xbc25667c	-0.010095235
46	0xbbb09a84	-0.0053895134
47	0x3d536784	0.051612392
48	0xbc86089d	-0.016361529
49	0x3c917c2a	0.017759401
50	0x3d38c911	0.045113627
51	0xbd0f1ef8	-0.034941643
52	0x3d46636f	0.04843467
53	0x3e31e303	0.17371754
54	0x3c8b532d	0.017007435
55	0xbd9b2bd3	-0.07576718
56	0x3cacaf8b	0.0210798
57	0x3d34f885	0.04418232
58	0x3a4aae92	0.00077317015
59	0x3d04aa02	0.032388695
60	0x3d9d672f	0.07685696
61	0x3c4d9b7c	0.012549277
62	0xbc2a4430	-0.010392234
63	0x3c6b0a2a	0.014345685
64	0x3dec793b	0.115465604
65	0xbd548c03	-0.051891338
66	0x3c0f4365	0.008744095
67	0x3ca63814	0.020290412
68	0xbb9556c9	-0.0045574647
69	0x3d3d4f9d	0.046218503
70	0xbd3d94d7	-0.046284523
71	0x3b82d58a	0.003992741
72	0xbca6a800	-0.02034378
73	0x3b3d5fa0	0.0028896108
74	0xbd912ab1	-0.07088221
75	0xbcb1ab6f	-0.021688191
76	0xbc8febb4	-0.017568447
77	0x3d19d9b5	0.037561137
78	0xbc365a29	-0.011129894
79	0x3d05c3ac	0.03265731
80	0xbd05f744	-0.032706514
81	0x3d473c41	0.048641447
82	0xbd28ce3a	-0.041212298
83	0x3b144d18	0.002262896
84	0xbda0c401	-0.07849885
85	0xbb6a8e4a	-0.0035790377
86	0xbd69f56b	-0.057118814
87	0xbbbfef5f	-0.0058573927
88	0xbdc9cf3d	-0.09853981
89	0x3b404ab6	0.0029341406
90	0xbd1fe69a	-0.03903828
91	0x3d225052	0.03962738
92	0xbd0c12fb	-0.03419779
93	0xbba007b1	-0.0048837294
94	0x3bdddd74	0.006770784
95	0xbbf7f0dc	-0.0075665545
96	0xbbec266a	-0.0072067278
97	0x3d81153b	0.063028775
98	0x3d864ac8	0.06557232
99	0xbdb6bfdc	-0.08923313
100	0x3c0f9990	0.0087646395
101	0x3ae94b3d	0.0017798912
102	0xbda4ae6f	-0.08041083
103	0x3cc937cb	0.024562737
104	0x3cdaec3f	0.026723979
105	0xbcaafde2	-0.020873014
106	0xbc3d5e06	-0.011558061
107	0xbc89621c	-0.016770415
108	0x3d3dd62c	0.04634683
109	0x3c49b292	0.012310641
110	0x3c8dacb9	0.017294275
111	0x3d16afbb	0.036788683
112	0xbd1b6a97	-0.03794345
113	0x3d1155d7	0.035482254
114	0x3c761852	0.015020447
115	0x3cf933da	0.030420233
116	0xbcc1ef7e	-0.02367377
117	0x3b5a898b	0.0033346142
118	0x3cb04236	0.021515947
119	0xbd648a05	-0.05579569
120	0xbae8b737	-0.0017754798
121	0x3c34136a	0.010990957
122	0x3d082f1a	0.033248045
123	0x3c9b02b6	0.018922191
124	0x3d5b17d9	0.05348954
125	0x3cfd024c	0.030884884
126	0xba45fbeb	-0.00075524923
127	0x3ad9212c	0.0016565672
128	0x3c7d7b24	0.015471254
129	0x3d95e6db	0.07319423
130	0x3cad7a7e	0.021176573
131	0x3c761ef9	0.015022033
132	0x3c9ea84b	0.019367358
133	0x3cf2ca24	0.029637404
134	0xbc0dc059	-0.008651816
135	0xbc98b2a2	-0.018639866
136	0xbd12550c	-0.03572564
137	0x3cf33ab8	0.029691085
138	0xbd37f0b0	-0.04490727
139	0xbc376da3	-0.011195573
140	0x3dafc025	0.085815705
141	0x3ca21531	0.019785495
142	0xbd4c0404	-0.049808517
143	0xbc3a72fb	-0.011379953
144	0xbe062214	-0.13098937
145	0xbcaa9802	-0.020824436
146	0xbdb36897	-0.08760183
147	0x3d31c2ac	0.043398544
148	0x3d63ce62	0.055616744
149	0x3c71cd2e	0.014758391
150	0x3d066ba2	0.03281749
151	0x3caaa712	0.020831618
152	0x3d44bb44	0.048030153
153	0xbd883819	-0.06651325
154	0x3dc3f8bf	0.09568929
155	0x3d8bc3d4	0.068244606
156	0x3c63ad93	0.013896364
157	0x3c87ce3c	0.016577832
158	0x3d0e2680	0.034704685
159	0xbd544e67	-0.051832583
160	0xbcf20f79	-0.029548394
161	0xbd57ac67	-0.05265465
162	0x3ccddd39	0.025129901
163	0xbd295387	-0.041339424
164	0xbc815c50	-0.015791088
165	0xbcc1e7a7	-0.02367003
166	0xbcb5915a	-0.022164036
167	0x3dc63d54	0.09679666
168	0xbd897642	-0.06712009
169	0xbcab4ed5	-0.020911613
170	0x3bd6af82	0.006551684
171	0xbc821c00	-0.015882492
172	0x3d252cf0	0.04032606
173	0x3d032636	0.032018863
174	0xbc680ec3	-0.014163676
175	0xbc3916a6	-0.011296904
176	0xbd806860	-0.06269908
177	0x3d22861a	0.03967867
178	0x3c861edb	0.016372135
179	0xbd1a56b5	-0.037680347
180	0x3d98d82e	0.07463108
181	0x3e02c115	0.12768967
182	0xbd2eccf0	-0.042675912
183	0xbc8f4dc2	-0.017493133
184	0x3cfb4317	0.03067164
185	0xbc861ed2	-0.016372118
186	0xbcf99ef3	-0.0304713
187	0xbd2d9a35	-0.04238339
188	0xbcde80cb	-0.027161023
189	0xbdc629b7	-0.09675925
190	0xbd85332c	-0.06503901
191	0xbc44be18	-0.0120082125
192	0xbc82a071	-0.015945645
193	0x3c3dfea3	0.011596355
194	0xbd4eedb2	-0.050519653
195	0x3ad26669	0.0016052249
196	0xbc97ff9b	-0.0185545
197	0xbd083789	-0.033256087
198	0xbc88400e	-0.016632106
199	0xbd13422a	-0.03595177
200	0x3d2c85c5	0.04211976
201	0x3d0ea90d	0.03482919
202	0xbb05e8f8	-0.002043305
203	0xbb5a3976	-0.003329841
204	0x3c9ba49d	0.018999392
205	0x3c882f0b	0.016623994
206	0xbd3e7beb	-0.046504896
207	0x3d4cfb39	0.050044272
208	0x3dabf74e	0.08396779
209	0xbb6c3430	-0.0036041848
210	0xbbad89b0	-0.0052959546
211	0x3d1d7192	0.038438387
212	0x3bd652d5	0.006540636
213	0x3c8506ea	0.016238648
214	0x3b862d77	0.0040947753
215	0x3d1c7674	0.038198903
216	0xbcc4c215	-0.024018327
217	0x3cbf4e8a	0.02335288
218	0xbd164824	-0.036689892
219	0xbdbccd10	-0.092188
220	0x3d749b50	0.05971843
221	0xbc6afcef	-0.014342531
222	0x3d1fab4c	0.03898172
223	0x3db1b59d	0.08677218
224	0x3c941794	0.01807765
225	0x3b62ab76	0.0034587062
226	0x3cdc3287	0.026879562
227	0x3d09fd33	0.033688735
228	0xbd19d2f3	-0.037554692
229	0x3d81f702	0.06345941
230	0xbcf61634	-0.030039884
231	0xbc4ea019	-0.012611412
232	0x3d8081f2	0.06274785
233	0x3d984bb4	0.07436314
234	0xbc589a55	-0.013220389
235	0x3d708031	0.058716003
236	0xbcb255bc	-0.021769397
237	0x3cded3be	0.027200576
238	0x3c51dbb2	0.012808727
239	0xbd0f0906	-0.034920715
240	0xbd607df9	-0.054807637
241	0xbcb5c934	-0.022190668
242	0x3c0c6950	0.00857003
243	0xbcd67a44	-0.026181348
244	0xb8a4b8d9	-7.85456e-05
245	0xbdc1a3ea	-0.09455092
246	0xbccd9b65	-0.025098512
247	0x3ab48c84	0.0013774787
248	0x3d19cd5d	0.037549365
249	0x3d0dffca	0.034667768
250	0xbd2c4931	-0.04206199
251	0xbd10166c	-0.035177633
252	0xbcf10225	-0.029419968
253	0x3e1d69e3	0.15372424
254	0xbb9579c6	-0.0045616357
255	0xbde607cc	-0.11231956

critic.1.bias f4 [128]
0	0x39688c4a	0.00022177506
1	0xb9a6de48	-0.000318276
2	0x39021474	0.00012405385
3	0xb9054ef7	-0.00012713285
4	0xba2822e6	-0.00064138917
5	0xb85728cc	-5.129799e-05
6	0xb8ec770e	-0.000112755326
7	0x00000000	0.0
8	0x00000000	0.0
9	0x38fa00fa	0.00011921111
10	0xb9285f9c	-0.00016057346
11	0x38f6ef82	0.00011774806
12	0xb8b12696	-8.447205e-05
13	0xb98b31fb	-0.00026549384
14	0x38a574c0	7.8895595e-05
15	0x3926d691	0.00015910926
16	0x38f7cb2a	0.0001181572
17	0xb9f60047	-0.00046920983
18	0x3901041d	0.00012303931
19	0x38fc951e	0.000120440716
20	0x39d4eed9	0.00040613746
21	0x00000000	0.0
22	0xb908d42c	-0.00013049011
23	0x38fb9ef5	0.00011998221
24	0xb9fba9e2	-0.00048001023
25	0xb8b6d22f	-8.717586e-05
26	0x00000000	0.0
27	0x3900973a	0.00012263368
28	0x00000000	0.0
29	0x00000000	0.0
30	0x36820563	3.874929e-06
31	0xb90a88af	-0.00013211624
32	0x00000000	0.0
33	0x3a1a7fce	0.0005893678
34	0x38edd240	0.00011340203
35	0xb911b41f	-0.00013895378
36	0x38f90876	0.00011874821
37	0xba16ebd7	-0.0005757189
38	0xba27ac4c	-0.00063962187
39	0x38fed7e6	0.00012151878
40	0x00000000	0.0
41	0xba4ab550	-0.0007732706
42	0xba8bbff2	-0.0010662063
43	0x38a7bb2b	7.998043e-05
44	0xbaa596b6	-0.0012633416
45	0x3916037e	0.00014306416
46	0xb90be0da	-0.00013339837
47	0x00000000	0.0
48	0xba89bb4b	-0.0010508088
49	0x38dc8cd3	0.00010516648
50	0xbafbb5af	-0.0019203926
51	0xba0d5583	-0.00053914654
52	0x3901f1dc	0.00012392498
53	0x00000000	0.0
54	0x00000000	0.0
55	0xba28f8d7	-0.00064457714
56	0x00000000	0.0
57	0x00000000	0.0
58	0x38c0308c	9.164316e-05
59	0xb90c746b	-0.0001339481
60	0xb9a60d6d	-0.0003167199
61	0xb93aa707	-0.00017800565
62	0x38f82c7e	0.00011833849
63	0x00000000	0.0
64	0xb8b072ea	-8.4137384e-05
65	0x38fc0671	0.00012017496
66	0xb5126952	-5.45425e-07
67	0x38a9d3b7	8.097983e-05
68	0xb90e6199	-0.00013578533
69	0x00000000	0.0
70	0xba9b0726	-0.0011827692
71	0x00000000	0.0
72	0xba1deddc	-0.00060245185
73	0x38fc1fff	0.00012022256
74	0x3901b19f	0.00012368568
75	0x38321423	4.245726e-05
76	0xb98d8240	-0.0002699066
77	0x00000000	0.0
78	0xb8ee448f	-0.000113614944
79	0x00000000	0.0
80	0x38db9052	0.000104696155
81	0xb9225f3d	-0.00015485003
82	0xba2d3e14	-0.00066086766
83	0x38f4882f	0.00011660193
84	0xb8f2c4c4	-0.0001157611
85	0xb9ff6288	-0.00048710802
86	0xbab67618	-0.0013920693
87	0x00000000	0.0
88	0xb90c130e	-0.00013358539
89	0x00000000	0.0
90	0xb90e5508	-0.00013573852
91	0x00000000	0.0
92	0xba11f22c	-0.00055673975
93	0x00000000	0.0
94	0xb9c33f24	-0.00037240342
95	0x391b3fe5	0.00014805754
96	0xb7ff8074	-3.0458184e-05
97	0xb90a0e51	-0.00013166039
98	0x38fd3a53	0.00012074844
99	0x38f911c4	0.00011876554
100	0x3a05bb57	0.0005101463
101	0x38fa2fe8	0.00011929852
102	0xb90ccb50	-0.0001342718
103	0x39007dc1	0.00012253878
104	0xb91564ed	-0.00014247345
105	0x00000000	0.0
106	0xb98ae06b	-0.00026488616
107	0xb9265040	-0.00015860889
108	0x3941bb54	0.000184757
109	0xba59b2d6	-0.00083045417
110	0x00000000	0.0
111	0x389da46e	7.516971e-05
112	0xb966222d	-0.00021947241
113	0xbaff2e70	-0.0019468796
114	0xb90b6bc8	-0.00013296225
115	0x3a8c6fbe	0.0010714454
116	0x39ed5f17	0.0004527501
117	0x00000000	0.0
118	0x00000000	0.0
119	0xb9375271	-0.00017482952
120	0xb909eea5	-0.0001315424
121	0xb9108e39	-0.00013785892
122	0x38f957b9	0.00011889585
123	0x38af8e92	8.371206e-05
124	0xb90c8fdc	-0.00013405032
125	0xbb1862be	-0.0023252214
126	0x00000000	0.0
127	0xb90bebb0	-0.00013343873

critic.3.weight f4 [1, 128]
0	0x3cdbe571	0.026842805
1	0xbd1dd35b	-0.038531642
2	0x3e126998	0.14298093
3	0xbd905960	-0.07048297
4	0x3d08d695	0.033407766
5	0x3c5445cb	0.012956093
6	0xbe164ada	-0.14676991
7	0xbd832067	-0.06402665
8	0xbd39bfe5	-0.04534902
9	0x3dce4111	0.10071004
10	0xbc6e97b1	-0.014562533
11	0x3d5a77f8	0.053337067
12	0xbcca2558	-0.02467601
13	0x3e456c1d	0.19279523
14	0x3c361e4b	0.011115621
15	0xbd51bfaf	-0.051208194
16	0x3d6c9ebc	0.05776857
17	0xbc712a0b	-0.0147194965
18	0x3df8ca56	0.121479675
19	0x3dab43d3	0.08362546
20	0x3d9e3fe0	0.07727027
21	0x3d07c939	0.033150885
22	0xbe3625b6	-0.17787823
23	0x3d946c9b	0.07247277
24	0xbc149c88	-0.009070523
25	0x3d933f41	0.07189799
26	0xbceaedce	-0.028677847
27	0x3dae9e79	0.0852632
28	0x3e171f7a	0.14758101
29	0x3d9ea40a	0.07746132
30	0x3db7a649	0.08967263
31	0xbde949d1	-0.113910325
32	0x3bb02a33	0.0053761243
33	0xbba6c4fe	-0.0050894013
34	0x3d1d1bfa	0.03835676
35	0xbd1d5a51	-0.03841621
36	0x3d79d605	0.06099512
37	0xbddd2cf1	-0.107995875
38	0x3d1c0575	0.03809114
39	0x3dba5f48	0.09100205
40	0x3ccf6b8e	0.02531984
41	0xbad943e8	-0.0016576024
42	0x3e06312b	0.13104694
43	0x3e216e6e	0.15764782
44	0xbd33ba3d	-0.043878783
45	0x3de483f8	0.111579835
46	0xbdb8f9e1	-0.090320356
47	0xbd2b7e3b	-0.04186843
48	0x3dfe624a	0.12421091
49	0xbd56134c	-0.052264497
50	0x3ba012fe	0.0048850765
51	0xbdaeccf3	-0.08535185
52	0x3e143af7	0.14475618
53	0x3af41340	0.001862146
54	0xbc718f42	-0.014743628
55	0xbd9fe791	-0.0780784
56	0x3dc5c905	0.09657482
57	0xbdb2e57a	-0.087351754
58	0x3c75c28a	0.014999995
59	0xbda8c6ab	-0.08241018
60	0xbd56581e	-0.05233013
61	0xbc0d9129	-0.008640566
62	0x3d765643	0.06014086
63	0x3d980ca1	0.07424284
64	0xbdf0a1e0	-0.11749625
65	0x3d99c9b4	0.07509175
66	0xbb0a32b5	-0.0021087353
67	0x3d8f9240	0.07010317
68	0xbd7704bc	-0.06030725
69	0x3ce0f48e	0.027460363
70	0x3db024c3	0.08600762
71	0xbe29f63d	-0.16597839
72	0xbda2c263	-0.079472326
73	0x3d963bb8	0.07335609
74	0x3e0d051a	0.13771477
75	0x3bc90828	0.0061350055
76	0x3de2086d	0.11036763
77	0xb9726f3b	-0.00023120355
78	0x3b0027e7	0.0019555034
79	0x3e39d55f	0.18147801
80	0x3cbbcce2	0.022924844
81	0xbc841f01	-0.016128065
82	0x3d7ec2ab	0.06219737
83	0x3d48e7ca	0.049049176
84	0x3d8ea7c5	0.06965593
85	0x3da292ea	0.07938178
86	0x3e3a3ae7	0.18186532
87	0x3d4e8020	0.05041516
88	0xbd9bd970	-0.07609832
89	0x3d5e6cf0	0.05430311
90	0xbd6c7de8	-0.05773726
91	0xbc8585cb	-0.016299149
92	0x3dc15946	0.09440856
93	0xbcb5fcb5	-0.022215227
94	0xbd246776	-0.04013773
95	0x3e1fd1fa	0.15607443
96	0x3cc59ca5	0.024122545
97	0xbdfb9029	-0.12283356
98	0x3da948f8	0.08265871
99	0x3d809b70	0.06279647
100	0x3d78fee1	0.060789946
101	0x3d8ced81	0.06881238
102	0xbd7224a4	-0.059116974
103	0x3dd4e330	0.10394895
104	0xbd07eddc	-0.033185825
105	0xbe007b5f	-0.12547062
106	0xbcd04961	-0.025425615
107	0xbc7c9dbc	-0.015418466
108	0x3e25972a	0.16170946
109	0xbd98f385	-0.07468323
110	0xbcfee1e7	-0.031113578
111	0x3c259170	0.010105476
112	0xbe80a28f	-0.25124022
113	0x3e0ee18a	0.13953224
114	0xbdb77862	-0.08958508
115	0x3de1df08	0.11028868
116	0x3e14bc5b	0.14524977
117	0x3e30f400	0.17280579
118	0x3c210799	0.009828472
119	0xbdf4beb0	-0.11950433
120	0xbe035343	-0.1282473
121	0xbd4bdd40	-0.049771547
122	0x3d7f328a	0.062304057
123	0xbc89e661	-0.016833486
124	0xbd990971	-0.07472504
125	0x3e02e147	0.12781249
126	0xbda4383a	-0.08018537
127	0xbdadb445	-0.08481649
