experiments/ppo_hrl/models/MicroRTSGridModeVecEnv__ppo_utils__1__1721366908/12288/attack.pt (torch, 802531 bytes, 11 tensors)

encoder.1.weight f4 [32, 30, 3, 3]
000000 88 b2 53 3d 92 91 de 3b c5 a2 03 be 2f 49 d5 3d
       0.051683933 0.0067922557 -0.1285506 0.10414349
000010 bf 2e a3 bd 83 34 85 bc b0 0e 61 3b 2c 58 97 3d
       -0.079679005 -0.016260391 0.003434103 0.07389864
000020 70 59 7c bd 3e 0b 27 bd ff c9 21 bc 8e ac ad 3b
       -0.06160873 -0.040782206 -0.00987482 0.005300111
000030 06 5d 12 bd 9b 99 46 bd ca 9e e7 bc 3c 37 77 3d
       -0.035733245 -0.048486333 -0.028273959 0.06035541
000040 ab d3 94 bc 80 99 d3 bc db b6 05 3d a0 6d 1e 3c
       -0.018167337 -0.02583003 0.032645088 0.009669691
000050 cb 1d 2b 3d bf 83 17 be 15 67 5b bc a6 cc 9f bc
       0.04177646 -0.14796351 -0.013391276 -0.019506764
000060 e2 d0 3e 3c 3e 31 08 3d 6c 9b 32 3e 4a 53 8a 3d
       0.011646481 0.033250086 0.17442101 0.067541674
000070 92 93 76 3c 85 c2 21 bb 16 cf a9 bd 98 f7 be bd
       0.015049832 -0.0024682593 -0.08291452 -0.093245685
000080 f6 bc 1e be 54 85 fb 3c e7 8a 04 3d a9 72 ad bd
       -0.1550177 0.030703224 0.03235903 -0.08469135
000090 2d 98 f8 3c af 90 83 3d 06 f3 80 bd ef 78 66 bd
       0.030346 0.064240806 -0.06296353 -0.056267675
0000a0 aa af df bd 18 6c 1f bd 61 2d 3c 3d 93 66 bb bd
       -0.10922177 -0.038921446 0.045941714 -0.09150424
0000b0 a9 c5 79 3d 1b da 06 be 3b 57 13 3e 20 82 47 3d
       0.06097952 -0.13169138 0.14388745 0.04870808
0000c0 f6 22 9b 3b 4e 94 15 3d 84 4f 1b 3d 4b 3d f7 bc
       0.0047343923 0.036518387 0.03791763 -0.030180594
0000d0 6c 22 30 be 45 10 09 3e 54 3a a0 3d 82 4c fc 3c
       -0.17200631 0.13385113 0.07823625 0.0307982
0000e0 1e 2f 6f 3e 67 34 cc bd f6 50 b1 bc 8d fa 16 be
       0.23357818 -0.099709325 -0.02164505 -0.14744015
0000f0 90 21 0e bd b9 18 ff 3d fb 0b 87 bc a6 a9 29 bd
       -0.034699976 0.12455887 -0.016485205 -0.041421555
000100 17 94 56 bd 90 fe 0a 3d 7f d4 a6 ba f1 67 3b bc
       -0.052387323 0.033934176 -0.0012728124 -0.011438356
000110 37 22 0e 3d cd 53 ed 3c 4d 7f bf 3d 7b 5f 0c be
       0.0347006 0.028970623 0.093504526 -0.13708298
000120 7a ad 49 3e e7 4c ee bc 9b 45 bc bd e0 2a a2 bd
       0.19695082 -0.029089404 -0.09192964 -0.07918334
000130 3a af 85 bd 6b 14 f4 3c 23 9f 47 bd f4 50 60 be
       -0.065275624 0.029794892 -0.04873575 -0.21905881
000140 03 c0 a8 bd 58 6d 45 be 66 6e fa 3c 3c bc 88 3d
       -0.08239748 -0.19279993 0.03057022 0.06676528
000150 04 61 c2 3c 64 0a c4 3c b0 1e a2 3d 66 77 23 bd
       0.023727901 0.023930736 0.079160094 -0.03990879
000160 19 f5 94 3d 31 3a 1d bd 1d 31 9b bd 47 09 9a 3c
       0.07273311 -0.038385574 -0.07577727 0.018803252
000170 fe cd 7d 3d 02 49 33 3e 24 6a 7d 3d 5a 43 f1 3d
       0.061964028 0.17508319 0.0618688 0.117804244
000180 f0 56 af 3d 19 e6 d1 3c 1e d2 7d 3d ce fb b1 3d
       0.08561504 0.025622414 0.06196796 0.08690606
000190 95 ac 4a 3d 33 14 8d 3d da a6 03 3e 0e 9a c5 bd
       0.049480993 0.06888618 0.12856618 -0.09648524
0001a0 8c 58 00 3c f9 03 e2 3b 0a 6c 61 3e bf e8 5d bc
       0.007833611 0.0068974462 0.2201387 -0.0135442605
0001b0 1c 03 ab bc fc df ff bd e4 9e ae bd a1 3b 8b ba
       -0.020875506 -0.124938935 -0.085264 -0.0010622629
0001c0 23 59 a0 bd b3 50 9b bc 9b f8 85 bd cb 8a 97 bd
       -0.078295015 -0.018959379 -0.06541558 -0.073995195
0001d0 6c eb 57 3d 91 d4 01 bd 66 25 4c 3d 06 4c ac 3d
       0.05271475 -0.03169686 0.049840353 0.08412938
0001e0 17 7f 06 be 42 29 8d bc 8d a2 05 3d 8f 5d 10 be
       -0.13134418 -0.017231587 0.032625724 -0.1409819
0001f0 50 79 03 be 8d 8b 0f 3d 93 f4 42 bd 6f a8 b1 3d
       -0.12839246 0.035045195 -0.047596525 0.08674704
000200 e2 0d 4d 3e 8d 0a 85 bd 75 e8 d1 3c 3d 24 64 bc
       0.20024827 -0.06496153 0.02562354 -0.0139246555
000210 18 07 fd bc e4 51 b1 3d 20 c5 77 3d 0a 47 92 3d
       -0.030887172 0.086581975 0.060490727 0.07142456
000220 c5 e7 6e bd 77 26 d9 bd c0 9f 12 3e b2 0b e1 3d
       -0.0583265 -0.1060304 0.14318752 0.10988559
000230 4e d4 02 3d 9b 8d 8b bd 24 6e 08 bd 7b 1d e1 3d
       0.03194075 -0.068141185 -0.033308163 0.10991951
000240 f6 2c b2 bd 44 2a 12 bc 38 cc 14 38 30 59 e0 b9
       -0.08699982 -0.00892121 3.5476143e-05 -0.0004279106
000250 a5 18 e2 bc 9c ee c0 3d 2b 4f a3 3c a5 bd 8a 3d
       -0.027599642 0.09420511 0.019935211 0.06774453
000260 04 42 54 bd 68 41 71 3e 1f bd 80 3c 17 f7 1b bd
       -0.05182077 0.23560107 0.01571518 -0.03807744
000270 9d 3c 13 3c e1 6d 00 3d 91 84 6d 3d 69 af 1f 3e
       0.008986619 0.03135479 0.057987753 0.15594257
000280 b9 26 45 bd b5 32 a9 bd 5d 74 e6 bb 15 f9 35 3b
       -0.048132632 -0.08261625 -0.0070329146 0.0027766873
000290 03 f4 c8 3c 2a 32 37 3d e1 da 43 bd 3c 66 e1 bd
       0.024530416 0.044725575 -0.04781616 -0.11005828
0002a0 8a 2c 60 3c 63 6e 8b bb 2b 26 9e bd ec 5a 38 bd
       0.013682494 -0.0042551025 -0.07722124 -0.045008585
0002b0 ed 68 97 bd 71 4d d2 bd 70 e0 83 3b 87 d5 e2 bd
       -0.0739306 -0.10268677 0.004024558 -0.11075883
0002c0 aa 35 8c bc 32 58 af 3d 08 d4 c2 3d 6a dc 17 3e
       -0.017115433 0.08561744 0.09513098 0.14830175
0002d0 6c ee 2b 3e 2d af 06 3d 6a 56 af 3d a5 23 f6 3c
       0.1679017 0.032881904 0.08561404 0.030046294
0002e0 6a 03 80 3d dd aa d9 3c 1e 5d ea 3c a4 84 2f 38
       0.06250651 0.026570732 0.028608855 4.1846783e-05
0002f0 4d 40 81 3c ab 21 a3 3d 01 8c b9 ba d0 cf d7 bc
       0.015777731 0.07965406 -0.0014156104 -0.02634421
000300 5a 75 10 bc c7 99 07 bd ae 41 81 bc 53 2b 23 bd
       -0.008817041 -0.033105638 -0.015778389 -0.03983624
000310 62 71 fc 3c 8c 28 2a 3d e4 64 a3 bc 7e 06 02 3d
       0.030815784 0.041542575 -0.01994557 0.031744473
000320 8c 76 61 3d ad 34 f1 3d 17 58 28 be 31 16 12 be
       0.055044696 0.11777625 -0.16439854 -0.14266278
000330 70 01 5a 3e 5f b2 3d 3d 21 8c 8a 3d cd 0a 0c bc
       0.21289611 0.046312686 0.06765009 -0.008547497
000340 ce fb df 3d d5 43 1c bc 46 69 a0 3d 51 40 ef bb
       0.109367 -0.009537657 0.07832579 -0.0073013683
000350 3f 4e 74 3c d0 d5 2d 3e 53 69 48 3c 54 1e 8c be
       0.014911233 0.16976094 0.0122321425 -0.2736689
000360 fd bf 70 bd 10 3f 92 bd ac 16 05 bd b5 45 31 3d
       -0.058776844 -0.071409345 -0.032492325 0.04327937
000370 48 c9 27 bd 8f 71 ec bd 1d 32 1e 3e 3c 24 59 3d
       -0.04096344 -0.11545097 0.15448804 0.05301307
000380 32 48 04 be 21 fb 67 3d ed f3 93 bd 54 e5 60 3c
       -0.12918165 0.05663598 -0.072242595 0.013726551
000390 0c bc 29 3d 92 45 05 be 09 11 d2 bc aa 23 49 bd
       0.0414391 -0.1301482 -0.025642889 -0.049106278
0003a0 be 93 09 be 55 09 ec 3d 92 0d 81 bc ee ea 30 bd
       -0.13435265 0.115252174 -0.015753541 -0.043192796
0003b0 22 f7 44 3e 25 89 7e 3c cd d7 8f 3c a2 13 c8 bb
       0.19234899 0.0155356275 0.017558957 -0.006105856
0003c0 7a 1f 49 bd 45 f7 67 3d 1f db ce 3d 04 07 b9 3d
       -0.049102284 0.0566323 0.10100388 0.09034541
0003d0 d1 33 f2 3c 6c 89 9c bc f4 cb 51 3d a3 4a 0f be
       0.029565724 -0.019108497 0.051219895 -0.13993315
0003e0 3a 11 99 3e 07 99 05 3d e6 c4 f2 bd 5d 7d 40 3d
       0.29895955 0.03261664 -0.11853962 0.046994556
0003f0 07 95 73 3d fc c9 bb 3d b7 f9 e1 3c 28 e2 8e 3c
       0.059468295 0.09169385 0.027584894 0.017441824

encoder.1.bias f4 [32]
000000 98 01 d6 ba ce ad 0a 3a 76 5d ea ba 05 bf 6b bb
       -0.0016327379 0.0005290181 -0.0017880637 -0.003597201
000010 0a c6 42 3a bc a3 4f 3a 20 4f 0e bb 30 bc 21 b9
       0.0007430023 0.00079208217 -0.0021714643 -0.00015424262
000020 de b7 b9 ba 89 bc cc ba b9 3d 54 3b ef 06 21 ba
       -0.0014169177 -0.0015620153 0.0032385422 -0.0006142696
000030 df 92 3d ba 61 e2 a4 ba 8a aa 26 bb 3f 74 02 bb
       -0.00072316633 -0.0012579673 -0.002543124 -0.0019905714
000040 d2 e1 3b bb 58 99 d2 b9 9b e3 d2 3a e0 d5 a8 b9
       -0.0028668535 -0.0004016857 0.001608956 -0.00032202806
000050 c0 4c ab ba c2 79 1c bb c2 93 0e 3a 99 6b 25 ba
       -0.0013069138 -0.0023876284 0.0005438888 -0.0006310284
000060 3b bf 31 3b c9 6c 2c ba 62 d8 29 ba ab 59 40 ba
       0.002712204 -0.00065774895 -0.0006479082 -0.00073375803
000070 82 e3 47 ba 3c ca 05 3b 90 64 b6 b9 8e 12 fb 3a
       -0.0007625149 0.002041473 -0.0003478867 0.001915531

encoder.4.weight f4 [64, 32, 3, 3]
000000 49 75 a5 3d a7 3d 2c 3d bc 3d 12 be 45 cf 0c bd
       0.08079011 0.042050984 -0.14281362 -0.034377355
000010 a9 0a de bc af e4 5e bd 95 8e b9 3a 6b f8 fa 3d
       -0.027104693 -0.05441731 0.0014156873 0.12254413
000020 fe 16 be 3c 27 c3 85 bd 72 63 41 3e 26 00 22 3e
       0.023204323 -0.06531363 0.18885592 0.15820369
000030 9e d4 02 3e 28 97 22 bd 79 75 34 3c ee be 8a bd
       0.1277642 -0.039694935 0.011014336 -0.06774698
000040 cd b0 ec bc 72 7f df 3c 78 4c ec bd 9d a6 97 3d
       -0.028892899 0.02728245 -0.11538023 0.07404826
000050 e4 87 c9 bb 79 2e f6 3d 02 a8 dc bc 31 6e 1b bd
       -0.0061502326 0.12020583 -0.026935581 -0.037946884
000060 b5 6c 0a 3d 71 0c 4f bd aa 8d a8 bd be 2e 29 3d
       0.033795077 -0.050548974 -0.08230145 0.041304342
000070 9e 71 a1 3c 64 05 48 be 1d fe bf 3c 80 fe bd bd
       0.019707497 -0.19533306 0.0234366 -0.09277058
000080 04 89 00 be 7f ef d2 3d 6e b5 22 3a d4 a5 76 bc
       -0.12552267 0.102995865 0.00062068447 -0.015054185
000090 d9 de 5c 3c 0e e8 03 bd 9c eb aa 3d 8d a6 a9 bd
       0.013480865 -0.032203726 0.0834572 -0.0828372
0000a0 07 9d 8b bd 7e b1 6a 3e c9 d7 10 bd d5 66 26 3c
       -0.0681706 0.2291927 -0.03536204 0.010156353
0000b0 2f 65 ca bb f4 c8 e4 3d 20 e8 f8 bd 79 f1 af bd
       -0.006176613 0.11171141 -0.12153649 -0.08590979
0000c0 06 83 f6 bd 16 44 cd bd b1 d6 b7 bd 19 44 fa bb
       -0.120367095 -0.10022752 -0.08976496 -0.0076375124
0000d0 71 7f 27 bb 8b 3a 76 bd 92 d7 da 3d 7b a2 97 3d
       -0.0025558139 -0.060114425 0.10685648 0.074040376
0000e0 6f 93 91 3c 87 3e eb bd af 9c ec 3c 67 75 5d 3d
       0.017770497 -0.114865355 0.028883306 0.05406704
0000f0 7a fc 0b bc 40 81 0d 3e 0e 10 ff bc 36 7d 21 3d
       -0.008544082 0.13818836 -0.031135585 0.03942605
000100 ea 6a fc bd c1 31 20 3d 59 3b 08 bc c5 79 d9 bc
       -0.1232508 0.03910995 -0.008314931 -0.026547322
000110 17 94 b4 bd 49 69 11 3d 17 f6 2a bd 83 b2 39 bc
       -0.088173084 0.0355008 -0.041738596 -0.011334064
000120 be 15 ec 3d 30 f5 ac 3c 19 88 50 3c 9d a9 9b bc
       0.115275845 0.021113008 0.012727761 -0.019001776
000130 2f 5d 33 bd 0b 4e 08 3d e2 26 88 3b d1 0d 70 3b
       -0.04379004 0.033277553 0.004155026 0.003662933
000140 7d 2a d4 bb bc 7c bd bd 22 a2 ce 3d ac 44 dd bd
       -0.0064747916 -0.09252307 0.10089518 -0.10804114
000150 7e 91 de bd 82 45 d7 3c 89 d1 34 be 66 5b ef 3d
       -0.10867594 0.026278261 -0.17658056 0.11687355
000160 3e 67 77 bd 5f 9c a4 3b 07 67 58 bd c9 03 17 bc
       -0.060401194 0.0050235237 -0.05283263 -0.009217211
000170 6a 52 bb bd c2 67 e6 bc 52 35 73 3d 5d 26 cf bc
       -0.091465786 -0.028125647 0.059377022 -0.025286848
000180 6f 2c 51 bd fa 84 b0 3d 05 a6 8d bb bb e6 ab 3c
       -0.051067766 0.08619113 -0.0043227696 0.020984044
000190 a9 02 84 3d d0 ec 0d be a0 98 79 3d 33 49 3f 3d
       0.0644582 -0.13859868 0.06093657 0.046700668
0001a0 e8 12 8e bd 93 ae ea bd a4 fb 1b bd 0d 7a 94 3b
       -0.069372 -0.11459079 -0.03808178 0.004531151
0001b0 88 b9 c6 bd 62 8a 64 bc 18 0e 19 3d fa 22 e4 bd
       -0.09703356 -0.013949009 0.037366956 -0.11139484
0001c0 b8 01 86 bd ca 89 ac 3d ca ca ae bd 3f aa af bd
       -0.065432966 0.08424719 -0.08534773 -0.08577394
0001d0 b0 28 07 bc 40 4f c1 bd 13 93 a3 bd 87 69 9e bd
       -0.008249447 -0.09438944 -0.079870366 -0.077349715
0001e0 74 62 dc bd a9 70 56 bd 2c d3 3f 3c d5 d4 72 bc
       -0.10760966 -0.052353535 0.011708062 -0.014821251
0001f0 06 8e 8d bc c3 48 e5 3c a7 92 91 bd 66 5f 12 3e
       -0.017279636 0.027988797 -0.0710805 0.14294204
000200 2b f4 35 bc 39 92 3f 3d ad f9 90 3d a7 0e e1 bd
       -0.011105577 0.04677031 0.07078872 -0.10989123
000210 64 f2 30 bd 8b 80 2a bc d5 c1 cf bd 5b 83 ca bd
       -0.04319991 -0.010406624 -0.101443924 -0.09888335
000220 65 31 a0 3d c6 18 69 bd 4d f3 80 bd 36 20 f5 3d
       0.07821921 -0.05690839 -0.06296406 0.119690344
000230 ad c5 39 bd 7c b8 ad bd 27 25 d1 3d f8 3b 52 3b
       -0.045354534 -0.08482453 0.10212164 0.0032079201
000240 e8 aa 06 be 33 1b 97 3d 0e f4 88 bd 07 1a 6c bc
       -0.13151133 0.07378235 -0.06687175 -0.014410502
000250 8c 68 51 bd 4b ec 00 be 6b c6 5b 3d 41 53 2b 3e
       -0.051125094 -0.12590139 0.053656023 0.16730978
000260 8c 09 79 3c d4 bc 25 be 68 47 a7 3d dc fc 1d 3e
       0.01520003 -0.16185313 0.081679165 0.1542849
000270 61 d8 01 bc 3a bf 6c 3d a2 41 f1 bd b4 42 6d be
       -0.007925124 0.057799555 -0.117800966 -0.23169976
000280 07 db 2d 39 e1 46 a3 bd 1d 76 13 be 97 ed 02 be
       0.0001658016 -0.079725035 -0.14400525 -0.12785946
000290 15 ad 0e be a5 de a7 bd a9 05 c1 bd 17 d7 89 3c
       -0.13933213 -0.08196763 -0.09424908 0.016826196
0002a0 f6 92 f6 bd ec 38 ba bd 4a c0 6f 3d fe ba cc bc
       -0.12039749 -0.09092888 0.05853299 -0.024991509
0002b0 4a b6 b8 3c 95 38 9a 3c 33 64 9f bd c5 2e 88 bd
       0.02254786 0.018825809 -0.07782783 -0.066495456
0002c0 21 a6 c9 bc 18 de 0a be 5d 8a 8a 3d 4c 05 12 bb
       -0.02461535 -0.13561285 0.06764672 -0.002228099
0002d0 a4 5d a7 3d d9 f6 7a 3d 2d d6 1c 3d ae d0 8c bd
       0.081721574 0.06127057 0.03829019 -0.0687574
0002e0 d9 2f 57 3c b6 4b de 3d 06 a9 05 be 9f 87 02 3e
       0.013133966 0.108542845 -0.13052759 0.12747048
0002f0 02 43 d4 bd 12 15 66 3d 2d 57 3e bd c0 e2 7b 3c
       -0.10364343 0.056172438 -0.046469856 0.015373886
000300 c8 34 12 3e 13 19 92 bd 26 8f 40 be 56 18 7e 3c
       0.14277947 -0.07133689 -0.18804607 0.015508732
000310 48 45 a4 bd 14 7b 97 3d f2 00 17 3c fa 28 ae bd
       -0.08021027 0.07396522 0.009216534 -0.085039094
000320 cd 3c 1e be 11 8e 4b bd 38 9a 8c 3c 24 23 1b bd
       -0.15452881 -0.049696032 0.017163381 -0.03787531
000330 3a ca 1a be a4 4e 6d bc ee bf ca 3d 60 7e 75 3c
       -0.15116206 -0.014484081 0.09899889 0.014983743
000340 82 08 12 3d 58 c3 5b 3d 64 48 74 bd 05 e3 d9 bd
       0.035652645 0.05365309 -0.05963935 -0.10639004
000350 0a 3a cc 3d 54 81 a7 3e 37 e3 bc 3b 3d b7 15 3e
       0.099720076 0.32715857 0.005764391 0.14620681
000360 c6 2d 12 be 45 31 22 3d bc 9f 8b bb 42 fc aa bd
       -0.14275274 0.03959777 -0.004260985 -0.083488956
000370 9c 45 12 3d b2 b9 a6 bd 48 9f 14 bc 93 88 b3 3d
       0.035710916 -0.08140887 -0.009071179 0.08766284
000380 9a fc 5a 3d e5 8e c3 bd e8 98 09 3d 63 f3 54 bc
       0.053463556 -0.09548739 0.03359309 -0.012997481
000390 89 14 df 3c 8d 53 63 bd 64 84 8e bd 8d c4 33 3c
       0.027231472 -0.055499602 -0.06958845 0.010972154
0003a0 38 10 64 bd 1a 09 fc 3d 41 d3 f5 3b e7 47 45 3d
       -0.05567953 0.123064235 0.00750199 0.048164275
0003b0 b8 08 78 bd c4 7a 93 bd c0 6e c9 bd 1b 89 7f bc
       -0.06055519 -0.0720115 -0.09835577 -0.015596653
0003c0 e9 00 47 bd 34 24 0f be 76 86 bd 3c 29 ca c6 3d
       -0.048584852 -0.13978654 0.023135405 0.09706528
0003d0 7a 4f e0 3d 3a ec 06 3e 56 af 80 3d a4 e9 e4 3d
       0.10952659 0.13176051 0.06283443 0.11177376
0003e0 db 5d 15 3c a1 8b 9f bd 01 14 a3 3d bb db be 3c
       0.009116615 -0.07790304 0.079628 0.023298135
0003f0 0f 09 c3 3c 1e 28 1e be 5f 39 54 bd de a2 db 3c
       0.02380803 -0.15444991 -0.051812526 0.02681106

encoder.4.bias f4 [64]
000000 00 00 00 00 94 94 ba ba d7 0b 55 ba 9a f1 24 3a
       0.0 -0.0014234954 -0.00081270694 0.0006292105
000010 d6 f2 e9 ba 60 47 58 ba 52 07 2c ba 92 ec 0c bb
       -0.001784886 -0.0008250382 -0.000656237 -0.0021503312
000020 f7 86 17 39 24 0b 67 3a 37 ba 9d 39 98 76 0f ba
       0.0001445076 0.0008813611 0.00030084114 -0.0005472689
000030 21 63 3d ba e8 c6 d0 b9 98 c8 cf b9 b1 c3 f0 ba
       -0.0007224549 -0.00039821048 -0.0003963157 -0.0018368867
000040 05 04 5e b9 88 24 e0 b9 e2 d2 d7 ba a2 5b 92 39
       -0.00021173067 -0.00042751827 -0.0016466046 0.00027915562
000050 45 26 03 38 fc a6 bb 39 d2 30 e1 b9 cb 17 91 39
       3.1268475e-05 0.00035791832 -0.00042951718 0.00027674282
000060 c1 8c 2e 3b 1e bf d8 39 8f c6 42 3a 42 4c 26 ba
       0.0026634189 0.00041341124 0.00074301 -0.0006343761
000070 a9 14 41 ba 80 10 d2 b9 ff 93 08 bb 1f cb 27 ba
       -0.00073654443 -0.00040066615 -0.0020840166 -0.0006400812
000080 42 96 c5 ba 79 e5 54 ba 67 77 12 b9 00 00 00 00
       -0.0015074688 -0.00081213523 -0.00013968126 0.0
000090 4c e0 85 3a fd 3a 0f bb 6c 1a 13 39 3b a1 d8 b9
       0.001021394 -0.0021855228 0.00014028855 -0.00041318857
0000a0 00 00 00 00 44 74 d3 b8 1f 96 ad 39 1c 78 10 ba
       0.0 -0.0001008292 0.0003310898 -0.0005511062
0000b0 a0 2d 56 ba 19 ee 0b bb 1d ef 29 ba a5 ed 98 b9
       -0.0008170251 -0.0021351634 -0.0006482469 -0.00029168758
0000c0 9c 72 0f ba 5e e4 c6 ba b0 60 61 b9 56 cd 1a b9
       -0.0005472095 -0.001517426 -0.00021493691 -0.00014763078
0000d0 a7 11 01 ba 00 00 00 00 50 31 53 ba 7a be 28 ba
       -0.000492359 0.0 -0.00080563594 -0.00064370746
0000e0 02 05 48 b8 b3 6e f4 38 c5 9c 65 38 81 28 69 39
       -4.768838e-05 0.00011655446 5.4743858e-05 0.000222357
0000f0 4f 14 5d ba e7 e1 c4 ba 45 75 fc 39 ee b0 8f b8
       -0.0008433507 -0.0015020937 0.00048152558 -6.851727e-05

actor.0.weight f4 [64, 32, 3, 3]
000000 ac b5 aa 3c 5f a3 9f bd 81 a6 7e bd 09 a2 87 bd
       0.020838581 -0.077948324 -0.06217051 -0.06622703
000010 35 81 16 3c cd b7 3f 3c af 5c 5b 3d d0 1b 7d 3d
       0.009186079 0.011701536 0.053555187 0.061794102
000020 b4 e0 d1 bd 35 8b bf 3c 29 cb b5 3b 1f 8d ca bc
       -0.10247937 0.023381809 0.0055479 -0.024725495
000030 4c f9 d8 3c fa 54 0e 3c 72 8d 90 bd 64 06 39 bd
       0.026486062 0.008687252 -0.070582286 -0.04517211
000040 0d a2 41 3c 28 5b f7 bc bb 6f 8f ba bf 04 84 3c
       0.011818421 -0.030194834 -0.0010943332 0.016115544
000050 be 36 85 3a ec ba 87 3d b5 52 dc bd 2f 9f 8d 3d
       0.0010163409 0.066274494 -0.107579626 0.069151275
000060 94 1f 19 be 68 16 76 3d b7 0b c4 3d 21 74 c3 3d
       -0.14953452 0.060079962 0.09572547 0.09543634
000070 8b 9c 32 3b 1a fd d8 3d 44 42 4e 3d 67 0d 8e bb
       0.0027253951 0.1059515 0.050356165 -0.004335094
000080 21 cc 1a be 8f ec af 3d 1a 1d 1c 3d 34 0e 4c 3d
       -0.15116931 0.08590042 0.03811369 0.049818233
000090 e5 58 33 3e 70 69 f5 bc 47 f4 2d be 86 f0 af bd
       0.1751438 -0.029957503 -0.16987716 -0.08590798
0000a0 84 81 c4 3a b7 72 f3 3c ff 78 d1 bd dc 47 d1 3d
       0.0014992212 0.029717786 -0.10228156 0.10218784
0000b0 94 8c 11 3e b1 7e 3d bd 15 5a dc 3c d4 ac ce 3d
       0.14213783 -0.0462634 0.026898423 0.10091558
0000c0 0d 55 b5 3d 4b 55 0e 3c 43 a3 29 3d cd 6c 20 3c
       0.08854113 0.008687328 0.041415464 0.009791565
0000d0 de 7d 83 3d 40 21 00 3e 0a a5 32 3d e7 ed 9c 3d
       0.06420492 0.12512684 0.043614425 0.07662564
0000e0 ca 26 23 bd 22 b7 94 3d d5 17 2b bd c9 28 59 3d
       -0.039831914 0.07261492 -0.041770775 0.05301741
0000f0 9c 26 af bc a2 15 b2 bb 70 ca 72 bc c9 45 12 bd
       -0.021380715 -0.0054347077 -0.014818773 -0.035711084
000100 a2 b1 a7 3d 49 08 1a be 90 64 28 3e 09 31 8a 3b
       0.08188178 -0.15042223 0.16444612 0.004217271
000110 2b e6 00 be 79 68 21 3e 62 f0 23 bd 3c bd 4c 3b
       -0.12587802 0.1576251 -0.04002417 0.0031240722
000120 b2 1b 8f 3d 6c 35 10 3d 0f 55 ab 3d 78 16 d2 bd
       0.06987704 0.035207197 0.08365833 -0.10258192
000130 68 4a a0 3d 81 96 51 3d 36 8c 47 3d 06 72 43 bd
       0.07826692 0.051168922 0.0487177 -0.047716163
000140 81 c1 c8 ba 33 7b c0 3c 76 a5 7a bc 6a 2a 59 bd
       -0.0015316458 0.023496246 -0.015298238 -0.053018965
000150 df 92 83 3d b2 e3 09 3e b0 dd ae bd fb 28 78 3d
       0.06424498 0.13465765 -0.08538377 0.060585957
000160 3b 3e 02 be fa 88 09 be db 5b c5 bc f2 47 0e be
       -0.12719052 -0.13431159 -0.024091652 -0.13894632
000170 23 e7 55 3d 12 9f d9 3c f6 1d 47 bd 29 f9 aa 3d
       0.052222382 0.026565108 -0.048612557 0.08348305
000180 f2 4f 85 3c 7e 70 b7 3c 16 f8 18 3e 94 35 95 3c
       0.016273472 0.022392508 0.14938387 0.018214025
000190 3f 72 42 3d 72 ed 08 be 8e b1 8f 3d 97 90 44 bd
       0.047472235 -0.13371828 0.07016288 -0.047989454
0001a0 09 0a 70 bd 3e 48 6a 3c e0 27 02 be 4d 2b 99 3d
       -0.05860332 0.01429945 -0.12710524 0.07478962
0001b0 46 a3 a8 3d 73 89 73 bc d0 0e 10 bc 0c 4c f7 bd
       0.08234267 -0.014864313 -0.008792594 -0.12075052
0001c0 38 8b 0b 3e 4a 01 92 bd 9f 7c ba bd 4f 75 23 be
       0.13627326 -0.07129152 -0.09105801 -0.15962718
0001d0 a2 83 f2 3d 7f d3 1f bc ed 4e 36 3d 1f 41 05 be
       0.11841513 -0.009755014 0.044508863 -0.13013123
0001e0 d3 e6 f1 3d 1b 9e bf bc df 2b 47 be 73 da 5d 3c
       0.11811604 -0.02339082 -0.19450329 0.013540852
0001f0 11 c8 80 3c 01 63 5a bc b6 40 a5 bd a7 c2 01 bd
       0.0157204 -0.013329268 -0.08068983 -0.031679776
000200 bd 48 a0 bd 87 63 30 3d 79 e9 3e bd 7f f5 5b bd
       -0.07826374 0.043063667 -0.046609376 -0.05370092
000210 b2 c3 90 3d f3 b3 62 3d b8 66 75 bd f4 8d 13 3e
       0.07068576 0.055347394 -0.059912413 0.1440962
000220 e4 01 53 3d 14 c1 71 3b e1 6b 3f 3e fa 39 18 3c
       0.051515475 0.0036888765 0.18693496 0.009291166
000230 f7 90 8f bd d5 36 80 bd 26 c1 da 3d e0 35 3a 3d
       -0.07010072 -0.062604584 0.106813714 0.045461535
000240 a7 ee 31 3e b3 47 cf bc 76 35 67 3c ce db 43 bd
       0.17376195 -0.025302744 0.014111867 -0.047817044
000250 9b f7 9b bd ae 07 9b bd ce 38 2e be f6 13 7f 3d
       -0.07615586 -0.07569824 -0.17013857 0.062274896
000260 2a 62 66 bb 47 9a 77 bc 03 e8 c2 3d cc 21 08 3e
       -0.0035153725 -0.015112466 0.09516909 0.13294142
000270 95 66 90 3a 17 fa b0 bd 6e 54 d8 bb 27 94 bf bd
       0.00110169 -0.08641451 -0.0066018617 -0.0935443
000280 fd 3f 8c 3d 3f e2 f3 3b fd 8e 48 bd ec ea e4 3d
       0.06848142 0.007442742 -0.04896449 0.1117762
000290 41 29 13 3e f2 f4 e2 3c 37 69 73 3d 43 fd 74 bd
       0.14371206 0.02770469 0.059426513 -0.05981184
0002a0 b1 3b e6 bd 66 72 0f 3c 7f 22 54 3d e0 39 cf bc
       -0.11241854 0.008755302 0.05179071 -0.025296152
0002b0 3b c4 1a bd e4 01 f7 bb 8b 2c 2e 3d e6 81 b0 3d
       -0.037784796 -0.007538067 0.04252295 0.08618526
0002c0 ba 80 86 bd cc b1 7e 3c 7f 81 6a 3e ba 3b 69 bd
       -0.065675214 0.01554532 0.22900961 -0.056941725
0002d0 fe fe 66 3e 9a 36 ba 3d 8b 49 b8 bc 1d 6b 02 3e
       0.2255821 0.09092446 -0.022496006 0.12736173
0002e0 05 77 94 3d 44 56 7c 3d 23 58 eb 3d b3 0f f3 3d
       0.07249264 0.061605707 0.1149142 0.11868229
0002f0 56 4f e3 bd 00 7f 80 3d 64 59 19 bd 9b fc ec 3d
       -0.110991165 0.06274223 -0.037438765 0.11571618
000300 9e 89 02 3d 49 55 87 bc 76 48 cc 3d 3a 33 90 3d
       0.031869523 -0.01652016 0.09974758 0.07041021
000310 41 11 32 3d 3e dc bb bd 38 b6 97 3e 2b ff f8 3d
       0.043473486 -0.09172867 0.2963121 0.121580444
000320 a5 f8 ef 3d 49 98 92 3a fd 7a 34 3d d5 11 b7 3d
       0.11717347 0.00111843 0.044062603 0.08938948
000330 b5 68 e2 bc 8f 9e cc 3d 9b 90 d9 bd 0e 85 44 3e
       -0.027637819 0.0999118 -0.106232844 0.19191381
000340 4b 3c a8 3d 75 12 a8 3d 66 87 37 bc b7 e6 bb bd
       0.08214625 0.082066454 -0.011201715 -0.09174865
000350 28 f8 bc 3d ed ca 9c 3d 5e 1b c6 3d ec c3 d7 3d
       0.092270195 0.076558925 0.096731886 0.10535416
000360 f5 55 f8 3c 30 16 c0 3d bb e8 04 3d 93 a6 e7 bd
       0.030314425 0.09379232 0.03244851 -0.113110684
000370 f7 47 1f 3e ac 19 ad bd 90 7f e7 3d 5b c4 c8 bd
       0.15554796 -0.08452162 0.113036275 -0.09803077
000380 a8 74 f2 3b d3 37 27 bd f8 b0 cd bc 2e 1a 35 3d
       0.0073991604 -0.040824722 -0.0251088 0.04421442
000390 c2 19 42 be 3f 4c e2 bd 10 b6 c2 bd bc 4a 52 bd
       -0.18955138 -0.11049699 -0.09507382 -0.051340804
0003a0 08 2b 42 3d 9a 54 27 be b7 09 0e bd d0 f2 89 3c
       0.04740432 -0.16340867 -0.034677234 0.016839415
0003b0 af e1 bc 3c 63 76 8d 3d a9 dc eb bd 7f 7e 3c bd
       0.023056833 0.06907346 -0.11516697 -0.046019074
0003c0 05 96 55 bd c2 f2 5b 3d d9 f1 b8 3c 8e 1d 85 bc
       -0.052145023 0.05369831 0.02257626 -0.016249444
0003d0 a3 dc 92 bc b5 0c d6 bb c1 0e ef bc d0 2a 46 bb
       -0.017927473 -0.0065322765 -0.02918184 -0.003023792
0003e0 05 57 3b bd b2 a9 7a 3d 48 c6 d8 bd 37 72 ce bd
       -0.045737285 0.06119699 -0.10584694 -0.100803785
0003f0 04 34 0e be a6 12 6e bd 7b 68 a0 3c 89 d1 57 3d
       -0.1388703 -0.058123253 0.01958107 0.052690063

actor.0.bias f4 [32]
000000 4d 22 9c ba 8f d6 03 ba 78 be a4 3a 3e aa 20 3b
       -0.0011912078 -0.0005029225 0.0012568971 0.0024515535
000010 4a 22 c6 b9 3d aa 05 bb e7 16 6c 3a d5 ec e8 3a
       -0.0003779105 -0.002039566 0.0009006098 0.0017770777
000020 cf 40 eb 3a 60 fe 31 ba 10 57 44 39 66 e8 8d 38
       0.0017948392 -0.0006789919 0.0001872445 6.7666915e-05
000030 66 66 1e ba 23 57 7e 3a 2c 85 ee 39 3e 5b 27 bb
       -0.000604248 0.00097023154 0.00045494118 -0.0025536562
000040 e8 02 54 bb c5 01 bc 39 05 14 36 bb 7f f7 1c 39
       -0.0032350365 0.00035859473 -0.0027782929 0.00014969519
000050 46 e6 28 3b d1 bd 6a b9 28 a4 59 3a ff 51 05 b9
       0.002577202 -0.00022386691 0.0008302354 -0.00012714414
000060 cb d3 f9 ba 02 ac 2b ba 12 b9 21 ba ed 64 d0 ba
       -0.0019060312 -0.00065487635 -0.000616924 -0.0015899219
000070 2f f9 8b 3a 92 e0 88 ba ae 1a 03 3b c6 bd f4 ba
       0.0010679121 -0.0010442904 0.0020004916 -0.001867228

actor.2.weight f4 [32, 78, 3, 3]
000000 de 18 83 3d b1 82 be 3d 5d 9c 14 3c fa 72 86 bc
       0.064012274 0.09302271 0.009070483 -0.016412247
000010 2f 85 95 bc 14 46 c1 bb 28 a7 d6 bc 2b 6a 85 bd
       -0.018251983 -0.0058982465 -0.026202753 -0.065143906
000020 81 91 08 3d 40 6d cc 3d 62 81 eb bd f5 35 fc bc
       0.03334189 0.09981775 -0.11499287 -0.030787447
000030 49 05 98 bd 82 5d 8e bc 98 fd 69 bd 05 3e 02 be
       -0.07422883 -0.017378572 -0.05712661 -0.12718971
000040 79 28 bb bc f1 a1 9a bd bc 7f 8e bc 56 33 d9 bc
       -0.022846447 -0.07550419 -0.017394893 -0.026513737
000050 b0 71 b9 3b 63 6d 90 bb 18 cd ea 3d e2 b8 92 3c
       0.0056593046 -0.004407571 0.114649 0.017910425
000060 75 d2 71 bc 13 96 ba 3b 2b 27 80 bd c8 e3 36 3d
       -0.0147596495 0.00569416 -0.06257471 0.044650823
000070 d5 f9 32 3d e6 84 3b 3d c9 de 9d 3d 5f 36 10 3d
       0.04369529 0.04578104 0.077085085 0.035208102
000080 b8 4b 02 bd ce d5 ca bb ae b9 1c bc 09 3b b4 3d
       -0.031810492 -0.0061900383 -0.009565754 0.088003226
000090 f8 a6 4c bd 47 1c 93 bc 0e 7a 94 3d 17 9f 02 3c
       -0.04996392 -0.01795782 0.072498426 0.0079725
0000a0 49 68 ba bd 8e 8f d7 3d 85 e4 06 3c 9b 3b 0c 3c
       -0.09101922 0.10525428 0.008233194 0.008559133
0000b0 39 79 9e 3d b6 fc 01 bd 9a ab fe 3c 95 34 80 bc
       0.07737965 -0.031735145 0.031087685 -0.015650073
0000c0 3f 07 5d 3b e9 8c 3f 3c 47 5d 34 3c d6 bf 18 3d
       0.0033726243 0.01169131 0.011008567 0.037292324
0000d0 9c 69 52 3d da 72 90 3c 19 a0 fb 3c 46 25 8e bd
       0.05137025 0.01763289 0.030715989 -0.06940703
0000e0 cf 15 e4 3c a1 5c 4e bc 7f 11 c7 bd c9 66 02 3e
       0.02784243 -0.012595327 -0.09720134 0.12734522
0000f0 5d 8e 31 3d 55 53 2a 3c 8c ba a2 bc 06 09 f2 3d
       0.04334866 0.0103958445 -0.019864343 0.11818127
000100 34 1c 58 bd de 9c 5e 3c 05 24 f9 bd 8d 89 d5 3c
       -0.05276127 0.013587205 -0.12165073 0.026066566
000110 ea 01 6f bd 68 57 96 3c ca 33 fb 3c b4 f5 13 bd
       -0.058351435 0.018352225 0.030664343 -0.036122993
000120 51 74 a6 3c 91 4e cb bd 14 c7 58 bd e7 8c 85 3d
       0.020319136 -0.09927095 -0.05292423 0.065210156
000130 64 80 1b 3e 2a 8f 6e 3c 07 e3 b7 ba c7 54 3c 3c
       0.15185696 0.0145605 -0.0014029451 0.011494822
000140 e8 f1 a5 bc e7 d7 a2 3d 96 4c 28 bc 45 96 f3 bb
       -0.020256951 0.07951336 -0.010272166 -0.007433685
000150 fe fb 8a 3c 5a 74 1e bd 7e 7a 8f bd 57 69 2f 3d
       0.016965862 -0.03868518 -0.070057854 0.04282507
000160 bd bb 7d 3d 63 5d 88 3d 61 e9 a0 bd 0a bc 42 bd
       0.06194662 0.06658437 -0.078570135 -0.04754261
000170 6c 98 bc bc d6 31 06 bd ff 40 a3 3d c0 5f 00 3c
       -0.0230219 -0.03276237 0.079713814 0.007835329
000180 12 41 de 3c b7 76 21 3d b4 86 db 3c 94 fc b2 3c
       0.027130637 0.039419856 0.02679763 0.021848954
000190 60 17 2b 3d a6 a4 a2 3d 4b 86 7e 3d a7 25 11 bd
       0.04177034 0.079415604 0.06213979 -0.0354363
0001a0 ff cb 7f bd 3a 4f 59 bd 62 79 ed 3c 9c 52 89 3d
       -0.062450405 -0.053054072 0.028988544 0.067052096
0001b0 58 70 7c 3c cd a3 f6 3c 2c d9 37 3d b7 ba 88 3d
       0.015407644 0.030107403 0.044884846 0.06676238
0001c0 3a b2 12 3d 8b 63 41 3d 21 88 df bd 81 aa 6f bd
       0.0358145 0.047214072 -0.109146364 -0.058512215
0001d0 5a 0f ca 3c c1 10 d4 3d fb e4 b6 bc a0 b2 6e 3d
       0.024665523 0.10354758 -0.022325983 0.05827582
0001e0 7e db 93 3d 78 c3 b6 3d 72 62 93 3d a0 00 9a bc
       0.07219599 0.089240015 0.07196511 -0.018799126
0001f0 23 29 98 bd f8 5d 2b bd 44 a8 fe bd 42 8a f4 bc
       -0.07429721 -0.041837662 -0.12434438 -0.029851083
000200 de b3 b4 bc b9 5f 02 3d e2 28 20 bd 73 4f c2 3c
       -0.022058424 0.03182957 -0.03910149 0.023719525
000210 3a 28 f3 bc 7f a4 72 3c b2 d7 61 3d 59 8c dd bd
       -0.029682267 0.014809727 0.055137344 -0.10817785
000220 80 2f 06 bd 0a e0 e4 bc c2 9b 04 bd a7 b5 91 bc
       -0.032760143 -0.027938861 -0.032375105 -0.017786814
000230 5e 3b 96 bc 3d f0 73 3c a3 40 b1 3c 13 cf 1c bd
       -0.018338855 0.01488882 0.021637267 -0.03828342
000240 17 28 5f 3d 7b 63 61 38 db 44 e3 3c 30 15 d8 3d
       0.054481592 5.373683e-05 0.027742794 0.10550916
000250 81 39 92 bd 09 50 04 bc cf 1c 9d 3d 06 a8 cf 3c
       -0.07139874 -0.0080757225 0.076715104 0.025348675
000260 a7 36 72 3c 25 3d 98 bd b6 63 c4 3d 5c d5 22 3d
       0.014783538 -0.074335374 0.09589331 0.039754257
000270 03 5a a9 3d 9c c0 06 bd c4 46 d8 bd 16 e9 91 bc
       0.082691215 -0.03289853 -0.105603725 -0.01781134
000280 ab 9e cd 3d b0 40 27 3e 7a c7 42 3d e5 02 78 bc
       0.10040029 0.1633327 0.047553517 -0.015137409
000290 7f 98 d5 3d df 83 bf bc 06 23 44 3d b8 98 c0 bd
       0.10429477 -0.02337831 0.047884963 -0.09404129
0002a0 0c c9 8c bd e8 48 85 3d 47 fd fc 3d f5 4a a5 bc
       -0.06874284 0.065080464 0.12352996 -0.020177344
0002b0 5b d0 b4 bd 1d f6 3c bb 0a c3 8f 3d d4 a0 35 3d
       -0.08828803 -0.0028833218 0.070196226 0.04434283
0002c0 84 27 3f bd a5 88 75 3d a2 cc 1e bc 1f 4a 8c bd
       -0.046668544 0.059944768 -0.009692343 -0.06850075
0002d0 c0 cf 9e 3c 71 ef 00 3d da 62 00 bd 6d 56 f2 3c
       0.019386172 0.03147835 -0.031344272 0.029582227
0002e0 27 fb a0 bc 2f 93 03 bd 94 5a c7 bc ec 6e c9 3d
       -0.019651009 -0.032122787 -0.024335183 0.0983561
0002f0 a5 7b 85 3d 38 ae 92 3d ba e3 b3 bd 06 85 f6 3c
       0.06517724 0.07162136 -0.0878367 0.030092727
000300 1a 39 0d bd c6 91 d0 3c bf 1f a2 3d ed a2 ed 3a
       -0.034478284 0.025460135 0.07916211 0.0018130221
000310 39 17 98 3d e1 98 0f 3d d6 41 dd bc 28 1e 5c 3c
       0.07426304 0.035057906 -0.027008932 0.013434924
000320 4b 23 43 bb c0 3b cb 3c 6b 12 ee 3b 67 a6 45 bd
       -0.0029775675 0.024808764 0.007265379 -0.048254397
000330 43 2c 1f 3d 82 a4 23 3d b3 dc a6 bd fe 5e 65 3d
       0.03886057 0.03995181 -0.08147564 0.055998795
000340 c0 fc 90 bd 68 2a 17 bd 8e b4 b9 bd a5 ba eb 3b
       -0.07079458 -0.036905676 -0.09067641 0.0071938806
000350 89 ef 30 3d f5 99 f8 3b 2d 91 33 bc 74 a9 2f bc
       0.04319719 0.0075867125 -0.010959906 -0.010721553
000360 d9 24 0b 3e 38 5f 9d bd 83 4d 8d bc 07 68 92 3d
       0.13588275 -0.07684177 -0.017248875 0.07148748
000370 1a d2 42 bd bb b8 05 3c 29 52 7d bd f1 a3 2e 3d
       -0.04756365 0.008161719 -0.061845932 0.042636815
000380 6d da 36 bd 98 53 ca bc 69 34 4b bb d8 dd c5 3c
       -0.0446419 -0.024698064 -0.003100658 0.024153635
000390 5f 88 19 3d 9e 3e 06 3d 10 e2 36 3d 67 a1 09 be
       0.03748357 0.03277456 0.044649184 -0.13440476
0003a0 b0 13 71 3c 21 2e 07 bd d1 c2 b2 bc 0a 94 5c 3c
       0.0147141665 -0.033002976 -0.021821411 0.01346303
0003b0 c2 8f c7 bc c0 d8 07 bd e4 b7 71 ba cb 16 01 3d
       -0.024360541 -0.033165693 -0.0009220822 0.031515878
0003c0 ae f1 04 3c de 77 2f 3d 0e b9 30 bd 89 24 69 bd
       0.008114262 0.042838924 -0.043145232 -0.05691961
0003d0 0d bf f4 3b 6e 43 00 3d f4 4d 05 bd ab d1 6f 3d
       0.007469064 0.031314306 -0.032545045 0.058549564
0003e0 ac 7d 38 3c 1f fb b8 3c 2f ad db bd 81 81 80 3d
       0.011260431 0.022580681 -0.107263915 0.06274701
0003f0 44 55 dc bc 97 de 3c 3d d4 b7 8f 3b 9c 1c 4e 3c
       -0.026896127 0.046110716 0.0043859277 0.012580063

actor.2.bias f4 [78]
000000 b8 88 d3 3a bf bc 03 bb 0f ac eb 3a 77 e9 f5 3a
       0.0016138768 -0.0020101515 0.0017980355 0.0018761595
000010 de 4c 29 bb 4b 9a ef 3a d3 ab 93 ba 52 d6 39 3b
       -0.002583317 0.0018280236 -0.0011266418 0.0028356505
000020 22 a0 52 ba 33 3e 72 3a 00 00 00 00 00 00 00 00
       -0.0008034726 0.0009240836 0.0 0.0
000030 00 00 00 00 00 00 00 00 00 00 00 00 00 00 00 00
       0.0 0.0 0.0 0.0
000040 00 00 00 00 00 00 00 00 21 de 30 3a 62 d0 75 bb
       0.0 0.0 0.0006746967 -0.003750824
000050 6c e9 8c 3b cd f0 2c bb 00 00 00 00 00 00 00 00
       0.004300287 -0.0026388646 0.0 0.0
000060 00 00 00 00 00 00 00 00 00 00 00 00 00 00 00 00
       0.0 0.0 0.0 0.0
000070 00 00 00 00 00 00 00 00 00 00 00 00 00 00 00 00
       0.0 0.0 0.0 0.0
000080 00 00 00 00 00 00 00 00 00 00 00 00 00 00 00 00
       0.0 0.0 0.0 0.0
000090 00 00 00 00 00 00 00 00 00 00 00 00 00 00 00 00
       0.0 0.0 0.0 0.0
0000a0 00 00 00 00 00 00 00 00 00 00 00 00 00 00 00 00
       0.0 0.0 0.0 0.0
0000b0 00 00 00 00 00 00 00 00 38 5d 69 bb 00 00 00 00
       0.0 0.0 -0.0035608541 0.0
0000c0 00 00 00 00 00 00 00 00 00 00 00 00 00 00 00 00
       0.0 0.0 0.0 0.0
0000d0 d9 6b 93 3b 00 00 00 00 10 c5 d0 3a 00 00 00 00
       0.0044989404 0.0 0.001592787 0.0
0000e0 00 00 00 00 00 00 00 00 00 00 00 00 00 00 00 00
       0.0 0.0 0.0 0.0
0000f0 20 16 05 bb 00 00 00 00 00 00 00 00 00 00 00 00
       -0.0020307377 0.0 0.0 0.0
000100 00 00 00 00 00 00 00 00 00 00 00 00 00 00 00 00
       0.0 0.0 0.0 0.0
000110 00 00 00 00 00 00 00 00 00 00 00 00 00 00 00 00
       0.0 0.0 0.0 0.0
000120 00 00 00 00 00 00 00 00 00 00 00 00 00 00 00 00
       0.0 0.0 0.0 0.0
000130 00 00 00 00 00 00 00 00
       0.0 0.0

critic.1.weight f4 [128, 1024]
000000 bc 69 07 bd 46 3e c2 bc c9 50 91 3c 02 68 e5 3d
       -0.03305982 -0.023711335 0.017738717 0.112014785
000010 0d 81 70 bb d1 11 b8 3c 33 19 7b bd 76 6e 12 bd
       -0.0036698014 0.022469433 -0.06130333 -0.035749875
000020 84 c7 a2 3d b2 95 35 bb d9 d1 06 3d c9 88 4d 3d
       0.07948211 -0.0027707634 0.03291497 0.050179277
000030 18 ed b2 3a d3 03 3d bc 6b 56 c2 bd fa 3f 83 3d
       0.0013650982 -0.011536556 -0.09489139 0.06408687
000040 ee ac 84 3c 0c 5f c7 bd c5 73 20 3c 22 cf fd 3c
       0.01619574 -0.09734926 0.009793227 0.030982558
000050 45 29 1d bc f3 05 bf 3c 6d 6d 8b 3c 3b bb 86 bb
       -0.009592359 0.023318266 0.017019952 -0.004111675
000060 1f 82 41 3d a4 2e cb 3c a2 95 31 bd 5a 36 34 bd
       0.047243234 0.024802513 -0.04335559 -0.043997146
000070 2b a7 43 bc be 09 0d bd ec 42 2d ba c9 69 10 3d
       -0.011941711 -0.03443312 -0.00066093984 0.035257135
000080 63 58 15 3d f0 fd ce 3c 4c 50 07 3d ae ab 9b bd
       0.036461245 0.025267571 0.03303556 -0.07601105
000090 22 e6 21 bd 10 8c 6e bc b0 b3 1d 3d 3b 52 80 3d
       -0.039526112 -0.014559761 0.03850144 0.06265684
0000a0 4c d1 17 3c 16 00 6a bc a5 bd 90 3b 59 56 cc 3d
       0.009266209 -0.014282247 0.0044171386 0.09977407
0000b0 21 ca 28 3d 45 28 a5 bd 32 37 20 3d 48 47 1d 3d
       0.04120839 -0.080643214 0.03911514 0.038398057
0000c0 15 0d 93 3c 50 41 03 bc 35 2a 91 3d 77 6d d4 3c
       0.017950574 -0.008011177 0.070881285 0.025931103
0000d0 73 d0 8b bc ba e3 12 3d fc b9 8c 3c 16 4d 1e bc
       -0.01706717 0.03586171 0.017178528 -0.009661933
0000e0 49 85 55 bb d5 35 27 3d d4 ea cd 3c 93 7a c4 bc
       -0.0032580665 0.040822823 0.025136389 -0.02398423
0000f0 1f c1 85 3c ab 1f a4 3c 8f 39 1d bd 4c 3d ce 3c
       0.016327439 0.020034632 -0.03838497 0.025175713
000100 a4 61 0f bc 53 8a 6a 3d 8b 02 44 bc fa 47 85 bc
       -0.008751307 0.057260823 -0.011963497 -0.016269673
000110 9e 65 3b bd 6a 2c 0a 3d fe 1a 9f 3c 17 4a c6 3d
       -0.045751207 0.033733763 0.01942205 0.096821
000120 3a 97 06 bd 60 57 b2 3b 1f d5 e8 3d 0e d6 12 3b
       -0.032859065 0.005442545 0.113687746 0.0022405419
000130 1a 7b 94 bc 5b a2 8f bb aa e1 1b bd 89 50 fc 3b
       -0.018125106 -0.004383368 -0.038057007 0.00770003
000140 c1 fb b8 bc 8b b6 69 bd c5 34 19 bd c4 08 d3 3c
       -0.022580983 -0.057058852 -0.03740384 0.025761016
000150 9c 82 ba 3c 5d 2c 96 bd 8f a0 4b 3d 60 75 08 3c
       0.022767358 -0.073326804 0.049713667 0.008328766
000160 24 94 ab 3c c7 55 0a 3d 5a 6e 23 3d 9a ca 25 3d
       0.020944662 0.03377321 0.03990016 0.04047642
000170 f4 fc 3a 3b 90 06 7a 3b 82 f1 e6 bc 2f 5c a4 3d
       0.002853212 0.0038150884 -0.028191332 0.08025395
000180 13 2c 68 3b c0 a4 b9 bb e2 de b5 bd 29 a7 c4 3d
       0.003542666 -0.0056653917 -0.08880402 0.09602196
000190 fc c1 2a 3d 78 f2 f8 bc b6 09 87 bc b0 ba 31 bd
       0.041688904 -0.030389056 -0.016484123 -0.04339093
0001a0 0a 1d 56 bc 70 27 70 3d 10 39 99 bd 18 48 23 3d
       -0.013068447 0.05863136 -0.07481587 0.039863676
0001b0 32 3e 66 bb 74 10 97 bd 25 9e 4c bd 5c 4b 00 3d
       -0.0035132286 -0.07376185 -0.049955506 0.03132187
0001c0 c9 56 8a 3d 50 86 9f bc 98 45 c8 bb bd 55 64 bd
       0.06754834 -0.019473225 -0.006111812 -0.05574583
0001d0 2a 89 9a 3c 91 e1 75 3b e3 86 4f 3d 8c 92 37 3d
       0.018864233 0.0037518481 0.050665747 0.044817492
0001e0 6a a5 54 bd 47 33 83 3b 21 40 8e bc 5d f8 ba 3b
       -0.051915564 0.0040039155 -0.017364563 0.0057058767
0001f0 f3 51 67 3c 13 b5 b8 bb 4c ee 30 bd 5e f8 cd 3c
       0.014118659 -0.00563682 -0.043196008 0.025142845
000200 18 9e 9d bd f8 61 49 bd 06 a3 c2 3c 00 36 1e 3c
       -0.076961696 -0.049165696 0.023759376 0.009656429
000210 dd 88 aa bc 9a c2 61 bc 0e c9 c2 3c 28 9a f2 3a
       -0.020817215 -0.013779307 0.023777511 0.0018509077
000220 7b 62 0d bd 0f bb 0f bb 46 f2 21 3c 42 c3 ee bb
       -0.034517746 -0.0021931564 0.009884423 -0.00728646
000230 b1 e2 12 3d dc 97 07 3d 8e da 90 3c d8 b6 8b bc
       0.03586072 0.03310381 0.01768234 -0.01705496
000240 0e ca ad 3c 93 e1 05 3d 7f 39 5c bc 45 e4 1e 3a
       0.021214511 0.032685827 -0.0134414425 0.00060612365
000250 82 c7 a3 3c ff f9 c0 bc 92 36 09 3d 07 34 54 bd
       0.019992594 -0.023556707 0.033499308 -0.05180743
000260 97 d2 9a bb 75 7e 1e 3d 9f 3d 1d 3d 05 55 9a bc
       -0.0047248113 0.038694818 0.038388845 -0.018839369
000270 a7 34 33 3c 67 15 6b bb 7b ea 94 bd 96 35 71 3d
       0.010937846 -0.003587091 -0.07271286 0.058888994
000280 af 7c 10 bd 12 13 32 3d 56 07 8f bd a9 3f 0c 3d
       -0.035275158 0.043475218 -0.06983821 0.0342404
000290 54 33 1f 3d 29 f8 f7 bc e7 cd a5 3d fa 25 88 3d
       0.03886731 -0.0302697 0.080959134 0.066478685
0002a0 41 9a 58 3d f6 c8 bc bd e3 9b 16 3d db ae b4 3b
       0.052881483 -0.09218018 0.03676976 0.0055140085
0002b0 1b 8d 9f bc 20 31 21 bd bc ef 8c bd 14 1d a3 3d
       -0.019476464 -0.03935349 -0.06881663 0.079645306
0002c0 91 f5 98 3c 07 df 89 3c a2 c1 9e bc f7 25 1a 3d
       0.018671783 0.01682998 -0.01937944 0.037633862
0002d0 bd 48 21 3d 96 c9 e0 bc 39 06 54 bd b4 e4 c1 bb
       0.03937601 -0.027439874 -0.051763747 -0.005917156
0002e0 b4 3a df 3c 94 4b 84 3b ba d6 01 3d 47 86 d1 3b
       0.027249672 0.00403733 0.03169892 0.006394181
0002f0 6d 33 03 3c cd df a9 3c 20 c3 68 3c 89 2c ab bc
       0.008007866 0.0207366 0.014206678 -0.02089526
000300 20 6a 50 3b 44 af ef 3c 1a f6 9e 3d 32 b1 a9 3a
       0.0031801537 0.029258378 0.07761784 0.0012946485
000310 4e 6b 9e 3d 0a a5 4e 3b 15 4c 1c 3d 66 1c 40 bd
       0.077353105 0.0031531476 0.038158495 -0.046902083
000320 3a 8f 82 bd 43 fe 60 3d f4 50 5e bb 75 0f 54 3c
       -0.063749745 0.054929983 -0.0033922764 0.012943138
000330 6e a4 d5 bc 0c dd 3a 3d 7d 0f 58 bc af d1 4c bd
       -0.026079383 0.045620963 -0.013187286 -0.050004657
000340 17 75 bc 3d f7 61 65 3d e9 22 fc 3b 20 36 ad 3d
       0.092020206 0.05600163 0.0076945913 0.08457589
000350 b0 13 df bc f7 21 44 3c 3a d6 13 bb 85 6b 63 3c
       -0.027231067 0.0119709885 -0.002255811 0.013880615
000360 e1 e0 13 3d c9 e1 5f 3c 8d 28 07 3d 38 b7 c4 bc
       0.036103133 0.013664671 0.032997657 -0.024013147
000370 23 fb ba bc f6 16 00 bc 23 80 5f 3c c1 12 f1 bc
       -0.02282483 -0.007817974 0.01364139 -0.029427888
000380 25 f3 77 bd 7b 17 59 bb 96 13 07 bc ce a1 ac bd
       -0.060534615 -0.0033125568 -0.008244416 -0.08429299
000390 29 74 88 bb 5f a1 84 bc f1 77 28 3d a0 dd 79 bd
       -0.004164238 -0.016190229 0.04113001 -0.061002374
0003a0 ef d7 1c bd a2 5d 4f 3d 38 84 81 3d 38 1f 90 3c
       -0.038291868 0.050626405 0.06324047 0.017593011
0003b0 cb 92 47 3d ac e8 51 bc 0e 1e b4 ba d0 9c 93 3c
       0.048723977 -0.012811821 -0.0013741867 0.01801911
0003c0 27 ee d0 3c 7d 61 0f 3e 1e 32 98 3b 6e db 21 bd
       0.025504185 0.14002033 0.0046446463 -0.039515905
0003d0 79 5d f4 3c 29 7d 30 bd 70 40 8f 3d a7 23 94 3d
       0.029829727 -0.043088112 0.06994712 0.07233363
0003e0 d3 c9 5b 3d 69 04 31 bd 97 26 c3 3c 12 c9 6a 3d
       0.05365927 -0.043217096 0.023822112 0.05732066
0003f0 d2 5b 2e bd 18 60 d8 bc 1d 54 3b bd 08 f2 8c bb
       -0.042568035 -0.026413009 -0.045734514 -0.0043013133

critic.1.bias f4 [128]
000000 cb 7c 68 ba b3 5f 85 39 93 a4 54 39 83 46 6d 39
       -0.0008868693 0.00025439038 0.00020279204 0.00022628349
000010 bf 81 8d b9 00 00 00 00 af 1c a8 ba 8a c0 d6 b9
       -0.00026990284 0.0 -0.0012825931 -0.00040960714
000020 da e0 7f 39 f3 dd 81 39 00 00 00 00 00 00 00 00
       0.00024402459 0.00024770162 0.0 0.0
000030 a6 bc 8a b9 00 00 00 00 ce be cc ba 8a b0 67 ba
       -0.00026461965 0.0 -0.0015620829 -0.0008838257
000040 00 00 00 00 05 52 23 ba 7a a0 94 b9 5b e2 9d b9
       0.0 -0.00062301784 -0.00028348324 -0.00030114022
000050 74 54 8c b9 18 b4 8b b9 00 00 00 00 73 9e 57 b9
       -0.00026765803 -0.00026646326 0.0 -0.00020563025
000060 00 00 00 00 00 00 00 00 a8 04 a6 b9 06 c2 02 ba
       0.0 0.0 -0.00031665456 -0.0004988018
000070 4e bb 9c ba 00 00 00 00 57 36 de b9 c9 59 8b b9
       -0.0011957677 0.0 -0.00042383626 -0.0002657904
000080 00 00 00 00 d7 3f 82 ba 92 65 8a b9 8f 61 78 b9
       0.0 -0.0009937239 -0.00026397087 -0.00023687466
000090 e3 a7 8f b9 32 ca 11 38 99 25 cb ba 75 7b f8 b9
       -0.0002740017 3.4759003e-05 -0.0015498876 -0.0004739423
0000a0 00 00 00 00 eb 34 80 39 c5 d8 32 b9 02 10 85 39
       0.0 0.0002445349 -0.00017056156 0.00025379664
0000b0 7d 48 a7 ba 00 00 00 00 7d 21 a3 ba 00 00 00 00
       -0.0012762692 0.0 -0.0012445893 0.0
0000c0 6a 5e 8a b9 a9 dd 77 b9 00 00 00 00 32 c1 64 ba
       -0.00026391755 -0.0002363833 0.0 -0.0008726298
0000d0 bd cf 89 b9 a4 05 6c b9 00 00 00 00 86 55 01 ba
       -0.00026285453 -0.00022508815 0.0 -0.00049337035
0000e0 67 e5 20 ba 6b bd bc ba 96 c1 9e ba 00 00 00 00
       -0.0006137699 -0.0014399713 -0.0012112136 0.0
0000f0 00 00 00 00 2e fa 9f b9 06 4d 35 39 00 00 00 00
       0.0 -0.00030513242 0.00017290199 0.0
000100 ff dd 72 39 6c 67 9b b9 00 00 00 00 48 88 8a b9
       0.00023161618 -0.0002964096 0.0 -0.0002642295
000110 1e 48 89 b9 36 e5 09 ba b3 a3 8d b9 c8 54 95 b9
       -0.00026184408 -0.00052602903 -0.0002701558 -0.00028482662
000120 50 48 02 ba ee 8b 8a 39 ec 11 a3 ba 9f 62 01 38
       -0.0004969882 0.00026425667 -0.0012441254 3.0847845e-05
000130 15 bf 9d ba 58 c3 88 b9 00 00 00 00 00 00 00 00
       -0.0012035096 -0.00026085484 0.0 0.0
000140 c3 b7 84 39 5f 5c 7c 39 cd ec 67 3a 7e ba a6 39
       0.00025313915 0.00024067004 0.0008847237 0.00031800935
000150 c3 31 ac b9 7e 6c 95 b9 f6 9e 8a b9 9c 2e a1 b9
       -0.00032843472 -0.00028500328 -0.00026439846 -0.0003074304
000160 05 46 82 39 5c 32 77 39 f1 9e 91 ba 1b 58 5c 39
       0.000248477 0.00023574516 -0.001110999 0.00021013657
000170 30 fb 88 b9 40 6e 7f 39 f1 c3 f9 b9 00 00 00 00
       -0.0002612709 0.00024359766 -0.0004763897 0.0
000180 00 00 00 00 a4 df 7a b9 00 00 00 00 00 00 00 00
       0.0 -0.0002392517 0.0 0.0
000190 ca 64 ae b9 90 9a cc 39 4d 5f 98 37 00 00 00 00
       -0.0003326296 0.0003902507 1.816419e-05 0.0
0001a0 c5 73 67 ba c2 0b 97 b9 00 00 00 00 6c fb f8 b8
       -0.00088292017 -0.00028809725 0.0 -0.000118723925
0001b0 37 f3 83 39 61 ed 9a ba 00 00 00 00 d2 14 84 39
       0.00025167476 -0.0011820012 0.0 0.00025192514
0001c0 00 00 00 00 47 0e ef b9 48 df b2 ba 84 c0 83 39
       0.0 -0.0004559627 -0.0013646865 0.00025129702
0001d0 aa 26 8a b9 24 b0 6e 39 57 da 96 b9 00 00 00 00
       -0.00026350218 0.00022763066 -0.00028772905 0.0
0001e0 00 00 00 00 68 37 c3 b8 ea 06 95 ba 00 00 00 00
       0.0 -9.308645e-05 -0.0011369858 0.0
0001f0 45 df 78 39 3c 8f 18 ba 00 00 00 00 af 8b a0 39
       0.00023734297 -0.00058196834 0.0 0.0003062165

critic.3.weight f4 [1, 128]
000000 ef 15 0e 3d a7 d2 46 be 88 9e 3d bc 1c af a2 bc
       0.034688886 -0.19416295 -0.011573441 -0.01985889
000010 b8 2c 01 3d 39 ba 33 be 3d ae 6a bb 9c 04 4c bd
       0.031536788 -0.17551507 -0.003580942 -0.049809083
000020 e3 04 69 bc ef 92 8a bd 90 48 be 3d 02 27 f8 3c
       -0.0142223565 -0.067663066 0.09291184 0.030292038
000030 7a 1b 7e 3d 28 a1 d6 bd e7 06 96 bd c3 2a 51 3d
       0.062037922 -0.10479957 -0.07325535 0.05106617
000040 cd 67 cc bd fc b8 35 bd 04 3e 2e 3e ca c8 26 3c
       -0.09980736 -0.044365868 0.17015845 0.010179708
000050 2b ce 35 3d 7e 2e 34 3d e4 54 56 be 61 5d b0 bc
       0.04438607 0.04398965 -0.2093082 -0.021528902
000060 ed 36 45 3a 9a 42 72 be ea f4 ef 3c 71 1b 1f bd
       0.0007523138 -0.23658219 0.029291589 -0.03884453
000070 4e 1f 77 3d db 4d 05 3d 4b 9f 59 3b e8 58 4b 3d
       0.06033259 0.032544952 0.0033206518 0.049645334
000080 67 8c 25 3c 1c f4 70 bd 95 49 93 3d b3 c3 c9 3d
       0.010104275 -0.05882655 0.07191769 0.0985178
000090 e6 de de 3c fb 45 2b 3b 0c cd e1 bd 42 e8 a3 bd
       0.027205896 0.002613424 -0.11025438 -0.08003284
0000a0 f7 e1 b6 3c 04 1c 50 bd 95 20 9d 3a 3a 09 30 be
       0.022324545 -0.050807968 0.001198786 -0.1719102
0000b0 e8 68 95 3d 63 8a e3 3c 95 dd 45 be 88 ed e4 bd
       0.072954 0.027775949 -0.19322808 -0.11178118
0000c0 20 f6 98 3d a6 d5 49 3d a5 bd 01 3e 17 24 d3 3d
       0.074688196 0.049276017 0.1267 0.10309618
0000d0 52 44 a2 3d db a5 21 3c a4 79 4a 3d fb 9a 80 3d
       0.07923187 0.009866203 0.04943241 0.0627956
0000e0 27 f9 eb bd e3 0e 9f bd 65 f4 65 bc 47 b8 22 bc
       -0.115221314 -0.07766511 -0.014035319 -0.00993163
0000f0 a5 96 bb 3d ac 32 03 3c 4a 89 16 bb 7d 06 23 bd
       0.091595925 0.008007687 -0.0022970014 -0.03980111
000100 b2 02 4b bd a4 84 bf 3c 64 fe 26 bc 55 3c 78 3d
       -0.049563117 0.023378678 -0.010192487 0.060604412
000110 73 94 d2 3d fb e9 ca 3c 42 1d 17 3d 4f 9b 87 3c
       0.10282221 0.024769774 0.036893137 0.01655355
000120 2c 7d 8c 3a c3 2b fa bd 76 2d 53 3d 84 25 20 bb
       0.0010718456 -0.12215378 0.051557027 -0.0024436424
000130 5d c8 4e 3e cb 4c 10 3e d7 50 83 3e 5b df f4 bc
       0.2019362 0.14091794 0.25647613 -0.02989166
000140 3d 39 0b be f3 95 11 bd d3 f6 c5 3c 9a d5 81 bc
       -0.13596053 -0.035543393 0.024165547 -0.015848923
000150 61 9c 06 3e 72 92 80 3c 64 ac 8a 3d 9f 71 13 bd
       0.13145591 0.01569483 0.06771162 -0.03599703
000160 af dd 93 bd ad 19 eb bc 4c 4f c5 bd 2d 5a 40 bd
       -0.07220017 -0.028698767 -0.09634265 -0.046961
000170 a8 8a fb 3d 1d 3e 40 bd 5d de 20 3e c2 52 e8 3c
       0.12282306 -0.046934236 0.15709825 0.028359775
000180 f3 6a 1b 3e a3 13 e0 3d be 1c 2b be 10 d3 ab bd
       0.15177517 0.109412454 -0.16710183 -0.08389866
000190 56 45 97 3c fa f7 20 3e c5 76 42 bd 2e 33 2d 3d
       0.01846568 0.15719596 -0.04747655 0.042285137
0001a0 89 e0 60 3d 61 42 4b 3c e9 16 75 bd 77 31 a0 3d
       0.054901633 0.012405963 -0.059836302 0.07821935
0001b0 07 9d dc bd c2 65 dd 3d 17 11 02 bc 5a b9 e5 bd
       -0.10772138 0.108104244 -0.007938645 -0.11216994
0001c0 3d 0c 3a bd ec 80 d8 3a e3 66 3c be db ba ce bd
       -0.045421828 0.0016517914 -0.18398623 -0.100942336
0001d0 bb 57 a5 3d 15 81 ad bc 70 31 40 bc f4 40 94 3d
       0.08073374 -0.021179715 -0.011730537 0.07238951
0001e0 2b 22 de 3d 09 76 93 bd 6c ec a7 3c 43 bd 8e bd
       0.10846361 -0.07200248 0.020498477 -0.069696926
0001f0 9a c5 02 bd 61 23 f6 3d 21 0f 22 bd f4 60 bc bd
       -0.03192673 0.12018467 -0.03956521 -0.0919818
