experiments/ppo_hrl/models/MicroRTSGridModeVecEnv__ppo_utils__1__1721366908/12288/harvest.pt (torch, 802530 bytes, 11 tensors)

encoder.1.weight f4 [32, 30, 3, 3]
0	0xbcc92a0f	-0.024556188
1	0x3d94f363	0.07272985
2	0x3d9076c1	0.070539005
3	0x3de1110b	0.10989579
4	0xbc6c9c2a	-0.014441529
5	0x3d996da0	0.074916124
6	0x3d155a4d	0.03646307
7	0xbd9bdeff	-0.076108925
8	0xbd48f68c	-0.04906325
9	0xbd20775e	-0.039176337
10	0x3d885ea3	0.066586755
11	0x3dcdc466	0.10047226
12	0x3d833376	0.064063
13	0x3db11fea	0.08648665
14	0xbd32245b	-0.043491703
15	0x3e00c552	0.12575272
16	0xbd8430e2	-0.06454636
17	0x3ddb391d	0.10704253
18	0xbdc3efe6	-0.09567241
19	0x3deaeee5	0.11471347
20	0xbd969e5b	-0.07354423
21	0x3dba7944	0.09105161
22	0x3e610290	0.21973634
23	0xbc5b151e	-0.013371734
24	0x3dcb66f9	0.0993175
25	0xbddac130	-0.10681379
26	0x3c2a611e	0.010399131
27	0xbd430951	-0.047616307
28	0xbd5ec49a	-0.054386713
29	0xbe1978c0	-0.14987469
30	0xbd69ade5	-0.057050604
31	0x3b9610d2	0.004579642
32	0x3af16b2b	0.0018418779
33	0x3e062f02	0.1310387
34	0x3de83ca1	0.11339689
35	0xbd52e832	-0.05149097
36	0x3e10ec6e	0.14152691
37	0xbe10e275	-0.14148887
38	0x3cfda8dd	0.03096431
39	0xbcaa4248	-0.020783558
40	0x3c887203	0.016655928
41	0x3d2f76e5	0.042837996
42	0xbd2d1f75	-0.042266328
43	0x3e5f896b	0.21829765
44	0xbe0bf9da	-0.1366953
45	0x3d8e4557	0.06946819
46	0x3e036ec6	0.12835225
47	0x3dd2bb36	0.10289614
48	0xbe77c38c	-0.24195689
49	0x3e21fd6c	0.15819329
50	0xbdad2c22	-0.08455683
51	0xbe1fcaf6	-0.15604767
52	0x3db8ad51	0.090174325
53	0xbd5cc13c	-0.05389522
54	0x3e106cb2	0.14103964
55	0x3d8d00a3	0.06884887
56	0xbccdd47e	-0.025125738
57	0xbdff3061	-0.124603994
58	0xbe3ce1c1	-0.18445493
59	0xbdf779af	-0.12083756
60	0xbad5f617	-0.0016323951
61	0xbcd5881b	-0.026065877
62	0xbce63cbe	-0.028105136
63	0xbd092d15	-0.03349026
64	0xbe7caef9	-0.24676122
65	0x3d0924db	0.033482414
66	0x3d6b9f80	0.057525158
67	0xbdd098a4	-0.10185364
68	0xbd5ecb1f	-0.05439293
69	0xbe2c3011	-0.16815211
70	0x3d90e638	0.07075161
71	0x3d25124b	0.04030065
72	0x3d234bc0	0.039867163
73	0x3d56777b	0.05236004
74	0x3d531e5e	0.051542632
75	0xbdc823d7	-0.09772461
76	0xbd365299	-0.044512365
77	0xbd84f1e5	-0.0649145
78	0x3dcada4f	0.0990492
79	0x3dbad113	0.09121909
80	0xbdaa5c71	-0.08318413
81	0xbd95305b	-0.07284614
82	0xbd841d21	-0.064508684
83	0xbe4f07b3	-0.20217781
84	0xbdc9fb11	-0.0986234
85	0x3dd4c32b	0.10388788
86	0xbd202489	-0.039097343
87	0x3cf2c351	0.02963415
88	0xbbaf163c	-0.0053432267
89	0x3ceb4326	0.028718542
90	0x3d272146	0.040803216
91	0xbc76316f	-0.015026434
92	0xbcabf6ed	-0.020991767
93	0x3dff5db0	0.12469041
94	0x3ddedb55	0.10881678
95	0x3debae05	0.11507801
96	0xbd9fb3d3	-0.077979706
97	0xbdde0442	-0.10840656
98	0x3b3c3953	0.0028720691
99	0xbd31a09c	-0.04336606
100	0x3d29cfa9	0.041457806
101	0xbb4549f4	-0.0030103894
102	0x3b33d2c8	0.0027438868
103	0xbe3865db	-0.18007605
104	0xbe4e9286	-0.20173082
105	0xbcf5a039	-0.029983627
106	0x3d202366	0.03909626
107	0xbc5a9921	-0.013342173
108	0xbd143f6e	-0.036193304
109	0xbdd39dec	-0.103328556
110	0xbcb1cfb9	-0.021705495
111	0x3d2dca97	0.042429533
112	0xbdc0f6e8	-0.09422094
113	0x3b7249f1	0.0036970342
114	0xbc17940b	-0.009251605
115	0x3e4f4988	0.20242894
116	0x3bc86ef2	0.0061167413
117	0xbe06715e	-0.13129184
118	0xbd639082	-0.055557735
119	0x3d8a6bb7	0.06758826
120	0x3e218811	0.15774561
121	0xbc7a1c57	-0.015265546
122	0x3dc08e59	0.09402151
123	0xbde863f6	-0.11347191
124	0xbc1d9163	-0.009617182
125	0xbdd1e983	-0.10249617
126	0xbccd9e4d	-0.025099898
127	0x3d7206ba	0.059088446
128	0x3d438c06	0.04774096
129	0x3dbb820b	0.09155663
130	0xbd6fe0a1	-0.058563832
131	0x3d93d8a5	0.07219056
132	0x3db8fb87	0.0903235
133	0xbd86330b	-0.065527044
134	0xbd414e12	-0.047193594
135	0x3daf6f77	0.08566182
136	0x3d8bd3cd	0.06827507
137	0xbdc1f781	-0.09471036
138	0xbd99c01a	-0.075073436
139	0x3cd74b72	0.026281092
140	0xbd6720d0	-0.056427777
141	0xbd541187	-0.051774528
142	0xbe09965e	-0.13436267
143	0xbe00ad9b	-0.12566225
144	0x3e02435d	0.1272101
145	0xbe32b867	-0.17453156
146	0x3e3831dd	0.17987771
147	0x3cbd6a36	0.023121934
148	0xbbb79744	-0.005602749
149	0x3dc7082f	0.09718358
150	0xbcd4689a	-0.025928784
151	0xbc5b47c1	-0.013383807
152	0xbcb6b1e4	-0.022301622
153	0xbdbe8cb5	-0.093041815
154	0x3db2f318	0.08737773
155	0x3d967067	0.07345658
156	0xbd0484da	-0.03235326
157	0xbd47fe32	-0.048826404
158	0x3d49082c	0.04908006
159	0xbdb2eadd	-0.08736203
160	0x3dac56e6	0.08415012
161	0x3df8b4b3	0.12143841
162	0xbbb2ea1c	-0.005460037
163	0xbdbdef4d	-0.092741586
164	0xbdf65654	-0.120281845
165	0xbde70e88	-0.112820685
166	0xbd2cb3ca	-0.042163648
167	0x3cc35e02	0.023848537
168	0x3c690aa1	0.014223726
169	0xbcea594a	-0.02860703
170	0xbdb36d93	-0.08761134
171	0xbd218ce9	-0.039441023
172	0xbe00fb0e	-0.1259577
173	0xbd46af2e	-0.048506908
174	0x3d7fd1f9	0.062456105
175	0xbd27c1e6	-0.0409564
176	0x3dc797af	0.09745728
177	0x3c21f942	0.009886088
178	0xbdd00a4e	-0.101582155
179	0xbd34a56e	-0.04410308
180	0xbc173781	-0.009229542
181	0xbb03d7aa	-0.002011756
182	0x3dc112bb	0.09427401
183	0x3dd846f1	0.10560406
184	0xbc5d3a8c	-0.013502728
185	0x3cc7a775	0.024371842
186	0x3d6c915a	0.057755806
187	0x3d4626ee	0.04837697
188	0xbc99df70	-0.018783301
189	0x3cd12ac8	0.025533095
190	0xbda54b04	-0.08070949
191	0x3e23cf92	0.1599715
192	0xbc7b546c	-0.015339952
193	0xbb29163d	-0.0025800609
194	0x3d36e059	0.04464755
195	0x3e0c4945	0.13699825
196	0x3d43db36	0.047816478
197	0x3cbac0cf	0.022797016
198	0x3dc51467	0.09623032
199	0x3dc3f4ff	0.09568214
200	0xbbf87f9f	-0.007583573
201	0xbd2d8842	-0.042366274
202	0xbbade355	-0.005306641
203	0x3de06713	0.1095716
204	0xbcff9305	-0.031198034
205	0x3e2a77d4	0.16647273
206	0xbd469851	-0.048485104
207	0xbc9c1c0c	-0.019056343
208	0x3e320868	0.17386019
209	0xbdedeed9	-0.11617822
210	0xbe324f8f	-0.17413162
211	0xbbcb231d	-0.006199254
212	0x3d37bea8	0.04485956
213	0xbd24ac5f	-0.04020345
214	0xbdaf43f5	-0.08557884
215	0xbe17155f	-0.14754246
216	0xbc227ba2	-0.009917172
217	0x3aaee26c	0.0013342625
218	0x3dd78855	0.1052405
219	0xbe274af2	-0.16337183
220	0xbc2acf8f	-0.010425462
221	0x3ccec37a	0.025239695
222	0xbd9e54c1	-0.07731009
223	0x3d9e825d	0.077397086
224	0x3d761676	0.060080014
225	0x3c8e0be6	0.017339658
226	0x3b0d331d	0.0021545358
227	0x3d79e15d	0.06100594
228	0x3d618ff8	0.05506894
229	0x3d0e808a	0.034790553
230	0x3d8d5767	0.06901436
231	0xbd1a948d	-0.037739325
232	0x3e1e314d	0.15448494
233	0xbda26809	-0.079299994
234	0xbc2fdea9	-0.010734239
235	0xbd934ecd	-0.071927644
236	0x3e0fbaab	0.14036052
237	0x3db13767	0.08653145
238	0xbd094c3b	-0.033519965
239	0xbc8ba901	-0.01704836
240	0xbd278fb1	-0.04090852
241	0x3d8f41af	0.0699495
242	0x3ca2ca09	0.019871728
243	0xbd19cc88	-0.03754857
244	0x3d15f1e7	0.03660765
245	0x3d0f83d2	0.035037823
246	0x3c56f1cf	0.013119175
247	0xbcbb56da	-0.022868562
248	0x3e0719f8	0.131935
249	0xbda0dc1b	-0.07854482
250	0xbd5077d5	-0.05089553
251	0xbd4f538d	-0.05061679
252	0x3d4f0dce	0.050550275
253	0x3d5bdc91	0.053677145
254	0xbdb6a108	-0.08917433
255	0x3c9be8ad	0.019031847

encoder.1.bias f4 [32]
0	0x385ff013	5.339093e-05
1	0xbb512948	-0.0031915475
2	0x39e20614	0.00043110608
3	0xba1762d4	-0.00057749194
4	0x3aab840c	0.0013085618
5	0xbb26b886	-0.0025439574
6	0xbae6abc8	-0.0017598802
7	0xba312208	-0.0006757085
8	0x3937b4f0	0.00017519644
9	0xbb1bb36a	-0.0023758062
10	0xb9497502	-0.00019212443
11	0xb8dae990	-0.000104385545
12	0x3aaa637e	0.0012999622
13	0xba76777f	-0.00094019616
14	0xbad84051	-0.001649866
15	0xbb21ed88	-0.002470823
16	0xb90e8093	-0.00013590073
17	0xbb00b8a6	-0.001964131
18	0xba559eca	-0.00081489666
19	0xba83974d	-0.0010039598
20	0xb94e3495	-0.00019665279
21	0xba83e0fb	-0.0010061556
22	0xb9c24bf2	-0.00037059147
23	0xba39889d	-0.0007077547
24	0x39a53d1a	0.00031516777
25	0x3b0bd062	0.0021333923
26	0x3af73e9a	0.0018863261
27	0xb9565fa2	-0.00020444256
28	0xba984495	-0.0011617119
29	0x3910659b	0.00013770761
30	0xb9efb934	-0.0004572362
31	0x3b141e77	0.0022601166

encoder.4.weight f4 [64, 32, 3, 3]
0	0xbe20181f	-0.15634201
1	0xbdb64cf5	-0.08901397
2	0x3d1dc3a0	0.03851664
3	0x3d828b86	0.06374268
4	0x3d845908	0.06462294
5	0x3d246487	0.040134933
6	0xbdc0599c	-0.09392092
7	0xbdd79576	-0.10526554
8	0x3c0639fe	0.008192537
9	0x3e09faeb	0.13474624
10	0x3df7758b	0.120829664
11	0xbe17ecfb	-0.14836495
12	0xbe4454e8	-0.19173014
13	0xbd5be474	-0.053684667
14	0xbdb4bfdc	-0.08825657
15	0x3d8308a1	0.0639813
16	0xbda308cd	-0.07960663
17	0xbd95d569	-0.073160954
18	0x3dea3a9b	0.11436959
19	0x3ce9eef6	0.028556328
20	0xbe1ebb01	-0.15501024
21	0x3bfd5829	0.007731457
22	0x3da35fd1	0.0797726
23	0xbd8758ba	-0.0660872
24	0xbd58278e	-0.052772097
25	0x3c47373a	0.012159163
26	0x3d04baa0	0.032404542
27	0xbde2e1ca	-0.11078222
28	0xbdc1223b	-0.09430357
29	0xbca1c87e	-0.019748922
30	0xbd3ee7bd	-0.04660772
31	0x3d8c47b9	0.068496175
32	0xbd7c3a76	-0.06157919
33	0xbe05bab5	-0.13059504
34	0xbdc8a251	-0.097965844
35	0xbceebe1d	-0.029143387
36	0x3e353fba	0.17700091
37	0xbd053212	-0.032518454
38	0x3e19ab50	0.15006757
39	0xbc125d88	-0.008933432
40	0xbddf1d58	-0.10894269
41	0xbe071a9c	-0.13193744
42	0xbe170019	-0.14746131
43	0xbcf815c7	-0.030283822
44	0xbccf7a08	-0.025326744
45	0x3dce1bab	0.10063871
46	0xbcdd6c8b	-0.027029296
47	0x3d509150	0.05091983
48	0xbdb56524	-0.08857182
49	0xbd066536	-0.032811366
50	0x3e0a4432	0.13502577
51	0x3daf06a8	0.085461915
52	0xbcde1ae1	-0.027112426
53	0x3dfd9cfe	0.123834595
54	0x3d768961	0.06018961
55	0x3cd7fd60	0.026365936
56	0xbc4f3036	-0.012645772
57	0x3db4c096	0.08825795
58	0x3d2162ac	0.03940074
59	0x3d689b92	0.05678899
60	0xbdc69a8d	-0.09697447
61	0xbdea6a3a	-0.11446042
62	0x3d1c12d9	0.038103912
63	0x3bcb2cce	0.0062004095
64	0x3e26b4ec	0.16279954
65	0x3d8e3616	0.0694391
66	0xbe29da5d	-0.16587205
67	0x3dab5c5d	0.08367226
68	0xbc97bac3	-0.018521672
69	0xbda0bf3c	-0.07848975
70	0xbe51f775	-0.20504554
71	0x3cc8f05f	0.02452868
72	0x3dc7a7f8	0.09748834
73	0x3da6848d	0.08130751
74	0x3d632905	0.05545904
75	0x3d1a886a	0.03772775
76	0xbb616b88	-0.003439637
77	0x3d2d8a56	0.042368256
78	0x3dcf52f3	0.10123243
79	0xbd32950e	-0.04359918
80	0xbd6fb4ab	-0.058521908
81	0x3bb661ae	0.0055658435
82	0x3c6acc1b	0.014330889
83	0xbcc1ab09	-0.023641126
84	0x3d8dedc9	0.069301195
85	0xbd3b251d	-0.04568969
86	0x3c7cf180	0.015438437
87	0x3cb8d411	0.022562059
88	0x3d84ae91	0.064786084
89	0x3c91104b	0.017707964
90	0xbb5f1538	-0.0034039747
91	0x3df0a8f9	0.11750979
92	0x3d716234	0.058931544
93	0x3bd884fa	0.006607649
94	0xbd438258	-0.047731727
95	0xbdb2968b	-0.0872012
96	0x3dd43314	0.10361305
97	0x3cff79e2	0.031186048
98	0xbe398ff4	-0.1812132
99	0xbe117c21	-0.14207508
100	0xbc936dfa	-0.017996777
101	0x3e219f85	0.15783508
102	0x3de0f051	0.10983337
103	0xbb28c92d	-0.0025754676
104	0x3cef59f6	0.029217701
105	0x3d529cf1	0.051419202
106	0x3d770412	0.060306616
107	0x3e2d6f48	0.16936982
108	0xbd9a24f7	-0.07526582
109	0xbd61e614	-0.05515106
110	0x3dc69041	0.09695483
111	0xbd85ff8c	-0.06542882
112	0x3dd3f001	0.103485115
113	0x3d58d861	0.05294073
114	0xbd9a141b	-0.07523366
115	0xbd2caed3	-0.042158913
116	0x3d6adb94	0.057338312
117	0xbd6d42c4	-0.057925
118	0xbcf999a4	-0.03046877
119	0xbca218d1	-0.019787224
120	0xbde80951	-0.11329902
121	0x3c1bf98d	0.009519947
122	0xbd6f7f52	-0.05847103
123	0x3b8e7b20	0.0043481737
124	0xbd9b98b3	-0.075974844
125	0xbd34afd7	-0.044113006
126	0xbd87cd62	-0.066309705
127	0x3d6af718	0.057364553
128	0xbbab256e	-0.005222968
129	0x3d95350e	0.0728551
130	0xbd9bd34b	-0.0760866
131	0x3c380302	0.011231186
132	0xbe48bb5d	-0.19602723
133	0xbdf0af75	-0.11752216
134	0x3d5b7e87	0.053587463
135	0xbe65a957	-0.2242788
136	0x3bde93db	0.006792528
137	0xbd754336	-0.05987855
138	0xbe0a3873	-0.13498096
139	0xb947d8ae	-0.00019058838
140	0xbda1eb00	-0.07906151
141	0x3ba22eb9	0.0049494174
142	0x3d7df209	0.0619984
143	0x3dd4be15	0.10387818
144	0xbdb69ba9	-0.089164086
145	0x3ca05527	0.019571854
146	0x3df4e69c	0.11958048
147	0xbd053ac1	-0.032526735
148	0x3e11bb17	0.14231525
149	0x3d40b7df	0.047050353
150	0xbe07f5b7	-0.13277327
151	0x3e211d39	0.15733804
152	0x3da1e08a	0.079041556
153	0xbe486d3a	-0.19572917
154	0xbbbe3af4	-0.0058053676
155	0x3d485d1e	0.04891693
156	0x3c0be74f	0.008539035
157	0xbd286890	-0.041115344
158	0xbdcb0108	-0.09912306
159	0xbc952110	-0.018204242
160	0xbc060b4b	-0.008181403
161	0xbce55878	-0.027996287
162	0x3d8db427	0.06919127
163	0xbd51f9cb	-0.05126361
164	0xbdd57afb	-0.10423847
165	0x3d2e49e1	0.042550925
166	0xbda58925	-0.08082799
167	0xbdac6272	-0.084172145
168	0xbbf5500f	-0.0074863504
169	0x3c83f118	0.016106173
170	0x3d956c82	0.07296087
171	0xbaa5d7ff	-0.0012652873
172	0x3d7c1a49	0.061548505
173	0xbd9f2e23	-0.07772472
174	0x3d5451b3	0.051835727
175	0x3d877e7c	0.06615922
176	0xbcb6000f	-0.022216825
177	0xbbc5c900	-0.006035924
178	0x3c214f77	0.009845606
179	0xbd7dc9a9	-0.061959896
180	0x3daf0156	0.08545177
181	0xbc7ce274	-0.01543485
182	0xbdbdaa88	-0.09261042
183	0x3e738075	0.23779471
184	0xbd1f3a49	-0.038873944
185	0x3e065a30	0.13120341
186	0x3d11f8f7	0.035637822
187	0xbd3b55a7	-0.04573598
188	0xbc8ee913	-0.017445123
189	0x3c832f19	0.016013669
190	0xbdeee064	-0.11663893
191	0x3db52fd6	0.088470146
192	0xbdcea71c	-0.10090467
193	0xbe098764	-0.13430554
194	0x3d1b486a	0.037910856
195	0xbd873d10	-0.066034436
196	0x3d95c37f	0.073126785
197	0xbc0bed5f	-0.00854048
198	0xbd38ff8d	-0.045165587
199	0xbbb5b8f7	-0.005545731
200	0xbda61f23	-0.081114076
201	0x3d35ce66	0.04438629
202	0xbde434b4	-0.11142865
203	0xbda6c2bd	-0.08142612
204	0xbacf4cdb	-0.0015815751
205	0x3d7ff5cd	0.062490273
206	0x3bbaebfd	0.0057044015
207	0x3d88310c	0.0664998
208	0xbaa056b4	-0.0012232871
209	0x3bc4e189	0.006008331
210	0xbd759a02	-0.059961326
211	0x3cddcf09	0.027076261
212	0x3da3f950	0.08006537
213	0x3e1fc3aa	0.15601984
214	0xbda3c03d	-0.07995651
215	0xbd19ac7b	-0.037518006
216	0xbc4bae2c	-0.0124316625
217	0xbdf9801b	-0.12182637
218	0x3d99f089	0.075165816
219	0x3c765d93	0.015036958
220	0xbdc87446	-0.097878024
221	0x3bba219f	0.0056802775
222	0xbd4d8f83	-0.05018569
223	0xbd837bc9	-0.064200945
224	0xbd8e34da	-0.069436744
225	0x3e0126ea	0.12612501
226	0x3d844312	0.06458105
227	0x3beec75d	0.0072869495
228	0x3cb29448	0.021799222
229	0x3dd2548d	0.10270033
230	0x3d9a5ffa	0.07537837
231	0xbd33fc34	-0.04394169
232	0xbba557ec	-0.0050458815
233	0xbd1f029c	-0.038820848
234	0xbd466fff	-0.04844665
235	0xbdb71fe3	-0.08941629
236	0xbca922db	-0.020646503
237	0x3bd7aa70	0.006581597
238	0x3e03d0e4	0.12872654
239	0xbdb36ddf	-0.087611906
240	0xbc23ffb8	-0.010009699
241	0xbcb6260b	-0.022234937
242	0xbd8732ca	-0.06601484
243	0xbd9d0642	-0.07667209
244	0xbde5a273	-0.11212625
245	0xbb9c4035	-0.0047683963
246	0x3dae0dc5	0.0849872
247	0xbd3aa3c2	-0.045566328
248	0x3cda99d8	0.026684687
249	0xbda68baa	-0.081321076
250	0x3d76c88d	0.060249854
251	0x3dcc1024	0.09964016
252	0x3e033dd3	0.12816553
253	0xbe19b1b0	-0.15009189
254	0xbc0d20c5	-0.00861377
255	0xbc23c86b	-0.009996514

encoder.4.bias f4 [64]
0	0xbaf33057	-0.0018553835
1	0xba2e6835	-0.00066531013
2	0xba1ac0b4	-0.0005903349
3	0xbae8dbb5	-0.0017765673
4	0xbafac222	-0.0019131342
5	0x385e927e	5.3065356e-05
6	0xbabf1a50	-0.0014579985
7	0xba17f7fa	-0.0005797144
8	0xba7add47	-0.0009569716
9	0x39aa3332	0.0003246307
10	0xbb1ea29b	-0.0024205807
11	0x3b34bfdf	0.0027580184
12	0x39aa0a5b	0.00032432642
13	0x39236429	0.00015582204
14	0x3a0c1dc5	0.0005345012
15	0xba1df93e	-0.00060262147
16	0x388f0a52	6.820694e-05
17	0xb811e162	-3.4780598e-05
18	0xb9aa6a9c	-0.00032504357
19	0xb8baaee1	-8.901745e-05
20	0xba21c604	-0.0006171169
21	0x3ae4e405	0.0017462975
22	0xb93763e4	-0.00017489452
23	0x3b915fe9	0.004436482
24	0xba448f7b	-0.0007498187
25	0xb9584fb3	-0.00020629056
26	0xbb0cbf0b	-0.0021476175
27	0x38f394a5	0.0001161483
28	0x3acbeb94	0.0015557879
29	0xbab858ce	-0.0014064552
30	0xb8e1f05a	-0.00010773605
31	0x39add9a3	0.00033159283
32	0xbb268476	-0.0025408543
33	0xb991d46d	-0.00027814825
34	0x3a9c913d	0.001194514
35	0xbac3aeb9	-0.0014929391
36	0xba42addf	-0.00074264215
37	0xb99a0a63	-0.00029380908
38	0xb822c086	-3.880311e-05
39	0xba9931c1	-0.0011687801
40	0xb9897e82	-0.00026224932
41	0xba37d846	-0.0007013123
42	0xb92c7b2c	-0.00016449083
43	0x3af39e36	0.0018586579
44	0xb888a1d0	-6.515125e-05
45	0xbac7bb7d	-0.0015238371
46	0xba28db43	-0.0006441364
47	0x3a268733	0.0006352544
48	0xb894d0fd	-7.096117e-05
49	0xb9f3497f	-0.0004640333
50	0x38535290	5.0383213e-05
51	0x387562ce	5.850457e-05
52	0x3a40f00c	0.00073599885
53	0xba717e5c	-0.00092122494
54	0x3ad020bb	0.0015878895
55	0xb9198ff8	-0.0001464485
56	0x3ad03b72	0.0015886857
57	0x38ef6d22	0.00011416736
58	0x39838242	0.00025083317
59	0x39ebec64	0.00044998818
60	0xbabe9c01	-0.0014542342
61	0xb9e3b3a7	-0.00043430665
62	0x3aba8a61	0.0014231914
63	0xbad66757	-0.0016357702

actor.0.weight f4 [64, 32, 3, 3]
0	0x3dde9c54	0.10869661
1	0xbda1ce5c	-0.07900688
2	0x3d70157d	0.058614243
3	0xbdb95dc2	-0.09051086
4	0x3da18b36	0.078878805
5	0xbc22490e	-0.009905113
6	0x3af79d2b	0.0018891444
7	0xbbb28ab7	-0.005448665
8	0xbbb1684e	-0.0054140454
9	0x3d125480	0.035725117
10	0x3cda0c45	0.026617179
11	0xbd9bce75	-0.07607738
12	0xbdb50000	-0.088378906
13	0x3dbd2ef6	0.09237473
14	0xbd8fe125	-0.07025365
15	0xbd0c7d6f	-0.03429931
16	0x3dcc371b	0.09971448
17	0xbba9e10d	-0.005184299
18	0xbdbe11e5	-0.09280757
19	0xbd99ec72	-0.075158015
20	0xbe2994b2	-0.16560629
21	0x3dee14ad	0.11625037
22	0x3d8c0bcb	0.06838187
23	0xbddecb64	-0.108786374
24	0x3db92340	0.090399265
25	0x3e0ae891	0.1356528
26	0x3d3fdf5f	0.046843883
27	0x3c79783d	0.015226421
28	0x3db63a1f	0.088978045
29	0xbcfa0869	-0.030521588
30	0x3e001d13	0.12511091
31	0x3c3709af	0.011171742
32	0x3d783d46	0.06060531
33	0x3dd01236	0.101597235
34	0xbd028c61	-0.031872157
35	0xbcd4c1ea	-0.025971372
36	0x3d4c167b	0.049826127
37	0xbccbfe40	-0.02490151
38	0xbcc77c4f	-0.024351267
39	0xbde696e6	-0.1125925
40	0x3dbec39d	0.09314654
41	0xbdcefc6c	-0.101067394
42	0xbc50e102	-0.012748959
43	0x3d42d4a3	0.047566067
44	0x3dbe62ab	0.09296163
45	0x3d403680	0.046926975
46	0xbe0b73fd	-0.13618465
47	0x3e0461ef	0.12927984
48	0xbde3371f	-0.11094498
49	0xbdd74952	-0.105120316
50	0xbd373e6e	-0.044737272
51	0xbb0fc80e	-0.002193931
52	0x3dcce1a5	0.10003976
53	0xbd2ea1c5	-0.042634744
54	0x3d304389	0.043033157
55	0xbd99e0dd	-0.075135924
56	0xbd18f21c	-0.03734027
57	0x3c934b4d	0.017980242
58	0xbd5a0779	-0.053229783
59	0x3dbd4545	0.09241728
60	0xbdb66ee6	-0.08907871
61	0x3e83cad2	0.25740677
62	0x3e1a99b1	0.15097691
63	0x3e658b09	0.22416319
64	0x3ad83368	0.0016494812
65	0xbd6650b8	-0.056229323
66	0xbdff0c31	-0.12453497
67	0xbe581c1c	-0.21104473
68	0x3da0c748	0.0785051
69	0xbd007f55	-0.031371433
70	0xbde9a039	-0.11407513
71	0x3d2820ca	0.041046895
72	0x3d287931	0.041131202
73	0xb9f69e17	-0.00047038562
74	0x3de1bd97	0.110224895
75	0x3cddcc0d	0.027074838
76	0x3d225ce2	0.03963936
77	0xbc8f4dbb	-0.01749312
78	0x3c9395aa	0.018015701
79	0xbd188fb1	-0.03724641
80	0xbe038c00	-0.12846375
81	0x3dd7bcac	0.10534033
82	0xbccced4f	-0.025015501
83	0x3d0a4c8a	0.0337644
84	0x3dc6012d	0.09668193
85	0xbd76a709	-0.06021789
86	0xbd98d28e	-0.07462035
87	0xbd9020b0	-0.07037485
88	0xbb7f9ff4	-0.0039005252
89	0xbd29df9a	-0.04147301
90	0x3c42ca3d	0.011889038
91	0xbdad4338	-0.084600866
92	0x3d6bab71	0.057536546
93	0x3d5a8a3b	0.053354483
94	0x3dcb8dcb	0.09939154
95	0x3dc80ddf	0.09768271
96	0x3e081a9e	0.13291404
97	0x3d70e061	0.058807734
98	0xbc6cb2f6	-0.0144469645
99	0xbd001944	-0.031274095
100	0x3dd7de18	0.10540408
101	0xbd52eb4f	-0.05149394
102	0xba86a981	-0.0010273905
103	0xbd88cf7c	-0.066801995
104	0x3c3c8d6d	0.011508328
105	0xbde5d17b	-0.11221596
106	0x3d98653d	0.07441185
107	0xbb6f8288	-0.0036546309
108	0x3e4354c6	0.19075307
109	0xbc83df8a	-0.016097803
110	0x3d1aea20	0.037820935
111	0xbdd39319	-0.10330791
112	0xbc89499a	-0.016758729
113	0xbc8db41f	-0.017297802
114	0x3d0b9902	0.034081466
115	0x3cb4a04c	0.022049092
116	0x3c903b2c	0.01760634
117	0xbb8e2974	-0.0043384377
118	0xbdf6925b	-0.12039634
119	0x3be48b8e	0.006974644
120	0x3e45e94b	0.19327275
121	0x3c37c522	0.011216434
122	0x3d4a242d	0.049350906
123	0xbd3ae7cf	-0.045631226
124	0x3da187c3	0.078872226
125	0x3c0a0acf	0.0084254285
126	0x3c3a4b9a	0.011370564
127	0x3c8e00f7	0.017334444
128	0x3b170bdc	0.002304784
129	0x3c2b1ef6	0.010444393
130	0x3e1e3023	0.1544805
131	0xbcfeea2d	-0.031117523
132	0x3c0d08a9	0.008608022
133	0x3d1519d3	0.03640158
134	0xbd3c8b75	-0.046031434
135	0x3d66efc4	0.056381002
136	0x3d65ce95	0.056105215
137	0x3c65d215	0.014027138
138	0xbced9911	-0.029003652
139	0x3db9829a	0.090581134
140	0x3b3647c8	0.002781378
141	0xbde3d24a	-0.11124094
142	0xbcb77396	-0.022393983
143	0x3d8f3052	0.06991638
144	0xbdfb4e7d	-0.1227083
145	0x3de363ca	0.11103018
146	0x3d49e48f	0.049290236
147	0x3b91dccb	0.0044513694
148	0xbb57e58d	-0.003294322
149	0x3dbef260	0.09323573
150	0xbd2286bb	-0.03967927
151	0xbdc6333e	-0.096777424
152	0xbd914392	-0.07092966
153	0xbc75ae17	-0.01499512
154	0xbbb996fe	-0.0056637516
155	0x3d99cc0e	0.075096235
156	0xbce1e853	-0.027576601
157	0x3d8b09a5	0.06788949
158	0xbe1ea290	-0.154917
159	0xbe1ed21f	-0.15509842
160	0xbe215e4e	-0.1575863
161	0xbd55bd73	-0.052182626
162	0x3e553362	0.20820382
163	0x3c908627	0.017642094
164	0x3d906163	0.07049825
165	0xbde236a9	-0.11045582
166	0x3d89bd4d	0.067255594
167	0xbb5e7f1b	-0.0033950272
168	0x3e17ce28	0.14824736
169	0x3dbe3b2c	0.0928863
170	0xbe4d0847	-0.20022689
171	0xbd0330d8	-0.032029003
172	0x3d268168	0.040650755
173	0x3d2dafc9	0.04240397
174	0x3e7bc191	0.24585558
175	0xbd149c52	-0.03628189
176	0xbdb86a3c	-0.090046376
177	0x3d6cf1a3	0.05784763
178	0xbe08267e	-0.13295934
179	0xbd3195cb	-0.043355744
180	0xbd169826	-0.036766194
181	0x3e4ac4ea	0.19801679
182	0xbe2a213c	-0.1661424
183	0xbd887305	-0.06662563
184	0xbdf1fb94	-0.11815563
185	0x3c952069	0.01820393
186	0x3b742459	0.003725311
187	0xbccd56cb	-0.0250658
188	0xbd00d8dc	-0.031456813
189	0xbd28e322	-0.041232236
190	0x3d62806a	0.055298246
191	0xbdc0ab08	-0.094076216
192	0x3d97e04f	0.0741583
193	0x3c35ec36	0.01110368
194	0xbc9b134c	-0.0189301
195	0xbce28ae9	-0.027654128
196	0xbcf8db1a	-0.030377913
197	0x3d8ddeee	0.06927286
198	0x3c2fa552	0.010720568
199	0x3b3ff16e	0.002928819
200	0xbdeb9313	-0.115026616
201	0x3d2fee2a	0.04295174
202	0xbcb36027	-0.021896435
203	0xbd2cd960	-0.042199492
204	0x3cee290b	0.029072305
205	0xbc7aa4af	-0.015298053
206	0xbc8c87c7	-0.017154587
207	0xbdb8bdbc	-0.09020564
208	0xbe491a50	-0.19638944
209	0x3c185881	0.009298445
210	0xbe473c3f	-0.19456576
211	0xbe0aaf9d	-0.13543554
212	0xbd553425	-0.052051682
213	0xbda6352e	-0.08115612
214	0xbc8ba498	-0.017046258
215	0x3d5e35cb	0.05425052
216	0xbd9921f7	-0.074771814
217	0x3cd00ed9	0.025397705
218	0x3d48e32d	0.049044777
219	0x3d556d72	0.05210633
220	0xbc63c220	-0.0139012635
221	0xbcc9689d	-0.024586016
222	0x3ca6e572	0.02037308
223	0xbe08704f	-0.13324092
224	0xbd7796eb	-0.06044666
225	0x3e123794	0.14279014
226	0xbcfa18dc	-0.030529432
227	0xbd811e51	-0.063046105
228	0x3c902c6f	0.017599313
229	0x3ddedc5e	0.108818755
230	0xbd0f7d82	-0.035031803
231	0x3d2cf278	0.042223424
232	0xbdd42135	-0.10357896
233	0xbd838697	-0.06422155
234	0xbd3ed682	-0.04659129
235	0x3e0d8193	0.1381896
236	0x3cc965d4	0.024584688
237	0xbcd715e6	-0.02625556
238	0x3d938202	0.072025314
239	0xbddb7171	-0.107149966
240	0x3a7aff7f	0.0009574815
241	0x3e005e96	0.12536082
242	0x3e4133b4	0.1886738
243	0x3dd3ef3a	0.10348363
244	0xbd9e79b7	-0.07738059
245	0x3ba772d4	0.005110124
246	0xbd13bb28	-0.036067158
247	0xbd197c20	-0.03747189
248	0x3dab671b	0.08369275
249	0xbc9a4d3e	-0.01883566
250	0xbd144933	-0.03620262
251	0xbd9362f4	-0.07196608
252	0x3dbe6ba1	0.09297872
253	0xbd0cedc6	-0.034406446
254	0xbdc6a20b	-0.09698876
255	0xbda6d9e8	-0.08147031

actor.0.bias f4 [32]
0	0xba423d4a	-0.00074096455
1	0x38093b3b	3.2718508e-05
2	0x3a65977a	0.00087582285
3	0x3a0f3b78	0.00054638786
4	0xbb0b131e	-0.0021221112
5	0xbab27d45	-0.0013617655
6	0xbacac11a	-0.0015468926
7	0x3af8815c	0.001895945
8	0xbb196241	-0.002340451
9	0xbb0521ae	-0.0020314264
10	0xb9c80207	-0.00038148483
11	0xb9f5ea07	-0.00046904405
12	0x3b5eeafd	0.0034014576
13	0xba7e5467	-0.0009701908
14	0xba9440b5	-0.0011310788
15	0x3b5b1e8b	0.0033434953
16	0xb934d18f	-0.00017244204
17	0xbaca08f4	-0.0015414045
18	0x3a28d05a	0.0006439738
19	0x3ad1d8cf	0.0016010049
20	0x3b23c9c0	0.0024992079
21	0x3a09aaef	0.00052516063
22	0x3a613f82	0.0008592532
23	0xba7d5a39	-0.00096646283
24	0xb8bdaa70	-9.043969e-05
25	0x379ab664	1.8443163e-05
26	0xbb1eeab0	-0.0024248771
27	0x3a5131bc	0.0007980128
28	0x3977fdc1	0.00023650286
29	0x3b1a665a	0.0023559541
30	0x3b53298c	0.0032220809
31	0xbafc0fa0	-0.0019230731

actor.2.weight f4 [32, 78, 3, 3]
0	0xba6db7df	-0.00090682314
1	0x3d20e9ad	0.03928535
2	0xbb9be51a	-0.0047575356
3	0x3b493807	0.003070356
4	0x3ce62690	0.02809456
5	0x3d111627	0.035421517
6	0xbd7f97a2	-0.062400468
7	0xbca44b2a	-0.020055372
8	0xbdaafb6f	-0.083487384
9	0xbd9a4040	-0.07531786
10	0xbd63988d	-0.055565406
11	0x3d1e58d1	0.03865892
12	0x3d6d8cbc	0.057995543
13	0xbcb46555	-0.022020975
14	0x3da1f4b8	0.079080045
15	0x3d2bb635	0.041921813
16	0xbd2616d8	-0.04054913
17	0xbd8e43be	-0.069465145
18	0xbd6dcc49	-0.05805615
19	0xbc7e8423	-0.015534434
20	0x3d94055e	0.07227586
21	0xbd9f9606	-0.077922866
22	0x3dbfa706	0.09358029
23	0xbd6154a8	-0.055012375
24	0x3d8e46e9	0.06947119
25	0xbd6d3248	-0.05790928
26	0xbd83ce3d	-0.06435821
27	0x3d05123b	0.03248809
28	0xbc497c16	-0.012297651
29	0x3cad86e9	0.021182494
30	0xbb4aa998	-0.003092384
31	0x3da79b5f	0.081839316
32	0x3bd63b48	0.0065378286
33	0xbdb51b81	-0.088431366
34	0xbd40ac66	-0.047039412
35	0x3bbeceb1	0.0058229794
36	0x3cc5790a	0.024105567
37	0xbd89914b	-0.067171656
38	0x3d7b059d	0.06128465
39	0x3c3c7a5d	0.011503783
40	0xbd2be06f	-0.041962083
41	0x3d1a3d88	0.037656337
42	0xbd9311c1	-0.07181121
43	0x3d0e0559	0.03467307
44	0x3d2068c5	0.039162416
45	0x3d3cd1dd	0.04609858
46	0x3c107eb2	0.008819269
47	0x3c8259c3	0.015911942
48	0x3bf41726	0.0074490486
49	0x3c8077c7	0.015682114
50	0x3d3353ec	0.043781206
51	0xbc14c68a	-0.0090805385
52	0xbbd90598	-0.0066229813
53	0xbda3c4ce	-0.07996522
54	0x3cda3cea	0.026640374
55	0x3dc20cbb	0.094750844
56	0xbd98b2d0	-0.07455981
57	0xbd0d0307	-0.034426715
58	0xbdd190e3	-0.10232713
59	0x3db6c537	0.089243345
60	0x3abee720	0.001456473
61	0xbd68a64f	-0.05679923
62	0xbd5f2987	-0.054482963
63	0x3d9d9f68	0.0769642
64	0xbd62fffc	-0.055419907
65	0xbc0db74b	-0.0086496575
66	0xbcfc4372	-0.03079388
67	0xbd95a4b8	-0.07306808
68	0x3d592cb3	0.053021144
69	0x3d055cd7	0.032559242
70	0xbdfeb60e	-0.12437068
71	0x3d058330	0.032595813
72	0x3c2eca60	0.010668367
73	0x3b3e5076	0.0029039658
74	0xbd5cf785	-0.05394699
75	0x3d6f163c	0.058370814
76	0x3d2690a3	0.04066528
77	0xbdb331f9	-0.08749766
78	0xbc9e79e3	-0.01934523
79	0xbd8b80ee	-0.06811701
80	0x3d99a258	0.07501668
81	0xbc84eb5c	-0.01622551
82	0xbd806ea3	-0.06271102
83	0xbc8ef565	-0.017450998
84	0x3cc38143	0.023865348
85	0xbc60693c	-0.013696965
86	0xbd9c8c46	-0.076439425
87	0xbd7eb655	-0.062185604
88	0x3d8dd11c	0.0692465
89	0xbe0c7bf0	-0.13719153
90	0x3df18b0c	0.11794099
91	0xbd88144e	-0.06644498
92	0xbda8d973	-0.082446
93	0xbd5fdbe8	-0.05465308
94	0x3d0cfe5f	0.034422275
95	0xbd4d8d99	-0.050183866
96	0x3d226b00	0.039652824
97	0x3c1871bd	0.009304461
98	0x3afd8a8a	0.0019343656
99	0xbd42a75e	-0.047522895
100	0xbbea77ea	-0.007155408
101	0xbda2af40	-0.079435825
102	0x3d49d35a	0.049273826
103	0x3d131abf	0.03591418
104	0x3ce05fcc	0.02738943
105	0x3cb9cb4e	0.022679951
106	0xbd832937	-0.064043455
107	0xbdd8a7c7	-0.10578876
108	0xbc7edb43	-0.015555206
109	0x3c64e83e	0.0139713865
110	0x3e071459	0.13191356
111	0xbd4d4a9b	-0.050119977
112	0x3cb2e930	0.021839708
113	0xbd517f44	-0.05114676
114	0x3c066689	0.008203157
115	0xbcc62de6	-0.024191808
116	0xbdf46eb2	-0.11935176
117	0x3bab3270	0.0052245185
118	0xbda72986	-0.08162217
119	0xbc1cf7f3	-0.0095806
120	0x3d14c8ce	0.036324315
121	0xbd46c629	-0.048528824
122	0xbd54c1df	-0.051942702
123	0xbdd6e67d	-0.10493181
124	0xbde334cf	-0.11094057
125	0x3d1791f7	0.037004437
126	0xbd735033	-0.059402656
127	0xbd86bd96	-0.065791294
128	0x3db4ef3d	0.088346936
129	0x3d470efb	0.04859827
130	0xbd889a5d	-0.066700675
131	0xbd91592a	-0.07097085
132	0xbbd1c1a2	-0.0064012567
133	0xbd84d468	-0.06485826
134	0xbd3fbc7b	-0.04681061
135	0xbd245792	-0.040122576
136	0xbd0011b3	-0.03126688
137	0xbcc4b474	-0.024011828
138	0xbd71b8e1	-0.059014205
139	0xbd6a8b00	-0.057261467
140	0x3c6e3c68	0.014540769
141	0xbd21f888	-0.03954366
142	0x3cf6e76c	0.030139647
143	0xbd7ed30c	-0.06221299
144	0xbca07826	-0.019588541
145	0x3de31efb	0.110898934
146	0x3cd9a3c1	0.026567342
147	0xbd8721a3	-0.065982126
148	0x3d1979c6	0.037469648
149	0x3d27fbd0	0.04101163
150	0x3c229d17	0.009925148
151	0xbcd10855	-0.025516668
152	0x3c36707e	0.011135219
153	0x3d757e1a	0.059934713
154	0xbd02d055	-0.031936962
155	0xbdbd138a	-0.092322424
156	0xbcd47afc	-0.02593755
157	0xbd545b15	-0.051844675
158	0xbd94239c	-0.072333544
159	0x3ceff03a	0.029289354
160	0xbdc26d38	-0.09493488
161	0xbd71ea62	-0.059061415
162	0xbbd34418	-0.0064473264
163	0xbd07a44c	-0.03311567
164	0xbba660f7	-0.005077477
165	0xbc53126b	-0.012882809
166	0x3d2e3814	0.04253395
167	0x3d8509ed	0.06496034
168	0xbd9d9ac8	-0.07695538
169	0x3cf1cf17	0.029517693
170	0x3d98690b	0.0744191
171	0x3d684f3a	0.05671618
172	0xbd350d37	-0.044202056
173	0x3cbffaf2	0.02343509
174	0xbc9de33a	-0.01927339
175	0xbdd9bb19	-0.10631389
176	0xbd2cacd4	-0.04215701
177	0xbd01c3f1	-0.031681005
178	0xbbf19e7a	-0.007373628
179	0xbd5c7353	-0.05382092
180	0x3d6d4359	0.057925556
181	0x3d7fbe48	0.062437326
182	0x3d1a1cda	0.03762517
183	0xbd7485be	-0.05969786
184	0xbae78ece	-0.001766646
185	0xba8a3c77	-0.0010546584
186	0x3cda3a71	0.026639195
187	0xbd623679	-0.05522773
188	0xbd46b4bc	-0.048512205
189	0xbdd85986	-0.1056395
190	0x3c872d41	0.016501071
191	0x3d6e9bdb	0.058254104
192	0xbb1df541	-0.0024102482
193	0xba32231e	-0.0006795394
194	0x3b7a1c2f	0.0038163771
195	0x3db2d032	0.08731116
196	0x3d12b3f0	0.035816133
197	0xbd0bf9c2	-0.034173734
198	0x3d990f45	0.074736156
199	0x3d9a09a7	0.07521372
200	0x3ae3ece7	0.0017389328
201	0x3c02478a	0.007951627
202	0x3d35264e	0.044225983
203	0xbb3bf86c	-0.0028682007
204	0x3d89a395	0.06720654
205	0x3da0f50a	0.078592375
206	0xbd0f572e	-0.03499525
207	0xbc69e4db	-0.014275755
208	0x3c1f220e	0.009712709
209	0x3d865540	0.06559229
210	0x3d86458b	0.06556233
211	0xbd804e13	-0.062648915
212	0xbb811cd2	-0.003940203
213	0xbd6e2d9e	-0.058148973
214	0xbcf02111	-0.029312642
215	0x3da26014	0.07928482
216	0xbd6d18d7	-0.057885017
217	0x3be5a166	0.0070077656
218	0xbd87311a	-0.06601162
219	0xbdb4aa34	-0.08821526
220	0xbcba597a	-0.022747744
221	0xbc184757	-0.0092943525
222	0x3ddea1b9	0.1087069
223	0x3d4dc3d7	0.050235596
224	0x3c8101ed	0.015747989
225	0x3e027fe8	0.12744105
226	0xbdb4f205	-0.08835224
227	0xbaab7759	-0.0013081833
228	0x3d92e4c6	0.07172541
229	0xbadf0993	-0.0017016403
230	0xbcaeba8b	-0.021329185
231	0xbcdc9cf2	-0.026930306
232	0xbcb7e3ce	-0.022447493
233	0x3d88c25f	0.06677698
234	0xbc1b4ef8	-0.009479277
235	0x3d99e712	0.07514776
236	0x3dbea11d	0.09308074
237	0xbbdfc966	-0.0068294285
238	0xbd468bca	-0.048473157
239	0x3d0c2b41	0.034220938
240	0x3ca29fdf	0.019851623
241	0xbc2f07ec	-0.010683041
242	0xbc2649fb	-0.010149474
243	0xbc3cca2e	-0.011522813
244	0xbcdb756c	-0.02678939
245	0xbcf25caa	-0.029585201
246	0x3d8d9c6b	0.069146
247	0xbc7ef245	-0.015560691
248	0x3b8844b6	0.0041585816
249	0xbd532b32	-0.051554866
250	0x3cdb1187	0.026741756
251	0xbd72a011	-0.059234682
252	0x3d4994ab	0.049214046
253	0x3cbda881	0.023151638
254	0xbd5b35c0	-0.053518057
255	0xbbaf9446	-0.0053582517

actor.2.bias f4 [78]
0	0xba9b2d7c	-0.0011839117
1	0xba83b7a9	-0.0010049242
2	0x3bebc5ef	0.0071952264
3	0x3bc18614	0.005905876
4	0xba24257a	-0.0006261688
5	0xbb0733af	-0.002063017
6	0xb896b1c7	-7.185671e-05
7	0x3b12c01e	0.0022392343
8	0xbb750661	-0.0037387835
9	0x3a00d8b9	0.00049151067
10	0x00000000	0.0
11	0x00000000	0.0
12	0x00000000	0.0
13	0x00000000	0.0
14	0x00000000	0.0
15	0x00000000	0.0
16	0x00000000	0.0
17	0x00000000	0.0
18	0xbb34c9cb	-0.0027586098
19	0xb90d0544	-0.0001344877
20	0x3b57e35b	0.003294191
21	0x3abac594	0.0014249557
22	0x00000000	0.0
23	0x00000000	0.0
24	0x00000000	0.0
25	0x00000000	0.0
26	0x00000000	0.0
27	0x00000000	0.0
28	0x00000000	0.0
29	0x00000000	0.0
30	0x00000000	0.0
31	0x00000000	0.0
32	0x00000000	0.0
33	0x00000000	0.0
34	0x00000000	0.0
35	0x00000000	0.0
36	0x00000000	0.0
37	0x00000000	0.0
38	0x00000000	0.0
39	0x00000000	0.0
40	0x00000000	0.0
41	0x00000000	0.0
42	0x00000000	0.0
43	0x00000000	0.0
44	0x00000000	0.0
45	0x00000000	0.0
46	0xbaf099a0	-0.0018356331
47	0x00000000	0.0
48	0x00000000	0.0
49	0x00000000	0.0
50	0x00000000	0.0
51	0x00000000	0.0
52	0xbad6ebcf	-0.0016397181
53	0x00000000	0.0
54	0xb927f1f2	-0.00016016493
55	0x00000000	0.0
56	0x00000000	0.0
57	0x00000000	0.0
58	0x00000000	0.0
59	0x00000000	0.0
60	0x3af3d368	0.0018602433
61	0x00000000	0.0
62	0x00000000	0.0
63	0x00000000	0.0
64	0x00000000	0.0
65	0x00000000	0.0
66	0x00000000	0.0
67	0x00000000	0.0
68	0x00000000	0.0
69	0x00000000	0.0
70	0x00000000	0.0
71	0x00000000	0.0
72	0x00000000	0.0
73	0x00000000	0.0
74	0x00000000	0.0
75	0x00000000	0.0
76	0x00000000	0.0
77	0x00000000	0.0

critic.1.weight f4 [128, 1024]
0	0xbb9ef432	-0.0048508877
1	0xbd8fabea	-0.07015212
2	0xbcf81077	-0.030281289
3	0xbbf1343e	-0.007360964
4	0xbcc26e5d	-0.023734266
5	0x3a4b2de0	0.00077506714
6	0xbb1d797e	-0.0024028714
7	0xbd0c2f58	-0.034224838
8	0x3b5e62db	0.0033933434
9	0x3d63a8e1	0.055580977
10	0xbc83149b	-0.016001036
11	0x3d016599	0.03159103
12	0xbd21788f	-0.039421614
13	0xbd93b12c	-0.07211527
14	0xbd1006d2	-0.035162754
15	0xbc922790	-0.01784113
16	0x3a1c0ac2	0.0005952531
17	0xbcd7f6f0	-0.026362866
18	0x3c1743b6	0.009232452
19	0xbc59088d	-0.013246668
20	0x3ba31c4c	0.0049777385
21	0xbd3134ce	-0.04326325
22	0x3d14a1e9	0.036287222
23	0xbd2c9ef2	-0.04214377
24	0x3bf08dea	0.007341136
25	0xbd0dbfa7	-0.034606602
26	0x3d1c56a9	0.038168583
27	0x3c7ad00a	0.015308389
28	0xbc733c0c	-0.014845859
29	0xbd08f538	-0.033436984
30	0x3bbf3f5a	0.0058364095
31	0xbca08f22	-0.019599501
32	0x3da866fb	0.08222767
33	0xbd50bee2	-0.05096329
34	0xbbebbb2f	-0.007193945
35	0x3c86c205	0.016449938
36	0xbc2c85a0	-0.010529906
37	0xbc348b9e	-0.011019615
38	0xbd4d01c7	-0.050050523
39	0x3d17f08f	0.03709465
40	0xbd73fa40	-0.05956483
41	0x3ccae5d9	0.024767803
42	0x3ca39878	0.019970164
43	0x3d812cfd	0.06307409
44	0x3d5594c4	0.052143827
45	0x3bba7385	0.0056900405
46	0x3ba0e908	0.004910592
47	0x3ba40013	0.0050048917
48	0xbc45adaa	-0.0120653305
49	0x3ba00b11	0.0048841317
50	0x3d8c1deb	0.06841644
51	0xbbddbee3	-0.0067671402
52	0xbb14969e	-0.0022672783
53	0xbd1551bc	-0.0364549
54	0xbc8fff70	-0.017577857
55	0x3dee1f47	0.116270594
56	0x3d9222d2	0.07135548
57	0xbd345b7a	-0.04403255
58	0x3c598639	0.01327663
59	0x3c9f07b7	0.019412858
60	0xbd32b9fb	-0.043634396
61	0xbcb88433	-0.022523975
62	0xbd5dc31c	-0.05414115
63	0xbba7b424	-0.00511791
64	0xbc8cc741	-0.017184855
65	0xba9d0bde	-0.0011981686
66	0xbd69ab0c	-0.05704789
67	0xbd9816ce	-0.07426225
68	0x3dc88638	0.09791225
69	0x3ca96c05	0.02068139
70	0xbb6fccb2	-0.0036590514
71	0xbd3c2608	-0.045934707
72	0x3d2f8a12	0.042856283
73	0xbc5548df	-0.013017862
74	0xbd0bb1fc	-0.034105286
75	0xbd362dc7	-0.04447725
76	0x3d79322e	0.06083887
77	0xbcf51435	-0.029916862
78	0x3c1443ce	0.009049369
79	0x3cf78027	0.030212475
80	0x3c9c1182	0.019051317
81	0xbc35eaec	-0.011103373
82	0x3c5c1055	0.013431628
83	0xbb27620a	-0.0025540614
84	0xbcf2a153	-0.029617941
85	0xbb8016fe	-0.003908991
86	0x3c699481	0.0142565975
87	0x3cc79b98	0.024366185
88	0x3c37682c	0.01119427
89	0x3c40a2b2	0.01175754
90	0xbd4333dc	-0.04765688
91	0x3d9fde66	0.07806091
92	0xbc72d8ba	-0.014822179
93	0x3d85da74	0.06535807
94	0x3cc6143d	0.024179572
95	0xbc9d01aa	-0.019165833
96	0x3d31aeeb	0.043379705
97	0x3c3d349f	0.01154819
98	0xbc7fd284	-0.015614156
99	0x3e0bc53c	0.13649458
100	0xbb8929a8	-0.004185874
101	0x3ba3f603	0.005003692
102	0x3d607d2f	0.054806884
103	0x3c05d1cc	0.008167695
104	0xbce0a450	-0.0274221
105	0x3d2e5f61	0.04257143
106	0x3bcc1d3a	0.00622907
107	0x3dabe535	0.08393327
108	0x3d87fdc8	0.06640202
109	0x3d0b65b8	0.034032553
110	0x3ccb22ab	0.024796804
111	0x3ce01f1d	0.027358586
112	0xba54b845	-0.00081146165
113	0x3c8a19b1	0.016857954
114	0xbd2d6445	-0.042331953
115	0xbd82a5ac	-0.06379256
116	0xbd115d6d	-0.03548949
117	0xbc89c4c7	-0.016817464
118	0xbcbc7679	-0.02300571
119	0x3cf6af57	0.030112905
120	0xbd1b521c	-0.037920102
121	0xbc9fd1ae	-0.019509163
122	0x3c005554	0.007832844
123	0xbcaec54b	-0.021334311
124	0xbcd15af1	-0.02555606
125	0x3d7376ef	0.059439596
126	0xbbcf8945	-0.0063335025
127	0x3d337a94	0.04381807
128	0xbc14bee8	-0.009078719
129	0x3d51e698	0.051245302
130	0xbcd2b28a	-0.0257199
131	0x3d3ba06c	0.045807287
132	0x3afffc3d	0.0019530129
133	0xbd39db15	-0.04537495
134	0x3d9e14df	0.077188246
135	0x3d984048	0.07434136
136	0xbd08d972	-0.033410497
137	0x3d5480b8	0.05188057
138	0xbdcf39b9	-0.101184316
139	0x3cc9f991	0.024655135
140	0x3b8619ae	0.0040924167
141	0x3cff5182	0.031166796
142	0x3ce8b135	0.028404811
143	0xbc44bbe9	-0.012007692
144	0xbcdaa75e	-0.026691135
145	0x3d1ebcc3	0.038754236
146	0xbd67eee9	-0.056624327
147	0x3db1df25	0.086851396
148	0x3d06110f	0.032731112
149	0x3aec37a1	0.001802195
150	0x3d2a72bc	0.041613325
151	0x3d4283e6	0.04748907
152	0xbd7fc15b	-0.062440258
153	0xbcb91045	-0.022590766
154	0xbd275a34	-0.04085751
155	0xbcbba8a5	-0.022907564
156	0x3daa1d61	0.08306385
157	0x3d5cef3c	0.05393909
158	0xbd6a86ea	-0.05725757
159	0xbcdc9cea	-0.026930291
160	0x3d9f0bfe	0.07765959
161	0xbcd4fa15	-0.025998155
162	0x3c5cb41a	0.013470674
163	0x3d715d36	0.058926784
164	0x3db12cab	0.08651098
165	0xbbf26ab4	-0.007397974
166	0x3ca15da0	0.019697964
167	0xbd16ab36	-0.036784373
168	0xbb95881f	-0.004563346
169	0x399e69c4	0.0003021491
170	0xbca77e46	-0.020445954
171	0xbd0faa84	-0.035074726
172	0xbd815264	-0.06314543
173	0xbc015b42	-0.007895293
174	0x3c8f2899	0.017475413
175	0xbc132dfb	-0.008983131
176	0x3d3a8ccd	0.045544434
177	0xbccd275b	-0.02504318
178	0x3d6c4ad3	0.057688545
179	0x3aa7fb9c	0.0012816074
180	0xbd807eb8	-0.0627417
181	0xbd9d7196	-0.076876804
182	0xbcc26032	-0.02372751
183	0x3d099bba	0.033595778
184	0xbcba9d9f	-0.022780238
185	0x3d8c66a5	0.068555154
186	0x3c465577	0.012105337
187	0xbd4473de	-0.047962062
188	0xbdbc6b63	-0.0920017
189	0x3c8aecd7	0.016958637
190	0xbd696dec	-0.056989595
191	0x3b5c47d9	0.003361216
192	0x3b125fe4	0.0022334987
193	0x3c9355df	0.017985282
194	0xbd157bbf	-0.036494967
195	0x3da54fad	0.080718376
196	0xbcc028bc	-0.023456924
197	0x3d32cc4b	0.04365186
198	0xbd56de30	-0.05245799
199	0x3d4c2ff7	0.04985043
200	0xbcb52647	-0.022112979
201	0xbbebcc2b	-0.0071959696
202	0xbc88f655	-0.016719023
203	0x3c30f4ff	0.010800599
204	0xbc825457	-0.015909357
205	0xbca97db5	-0.020689825
206	0x3d474b3c	0.048655733
207	0x3c961b12	0.018323455
208	0x3c032711	0.00800492
209	0xbcf078c7	-0.029354466
210	0xbd60a12a	-0.054841198
211	0x3c015388	0.007893451
212	0x3cb425ce	0.021990683
213	0xbd05cb4c	-0.032664582
214	0xbcb563fa	-0.0221424
215	0xbc40b6ad	-0.011762303
216	0x3cbbcca1	0.022924723
217	0xbced92a7	-0.029000593
218	0x3d8e5dd3	0.06951489
219	0xbd3302bd	-0.043703783
220	0x3caeda97	0.021344466
221	0x3b3e4273	0.0029031306
222	0x3b5ff032	0.0034170267
223	0x3b9b882c	0.0047464576
224	0x3d370a2b	0.04468743
225	0xbd53e152	-0.051728554
226	0x3d6cc21d	0.05780231
227	0x3cac39f9	0.021023737
228	0x3cebbbd8	0.028776094
229	0xbd9cd45d	-0.076576926
230	0x3ba9bac5	0.0051797354
231	0xbd79ab60	-0.06095445
232	0x3b72606d	0.0036983744
233	0xbb4e92c3	-0.0031520582
234	0xbc2415d6	-0.010014972
235	0x3c6688e2	0.014070721
236	0x3d628713	0.055304598
237	0x3d146966	0.03623333
238	0xbd6465da	-0.055761196
239	0xbc622d03	-0.013804677
240	0x3cece7d8	0.028919145
241	0x3d2afc83	0.04174472
242	0x3b9c9900	0.004778981
243	0x3da3a3de	0.079902396
244	0x3d3806c6	0.044928335
245	0xbb24360d	-0.002505663
246	0xbd3fb90a	-0.046807326
247	0x3c3b6858	0.011438452
248	0x3ca90470	0.020631999
249	0xbcd34bcf	-0.025792984
250	0x3d5da201	0.054109577
251	0x3c86623c	0.016404264
252	0xbd244784	-0.040107265
253	0x3a12a5d9	0.0005594171
254	0xbbceced5	-0.0063112774
255	0xbb21c671	-0.002468493

critic.1.bias f4 [128]
0	0xb94c124d	-0.00019461774
1	0xbaec6535	-0.0018035533
2	0xb8ee6376	-0.000113672504
3	0x38af50bf	8.3596904e-05
4	0xbab7b5b3	-0.0014015943
5	0x39c29662	0.00037114607
6	0x3914af67	0.00014179722
7	0xb8f85325	-0.000118410484
8	0x00000000	0.0
9	0xbab59577	-0.0013853748
10	0xbac84765	-0.0015280066
11	0x00000000	0.0
12	0xb9878a3a	-0.00025852193
13	0xb9ee2452	-0.00045421958
14	0x00000000	0.0
15	0xb8ca9646	-9.660101e-05
16	0xba850fce	-0.0010151805
17	0x00000000	0.0
18	0xb8ea6c28	-0.00011178135
19	0x38dd0e5a	0.000105407744
20	0xb9becd5d	-0.00036392632
21	0xba991a69	-0.0011680844
22	0xba729eba	-0.00092552195
23	0x3aa7bf51	0.0012798106
24	0xba8f0d37	-0.0010913973
25	0xb8f1e386	-0.00011534155
26	0xb9a38430	-0.0003118827
27	0x00000000	0.0
28	0x00000000	0.0
29	0xb8cac719	-9.6691954e-05
30	0xba95aa99	-0.001141864
31	0x38978a56	7.226008e-05
32	0xb8a16439	-7.695746e-05
33	0x36e7ca20	6.907867e-06
34	0xb8ff0512	-0.00012160292
35	0x00000000	0.0
36	0xb9175596	-0.00014432365
37	0xb983a612	-0.0002511
38	0xb9049005	-0.00012642152
39	0xbab82e44	-0.0014051874
40	0x00000000	0.0
41	0x00000000	0.0
42	0x38d130b8	9.974971e-05
43	0x00000000	0.0
44	0xba958b6b	-0.0011409348
45	0x00000000	0.0
46	0x00000000	0.0
47	0x39ad5f46	0.00033068116
48	0xb9fdc85b	-0.00048405197
49	0x38d3aa36	0.00010092968
50	0x00000000	0.0
51	0x00000000	0.0
52	0xb8abbcbc	-8.18907e-05
53	0x00000000	0.0
54	0x381ee411	3.788254e-05
55	0xba6f3af8	-0.00091259135
56	0x38d3fc35	0.00010108241
57	0xb9c1b732	-0.0003694832
58	0x38c2a0c6	9.280587e-05
59	0x00000000	0.0
60	0xb8f475eb	-0.000116567906
61	0xb8e87df4	-0.00011086083
62	0xb6872887	-4.0280315e-06
63	0x38cfd2c3	9.9097866e-05
64	0xba6c8226	-0.0009022079
65	0xbac1b93f	-0.0014779939
66	0x38c71c57	9.494338e-05
67	0xb9cc9a39	-0.00039024817
68	0x38cfdf87	9.9121644e-05
69	0xb9bd2298	-0.00036074664
70	0xba802cc8	-0.0009778971
71	0xba0930e2	-0.00052334194
72	0x3aa8a701	0.0012867154
73	0x00000000	0.0
74	0x00000000	0.0
75	0x38c9f302	9.6296906e-05
76	0xb9019c74	-0.00012360682
77	0xb8fdd60b	-0.00012103849
78	0xb8e92599	-0.00011117309
79	0xbacfae72	-0.0015844835
80	0x39cb94d4	0.00038830063
81	0xb919e1cb	-0.00014675331
82	0x00000000	0.0
83	0xb901e21a	-0.00012386628
84	0x00000000	0.0
85	0xb916cba4	-0.00014380977
86	0xbac84df1	-0.0015282017
87	0x00000000	0.0
88	0x00000000	0.0
89	0x38d05dcc	9.935684e-05
90	0x3abf7445	0.0014606795
91	0xb8eff950	-0.00011442846
92	0x00000000	0.0
93	0x00000000	0.0
94	0x00000000	0.0
95	0x38a487be	7.845413e-05
96	0x38cfb1f1	9.903673e-05
97	0x00000000	0.0
98	0x00000000	0.0
99	0xb8ff5a55	-0.00012176173
100	0x38d91fb5	0.00010353272
101	0xba8719b1	-0.0010307339
102	0xbac1c526	-0.0014783486
103	0xbacf284f	-0.001580486
104	0x00000000	0.0
105	0x38ac6bc6	8.2216735e-05
106	0xb981f686	-0.00024788472
107	0x3a2dba7e	0.0006627216
108	0xb82891ab	-4.0189985e-05
109	0x00000000	0.0
110	0xb59c60db	-1.1651094e-06
111	0xba0039e5	-0.00048914395
112	0xba1f00d1	-0.00060654903
113	0xb92a1787	-0.00016221228
114	0xb8fff35b	-0.00012204676
115	0x00000000	0.0
116	0xba9294e6	-0.0011183291
117	0xb9346d93	-0.00017206957
118	0x38c2e73d	9.293712e-05
119	0xb8e3f285	-0.00010869376
120	0x00000000	0.0
121	0xbab5327a	-0.0013824247
122	0x00000000	0.0
123	0xb8ecf04f	-0.00011298118
124	0xb8f031a5	-0.00011453339
125	0x00000000	0.0
126	0x381ec5d8	3.7854392e-05
127	0xb9055736	-0.00012716357

critic.3.weight f4 [1, 128]
0	0xbbb6aa22	-0.0055744806
1	0xbcc20e51	-0.023688467
2	0xbdb976e9	-0.090558834
3	0x3cbd301d	0.023094231
4	0x3daeadf1	0.085292704
5	0x3b5cf5ef	0.0033715924
6	0xbdee0e5e	-0.11623834
7	0xbd55785a	-0.05211673
8	0xbd52c3c3	-0.051456224
9	0x3d1efab4	0.038813308
10	0xbdd27b8b	-0.1027747
11	0x3d68de3c	0.056852564
12	0x3cffd6ba	0.03123032
13	0x3b03fc03	0.0020139224
14	0x3db163ae	0.086615905
15	0x3d5433f5	0.051807363
16	0xbe26c2b9	-0.16285218
17	0xbd5a2b9f	-0.053264257
18	0xbd751493	-0.059834074
19	0x3e6a3d19	0.2287487
20	0xbd64eb87	-0.05588868
21	0x3daceb14	0.08443275
22	0x3d658276	0.05603262
23	0x3d3da574	0.046300367
24	0x3dd39f24	0.10333088
25	0xbd881852	-0.06645264
26	0x3a03961e	0.00050196226
27	0x3dfce6b3	0.1234869
28	0x3e3361fe	0.1751785
29	0xbd113a1d	-0.03545581
30	0x3d0f80ad	0.035034824
31	0x3cdd769a	0.027034093
32	0x3b3625d6	0.0027793548
33	0x3de88ec3	0.11355355
34	0xbd162ed7	-0.036665764
35	0xbd033e1b	-0.03204165
36	0x3de47e5f	0.11156916
37	0xbca9dffc	-0.020736687
38	0xbce7d924	-0.028301783
39	0x3dd8b0fd	0.10580633
40	0x3ddaf478	0.1069116
41	0x3dade3ef	0.084907405
42	0x3d807ee3	0.06274202
43	0xbd1b50dd	-0.037918914
44	0x3d6c489c	0.057686433
45	0xbdbb3827	-0.091415696
46	0x3d0c0f9e	0.03419458
47	0x3cdffdf1	0.027342768
48	0xba42e324	-0.0007434359
49	0x3da91ef5	0.08257858
50	0x3e03ef8b	0.12884347
51	0xbe21530a	-0.15754333
52	0xbd872508	-0.0659886
53	0xbdba6bef	-0.09102618
54	0xbdee6ef5	-0.11642257
55	0x3db51184	0.088412315
56	0x3da30204	0.07959369
57	0xba7f8a28	-0.0009748065
58	0x3d1ee784	0.03879501
59	0xbe1bd4ec	-0.15217942
60	0xbd6f0667	-0.058355715
61	0xbe1e6a1e	-0.15470168
62	0x3ab926d0	0.0014125947
63	0x3d731a63	0.059351336
64	0xb8e5e353	-0.00010961913
65	0x3e0b9810	0.13632226
66	0x3d380783	0.04492904
67	0xbd96941a	-0.07352467
68	0x3d746736	0.059668742
69	0xbdadd9b3	-0.084887885
70	0x3bbc4fd0	0.005746819
71	0xbb1a4cff	-0.0023544428
72	0x3de446de	0.11146329
73	0x3e224e1b	0.15850107
74	0x3d76ec6e	0.06028407
75	0x3d3a964d	0.045553494
76	0x3d35ea15	0.04441269
77	0xbd22d23c	-0.039751276
78	0xbe1132c8	-0.14179528
79	0x3d9f18b8	0.077683866
80	0xbe005cd1	-0.12535407
81	0xbe4ca060	-0.19983053
82	0x3deed34f	0.11661398
83	0xbcfc08ea	-0.03076597
84	0x3e016bdc	0.12638801
85	0xbc6be645	-0.014398162
86	0xbdfe57a4	-0.1241906
87	0xbd6094cc	-0.054829404
88	0xbe54c4b8	-0.20778167
89	0x3d968440	0.073494434
90	0x3d8111d2	0.06302227
91	0xbd973455	-0.073830284
92	0x3e2755f3	0.16341381
93	0xbc863af1	-0.016385527
94	0xbc1bc220	-0.009506732
95	0x3caa62f7	0.020799143
96	0x3d9823a9	0.07428677
97	0x3e000ed1	0.12505652
98	0x3d5dc4d1	0.054142777
99	0xbd1a4a74	-0.03766866
100	0x3e12e1c9	0.14343943
101	0x3daed66c	0.085369915
102	0xbde443be	-0.11145733
103	0xbd5ef955	-0.054437
104	0xbd3948e6	-0.045235537
105	0x3d18a87e	0.03727006
106	0x3d10d892	0.035362788
107	0xbdf73b2e	-0.120718345
108	0x3b5c3787	0.0033602433
109	0xbe02417e	-0.12720296
110	0x37a51764	1.9680425e-05
111	0x3d1e583d	0.03865837
112	0x3d0783dd	0.03308474
113	0xbc0da8fb	-0.008646245
114	0xbda2c817	-0.0794832
115	0x3c870def	0.016486136
116	0xbcd72506	-0.026262771
117	0xbe77d99d	-0.24204107
118	0x3d0b682f	0.034034904
119	0xbda58117	-0.080812626
120	0x3d1e8855	0.038704235
121	0xbe32f89d	-0.17477651
122	0xbc7d8806	-0.015474325
123	0xbe084dac	-0.1331088
124	0xbd9addf6	-0.07561867
125	0xbd9a928f	-0.07547485
126	0x3ba9ec33	0.005185628
127	0xbcb8644a	-0.022508759
