experiments/ppo_hrl/models/MicroRTSGridModeVecEnv__ppo_utils__1__1721366908/12288/macro.pt (torch, 715615 bytes, 11 tensors)

encoder.1.weight f4 [32, 29, 3, 3]
00000000: f94c 94bc 0d66 e73d 562c 0f3d 4b83 58bc
00000010: 5837 17bc 1b48 94bd e481 efbd d692 b7bd
00000020: 443f 52bd 7f69 1cbe 6ade e03d 8a6c 2dbd
00000030: 74cd 9e3d 0301 143d 8086 133e 29b3 f4bd
00000040: c6a5 10be a2e1 20be b16b 823d f949 90bc
00000050: 5d36 91bd 824d 82bd c66b 6a3d 563d 0dbd
00000060: 71b9 773e e392 ee3d 28bf 863c 1a83 3cbe
00000070: d95e f43c cd68 83bd 3839 133d ecb8 89bc
00000080: c5dd 8abd e423 19bd 7bb7 dc3d b859 0a3d
00000090: 301e 98bc 158b a1bd 4012 5a3e 8a68 debc
000000a0: 7188 313d b78a d3bc 5242 16bc 2324 dbbb
000000b0: d981 d83c 5a3e 3ebb 7128 843d 2eaa 983d
000000c0: 3509 efbd 125f 3ebc d1eb dbbb 496d a7bc
000000d0: f082 d2bc 2adf ffbc e3e9 103d c503 c0bc
000000e0: 522a df3d be7d 3cbc aea4 213d 5068 033e
000000f0: eb10 ac3c 22f1 893d 75ba 10bc 710a 65bc
00000100: 6421 863c b45f 813c 9bd5 6b3e 6f24 55bd
00000110: e4b5 213d ec13 193d 5c8e 84bc b748 de3d
00000120: bb56 6339 98ad 8b3b e29e 443c 68bc d1bd
00000130: f2d7 83bd afd1 4d3e 3411 b2bd a51b 86bb
00000140: 449a b83b 8751 a23d ea45 4a3d e66e e93d
00000150: 93ce fb3b 692d a2bd 4001 39bc de26 fcbd
00000160: 8028 f93d 8b34 82bd b480 813d 2651 2e3c
00000170: 1530 37be ee31 073e 5724 78bb 1ed0 2e3d
00000180: cab2 e2bd 9099 a9bd be79 ab3d c925 debc
00000190: 317a 0fbc 9646 a13d 9070 7dbd 64cb 103d
000001a0: f01f 86bb 8e4c af3b aa51 95bd ab07 7b3d
000001b0: 7e29 21be f31b d73d a678 a0ba 496e a13d
000001c0: cb17 76bd 4b1f 61bd 4c1d 4e3b c60a cabd
000001d0: f882 7a3d 31ae 083e 1d0b b93d 70a7 35bd
000001e0: 5a40 86bd 67ec e53d c049 b3bd 4004 213e
000001f0: 08e0 6f3d 1419 52bd c863 ef3a f5c6 acbc
00000200: 4d2e dabd 4225 563d f848 8dba 4d9a 3fbd
00000210: 46ed 183d 7fc0 d3bd f61a e9bd bf02 b93d
00000220: eec3 5ebe 625e ae39 ba00 24bc b67c 233e
00000230: 43e2 d63d 1a86 febd 3727 67bc 0fac 3ebd
00000240: 7a2e 85bb 98f5 c9bc 68f9 84bd d0a1 05bd
00000250: 0986 7abd 4938 3abd fd8d 0a3d e40a 22be
00000260: cc62 7d3d ef11 c33c f6cc b23d b4fb cc3d
00000270: 5db8 153c 963b 76bd ba17 353e 5511 d03d
00000280: 501c 50bc 26d8 a33c a53d a33d 57b3 9ebc
00000290: 4ea3 16be 93a6 d2bd 36a5 e93c 704f 253e
000002a0: 4955 a8bc abea 1e3e b943 893c 6183 4b3d
000002b0: 2e7c 393e 20f8 943d 4cab 12be 8d3f e33c
000002c0: 4bce ddbd 396a 15be 9685 9bbd 2364 8c3d
000002d0: b132 133d cc2f 243d aa5f 0ebd 792d ecbd
000002e0: 129d c5bd 05f1 b5bc 8e8d 95bd dde0 4f3d
000002f0: c617 12be b41a fa3c 4506 bdbd 5651 413d
00000300: 6f39 6f3d 5a8c c13d b6d9 b5bc 6036 df3d
00000310: f272 383e 6497 05be 39ad 7bbd eaa0 f33b
00000320: 64c8 e73c c4a6 0bbd 8090 a3bd be4e 38be
00000330: 3cc6 3cbd a00b 07bd 9699 99bd 0193 3cbe
00000340: a4a2 ef3c 03b6 ffbd 96e7 8fbb e4fa fbbd
00000350: 716b 32bd e186 de3d 48c8 d53d 2c31 e23c
00000360: a61c 2ebd ffcf 67be ea17 c6bd 996d 1c3d
00000370: 216c e6bc c32d 2f3e 2204 3cbd baae 07bd
00000380: aa93 9f3d 9aca 44bc e543 c0bc dd40 703d
00000390: 5142 de3d 89d7 53bd 15ae 9d3c 0334 8cbd
000003a0: 568a 693d 4e5a e4bc 0270 34bd 4cd6 d73c
000003b0: 2361 f5bd 0c3c cdbb ef61 823d 4582 88bc
000003c0: 5328 b63d 6559 f83d fd0d 53bd aac9 41be
000003d0: 6d32 01be 494b b63d 5ada a33d 5578 d1bd
000003e0: ecc0 953d ef69 fdbc 4e2c c73c 449b 403e
000003f0: e2d0 063e 43bc 3a3e f398 493d 1d3c 2b3c
-0.01810311 0.112987615 0.03495439 -0.013214896 -0.009229504 -0.072403155 -0.116946965 -0.089635536
-0.051329866 -0.15274619 0.10979922 -0.04233984 0.07754031 0.036133777 0.14406776 -0.119482346
-0.14125738 -0.15711072 0.06368197 -0.017613398 -0.07090447 -0.0636244 0.057231687 -0.034482323
0.24191834 0.1164911 0.016448572 -0.18409386 0.029830383 -0.064164735 0.03594324 -0.01681181
-0.067805804 -0.037387744 0.107771836 0.03377697 -0.018569082 -0.07887856 0.21296024 -0.027149457
0.04334301 -0.02582298 -0.009171085 -0.0066876574 0.026429104 -0.0029028864 0.06453026 0.07454334
-0.11671678 -0.011619346 -0.006711461 -0.020437853 -0.025697201 -0.031234343 0.0353793 -0.023439297
0.10896744 -0.011504589 0.03946369 0.12832761 0.02100416 0.067354456 -0.008833517 -0.01397954
0.016373344 0.015792705 0.23030703 -0.0520367 0.039480105 0.037372515 -0.016181163 0.10853713
0.00021680717 0.0042626373 0.012000771 -0.10241014 -0.06437673 0.20099519 -0.086946875 -0.004092651
0.0056336243 0.07925706 0.04938308 0.11398105 0.0076845377 -0.079188175 -0.011291802 -0.12312101
0.12165928 -0.06357678 0.06323376 0.0106394645 -0.17889436 0.1320264 -0.0037863457 0.042678945
-0.110692576 -0.08281243 0.0837283 -0.027117627 -0.00875716 0.07874791 -0.061874926 0.03535022
-0.0040931627 0.005349702 -0.07290967 0.06128661 -0.15738484 0.10503378 -0.0012242987 0.07882363
-0.060081284 -0.054961484 0.0031450568 -0.09865336 0.061160058 0.13347699 0.09035323 -0.044349134
-0.06555243 0.11226731 -0.08754301 0.15724277 0.058563262 -0.051293448 0.001826399 -0.021090964
-0.106533624 0.052281626 -0.0010779193 -0.046778012 0.037335657 -0.1033945 -0.113820955 0.09033727
-0.21754429 0.00033258187 -0.010009939 0.15965542 0.10492375 -0.124279216 -0.014108471 -0.046550807
-0.0040643783 -0.024653241 -0.06492883 -0.03262502 -0.061162982 -0.045463834 0.033826817 -0.15824467
0.0618618 0.023812262 0.087304994 0.10008946 0.009138194 -0.06011542 0.17684832 0.10159556
-0.012702063 0.020000529 0.07970742 -0.019372625 -0.14710733 -0.10285678 0.028521162 0.16143584
-0.02054848 0.15519206 0.016755925 0.04968584 0.18113777 0.072738886 -0.14323157 0.027740264
-0.10830363 -0.14591302 -0.07593839 0.06855037 0.035937015 0.040084645 -0.0347592 -0.11532111
-0.096490994 -0.022209654 -0.0730239 0.050751556 -0.14266881 0.030530311 -0.092297114 0.04719671
0.058404382 0.09450598 -0.02219854 0.10899043 0.18012598 -0.13046032 -0.061444495 0.007434954
0.028293796 -0.034094587 -0.079865456 -0.17998788 -0.04608749 -0.03297007 -0.07499997 -0.18415453
0.029252358 -0.12485888 -0.004391621 -0.12303713 -0.043559495 0.1086557 0.10438591 0.027611338
-0.04250779 -0.22637938 -0.0967253 0.038190458 -0.028127732 0.171073 -0.04590238 -0.033125617
0.077918366 -0.012011195 -0.023469875 0.05865561 0.108524926 -0.051719222 0.019248048 -0.06845858
0.057016693 -0.027875092 -0.04405213 0.026347302 -0.11981418 -0.0062632617 0.063663356 -0.01666368
0.0889441 0.12126426 -0.051527012 -0.18924585 -0.12616892 0.08901078 0.08000632 -0.1022803
0.073121876 -0.030934302 0.024313118 0.18809229 0.1316562 0.18235879 0.04921813 0.010451344

encoder.1.bias f4 [32]
00000000: 1656 69bb 775f e239 258f 60ba 9883 1dbb
00000010: c00c 963a 5379 1a3b 290c 05bb 4bdb 61bb
00000020: 52e2 03bb 9612 443a a1ba 83ba 8fb9 c63a
00000030: b08b b5ba 5fb3 71bb 11b0 e9ba 6fad adbb
00000040: d5a4 83bb efe1 52ba ccdc a43a c5e0 9bba
00000050: 23d5 9c3a 8e04 05bb 46ce c2bb 4eed b8bb
00000060: fe7b 4a3a 3ba2 873a 35d9 c0bb 47f3 8e3a
00000070: 5587 0cbb 985e 44bb 62bc abbb c3e4 9e3a
-0.003560429 0.00043177206 -0.0008566252 -0.0024034735 0.0011447892 0.002357085 -0.0020301437 -0.0034462984
-0.002012391 0.0007479576 -0.0010050127 0.0015161502 -0.0013850834 -0.0036880595 -0.0017828961 -0.005300216
-0.0040174522 -0.0008044531 0.001257801 -0.0011892548 0.0011965375 -0.0020296904 -0.005945 -0.0056435233
0.0007724165 0.0010348031 -0.005885268 0.0010906243 -0.002144297 -0.0029963609 -0.005240963 0.001212262

encoder.4.weight f4 [64, 32, 3, 3]
00000000: 72e3 c53d 4407 b83d a2ca 883d 2fdc 86bc
00000010: 4f63 21bd 8fb6 6dbe 0aa9 56bd 1c2a 343d
00000020: 76a5 f93c 7c69 d33b 3edf bfbc e026 4b3d
00000030: 5f3d cabd d819 143d a877 393e 44ef aebd
00000040: ca5e 613d 5e4d 01be 33c2 c4bd b25c 0b3e
00000050: 3ad5 ebbd 4044 3c3b 99df 6c3d 9f73 cc3b
00000060: 1b89 b3bd 8973 693d 2b2a 7bbd 6615 eebb
00000070: 1f07 d33c 379a a53d c0cc 4bbd 8b84 833d
00000080: d8c0 b7bb 3030 a1bd b254 d03c 9f8a 363c
00000090: 0576 8e3b 3cc2 1b3b 9c6c 78bd 3f47 233e
000000a0: 46e0 8b3d 11e5 4b3b 3200 38bd 7dbe d63d
000000b0: d403 c9bd 843a babd e2d6 083e 2ab0 55bd
000000c0: e934 13be f1ad 5fbc e7fb a0bd 3d13 c4bd
000000d0: 19c4 5bbd e2eb 0cbe 48c2 adbd dae0 5b3d
000000e0: 3799 aebd 1ad2 34bd 5b34 853c 6535 973d
000000f0: 6d40 eb3d 73f5 953d 28af 31bd 4ef6 903d
00000100: d2e7 99bd 450f 0d3d 3dc2 5d3d af75 c33c
00000110: 8549 94bd 27ac e6bd 9a5d 573e 2bdb a13d
00000120: a440 ee3c 5425 c4bd de71 46bd f424 c93d
00000130: a43d 03bd b608 ce3d 0e36 9a3d 0528 e73d
00000140: b8a4 813d 7663 c03c 92c9 b03c ae60 803d
00000150: 3e70 ab3c 06e2 15be 1d49 bf3c c0ae 09bd
00000160: b854 32bb e736 b83c 2881 bcbd 4892 803b
00000170: abd1 263e 70e8 633d e7ae e93d c716 bebc
00000180: 39af 7abd b9bd 61bb 4642 083c b6f9 a93d
00000190: f205 29be 6393 183d c735 ae3d f6f8 2cbe
000001a0: 73f8 913d 39d8 b6bd dc41 973b 01a4 63bd
000001b0: 3e1f 1cbd 1df5 d4bc d0f7 febc 2c56 ca3b
000001c0: ead5 023c a62f 00be 4581 86bb 974e 19bd
000001d0: ea17 023c 7946 b73d 1f2c 393c cbe8 bebd
000001e0: ce59 2d3d 5e2b 883d 7cad f13c e647 933c
000001f0: ce36 12be 83c1 cd3c 780b a63d 32b3 123c
00000200: f24a 103c 23b6 b0bc 96dd 08bd f527 86bc
00000210: 35b7 833c de76 b4bc 085c 13bd 0d8d bebc
00000220: fc3d 69bc d21a a2bd 2039 99bd b90f 913e
00000230: 478c c7bd cbb3 453b a625 7bbd 8411 033e
00000240: 6568 bc3c 3946 63bd 0fe0 1ebd 62c7 0c3d
00000250: fb43 36bd b4f4 ed3d 3239 b83d bf7a 4a3d
00000260: 25f0 acbd 8636 3e3d 9801 68bd 95c8 86bd
00000270: 8101 d0bd 5018 7f3d bc9a d4ba 8c5f 89bd
00000280: 0ba2 703d 51c2 2b3d 97bb d3bd 02fe 64bd
00000290: ee0d cebd 01ed d03d dcf6 123d d1e1 a1bd
000002a0: 75b2 da3d cd89 a2bd 4e66 e4bc a612 51bd
000002b0: 74e4 c7bd a306 95bd 93a9 313d 533c 18bc
000002c0: c313 79bd 7bc6 1d3d 0828 c33d 9070 0dbe
000002d0: db6b 6bbd be66 81bd 238c 0fbe 0e1b 6dbd
000002e0: 3528 85bd a7b5 843d c66f a1bc 7f0a e7bb
000002f0: 8119 acbc 5910 babd ecb5 a9bd 353d a7bc
00000300: a4cc 3cbd 2cd1 a3bd 545e f5bc 367e 9c3d
00000310: fb15 013d 59be 05bd bf91 2e3d bb02 6c3d
00000320: 55f3 8b3c 1048 d3bc f16e b4bb cb4c 6e3d
00000330: 36fa 0abe 1e0f 9e3c 3e88 a53d 5b5c c1bd
00000340: 7d09 66be 89ee 7a3d cbbd febd dd49 82bc
00000350: ad0a 4bbe 3ab2 20bd 8654 06bd 20c5 8d3c
00000360: 1881 18bd fc71 da3d 8494 41bd e383 febd
00000370: ffce 8c3c a5ad 06bd 1afd 3e3e ad8c 813d
00000380: 6817 99bd c529 e23c b7f9 c8bd 3f1e a9bd
00000390: 992a 183d ee53 01be 727d 2e3d bf94 cc3d
000003a0: 19c7 7c3d 33f0 f63d f8ba c4bd 7d34 293b
000003b0: 5351 193e 5a4f ee3c 0348 bd3d 2c66 8b3d
000003c0: f5c8 27be 31ae 7e3d d153 9abb 6ec5 d0bd
000003d0: b731 21be 72d9 ee3b 5fd3 97bd 9d3a 123d
000003e0: 5350 c4bd bce0 133e bda3 dc3c 53cc 4a3d
000003f0: d19c ae3d 9062 0fbd ebc0 473d 4ea6 863d
0.096625224 0.08985761 0.06679274 -0.016462414 -0.03940135 -0.23214172 -0.052407302 0.04398547
0.030474406 0.0064517837 -0.02342188 0.04959762 -0.09874987 0.03615746 0.18112051 -0.0854173
0.05502204 -0.1262717 -0.09607353 0.13609579 -0.11515279 0.0028727204 0.057830427 0.006239369
-0.08766385 0.05699495 -0.06131951 -0.0072657345 0.025760232 0.08086055 -0.04975581 0.06421765
-0.0056077056 -0.07870519 0.02543101 0.011141448 0.004347565 0.0023766896 -0.060650453 0.15945147
0.06829886 0.0031111876 -0.04492206 0.104855515 -0.09815183 -0.09093192 0.13363221 -0.052169956
-0.14375652 -0.013652311 -0.078605466 -0.09573982 -0.05365381 -0.13761857 -0.08484322 0.053681232
-0.08525317 -0.04414568 0.016260317 0.07383231 0.114868976 0.07322206 -0.043379933 0.07078229
-0.07514919 0.03443839 0.05414032 0.023859827 -0.07240585 -0.11263304 0.210318 0.07903131
0.029083557 -0.09577432 -0.048448436 0.098215014 -0.032041207 0.10060255 0.07529841 0.1128693
0.06330246 0.023484927 0.021580491 0.0626844 0.020927545 -0.14637002 0.023350293 -0.03361392
-0.002721114 0.022487117 -0.09204322 0.003923688 0.1629092 0.05564159 0.11410313 -0.02320422
-0.06120226 -0.003444536 0.008316582 0.08299582 -0.16506174 0.037249934 0.08506351 -0.16891846
0.07127466 -0.0892796 0.0046160053 -0.05557633 -0.038115732 -0.025995785 -0.031124026 0.0061748233
0.007985571 -0.12518176 -0.0041047656 -0.037428465 0.007940272 0.089489885 0.011302023 -0.093217455
0.042321973 0.06648897 0.02950167 0.01797862 -0.14278719 0.025116688 0.08107656 0.008953856
0.008806931 -0.021571225 -0.033414446 -0.016376475 0.01607857 -0.022029337 -0.03597644 -0.023260618
-0.01423597 -0.07915272 -0.07481599 0.28332308 -0.09743553 0.003016698 -0.0613152 0.1279965
0.022998998 -0.05548689 -0.038787898 0.034369834 -0.044498425 0.11618939 0.08995284 0.049433466
-0.084442414 0.046438716 -0.056642145 -0.06581227 -0.10156537 0.062279046 -0.0016220431 -0.06707677
0.058748286 0.04193336 -0.10338514 -0.055906303 -0.100612506 0.10201455 0.035879955 -0.07904399
0.10678569 -0.0793644 -0.027880814 -0.051043175 -0.09760371 -0.072766565 0.04337461 -0.009291726
-0.060809862 0.038519364 0.0952912 -0.1381247 -0.057475906 -0.06318425 -0.14018302 -0.05788713
-0.065018095 0.0647996 -0.019706618 -0.007050812 -0.021008255 -0.09085149 -0.08286652 -0.020414928
-0.046093598 -0.07998881 -0.029952206 0.0764126 0.031515103 -0.032652233 0.042619463 0.05761979
0.017083803 -0.025791198 -0.0055063893 0.058178704 -0.1357201 0.019294318 0.08082627 -0.094414435
-0.22464557 0.06126264 -0.12438544 -0.015904361 -0.19828291 -0.03923247 -0.03279545 0.01730591
-0.03723249 0.10666272 -0.047260776 -0.12427499 0.017188547 -0.032880444 0.18651238 0.0632566
-0.074751675 0.027607808 -0.09813254 -0.08257722 0.03715 -0.12629673 0.042600103 0.099893086
0.06171331 0.12057533 -0.09605974 0.002581864 0.14972429 0.029090572 0.09242251 0.06806597
-0.16385253 0.06217784 -0.0047096987 -0.10193907 -0.15741621 0.007289105 -0.07413363 0.03570043
-0.09585633 0.14441198 0.026933545 0.049511265 0.08526004 -0.035006106 0.048767965 0.06574689

encoder.4.bias f4 [64]
00000000: 2d72 14bb fcd1 a5bb 0d6a ea3a 5a85 9eba
00000010: dbb7 adbb 7c21 f3ba 31e9 a7ba 93ad a5bb
00000020: cc30 01bb 4360 1b3a 159c b93a b460 883a
00000030: c026 f839 80fc 04bb 21b9 803b 060e 34b9
00000040: 0f23 f03a 86d4 4039 5977 edb9 5773 1dbb
00000050: ffdd a53b 2f5b f3b9 3e10 02b9 877e 57bb
00000060: 077b 23ba ff5e 2f3b 2da7 6939 3ec4 20ba
00000070: 3620 26b9 c11a 62bb e08d ccbb f5d0 b8ba
00000080: 3051 1ebb c672 fcba 04f8 abbb 0a7e c6ba
00000090: 4a3a 5dba fce7 80bb 0000 0000 1b55 99ba
000000a0: 5aa4 83b9 fd2f 83bb 14ec ec3a d00e aebb
000000b0: d0a5 11bb 0000 0000 772c bbba 69f0 62bb
000000c0: 601a 2cbb 6424 9dbb 3b2e 3ebb 9099 8cbb
000000d0: 2697 98bb 215f c13a 8084 f1b9 d7ef 1aba
000000e0: ffc7 0fbb 1c12 32bb 30b9 c4ba 11ee c2bb
000000f0: dde1 e53a b3bd 24ba c138 8f3b bceb dcba
-0.0022651062 -0.0050604325 0.0017884389 -0.0012094185 -0.0053014583 -0.0018549408 -0.0012810585 -0.005056092
-0.0019712923 0.0005927125 0.0014160896 0.0010404796 0.00047331117 -0.0020292103 0.003928319 -0.00017171362
0.0018320995 0.00018389718 -0.00045293084 -0.0024025047 0.0050618644 -0.0004641651 -0.00012403817 -0.0032881813
-0.0006236289 0.0026759503 0.0002228289 -0.0006132758 -0.00015842993 -0.003450081 -0.0062424988 -0.001410036
-0.0024157278 -0.0019260279 -0.0052480716 -0.0015143764 -0.00084391667 -0.0039339047 0.0 -0.0011698337
-0.0002510872 -0.0040035234 0.0018075728 -0.0053118244 -0.0022224076 0.0 -0.0014280219 -0.003462816
-0.0026260838 -0.004795598 -0.0029019255 -0.004290767 -0.00465669 0.0014753082 -0.00046065822 -0.0005910373
-0.0021939275 -0.0027171439 -0.0015008803 -0.00594879 0.0017538626 -0.0006284371 0.0043707793 -0.0016854922

actor.0.weight f4 [64, 32, 3, 3]
00000000: 772d d1bd 7532 8bbd fb5e 88bc fe94 0fbe
00000010: de96 cc3d f9f6 5b3d d877 c5bc e210 2d3a
00000020: d2ff 34bd df0e 21bd 1d8f bfbd 0f00 bbbd
00000030: 487f 87bd 054b f93d 3d4a 0d3e 6585 ec3d
00000040: bfc2 cdbd 0a79 823c 0079 43be 0a6e 54bd
00000050: 43ee 7a3d 68b8 cc3d c1d8 313d d0b3 91bc
00000060: b080 37bd ceb1 5d3e c0fe e2bc cd7a 87bd
00000070: f767 37bd 7194 af3c 009e ff3b 7053 9fbd
00000080: 8681 dd3d 74b9 16be 9429 5a3d a133 f0bc
00000090: a772 c33d 40bf 2e3d 8117 af3d c794 1f3d
000000a0: 9b32 983d 57ae 1b3c 0467 bf3d 8ad4 0dbe
000000b0: c987 88bc d182 f13d 335e 03be 2dfd 86bd
000000c0: 4d00 2abd 66af c3bd e4bd 1f3d 71ac 133e
000000d0: 33e2 3cbe b4c2 9cbc 8031 9c3d 8bad debd
000000e0: 4c64 8c3c 51df e2bc e188 a13d 2897 293d
000000f0: 97fa 16be 9974 40bd c64b 9dbd 3742 25bd
00000100: 8514 4c3d bb5c 473d 825b 0bbc babd 893d
00000110: 9f40 8bbd 8065 47bd 53e6 96bd 0d3f 053d
00000120: 0b6e a9bd 0593 853d 74e0 fa3d 1449 f4bc
00000130: ce9c cabd f9ca 01be 996a ed3c 767e 923d
00000140: 20a1 cdbc a023 01bd b382 0bbd 5c60 02bc
00000150: 1ca9 d7bd dd13 b7bc 3229 0a3d c9bf e4bd
00000160: 2d3a d7bc b9ba b7bd ffa6 af3d c67d dbbd
00000170: dca8 ae3d 2734 b73b ce54 d9bd aa51 ee3b
00000180: 5bb0 c63c 6c96 693d cdfa 0bbc 1315 583c
00000190: ef7c 08bd 9b57 3bbe 224c 54bb 3913 4fbe
000001a0: a07f 0cbc 9930 b53d b08f cdbc 6c1d bebd
000001b0: 4b56 aa3b 487b 7dbd d967 b73d 477a d0bd
000001c0: 553e 7c3b 6fce bdbc a1ef 09bd 14e7 613c
000001d0: 74f1 afbd b4e7 84bd cf9c fa3d b2f7 7cbc
000001e0: bb2c 893d d54d ca3d ca19 823d 7df2 a43d
000001f0: f038 563d bfb2 263e 7639 e5bc e61a 18be
00000200: 45a4 553d 4580 b3bc 25fe c4bd d07d 53bd
00000210: a06b 803d 66a8 59bd 1672 cbbc 3899 e33d
00000220: f1e9 ae3d d2d0 07bd a670 bb3d c5ac 13be
00000230: c063 b23d c7cd 27be dd84 263d 171f 82bd
00000240: a855 89bd 6cfa 363d 15cb 183c 25d3 99bd
00000250: f026 2bbd 31e7 7cbd d5ba 433d 6143 90bd
00000260: 087f f23d d143 4b3d 3c4c 07bd c3d3 283d
00000270: 76ec 683b a98a eebd 0ae1 e3bc 8c5d 2a3a
00000280: b186 9cbd b062 a6bc b4e6 7dbc 9e35 5a3d
00000290: 9308 fc3b a754 8b3e 2987 973d 198d a3b8
000002a0: 411c 4e3d b145 5bbd 0996 a13c 32c1 a4bc
000002b0: bca2 c33c d886 29be 8b1f 9dbd a098 d0bc
000002c0: eee1 b5bd 6a1d 803c 6517 37bd 77f5 bcbd
000002d0: bbe4 a63d 73f0 25be 3437 f53b 77ba 833d
000002e0: d4c1 9b3d 7ac2 a2bd 60f9 f63d 40ff 5d3c
000002f0: ba93 4bbe b95b bfbd 000f b939 892f a0bd
00000300: 6b09 c53d 395c 123d fe84 413d ee31 203d
00000310: f3ee 05bd 5a3b 20bd 3516 b53d 426b 1abe
00000320: 194d d8bd c0d7 303c e01b 77bd 5cd4 12bb
00000330: a98f 233e de84 653d 29a0 2fbc 413b 1dbd
00000340: b193 00be 1900 933d 075a 5fbd ab42 b5bd
00000350: 8a12 203d e778 14be eb30 02bd b250 7dbd
00000360: 322c 46be c07d ea3c 9067 cd3c 1037 2b3d
00000370: f303 2f3c 7993 203d 42c7 cf3d 404b 353d
00000380: 6111 00bc 0982 06bd 53b1 593c 5b82 9d3c
00000390: 6b69 f0bd 643b a73d 60f5 ee3d 060b 15be
000003a0: ba95 8ebe 9451 7d3d c4aa f0bc 9e9f 34bb
000003b0: 9214 7cbd 94ee 93bd 2a77 f0bd 3ba4 f7bd
000003c0: 56e9 4fbd 576e b6bd 0494 9ebc de72 85bc
000003d0: 2217 6fbc 2666 a13d 4321 7b3b 51a3 453c
000003e0: acaa 16bd 1fc5 8a3c db99 263d c4e6 483d
000003f0: abdb 4ebd 7cb8 31bc 4202 453d 0e8b d9bd
-0.1021375 -0.06796733 -0.016646853 -0.1402168 0.09989713 0.05370233 -0.024104998 0.0006601942
-0.04418928 -0.039320823 -0.093534686 -0.091308706 -0.06616074 0.12172512 0.13797851 0.115488805
-0.100469105 0.015926857 -0.19089127 -0.051862754 0.06126238 0.0999611 0.043419603 -0.017785937
-0.04480046 0.21649858 -0.027709365 -0.06615219 -0.044776883 0.021433087 0.0078008175 -0.07779586
0.1081572 -0.14719182 0.05326231 -0.029321494 0.095433526 0.04266286 0.08549405 0.038960245
0.07431527 0.009502015 0.093458205 -0.13850608 -0.01666631 0.117925294 -0.12828903 -0.06591258
-0.041504193 -0.09554939 0.038999453 0.1442125 -0.18445663 -0.01913581 0.07626629 -0.108729444
0.017137669 -0.027694376 0.07887436 0.04140392 -0.1474403 -0.046986196 -0.07680468 -0.04034635
0.049824256 0.04867242 -0.008505704 0.067256406 -0.06799435 -0.048680782 -0.073681496 0.032530833
-0.08272942 0.065221824 0.12249842 -0.029820003 -0.09893189 -0.12675084 0.028981494 0.07153027
-0.025101244 -0.031528115 -0.03406019 -0.007957544 -0.10530302 -0.022348339 0.033730693 -0.111693926
-0.026272858 -0.089711614 0.08576774 -0.10717349 0.08528301 0.005590934 -0.10611878 0.0072729187
0.024254015 0.05702822 -0.008543682 0.013188618 -0.03332227 -0.18295138 -0.0032394012 -0.20222177
-0.00857535 0.0884716 -0.02509293 -0.092829555 0.005198275 -0.06188515 0.08955354 -0.101795726
0.0038489301 -0.023169724 -0.033675794 0.0137880035 -0.085909754 -0.06489506 0.1223694 -0.015439915
0.06697985 0.098781265 0.06352575 0.080540635 0.052300394 0.16279124 -0.027981501 -0.14854011
0.052158613 -0.02191175 -0.09618787 -0.051633656 0.06270528 -0.053139113 -0.024834674 0.111132085
0.085407145 -0.03315813 0.09152345 -0.14421375 0.08710432 -0.16387092 0.040654052 -0.06353586
-0.06705791 0.044672415 0.009325762 -0.07510976 -0.04178518 -0.06174392 0.0477856 -0.070441015
0.118406355 0.04962522 -0.033031687 0.041217577 0.0035541332 -0.11647541 -0.027817268 0.0006498925
-0.07642878 -0.02031073 -0.015496898 0.05327379 0.007691452 0.27213022 0.07398827 -7.798727e-05
0.050319914 -0.05353326 0.019724863 -0.020111654 0.023881309 -0.16555345 -0.07672032 -0.025463402
-0.08880983 0.015639026 -0.044700045 -0.09226506 0.081490956 -0.16205005 0.0074833874 0.0643205
0.07605329 -0.0794725 0.12059283 0.013549626 -0.19880572 -0.093436666 0.00035297126 -0.078215666
0.09620937 0.03573248 0.04724597 0.039110117 -0.032698583 -0.039119102 0.08842126 -0.15079978
-0.1056158 0.010793626 -0.060329318 -0.0022404408 0.15972771 0.056034915 -0.0107193375 -0.038386587
-0.1255634 0.07177753 -0.054529216 -0.088506065 0.03908018 -0.14499246 -0.031784933 -0.061844535
-0.19352797 0.028624415 0.025073797 0.04180056 0.010682094 0.03920314 0.10145427 0.044261217
-0.007816643 -0.032838855 0.013286906 0.019227197 -0.11738857 0.08165625 0.11667895 -0.14554986
-0.27848607 0.061845377 -0.029378302 -0.002756096 -0.061543055 -0.072232395 -0.11741479 -0.12091871
-0.050759636 -0.089077644 -0.019357689 -0.016290125 -0.014592918 0.078808114 0.0038319386 0.012062863
-0.03678386 0.016939698 0.04067407 0.0490482 -0.05050246 -0.010847207 0.048097856 -0.10622226

actor.0.bias f4 [32]
00000000: dbb8 29bb 2525 77bb e0e0 b5bb 7850 25ba
00000010: b628 2dba 2102 28bb 088b 8d3a 0e51 82bb
00000020: 55ff 8fba e603 5eba 7b0f 233b 06b7 6bba
00000030: 1387 fbba 71d6 82ba c58b bfbb 8905 8abb
00000040: c7c3 81bb dc00 cbbb 1f35 d8bb e761 263b
00000050: e163 83bb 3df1 a5bb 8d61 633a 28d5 2b3b
00000060: a072 12bb 935b 68ba 115e 3dbb 954f 83bb
00000070: 71c6 9fbb 5ae4 d2bb 972e a4ba 7410 c2b7
-0.0025897536 -0.003771135 -0.005550489 -0.0006306241 -0.00066054927 -0.0025636035 0.0010798881 -0.0039769476
-0.0010986129 -0.0008469209 0.0024881053 -0.0008991811 -0.0019190036 -0.0009982121 -0.0058455192 -0.0042120856
-0.003960106 -0.006195171 -0.0065981294 0.0025387944 -0.004009709 -0.0050641582 0.0008673899 0.002621958
-0.0022346154 -0.0008863743 -0.002889518 -0.0040072897 -0.004875951 -0.006435913 -0.0012526092 -2.3134264e-05

actor.2.weight f4 [32, 4, 3, 3]
00000000: 6034 243e 554b 98bc 1e0f d83e b15e 623d
00000010: 5a29 b13c 3eed 883e 8612 5dbd 0c03 ce3d
00000020: 220a f1ba 3801 89bd e99f 6e3e a79e c73d
00000030: 3651 88be c113 033e af2c 17be 4939 d1be
00000040: 91dd c83e eba6 823e 74fc 1ebe 8cd4 45be
00000050: 4b82 353d 531b 843e 72f8 ac3d e6c6 6cbe
00000060: 8bd0 33bc 19ec eabd 9a77 63be 5f4a c43c
00000070: a333 0abf 82ea a33e 28f2 793e 3924 61bd
00000080: c778 9fbe d2b1 033f ca4b bbbd b170 6cbe
00000090: 3d97 163e 9906 6dbe 5cd4 dd3c 6487 f33d
000000a0: d0c6 24bd c647 23be 66fc c33d 918f 87be
000000b0: 0d52 9bbe 274e f0be 6dc7 ae3e d3e6 763e
000000c0: 6bcb 953e 645d ac3c 3763 f13c e01a 213e
000000d0: 6413 853e 9480 46be 1a21 a13e 687b b6be
000000e0: e961 673e 9a86 353e 67c0 febc 94c4 72bd
000000f0: d50c 75be bf13 0d3d 8934 c3bd 332e e1bc
00000100: 2311 1ebb 4f0f 43be f9a7 4f3e 6b0e 1c3f
00000110: dc9e aabd 3850 4f3d 023a 543e 93c0 ea3e
00000120: bc9d 98be ee7f a6be 9e8a 5c3e c064 cabb
00000130: 968f 593e fbf0 743e d69a f6bd 95e5 5a3e
00000140: eaeb 43be a4f5 4d3d 6eb8 dabe 69a9 32be
00000150: 764a 8cbd 2ba4 e5bb 8d79 f93e b561 0d3e
00000160: 11b9 60bd 1294 1d3e 9a97 00be ae20 7c3d
00000170: 165a 153e b51d 053f 4653 b6be 25d9 2d3e
00000180: 804d 87be 0a29 123e c969 ea3c 4f9a ddbe
00000190: b68f c53c b726 acbe d2e0 613e ec68 11be
000001a0: f282 18bd 2bda 593e 23a3 d6bd b8e8 6f3e
000001b0: 5295 4e3b 348b b6be 403a cebd 5889 79bd
000001c0: b411 76bd 4c36 8fbe cb9c fc3e a5a4 25be
000001d0: bc2e fd3e 7ac3 363e fc95 483e 49f4 223e
000001e0: 139c 2fbd 9f13 063e da8e 153d dc71 80be
000001f0: 6d2d b6bd d926 94be 5708 d9bd e586 eebe
00000200: f878 24be a0ec c13d da90 4a3d fa42 d63d
00000210: e0bb 8bbe 8db3 9bbe 585f bfbd c883 a8be
00000220: c660 c23d 5925 11be 9f87 1e3d 80b8 16bf
00000230: c4f2 71bd 0ff3 c13c afdf 463e fc53 973d
00000240: 2dc1 ebbd a9fc bcbd 600a c1be 8f47 b03e
00000250: 0dea 783d 874e 403d 03f8 103c 17d3 b73e
00000260: 4b78 13be 489a 533e 1ed2 733d 6033 6bbe
00000270: a6af 92be 1631 c8be 5229 633d 94be e3be
00000280: 491a 943d 3f73 a33d a952 f5bd fc74 bbbe
00000290: d3cd 423e f98b 8bbc b3f9 de3d 1e90 c83d
000002a0: f7f9 9b3e 5cf8 3f3e bee4 ecbe be39 8f3e
000002b0: ff1e 633e 0e91 9fbd 3c22 c73e 13b0 5d3d
000002c0: 9192 713e e2a3 46be 5acf 803e b9aa 203e
000002d0: 4410 7ebe a0b7 003f ce91 063d e955 2fbe
000002e0: 7068 e93e 29ab 93bd 573a 563e 8380 8c3e
000002f0: 5ec4 043d 2374 1ebe e909 2d3c 4cc2 c43e
00000300: d974 a7bd 4009 343e 7775 bd3e c61e 253e
00000310: 9f3b 413e 1d56 0e3e 7a85 ed3b 7c4e edbe
00000320: 5078 da3d 2942 8fbe d0df 7cbe 1321 a53e
00000330: 8f90 983e a3a6 e6be 0deb 493e dcd8 033d
00000340: 3b0b 56bc bfe5 a0bd 87a8 183e 5552 e83d
00000350: 6b66 ba3c d2e3 83bd bd25 f4bd 553d 1ebe
00000360: 3964 63be 7c07 2ebc cb78 5c3d 437b 263d
00000370: dba7 ccba 19b1 9abe b05c ca3e 26f9 a7bc
00000380: c232 61be 4cf0 16be 8e5f 1fbe 3bff a0bc
00000390: 74bd e23d 651d 7ebe 855d 503d ee40 0ebd
000003a0: 3d13 fd3d 9570 63be cbe7 5dbd b6d0 ab3e
000003b0: 1cc4 fa3c db9f 8dbe 45ad 2dbe 5fca ab3d
000003c0: e9b8 8abe 950d ca3c c415 2bbf e284 32be
000003d0: 453f febd 2b23 703e 58be 393e 1c4d 893c
000003e0: 333a cabe 136a c3be 189b e0be fb4c 8ebe
000003f0: 2226 00bf 386a 363e 49d6 71be 087c 58be
0.16035604 -0.018590609 0.42199033 0.055266086 0.021626163 0.267435 -0.053972743 0.10059175
-0.0018389861 -0.066896856 0.23303188 0.097470574 -0.2662446 0.12800504 -0.14763139 -0.40864018
0.39231542 0.25517973 -0.1552599 -0.19319361 0.04431371 0.25802097 0.08445825 -0.23122749
-0.0109750135 -0.11470813 -0.22213593 0.023961244 -0.5398504 0.32014853 0.24408782 -0.054966185
-0.31146833 0.5144321 -0.09145315 -0.23089863 0.1470613 -0.23147048 0.0270788 0.11891058
-0.040228665 -0.15945348 0.095696256 -0.2647672 -0.30336037 -0.46934626 0.34136525 0.2411149
0.29256758 0.021040626 0.029466255 0.15732908 0.25991356 -0.19384986 0.31470567 -0.35641026
0.22595944 0.17727128 -0.031097604 -0.059269503 -0.23930676 0.03444266 -0.09531505 -0.02748785
-0.00241191 -0.19048809 0.2027892 0.609595 -0.08331081 0.050613612 0.20725253 0.45850047
-0.29807842 -0.32519478 0.21537253 -0.006176561 0.2124618 0.23920052 -0.12041251 0.21376641
-0.19132963 0.05028309 -0.42718834 -0.17447437 -0.0685014 -0.0070080957 0.48725548 0.13806804
-0.054863993 0.15388516 -0.12557831 0.061554603 0.14585146 0.51998454 -0.35610408 0.16977365
-0.26426315 0.14273468 0.028614895 -0.4328179 0.024116378 -0.33623287 0.22058418 -0.14200181
-0.037234254 0.2127463 -0.104803346 0.23428619 0.0031522107 -0.3565308 -0.10069704 -0.060921997
-0.060075477 -0.27971113 0.49338374 -0.16176088 0.49449718 0.17848006 0.19588464 0.159135
-0.042873453 0.13093422 0.036513187 -0.25086868 -0.08895383 -0.28935888 -0.10597294 -0.4658729
-0.16061771 0.09468961 0.049454547 0.104619935 -0.27291775 -0.30410424 -0.09344357 -0.3291304
0.09491114 -0.14174403 0.038703557 -0.58875275 -0.05906941 0.02367547 0.19421266 0.073890656
-0.11511455 -0.092278786 -0.37703228 0.34429595 0.060770083 0.04694989 0.008848193 0.35903236
-0.14401357 0.20664322 0.059526555 -0.22968817 -0.28649634 -0.3909995 0.055459328 -0.44481337
0.07231576 0.07980966 -0.11978657 -0.3661269 0.19023828 -0.017034518 0.1088747 0.09793113
0.30464146 0.18747085 -0.46268266 0.2797374 0.22179793 -0.07791339 0.38893306 0.054122996
0.23591067 -0.19398454 0.25158197 0.15690126 -0.24810892 0.5028019 0.032853894 -0.17122616
0.45587492 -0.072103806 0.20920692 0.27441797 0.032413833 -0.1547399 0.010561445 0.38429487
-0.08176584 0.17581654 0.3700368 0.1612502 0.188704 0.13900037 0.0072485777 -0.4634894
0.10667479 -0.27980164 -0.24694753 0.32251796 0.2979779 -0.4504901 0.19718571 0.032189235
-0.013064201 -0.078563206 0.14908038 0.113438286 0.022753915 -0.06439938 -0.119212605 -0.15453084
-0.222062 -0.010621902 0.053826135 0.040644895 -0.001561399 -0.3021324 0.3952384 -0.020504545
-0.21992019 -0.14740103 -0.15563795 -0.019652953 0.110712916 -0.248159 0.050870437 -0.03472989
0.12357185 -0.22210915 -0.054176133 0.3355767 0.03061109 -0.27661023 -0.16960628 0.083882086
-0.270942 0.02466468 -0.66830087 -0.17433503 -0.124144115 0.23450916 0.18139017 0.016760401
-0.39497527 -0.38166866 -0.43868327 -0.27793106 -0.50058186 0.17813957 -0.236169 -0.21141064

actor.2.bias f4 [4]
00000000: 928f 683b 2dbe 45b9 29a4 c4b9 f9f4 45bb
0.0035485965 -0.0001885823 -0.00037506342 -0.003020583

critic.1.weight f4 [128, 1024]
00000000: 22f2 08ba 3d59 47bd 9038 2ebc e503 38bd
00000010: 74dc c9bc 30e3 0fbd 93af d1bd d7d0 29bd
00000020: 1740 9c3b 2706 84bc 582d 4d3c fcbc 853d
00000030: 1f1e 213c 5d0a 14be 8c54 423d 3476 19bc
00000040: 85c7 02bc daf7 5bbd 335f 8fbc 214b b63c
00000050: 54d5 d83b a030 c2bd 36d3 0bbd 7ee3 363b
00000060: 2dec a53d c1fd 053d 5cde 0a3d 2979 66bc
00000070: 14b0 14bd cc2c 17bd 3777 14bd aef0 103d
00000080: 5066 26bd e1b1 acbc 15df 74bc 7a91 9a3d
00000090: 3d33 a63d 1b27 ae3c 6ee5 9b3d 5c96 37bd
000000a0: 987d efbc c385 d7bb 0dce 963c 4f25 483c
000000b0: b3b2 933d 5933 b3bd 12dd 4b3d 7934 87bb
000000c0: c3e5 22bd 115e 3bbd 16c8 303d f0e8 e3bc
000000d0: 8e7f 943c 0412 c8bd af99 d53c 9c95 c0bc
000000e0: d309 3ebc 8a4e b3bc 9dd5 5a3d d127 04bb
000000f0: 846d 883d 6285 1ebd 9468 63bd 40e4 be3c
00000100: 9994 633b f1f5 743d bb05 01bd 302c e9bc
00000110: eabb 073c 598a 48bd 8a57 1f3c 0f59 953b
00000120: 3c42 cc3c 896c 6cbb a4fb c2bd 6ce4 c6bc
00000130: 032a f3bc e1e5 3a3a 5995 0ebd 5c44 39bd
00000140: 5f72 1abd 1e5f f63c 3736 933d f199 1fbd
00000150: ab2b 963d dc5e 4d3d 4328 64bd 1812 8dbd
00000160: a52e 79bc 2ca4 48bd d9b9 59bd 15a8 3939
00000170: 4ea1 b9bd 55eb a1bd 2088 4d3d e071 46bd
00000180: f69d 9abb 2428 613c e9d7 57bd 2587 aaba
00000190: de62 8d3c f95a c7bc 46d5 303d ea22 3dbd
000001a0: 7d4e 0ebd ff74 0cbd 16d4 5a3d c959 893d
000001b0: 2d93 7c3d fe79 bfbc bb78 1ebc 6af8 dbbc
000001c0: bbe6 0d3c 178f e3bc 6d67 99bd 5ae0 793c
000001d0: b7d2 1dbc b47c 3dbb 0756 22bc cebb 6b3c
000001e0: 089e 2d3d 82e5 d3bc 21ae 16bc 4d23 823c
000001f0: 6f7f ca3c db41 c03c 0a27 c5bb e394 893d
00000200: 7680 1ebd 8bd0 cb3a 6293 cd3c aed0 8b3d
00000210: 8e14 26bd e5ff a43c 62d6 48bb 8005 b73b
00000220: 1137 363d 0b95 6f3d 783a 873d 56e7 b1bd
00000230: 2646 ab3c dd35 76bc a19d f4bc 8c72 5a3d
00000240: 039e 8fbc 47b5 12bc 8ecd 2e3d 491f e53d
00000250: 4532 f73c 134b 37bd 68c3 54bb c8a5 313c
00000260: aa4f 2ebd 5117 cbbd b4e4 04bd 85e5 cabc
00000270: 7420 643d 3cee 03bd efeb 8bbd 2f3a 86bc
00000280: c62b 99bb 4c1c 9a3d 8eca 9fbc 00a1 253b
00000290: 07c5 86bd b1e7 53bd 9b71 af3d a9ad 623d
000002a0: e61c 15bc 0833 febc 3d92 a33d 4a43 0bbd
000002b0: c502 1f3d 22e7 813d a7ab 54bc eaba 203b
000002c0: c559 153d 0595 7fbd 6362 da3d 051d 95bd
000002d0: 9ace 303d 651d c93c efc5 6fbb a4db b43b
000002e0: b2c4 0bbd 4cef 093c 9c2d 953c 375b 10bd
000002f0: 44a6 213c f96e 79ba 19f4 e33c 7ce0 8ebd
00000300: a643 ba3c 5fc2 b83c b3d7 a83c bdb4 89bc
00000310: 7c53 0a3d 386a a3bd 56c6 5a3c 66f9 09bb
00000320: cd55 0fbd a0b4 413d b00b a53d 9f6f 1e3a
00000330: 4c3f 983d c5f2 1ebd 6bef a7bc dd83 05bd
00000340: 3a62 3d3d bde9 823c 3651 b7bd 28a5 4f3d
00000350: 242f 543d fd8a fc3c bf00 223c 6ca0 963d
00000360: a0a9 d53c 4618 5f3d fd18 e63c 984f e63c
00000370: bd89 5cbd e474 9a3c 25f7 f6bc c9a1 8abd
00000380: 976f 28bd c138 db3c fcc8 59bc 0683 40bc
00000390: 98a1 a4bc 4d7e 6f3b d375 453d d3f9 07bc
000003a0: 0972 9a3b a8a2 b93d 4246 5e3d fb46 81bd
000003b0: 9b39 173d 864f cbbd ccf3 69bd 2f64 08bd
000003c0: 9d31 803d 5d05 a0bd f5ef 29bd be90 5fbd
000003d0: dace 7e3d 903b 133d 6bab 453d baa8 bfbd
000003e0: cb40 50bd 54a7 dbbc 5e5c fa3b 49a9 653d
000003f0: 5409 f3bc 6edb 203d 6d62 0a3d 1dd4 e13b
-0.0005224069 -0.04866909 -0.010633603 -0.04492559 -0.024641253 -0.035128772 -0.10238566 -0.04145893
0.0047683823 -0.016116215 0.012523018 0.065301865 0.009833842 -0.14457078 0.04744391 -0.009366561
-0.0079821395 -0.053703167 -0.01750145 0.022252621 0.0066172276 -0.09481931 -0.034136973 0.0027906592
0.081016876 0.0327127 0.033903465 -0.014066973 -0.036300734 -0.036907956 -0.036246505 0.03538578
-0.040624917 -0.021080913 -0.014945765 0.07547279 0.08115242 0.021258881 0.076121196 -0.04482113
-0.029234692 -0.006577225 0.0184088 0.012215926 0.072118185 -0.08750028 0.049771376 -0.0041261283
-0.0397699 -0.045744006 0.043159567 -0.027821034 0.018127229 -0.09769061 0.026074259 -0.02350884
-0.011599022 -0.021888036 0.053426374 -0.0020165334 0.066615134 -0.038701423 -0.055519655 0.023302197
0.0034726022 0.05980486 -0.031499606 -0.028463453 0.008284548 -0.048960064 0.009725461 0.0045577358
0.024933927 -0.0036075434 -0.09520653 -0.024278842 -0.029683119 0.00071295915 -0.034810398 -0.04523121
-0.03770673 0.030074652 0.07188075 -0.03896517 0.07332548 0.050139293 -0.05570246 -0.06888217
-0.015208875 -0.04898469 -0.053155754 0.0001770559 -0.090639696 -0.07906214 0.050178647 -0.048448443
-0.0047185374 0.01374248 -0.052696142 -0.0013010247 0.017259058 -0.024335371 0.043172143 -0.046175875
-0.03474282 -0.034291264 0.053424917 0.06706578 0.061663795 -0.0233736 -0.009672339 -0.026851851
0.008660967 -0.027778191 -0.0749043 0.0152512435 -0.009632758 -0.002891344 -0.009908206 0.014388038
0.04238704 -0.025866274 -0.009196789 0.015885973 0.024718968 0.023468902 -0.0060166167 0.06717851
-0.03869673 0.0015549822 0.025094692 0.06826912 -0.040546946 0.020141551 -0.003064536 0.0055853724
0.04448611 0.058491748 0.06602949 -0.08686702 0.020907473 -0.01502749 -0.02986032 0.053331897
-0.0175314 -0.008954353 0.0426765 0.11187608 0.030175338 -0.04474933 -0.0032465104 0.010842748
-0.042556442 -0.099165566 -0.03244467 -0.024767647 0.055695012 -0.03220962 -0.0683211 -0.016385166
-0.0046744077 0.075249285 -0.019505765 0.0025272965 -0.06580549 -0.05173463 0.085665904 0.055341396
-0.009101128 -0.031030193 0.07986877 -0.03399972 0.038821 0.06342913 -0.012980378 0.0024525472
0.036462564 -0.062397975 0.10663297 -0.07280926 0.04316578 0.02455015 -0.0036586483 0.0055193473
-0.03412313 0.008418869 0.018210225 -0.03524324 0.009866301 -0.00095151324 0.027826356 -0.06976411
0.022737335 0.02255362 0.020610666 -0.016809816 0.033771023 -0.07979244 0.013352951 -0.0021053194
-0.034993935 0.047291398 0.0805887 0.00060438545 0.07433948 -0.03880574 -0.020499906 -0.032596458
0.046236254 0.015980596 -0.08951037 0.050694615 0.05180277 0.030827994 0.009887873 0.07354817
0.02608186 0.05446651 0.028088087 0.028114125 -0.053842295 0.018854566 -0.030147145 -0.06769139
-0.041122045 0.02676046 -0.013292547 -0.011749988 -0.020096585 0.0036543787 0.04820807 -0.008299309
0.004713301 0.09064227 0.05426622 -0.063123666 0.03692017 -0.09927277 -0.05711727 -0.033298668
0.06259463 -0.07813523 -0.041488606 -0.054581396 0.062208988 0.035945475 0.04825918 -0.09358354
-0.05084304 -0.026813187 0.0076404056 0.056069646 -0.029667534 0.039271764 0.033785272 0.006891741

critic.1.bias f4 [128]
00000000: e112 6238 1073 f339 6939 25ba 0000 0000
00000010: 929c 26ba 4205 2eba d178 81ba 462b 2a3a
00000020: 9e99 30ba a5e1 243a 08c1 24ba e9db 8037
00000030: 0000 0000 ada0 24ba 2847 a9b5 8a1d 33ba
00000040: 3607 1eba 4f9a 3aba e4f0 183a 7fff b630
00000050: 57f7 293a 3b4c c233 b71b 6136 82a9 e0b9
00000060: ec51 2fba 3af1 233a beb8 0934 bd1a b63a
00000070: 7a2d 243a f0e6 17ba cde4 e437 6ad4 23ba
00000080: f79f 11b4 4a43 26ba c06c 423a e390 cb39
00000090: f051 293a 0000 0000 9074 72ba 73fa 14ba
000000a0: e7e4 2db8 67a8 253a 6f49 6238 0000 0000
000000b0: 0000 0000 0881 12b4 141d 36ba d7ed 183a
000000c0: 0cca 2d3a 7ef0 103a 9337 09b7 c1e0 4a3a
000000d0: 4760 52ba 6152 58ba a182 25ba 0a55 0e3a
000000e0: c548 363a 0000 0000 4425 263a 1c1e 29ba
000000f0: ea8f 37ba a079 3a3a 0000 0000 742e 4bba
00000100: 436c 233a 48c9 0636 8acf 2fba 931e 8fb4
00000110: 8e16 99b1 84ac c539 0000 0000 a6b4 2938
00000120: 204b 1bba 637b 73b8 29d9 25b9 0000 0000
00000130: 9d65 0dba 0000 0000 0598 8f39 97c1 26ba
00000140: be47 cab5 0e27 1eba d35f e1b4 0000 0000
00000150: 0000 0000 544f 97ba ea7f 2eba 0000 0000
00000160: b9fb 5b32 803f 273a ca7d b2ba 320d 51ba
00000170: 0333 7b39 7ab4 0eba 23e2 aeb4 c216 10ba
00000180: 058f bab9 4208 6bba 0000 0000 3f49 183a
00000190: 7933 4b39 3022 7439 4ce2 213a 4f67 4536
000001a0: 0000 0000 bdfc 38ba 378d 163a 4109 26ba
000001b0: 3619 26ba ddef 393a 0000 0000 97ca 2e3a
000001c0: fe12 1d3a 629d 0dba 0000 0000 89fe 253a
000001d0: 0000 0000 7619 153a 0000 0000 c8b9 abba
000001e0: e4e8 d5b8 1e28 1dba cd25 1b3a c90d a138
000001f0: c2c5 22ba 211f 9138 5575 6bba bd1e 263a
5.390018e-05 0.000464343 -0.0006302805 0.0 -0.0006355728 -0.0006638357 -0.0009877925 0.00064914336
-0.0006736758 0.0006289727 -0.00062848674 1.5361193e-05 0.0 -0.0006280046 -1.261219e-06 -0.000683271
-0.0006028296 -0.00071183307 0.00058342353 1.3314859e-09 0.0006483695 9.047695e-08 3.3543745e-06 -0.00042850903
-0.00066879275 0.0006253902 1.2826328e-07 0.0013893467 0.000626288 -0.0005794605 2.7286262e-05 -0.00062496087
-1.3562372e-07 -0.00063424243 0.00074167177 0.00038827126 0.0006459048 0.0 -0.00092489365 -0.0005683072
-4.1459596e-05 0.00063193444 5.395099e-05 0.0 0.0 -1.3644251e-07 -0.0006947082 0.0005833781
0.00066295336 0.0005529 -8.178776e-06 0.00077391794 -0.00080252107 -0.00082520215 -0.0006313716 0.0005429542
0.00069535925 0.0 0.00063379505 -0.0006451325 -0.0007002341 0.00071134605 0.0 -0.00077507575
0.0006234089 2.0084717e-06 -0.0006706646 -2.665807e-07 -4.4554502e-09 0.00037703302 0.0 4.0460982e-05
-0.0005923975 -5.8050628e-05 -0.00015816525 0.0 -0.00053938647 0.0 0.0002738835 -0.00063612446
-1.5071053e-06 -0.0006033041 -4.1979237e-07 0.0 0.0 -0.0011544027 -0.0006656634 0.0
1.2804713e-08 0.00063800067 -0.001361781 -0.00079746835 0.00023956229 -0.0005443763 -3.2574562e-07 -0.0005496555
-0.00035583242 -0.0008965769 0.0 0.00058092544 0.00019378764 0.00023282389 0.00061753835 2.941542e-06
0.0 -0.0007056704 0.00057430885 -0.00063337764 -0.0006336154 0.00070929324 0.0 0.00066677615
0.0005991905 -0.0005402175 0.0 0.0006332179 0.0 0.0005687693 0.0 -0.0013101632
-0.00010200011 -0.00059950526 0.00059184135 7.679646e-05 -0.0006209278 6.919937e-05 -0.00089820224 0.0006336978

critic.3.weight f4 [1, 128]
00000000: f589 a03d 1cc0 413b 46ab 86bd 0ff1 35be
00000010: a3b2 77bd fdcf 08bd 26aa f33d 26ff 3f3d
00000020: 02fc ffbb 45f5 883d 2dd6 88bd db9f 4e3b
00000030: be92 2ebc 8035 e4bd ad7e 253e 7906 573e
00000040: cc40 c6bd 280a 69bd 50d2 f93d fa8e 003b
00000050: 0766 233c 17b8 573b 6176 e3bc e101 21bb
00000060: fe5e e8bc d60e 473d 452a f6bc daf1 8bbd
00000070: ceb6 0e3e cda9 02be 3a34 873d 0c3d 98bd
00000080: 57c1 423d 4706 7fbd d61f cd3d 3ea5 2cbd
00000090: 4cb8 843d 0fe0 4e3d 3ef9 f2bc dd94 16be
000000a0: b223 bf3c dd8e 793d 7a91 b73d cc98 b9bc
000000b0: aad9 e9bd 59d9 573d d41f bf3d fb3a fa3d
000000c0: 3dcf 5b3c 2f0c 2f3e 5d57 943d b473 18bd
000000d0: 374d 5fbd 1dee 3a3e cad7 84bd f792 473d
000000e0: 43ef 503d dde4 3b3e b6f7 7d3d 4998 51bd
000000f0: c4b3 ad3d a2d8 403d e8de 153e 3f01 81bc
00000100: a31f ad3d f743 edbd 31f6 0fbc a19d 0f3e
00000110: 812b 7e3c c672 4c3e 5766 babc d99b 7dbd
00000120: df71 79bc 53ba 69bc 3a26 d1bb 09df 973d
00000130: ff62 5dbb 0030 a23d 6381 10bc 8d0f 76bd
00000140: 1384 2e3e 6e2e c4bd 3394 483d d534 333d
00000150: 6c52 96bd fd42 0bbe 4600 2cbc 8500 313d
00000160: 142f 143c 6fa6 6c3d ba2c 2abe eb95 fabc
00000170: 228f 393d 268b 43be baf2 653d e421 68be
00000180: dbea 20be 4187 b7bd a83e 3f3d 9a98 223d
00000190: 9d70 68bd 9f84 193e c93e a23d 09c5 b8bd
000001a0: 970c 21bd 8345 05be ae27 0d3e b2d1 87bd
000001b0: 26d0 80bd 1d21 fe3c 13e5 f2bc cc13 7a3c
000001c0: b3bc ce3d 9011 13bb 642d 52bc 7caa 803d
000001d0: 51bd 46bd b96f 133e db7a 863d 728d a83d
000001e0: cfc6 1b3d 7d48 f2bd 203d e23d f713 da3c
000001f0: 9c64 9bbd 751e 1dbd c895 20bd 7b7d 6d3d
0.07838813 0.002956397 -0.065756366 -0.17767738 -0.060473096 -0.033401478 0.118976876 0.046874188
-0.007812024 0.066874065 -0.06681476 0.0031528387 -0.010655103 -0.11143017 0.16161604 0.20998563
-0.09680328 -0.05689445 0.12198317 0.001961647 0.009973056 0.0032916123 -0.027766408 -0.002456777
-0.028365608 0.048598133 -0.030049453 -0.06833239 0.13936922 -0.12760086 0.06601758 -0.07433519
0.047547664 -0.062261846 0.10015838 -0.042149775 0.06480464 0.050506648 -0.029659864 -0.14705224
0.02333245 0.06092726 0.08963294 -0.022655867 -0.11418469 0.052697513 0.093322426 0.12218281
0.013416109 0.17094491 0.07243226 -0.037219718 -0.054516997 0.18254896 -0.06486471 0.04872414
0.051009428 0.18349023 0.062003814 -0.05117062 0.08481553 0.047081597 0.14635813 -0.015747664
0.084533 -0.11585229 -0.008786724 0.14024974 0.015513302 0.19965658 -0.022753878 -0.061916206
-0.015224903 -0.014265615 -0.006382731 0.074155875 -0.003378093 0.079193115 -0.008819911 -0.060073424
0.1704257 -0.09579168 0.04896946 0.043751556 -0.073399395 -0.13599773 -0.010498112 0.043213386
0.009044427 0.05777591 -0.16618624 -0.030589065 0.045302518 -0.1909605 0.056139685 -0.22669178
-0.1571459 -0.089613445 0.046690613 0.039696313 -0.05674802 0.14991997 0.079221316 -0.090219565
-0.039318647 -0.13014798 0.13784668 -0.06631793 -0.06289701 0.031021649 -0.029650247 0.015263509
0.10094585 -0.0022440888 -0.012828205 0.06282517 -0.04852039 0.14398088 0.065664016 0.082301036
0.038031396 -0.11830232 0.11046815 0.026620848 -0.07587549 -0.038359124 -0.039205343 0.057980996
