experiments/ppo_hrl/models/MicroRTSGridModeVecEnv__ppo_utils__1__1721366908/12288/move.pt (torch, 802531 bytes, 11 tensors)

encoder.1.weight f4 [32, 30, 3, 3]
0	0x3d1bdc0b	0.038051646
1	0xbcaea785	-0.021320114
2	0x3d3073ec	0.0430793
3	0xbd0dda06	-0.03463175
4	0xbd2f1309	-0.042742763
5	0xbdd60b87	-0.104514174
6	0xbc816ab6	-0.015797954
7	0xbe0c2668	-0.13686526
8	0x3c8eee9f	0.017447768
9	0x3e1d26d6	0.15346846
10	0xbe48cd01	-0.19609453
11	0xbd49bba8	-0.04925123
12	0x3e093413	0.13398771
13	0xbd657427	-0.056018975
14	0x3d206f18	0.039168447
15	0x3e1a95e4	0.15096241
16	0xbc0b6969	-0.008509018
17	0xbdb75a79	-0.08952803
18	0x3cb012a8	0.021493271
19	0xbd8eb4d8	-0.06968087
20	0x3e227980	0.15866661
21	0xbd0edd55	-0.034879047
22	0x3ddcbb7c	0.10777947
23	0x3ddd69b8	0.1081118
24	0x3d7862d5	0.06064113
25	0xbdf527dc	-0.11970493
26	0xbd6f3383	-0.058398735
27	0xbd331425	-0.043720383
28	0xbd1e94ee	-0.03871625
29	0xbd96106d	-0.07327352
30	0xbd15b8a8	-0.036553055
31	0x3d10c002	0.035339363
32	0x3cd1119b	0.02552109
33	0x3d32f226	0.043687962
34	0x3d1facb3	0.03898306
35	0xbd222db0	-0.039594352
36	0x3daa57e4	0.08317545
37	0x3e3224b9	0.17396821
38	0xbd77c08c	-0.06048636
39	0xbca83df9	-0.020537363
40	0x3dcc75f1	0.09983433
41	0x3ddff37b	0.10935112
42	0xbe059544	-0.13045222
43	0x3d0521e3	0.03250302
44	0x3cbd9f1d	0.02314716
45	0xbd051a12	-0.032495566
46	0xbde660c8	-0.11248928
47	0x3b770327	0.0037691088
48	0xbc7088d0	-0.014681056
49	0x3bc08e8b	0.0058763674
50	0x3dc64e2f	0.09682881
51	0x3c093c85	0.008376245
52	0x3d7960bb	0.060883265
53	0xbdee9dd5	-0.11651198
54	0xbdd41a9d	-0.103566386
55	0x3d556440	0.05209756
56	0xbcad1a83	-0.021130806
57	0xbdc82ae9	-0.097738095
58	0xbe0d94dd	-0.13826318
59	0xbd6bd4df	-0.057576057
60	0xbd87946c	-0.06620106
61	0xbdbb3f57	-0.091429405
62	0xbe06edeb	-0.13176696
63	0xbbea8ff6	-0.0071582748
64	0x3c566ada	0.013086999
65	0xbde85a6b	-0.11345371
66	0x3dfbd183	0.122958206
67	0x3d9ae992	0.07564081
68	0x3db1f109	0.08688552
69	0x3d58720f	0.05284315
70	0xbe162af5	-0.14664824
71	0x3e64d6c5	0.22347553
72	0x3940c154	0.00018382567
73	0xbda195b6	-0.07889883
74	0xbcf73ee8	-0.030181363
75	0x3c53f261	0.012936206
76	0xbd48effb	-0.04905699
77	0xbd2fd20d	-0.04292493
78	0x3de0653b	0.10956808
79	0x3d580ac1	0.05274463
80	0xbbb7bc12	-0.0056071365
81	0xbc384297	-0.011246345
82	0x3dc8947b	0.097939454
83	0x3d7ee27d	0.062227715
84	0xbdd25fb9	-0.10272164
85	0xbe2846d7	-0.16433273
86	0xbdb4ab8d	-0.08821783
87	0xbd6f848f	-0.058476027
88	0xbcdb080d	-0.026737237
89	0x3d865583	0.06559279
90	0x3e082f8e	0.1329939
91	0xbcac003d	-0.020996207
92	0xbdf911d9	-0.12161607
93	0xbde7f9c1	-0.11326934
94	0x3c9f4c32	0.019445512
95	0x3e027c80	0.12742805
96	0x3d7e2c5c	0.062054023
97	0x3dbf18cc	0.093309015
98	0x3d4cfeeb	0.050047796
99	0x3e1792ea	0.14802137
100	0xbc87bd42	-0.016569737
101	0x3d8e095b	0.06935378
102	0xbdd40d7d	-0.10354135
103	0xbd5139e7	-0.05108061
104	0x3dbbc49e	0.09168361
105	0xbe1568fb	-0.14590828
106	0xbcff7247	-0.031182421
107	0x3dfd07e3	0.1235502
108	0x3cbb21a6	0.022843193
109	0xbc4284ba	-0.011872465
110	0x3d8510a0	0.064973116
111	0xbd3fca30	-0.04682368
112	0xbb5aa0f8	-0.0033360105
113	0x3c647630	0.013944194
114	0x3d9f70ef	0.07785212
115	0x3d484175	0.04889055
116	0xbe160b04	-0.1465264
117	0xbd0fc546	-0.035100244
118	0xbd5cb942	-0.053887613
119	0xbdce00b4	-0.10058728
120	0x3d148df4	0.03626819
121	0xbd57ab6a	-0.052653708
122	0x3bbdb08b	0.005788868
123	0x3bf5d0b3	0.0075016855
124	0xbda9386f	-0.08262717
125	0xbd6e491d	-0.058175195
126	0xbb4b2f86	-0.0031003668
127	0xbe053d2a	-0.13011613
128	0x3ad3eded	0.001616893
129	0x3e2f81d1	0.17139365
130	0xbca1c522	-0.01974732
131	0xbdb0047d	-0.08594606
132	0xbdfb7cd1	-0.12279666
133	0xbde16ae4	-0.11006716
134	0x3ca742b2	0.020417545
135	0xbe11ba64	-0.14231259
136	0xbe209515	-0.1568187
137	0xbd754213	-0.059877466
138	0x3d518f3d	0.051161993
139	0xbd0b0944	-0.033944383
140	0xbdecc58f	-0.11561119
141	0x3d0e70f8	0.034775704
142	0x3e589a76	0.21152672
143	0xbbfb7e25	-0.0076749497
144	0x3cebbaef	0.02877566
145	0xbe049423	-0.12947135
146	0xbd519620	-0.05116856
147	0xbc98a18b	-0.018631717
148	0xbe1226c1	-0.14272596
149	0x3d4000bc	0.0468757
150	0x3d5156bf	0.05110812
151	0xbbdd99a6	-0.006762701
152	0x3d5041e9	0.050844107
153	0x3d36eb2e	0.04465788
154	0x3cd64da0	0.026160061
155	0xbba070d6	-0.0048962636
156	0xbe55cc7f	-0.2087879
157	0x3d39f78d	0.0454021
158	0x3c3038a5	0.010755693
159	0x3d0a9155	0.033830006
160	0xbd313d4a	-0.04327134
161	0xbd880ffc	-0.06643674
162	0xbd86b0d0	-0.06576693
163	0xbd998f84	-0.074980766
164	0x3dc4479b	0.0958397
165	0xbd9b3f89	-0.07580478
166	0xbdd6eb50	-0.10494101
167	0x3e756a5d	0.23966356
168	0xbdf91d4e	-0.121637926
169	0xbd48fd17	-0.04906949
170	0x3bf63d51	0.0075146337
171	0xbd9ed33d	-0.07755134
172	0xbda4b909	-0.08043105
173	0x3b245dd7	0.0025080347
174	0xbde7ed73	-0.11324587
175	0xbe08ac28	-0.13346922
176	0x3d554075	0.052063424
177	0x3bf3f6de	0.0074452003
178	0xbdb9e45a	-0.09076758
179	0x3d14aecc	0.03629951
180	0x3dda0226	0.10644941
181	0xbdc8587d	-0.09782503
182	0xbd508ce4	-0.050915614
183	0x3d7e13b4	0.06203051
184	0x3e0c951f	0.1372876
185	0xbd226dbe	-0.03965544
186	0xbd950a43	-0.07277348
187	0xbce769d0	-0.028248698
188	0x3da09ee1	0.07842804
189	0xbd3fcd82	-0.046826847
190	0xbd839ce7	-0.06426411
191	0x3d94cd93	0.07265773
192	0x3d0c3272	0.034227796
193	0x3d041a2c	0.032251522
194	0x3d76b28f	0.06022888
195	0x3bcd405e	0.0062637767
196	0x3d39c05b	0.04534946
197	0x3c35aec4	0.011089031
198	0xbe0d8b42	-0.13822654
199	0x3d2b977b	0.04189251
200	0x3dc7032b	0.09717401
201	0x3c551c68	0.013007261
202	0x3c1cdec8	0.0095746
203	0xbd1044c7	-0.03522184
204	0x3e1b49f5	0.15164931
205	0xbc884d34	-0.016638376
206	0xbbf186fc	-0.0073708277
207	0xbcea0863	-0.028568452
208	0x3dc34d07	0.09536176
209	0x3e6dc335	0.23218997
210	0x3d207b18	0.03917989
211	0x3cd082d9	0.025453018
212	0xbcf977c0	-0.030452609
213	0xb95476ea	-0.00020262194
214	0xbd5a0e3e	-0.05323624
215	0xbdb174b6	-0.08664839
216	0xbd065ca2	-0.032803185
217	0x3ddc9e44	0.10772374
218	0xbdf74c95	-0.12075154
219	0xbe030422	-0.12794545
220	0x3dfaf113	0.122530125
221	0xbdd384f0	-0.1032809
222	0xbe187cb0	-0.14891315
223	0xbe34840b	-0.17628495
224	0xbd79ec1d	-0.06101619
225	0x3dbd9f58	0.09258908
226	0x3d53c54a	0.05170182
227	0xbcdcfcb9	-0.026975976
228	0xbacfe9cf	-0.0015862527
229	0x3e28a0c8	0.16467583
230	0xbd789a98	-0.060694307
231	0xbceb4bda	-0.028722692
232	0x3dd0a995	0.10188595
233	0xbc30fad8	-0.010801993
234	0xbd57eea8	-0.052717835
235	0x3d492f0c	0.049117133
236	0x3e0e4acc	0.1389572
237	0xbd954ca1	-0.072900064
238	0x3c83377e	0.016017672
239	0x3c271292	0.010197299
240	0xbc910d45	-0.017706523
241	0xbe07d7d1	-0.13265921
242	0xbd26dd49	-0.040738378
243	0x3d9afdfc	0.07567975
244	0x3dba501b	0.0909731
245	0x3d3c0cbb	0.04591058
246	0xbda4f596	-0.08054654
247	0x3d5f4d87	0.054517295
248	0x3e1dc52a	0.15407243
249	0x3deed3b3	0.11661472
250	0xbc6fe16e	-0.014641149
251	0xbd695e15	-0.05697449
252	0xbe4a4ae7	-0.19755135
253	0x3e180101	0.14844133
254	0xbd5a934e	-0.053363137
255	0xbd00f503	-0.03148366

encoder.1.bias f4 [32]
0	0xbb17bdd8	-0.0023153927
1	0xba2d3810	-0.000660778
2	0xba309a55	-0.00067368645
3	0x3ae89552	0.0017744696
4	0x3a60de83	0.00085780787
5	0xba6c18ac	-0.0009006362
6	0xbb03ec98	-0.0020130035
7	0xba8ec06f	-0.001089109
8	0x3b7d0829	0.00386096
9	0xb9d8a95c	-0.00041324913
10	0xb9a9b87a	-0.00032371638
11	0xb9c65100	-0.00037825853
12	0x3a7c2677	0.0009618769
13	0xb9e44911	-0.00043541988
14	0xb9693987	-0.00022242042
15	0x3adf597e	0.001704022
16	0x398f85d8	0.00027374807
17	0xba689531	-0.0008872329
18	0xb9962ff2	-0.00028645952
19	0xb8ecf604	-0.00011299181
20	0xbb85b9bc	-0.004080979
21	0xbb0c70e6	-0.0021429597
22	0x3ac5c17e	0.0015087572
23	0x3b10d7c5	0.0022101265
24	0x399471c1	0.00028313513
25	0xb9468fa7	-0.00018936266
26	0xb7cc0b49	-2.432395e-05
27	0xb946b960	-0.00018951809
28	0x3a61be22	0.0008611401
29	0x3919de95	0.00014674135
30	0xbb499898	-0.003076112
31	0xbb20b0c3	-0.002451942

encoder.4.weight f4 [64, 32, 3, 3]
0	0x3b720eda	0.0036935122
1	0x3dad3cbd	0.084588505
2	0x3dc5a21a	0.09650059
3	0x3daefbcb	0.085441194
4	0x3e1bf382	0.1522961
5	0x3cb6971b	0.02228885
6	0xbdc737aa	-0.09727414
7	0x3dd29c01	0.10283662
8	0x3d5f4402	0.054508217
9	0x3c4b9d57	0.012427649
10	0xbdfcf2cb	-0.123509966
11	0xbdc1e6cb	-0.094678484
12	0x3ce0fc81	0.027464153
13	0x3d544782	0.051826008
14	0x3b379180	0.0028010309
15	0xbdace013	-0.08441176
16	0xbadf4e92	-0.0017036966
17	0x3d94b544	0.07261136
18	0x3dae38e8	0.08506948
19	0x3d38dca7	0.045132305
20	0x3d5a1d1c	0.053250417
21	0xbdac7ef6	-0.084226534
22	0x3ce8f8ce	0.028438952
23	0x3e01e307	0.1268426
24	0x3dbc6f82	0.09200956
25	0x3dbecb80	0.09316158
26	0x3dc4c6e9	0.096082516
27	0xbd227d62	-0.039670356
28	0x3dcafbb0	0.09911287
29	0xbdc7bd4c	-0.097529024
30	0xbd98690c	-0.07441911
31	0xbdb58e81	-0.08865071
32	0xbdbb7877	-0.09153836
33	0x3da3f09e	0.080048785
34	0x3e099e21	0.13439228
35	0x3ce5f801	0.028072359
36	0x3db87bf0	0.09008014
37	0x3cc7424a	0.024323601
38	0x3d664a61	0.056223277
39	0x3ca9d1bc	0.020729892
40	0x3d185241	0.03718782
41	0x3daf883a	0.08570905
42	0xbdaf82d6	-0.08569877
43	0xbd4ca2c3	-0.04995991
44	0xbd56c8a1	-0.05243743
45	0xbd8461d8	-0.06463975
46	0x3c95ff93	0.018310344
47	0xbd9a9656	-0.075482056
48	0x3e6ad84a	0.2293407
49	0x3dd7f0a5	0.10543946
50	0x3d084ca5	0.03327622
51	0x3cd9f2c1	0.026605012
52	0xbdfe9d92	-0.12432398
53	0xbd37381a	-0.044731237
54	0x3c6cc66b	0.014451603
55	0x3d854c80	0.06508732
56	0xbd5a9154	-0.053361252
57	0x3da13ae9	0.07872564
58	0x3b75106c	0.0037393821
59	0xbd73ef91	-0.05955464
60	0xbde30186	-0.11084275
61	0xbd1213ab	-0.035663288
62	0xbda88909	-0.082292624
63	0xbd78ae51	-0.060713116
64	0xbd98a916	-0.074541256
65	0xbd0436c6	-0.0322788
66	0xbc792f69	-0.015209057
67	0xbd1fc3b6	-0.039005004
68	0xbd67ac0d	-0.056560565
69	0x3d85f20c	0.065403074
70	0xbdf27309	-0.118383475
71	0x3c46673f	0.012109577
72	0xbd964cd1	-0.0733887
73	0x3d7849ba	0.060617186
74	0x3c832c46	0.016012322
75	0x3b76afef	0.0037641486
76	0x3e1e23e3	0.15443377
77	0x3d955529	0.07291634
78	0xbe332418	-0.17494237
79	0x3caca902	0.021076683
80	0xbc385639	-0.011251026
81	0xbd66b061	-0.05632055
82	0x3e2e0264	0.169931
83	0xbc2e36b1	-0.010633157
84	0x3dd92c70	0.10604179
85	0x3d310deb	0.043226164
86	0x3df6f473	0.12058344
87	0x3e0eae60	0.13933706
88	0x3d013eec	0.031554148
89	0xbddf3b34	-0.10899964
90	0xbc77c6d3	-0.015123087
91	0x3e3aa245	0.18225963
92	0xbce5d297	-0.028054519
93	0xbbd983ef	-0.006638042
94	0x3c8fa631	0.0175353
95	0x3d2d98c0	0.042382002
96	0xbdcdc5c9	-0.1004749
97	0x3ddf4da9	0.109034844
98	0xbca9a974	-0.020710684
99	0x3d040463	0.032230746
100	0x3d0210e7	0.0317544
101	0xbd6fdf2d	-0.058562446
102	0xbdb6b337	-0.08920901
103	0xbd00e4e9	-0.031468306
104	0x3b626954	0.0034547644
105	0xbd7bf41f	-0.06151211
106	0x3cbdf4f7	0.023188097
107	0xbdb11844	-0.086472064
108	0x3ab06994	0.0013459199
109	0xbe002325	-0.12513407
110	0xbdb6997e	-0.08915995
111	0xbc340b9f	-0.010989099
112	0x3d1aff47	0.037841108
113	0xbcf9672b	-0.030444702
114	0x3d55b85e	0.05217778
115	0x3a528ddd	0.00080320035
116	0xbdf674a7	-0.120339684
117	0xbddf3b3f	-0.10899972
118	0xbc98a486	-0.018633138
119	0x3bcb141f	0.006197467
120	0xbc069389	-0.008213886
121	0x3ca920aa	0.020645458
122	0xbd4052eb	-0.046954077
123	0x3d02ae94	0.031904772
124	0x3d284c0c	0.04108815
125	0x3d5523a6	0.05203595
126	0x3db0caca	0.08632429
127	0x3c0eaf86	0.00870884
128	0xbd022330	-0.03177184
129	0x3dee67d7	0.116409
130	0x3cd2911d	0.025703961
131	0xb98692c2	-0.00025667815
132	0xbd08c7aa	-0.03339354
133	0xbc149229	-0.00906805
134	0xbd16d2df	-0.036822196
135	0xbd321fd0	-0.04348737
136	0xbc787f0e	-0.015167011
137	0x3ba6cd1a	0.005090368
138	0xbca2407f	-0.019806145
139	0xbde8c5f4	-0.113658816
140	0xbc90fc31	-0.01769838
141	0xbcec7c46	-0.028867852
142	0xbcf7ff76	-0.03027318
143	0xbc1a5efd	-0.009422061
144	0x3d5d8222	0.054079182
145	0xbd97ae57	-0.074062996
146	0x3ce36dda	0.027762342
147	0xbc022693	-0.007943767
148	0xbe0afc35	-0.13572772
149	0x3c35d425	0.0110979425
150	0x3db9d347	0.09073501
151	0xbdbafc82	-0.09130193
152	0x3d0a931a	0.033831693
153	0xbdefef54	-0.1171557
154	0x3caed94d	0.021343851
155	0xbe26239a	-0.16224518
156	0xbaf61a5f	-0.001877617
157	0xbe0bda0c	-0.13657397
158	0xbd9562bd	-0.072942235
159	0xbde06fd0	-0.109588265
160	0x3c803101	0.015648367
161	0xbd5a172e	-0.053244762
162	0xbda758b3	-0.08171215
163	0xbde2dc21	-0.110771425
164	0x3c102485	0.008797769
165	0x3d209880	0.039207935
166	0x3c8bf1f4	0.017083146
167	0x3d7014d3	0.05861361
168	0x3cdbef05	0.026847372
169	0xbc9ebed1	-0.019378098
170	0x3bf2045b	0.007385773
171	0xbc4783ed	-0.01217745
172	0xbd223989	-0.03960565
173	0xbdba69f0	-0.09102237
174	0xbd99ef5b	-0.075163566
175	0xbd89b836	-0.067245886
176	0x3ca75122	0.02042443
177	0xbe0bf8a8	-0.13669074
178	0x3da9d2f8	0.08292192
179	0x3d0f7e0e	0.035032324
180	0x3d9d74d5	0.076882996
181	0xbdccbc0f	-0.09996807
182	0x3dbd88c1	0.09254599
183	0xbe248ed6	-0.16070113
184	0xbd807f68	-0.06274301
185	0x3d33261f	0.043737527
186	0xba4a4abb	-0.0007716824
187	0xbd31d218	-0.04341325
188	0xbdc52e5f	-0.09627985
189	0xbe04f22f	-0.1298301
190	0xbd8ecb78	-0.06972402
191	0x3e5b20b1	0.2139919
192	0xbd6c9c96	-0.05776652
193	0xbd6154fb	-0.055012684
194	0x3cb9402e	0.022613611
195	0xbddc1252	-0.10745682
196	0xbe6ddfd7	-0.2322992
197	0x3e35297e	0.1769161
198	0xbd5c03e6	-0.053714655
199	0xbc2ae5e9	-0.010430791
200	0xbd941796	-0.07231061
201	0x3e54da2a	0.20786348
202	0xbd2864f9	-0.04111192
203	0x3a9a5e74	0.0011777417
204	0xbcbd276c	-0.023090087
205	0x3c018319	0.007904791
206	0x3df82391	0.12116159
207	0x3dbecd6b	0.09316524
208	0xbbcb4d3d	-0.006204276
209	0x3e4402f3	0.1914175
210	0xbe0ed5d2	-0.13948753
211	0xb9d6fb93	-0.00041004698
212	0xbc43c66c	-0.011949163
213	0x3d06bf99	0.032897566
214	0x3d925680	0.07145405
215	0xbd8002ce	-0.06250535
216	0xbd950612	-0.072765484
217	0xbd10e19c	-0.035371408
218	0x3e184fcd	0.14874192
219	0x3d22e098	0.03976497
220	0x3dcb660d	0.09931574
221	0x3a1cfc84	0.00059885555
222	0xbdd0a54c	-0.10187778
223	0x3d07742b	0.03306977
224	0x3d2dca5a	0.042429306
225	0xbd1a7aba	-0.037714697
226	0x3dca8e35	0.09890405
227	0x3de7cba6	0.1131814
228	0x3e1d8a4a	0.15384784
229	0x3c881e8d	0.01661613
230	0xbd16126d	-0.036638666
231	0xbe004bbb	-0.12528889
232	0xbd85ca57	-0.06532734
233	0x3d8806f8	0.06641954
234	0x3d42c062	0.04754675
235	0x3d76c4ea	0.060246386
236	0xbe4574cd	-0.19282837
237	0xbd7473a7	-0.059680607
238	0x3d76304b	0.06010465
239	0x3da980c1	0.08276511
240	0xbd525687	-0.05135205
241	0x3c754b34	0.014971543
242	0x3c9c97fa	0.019115437
243	0xbe39adcc	-0.18132704
244	0x3cd7069e	0.026248273
245	0xbe4885dc	-0.19582313
246	0xbe07503d	-0.13214202
247	0x3dd1b8bb	0.10240313
248	0xbdbda41f	-0.09259819
249	0x3db7f22e	0.08981739
250	0xbd72db0d	-0.059290934
251	0xbce3f39e	-0.027826127
252	0x3e373c0c	0.17894
253	0xbce48ad2	-0.027898226
254	0xbdc9516d	-0.09829984
255	0x3d4d80ab	0.050171535

encoder.4.bias f4 [64]
0	0x3abbcd45	0.0014328143
1	0x3acc8b00	0.001560539
2	0xbaab2cd7	-0.0013059628
3	0xb9180a2b	-0.00014499637
4	0xba9dc8d2	-0.0012037999
5	0xb9693531	-0.00022240427
6	0xb975ef14	-0.00023454084
7	0xba2b3716	-0.0006531341
8	0x3a2ba842	0.00065482047
9	0x37bcda22	2.2512922e-05
10	0xba2446a0	-0.00062666275
11	0xba1e1c59	-0.0006031446
12	0xb9d19c74	-0.00039980153
13	0xb9b5b967	-0.00034661146
14	0xbaac0a74	-0.0013125674
15	0xb975f6c6	-0.00023456951
16	0x3b4d19d3	0.003129591
17	0x3aa1376d	0.0012299843
18	0xbaab79bb	-0.0013082543
19	0xb9c86929	-0.00038225323
20	0xb92a7ce5	-0.0001625899
21	0xb97b5e1e	-0.00023972287
22	0xba05090e	-0.00050748966
23	0x39a20eda	0.00030910113
24	0xb999ef8c	-0.0002936091
25	0xb8dde935	-0.000105815394
26	0x39aac154	0.00032568967
27	0xb915e601	-0.0001429543
28	0xbb313e01	-0.0027045014
29	0xba8bca66	-0.0010665178
30	0xbacfc17e	-0.0015850512
31	0xbaefec3f	-0.001830466
32	0xba0cd3c5	-0.00053721323
33	0xba8069f7	-0.0009797205
34	0x3a86e26d	0.0010290869
35	0xba8a6b3a	-0.001056052
36	0x39b1509a	0.00033820124
37	0xbb13b7c3	-0.002253995
38	0xbb2bee4f	-0.0026234572
39	0xbb22fe4d	-0.0024870813
40	0x3a0dc041	0.0005407371
41	0xbb2ae5ce	-0.0026076916
42	0xbaaea374	-0.0013323859
43	0x39dcd5e9	0.00042121045
44	0x34a18600	3.0086085e-07
45	0xbb1d1072	-0.00239661
46	0xba9872f3	-0.0011630937
47	0x3a0a9f9d	0.00052880665
48	0x00000000	0.0
49	0xb949c418	-0.00019241904
50	0xbae9720f	-0.0017810481
51	0x378bcd01	1.6665554e-05
52	0xbac93c5e	-0.0015353074
53	0xb9aa889c	-0.0003252671
54	0xba2e9fa4	-0.00066613615
55	0x3b02b00b	0.0019941356
56	0xb956283b	-0.00020423617
57	0xba8ae199	-0.0010595798
58	0x39b1e78d	0.0003393259
59	0xb903193c	-0.00012502534
60	0xb9d916d1	-0.00041406465
61	0xbab289e1	-0.0013621413
62	0xba500f22	-0.0007936825
63	0xb95c0f79	-0.00020986599

actor.0.weight f4 [64, 32, 3, 3]
0	0xbd1392c2	-0.03602863
1	0xbd5e7f72	-0.05432076
2	0x3bc7b222	0.006094233
3	0x3c67a2e4	0.014137957
4	0xbb165eba	-0.0022944645
5	0x3d9d746f	0.076882236
6	0x3c1bc28f	0.009506836
7	0x3d0bdc3b	0.034145575
8	0x3b805b7e	0.0039171567
9	0xbd820df8	-0.063503206
10	0x3bf979b2	0.007613384
11	0xbd3d5de6	-0.046232127
12	0x3da216e4	0.07914522
13	0x3abe2ea0	0.0014509745
14	0xbd923b1b	-0.0714018
15	0xbcb9373d	-0.022609347
16	0xbde3e784	-0.111281425
17	0x3c4b9e64	0.0124279
18	0xbca6f6d1	-0.020381363
19	0xbbc39edb	-0.005969865
20	0xbe0da9ee	-0.13834354
21	0xbc18dcf1	-0.00933002
22	0xbd8030da	-0.06259318
23	0x3d71167d	0.058859337
24	0x3dc8e84f	0.09809934
25	0x3ca3bd6d	0.019987786
26	0xbd6c114a	-0.057633676
27	0xbdd21a69	-0.102589436
28	0x3d50eb9b	0.05100594
29	0xbd26a69a	-0.040686227
30	0x3e01e735	0.12685855
31	0x3d749550	0.059712708
32	0xbd97be18	-0.074093044
33	0xbd757f40	-0.05993581
34	0x3d11cd2e	0.035596065
35	0xbdca71bf	-0.098849766
36	0xbd9870a2	-0.07443358
37	0xbdea8280	-0.11450672
38	0xbe57a894	-0.21060401
39	0xbdc256bf	-0.09489202
40	0xbe092760	-0.13393927
41	0x3db70f45	0.08938459
42	0x3d116630	0.035497844
43	0xbd228294	-0.03967531
44	0xbd227ab1	-0.03966779
45	0xbd58629d	-0.05282842
46	0x3e478021	0.19482471
47	0x3d2772b4	0.040880874
48	0xbd982ec7	-0.07430797
49	0xbd9af21b	-0.07565709
50	0xbac6872e	-0.0015146488
51	0xbdbd0fe2	-0.09231545
52	0x3d113d13	0.035458636
53	0xbdbddda9	-0.09270794
54	0xbd88833a	-0.066656545
55	0xbdebc9fc	-0.11513135
56	0x3c36a5d8	0.011147939
57	0xbbe3ad2d	-0.0069481344
58	0xbdfc4b7d	-0.12319086
59	0x3d9e9ac4	0.07744363
60	0xbe0c1f70	-0.13683867
61	0x3bbe767c	0.0058124643
62	0xbca23b1a	-0.019803572
63	0xbd90c6e7	-0.070691876
64	0xbce8c338	-0.0284134
65	0x3da09218	0.07840365
66	0x3d24c9aa	0.040231384
67	0xbddac376	-0.106818125
68	0xbd2047ec	-0.03913109
69	0x3d7cb238	0.0616934
70	0x3da94d0e	0.0826665
71	0x3c4b208b	0.012397896
72	0xbe3766ba	-0.17910281
73	0x3d55a304	0.052157417
74	0xbdf4bd8e	-0.11950217
75	0x3c80d0e7	0.015724612
76	0xbe0d6f79	-0.13812055
77	0x3d96bb27	0.07359915
78	0x3cf2d2cb	0.02964153
79	0x3be34b26	0.0069364486
80	0x3cc83ab9	0.024442064
81	0x3da0918c	0.07840261
82	0xbde27181	-0.110568054
83	0xbe113749	-0.14181246
84	0xbd870ac8	-0.06593853
85	0xbd4f6527	-0.050633576
86	0xbe3ef912	-0.186497
87	0x3d778ab1	0.060435
88	0xbdf740e0	-0.12072921
89	0x3cf6c729	0.030124264
90	0xbdbe00b8	-0.09277481
91	0x3d1644bd	0.036686648
92	0x3d155d3c	0.03646587
93	0x3da2697d	0.079302765
94	0x3d846ad9	0.06465692
95	0x3ddcb46e	0.10776602
96	0x3e1858e7	0.14877664
97	0xbe0da4e9	-0.1383244
98	0xbd314fb6	-0.04328891
99	0xbdfe91b6	-0.12430136
100	0x3da6ccc1	0.081445225
101	0x3d865e99	0.06561012
102	0x3d8a3850	0.06749022
103	0x3bf2b9bb	0.0074073947
104	0x3ca112d5	0.0196623
105	0x3d37b14f	0.04484683
106	0xbdcacbc6	-0.09902148
107	0x3cbc37b2	0.022975776
108	0x3cf55fcc	0.029952906
109	0xbcfa7ab8	-0.030576095
110	0x3d211517	0.039326753
111	0xbd12a165	-0.03579845
112	0x3ddcdecf	0.10784685
113	0xbd8bd228	-0.068271935
114	0x3d8c67bc	0.06855723
115	0x3bde2b63	0.0067800744
116	0x3d0cdd11	0.034390513
117	0xbe1c23d6	-0.15248045
118	0x3caa784a	0.020809311
119	0x3d1a609a	0.037689783
120	0x3c927854	0.017879643
121	0xbd3c5f31	-0.04598922
122	0xbcca8b35	-0.024724582
123	0x3d07d184	0.033158794
124	0x3e5bface	0.21482393
125	0x3dd03d32	0.10167922
126	0xbdf3d80b	-0.11906441
127	0xbdbf9791	-0.09355081
128	0xbe1258c9	-0.14291681
129	0xbdaa92a7	-0.08328753
130	0x3c675a1a	0.014120603
131	0x3e4c02c8	0.19922936
132	0x3d8c4a6f	0.068501346
133	0x3d812d4d	0.063074686
134	0xbd7d2d95	-0.06181105
135	0xbd21f9af	-0.039544757
136	0x3d8651c3	0.065585636
137	0x3dbc984f	0.09208738
138	0x3e352bcd	0.1769249
139	0xbd299991	-0.041406218
140	0x3bd45ce6	0.006480801
141	0xbdf71eb3	-0.12066402
142	0xbcde2d72	-0.02712128
143	0xbe3651b5	-0.17804606
144	0x3ca1fbb4	0.019773342
145	0x3c5cedf2	0.013484465
146	0x3e39242b	0.18080203
147	0xbd4467f4	-0.0479507
148	0x3e090224	0.13379723
149	0x3db3415d	0.087527014
150	0x3cb0bf02	0.021575455
151	0xbd06d640	-0.03291917
152	0x3d243e8f	0.040098723
153	0xbe994087	-0.29932043
154	0x3d6d735d	0.057971347
155	0xbe19df0b	-0.1502649
156	0x3d905c06	0.07048802
157	0x3e071300	0.13190842
158	0x3bcd1761	0.0062588905
159	0xbcd0d40a	-0.025491733
160	0xbca905df	-0.020632682
161	0x3ddced25	0.10787419
162	0x3d78d4d5	0.060749847
163	0xbd20ed7f	-0.039288994
164	0xbd8ed7f0	-0.069747806
165	0x3b9775bd	0.00462219
166	0xbda7a521	-0.08185793
167	0x3dbfb8aa	0.09361394
168	0x3d7ea092	0.06216485
169	0xbe1de710	-0.15420175
170	0x3d1323f4	0.03592296
171	0xbde8b462	-0.1136253
172	0xbd719af4	-0.058985665
173	0x3c20f63e	0.009824334
174	0xbd952a4b	-0.07283457
175	0x3e19b2c6	0.15009603
176	0x3d4a7b61	0.04943407
177	0x3d8cb63f	0.06870698
178	0x3e0e7b0f	0.1391413
179	0x3d311961	0.043237094
180	0xbd90dad5	-0.07072989
181	0xbd45f18d	-0.048326064
182	0xbdd6517b	-0.1046476
183	0x3cfef339	0.031121837
184	0xbd67a77f	-0.05655622
185	0xbc65b39d	-0.014019874
186	0xbdc4647d	-0.09589479
187	0xbd98ca8d	-0.074605085
188	0xbcb252b7	-0.021767957
189	0xbdcb95fa	-0.09940715
190	0x3d92885d	0.071549155
191	0x3d87d7e9	0.066329785
192	0x3d932c38	0.071861684
193	0x3e09316e	0.13397762
194	0x3d799c55	0.060940105
195	0x3ce3f7b1	0.02782807
196	0xbdadf1a1	-0.08493353
197	0xbdaf6496	-0.08564107
198	0x3da1d482	0.07901861
199	0xbc94999d	-0.018139655
200	0x3c7097bb	0.014684613
201	0x3c75326f	0.014965638
202	0x3c7807f6	0.015138617
203	0xbdb32d7f	-0.08748912
204	0xbd898649	-0.06715066
205	0xbddd3443	-0.10800984
206	0x3dc87e70	0.09789741
207	0xbdb8341b	-0.08994313
208	0xbcbdb7b2	-0.023158882
209	0x3c92af07	0.017905725
210	0xbdb65e28	-0.08904678
211	0x3d96df90	0.0736686
212	0x3c27df22	0.01024607
213	0x3d2e6506	0.042576812
214	0xbdcc335e	-0.09970735
215	0x3d895b80	0.06706905
216	0x3d3af35e	0.04564225
217	0x3cd45591	0.025919707
218	0xbbd98f64	-0.006639408
219	0x3ce39320	0.027780116
220	0xbdad42c7	-0.084600024
221	0xbaf026fd	-0.0018322166
222	0xbda22a51	-0.079182275
223	0x3dea7a3a	0.11449094
224	0x3d078e0e	0.03309446
225	0xbdaefa20	-0.08543801
226	0x3dfbe23a	0.12299009
227	0x3cfe1b46	0.031018864
228	0xbd9a1459	-0.07523412
229	0x3e59d74b	0.21273534
230	0x3e0191e6	0.12653312
231	0x3e056882	0.13028148
232	0x3ce9d042	0.028541688
233	0xbd88a91e	-0.066728815
234	0x3d43a2b1	0.047762576
235	0xbce92da8	-0.028464153
236	0x3d05d794	0.032676294
237	0xbbed3c8a	-0.007239883
238	0xbe061c49	-0.13096727
239	0x3d178d5c	0.037000045
240	0xbd6cd8bb	-0.057823878
241	0xbc3fcf72	-0.011707174
242	0xbd5a0785	-0.053229827
243	0x3d946271	0.07245339
244	0x3dc24893	0.09486499
245	0x3cc53d11	0.02407697
246	0xbcf3fda4	-0.029784031
247	0xbdde693f	-0.10859918
248	0x3deda7cc	0.1160427
249	0x3c67557c	0.014119502
250	0xbd2260a8	-0.03964296
251	0x3ddc1e11	0.10747922
252	0x3e0a5154	0.13507587
253	0x3bf6b847	0.007529292
254	0x3da5b679	0.080914445
255	0xbc09e833	-0.008417177

actor.0.bias f4 [32]
0	0x3a156888	0.00056994753
1	0xbb27e67f	-0.0025619564
2	0x3b27b3ec	0.002558942
3	0x3a75d66d	0.000937796
4	0xb9fec627	-0.0004859429
5	0xba5f6875	-0.000852234
6	0x3ac50c53	0.001503358
7	0xba977c32	-0.0011557399
8	0xba713b5f	-0.00092022674
9	0x394eb22e	0.00019712068
10	0xba041435	-0.00050384115
11	0x3ae8bf40	0.0017757192
12	0xbb0012fb	-0.0019542563
13	0xb8f8b141	-0.00011858578
14	0x3a27ffd5	0.00064086664
15	0x3acc80f8	0.00156024
16	0x3abd9407	0.0014463671
17	0xb93f66b4	-0.0001825344
18	0xb8eba1ad	-0.00011235788
19	0x36a4e5ae	4.914319e-06
20	0x3a8eb09c	0.0010886374
21	0xba6b396c	-0.0008973095
22	0xbb06cefd	-0.0020570152
23	0x3a3e979a	0.0007270515
24	0x3b172387	0.0023061947
25	0x3a8d1284	0.0010762964
26	0x3a44c1d8	0.00075056916
27	0x395323a0	0.000201358
28	0xbb823dda	-0.0039746584
29	0xbab2aa70	-0.0013631117
30	0xba98bb32	-0.0011652468
31	0x3b26b1de	0.0025435607

actor.2.weight f4 [32, 78, 3, 3]
0	0x3daf60c1	0.08563376
1	0xbd8cbc30	-0.068718314
2	0xbc9d9d80	-0.01924014
3	0xbd97ff25	-0.07421712
4	0xbc5f9d90	-0.013648406
5	0x3bf71ccb	0.007541274
6	0x3d8f4921	0.0699637
7	0xbc9d3611	-0.01919082
8	0x3b1f72a2	0.00243298
9	0xbe02f156	-0.12787375
10	0x3c21187e	0.0098325
11	0xbd21a88c	-0.03946738
12	0x3be769e8	0.0070621856
13	0xbc97bbff	-0.01852226
14	0x3e0ae145	0.13562496
15	0xbce5be0a	-0.02804472
16	0x3cd7c829	0.026340561
17	0xbc322f63	-0.010875556
18	0x3d614c59	0.05500445
19	0xbe1fe52b	-0.15614764
20	0x3cb424b4	0.021990158
21	0xbd73d715	-0.05953129
22	0xbc797d39	-0.015227609
23	0x3dbb5532	0.09147109
24	0x3db9616d	0.090517856
25	0x3e10e586	0.14150056
26	0x3d084054	0.033264473
27	0xbdbcd73a	-0.09220739
28	0x3d2cdf24	0.04220499
29	0x3d9a1226	0.07522993
30	0x3c9602da	0.018311907
31	0xbdb52ede	-0.0884683
32	0xbd31c78c	-0.043403193
33	0x3cc411f8	0.02393435
34	0x3ce995d5	0.028513828
35	0x3cb29234	0.02179823
36	0x3d0b5b06	0.034022354
37	0xbd13fb21	-0.036128167
38	0xbd46a3ad	-0.048495937
39	0x3d1ab0bf	0.037766214
40	0xbca1ec7a	-0.019766081
41	0xbcb303ed	-0.021852458
42	0xbd02462b	-0.0318052
43	0x3ccdab18	0.025105998
44	0xbd845435	-0.06461374
45	0x3d1379e1	0.036004905
46	0x3dc57768	0.096419156
47	0xbdb966c7	-0.09052806
48	0xbdecc2be	-0.115605816
49	0xbd86db39	-0.06584782
50	0x3d457626	0.04820838
51	0xbd832465	-0.06403426
52	0xbda2c3ef	-0.079475276
53	0xbb949ad1	-0.004535057
54	0xbb86a6a4	-0.0041092206
55	0xbc5e1b40	-0.013556302
56	0x3d1cbbb9	0.038264964
57	0xbdcebe83	-0.10094931
58	0x3c3c52bb	0.011494334
59	0xbbe6d3b1	-0.0070442786
60	0x3d02839f	0.031863805
61	0xbd0b046e	-0.03393977
62	0x3d8040f3	0.06262388
63	0xbd85e8e6	-0.065385625
64	0xbd249738	-0.040183276
65	0x3b957468	0.004560996
66	0x3d0d232c	0.03445737
67	0x3d907e3d	0.07055328
68	0x3d992c02	0.07479097
69	0xbd939fef	-0.07208239
70	0x3dbebef5	0.09313766
71	0xbda3efcb	-0.08004721
72	0xbd74fc7e	-0.059811108
73	0x3bdedcb9	0.0068012145
74	0xbc37187e	-0.011175273
75	0xbd9aec78	-0.07564634
76	0xbdc303c5	-0.09522203
77	0xbd66803b	-0.056274634
78	0x3d1496ef	0.036276754
79	0x3cae36c5	0.02126635
80	0xbc3ed7bc	-0.011648115
81	0x3d1586de	0.036505572
82	0x3b2fbb82	0.0026814644
83	0xbcf9a95c	-0.030476265
84	0xbcd86e7e	-0.026419874
85	0x3d85136e	0.064978465
86	0xbc933d2d	-0.017973507
87	0xbd948fc0	-0.07253981
88	0xbd75efbe	-0.06004309
89	0xbc8cd880	-0.017193079
90	0xbc901e6f	-0.017592637
91	0x3d7fe4f3	0.062474202
92	0x3df6874a	0.12037523
93	0x3d1ae21b	0.037813287
94	0x3ccb5d99	0.024824904
95	0x3d55c113	0.052186083
96	0x3cf121e0	0.029435098
97	0xbd944381	-0.07239438
98	0xbc9f9a6f	-0.01948282
99	0x3dda243e	0.10651444
100	0x3d14d6ab	0.036337536
101	0xbd6d1a35	-0.05788632
102	0x3d17bde5	0.037046332
103	0x3c5a3fed	0.013320905
104	0xbd9192e7	-0.071080975
105	0x3db87ddf	0.09008383
106	0x3d1695ca	0.036763944
107	0xbd1c88ab	-0.038216274
108	0xbd28e66b	-0.04123537
109	0xbd4815ce	-0.04884892
110	0x3ddcdacb	0.10783919
111	0xbc8514a6	-0.016245198
112	0xbd03c357	-0.032168712
113	0xbd65cc8e	-0.05610328
114	0x3ddb4373	0.10706224
115	0x3d016def	0.03159898
116	0xbbc3110f	-0.0059529613
117	0x3d27462d	0.04083841
118	0x3d6a98a2	0.05727447
119	0xbd303463	-0.04301871
120	0xbcbdff9c	-0.023193173
121	0x3cda4e37	0.026648624
122	0xbd3ea821	-0.04654706
123	0x3df6e600	0.12055588
124	0xbcfb4e6e	-0.030677047
125	0x3cd5080d	0.026004815
126	0xbd137ee6	-0.03600969
127	0x3d2d728f	0.04234558
128	0xbdea91cf	-0.11453592
129	0x3d1eedd2	0.038801022
130	0xbcb28984	-0.021794088
131	0xbc1e2e91	-0.009654657
132	0x3bd2dc99	0.0064349887
133	0x3cc34ac9	0.023839371
134	0x3cbf2f16	0.023337882
135	0x3dbb8356	0.0915591
136	0x3d029e3a	0.031889178
137	0x3cd3936b	0.02582713
138	0xbd21023f	-0.039308783
139	0x3c8dddb4	0.01731763
140	0x3c16f7f8	0.009214394
141	0xbc383ce6	-0.011244988
142	0x3c8d4d13	0.017248666
143	0x3cb0ac09	0.021566408
144	0xbc26797b	-0.010160799
145	0xbd5ceb73	-0.05393548
146	0xbd5d57ee	-0.054038934
147	0x3d7b479c	0.06134759
148	0x3d043803	0.03227998
149	0xbd097f81	-0.033568863
150	0x3d9b84c5	0.07593683
151	0x3aee1bab	0.0018166205
152	0xbd1afbc5	-0.037837762
153	0xbdd87425	-0.10569028
154	0xbb8773b3	-0.0041336655
155	0xbc19ad0f	-0.009379639
156	0xbd8c244c	-0.068428606
157	0xbbf0f2b1	-0.00735315
158	0x3c78a9c3	0.015177193
159	0x3d762910	0.060097754
160	0x3d532e84	0.051558033
161	0x3cf83984	0.030300863
162	0xbdeac456	-0.11463229
163	0xbca9a81e	-0.020710047
164	0x3cffc158	0.031220123
165	0xbc3cbaf6	-0.011519184
166	0x3da99005	0.08279423
167	0xbca55e24	-0.020186491
168	0x3d8b22f2	0.06793775
169	0x3cfe681f	0.031055508
170	0xbd3b83a1	-0.045779828
171	0xbcc030c5	-0.023460755
172	0x3d97c9df	0.07411551
173	0x3dd17fe2	0.1022947
174	0x3c32aa2e	0.010904832
175	0x3d1ca45f	0.038242694
176	0x3d361c9f	0.04446089
177	0xbceb50a1	-0.02872497
178	0x3d5eaf74	0.054366544
179	0xbd5046bb	-0.050848704
180	0xbd290983	-0.041268837
181	0x3cda3bdd	0.026639873
182	0x3d4940ac	0.04913394
183	0x3beff953	0.007323423
184	0x3cc5e6b1	0.024157854
185	0x3de104da	0.109872535
186	0xbd05cd8d	-0.03266673
187	0xbbbbeea3	-0.005735235
188	0xbd6054d2	-0.05476839
189	0xbd9e3ef0	-0.07726848
190	0xbd7f5c7a	-0.062344052
191	0xbd21884a	-0.039436616
192	0x3d81f3b1	0.063453086
193	0xbe194e6c	-0.14971322
194	0x3d5badb0	0.05363244
195	0xbc078319	-0.008271002
196	0x3c2ef58a	0.010678658
197	0xbb8a38d8	-0.004218202
198	0xbd64c1fc	-0.05584906
199	0xbc428aca	-0.01187391
200	0x3dcf569f	0.101239435
201	0x3bb34788	0.0054711737
202	0x3cded4fd	0.02720117
203	0xbd62cc46	-0.05537059
204	0x3d07045f	0.032963153
205	0x3caebbdf	0.021329818
206	0x3d547fd7	0.05187973
207	0xbc560631	-0.013063
208	0x3d8d4d6a	0.06899531
209	0xbd498e5f	-0.04920804
210	0xbc29df46	-0.010368174
211	0x3bcd31db	0.0062620468
212	0x3ca071fa	0.019585598
213	0x3cfafb2b	0.030637344
214	0x3cbc49d2	0.022984419
215	0x3d9f36b9	0.077741094
216	0x3cebc185	0.0287788
217	0xbcca6ac6	-0.024709117
218	0x3d6fa1c7	0.058503892
219	0xbd2d613b	-0.042329054
220	0xbcd1e1a0	-0.025620282
221	0xbd841a62	-0.064503446
222	0x3c66081b	0.014040018
223	0xbc87462e	-0.016512956
224	0x3c1f6cce	0.009730531
225	0xbd2a3394	-0.041553095
226	0x3d0996f6	0.033591233
227	0xbc7f5b20	-0.015585691
228	0x3cc37e7e	0.023864027
229	0xbb227775	-0.002479044
230	0xbc1ae45a	-0.009453857
231	0x3d41007d	0.047119606
232	0xbc20c5ae	-0.0098127555
233	0xbc8622a7	-0.016373945
234	0xbb900804	-0.004395487
235	0xbd9e033c	-0.07715461
236	0xbd494149	-0.049134526
237	0x3db93851	0.090439446
238	0x3d575097	0.05256709
239	0xbc1b58bf	-0.009481608
240	0x3cd3d82f	0.02585992
241	0x3d2eaa5c	0.042642936
242	0xbaee671a	-0.0018188686
243	0xbd46bfc3	-0.048522722
244	0xbda4e0e3	-0.08050706
245	0xbc037111	-0.008022563
246	0xbd61b93e	-0.0551083
247	0xbd84f500	-0.064920425
248	0xbd8cdf85	-0.068785705
249	0x3d37fccc	0.04491882
250	0xbcb73555	-0.022364298
251	0xbca972fb	-0.02068471
252	0x3d591205	0.0529957
253	0xbcbc3cbb	-0.022978177
254	0xbd1ca2c8	-0.038241178
255	0xbc79fc10	-0.01525785

actor.2.bias f4 [78]
0	0xbb729cdf	-0.0037019772
1	0x3b433581	0.002978653
2	0xbb2a3326	-0.0025970428
3	0x3ac997c9	0.0015380319
4	0xb8f10d42	-0.00011494245
5	0x3b96cc4c	0.004601991
6	0xba06da41	-0.00051442167
7	0xbaecd598	-0.0018069027
8	0x3ac2f40f	0.001487376
9	0xba1b0d35	-0.0005914749
10	0x00000000	0.0
11	0x00000000	0.0
12	0x00000000	0.0
13	0x00000000	0.0
14	0x00000000	0.0
15	0x00000000	0.0
16	0x00000000	0.0
17	0x00000000	0.0
18	0xb84891bb	-4.7819438e-05
19	0xbabbc377	-0.0014325221
20	0x375c2acc	1.3122986e-05
21	0x3ac40149	0.0014953996
22	0x00000000	0.0
23	0x00000000	0.0
24	0x00000000	0.0
25	0x00000000	0.0
26	0x00000000	0.0
27	0x00000000	0.0
28	0x00000000	0.0
29	0x00000000	0.0
30	0x00000000	0.0
31	0x00000000	0.0
32	0x00000000	0.0
33	0x00000000	0.0
34	0x00000000	0.0
35	0x00000000	0.0
36	0x00000000	0.0
37	0x00000000	0.0
38	0x00000000	0.0
39	0x00000000	0.0
40	0x00000000	0.0
41	0x00000000	0.0
42	0x00000000	0.0
43	0x00000000	0.0
44	0x00000000	0.0
45	0x00000000	0.0
46	0x3aca1e08	0.0015420327
47	0x00000000	0.0
48	0x00000000	0.0
49	0x00000000	0.0
50	0x00000000	0.0
51	0x00000000	0.0
52	0xb7ecb4a8	-2.8217517e-05
53	0x00000000	0.0
54	0x395c046e	0.00020982485
55	0x00000000	0.0
56	0x00000000	0.0
57	0x00000000	0.0
58	0x00000000	0.0
59	0x00000000	0.0
60	0xbac4e5dd	-0.0015022118
61	0x00000000	0.0
62	0x00000000	0.0
63	0x00000000	0.0
64	0x00000000	0.0
65	0x00000000	0.0
66	0x00000000	0.0
67	0x00000000	0.0
68	0x00000000	0.0
69	0x00000000	0.0
70	0x00000000	0.0
71	0x00000000	0.0
72	0x00000000	0.0
73	0x00000000	0.0
74	0x00000000	0.0
75	0x00000000	0.0
76	0x00000000	0.0
77	0x00000000	0.0

critic.1.weight f4 [128, 1024]
0	0xbd24ef0c	-0.040267035
1	0xbb555767	-0.0032553317
2	0x3d6482a4	0.05578865
3	0x3c75fe54	0.01501425
4	0x3d8b5c33	0.06804695
5	0x3b1668a3	0.0022950552
6	0xbbf2c37f	-0.007408559
7	0xbd29a4cf	-0.04141694
8	0x3cc49d6a	0.024000842
9	0xbc99a1a7	-0.01875384
10	0x3d269fc6	0.040679716
11	0xbc849e1a	-0.01618867
12	0xbc3cce57	-0.011523805
13	0xbb805634	-0.003916526
14	0xbca1dc38	-0.019758329
15	0xbd9b5968	-0.07585412
16	0x3d24866f	0.04016727
17	0xbd2ca3e6	-0.042148493
18	0xbdc20324	-0.09473255
19	0xbc995fa2	-0.01872236
20	0x3d54e6c2	0.05197788
21	0x3d56eaba	0.052469946
22	0x3c85f172	0.016350482
23	0xbd89a8e7	-0.06721669
24	0x3d15c1b4	0.036561683
25	0xbd8b14a7	-0.067910485
26	0x3da89f5a	0.08233519
27	0xbc545ec2	-0.012962045
28	0xbd2ef894	-0.04271753
29	0x3d13d608	0.036092788
30	0x3d2aaa23	0.04166616
31	0xbbb82fca	-0.0056209313
32	0xbcd038c4	-0.025417693
33	0xbbfa6aae	-0.0076421117
34	0x3d37f648	0.044912606
35	0x3c3b9b2d	0.011450571
36	0x3c9d3a76	0.019192915
37	0xbd8d2938	-0.068926275
38	0xbc16639e	-0.009179024
39	0xbd72efce	-0.059310727
40	0x3af3b66d	0.0018593796
41	0x3de09ab4	0.10967007
42	0xbd2377e1	-0.039909247
43	0xbd076989	-0.03305963
44	0xbd69546b	-0.056965273
45	0xbda9914e	-0.08279668
46	0xbd698636	-0.05701276
47	0xbd283321	-0.041064385
48	0x3d1da7fb	0.038490277
49	0x3dcb679c	0.09931871
50	0xbbbd4225	-0.0057757073
51	0x3c9f4378	0.019441351
52	0xbd9b1d8f	-0.07573997
53	0xbd354c63	-0.0442623
54	0x3d2ac5b4	0.04169245
55	0xbd1b7392	-0.037952013
56	0xbcb45239	-0.022011863
57	0xbdcbba2c	-0.09947619
58	0xbd071a59	-0.03298411
59	0xbcb33344	-0.021875031
60	0xbd203ad9	-0.03911862
61	0x3cec6ef0	0.028861493
62	0xbd972e38	-0.073818624
63	0x3d309aee	0.043116502
64	0x3c427d7b	0.011870737
65	0x3de1792c	0.1100944
66	0x3d328718	0.043585867
67	0x3d74f4f2	0.05980391
68	0xbd2204b7	-0.039555278
69	0xbbb48f6f	-0.0055102627
70	0xbd164f89	-0.036696944
71	0x3da6182d	0.0811008
72	0x3d70048d	0.05859809
73	0xbad38a8e	-0.0016139315
74	0x3d4b4c3d	0.049633253
75	0x3c135088	0.008991368
76	0x3cfda8f2	0.030964348
77	0xbdee95b0	-0.116496444
78	0xbd4f5964	-0.05062236
79	0xbd5caeec	-0.053877756
80	0xbb954eb0	-0.0045564994
81	0x3d604ae8	0.054758936
82	0x3c846f24	0.016166277
83	0xbd12724e	-0.03575354
84	0x3c8cd403	0.017190939
85	0xbcf75bd9	-0.030195164
86	0x3d2039b7	0.03911754
87	0xbc4973c6	-0.012295669
88	0x3ae7df80	0.001769051
89	0x3dc3d6d7	0.09562462
90	0xbd2ed8e9	-0.04268733
91	0x3a47c95d	0.0007621253
92	0xbc6e8518	-0.014558099
93	0x3cfb8d33	0.030706977
94	0x3d236b55	0.03989728
95	0x3d916ae5	0.07100467
96	0xbd9cebd1	-0.07662166
97	0xbd91a198	-0.071109
98	0x3d5e051d	0.054204095
99	0xbb7c59e5	-0.003850573
100	0xbc72df89	-0.014823803
101	0xbb3ac832	-0.0028500673
102	0x3c81a92e	0.015827741
103	0xbcf1032a	-0.029420454
104	0xbd9ba89c	-0.07600519
105	0xbd36c3ec	-0.04462044
106	0xbd440343	-0.047854673
107	0xbbc0de9d	-0.0058859126
108	0x3d685386	0.05672028
109	0xbcb71094	-0.022346772
110	0xbd2be411	-0.041965548
111	0x3dd421b6	0.10357992
112	0xbd085db8	-0.033292502
113	0xbd71ab8c	-0.05900149
114	0xbd152be0	-0.036418796
115	0x3b9ec6f5	0.004845495
116	0x3d74bba0	0.059749246
117	0x3d0fc06b	0.035095613
118	0x3d3c2e30	0.045942485
119	0xbdb3f64f	-0.08787214
120	0xbd80c333	-0.06287231
121	0x3cf4d7f2	0.029888127
122	0x3d45b769	0.048270617
123	0x3cd38259	0.02581899
124	0x3c646cf3	0.013941991
125	0x3d3c5d35	0.045987327
126	0x3cf62c80	0.030050516
127	0x3d9eb447	0.07749229
128	0xbd514999	-0.05109558
129	0xbd08923c	-0.033342585
130	0x3d8f1993	0.069873
131	0xbb901b42	-0.0043977806
132	0x3c149486	0.009068614
133	0xbbc8f0bb	-0.006132213
134	0x3c892ba1	0.016744437
135	0x3b1c6fc5	0.002387033
136	0xbd11f543	-0.03563429
137	0x3c29ecd6	0.0103714075
138	0xbccb9ffd	-0.024856562
139	0x3cbe00a8	0.023193672
140	0x3d9c7d0b	0.076410376
141	0xbd7a2b5e	-0.061076514
142	0xbd928c71	-0.07155693
143	0x3c579664	0.0131584145
144	0xbc4e7cf0	-0.01260303
145	0xbd66c9a2	-0.056344636
146	0x3d496a5b	0.049173694
147	0x3bab8c68	0.0052352436
148	0x3d168715	0.036749918
149	0x3d91a30c	0.07111177
150	0xbdb15280	-0.08658314
151	0xbc683f64	-0.01417527
152	0xbd0a34a5	-0.033741612
153	0xbc84a130	-0.016190141
154	0xbc177a76	-0.009245506
155	0x3c8f1401	0.017465593
156	0x3d0b6950	0.03403598
157	0xbd1f9f90	-0.03897053
158	0xbb0f5367	-0.002186978
159	0xbc453b8d	-0.012038124
160	0x3d8cfb57	0.06883877
161	0x3c8e989b	0.017406752
162	0xbcb82e18	-0.022482917
163	0x3db84b41	0.089987285
164	0xbc466882	-0.012109878
165	0xbd10ea9e	-0.03538
166	0xbc6e8981	-0.014559151
167	0x3d3257c4	0.04354073
168	0xbbe3a647	-0.006947312
169	0x3d3437a4	0.043998376
170	0xbd9f6175	-0.0778226
171	0x3cd6bb4d	0.026212359
172	0x3c57787f	0.013151287
173	0xbd13fffa	-0.03613279
174	0xbcdd239e	-0.026994523
175	0xbc3269a4	-0.0108894445
176	0x3daf40a7	0.08557253
177	0x3d50c11d	0.050965417
178	0xbd6f26be	-0.058386557
179	0x3d3fe021	0.046844605
180	0x3d20782d	0.03917711
181	0xbd4fe75f	-0.050757762
182	0xbd74c7e7	-0.059760954
183	0xbd3fde37	-0.04684278
184	0x3d1f0bbf	0.03882956
185	0x3ceb027c	0.028687708
186	0x3d9a8699	0.07545204
187	0xbd871193	-0.06595149
188	0x3d81a657	0.06330555
189	0x3d8c43af	0.06848847
190	0xbd14101f	-0.036148187
191	0xbd92100a	-0.071319655
192	0x3d55b822	0.052177556
193	0x3dc6402e	0.0968021
194	0x3c6fd3f4	0.014637936
195	0x3d0cbdbf	0.034360643
196	0xbc875623	-0.016520565
197	0xbd994c5c	-0.074852675
198	0xbca6c3df	-0.02035707
199	0x3c7a1dea	0.015265921
200	0x3e07fd8a	0.13280311
201	0x3c5425e9	0.012948492
202	0x3cd4d125	0.025978634
203	0x3dd25e76	0.10271923
204	0x3d050d82	0.032483585
205	0x3d03599c	0.03206788
206	0x3cb37b42	0.02190936
207	0x3d604dd1	0.05476171
208	0x3c0e1518	0.008672021
209	0x3a8414a8	0.0010076957
210	0xbdd878c3	-0.105699085
211	0x3b0962f1	0.0020963515
212	0x3d602879	0.054726098
213	0x3d8a16d3	0.067426346
214	0x3d3fee3e	0.046858065
215	0xbd9cfb28	-0.07665092
216	0x3c91f30d	0.017816091
217	0x3b33f976	0.0027461923
218	0xbc0b619d	-0.00850716
219	0xbd2658b0	-0.040611923
220	0x3d8de72c	0.06928858
221	0xbbc345d2	-0.005959251
222	0xbac4c23b	-0.0015011498
223	0xbc846597	-0.016161723
224	0x3c175370	0.009236202
225	0x3d45934c	0.048236176
226	0x3d4220ca	0.04739455
227	0x3dd116e7	0.102094464
228	0x3c05ff90	0.008178607
229	0x3c6deca4	0.014521752
230	0xbbb4f40c	-0.0055222567
231	0x3ce3c2c2	0.027802829
232	0xbbc5041a	-0.006012452
233	0xbcf30579	-0.029665696
234	0x3c531970	0.012884483
235	0xbc361667	-0.01111374
236	0xbd0f9056	-0.03504976
237	0x3d047854	0.032341316
238	0x3cba715a	0.022759128
239	0xbcee6586	-0.029101145
240	0xbc9d87eb	-0.01922985
241	0x3cfd7644	0.030940183
242	0x3ddf2bab	0.10897001
243	0x3ca9177e	0.020641085
244	0xbd594276	-0.053041898
245	0xbd8aa017	-0.06768816
246	0x3d3e45be	0.04645323
247	0xbdb2e9fb	-0.087360345
248	0x3cd48d0d	0.025946165
249	0x3d04fee2	0.032469638
250	0xbd53f6ff	-0.051749226
251	0x3bc8c486	0.006126943
252	0xbd350434	-0.04419346
253	0x3c56b85f	0.013105481
254	0x3ced9bbf	0.02900493
255	0xbc10ea33	-0.0088449

critic.1.bias f4 [128]
0	0xba227f80	-0.00061988086
1	0x00000000	0.0
2	0x38b476a8	8.60517e-05
3	0xba3c0bc0	-0.0007173382
4	0x3aad11b1	0.0013204125
5	0x388dc3f5	6.759904e-05
6	0x00000000	0.0
7	0x00000000	0.0
8	0x00000000	0.0
9	0x387f32b5	6.0843962e-05
10	0x3888973c	6.513155e-05
11	0xb9c35b50	-0.0003726133
12	0x00000000	0.0
13	0x381b9fcc	3.7103702e-05
14	0xba9c888b	-0.0011942548
15	0x00000000	0.0
16	0x00000000	0.0
17	0x3afa59dd	0.0019100268
18	0xba99acac	-0.0011724434
19	0xb8a8c72d	-8.047964e-05
20	0xb8c6379a	-9.451732e-05
21	0x00000000	0.0
22	0x399e7783	0.00030225152
23	0x38d13750	9.976199e-05
24	0xba658cec	-0.0008756656
25	0x390a57ab	0.00013193364
26	0x00000000	0.0
27	0x38730910	5.7944155e-05
28	0x36de6c21	6.6287034e-06
29	0xba97031d	-0.0011521314
30	0x3853a92c	5.0463874e-05
31	0x00000000	0.0
32	0x387779a8	5.900269e-05
33	0xb904d0b5	-0.0001266625
34	0xb8ecd647	-0.00011293269
35	0x00000000	0.0
36	0x38953034	7.113852e-05
37	0xb89bd235	-7.43013e-05
38	0xb8c8df67	-9.578355e-05
39	0x39d79445	0.00041118465
40	0x00000000	0.0
41	0xba443411	-0.0007484565
42	0x3890129f	6.8699235e-05
43	0xb948df9c	-0.00019156787
44	0x38997db3	7.319022e-05
45	0x00000000	0.0
46	0x389004f4	6.867378e-05
47	0x38922835	6.969312e-05
48	0x3762cbe8	1.3518125e-05
49	0xb87323e4	-5.796914e-05
50	0xba931270	-0.0011220705
51	0xbacd1807	-0.001564742
52	0x00000000	0.0
53	0xb9e7eab6	-0.00044234627
54	0x3893a76e	7.0406924e-05
55	0x388ffaea	6.865508e-05
56	0xba43ec38	-0.0007473859
57	0xb8b17ed9	-8.463645e-05
58	0xba456d65	-0.00075312547
59	0x384d5c1f	4.8961603e-05
60	0x3889227d	6.539093e-05
61	0x38850f5d	6.344796e-05
62	0xb8c5bd05	-9.4289e-05
63	0xba53a5ce	-0.0008073718
64	0xb7fc7f39	-3.0099984e-05
65	0xb8a30a68	-7.774384e-05
66	0xb865a1b6	-5.474846e-05
67	0x396f5166	0.0002282314
68	0xba966210	-0.0011473317
69	0x3a05c647	0.0005103093
70	0xb8a34837	-7.785897e-05
71	0xb8d9832d	-0.000103718
72	0x3861b696	5.3814227e-05
73	0x00000000	0.0
74	0x38414b3f	4.6084864e-05
75	0xb8aa28ba	-8.1138176e-05
76	0x00000000	0.0
77	0x00000000	0.0
78	0x3708d066	8.154753e-06
79	0x00000000	0.0
80	0x00000000	0.0
81	0xba41bfe8	-0.0007390962
82	0xb97c8dda	-0.00024085437
83	0x00000000	0.0
84	0x00000000	0.0
85	0x00000000	0.0
86	0xb91a5ccf	-0.00014721158
87	0x00000000	0.0
88	0xb8a90843	-8.060087e-05
89	0xb8a95eec	-8.0762286e-05
90	0xba094456	-0.0005236318
91	0xba8348a0	-0.0010016151
92	0x388918fb	6.537322e-05
93	0x00000000	0.0
94	0x387bdb78	6.004746e-05
95	0xba17c38d	-0.0005789332
96	0x00000000	0.0
97	0xb8b3b7a3	-8.56959e-05
98	0xb8c186c9	-9.228063e-05
99	0x00000000	0.0
100	0xba6706c1	-0.0008812957
101	0xb8b2b0c7	-8.520629e-05
102	0x00000000	0.0
103	0x388ce561	6.7184454e-05
104	0x3979aa42	0.00023809916
105	0xb8e97a04	-0.00011133033
106	0x00000000	0.0
107	0x387baacf	6.000214e-05
108	0xba6afe3d	-0.0008964276
109	0x00000000	0.0
110	0x382142b9	3.844753e-05
111	0xb8bc0a2d	-8.966434e-05
112	0xb8751bb8	-5.8438367e-05
113	0xb9ea8244	-0.00044729013
114	0x00000000	0.0
115	0xb9c3514a	-0.00037253863
116	0xba8b8323	-0.001064394
117	0xb8f1b9dc	-0.000115263945
118	0xb82797f0	-3.9957406e-05
119	0xb8ddd798	-0.00010578259
120	0xb85af7f6	-5.2206182e-05
121	0x389106c2	6.9153975e-05
122	0xb8bf8faf	-9.134353e-05
123	0xb8bdbaca	-9.0470145e-05
124	0x00000000	0.0
125	0x00000000	0.0
126	0xb9925834	-0.00027913006
127	0x386985e0	5.567621e-05

critic.3.weight f4 [1, 128]
0	0x3d8dda3a	0.06926389
1	0x3d34acfc	0.044110283
2	0x3d8f5e40	0.07000399
3	0x3d87e8b8	0.066361845
4	0x3d7836f5	0.060599286
5	0xbdc97747	-0.098372035
6	0xba08836a	-0.00052075705
7	0xbd5d53a3	-0.05403484
8	0x3d869c82	0.0657282
9	0xbe156af0	-0.14591575
10	0xbd8dd0b1	-0.0692457
11	0xbe433240	-0.19062138
12	0x3e16b4d4	0.14717418
13	0x3d6c212e	0.05764883
14	0x3e122923	0.14273505
15	0xbdcce33e	-0.100042805
16	0xbe0f0c6f	-0.13969587
17	0x3d6b0a9c	0.057383165
18	0xbc8d0f62	-0.01721925
19	0x3db23ea7	0.08703356
20	0x3ce3ec58	0.027822658
21	0x3c21f061	0.009883971
22	0xbd80bc82	-0.06285955
23	0x3badf400	0.005308628
24	0x3d1a0de6	0.03761091
25	0x3d11ba7f	0.035578247
26	0x3d830bb2	0.06398715
27	0xbd1ea577	-0.03873202
28	0x3d3014d0	0.0429886
29	0x3c8b1732	0.016978834
30	0xbdf56385	-0.119818725
31	0x3ddc8e7a	0.10769363
32	0xbd253b32	-0.040339656
33	0x3c2a9071	0.010410414
34	0xbaa5ecde	-0.0012659093
35	0x3db0c8a8	0.08632022
36	0xbe5626ee	-0.20913288
37	0x3bb9cb0e	0.005669958
38	0x3cdd14cd	0.026987458
39	0xbc6b3289	-0.01435531
40	0x3d4189d4	0.047250584
41	0x3dc9dcc9	0.098565646
42	0xbe3c8111	-0.1840861
43	0x3d9bcbb0	0.0760721
44	0xbe29262a	-0.16518465
45	0xbd522b4f	-0.051310834
46	0xbde7bdb3	-0.11315479
47	0xbe103780	-0.14083672
48	0xbc1f5d0e	-0.009726776
49	0x3dee8054	0.116455704
50	0x3c8cfb5c	0.017209701
51	0x3dbade44	0.09124425
52	0xbd1719fe	-0.036890022
53	0xbd44ecdb	-0.048077445
54	0xbe83570f	-0.25652358
55	0xbdedac80	-0.116051674
56	0x3d429a62	0.047510512
57	0x3d5418a3	0.051781308
58	0x3d2acf67	0.0417017
59	0xbcc9d426	-0.024637293
60	0xbd90ad9a	-0.07064362
61	0xbd2745c9	-0.040838037
62	0xbd330247	-0.043703344
63	0x3e05890b	0.13040559
64	0x3d0c7944	0.034295335
65	0x3e1a9dc4	0.15099245
66	0x3dffbc61	0.12487102
67	0xbd428794	-0.04749258
68	0x3cba6d78	0.022757277
69	0x3cf53b6d	0.029935563
70	0x3e14a12b	0.14514606
71	0x3cbc8553	0.023012793
72	0xbcfd7b25	-0.030942509
73	0x3d91e37f	0.071234696
74	0xbcae5d9f	-0.021284876
75	0x3dad5056	0.084625885
76	0x3d9e9b76	0.077444956
77	0xbc5fef95	-0.013667961
78	0x3cc44319	0.023957776
79	0xbc0615ee	-0.008183939
80	0x3caf4415	0.021394769
81	0x3da20fda	0.0791318
82	0x3d1b1b4b	0.037867825
83	0x3e1926b0	0.14956164
84	0xbdda19c3	-0.10649445
85	0xbdb718ca	-0.08940275
86	0x3bee71a0	0.0072767287
87	0x3cd734ba	0.02627026
88	0x3dba287f	0.09089755
89	0x3da8a57a	0.08234687
90	0x3d41f0e6	0.04734888
91	0xbddd5692	-0.108075276
92	0xbd920fd7	-0.071319275
93	0xbddd7cef	-0.10814845
94	0xbd75d85c	-0.06002079
95	0xbe071439	-0.13191308
96	0x3d870446	0.06592612
97	0x3d791839	0.060814116
98	0x3ce5f7cd	0.028072262
99	0x3d96466f	0.07337653
100	0x3df5d8ad	0.12004218
101	0x3e11c085	0.14233597
102	0x3bbc2693	0.005741903
103	0xbd86cc63	-0.065819524
104	0xbd12029c	-0.03564702
105	0x3c6cf9c6	0.0144638475
106	0xbdcfa2fb	-0.10138508
107	0xbd35c06f	-0.044372972
108	0x3e1fbc84	0.15599257
109	0xbd25a9b3	-0.04044504
110	0xbd3f3ccc	-0.04668884
111	0x3dc9f491	0.098611005
112	0x3e00bacd	0.12571259
113	0xbd69509e	-0.05696165
114	0xbc79b78c	-0.015241515
115	0xbd9d1506	-0.076700255
116	0x3b928c7e	0.0044723144
117	0xbb3ab63c	-0.0028489968
118	0x3e51013a	0.20410624
119	0x3dffc35e	0.12488435
120	0xbb9e46b6	-0.0048302067
121	0xbdf79326	-0.12088613
122	0x3cf3e4f2	0.029772256
123	0x3d0c524c	0.034258172
124	0xbe5e17d2	-0.21688774
125	0x3c9ed0ae	0.019386616
126	0x3d94fa03	0.072742485
127	0xbd0cb74a	-0.034354486
