experiments/ppo_hrl/models/MicroRTSGridModeVecEnv__ppo_utils__1__1721366908/12288/produce.pt (torch, 802531 bytes, 11 tensors)

encoder.1.weight f4 [32, 30, 3, 3]
00000000: 48fb e5bd b2c4 0b3e f6bb 303e 6245 233e
00000010: 7d1a eb3d cf1f 0b3e dc07 643e 2da8 5e3e
00000020: f620 99bc 03d7 9f3d 80ae 27be 6e2c a73d
00000030: 1476 89bd 0fab 84bd 89d9 e93c 5fe4 8f3d
00000040: 2960 f33d addc 263e dd77 33bd 1417 dabd
00000050: f71f 68bd 6f84 213d f02f 8d3d 4364 abbd
00000060: 5d71 3c3c e4ea c7bd a13d 38bd cddf 83bd
00000070: 7f4a b63b 06eb aebd a1aa 993d 991b 3c3d
00000080: 243e 0d3c 85b2 3b3d 3839 ec3d 70c8 963c
00000090: 5a54 1e3d 59ab 94bd d796 81bc 8a17 e03c
000000a0: cb87 303d 36ad 813c 113d 943d 8148 033e
000000b0: b19b 30bd 6f91 31be b825 21bd 4a93 85bd
000000c0: b4fe 6abd b639 fa3d 3af6 893d 6939 0e3d
000000d0: 0506 f33a 2c9c 693d 0686 6b3d 9c3f 48bc
000000e0: 74dc f03c 0bb9 43be dc18 053d f97f 3abe
000000f0: efc2 043d fab4 afbb 12bc a53d a5bf 8dbd
00000100: 42c8 a33d f427 38bd ed4e 923b 1b9b 3e3a
00000110: a231 de3d 9fbf c8ba dcbb 03bc 4843 b83c
00000120: c93e d4bd d022 9a3d 470c 193e 4baf 78bd
00000130: 98c1 1dbe 0033 bd3b d3ad 19bd b7f9 3dbc
00000140: 316d 433d 7da4 b03c e831 903d e60f e13d
00000150: 599f 643e fe59 013e 2c8e 2bbd fd16 d13d
00000160: 211a bfbd 8948 903d 53e4 363d 4898 653d
00000170: c97d 08bd 93ad 20ba cf67 953b 7a25 51bd
00000180: cff3 a83c fce8 a83d cded 2abd 7c4b a7bd
00000190: 4fa9 393c 56f1 783c c085 76bd 11ae fdbd
000001a0: ad56 203e 9de3 2e3e c4d7 e0bc cb2d a63d
000001b0: a771 18bd c2d0 413d 8bd8 0e3c 1e68 8d3d
000001c0: d792 77bc 9655 92bc c8da 213d bdf0 573c
000001d0: 83d8 883d 0899 b5bd 34ba 053d 9223 f23d
000001e0: 96bd 253d 842a 87bd cd91 6c3d 0bb1 4cbd
000001f0: 6566 c2bc 2b61 a13d 0418 033c ac6a 3e3e
00000200: dfbc 5e3d 9dd5 e63c ca4c 8e3d 29c1 61bc
00000210: 2976 a839 7c07 703d 2590 78bd b4e8 fe3d
00000220: aa03 3ebd bb98 8d3d 0e9d e33d f92d 78bd
00000230: f8d7 14be c73d ffbc 3fdb 5ebe 185a 79bd
00000240: d7f4 99bc a8ac e4bd d46e 7cbc 5f01 6cbc
00000250: fd4f b5bd 8df1 ecbc d949 c9bc f6e0 02bc
00000260: b151 f33d 7b92 3f3e f7af 63bd 3484 55bd
00000270: abb6 17bd 6a75 183d 3b84 01bd 4813 37be
00000280: 482a b13c 2001 83bc aaf7 86bd 5870 bcbd
00000290: 7745 f5bd 2281 e23c 3dcb 8039 a905 b0bc
000002a0: cde2 dd3c 84e9 283d 3497 873d 937e e03c
000002b0: 419b f33d 3058 34bd 512d 3d3c f606 883d
000002c0: b9aa fa3d bdaf 1a3e c69b 1bbd d2d4 76bd
000002d0: 0ee2 993d 856e df3d 7144 58ba 4e03 adbc
000002e0: 8017 d1bd 8e9e dd3d 0e13 d2bd 9cd8 80bd
000002f0: dff9 cabd 1143 a0bc 7865 1cbe 0490 53bd
00000300: 8b19 dbbd fbd0 d63d 7966 3b3d 9d51 56be
00000310: b214 afbd 0909 133d 243a 393d 69bf de3d
00000320: b40f 9ebd 726b 3fbd 505f 8bbd d43d 0a3c
00000330: f836 1a3e 372a fabc b7d4 e0bd 0c93 363d
00000340: 0f3a c1bd 0ba9 33be af3b 0ebe febc 323e
00000350: 25b0 8cbd c8a3 f5bb e021 2abc 2819 c3bd
00000360: 8b0e 783d 33f7 fcbb d58b 82bd 26ea 65bd
00000370: 7813 983d 4fb1 bbbc b096 293e 5bf1 abbc
00000380: d770 ab3d c064 2d3c a39a a1bb 19f0 61bd
00000390: 0862 693d 3734 b2bd feae f43b fb37 103d
000003a0: 96da 9e3c b63a 1cbd 86c4 63bb 0a6b 1abd
000003b0: 75c4 1cbe 7553 b1bd 0541 bdbd 1eaf 12bd
000003c0: d2f3 9bbc cb49 1a3e 81f9 2cbe 5ff5 a53d
000003d0: 6bbb 563c 5033 363d 1085 463e 59f4 943c
000003e0: 20da 01bd 2b3c a73d 57d4 393d 8017 fd3d
000003f0: 8bcf 3cbd 5792 a7bb 3ff5 573c 093d f9bd
-0.11229569 0.13649252 0.17259201 0.15944436 0.114796616 0.13586353 0.22268623 0.21743841
-0.018692475 0.07804682 -0.1637516 0.08162771 -0.06711975 -0.06477939 0.028546112 0.0702598
0.118835755 0.16295119 -0.043815482 -0.10648933 -0.05667111 0.03943294 0.06893909 -0.08368733
0.011501637 -0.09761599 -0.04498065 -0.06439171 0.00556308 -0.08540921 0.07503248 0.045924757
0.0086207725 0.045824546 0.11534351 0.018406123 0.038654663 -0.072592445 -0.015818996 0.027354974
0.043098252 0.015829664 0.0723821 0.12820627 -0.04311723 -0.17340635 -0.039342612 -0.06522234
-0.05737181 0.12218039 0.06736417 0.03472272 0.0018541223 0.057033703 0.05750086 -0.012222197
0.029401995 -0.19113557 0.03249441 -0.1821288 0.032412466 -0.0053621503 0.08092512 -0.06921319
0.079971805 -0.044959977 0.004464975 0.00072710373 0.108493105 -0.0015315897 -0.008040395 0.02249302
-0.10363538 0.07526171 0.1494609 -0.060714047 -0.15405881 0.005773902 -0.037519287 -0.011595181
0.047711555 0.02156281 0.07040769 0.109893605 0.22326411 0.12631986 -0.041883633 0.10209463
-0.093311556 0.07045085 0.04465134 0.05605343 -0.033323083 -0.000612938 0.004559494 -0.05106113
0.02062407 0.08247563 -0.04173069 -0.081686944 0.01133187 0.015194258 -0.060186148 -0.12386716
0.15658064 0.17079015 -0.027446635 0.08114203 -0.037217762 0.047318228 0.00871862 0.069046244
-0.015110693 -0.017863076 0.039515287 0.013179955 0.06681921 -0.08867079 0.03264828 0.11823191
0.040464006 -0.06599906 0.057756234 -0.04997353 -0.023730466 0.078798614 0.008001331 0.1859538
0.05437934 0.02817803 0.0694824 -0.013778963 0.00032131493 0.058600888 -0.060684342 0.12446728
-0.046390213 0.06913897 0.1111394 -0.060590718 -0.1453551 -0.031157387 -0.21763323 -0.060876936
-0.018793507 -0.11165744 -0.015407283 -0.014404624 -0.08853147 -0.028923774 -0.024571346 -0.007988205
0.11880816 0.18708222 -0.055587735 -0.05212803 -0.03703944 0.03722135 -0.031620245 -0.17878449
0.021626607 -0.015991747 -0.06590207 -0.09201115 -0.1197614 0.027649466 0.00024565487 -0.021487074
0.027085686 0.041238323 0.066206366 0.027404105 0.11894847 -0.044029415 0.011546449 0.06641953
0.12239594 0.15106101 -0.037990354 -0.060261555 0.0751382 0.10909752 -0.00082499447 -0.02111974
-0.102095604 0.108212575 -0.10257541 -0.06291315 -0.099109404 -0.01956323 -0.15273082 -0.051651016
-0.10698231 0.104890786 0.045752022 -0.2092957 -0.08548869 0.03589729 0.045221463 0.10876352
-0.07717839 -0.046733327 -0.06805289 0.008437593 0.15060031 -0.030537708 -0.10978072 0.04457383
-0.09434902 -0.17544954 -0.13889955 0.17454907 -0.068695344 -0.007496331 -0.010384053 -0.095262825
0.060560744 -0.007719898 -0.06374327 -0.056131504 0.07425588 -0.022911696 0.16561389 -0.02098911
0.08371132 0.010583103 -0.004931764 -0.055160616 0.056978256 -0.087013654 0.0074671498 0.035209637
0.01939134 -0.03814193 -0.0034754588 -0.037699737 -0.15309317 -0.08658496 -0.09240917 -0.035811536
-0.019037161 0.15067212 -0.16892053 0.081034414 0.013106207 0.04448253 0.19386697 0.01818292
-0.03170216 0.08165773 0.04536852 0.12357998 -0.046096366 -0.0051138806 0.01318103 -0.12169845

encoder.1.bias f4 [32]
00000000: eaa9 b5b9 b861 8b3a b3c1 83ba eb0f efba
00000010: 9160 8eba 6ac1 113a 9586 7fba 7f39 6dbb
00000020: a33b 21b9 ca18 4c38 2aad 293b 8b05 493b
00000030: 8bd9 68b9 0221 043b 027e f3ba 2581 76ba
00000040: 41fc ddb9 22c6 89b8 175f 58bb 942a 1bbb
00000050: d939 2abb 074e baba cf17 8dba 2449 193b
00000060: 8f4f 7eba 7d2a 99ba afc3 fe39 3172 a13a
00000070: 1220 883a 4568 8db9 443a bfba 70f7 d4b9
-0.00034649606 0.0010633981 -0.0010052234 -0.0018238997 -0.0010862519 0.0005560132 -0.00097475323 -0.00361976
-0.00015376373 4.8660477e-05 0.0025890567 0.003067347 -0.00022206285 0.0020161276 -0.0018576982 -0.00094033993
-0.0004234035 -6.569574e-05 -0.0033015662 -0.0023676502 -0.0025974421 -0.0014213928 -0.0010764542 0.0023389542
-0.0009701186 -0.0011685636 0.0004859245 0.0012317357 0.0010385534 -0.00026971303 -0.0014589508 -0.00040620146

encoder.4.weight f4 [64, 32, 3, 3]
00000000: f3ac 153d 4e2d 4d3d ae74 473d deb6 e1bd
00000010: 324a 083c fdc7 ee3c 134d fd3d e7da 8dbd
00000020: b90d 7dbd 934d 80bd 6bc4 c1bc 2265 3bbc
00000030: a518 1d3d 9258 a63d 62a3 ec3d 7780 083b
00000040: 8a88 e3bc 8fbc 30bb b016 c53d 973c 823d
00000050: 01d7 98bd 25fb e6bc 87d2 b0bc 2c24 08bd
00000060: 0cac d83c 78f7 6d3d 3a90 0bbe 4f90 603d
00000070: 4b64 713d 7b22 dc3d 85bf 2ebd 3bd5 173c
00000080: 5ebf 243e 564b 30bd a219 d5bc 2cfe 3dbd
00000090: 831b b73d 7999 803d bbb2 063e c98e a03c
000000a0: 408c 063c acad 1bbd 54a5 453d 13bd c83d
000000b0: de9a 4cb9 8130 8bbd e05c 8d3d 1435 cf3d
000000c0: 0292 da3d 18b5 d0bd 8552 82bc 6595 52bd
000000d0: ff45 a23d e4c9 35bc f330 43be c534 8ebd
000000e0: 3195 ff3b cd46 b73d 2052 8ebc e51d 6bbe
000000f0: ae72 453e 822a ea3d 50cf f4bd 7783 5a3c
00000100: 9627 3cbd 1c80 5fbd 8b82 9c3b 5082 c73b
00000110: 51c4 32bc 5e34 583c 5b4e 083e acf3 063e
00000120: ec07 6fbd 34b0 013d 13f7 d7bd 8a5b 83bd
00000130: 50b1 c33d aa86 87ba 06ce 78bd 1575 e93d
00000140: 9510 acbc b185 163c c081 0d3d ac20 9c3d
00000150: d09d 7f3c cec3 fa3d 75b8 463d ca0f c43c
00000160: c721 c3bd d7c6 9e3d 7d96 5a3c 6ee5 e83c
00000170: a4ea 923d f129 8c3d d636 08be c078 8f3d
00000180: 699d b13d 1eec fdbc b472 e03a 7995 803d
00000190: a64a 97bd a3cb 97bd 858d 0f3e fc9f 683c
000001a0: 9a4a 493d 9cff 6b3d fb03 7abd 369b 5bbd
000001b0: bebe 1a3e 63e6 fcbd 0678 50be 6e9f a53c
000001c0: 8cbf 90bd 2daf 1bbe bc1a 9b3d 493f bc3d
000001d0: ada3 08be 7b25 7b3d 772d 02bd fa9a 66bd
000001e0: 5153 6ebd fe70 9d3d 574f 393c 6082 443d
000001f0: ca31 ab3d d593 f13d e003 073d b161 52bd
00000200: 5085 2ebd 08c0 a23c 903d 1fbc c975 2bbd
00000210: e3fd df3c 1368 723d 414f 07be 5c0c af3d
00000220: 5941 72bd 2636 813d 8351 7ebd a967 cfbd
00000230: 4580 c1bc 77ca 4cbc 7971 f0bd 04fb 4c3d
00000240: 8bee 98bc 937f b33d 5799 e23a de51 983d
00000250: 5605 d0bd 5937 9d3d 3f53 eebd 48b4 623d
00000260: 61ad 263d 18f6 9dbc 9a4e 3bbd 2d0a a3bd
00000270: deae 6abb bbde 563d c95c bfbd 648a 913d
00000280: 052f f2bd 37c3 e7bd 060c 693d 4b64 0f3e
00000290: 35c1 b13d a337 823d fe69 34bc d4f5 603c
000002a0: 78d6 813c 8e0e 8cbc ac0a 2fbd 4b97 513d
000002b0: e975 303c 8cc1 2f3c 6988 523d dfe3 b4bc
000002c0: 8f83 fdbd ff1e 0dbc f7f6 9e3d 7ccd 11be
000002d0: a83d 5a3c 11f0 fabd b2e3 8cbc 82a5 bb3d
000002e0: 4003 01bd 1f06 22be 0f8f 0d3e 3e19 f73d
000002f0: 730f 113d ff4f 843d 1e19 c4bd 200f 7a3d
00000300: 640b e4bd f0f8 a13c c67f 53bd e2b0 d9bc
00000310: 0b3b 5bbd a9a6 6e3c 51d8 0ebe 2c2b a23d
00000320: 3564 533c 17dd 323e 60be b6bd 0f30 023c
00000330: 5e11 dabd 2791 a5bd b0f3 f0bc 048f b0bd
00000340: c01d c03c 923e 9b3d bc09 523e a362 fdbc
00000350: df07 79bd e818 dd3d 0c58 19be cfcf 713c
00000360: 1891 81bd b93c 87bd edf5 f9bd 3ec3 373b
00000370: 155d f3bd 15ef 9a3c d93f a1bd 826e 88bc
00000380: 6040 bebd 076b 413d 30b9 a2bd 99b0 abbc
00000390: ef6f 97bc 939b b83c a55c d0bd 206b a4bd
000003a0: 3da6 03bc 1498 34bc 3bd5 3a3e ca0b 22bc
000003b0: 8283 0c3e 4389 b23d 6e7b 953c 83ca 36be
000003c0: a041 14be c1ae 34be 32c8 483d 9aca b7bd
000003d0: 963f 513e 9c75 1abe b8cb 1d3d 0ac5 2bbd
000003e0: 9735 95bd ef8e 823d 8603 1e3d 9a3c a7bd
000003f0: eb27 a43b 859e debd 65ba fd3d 47e5 6bbd
0.03654189 0.050092034 0.04869526 -0.11021207 0.008318471 0.029148096 0.12368216 -0.06926518
-0.061780665 -0.06264796 -0.02365323 -0.011437686 0.03835358 0.08122362 0.115546 0.0020828524
-0.027775068 -0.0026967858 0.09623468 0.06359213 -0.07462884 -0.028195927 -0.021584762 -0.03323762
0.026449226 0.058097333 -0.13629237 0.054825123 0.058933537 0.10748764 -0.042663116 0.009267147
0.16088626 -0.043040596 -0.0260132 -0.046384975 0.08940794 0.062792726 0.13154118 0.019599335
0.008212149 -0.038007423 0.048253372 0.09801688 -0.00019512649 -0.06796361 0.0690248 0.10117546
0.1067238 -0.10190791 -0.015908489 -0.051412005 0.07923507 -0.011095498 -0.19061641 -0.06943659
0.0077997674 0.08949051 -0.017373145 -0.22960623 0.19282028 0.11433889 -0.11953604 0.013337008
-0.04593619 -0.054565534 0.004776304 0.0060885325 -0.010911063 0.013196079 0.1331114 0.13178891
-0.058357164 0.03166218 -0.105451725 -0.06413944 0.09555304 -0.0010339816 -0.060743354 0.11399285
-0.021004 0.009187148 0.034547567 0.07623419 0.01560159 0.12244378 0.048515756 0.02393331
-0.09527927 0.077527694 0.013341543 0.028429713 0.071736604 0.06843937 -0.13302168 0.07005453
0.08672602 -0.030996379 0.0017124028 0.0627851 -0.07387285 -0.074118875 0.14018829 0.0141982995
0.04914341 0.057616815 -0.061038952 -0.053614818 0.15111825 -0.1234863 -0.20358285 0.020217624
-0.07067785 -0.15203543 0.075734586 0.09191758 -0.13343687 0.06131504 -0.03178164 -0.05630014
-0.058184925 0.07687567 0.01131042 0.047975898 0.08359106 0.11795775 0.03296268 -0.051362697
-0.042607605 0.019866958 -0.0097192675 -0.041860376 0.027342742 0.059181284 -0.13213827 0.08547279
-0.05914435 0.06309156 -0.062089454 -0.101271935 -0.023620734 -0.012499443 -0.11740393 0.050044075
-0.018668434 0.08764567 0.001728813 0.0743749 -0.10157268 0.07676572 -0.11636972 0.05534771
0.04069269 -0.019282386 -0.045729257 -0.07960925 -0.0035809795 0.052458506 -0.09343869 0.07106474
-0.118253745 -0.11316531 0.056896232 0.14003102 0.086794294 0.06358268 -0.011011599 0.013730485
0.015849337 -0.017096784 -0.042734787 0.051169675 0.0107702995 0.0107272975 0.051399622 -0.022081314
-0.123786084 -0.008613347 0.077619486 -0.14238542 0.013320364 -0.1225282 -0.017198417 0.091624275
-0.03149724 -0.15822648 0.13824104 0.120653614 0.035415124 0.064605705 -0.09575103 0.06104958
-0.11134985 0.019772023 -0.051635526 -0.026573602 -0.053523105 0.014566102 -0.13949706 0.07918391
0.012902309 0.17467152 -0.0892303 0.007946028 -0.10647844 -0.08084326 -0.029413074 -0.08621028
0.023451686 0.07580294 0.20511526 -0.030930823 -0.060798522 0.10795766 -0.14974993 0.014759018
-0.063265026 -0.06603379 -0.1220511 0.0028039957 -0.11882988 0.018912831 -0.07873506 -0.016654257
-0.09289622 0.04722121 -0.07945478 -0.020958232 -0.018485991 0.022535121 -0.101739205 -0.08028245
-0.00803524 -0.011022586 0.18245403 -0.009890506 0.13722041 0.08717587 0.018247332 -0.1785069
-0.14478159 -0.17644788 0.049019046 -0.0897419 0.20434412 -0.15083927 0.03852436 -0.041935958
-0.07285612 0.06374919 0.03857758 -0.08165856 0.0050096414 -0.10870079 0.123890676 -0.057591703

encoder.4.bias f4 [64]
00000000: e96a 75b8 249e 243a 58ff a4b9 b696 5039
00000010: fb9f d6b9 aa37 0c39 b863 4bba d3f8 a93a
00000020: 2af5 d3b8 a4a5 60b8 6cc0 39ba 362f 09ba
00000030: 0abe a0ba 9a18 e7b8 b266 baba a2cf 8839
00000040: 5144 0a3a 2386 353b ac07 90b9 047c 03ba
00000050: 9caf 753a b485 9bba 5c61 6fb9 3656 1b3a
00000060: a304 34bb a82d 80b9 fd5a 8aba d6dd a53a
00000070: a2b5 b937 9523 35bb 4659 4cb8 69e6 40ba
00000080: 689f 9ab9 0da1 8aba 40dd eeb5 cb00 29b9
00000090: f1ae 583b 4aa4 20ba 96b9 88ba 19a2 713b
000000a0: c3c3 f9ba 3f57 24b9 415f f53a d354 e6b9
000000b0: 861b b239 a745 13b9 938f 103b d039 65b9
000000c0: f833 8d39 f9f8 daba de27 23b9 9e51 33ba
000000d0: 8b2a 143b c5df 76b8 c518 05ba ca33 9339
000000e0: 7730 27ba 8034 76ba 2de9 a4ba c2d4 223a
000000f0: 4e42 84ba 3612 4139 a0da 32b9 7f03 98ba
-5.851212e-05 0.00062796683 -0.00031470763 0.0001989257 -0.00040936455 0.00013372177 -0.00077586947 0.0012967832
-0.000101069294 -5.3560027e-05 -0.0007085863 -0.000523317 -0.0012263667 -0.00011019521 -0.0014221279 0.0002609464
0.0005274462 0.002769836 -0.00027471536 -0.0005015733 0.0009372176 -0.0011865408 -0.00022829085 0.0005925627
-0.0027468584 -0.0002444808 -0.0010555681 0.0012654613 2.2138298e-05 -0.0027639617 -4.8720533e-05 -0.00073585525
-0.00029491936 -0.0010576561 -1.7796774e-06 -0.00016117391 0.0033063258 -0.00061279966 -0.0010431285 0.00368703
-0.0019055534 -0.0001567276 0.0018720404 -0.00043932218 0.00033971312 -0.0001404496 0.0022058233 -0.00021860679
0.00026932335 -0.001670628 -0.00015559743 -0.000684047 0.0022608365 -5.8859372e-05 -0.00050772383 0.0002807661
-0.0006377766 -0.00093919784 -0.0012581699 0.0006211513 -0.0010090561 0.00018412698 -0.00017056847 -0.0011597722

actor.0.weight f4 [64, 32, 3, 3]
00000000: ea80 9ebc e2e5 753c 00f5 d2bd 6e43 bebd
00000010: c531 373d c015 893c 8cba b23c ec46 e2bd
00000020: 814f 78bd 64ab 8a3d eda9 5a3d 18d4 77bd
00000030: 1535 303c f612 023d 184f 31be dc10 ad3d
00000040: 64e1 8b3d 987b 8a3e 7c2d a2bc 217e 28bd
00000050: b4c3 e6bd b9d9 b5bd 833f 803b abee 723b
00000060: bb65 b8bd 8ead a13d 314f 343e cd03 e2bd
00000070: 38bc f4bd b12f 7bbd f2d7 b1bd 0f37 e3bd
00000080: d81f babd 82b3 1f3e 5359 debd 3eb9 6b3d
00000090: 60a7 a33c 5222 8e3d 195f a13d 22c4 32bd
000000a0: 18cb bdbd 0f7e 86bb c0b1 a33d 1aad 8ebd
000000b0: e2d5 283d 2fca f9bd df27 1cbe 3901 f7ba
000000c0: b775 40bc 137e a83a ddf2 483d 72e8 9c3b
000000d0: 953d 71bd 9487 8c3d 16ef bf3b 25e8 ec3d
000000e0: c184 21be 24e7 683d 72ea a8bb 7b6c 143d
000000f0: 8e94 2c3a d1f5 9d3c 12a8 b2bd c22b 05bd
00000100: 8be2 243d 21a1 a83c d2eb f4ba 540c 9c3d
00000110: 5364 b73d 0bdb 123d 9414 71bd b924 9fbd
00000120: 96ab 8fbd 3c0b 813d 977d a53d 5340 16be
00000130: 2f0e babc 8c5c 92bd b3d2 2cbd 2c24 ac3d
00000140: 50a8 b43b 278b a83d 8442 98bd fa57 b63d
00000150: 8a15 043d 434f 963c 939f 193d 63f7 943b
00000160: 14da 1bbc 340d 8d3d 13cd cfbc 872b 483d
00000170: 54d5 b23d 3278 11be e43b d7bc 19d9 20bd
00000180: ceaa 24bd 7278 423d 8be4 d6bb ee39 a33d
00000190: eeff 5ebd e0f8 32bd fd3b 5bb9 bcd2 d03c
000001a0: 8393 333d 711b 8bbd 2c60 cabd d6df d73d
000001b0: cdd4 b3ba f254 903c 54b6 ed3d 50f5 fabb
000001c0: 17a8 353e 7232 02be e3ec 30be ed5c 82ba
000001d0: 7349 14be be4d 783d b2ab 113e 6188 a13c
000001e0: 9bb1 cabc f736 b63d 5189 653c 0618 d8bc
000001f0: ccbc 76bd dfe6 183c ef0c c43d 014b 833c
00000200: cb5c 91bc 85a5 513e 08c8 4b3d 71d6 b83d
00000210: 4ffb b83c 577b 3f3e 297f de3d 4baf 2f3d
00000220: 0c11 1ebc 5001 01bc 4139 1cbc c3c0 a0bd
00000230: 425f db3d 58a1 87bd e0e5 a43d 6e5d f23d
00000240: 30ca 0fbd 0c39 07bd 087c 9e3c 27cf 07be
00000250: 8185 723d a94a 04bc b508 243e bc98 0cbd
00000260: bbab c43d bfb1 c2bd 20f2 05bd 2fea 193d
00000270: aec4 9a3d dc7e 5fbb 573e 05bd 3a37 883d
00000280: 83ca e7bd 8ece d03d 4e91 b9bd 657f cd3c
00000290: 8d29 f9bc 7bfb 033c 53b7 cbbc e5fb 173e
000002a0: aae0 6c3c ab3f 5cbc 70f8 723d d04c 483e
000002b0: 236e 523d 5088 753c 73e3 46be 3589 8b3d
000002c0: 1005 80bc cbc1 0e3e 38d4 af3d f84e b63d
000002d0: 050a 20bd a056 29bd 2fc9 19bd f749 32bc
000002e0: f394 113e 2052 b33d bf82 923d f8da a53d
000002f0: a1ea 2abe ab41 c93d f6b9 0cbd 0b86 46bd
00000300: f442 24be 4fdc 5e3b c4fb 273e 076e 83bc
00000310: 4ab0 4c3d 1ec1 5fbd be74 0c3d 862d a63b
00000320: 0e40 563d 75e0 593d 6ece 8abd f0f1 933d
00000330: 2404 a73d 8b20 cc3d 669b f6bc f647 0b3c
00000340: 84c0 41bd ff6e 8ebd e29b adbd 7a5c 21bd
00000350: aa62 e6b8 4be5 0d3e a78a 463e 33ba 583d
00000360: 97ab 4dbd 1804 043d 9d0f cf3b 666b ab3d
00000370: d0b6 24be 8b02 213b c29f d1bd ed6a 393d
00000380: 38e6 873d 764d babc 86b7 523d fa61 7cbd
00000390: 5765 d7bd 32fc 413e 1fbd 133d f234 303e
000003a0: 4854 a33c e163 c83c 196d 9b3d af04 c8bd
000003b0: 17af 563e 96e3 51be f334 59bc 0844 c83c
000003c0: c6e1 adbd fb84 973c 9c11 aebd 31cb 5d3d
000003d0: c34e 0b3e 3f48 75bd 31da 213d 6f3b 893d
000003e0: e9c7 cabd 873a 01be 14e6 87bd b66b efbd
000003f0: 4858 6f3d 058b 903c 8847 e23d aad4 88ba
-0.01934858 0.015008422 -0.10300636 -0.09290205 0.0447252 0.016734004 0.021817468 -0.110486835
-0.060622696 0.067709714 0.05338471 -0.060505003 0.010754843 0.031756364 -0.17315328 0.08450481
0.06830099 0.2704742 -0.01979708 -0.04113591 -0.11267796 -0.08879418 0.003913821 0.0037068527
-0.090037785 0.07894431 0.17608334 -0.11035881 -0.119499624 -0.06132478 -0.086837664 -0.11094486
-0.09088105 0.1559582 -0.10856881 0.057549708 0.019977272 0.0694014 0.078794666 -0.043644078
-0.09267253 -0.004104383 0.079928875 -0.0696661 0.0412196 -0.121967666 -0.15249585 -0.0018844969
-0.011746815 0.0012854956 0.049059737 0.004788452 -0.05889662 0.06861797 0.0058573587 0.115677156
-0.15773298 0.056861058 -0.005154901 0.036236268 0.00065834157 0.019282253 -0.08723463 -0.032512434
0.04025511 0.020584645 -0.0018686003 0.07619539 0.08954682 0.035853427 -0.058857515 -0.07770676
-0.07015149 0.06300971 0.08080595 -0.14672975 -0.022711841 -0.07146558 -0.042193126 0.08405337
0.0055132285 0.08229666 -0.07434562 0.08903499 0.032247104 0.018348342 0.037505697 0.0045460924
-0.009512443 0.06887284 -0.025366342 0.048869636 0.08732095 -0.14206007 -0.026273675 -0.03926954
-0.040201955 0.047478147 -0.006558006 0.079700336 -0.054443292 -0.043694377 -0.00020907815 0.025491111
0.04384185 -0.067923434 -0.098816246 0.1054074 -0.0013720036 0.01761863 0.11607042 -0.007658638
0.17739902 -0.12714556 -0.17277865 -0.0009945907 -0.14481144 0.060621016 0.14225653 0.01971835
-0.024742892 0.088972025 0.01400979 -0.026378643 -0.060238644 0.009332388 0.095727794 0.016026976
-0.017744442 0.20473297 0.04975131 0.090252765 0.02258077 0.18699394 0.108640976 0.04289178
-0.009647619 -0.007873848 -0.009535135 -0.078492664 0.10711528 -0.06622571 0.08051658 0.118342265
-0.03510493 -0.03301339 0.019346252 -0.13262616 0.05920935 -0.008074441 0.16018946 -0.034325346
0.096030675 -0.095065586 -0.03270161 0.03757685 0.07557045 -0.0034102714 -0.032530155 0.06651159
-0.11317923 0.10195647 -0.09060918 0.02508516 -0.03041532 0.008055563 -0.02486769 0.14842184
0.014457861 -0.013442914 0.05931896 0.19560552 0.051374566 0.014986113 -0.19422702 0.068132795
-0.015627414 0.13941114 0.085853994 0.08901781 -0.039072055 -0.041342378 -0.03754538 -0.010881892
0.14216976 0.087558985 0.07153844 0.080984056 -0.16691066 0.09826978 -0.034357034 -0.048467677
-0.16041166 0.0034005826 0.16404635 -0.016043676 0.04997281 -0.05462753 0.03429102 0.005071345
0.05230718 0.053192575 -0.067776546 0.0722388 0.08155087 0.099671446 -0.030103397 0.008501044
-0.047302738 -0.069547646 -0.08476998 -0.039394833 -0.00010985632 0.13857 0.19388829 0.05291195
-0.05021247 0.032230467 0.006319 0.08370094 -0.16085362 0.0024568166 -0.102355495 0.045267988
0.066357076 -0.022742014 0.051444553 -0.061616875 -0.10517376 0.18943861 0.03606903 0.17207697
0.01993765 0.024461688 0.07589168 -0.09766518 0.20965229 -0.20496973 -0.013257253 0.024446502
-0.084903285 0.018496027 -0.084994525 0.054148857 0.13604264 -0.059883352 0.039514724 0.06700789
-0.09901411 -0.12619983 -0.06635681 -0.11690466 0.0584338 0.017644415 0.110488 -0.0010439355

actor.0.bias f4 [32]
00000000: f9a0 9d3a 516a 803b 015e 163b 657d 7ab8
00000010: 8f50 843a 1cd3 d6ba 7ec2 9a3a a15b e63a
00000020: 167f 15bb 7fa3 cdba d5c3 e1ba 3c65 8ebb
00000030: 22fd 203b 849f 62b8 b7c4 15bb 2bb3 30bb
00000040: 738d 14bb ccec 51bb 3414 9ab9 12d4 a9ba
00000050: df81 5c39 88ac 1e3b f4ad 34bb b22c 903a
00000060: 1beb fcb9 b984 403a 9099 33b9 3e4b 933a
00000070: a22d 81ba 2c4a 9b3a b190 86b9 402f 01ba
0.0012026123 0.003918924 0.0022944214 -5.9721428e-05 0.0010094809 -0.001638982 0.0011807231 0.0017574915
-0.0022811345 -0.0015688984 -0.00172245 -0.004345564 0.0024564941 -5.403116e-05 -0.0022852847 -0.0026962261
-0.0022667318 -0.003203201 -0.0002938822 -0.0012956879 0.00021029216 0.0024211723 -0.0027569504 0.0010999648
-0.00048240353 0.0007343996 -0.00017127977 0.0011237634 -0.0009855519 0.0011847666 -0.00025666275 -0.0004928

actor.2.weight f4 [32, 78, 3, 3]
00000000: 9e4d f33b c05c ebbc 8f2a c23b f119 62bc
00000010: 3182 78bb 7770 dd3d fb31 243d 7d28 823d
00000020: bbda bdba d084 f23b 727b 47bd 178c 36bd
00000030: b0f6 313d 2043 67bd 48c3 98bb 5b90 0d3d
00000040: 84ab 1e3c 3966 173d e12f 88bd 64b4 7dbd
00000050: e068 453d ce87 d4bc 058e ca3d 71c7 303c
00000060: e5a9 d43c 149b 8b3d ec49 143d 317c 22bc
00000070: f726 8a39 10cd 4dbd 8749 5fbd 5a6d 37bc
00000080: 4d5b 853d 7c53 1e3c 849a bc3d c7f6 6abd
00000090: 69ca 31bd eccd dabd 493e 473d 79e6 aabd
000000a0: 5c14 1bbd 3e69 d63b 1729 4fbd 030a a9bd
000000b0: c8cf 0bbd b639 80bc 7eac d4bc 8279 883d
000000c0: d3c3 d0bd b0b9 82bd ffd5 063c 10f3 f5bb
000000d0: 823f 573d 7f9d 193d dd32 b0bc 1b7c 883d
000000e0: e82a a6bd c2dd a33d 2c1f 343d 198d 56bc
000000f0: 7b6a 86bc 5812 f8bc d407 c73d 3862 9a3b
00000100: c98c 653d 8a85 97bd 5ea5 903c 0d3b c63c
00000110: 0451 4d3d fb96 18bc b6d0 013d dc27 03bb
00000120: 8fcc 3abd 1691 84bc bfc8 06be 567a 9fb9
00000130: 8e9b 89bd 80f3 debc 1991 a5ba 685b 0c3d
00000140: 51a5 dabc 3a92 803c 0842 a43d c01b 4d3d
00000150: 2b02 213d ac43 033c e9fe a23d 9f3a 123d
00000160: a1b0 a13c 91dc 463c dbf6 673d 42a1 8c3d
00000170: 32cb 75bd ec86 113d 55d3 c1bd 1306 a9bd
00000180: e8d8 2b3d 1956 1c3d a3d3 52bb b0cb 91bd
00000190: aa8b 063d bc0f bbbc 81c7 a8bc 613d deba
000001a0: 2b7f b73d f190 a33d bedf 5c3d 2451 953b
000001b0: 521a b1bc 8239 8c3c 731e babd 12a7 2dbd
000001c0: a7a6 dfbd 5095 24bb bd63 873d 60d3 1ebd
000001d0: 8446 00bd bbcf 303c b51a 8abd f9a5 5fbc
000001e0: 243e 0dbc 1055 8dbc 5dfe 82ba 73ff 39bd
000001f0: 238d 3fbd e30d 9c3c 1c1f 8cbc 27cd 7d3d
00000200: b956 1d3d d16c 3a3d fd54 2fbd f6c1 b03c
00000210: c17d 0fbc c562 ae3d 71b9 b1bd 357a 37bd
00000220: 6296 82bd 263e 093d d448 91bd c369 60bc
00000230: f825 89bd 2c7a 92bd aeb6 6ebb aae9 cbbc
00000240: ecee f73c 0031 e538 5f2d 533d 9655 8dbd
00000250: 88dc 343d 4f67 5f3d 4d5e 75bc 87a4 573c
00000260: dd73 e93c a85a c8bc 6aa1 bb3c 3936 2e3d
00000270: ec98 d63d acfb 923c d13d 953d 1a40 45bd
00000280: c71b 37bd a5ee 773d 42c3 9c3c 73c4 173d
00000290: d522 1abd cc78 34bd 17fd b5bd aae5 5e3c
000002a0: 5491 f03c 9994 20bd 3d09 ab3c e359 833d
000002b0: 4575 96bc b0f9 683c 029a 2b3d fd49 f53c
000002c0: e7fc 26bd c5ad 253d ae2e 98bd 1c5b 96bd
000002d0: 4ae6 e83c 3688 013d 1621 2d3d 8e5e d2bc
000002e0: a3b1 e13c 8054 613d 2d98 39bd a02b dcbc
000002f0: 6209 843c 9ed9 d0bc bc26 eb3d 1b4a 73bd
00000300: 5532 c23c 8a87 d23d c76a afbd 7c8d 2abd
00000310: 7428 bebc af51 7c3d e239 94bd 4774 f83c
00000320: 3849 99bd 16fa 39bc a352 af3d 9989 ba3a
00000330: e83b 213c f96b 15bd 4a8e a5bc e88b 6d3c
00000340: 3775 ba3d a978 713c 1114 14bd 890a 8bbd
00000350: 95b3 073c aea5 d23c d486 33bd caa8 9abb
00000360: 41e0 95bd 2d68 223b 80ba fc3c b935 703d
00000370: d471 3abd 4552 94bd 2cca b33d a6ea 9abc
00000380: 2e7f 2fbc 2df5 1b3d 23e5 1ebd 32db a3bd
00000390: 0e59 873d f06a 7fbd 83d2 0f3d b076 dabd
000003a0: 680d 76bd bcb7 2cbc 1213 9fbd c069 ff3c
000003b0: 89b7 da3c b9dc cc3c 21bf bc3c 0928 f63d
000003c0: 5e71 f33b 74cd 9e3d f254 16bd f656 82bc
000003d0: a9d1 c5bc 2431 8c3d 9129 18bc 7cde 5a3d
000003e0: b629 d9bb 6dd2 b03c 1227 70bc 4097 81bd
000003f0: 6781 cf3c a717 6b3c 194d 39bc e0dc 44bd
0.007425024 -0.02873075 0.0059254835 -0.01380013 -0.0037919397 0.108124666 0.040086728 0.06355379
-0.0014484742 0.0074010864 -0.04870171 -0.044567194 0.04344815 -0.0564605 -0.004661951 0.034561496
0.009684447 0.03696272 -0.06649757 -0.061939612 0.04819572 -0.025943663 0.09890369 0.010789738
0.025959918 0.06816688 0.03620331 -0.009917305 0.00026350442 -0.05024439 -0.05451348 -0.011195505
0.06511555 0.009663459 0.09209159 -0.05736425 -0.043405924 -0.10683808 0.048643384 -0.083447404
-0.037861213 0.0065433076 -0.050576296 -0.08253863 -0.034133703 -0.015652519 -0.025961157 0.06663801
-0.101936005 -0.06383073 0.008229732 -0.007505782 0.0525508 0.037503716 -0.021508629 0.06664296
-0.081136525 0.08001281 0.04397504 -0.013095164 -0.016408196 -0.030282184 0.0971829 0.0047114156
0.056042466 -0.073985174 0.017656978 0.02419808 0.05012609 -0.00931334 0.031693183 -0.0020012772
-0.04560524 -0.016182464 -0.13162516 -0.0003041799 -0.06719123 -0.02721572 -0.0012631743 0.03426686
-0.026690157 0.015694726 0.08020407 0.050075293 0.03930871 0.00801174 0.079587765 0.035700437
0.019737544 0.012137548 0.056631904 0.06866695 -0.060008235 0.035529062 -0.094641365 -0.08253112
0.041954905 0.038168047 -0.0032169602 -0.071189284 0.032848038 -0.022834651 -0.020602943 -0.0016955548
0.08959802 0.0798663 0.053924315 0.004556792 -0.021618996 0.017117266 -0.09087839 -0.04239566
-0.10920458 -0.0025113411 0.066108204 -0.0387758 -0.03131725 0.010791714 -0.06743375 -0.013650411
-0.0086207725 -0.017252475 -0.0009994019 -0.04540963 -0.046765458 0.01904959 -0.017104678 0.061963227
0.038412783 0.04551393 -0.04280566 0.021576863 -0.008758009 0.085149325 -0.08677948 -0.04479428
-0.063763395 0.033506535 -0.07093969 -0.013697091 -0.06696695 -0.07152209 -0.0036424804 -0.024891693
0.030265294 0.00010928698 0.05155694 -0.0690109 0.044155627 0.054541882 -0.014976096 0.013161785
0.02849763 -0.02445729 0.022904117 0.04253218 0.10478386 0.017942272 0.07287181 -0.048156835
-0.044704225 0.060530324 0.019136075 0.037052583 -0.037630875 -0.044060513 -0.08886164 0.013604561
0.029366173 -0.039204214 0.020878429 0.06413629 -0.018366465 0.014219686 0.04189492 0.029942507
-0.04076853 0.040448923 -0.074307784 -0.073415965 0.028430123 0.03162404 0.04226788 -0.025679853
0.027550524 0.055012226 -0.04531114 -0.02687627 0.016117755 -0.025494393 0.11481997 -0.059396844
0.02370564 0.10279758 -0.08565288 -0.041638836 -0.023212649 0.061601337 -0.07237603 0.030328883
-0.074846685 -0.011351129 0.085606836 0.0014231681 0.009840943 -0.036479924 -0.02020945 0.014498688
0.09104388 0.01473824 -0.03615195 -0.06789119 0.008282562 0.025713768 -0.043829754 -0.0047198283
-0.07318164 0.0024781332 0.030850649 0.058644984 -0.04551871 -0.07242254 0.087787956 -0.018910717
-0.010711474 0.038075615 -0.03879274 -0.080007926 0.06608783 -0.062357843 0.03511287 -0.10667169
-0.06007138 -0.010541853 -0.07767309 0.031178355 0.026698845 0.025007593 0.023040356 0.12019355
0.007429286 0.07754031 -0.036702104 -0.015910607 -0.024147825 0.0684531 -0.009287254 0.053434834
-0.006627287 0.021584714 -0.014657753 -0.06327677 0.025330259 0.014348901 -0.011309885 -0.048062205

actor.2.bias f4 [78]
00000000: be11 9a38 2b9c 81bb c644 113b 9276 4c3b
00000010: 2565 c33b d4a1 f13a a36b 8c3b f6b4 a1bb
00000020: f580 64bb e6c4 443b 0000 0000 0000 0000
00000030: 0000 0000 0000 0000 0000 0000 0000 0000
00000040: 0000 0000 0000 0000 2bc6 bc3a 77c3 0f3b
00000050: 696b c5ba 42ee 8bbb 0000 0000 0000 0000
00000060: 0000 0000 0000 0000 0000 0000 0000 0000
00000070: 0000 0000 0000 0000 0000 0000 0000 0000
00000080: 0000 0000 0000 0000 0000 0000 0000 0000
00000090: 0000 0000 0000 0000 0000 0000 0000 0000
000000a0: 0000 0000 0000 0000 0000 0000 0000 0000
000000b0: 0000 0000 0000 0000 5a86 75ba 0000 0000
000000c0: 0000 0000 0000 0000 0000 0000 0000 0000
000000d0: 0594 faba 0000 0000 c8bd 90bb 0000 0000
000000e0: 0000 0000 0000 0000 0000 0000 0000 0000
000000f0: 26ca 8a3b 0000 0000 0000 0000 0000 0000
00000100: 0000 0000 0000 0000 0000 0000 0000 0000
00000110: 0000 0000 0000 0000 0000 0000 0000 0000
00000120: 0000 0000 0000 0000 0000 0000 0000 0000
00000130: 0000 0000 0000 0000
7.346597e-05 -0.0039553843 0.0022166236 0.0031198603 0.005962985 0.0018435069 0.0042852922 -0.0049349023
-0.0034866903 0.0030024587 0.0 0.0 0.0 0.0 0.0 0.0
0.0 0.0 0.001440232 0.0021936574 -0.0015061918 -0.004270346 0.0 0.0
0.0 0.0 0.0 0.0 0.0 0.0 0.0 0.0
0.0 0.0 0.0 0.0 0.0 0.0 0.0 0.0
0.0 0.0 0.0 0.0 0.0 0.0 -0.0009366028 0.0
0.0 0.0 0.0 0.0 -0.00191176 0.0 -0.004417155 0.0
0.0 0.0 0.0 0.0 0.0042355238 0.0 0.0 0.0
0.0 0.0 0.0 0.0 0.0 0.0 0.0 0.0
0.0 0.0 0.0 0.0 0.0 0.0

critic.1.weight f4 [128, 1024]
00000000: 1efd 5abc e980 6d3c 9960 363d f2ad 39bd
00000010: 3157 e53b 3dc9 8bbd cae7 4c3a 188f 9a3c
00000020: e11a b43d a031 f4bb f9a5 c43c e948 0cbd
00000030: 2854 2d3d cc3c dcbc 14d4 d83c 59d8 223d
00000040: 3d02 3dbd a828 a5bc f9a3 3b3d 19d6 b0bd
00000050: a975 c4bc d79a 8c3c 3a19 e63c c784 033c
00000060: ec97 c8bb cca7 1fbd 45b5 80bc ad9c 793d
00000070: 268e 10ba 20f7 b03c 5064 2fbc fc68 94bd
00000080: c947 bcbc 993e 96bd fc15 c93d aba1 8d3d
00000090: 9df3 8e3d a0e1 9f3c e3e8 263c 0439 1cbd
000000a0: 1597 0ebd 2db2 3fbd 6862 80bc 04ba 12bc
000000b0: 8a11 903c e662 1ebc 0fb9 a8bb 8f97 543d
000000c0: d462 85bc fe6b 8f3c 31f4 3a3d 6a38 0fbd
000000d0: a0bd 463d 8103 323e 224b 903c ef53 9abd
000000e0: 8bff a83c 7baf 353d 4cf5 763a f96a 053d
000000f0: 9912 9e3d 2fa0 4f3c ff78 24bc 434b 693c
00000100: c916 ed3d e2c0 53bd 94be 103c d622 a83c
00000110: 1c13 90bb 6a3d 3c3d 251d 3dbd 493c 943b
00000120: 2b71 a8bc 70a3 0e3b 6475 91bd 660b afbc
00000130: 7707 8dbc 287c 1b3d ffe7 33bc f0bc 063d
00000140: 795e 06bd 523c 473d 3ace 28bd 184d 143b
00000150: 97c2 a0bd 6677 67bb b5d2 69bd c47c c1bb
00000160: 3fce c9bd 18d6 413b 2c09 20bd 0ff6 213d
00000170: b113 0cbd b9f0 9ebb 5a0f be3b 12e5 0bbc
00000180: a4e8 fdbb fff2 7e3d 13ad 843d 2438 b6bd
00000190: 8640 193c 2bc2 d83a 9d0e a6bd 06a8 ca3c
000001a0: f3b1 df3c a395 abbc 1a82 4abc 7e18 8abc
000001b0: d82a 3f3d cb57 473c 281b 8a3c 90a7 153d
000001c0: 5914 19bd a1f5 113d 8dca 763c c427 fa3c
000001d0: 0bbb bdbc ea8c 593b a0fc b03c 4117 64bd
000001e0: a0e1 f2ba 0a1d 243c 0a9e 073d 6054 9c3c
000001f0: bcbd 5b3d f282 f93c 5bcc b4ba 4db6 9a3a
00000200: d41d 793c 2950 943d f510 ab3c dcd1 793c
00000210: 6d23 9d3c 40cd ed3c 90db 09bc 035d 96bc
00000220: acdd 12bd 4e8b f23c 288d 36bd 8234 31bc
00000230: bec3 af3d 2df5 a13c 4bed 4bbd cf32 3cbc
00000240: 00a5 06be fd48 b3bc 9a1c b3bd b7fa 323d
00000250: 6caa 613d c082 643c 65c4 033d 385a b63c
00000260: 5be4 463d cfc0 88bd 70b9 c33d effd 8a3d
00000270: 174d 6a3c 7659 893c 4f37 0d3d 046f 56bd
00000280: aa90 eebc 7994 55bd 98bd d23c 2f88 26bd
00000290: 9558 72bc 398d c0bc 3a6f bbbc 7cfa c63d
000002a0: 860b 88bd 7f84 aabc 4895 ba3b ce16 80bc
000002b0: b836 263d 4b1b 043d 82e5 64bc 11a1 35bc
000002c0: edf7 7ebd 2a07 243d e779 883c 1432 19bd
000002d0: e39e 993d 8712 033e a171 2dbd 1f50 8cbc
000002e0: 91ca fc3c bfb4 84bc 0a2f f7bc ea4a 2cbd
000002f0: cc1c ddbc 8114 c6bd 16e1 84bd bbf9 42bc
00000300: 5c80 7abc a3fe 3d3c b2ed 4ebd 6966 d23a
00000310: 8dc3 91bc 8937 08bd 0e40 88bc 2a42 13bd
00000320: 4ae0 2c3d 0da9 0e3d f8e8 05bb 7639 5abb
00000330: d85e 9c3c b7bf 883c 9d33 3ebd eafb 4c3d
00000340: a4da ac3d 8f0f 51bb 5c0d a8bb b80c 1e3d
00000350: b749 e73b 4480 883c 2577 8c3b 8c3d 1d3d
00000360: 6811 c3bc b219 c03c d941 16bd a451 bcbd
00000370: 20ce 753d 6507 6cbc 2e03 203d a437 b23d
00000380: 5796 953c 256a 773b 046f da3c 316f 0a3d
00000390: 882c 19bd 3ea8 803d 2e2e f5bc 58f5 4abc
000003a0: f364 823d 5987 9a3d f896 4cbc 771b 703d
000003b0: a5cd aebc 3f21 e43c 0e89 5a3c 2ba7 0dbd
000003c0: 7d77 60bd 34c9 b5bc 5069 0c3c 447a d6bc
000003d0: d9b8 a4b8 eaa3 c1bd 659b cdbc 848c b43a
000003e0: 5dcd 193d caff 0d3d 3149 2cbd 6c16 10bd
000003f0: 2502 f1bc e369 1d3e c679 95bb cc07 e6bd
-0.013366012 0.014496067 0.044525716 -0.045331903 0.0069989194 -0.068254925 0.00078165217 0.01886706
0.08794189 -0.007452205 0.024004923 -0.03424922 0.042316586 -0.026884459 0.026468314 0.039757106
-0.046144713 -0.020160988 0.045810673 -0.08634586 -0.023981886 0.017163677 0.0280882 0.008027262
-0.006121626 -0.038978383 -0.015711436 0.060940433 -0.0005514346 0.021602213 -0.010705069 -0.07246587
-0.022983449 -0.07336158 0.09818646 0.06915601 0.06980059 0.019516766 0.01018736 -0.03814031
-0.03481205 -0.04680078 -0.015671924 -0.008955482 0.017586488 -0.009667134 -0.005149014 0.05190235
-0.016282476 0.01750755 0.045643035 -0.03496591 0.048520684 0.17384149 0.017613951 -0.0753554
0.020629665 0.044356804 0.00094207074 0.03257272 0.07718391 0.012672468 -0.010038613 0.014239135
0.115766115 -0.05169762 0.0088345 0.020524424 -0.0043968093 0.045957007 -0.046170373 0.004523788
-0.020561775 0.0021764897 -0.071024686 -0.02136774 -0.017215474 0.0379602 -0.010980605 0.03289503
-0.03280494 0.04864151 -0.041212298 0.002262896 -0.07849615 -0.003531897 -0.05708571 -0.005904766
-0.098537914 0.0029577073 -0.039071247 0.0395413 -0.034198467 -0.0048504737 0.00580017 -0.008538501
-0.00774868 0.062243458 0.06478324 -0.08897427 0.0093537625 0.0016537359 -0.08108256 0.024738323
0.027306532 -0.020945376 -0.01236012 -0.016857382 0.04667172 0.012166928 0.016858652 0.036536753
-0.03737292 0.03563464 0.01506294 0.03053654 -0.023160478 0.0033195564 0.021604836 -0.05568624
-0.0018530376 0.010016689 0.033109702 0.019083202 0.05364774 0.030457947 -0.0013793813 0.0011803597
0.0152048655 0.07241852 0.02088211 0.015247788 0.019181931 0.029028535 -0.008414164 -0.018354898
-0.035855934 0.029607441 -0.04456821 -0.0108157415 0.08582257 0.01977023 -0.049786847 -0.011486723
-0.1314888 -0.02188539 -0.0874569 0.04369613 0.055094168 0.013947189 0.03216972 0.022259817
0.04855762 -0.066774 0.09556854 0.06786715 0.014300606 0.016766291 0.034476575 -0.052351967
-0.029121716 -0.052143548 0.025725171 -0.04065722 -0.014791627 -0.02350484 -0.022880185 0.09715745
-0.06642823 -0.020815132 0.0056940652 -0.015635874 0.040579528 0.03225259 -0.013970735 -0.0110857645
-0.06224816 0.040045895 0.01665969 -0.037401274 0.07501008 0.12800036 -0.042344693 -0.017128048
0.03085831 -0.016199468 -0.030173797 -0.04206363 -0.02699127 -0.096718796 -0.06488244 -0.011900361
-0.015289392 0.011596355 -0.050519653 0.0016052249 -0.017793441 -0.033256087 -0.016632106 -0.03595177
0.042206086 0.03482919 -0.002043305 -0.003329841 0.019088194 0.01669298 -0.04643594 0.05004493
0.0844014 -0.0031900143 -0.0051285457 0.03858635 0.007058348 0.016662724 0.004286664 0.038388774
-0.02381201 0.023449752 -0.03668389 -0.09195259 0.06001103 -0.01440606 0.039065532 0.08702019
0.018260164 0.0037752476 0.026664265 0.033797447 -0.037395984 0.0628209 -0.029929247 -0.012387596
0.06366911 0.07545347 -0.012487166 0.058619943 -0.021338293 0.027847884 0.01333834 -0.034583252
-0.054801453 -0.022190668 0.00857003 -0.026181348 -7.85456e-05 -0.09455092 -0.025098512 0.0013774787
0.037549365 0.034667768 -0.04206199 -0.035177633 -0.029419968 0.15372424 -0.0045616357 -0.11231956

critic.1.bias f4 [128]
00000000: 9651 053a 8f7a aeb9 8804 0b39 2444 0eb9
00000010: ed05 afb9 815c d0b9 97d0 d6b8 0000 0000
00000020: 0000 0000 87d6 0439 df39 35b9 03b1 0339
00000030: 3fa2 10ba f292 beb9 cead ad38 f1ff 56b8
00000040: 682f 0439 1682 09ba 96db 0939 1cb9 453a
00000050: b994 d739 0000 0000 548e 12b9 6860 0639
00000060: 3398 77ba b309 17ba 0000 0000 8587 e138
00000070: 0000 0000 0000 0000 34e6 2937 a76e 14b9
00000080: 0000 0000 f07c 0c3b a070 fd38 359d 1cb9
00000090: 4fcd 0439 9f3a 3a38 06a3 2eba eb12 0839
000000a0: 0000 0000 3476 6bba 605c 84ba 0481 8938
000000b0: 51b0 b5ba 46aa 323a a1ee 15b9 0000 0000
000000c0: 2064 8bba c89c 9539 03da ffba 8f69 eab9
000000d0: 83e6 0a39 0000 0000 0000 0000 c372 49ba
000000e0: 0000 0000 0000 0000 b1a7 ca38 14ca 16b9
000000f0: b6c2 84b9 9921 4fb9 6962 0439 0000 0000
00000100: 97f0 04b9 497f 0639 ff3e 78b7 aa90 9c38
00000110: 46ba 18b9 0000 0000 c696 9eba 0000 0000
00000120: 5ec3 79ba 0a98 0639 e2ac 0a39 a386 2e38
00000130: 7f88 5dba 0000 0000 df14 4eb8 a966 2a37
00000140: b980 e838 c94f 2fb9 154c 76ba cc59 0239
00000150: 505f f9b8 f57d 22ba 2671 b9ba 0000 0000
00000160: e332 16b9 0000 0000 eab7 18b9 0000 0000
00000170: 3045 0dba c490 ee35 846d e6b9 086b 2039
00000180: 010e 05b9 0ee9 13b9 8c38 0739 c1d7 0439
00000190: bde4 3e3a c38a 0539 a844 0fb9 95e2 0a39
000001a0: 286d 20b9 0000 0000 85d9 6fb9 0c45 33b9
000001b0: bb01 b939 3b79 79ba 0000 0000 e0f2 a238
000001c0: 0573 66b9 764d 02bb 5a75 15b9 02a0 633a
000001d0: 6a14 1d3a 0000 0000 0000 0000 2f7a 86b9
000001e0: f8ce 13b9 7a3a 1ab9 c103 0539 d483 6fb9
000001f0: bcb8 16b9 8c98 1bbb 0000 0000 8b02 16b9
0.00050857046 -0.0003327918 0.00013257761 -0.0001356756 -0.00033383016 -0.00039741772 -0.00010243168 0.0
0.0 0.00012668419 -0.00017283064 0.00012559076 -0.00055173406 -0.00036349107 8.2816565e-05 -5.125994e-05
0.00012606161 -0.00052455196 0.0001314714 0.0007542537 0.00041118803 0.0 -0.00013976666 0.0001281515
-0.00094449817 -0.0005761638 0.0 0.000107540785 0.0 0.0 1.0126783e-05 -0.00014155601
0.0 0.0021436773 0.00012084958 -0.00014935884 0.00012664984 4.440045e-05 -0.00066618656 0.00012977018
0.0 -0.0008982152 -0.0010098331 6.5567e-05 -0.001386175 0.0006815534 -0.00014298644 0.0
-0.0010634698 0.00028536306 -0.0019519929 -0.00044710605 0.00013246578 0.0 0.0 -0.00076846423
0.0 0.0 9.6633456e-05 -0.00014380395 -0.00025322073 -0.00019753574 0.00012625162 0.0
-0.00012678128 0.00012826653 -1.4796619e-05 7.4656054e-05 -0.00014565242 0.0 -0.0012099377 0.0
-0.0009527708 0.00012835875 0.0001322511 4.1610223e-05 -0.00084508205 0.0 -4.9133665e-05 1.0156692e-05
0.000110865985 -0.00016719023 -0.00093954924 0.00012431218 -0.000118909986 -0.00061985786 -0.0014148101 0.0
-0.00014324072 0.0 -0.00014564363 0.0 -0.0005389033 1.7774514e-06 -0.00043950614 0.00015298661
-0.00012689085 -0.00014105832 0.00012895669 0.00012668876 0.00072820095 0.00012735561 -0.00013663119 0.00013245114
-0.00015299453 0.0 -0.00022873849 -0.00017096492 0.0003528724 -0.0009516661 0.0 7.770001e-05
-0.00021977357 -0.0019882596 -0.00014253464 0.0008683206 0.00059921166 0.0 0.0 -0.00025649506
-0.00014096114 -0.00014708369 0.00012685267 -0.00022841926 -0.00014373934 -0.0023742048 0.0 -0.00014306062

critic.3.weight f4 [1, 128]
00000000: 7b17 e03c b1c5 1dbd ab82 123e 2db6 90bd
00000010: fab9 0a3d ae0d 443c e0e9 15be 6720 83bd
00000020: e5bf 39bd f84c cd3d 0f50 75bc eba1 5a3d
00000030: e4c3 c3bc 5a69 453e 373f 313c b75a 53bd
00000040: 1256 6c3d f73e 70bc 98c0 f83d 5b5f aa3d
00000050: 7b73 9f3d 39c9 073d 2962 36be c5d3 933d
00000060: a238 0cbc 50f7 923d ceed eabc 4ea5 ad3d
00000070: 7a1f 173e 0aa4 9e3d b9a6 b73d 7dee e9bd
00000080: 332a b03b c2f2 e8bb 032d 1d3d 8061 1cbd
00000090: 296b 7a3d 8d66 debd 24f5 1b3d 0827 ba3d
000000a0: 8e6b cf3c 01c0 bdba 954a 063e 6406 213e
000000b0: af61 33bd 0cf3 e43d 4a62 b9bd 3b7e 2bbd
000000c0: 5460 fe3d 1385 55bd 1782 9e3b fe3f afbd
000000d0: ff36 143e 4013 f43a 428f 71bc f5ca 9fbd
000000e0: 05c9 c53d 7ae5 b2bd 8977 753c 0f91 a9bd
000000f0: b4be 56bd f87f 16bc af23 763d a10c 983d
00000100: 644c f1bd 59b7 993d d758 03bb 4b5b 903d
00000110: e277 77bd 8ef4 e03c be16 b03d 3df6 29be
00000120: 27cb a0bd 9f6b 963d 9488 0c3e d427 c73b
00000130: c98d e13d 3b6f 72b9 c4dc fd3a 88d5 393e
00000140: 26c2 bd3c fba2 81bc 8631 7e3d d487 493d
00000150: a1a7 8e3d d126 a23d 0f37 3a3e 2080 4e3d
00000160: dece 9bbd f06c 5e3d 5e4f 6cbd cb85 85bc
00000170: cb5e c13d ec09 b6bc 7147 24bd db06 203e
00000180: 8a02 bd3c cfdf fbbd ed85 a83d cd9d 803d
00000190: 11ce 7d3d b9a7 8c3d af0d 75bd 9c67 d53d
000001a0: 0209 08bd 5f7b 00be 15c1 d1bc 8713 80bc
000001b0: fd3f 263e 4cc9 98bd e7e1 febc 5292 263c
000001c0: f0d6 80be 87d7 0e3e 8898 b7bd 6795 e23d
000001d0: 47e1 153e 00f4 303e 9907 213c d2d1 f4bd
000001e0: 0c57 03be 60a9 4dbd aa4f 7f3d 5c7f 85bc
000001f0: 0f6f 99bd 1bd6 023e 3a38 a4bd 04d4 adbd
0.027354946 -0.03851861 0.14307658 -0.07065997 0.033868767 0.011966152 -0.14639997 -0.06402665
-0.04534902 0.10024446 -0.014972701 0.053377073 -0.023897119 0.1927847 0.010818294 -0.051600184
0.05769927 -0.0146634495 0.12146109 0.08318969 0.07785698 0.033150885 -0.17810883 0.07218126
-0.008558424 0.07176077 -0.028677847 0.08478795 0.14758101 0.07746132 0.08967347 -0.11422441
0.0053761243 -0.007109017 0.038373005 -0.03817892 0.061137352 -0.10859404 0.03807558 0.09089476
0.02531984 -0.0014476777 0.13114388 0.15725094 -0.04379433 0.1117917 -0.0905195 -0.04186843
0.12420717 -0.052128863 0.0048372853 -0.085571274 0.14474104 0.001862146 -0.014743628 -0.07802383
0.09657482 -0.087351754 0.014982113 -0.08279621 -0.052427962 -0.009185784 0.060092624 0.07424284
-0.117821485 0.07505674 -0.0020041966 0.07048663 -0.060417064 0.027460363 0.08598088 -0.16597839
-0.07851248 0.07344746 0.13723975 0.006077746 0.110133715 -0.00023120355 0.0019368161 0.18147862
0.023163866 -0.015824785 0.062058948 0.0492018 0.069655664 0.0791756 0.18185066 0.05041516
-0.07607816 0.05430311 -0.057692878 -0.016299149 0.094419084 -0.022221528 -0.040107194 0.15627615
0.0230725 -0.122985475 0.08228669 0.06280098 0.0619641 0.06867928 -0.059827503 0.104201525
-0.033211716 -0.12547062 -0.025604764 -0.015634311 0.16235347 -0.07460269 -0.031113578 0.010166721
-0.25163984 0.13949405 -0.0896464 0.110636525 0.14636718 0.17280579 0.009828472 -0.119540825
-0.12826174 -0.050210357 0.062331833 -0.016296081 -0.07491886 0.12776987 -0.08018537 -0.084877044
