experiments/ppo_hrl/models/MicroRTSGridModeVecEnv__ppo_utils__1__1721366578/attack_agent.pt (torch, 802518 bytes, 11 tensors)

encoder.1.weight f4 [32, 30, 3, 3]
0	0x3d57665a	0.052587844
1	0x3c03531c	0.00801542
2	0xbe024ef0	-0.12725425
3	0x3dd88009	0.10571296
4	0xbda0dea5	-0.07854966
5	0xbc77aeaa	-0.015117327
6	0x3b8a61db	0.004223091
7	0x3d99ad40	0.07503748
8	0xbd77abf5	-0.060466725
9	0xbd25ecb3	-0.040508937
10	0xbc10026b	-0.008789639
11	0x3bc98a52	0.0061505223
12	0xbd1e3322	-0.038622983
13	0xbd44bded	-0.04803269
14	0xbce99aa1	-0.028516116
15	0x3d7bc215	0.061464388
16	0xbc9a4c97	-0.018835349
17	0xbce6a92f	-0.028156845
18	0x3d036c5f	0.032085773
19	0x3c0578b9	0.008146458
20	0x3d252f57	0.04032835
21	0xbe18a61c	-0.14907116
22	0xbc5fbbc5	-0.013655608
23	0xbc9ae666	-0.01890869
24	0x3c334537	0.010941795
25	0x3cff8b1e	0.031194266
26	0x3e343d75	0.17601569
27	0x3d8b0777	0.06788533
28	0x3c5036b9	0.012708359
29	0xbb6ec4d0	-0.0036433227
30	0xbdab1c90	-0.08355057
31	0xbdbf73f1	-0.09348286
32	0xbe1ec4eb	-0.15504806
33	0x3d003c22	0.031307347
34	0x3d07da61	0.033167247
35	0xbdabe4df	-0.08393263
36	0x3cfcf45b	0.030878237
37	0x3d868bba	0.065696195
38	0xbd75e92f	-0.060036834
39	0xbd664ae8	-0.05622378
40	0xbde05065	-0.10952834
41	0xbd1f19ce	-0.03884297
42	0x3d3dc07b	0.04632614
43	0xbdb61bab	-0.08891996
44	0x3d7560f3	0.05990691
45	0xbe056d4c	-0.13029975
46	0x3e14b81b	0.14523356
47	0x3d4d603d	0.050140608
48	0x3bc4906d	0.005998662
49	0x3d1a3e1a	0.03765688
50	0x3d200991	0.039071623
51	0xbcee8ed4	-0.02912084
52	0xbe2edfca	-0.17077556
53	0x3e0a06a6	0.13479099
54	0x3da0b607	0.07847219
55	0x3cec09c9	0.02881326
56	0x3e71087a	0.2353839
57	0xbdc5bec2	-0.09655525
58	0xbcb63ba6	-0.02224524
59	0xbe17194b	-0.14755742
60	0xbd10ba6b	-0.035334032
61	0x3dfbd952	0.1229731
62	0xbca05611	-0.01957229
63	0xbd29a9a6	-0.041421555
64	0xbd50e9b7	-0.051004138
65	0x3d0fc380	0.035098553
66	0xbaa6d47f	-0.0012728124
67	0xbc3b67f1	-0.011438356
68	0x3d0e4489	0.03473333
69	0x3ced53cd	0.028970623
70	0x3dc49198	0.09598082
71	0xbe0c5f7b	-0.13708298
72	0x3e49ad7a	0.19695082
73	0xbcee4de7	-0.029089881
74	0xbdb979ba	-0.090564206
75	0xbda22ae0	-0.07918334
76	0xbd83dd06	-0.06438641
77	0x3cfa2229	0.030533867
78	0xbd479f23	-0.04873575
79	0xbe6050f4	-0.21905881
80	0xbda6e723	-0.081495546
81	0xbe47598a	-0.1946775
82	0x3d018ed4	0.031630352
83	0x3d8724ea	0.06598838
84	0x3cb46f07	0.022025598
85	0x3cc399dd	0.023877079
86	0x3da132d1	0.078710206
87	0xbd294d15	-0.041333277
88	0x3d93dcda	0.072198585
89	0xbd1b1674	-0.03786321
90	0xbd99aa4e	-0.07503186
91	0x3ca45103	0.02005816
92	0x3d813c09	0.06310279
93	0x3e349ad5	0.17637189
94	0x3d80c720	0.0628798
95	0x3df350be	0.11880635
96	0x3db0c0da	0.086305335
97	0x3cda66e3	0.026660388
98	0x3d813e90	0.06310761
99	0x3db5260d	0.08845148
100	0x3d4c1900	0.04982853
101	0x3d90a1bc	0.070620984
102	0x3e032df5	0.128105
103	0xbdc1b81a	-0.09458943
104	0x3be73147	0.007055435
105	0x3c19ca0a	0.009386549
106	0x3e6105c3	0.21974854
107	0xbc83f65a	-0.01610868
108	0xbcbd88bb	-0.023136487
109	0xbdff345a	-0.12461157
110	0xbdaca506	-0.08429913
111	0xbb02ff63	-0.0019988648
112	0xbd9fa652	-0.07795395
113	0xbc8bf40a	-0.01708414
114	0xbd845b8b	-0.06462773
115	0xbd9a8eef	-0.07546794
116	0x3d5edca7	0.05440965
117	0xbcfc4183	-0.030792957
118	0x3d5127fa	0.051063515
119	0x3daef3ad	0.08542571
120	0xbe04e3a9	-0.1297747
121	0xbc83e8da	-0.016102243
122	0x3d0a5127	0.0337688
123	0xbe0f8ebb	-0.14019291
124	0xbe024ec1	-0.12725355
125	0x3d143908	0.0361872
126	0xbd4aa54c	-0.049474046
127	0x3db41219	0.08792514
128	0x3e4cbdbe	0.19994256
129	0xbd88870e	-0.06666385
130	0x3cd1b2ef	0.025598017
131	0xbc6b07d1	-0.014345125
132	0xbd04593c	-0.032311663
133	0x3db132aa	0.086522415
134	0x3d7a947f	0.061176773
135	0x3d956974	0.07295504
136	0xbd6b6c71	-0.057476465
137	0xbdd45027	-0.1036685
138	0x3e10b0cc	0.14129943
139	0x3de0c251	0.10974563
140	0x3cfde37a	0.030992258
141	0xbd8ba72a	-0.068189934
142	0xbcfb7f29	-0.030700283
143	0x3ddbe1ae	0.10736404
144	0xbdb1d325	-0.08682851
145	0xbc163e40	-0.009170115
146	0xbab55c77	-0.0013836761
147	0x3ab131cb	0.0013518868
148	0xbced2b0f	-0.028951196
149	0x3dc21123	0.09475925
150	0x3ca27cdf	0.019834934
151	0x3d8a3054	0.06747499
152	0xbd517dd4	-0.05114539
153	0x3e71f429	0.23628296
154	0x3c7dd274	0.0154920705
155	0xbd1a10bb	-0.03761361
156	0x3c263b87	0.010146028
157	0x3d0c7260	0.034288764
158	0x3d6b3c25	0.057430405
159	0x3e21b2be	0.15790841
160	0xbd454966	-0.0481657
161	0xbdadc44c	-0.08484706
162	0xbc2a0534	-0.010377217
163	0x3b0014dc	0.0019543683
164	0x3cbbbce9	0.022917228
165	0x3d2948f8	0.041329354
166	0xbd415cc5	-0.047207613
167	0xbdde40f8	-0.108522356
168	0x3c48e18d	0.012260807
169	0xbbca5ab6	-0.0061753644
170	0xbd993fdc	-0.07482883
171	0xbd44a5c7	-0.04800966
172	0xbd9568c5	-0.07295374
173	0xbdd2d2a9	-0.102940865
174	0x3bb1b6e7	0.005423415
175	0xbddef362	-0.10886265
176	0xbc94d3a6	-0.018167328
177	0x3db44e7d	0.08804033
178	0x3dc35f2d	0.09539638
179	0x3e166eff	0.14690779
180	0x3e2bfb88	0.1679517
181	0x3d0f01de	0.03491389
182	0x3db3ad69	0.0877331
183	0x3ce196a0	0.027537644
184	0x3d8151d3	0.06314435
185	0x3cde9d99	0.027174758
186	0x3cecb1f0	0.028893441
187	0xbb1e8318	-0.0024187025
188	0x3c6745e8	0.014115788
189	0x3da537e6	0.080673024
190	0xb8a25cc6	-7.742042e-05
191	0xbcce45c5	-0.025179753
192	0xbbfd8483	-0.007736744
193	0xbd03799a	-0.03209839
194	0xbc727942	-0.014799418
195	0xbd1fd5ca	-0.039022245
196	0x3d0221b4	0.031770423
197	0x3d2ee845	0.04270198
198	0xbc926724	-0.017871447
199	0x3d01ea72	0.031717725
200	0x3d6d089d	0.057869542
201	0x3deeb3c8	0.11655384
202	0xbe260649	-0.16213335
203	0xbe0e3736	-0.13888249
204	0x3e5a1f0e	0.21300909
205	0x3d3bb34b	0.045825284
206	0x3d8b804e	0.068115816
207	0xbc11d21a	-0.00890019
208	0x3ddf1430	0.10892522
209	0xbc251984	-0.010076884
210	0x3da365ef	0.07978427
211	0xbc09223c	-0.0083699785
212	0x3c68bc32	0.0142050255
213	0x3e2e05d5	0.16994412
214	0x3c41e3c1	0.011834086
215	0xbe8b84b9	-0.27249697
216	0xbd6cb2ec	-0.05778782
217	0xbd92be0a	-0.07165153
218	0xbd00b8e1	-0.031426314
219	0x3d35055a	0.044194557
220	0xbd2925ad	-0.041295696
221	0xbdeda2ac	-0.11603293
222	0x3e21cd1b	0.15800898
223	0x3d56c900	0.052437782
224	0xbe058bbd	-0.13041587
225	0x3d6ba666	0.057531737
226	0xbd90bcb3	-0.070672415
227	0x3c759d88	0.014991172
228	0x3d32b2a5	0.0436274
229	0xbe058486	-0.13038835
230	0xbcd1260a	-0.025530834
231	0xbd53696e	-0.051614217
232	0xbe0936c3	-0.13399796
233	0x3de568bb	0.112016164
234	0xbc86bdb6	-0.016447883
235	0xbd2b054b	-0.041753095
236	0x3e452265	0.19251402
237	0x3c616955	0.013758023
238	0x3c8e24d0	0.017351538
239	0xbbef48c4	-0.0073023755
240	0xbd48b97d	-0.04900502
241	0x3d61421b	0.054994684
242	0x3dca1a69	0.098683186
243	0x3dbb9be0	0.0916059
244	0x3cfd06ca	0.030887026
245	0xbc91a695	-0.017779628
246	0x3d562487	0.05228093
247	0xbe0e3bfc	-0.1389007
248	0x3e999884	0.29999173
249	0x3d095c59	0.033535335
250	0xbdf0eb48	-0.11763626
251	0x3d443639	0.047903273
252	0x3d739507	0.059468295
253	0x3dbbc9fc	0.09169385
254	0x3ce1f9b7	0.027584894
255	0x3c8ee228	0.017441824

encoder.1.bias f4 [32]
0	0xba1d5b3e	-0.0006002671
1	0x3a0e7288	0.00054339366
2	0xba1aeae0	-0.0005909633
3	0xba9b00f6	-0.0011825848
4	0xb428dd80	-1.57268e-07
5	0x3a1335c5	0.0005615617
6	0xbb0d3753	-0.0021547868
7	0xb91698e0	-0.00014362065
8	0xb7b4a934	-2.1536463e-05
9	0xba410535	-0.00073631416
10	0x3a5c858e	0.0008412235
11	0xba50aa04	-0.00079599046
12	0xb9bd0cb9	-0.00036058368
13	0xbae57b8d	-0.0017508134
14	0xba9dd8a1	-0.001204271
15	0xbae4f08f	-0.0017466712
16	0xbb0fe233	-0.0021954894
17	0xb9d543f2	-0.0004067715
18	0x3a70e66e	0.000918961
19	0x38300ef7	4.1975607e-05
20	0xba9a0e3f	-0.0011753513
21	0xba6c7b86	-0.0009021092
22	0x39526942	0.00020066372
23	0xba8b504e	-0.0010628791
24	0xb99a1924	-0.000293919
25	0xb9fb2e67	-0.00047909023
26	0xb9dbd06e	-0.00041926227
27	0x3833d54a	4.2875567e-05
28	0xb9ec0bcb	-0.00045022214
29	0x3a0c9805	0.0005363229
30	0xb8d81f16	-0.00010305473
31	0xba794f1c	-0.00095103844

encoder.4.weight f4 [64, 32, 3, 3]
0	0x3da57549	0.08079011
1	0x3d2c3da7	0.042050984
2	0xbe123dbc	-0.14281362
3	0xbd0ccf45	-0.034377355
4	0xbcde0aa9	-0.027104693
5	0xbd5ee4af	-0.05441731
6	0x3ab98e95	0.0014156873
7	0x3dfaf86b	0.12254413
8	0x3cbe16fe	0.023204323
9	0xbd85c327	-0.06531363
10	0x3e416372	0.18885592
11	0x3e220026	0.15820369
12	0x3e02d49e	0.1277642
13	0xbd229728	-0.039694935
14	0x3c347579	0.011014336
15	0xbd8abeee	-0.06774698
16	0xbcecb0cd	-0.028892899
17	0x3cdf7f72	0.02728245
18	0xbdec4c78	-0.11538023
19	0x3d97a69d	0.07404826
20	0xbbc987e4	-0.0061502326
21	0x3df62e79	0.12020583
22	0xbcdca802	-0.026935581
23	0xbd1b6e31	-0.037946884
24	0x3d0a6cb5	0.033795077
25	0xbd4f0c71	-0.050548974
26	0xbda88daa	-0.08230145
27	0x3d292ebe	0.041304342
28	0x3ca1719e	0.019707497
29	0xbe480564	-0.19533306
30	0x3cbffe1d	0.0234366
31	0xbdbdfe80	-0.09277058
32	0xbe008904	-0.12552267
33	0x3dd2ef7f	0.102995865
34	0x3a22b56e	0.00062068447
35	0xbc76a5d4	-0.015054185
36	0x3c5cded9	0.013480865
37	0xbd03e80e	-0.032203726
38	0x3daaeb9c	0.0834572
39	0xbda9a68d	-0.0828372
40	0xbd8b9d07	-0.0681706
41	0x3e6ab17e	0.2291927
42	0xbd10d7c9	-0.03536204
43	0x3c2666d5	0.010156353
44	0xbbca652f	-0.006176613
45	0x3de4c8f4	0.11171141
46	0xbdf8e820	-0.12153649
47	0xbdaff179	-0.08590979
48	0xbdf68306	-0.120367095
49	0xbdcd4416	-0.10022752
50	0xbdb7d6b1	-0.08976496
51	0xbbfa4419	-0.0076375124
52	0xbb277f71	-0.0025558139
53	0xbd763a8b	-0.060114425
54	0x3ddad792	0.10685648
55	0x3d97a27b	0.074040376
56	0x3c91936f	0.017770497
57	0xbdeb3e87	-0.114865355
58	0x3cec9caf	0.028883306
59	0x3d5d7567	0.05406704
60	0xbc0bfc7a	-0.008544082
61	0x3e0d8140	0.13818836
62	0xbcff100e	-0.031135585
63	0x3d217d36	0.03942605
64	0xbdfc6aea	-0.1232508
65	0x3d2031c1	0.03910995
66	0xbc083b59	-0.008314931
67	0xbcd979c5	-0.026547322
68	0xbdb49417	-0.088173084
69	0x3d116949	0.0355008
70	0xbd2af617	-0.041738596
71	0xbc39b283	-0.011334064
72	0x3dec15be	0.115275845
73	0x3cacf530	0.021113008
74	0x3c508819	0.012727761
75	0xbc9ba99d	-0.019001776
76	0xbd335d2f	-0.04379004
77	0x3d084e0b	0.033277553
78	0x3b8826e2	0.004155026
79	0x3b700dd1	0.003662933
80	0xbbd42a7d	-0.0064747916
81	0xbdbd7cbc	-0.09252307
82	0x3dcea222	0.10089518
83	0xbddd44ac	-0.10804114
84	0xbdde917e	-0.10867594
85	0x3cd74582	0.026278261
86	0xbe34d189	-0.17658056
87	0x3def5b66	0.11687355
88	0xbd77673e	-0.060401194
89	0x3ba49c5f	0.0050235237
90	0xbd586707	-0.05283263
91	0xbc1703c9	-0.009217211
92	0xbdbb526a	-0.091465786
93	0xbce667c2	-0.028125647
94	0x3d733552	0.059377022
95	0xbccf265d	-0.025286848
96	0xbd512c6f	-0.051067766
97	0x3db084fa	0.08619113
98	0xbb8da605	-0.0043227696
99	0x3cabe6bb	0.020984044
100	0x3d8402a9	0.0644582
101	0xbe0decd0	-0.13859868
102	0x3d7998a0	0.06093657
103	0x3d3f4933	0.046700668
104	0xbd8e12e8	-0.069372
105	0xbdeaae93	-0.11459079
106	0xbd1bfba4	-0.03808178
107	0x3b947a0d	0.004531151
108	0xbdc6b988	-0.09703356
109	0xbc648a62	-0.013949009
110	0x3d190e18	0.037366956
111	0xbde422fa	-0.11139484
112	0xbd8601b8	-0.065432966
113	0x3dac89ca	0.08424719
114	0xbdaecaca	-0.08534773
115	0xbdafaa3f	-0.08577394
116	0xbc0728b0	-0.008249447
117	0xbdc14f40	-0.09438944
118	0xbda39313	-0.079870366
119	0xbd9e6987	-0.077349715
120	0xbddc6274	-0.10760966
121	0xbd5670a9	-0.052353535
122	0x3c3fd32c	0.011708062
123	0xbc72d4d5	-0.014821251
124	0xbc8d8e06	-0.017279636
125	0x3ce548c3	0.027988797
126	0xbd9192a7	-0.0710805
127	0x3e125f66	0.14294204
128	0xbc35f42b	-0.011105577
129	0x3d3f9239	0.04677031
130	0x3d90f9ad	0.07078872
131	0xbde10ea7	-0.10989123
132	0xbd30f264	-0.04319991
133	0xbc2a808b	-0.010406624
134	0xbdcfc1d5	-0.101443924
135	0xbdca835b	-0.09888335
136	0x3da03165	0.07821921
137	0xbd6918c6	-0.05690839
138	0xbd80f34d	-0.06296406
139	0x3df52036	0.119690344
140	0xbd39c5ad	-0.045354534
141	0xbdadb87c	-0.08482453
142	0x3dd12527	0.10212164
143	0x3b523bf8	0.0032079201
144	0xbe06aae8	-0.13151133
145	0x3d971b33	0.07378235
146	0xbd88f40e	-0.06687175
147	0xbc6c1a07	-0.014410502
148	0xbd51688c	-0.051125094
149	0xbe00ec4b	-0.12590139
150	0x3d5bc66b	0.053656023
151	0x3e2b5341	0.16730978
152	0x3c79098c	0.01520003
153	0xbe25bcd4	-0.16185313
154	0x3da74768	0.081679165
155	0x3e1dfcdc	0.1542849
156	0xbc01d861	-0.007925124
157	0x3d6cbf3a	0.057799555
158	0xbdf141a2	-0.117800966
159	0xbe6d42b4	-0.23169976
160	0x392ddb07	0.0001658016
161	0xbda346e1	-0.079725035
162	0xbe13761d	-0.14400525
163	0xbe02ed97	-0.12785946
164	0xbe0ead15	-0.13933213
165	0xbda7dea5	-0.08196763
166	0xbdc105a9	-0.09424908
167	0x3c89d717	0.016826196
168	0xbdf692f6	-0.12039749
169	0xbdba38ec	-0.09092888
170	0x3d6fc04a	0.05853299
171	0xbcccbafe	-0.024991509
172	0x3cb8b64a	0.02254786
173	0x3c9a3895	0.018825809
174	0xbd9f6433	-0.07782783
175	0xbd882ec5	-0.066495456
176	0xbcc9a621	-0.02461535
177	0xbe0ade18	-0.13561285
178	0x3d8a8a5d	0.06764672
179	0xbb12054c	-0.002228099
180	0x3da75da4	0.081721574
181	0x3d7af6d9	0.06127057
182	0x3d1cd62d	0.03829019
183	0xbd8cd0ae	-0.0687574
184	0x3c572fd9	0.013133966
185	0x3dde4bb6	0.108542845
186	0xbe05a906	-0.13052759
187	0x3e02879f	0.12747048
188	0xbdd44302	-0.10364343
189	0x3d661512	0.056172438
190	0xbd3e572d	-0.046469856
191	0x3c7be2c0	0.015373886
192	0x3e1234c8	0.14277947
193	0xbd921913	-0.07133689
194	0xbe408f26	-0.18804607
195	0x3c7e1856	0.015508732
196	0xbda44548	-0.08021027
197	0x3d977b14	0.07396522
198	0x3c1700f2	0.009216534
199	0xbdae28fa	-0.085039094
200	0xbe1e3ccd	-0.15452881
201	0xbd4b8e11	-0.049696032
202	0x3c8c9a38	0.017163381
203	0xbd1b2324	-0.03787531
204	0xbe1aca3a	-0.15116206
205	0xbc6d4ea4	-0.014484081
206	0x3dcabfee	0.09899889
207	0x3c757e60	0.014983743
208	0x3d120882	0.035652645
209	0x3d5bc358	0.05365309
210	0xbd744864	-0.05963935
211	0xbdd9e305	-0.10639004
212	0x3dcc3a0a	0.099720076
213	0x3ea78154	0.32715857
214	0x3bbce337	0.005764391
215	0x3e15b73d	0.14620681
216	0xbe122dc6	-0.14275274
217	0x3d223145	0.03959777
218	0xbb8b9fbc	-0.004260985
219	0xbdaafc42	-0.083488956
220	0x3d12459c	0.035710916
221	0xbda6b9b2	-0.08140887
222	0xbc149f48	-0.009071179
223	0x3db38893	0.08766284
224	0x3d5afc9a	0.053463556
225	0xbdc38ee5	-0.09548739
226	0x3d0998e8	0.03359309
227	0xbc54f363	-0.012997481
228	0x3cdf1489	0.027231472
229	0xbd63538d	-0.055499602
230	0xbd8e8464	-0.06958845
231	0x3c33c48d	0.010972154
232	0xbd641038	-0.05567953
233	0x3dfc091a	0.123064235
234	0x3bf5d341	0.00750199
235	0x3d4547e7	0.048164275
236	0xbd7808b8	-0.06055519
237	0xbd937ac4	-0.0720115
238	0xbdc96ec0	-0.09835577
239	0xbc7f891b	-0.015596653
240	0xbd4700e9	-0.048584852
241	0xbe0f2434	-0.13978654
242	0x3cbd8676	0.023135405
243	0x3dc6ca29	0.09706528
244	0x3de04f7a	0.10952659
245	0x3e06ec3a	0.13176051
246	0x3d80af56	0.06283443
247	0x3de4e9a4	0.11177376
248	0x3c155ddb	0.009116615
249	0xbd9f8ba1	-0.07790304
250	0x3da31401	0.079628
251	0x3cbedbbb	0.023298135
252	0x3cc3090f	0.02380803
253	0xbe1e281e	-0.15444991
254	0xbd54395f	-0.051812526
255	0x3cdba2de	0.02681106

encoder.4.bias f4 [64]
0	0x00000000	0.0
1	0xba43f73b	-0.00074755
2	0xba6c7caf	-0.0009021265
3	0x399c6eaa	0.0002983709
4	0xba75f6ce	-0.0009382785
5	0xba32d8ab	-0.0006822447
6	0xba2b3463	-0.00065309386
7	0xb9d1f072	-0.00040042732
8	0xb87e72ee	-6.0665356e-05
9	0x394b9f32	0.00019418893
10	0x3a38033e	0.0007019526
11	0xb9f7ffff	-0.00047302243
12	0xbab4bab0	-0.0013788547
13	0x38833d9e	6.258044e-05
14	0xb90a9dce	-0.00013219492
15	0xbb21b22d	-0.0024672851
16	0xba99213e	-0.001168288
17	0xb848d168	-4.787874e-05
18	0xba7553b5	-0.00093584816
19	0xb88bef25	-6.672581e-05
20	0xb9b85bd4	-0.00035163632
21	0xba4e7534	-0.0007875741
22	0xb986fa25	-0.00025744844
23	0x384dafd1	4.903955e-05
24	0x3a211965	0.00061454467
25	0xb8dc4e2e	-0.000105049796
26	0x3a04c4f0	0.00050647464
27	0x3a7e6b1c	0.00097052916
28	0xb95ca660	-0.00021042814
29	0x39fd6dd0	0.00048337737
30	0xbb3ed3f9	-0.0029118045
31	0xb926c1e6	-0.00015903226
32	0xb9e745d0	-0.00044111768
33	0xb9fd5209	-0.0004831704
34	0x368cb838	4.193771e-06
35	0x00000000	0.0
36	0xb945b521	-0.0001885486
37	0xb994d7f3	-0.00028389654
38	0x3926f532	0.00015922336
39	0xb946e34d	-0.00018967428
40	0x00000000	0.0
41	0xb9db3b90	-0.00041815313
42	0xba1b7920	-0.000593083
43	0xb9a6e77e	-0.00031834462
44	0xba169b4c	-0.0005745187
45	0xbadf22d2	-0.0017023927
46	0xb6eca642	-7.052703e-06
47	0xba6063ed	-0.0008559812
48	0xb96c7b7a	-0.00022552712
49	0xba3c6053	-0.0007185984
50	0xb8c78511	-9.513845e-05
51	0xb8d9256e	-0.00010354338
52	0xb98dd92f	-0.0002705543
53	0x00000000	0.0
54	0xbaf842ba	-0.0018940785
55	0xbb3b2aa4	-0.0028559351
56	0xbace68f7	-0.0015747835
57	0x38eae32c	0.000112003036
58	0xb99eb9c7	-0.00030274523
59	0x3a35323c	0.00069120876
60	0xb96222a1	-0.0002156594
61	0xba4ba9e9	-0.0007769154
62	0xba2fba93	-0.0006703522
63	0xb92336c2	-0.0001556529

actor.0.weight f4 [64, 32, 3, 3]
0	0x3caab5ac	0.020838581
1	0xbd9fa35f	-0.077948324
2	0xbd7ea681	-0.06217051
3	0xbd87a209	-0.06622703
4	0x3c168135	0.009186079
5	0x3c3fb7cd	0.011701536
6	0x3d5b5caf	0.053555187
7	0x3d7d1bd0	0.061794102
8	0xbdd1e0b4	-0.10247937
9	0x3cbf8b35	0.023381809
10	0x3bb5cb29	0.0055479
11	0xbcca8d1f	-0.024725495
12	0x3cd8f94c	0.026486062
13	0x3c0e54fa	0.008687252
14	0xbd908d72	-0.070582286
15	0xbd390664	-0.04517211
16	0x3c41a20d	0.011818421
17	0xbcf75b28	-0.030194834
18	0xba8f6fbb	-0.0010943332
19	0x3c8404bf	0.016115544
20	0x3a8536be	0.0010163409
21	0x3d87baec	0.066274494
22	0xbddc52b5	-0.107579626
23	0x3d8d9f2f	0.069151275
24	0xbe191f94	-0.14953452
25	0x3d761668	0.060079962
26	0x3dc40bb7	0.09572547
27	0x3dc37421	0.09543634
28	0x3b329c8b	0.0027253951
29	0x3dd8fd1a	0.1059515
30	0x3d4e4244	0.050356165
31	0xbb8e0d67	-0.004335094
32	0xbe1acc21	-0.15116931
33	0x3dafec8f	0.08590042
34	0x3d1c1d1a	0.03811369
35	0x3d4c0e34	0.049818233
36	0x3e3358e5	0.1751438
37	0xbcf56970	-0.029957503
38	0xbe2df447	-0.16987716
39	0xbdaff086	-0.08590798
40	0x3ac48184	0.0014992212
41	0x3cf372b7	0.029717786
42	0xbdd178ff	-0.10228156
43	0x3dd147dc	0.10218784
44	0x3e118c94	0.14213783
45	0xbd3d7eb1	-0.0462634
46	0x3cdc5a15	0.026898423
47	0x3dceacd4	0.10091558
48	0x3db5550d	0.08854113
49	0x3c0e554b	0.008687328
50	0x3d29a343	0.041415464
51	0x3c206ccd	0.009791565
52	0x3d837dde	0.06420492
53	0x3e002140	0.12512684
54	0x3d32a50a	0.043614425
55	0x3d9cede7	0.07662564
56	0xbd2326ca	-0.039831914
57	0x3d94b722	0.07261492
58	0xbd2b17d5	-0.041770775
59	0x3d5928c9	0.05301741
60	0xbcaf269c	-0.021380715
61	0xbbb215a2	-0.0054347077
62	0xbc72ca70	-0.014818773
63	0xbd1245c9	-0.035711084
64	0x3da7b1a2	0.08188178
65	0xbe1a0849	-0.15042223
66	0x3e286490	0.16444612
67	0x3b8a3109	0.004217271
68	0xbe00e62b	-0.12587802
69	0x3e216879	0.1576251
70	0xbd23f062	-0.04002417
71	0x3b4cbd3c	0.0031240722
72	0x3d8f1bb2	0.06987704
73	0x3d10356c	0.035207197
74	0x3dab550f	0.08365833
75	0xbdd21678	-0.10258192
76	0x3da04a68	0.07826692
77	0x3d519681	0.051168922
78	0x3d478c36	0.0487177
79	0xbd437206	-0.047716163
80	0xbac8c181	-0.0015316458
81	0x3cc07b33	0.023496246
82	0xbc7aa576	-0.015298238
83	0xbd592a6a	-0.053018965
84	0x3d8392df	0.06424498
85	0x3e09e3b2	0.13465765
86	0xbdaeddb0	-0.08538377
87	0x3d7828fb	0.060585957
88	0xbe023e3b	-0.12719052
89	0xbe0988fa	-0.13431159
90	0xbcc55bdb	-0.024091652
91	0xbe0e47f2	-0.13894632
92	0x3d55e723	0.052222382
93	0x3cd99f12	0.026565108
94	0xbd471df6	-0.048612557
95	0x3daaf929	0.08348305
96	0x3c854ff2	0.016273472
97	0x3cb7707e	0.022392508
98	0x3e18f816	0.14938387
99	0x3c953594	0.018214025
100	0x3d42723f	0.047472235
101	0xbe08ed72	-0.13371828
102	0x3d8fb18e	0.07016288
103	0xbd449097	-0.047989454
104	0xbd700a09	-0.05860332
105	0x3c6a483e	0.01429945
106	0xbe0227e0	-0.12710524
107	0x3d992b4d	0.07478962
108	0x3da8a346	0.08234267
109	0xbc738973	-0.014864313
110	0xbc100ed0	-0.008792594
111	0xbdf74c0c	-0.12075052
112	0x3e0b8b38	0.13627326
113	0xbd92014a	-0.07129152
114	0xbdba7c9f	-0.09105801
115	0xbe23754f	-0.15962718
116	0x3df283a2	0.11841513
117	0xbc1fd37f	-0.009755014
118	0x3d364eed	0.044508863
119	0xbe05411f	-0.13013123
120	0x3df1e6d3	0.11811604
121	0xbcbf9e1b	-0.02339082
122	0xbe472bdf	-0.19450329
123	0x3c5dda73	0.013540852
124	0x3c80c811	0.0157204
125	0xbc5a6301	-0.013329268
126	0xbda540b6	-0.08068983
127	0xbd01c2a7	-0.031679776
128	0xbda048bd	-0.07826374
129	0x3d306387	0.043063667
130	0xbd3ee979	-0.046609376
131	0xbd5bf57f	-0.05370092
132	0x3d90c3b2	0.07068576
133	0x3d62b3f3	0.055347394
134	0xbd7566b8	-0.059912413
135	0x3e138df4	0.1440962
136	0x3d5301e4	0.051515475
137	0x3b71c114	0.0036888765
138	0x3e3f6be1	0.18693496
139	0x3c1839fa	0.009291166
140	0xbd8f90f7	-0.07010072
141	0xbd8036d5	-0.062604584
142	0x3ddac126	0.106813714
143	0x3d3a35e0	0.045461535
144	0x3e31eea7	0.17376195
145	0xbccf47b3	-0.025302744
146	0x3c673576	0.014111867
147	0xbd43dbce	-0.047817044
148	0xbd9bf79b	-0.07615586
149	0xbd9b07ae	-0.07569824
150	0xbe2e38ce	-0.17013857
151	0x3d7f13f6	0.062274896
152	0xbb66622a	-0.0035153725
153	0xbc779a47	-0.015112466
154	0x3dc2e803	0.09516909
155	0x3e0821cc	0.13294142
156	0x3a906695	0.00110169
157	0xbdb0fa17	-0.08641451
158	0xbbd8546e	-0.0066018617
159	0xbdbf9427	-0.0935443
160	0x3d8c3ffd	0.06848142
161	0x3bf3e23f	0.007442742
162	0xbd488efd	-0.04896449
163	0x3de4eaec	0.1117762
164	0x3e132941	0.14371206
165	0x3ce2f4f2	0.02770469
166	0x3d736937	0.059426513
167	0xbd74fd43	-0.05981184
168	0xbde63bb1	-0.11241854
169	0x3c0f7266	0.008755302
170	0x3d54227f	0.05179071
171	0xbccf39e0	-0.025296152
172	0xbd1ac43b	-0.037784796
173	0xbbf701e4	-0.007538067
174	0x3d2e2c8b	0.04252295
175	0x3db081e6	0.08618526
176	0xbd8680ba	-0.065675214
177	0x3c7eb1cc	0.01554532
178	0x3e6a817f	0.22900961
179	0xbd693bba	-0.056941725
180	0x3e66fefe	0.2255821
181	0x3dba369a	0.09092446
182	0xbcb8498b	-0.022496006
183	0x3e026b1d	0.12736173
184	0x3d947705	0.07249264
185	0x3d7c5644	0.061605707
186	0x3deb5823	0.1149142
187	0x3df30fb3	0.11868229
188	0xbde34f56	-0.110991165
189	0x3d807f00	0.06274223
190	0xbd195964	-0.037438765
191	0x3decfc9b	0.11571618
192	0x3d02899e	0.031869523
193	0xbc875549	-0.01652016
194	0x3dcc4876	0.09974758
195	0x3d90333a	0.07041021
196	0x3d321141	0.043473486
197	0xbdbbdc3e	-0.09172867
198	0x3e97b638	0.2963121
199	0x3df8ff2b	0.121580444
200	0x3deff8a5	0.11717347
201	0x3a929849	0.00111843
202	0x3d347afd	0.044062603
203	0x3db711d5	0.08938948
204	0xbce268b5	-0.027637819
205	0x3dcc9e8f	0.0999118
206	0xbdd9909b	-0.106232844
207	0x3e44850e	0.19191381
208	0x3da83c4b	0.08214625
209	0x3da81275	0.082066454
210	0xbc378766	-0.011201715
211	0xbdbbe6b7	-0.09174865
212	0x3dbcf828	0.092270195
213	0x3d9ccaed	0.076558925
214	0x3dc61b5e	0.096731886
215	0x3dd7c3ec	0.10535416
216	0x3cf855f5	0.030314425
217	0x3dc01630	0.09379232
218	0x3d04e8bb	0.03244851
219	0xbde7a693	-0.113110684
220	0x3e1f47f7	0.15554796
221	0xbdad19ac	-0.08452162
222	0x3de77f90	0.113036275
223	0xbdc8c45b	-0.09803077
224	0x3bf274a8	0.0073991604
225	0xbd2737d3	-0.040824722
226	0xbccdb0f8	-0.0251088
227	0x3d351a2e	0.04421442
228	0xbe4219c2	-0.18955138
229	0xbde24c3f	-0.11049699
230	0xbdc2b610	-0.09507382
231	0xbd524abc	-0.051340804
232	0x3d422b08	0.04740432
233	0xbe27549a	-0.16340867
234	0xbd0e09b7	-0.034677234
235	0x3c89f2d0	0.016839415
236	0x3cbce1af	0.023056833
237	0x3d8d7663	0.06907346
238	0xbdebdca9	-0.11516697
239	0xbd3c7e7f	-0.046019074
240	0xbd559605	-0.052145023
241	0x3d5bf2c2	0.05369831
242	0x3cb8f1d9	0.02257626
243	0xbc851d8e	-0.016249444
244	0xbc92dca3	-0.017927473
245	0xbbd60cb5	-0.0065322765
246	0xbcef0ec1	-0.02918184
247	0xbb462ad0	-0.003023792
248	0xbd3b5705	-0.045737285
249	0x3d7aa9b2	0.06119699
250	0xbdd8c648	-0.10584694
251	0xbdce7237	-0.100803785
252	0xbe0e3404	-0.1388703
253	0xbd6e12a6	-0.058123253
254	0x3ca0687b	0.01958107
255	0x3d57d189	0.052690063

actor.0.bias f4 [32]
0	0xb9ff589f	-0.00048703418
1	0x3a087a20	0.00052061863
2	0x3a23995a	0.00062408077
3	0x38ca9e78	9.661628e-05
4	0x3add81c8	0.001689964
5	0xba6db8fd	-0.0009068398
6	0xbaf8d9c8	-0.0018985802
7	0x3a227d5a	0.00061984884
8	0x39b64b3a	0.00034769793
9	0xba7babae	-0.00096004724
10	0x3a091d53	0.0005230505
11	0x39d57c5b	0.00040719178
12	0xb842ff8c	-4.64912e-05
13	0xb9c465c6	-0.0003745986
14	0xb9872b28	-0.0002578136
15	0xbaf7ce6f	-0.0018906126
16	0xbace159f	-0.0015722996
17	0x3a35c872	0.0006934471
18	0xb98791a0	-0.00025857706
19	0x3aaf3d13	0.0013369642
20	0x39af14b4	0.00033394026
21	0xba1bdc04	-0.00059455656
22	0x3ade04a8	0.0016938644
23	0x39c421b4	0.00037409144
24	0xba39591c	-0.0007070468
25	0x3a8ac832	0.0010588227
26	0xba13ded8	-0.0005640811
27	0xb9990b54	-0.00029190874
28	0x3a33b8f5	0.0006855869
29	0xb9a6d726	-0.00031822285
30	0x3a1e93c3	0.000604924
31	0xbab355f4	-0.0013682232

actor.2.weight f4 [32, 78, 3, 3]
0	0x3d7efde9	0.062253866
1	0x3dbc958d	0.09208212
2	0x3be85ef0	0.0070913956
3	0xbc82a5f3	-0.015948271
4	0xbc9cf6ec	-0.01916071
5	0xbbb5c230	-0.0055468306
6	0xbcdcce55	-0.026953856
7	0xbd80e8ca	-0.06294401
8	0x3d1184fc	0.035527214
9	0x3dd0ddd0	0.101985574
10	0xbde93c18	-0.11388415
11	0xbceb93a7	-0.02875693
12	0xbd9ac70c	-0.075574964
13	0xbc875aff	-0.016522883
14	0xbd67d2ee	-0.056597643
15	0xbe01d1b5	-0.12677653
16	0xbcc5c7b1	-0.024143072
17	0xbd9efcac	-0.07763037
18	0xbc8e7fbc	-0.017394893
19	0xbcd93356	-0.026513737
20	0x3b92a3f6	0.004475112
21	0xbba6b3e0	-0.0050873607
22	0x3debeae4	0.11519411
23	0x3c8c6497	0.017137809
24	0xbc7f7f39	-0.015594297
25	0x3bba9613	0.00569416
26	0xbd8021c1	-0.06256438
27	0x3d36e3c8	0.044650823
28	0x3d33b80e	0.0438767
29	0x3d3b84e6	0.04578104
30	0x3da27962	0.07933308
31	0x3d10365f	0.035208102
32	0xbd0ee5be	-0.034887068
33	0xbbcad5ce	-0.0061900383
34	0xbc363d59	-0.011123025
35	0x3db43b09	0.088003226
36	0xbd52a583	-0.051427376
37	0xbc82a741	-0.015948894
38	0x3d904dbc	0.07046077
39	0x3bfcc279	0.0077136126
40	0xbdba8634	-0.091076285
41	0x3dd970ce	0.10617219
42	0x3c144fd0	0.009052232
43	0x3c05057e	0.008118985
44	0x3d9e5edf	0.07732939
45	0xbd067567	-0.032826807
46	0x3ce71fcb	0.028213402
47	0xbc837d79	-0.016051041
48	0x3bad7cb7	0.005294408
49	0x3c1eaa98	0.009684227
50	0x3c222151	0.009895639
51	0x3d1fec00	0.039043427
52	0x3d4a47a9	0.049384747
53	0x3c910b04	0.017705448
54	0x3cf0f0ab	0.029411634
55	0xbd8a4ef8	-0.06753343
56	0x3cd473bc	0.025934093
57	0xbc508b20	-0.0127284825
58	0xbdc02bb5	-0.093833365
59	0x3dff840b	0.12476357
60	0x3d322744	0.043494478
61	0x3c482495	0.012215753
62	0xbca5f33b	-0.020257583
63	0x3df6493b	0.12025686
64	0xbd548fde	-0.051895015
65	0x3c8a9130	0.016914934
66	0xbdfec184	-0.12439254
67	0x3cd1dbaa	0.02561744
68	0xbd65251b	-0.05594359
69	0x3c7744ee	0.015092118
70	0x3d00a233	0.031404685
71	0xbd1c8fa8	-0.03822294
72	0x3cb09e7f	0.021559952
73	0xbdcc7885	-0.09983925
74	0xbd5c73b5	-0.053821284
75	0x3d871a79	0.06596846
76	0x3e191d5b	0.14952604
77	0x3c387d18	0.011260293
78	0x3a6837b6	0.0008858399
79	0x3c2b1ec0	0.010444343
80	0xbca008e2	-0.019535486
81	0x3d9fad9e	0.07796787
82	0xbc43802e	-0.011932416
83	0xbbc6c330	-0.0060657486
84	0x3ca795d1	0.02045718
85	0xbd22696e	-0.039651327
86	0xbd8817eb	-0.06645187
87	0x3d332375	0.043734986
88	0x3d77d5e7	0.060506728
89	0x3d8c8890	0.06861985
90	0xbda0e961	-0.078570135
91	0xbd42bc0a	-0.04754261
92	0xbcbc986c	-0.0230219
93	0xbd0631d6	-0.03276237
94	0x3da340ff	0.079713814
95	0x3c005fc0	0.007835329
96	0x3cde4112	0.027130637
97	0x3d2176b7	0.039419856
98	0x3cdb86b4	0.02679763
99	0x3cb2fc94	0.021848954
100	0x3d2b1760	0.04177034
101	0x3da2a4a6	0.079415604
102	0x3d7e864b	0.06213979
103	0xbd1125a7	-0.0354363
104	0xbd7fcbff	-0.062450405
105	0xbd594f3a	-0.053054072
106	0x3ced7962	0.028988544
107	0x3d89529c	0.067052096
108	0x3c7c7058	0.015407644
109	0x3cf6a3cd	0.030107403
110	0x3d37d92c	0.044884846
111	0x3d88bab7	0.06676238
112	0x3d12b23a	0.0358145
113	0x3d41638b	0.047214072
114	0xbddf8821	-0.109146364
115	0xbd6faa81	-0.058512215
116	0x3cca0f5a	0.024665523
117	0x3dd410c1	0.10354758
118	0xbcb6e4fb	-0.022325983
119	0x3d6eb2a0	0.05827582
120	0x3d93db7e	0.07219599
121	0x3db6c378	0.089240015
122	0x3d936272	0.07196511
123	0xbc9a00a0	-0.018799126
124	0xbd982923	-0.07429721
125	0xbd2b5df8	-0.041837662
126	0xbdfea844	-0.12434438
127	0xbcf48a42	-0.029851083
128	0xbcb4b3de	-0.022058424
129	0x3d025fb9	0.03182957
130	0xbd2028e2	-0.03910149
131	0x3cc24f73	0.023719525
132	0xbcf3283a	-0.029682267
133	0x3c72a47f	0.014809727
134	0x3d61d7b2	0.055137344
135	0xbddd8c59	-0.10817785
136	0xbd062f80	-0.032760143
137	0xbce4e00a	-0.027938861
138	0xbd049bc2	-0.032375105
139	0xbc91b5a7	-0.017786814
140	0xbc963b5e	-0.018338855
141	0x3c73f03d	0.01488882
142	0x3cb140a3	0.021637267
143	0xbd1ccf13	-0.03828342
144	0x3d5f2817	0.054481592
145	0x3861637b	5.373683e-05
146	0x3ce344db	0.027742794
147	0x3dd81530	0.10550916
148	0xbd923981	-0.07139874
149	0xbc045009	-0.0080757225
150	0x3d9d1ccf	0.076715104
151	0x3ccfa806	0.025348675
152	0x3c7236a7	0.014783538
153	0xbd983d25	-0.074335374
154	0x3dc463b6	0.09589331
155	0x3d22d55c	0.039754257
156	0x3da95a03	0.082691215
157	0xbd06c09c	-0.03289853
158	0xbdd846c4	-0.105603725
159	0xbc91e916	-0.01781134
160	0x3dcd9eab	0.10040029
161	0x3e2740b0	0.1633327
162	0x3d3ac3b0	0.04559678
163	0xbc7fb79b	-0.01560774
164	0x3dd2fbfd	0.10301969
165	0xbcbb8c95	-0.022894183
166	0x3d44267f	0.047888275
167	0xbdc1459a	-0.094371036
168	0xbd8dbde9	-0.06920988
169	0x3d85ff5d	0.06542847
170	0x3dfe112e	0.124056205
171	0xbc965b27	-0.018354012
172	0xbdb334f8	-0.08750337
173	0xbb2c5f50	-0.0026301928
174	0x3d8e20a7	0.06939822
175	0x3d35941e	0.04433071
176	0xbd3ef935	-0.04662438
177	0x3d7361a9	0.059419308
178	0xbc2335e0	-0.009961575
179	0xbd8ba949	-0.06819398
180	0x3ca0be0f	0.019621877
181	0x3cfac04f	0.030609278
182	0xbcfb309e	-0.03066283
183	0x3cf280e3	0.029602474
184	0xbca0ef57	-0.019645376
185	0xbd063691	-0.032766882
186	0xbcc2c513	-0.023775613
187	0x3dc9b909	0.09849746
188	0x3d85bfcc	0.06530723
189	0x3d912162	0.070864454
190	0xbdb1b977	-0.08677953
191	0x3cfa2b6a	0.03053828
192	0xbd0d391a	-0.034478284
193	0x3cd09925	0.02546365
194	0x3da414d5	0.08011786
195	0x3b20c4d0	0.0024531372
196	0x3d97b3bc	0.074073285
197	0x3d0c01f7	0.03418156
198	0xbcdd41d6	-0.027008932
199	0x3c5c1e28	0.013434924
200	0xbb43234b	-0.0029775675
201	0x3ccb3bc0	0.024808764
202	0x3bee126b	0.007265379
203	0xbd45a667	-0.048254397
204	0x3d1f2c43	0.03886057
205	0x3d23a482	0.03995181
206	0xbda6dcb3	-0.08147564
207	0x3d655efe	0.055998795
208	0xbd90fcc0	-0.07079458
209	0xbd172a68	-0.036905676
210	0xbdb9b48e	-0.09067641
211	0x3bebbaa5	0.0071938806
212	0x3d30ef89	0.04319719
213	0x3bf899f5	0.0075867125
214	0xbc33912d	-0.010959906
215	0xbc2fa974	-0.010721553
216	0x3e0b24d9	0.13588275
217	0xbd9d5f38	-0.07684177
218	0xbc8d4d83	-0.017248875
219	0x3d926807	0.07148748
220	0xbd42d21a	-0.04756365
221	0x3c05b8bb	0.008161719
222	0xbd7d5229	-0.061845932
223	0x3d2ea3f1	0.042636815
224	0xbd36da6d	-0.0446419
225	0xbcca5398	-0.024698064
226	0xbb4b3469	-0.003100658
227	0x3cc5ddd8	0.024153635
228	0x3d19885f	0.03748357
229	0x3d063e9e	0.03277456
230	0x3d36e210	0.044649184
231	0xbe09a167	-0.13440476
232	0x3c7113b0	0.0147141665
233	0xbd072e21	-0.033002976
234	0xbcb2c2d1	-0.021821411
235	0x3c5c940a	0.01346303
236	0xbcc78fc2	-0.024360541
237	0xbd07d8c0	-0.033165693
238	0xba71b7e4	-0.0009220822
239	0x3d0116cb	0.031515878
240	0x3c04f1ae	0.008114262
241	0x3d2f77de	0.042838924
242	0xbd30b90e	-0.043145232
243	0xbd692489	-0.05691961
244	0x3bf4bf0d	0.007469064
245	0x3d00436e	0.031314306
246	0xbd054df4	-0.032545045
247	0x3d6fd1ab	0.058549564
248	0x3c387dac	0.011260431
249	0x3cb8fb1f	0.022580681
250	0xbddbad2f	-0.107263915
251	0x3d808181	0.06274701
252	0xbcdc5544	-0.026896127
253	0x3d3cde97	0.046110716
254	0x3b8fb7d4	0.0043859277
255	0x3c4e1c9c	0.012580063

actor.2.bias f4 [78]
0	0xb9232dcb	-0.0001556195
1	0x393112d8	0.00016887055
2	0xb9b9e424	-0.00035455928
3	0x3b28924f	0.0025721972
4	0xbafbe348	-0.0019217515
5	0x3a9226f4	0.0011150525
6	0xbaef4cd9	-0.0018257155
7	0x3af13743	0.001840331
8	0x396d232a	0.00022615181
9	0x3ade435a	0.0016957328
10	0x00000000	0.0
11	0x00000000	0.0
12	0x00000000	0.0
13	0x00000000	0.0
14	0x00000000	0.0
15	0x00000000	0.0
16	0x00000000	0.0
17	0x00000000	0.0
18	0xba39c7c9	-0.000708696
19	0xb99f1a84	-0.000303466
20	0x3ae3e90d	0.001738818
21	0xba33bf82	-0.0006856845
22	0x00000000	0.0
23	0x00000000	0.0
24	0x00000000	0.0
25	0x00000000	0.0
26	0x00000000	0.0
27	0x00000000	0.0
28	0x00000000	0.0
29	0x00000000	0.0
30	0x00000000	0.0
31	0x00000000	0.0
32	0x00000000	0.0
33	0x00000000	0.0
34	0x00000000	0.0
35	0x00000000	0.0
36	0x00000000	0.0
37	0x00000000	0.0
38	0x00000000	0.0
39	0x00000000	0.0
40	0x00000000	0.0
41	0x00000000	0.0
42	0x00000000	0.0
43	0x00000000	0.0
44	0x00000000	0.0
45	0x00000000	0.0
46	0xbaeaa3f2	-0.0017901643
47	0x00000000	0.0
48	0x00000000	0.0
49	0x00000000	0.0
50	0x00000000	0.0
51	0x00000000	0.0
52	0x3aaf2c98	0.001336473
53	0x00000000	0.0
54	0x3af04759	0.001833181
55	0x00000000	0.0
56	0x00000000	0.0
57	0x00000000	0.0
58	0x00000000	0.0
59	0x00000000	0.0
60	0xbab1b02e	-0.0013556534
61	0x00000000	0.0
62	0x00000000	0.0
63	0x00000000	0.0
64	0x00000000	0.0
65	0x00000000	0.0
66	0x00000000	0.0
67	0x00000000	0.0
68	0x00000000	0.0
69	0x00000000	0.0
70	0x00000000	0.0
71	0x00000000	0.0
72	0x00000000	0.0
73	0x00000000	0.0
74	0x00000000	0.0
75	0x00000000	0.0
76	0x00000000	0.0
77	0x00000000	0.0

critic.1.weight f4 [128, 1024]
0	0xbd0769bc	-0.03305982
1	0xbcc23e46	-0.023711335
2	0x3c9150c9	0.017738717
3	0x3de56802	0.112014785
4	0xbb70810d	-0.0036698014
5	0x3cb811d1	0.022469433
6	0xbd7b1933	-0.06130333
7	0xbd126e76	-0.035749875
8	0x3da2c784	0.07948211
9	0xbb3595b2	-0.0027707634
10	0x3d06d1d9	0.03291497
11	0x3d4d88c9	0.050179277
12	0x3ab2ed18	0.0013650982
13	0xbc3d03d3	-0.011536556
14	0xbdc2566b	-0.09489139
15	0x3d833ffa	0.06408687
16	0x3c8a9e7e	0.016921278
17	0xbdc5b548	-0.09653717
18	0x3c318237	0.010834268
19	0x3d034767	0.032050516
20	0xbc1d4f0e	-0.009601368
21	0x3cc27c54	0.023740925
22	0x3c8d3db3	0.017241335
23	0xbb7c241f	-0.0038473678
24	0x3d417d41	0.047238592
25	0x3ccc8b7d	0.024968857
26	0xbd310dc0	-0.043226004
27	0xbd33e92c	-0.043923542
28	0xbc3dfe5d	-0.011596289
29	0xbd0ba20e	-0.034090094
30	0x389d4647	7.4994336e-05
31	0x3d1361f2	0.03598208
32	0x3d199970	0.037499845
33	0x3cd7f7ae	0.02636322
34	0x3d0b8b1f	0.034068223
35	0xbd9a0144	-0.07519773
36	0xbd1e669c	-0.038672075
37	0xbc6456d6	-0.013936719
38	0x3d205dfa	0.039152123
39	0x3d80605e	0.062683806
40	0x3c1e9641	0.009679378
41	0xbc64c4e9	-0.013962963
42	0x3b937a8c	0.0045006927
43	0x3dcc6c64	0.09981611
44	0x3d2a10e0	0.04152
45	0xbda436d2	-0.08018269
46	0x3d22a93b	0.039712172
47	0x3d1fa7db	0.03897844
48	0x3c995937	0.018719299
49	0xbc034150	-0.008011177
50	0x3d912a35	0.070881285
51	0x3cd46d77	0.025931103
52	0xbc8bd073	-0.01706717
53	0x3d12e3ba	0.03586171
54	0x3c8cb9fc	0.017178528
55	0xbc1e4d16	-0.009661933
56	0xbb558549	-0.0032580665
57	0x3d2735d5	0.040822823
58	0x3ccdead4	0.025136389
59	0xbcc47a93	-0.02398423
60	0x3c85c11f	0.016327439
61	0x3ca41fab	0.020034632
62	0xbd1d398f	-0.03838497
63	0x3ccef005	0.025260935
64	0xbbf830e8	-0.0075741895
65	0x3d6fc5c3	0.05853821
66	0xbc2cbcc5	-0.010543053
67	0xbc746fa7	-0.014919198
68	0xbd365f2b	-0.044524353
69	0x3d0f474a	0.034980096
70	0x3caac873	0.020847535
71	0x3dc93334	0.09824219
72	0xbd020ec4	-0.031752363
73	0x3bd59a66	0.00651865
74	0x3deb6da6	0.11495523
75	0x3b6af1fc	0.00358498
76	0xbc8a9849	-0.016918318
77	0xbb501adb	-0.0031754288
78	0xbd168a68	-0.03675309
79	0x3c159797	0.00913038
80	0xbcaf0afc	-0.021367542
81	0xbd640c2c	-0.05567567
82	0xbd1359b9	-0.035974238
83	0x3cdd9055	0.027046362
84	0x3cc4c51b	0.024019768
85	0xbd9358bc	-0.07194659
86	0x3d51919a	0.051164247
87	0x3c1ece0f	0.009692683
88	0x3cb5d73d	0.02219736
89	0x3d0faf8e	0.03507953
90	0x3d2912f4	0.04127784
91	0x3d2b4b57	0.041819897
92	0x3b85ec24	0.004086988
93	0x3ba69154	0.0050832424
94	0xbcdc46ac	-0.026889168
95	0x3da72df3	0.08163061
96	0x3b681bb3	0.00354169
97	0xbbb9b41f	-0.005667224
98	0xbdb59c5c	-0.08867714
99	0x3dc4e9e9	0.09614927
100	0x3d2ac1fc	0.041688904
101	0xbcf8f278	-0.030389056
102	0xbc8709b6	-0.016484123
103	0xbd31bab0	-0.04339093
104	0xbc561d0a	-0.013068447
105	0x3d702770	0.05863136
106	0xbd993910	-0.07481587
107	0x3d234818	0.039863676
108	0xbb663e32	-0.0035132286
109	0xbd971074	-0.07376185
110	0xbd4c9e25	-0.049955506
111	0x3d004b5c	0.03132187
112	0x3d8c8a2a	0.0686229
113	0xbc9ba57f	-0.018999813
114	0xbbb3c8d3	-0.0054865866
115	0xbd64273b	-0.055701476
116	0x3ca30f8d	0.019904876
117	0x3b8a4408	0.0042195357
118	0x3d524eba	0.05134461
119	0x3d384402	0.044986732
120	0xbd506e10	-0.050886214
121	0x3b854894	0.00406749
122	0xbc8cb65b	-0.017176798
123	0x3bc01b49	0.0058626276
124	0x3c772bd2	0.015086131
125	0xbbb051bc	-0.0053808372
126	0xbd2f6658	-0.042822212
127	0x3cce3f8f	0.025176791
128	0xbd9daca9	-0.07698948
129	0xbd46b2a1	-0.048510198
130	0x3cc7acc0	0.024374366
131	0x3c2f5687	0.010701782
132	0xbca6f748	-0.020381585
133	0xbc5657e1	-0.013082475
134	0x3cc8b781	0.024501564
135	0x3b3e6456	0.0029051504
136	0xbd0b8af4	-0.034068063
137	0xbad4540b	-0.0016199363
138	0x3c2bc2e4	0.010483477
139	0xbbcc721e	-0.0062391898
140	0x3d14ffc5	0.036376733
141	0x3d0ab5c5	0.033864755
142	0x3c97b119	0.018517064
143	0xbc82b4cb	-0.01595535
144	0x3cb41732	0.021983717
145	0x3d0a7e5b	0.03381191
146	0xbc4a1937	-0.012335113
147	0x3add5a9d	0.0016887967
148	0x3ca7d1ce	0.020485785
149	0xbcc00a13	-0.023442304
150	0x3d09eb49	0.03367165
151	0xbd536ba7	-0.051616337
152	0xbb994054	-0.004676858
153	0x3d1ecf89	0.03877214
154	0x3d1ec82b	0.038765114
155	0xbc9635d4	-0.018336214
156	0x3c3328f5	0.010935058
157	0xbb5fb0e9	-0.0034132546
158	0xbd938a03	-0.07204058
159	0x3d74975d	0.059714664
160	0xbd0b8bed	-0.03406899
161	0x3d36f3f9	0.044666264
162	0xbd8c785a	-0.06858893
163	0x3d1181b1	0.035524074
164	0x3d247575	0.04015108
165	0xbcedb316	-0.029016059
166	0x3da87798	0.08225936
167	0x3d8aebaa	0.067832306
168	0x3d5d977b	0.05409954
169	0xbdba3995	-0.09093014
170	0x3d1ba358	0.037997574
171	0x3be0d10a	0.006860857
172	0xbc95c71c	-0.01828342
173	0xbd1c51d1	-0.038163964
174	0xbd8a7f02	-0.06762506
175	0x3da5d091	0.080964215
176	0x3ca50727	0.020145012
177	0x3c961003	0.018318182
178	0xbc929ddf	-0.017897544
179	0x3d1ff554	0.039052323
180	0x3d25c393	0.040469717
181	0xbcd6c81a	-0.026218463
182	0xbd4ece3d	-0.050489653
183	0xbb98e232	-0.0046656365
184	0x3ce7eebb	0.028312078
185	0x3ba9978c	0.0051755365
186	0x3d06cd3f	0.03291058
187	0x3bf86894	0.007580826
188	0x3c1503b9	0.009095126
189	0x3cb32e5b	0.02187269
190	0x3c7ca3e8	0.015419938
191	0xbca15cad	-0.019697512
192	0x3b97893d	0.0046245144
193	0x3cfb584d	0.030681754
194	0x3da1a4b0	0.0789274
195	0x3b31cb41	0.0027129205
196	0x3da12f5e	0.07870363
197	0x3b945a38	0.0045273565
198	0x3d220d51	0.03956348
199	0xbd3a19eb	-0.045434874
200	0xbd802f23	-0.062589906
201	0x3d660735	0.056159217
202	0xbb0ba9e3	-0.0021310977
203	0x3c6ab62e	0.014325662
204	0xbccb763b	-0.02483665
205	0x3d3fe902	0.046853073
206	0xbc4380ae	-0.011932535
207	0xbd475e2e	-0.0486738
208	0x3dbeb5f4	0.093120486
209	0x3d6736d1	0.05644876
210	0x3c01040d	0.007874501
211	0x3dad4020	0.084594965
212	0xbcd6941a	-0.026193667
213	0x3c4a6a23	0.0123544065
214	0xbafc31cc	-0.0019240915
215	0x3c638464	0.013886545
216	0x3d184e46	0.037184022
217	0x3c6102cd	0.013733578
218	0x3d079490	0.033100665
219	0xbcc4802c	-0.023986898
220	0xbcb227e5	-0.021747539
221	0xbbe48167	-0.006973434
222	0x3c6e494a	0.014543841
223	0xbce9834c	-0.02850499
224	0xbd71b1b8	-0.059007376
225	0xbae6d90a	-0.001761229
226	0xbbd92a8e	-0.0066273874
227	0xbda96c0c	-0.082725614
228	0xbb2ea796	-0.0026650182
229	0xbc6f445c	-0.0146037005
230	0x3d2f4357	0.04278883
231	0xbd734950	-0.059396088
232	0xbd16a9d1	-0.036783043
233	0x3d55cf98	0.05219993
234	0x3d84d65a	0.06486197
235	0x3c9d95ec	0.019236527
236	0x3d4e322c	0.050340816
237	0xbc37a5a2	-0.0112089235
238	0x3958b873	0.00020668078
239	0x3ca0f30a	0.01964714
240	0x3cd30fe2	0.02576441
241	0x3e1013f3	0.1407011
242	0x3bb46f5c	0.005506439
243	0xbd1efffb	-0.03881834
244	0x3cf75f86	0.030196916
245	0xbd2d8dd7	-0.042371597
246	0x3d90e3bd	0.07074688
247	0x3d95944f	0.07303678
248	0x3d5dfdd9	0.054197166
249	0xbd2e7bf0	-0.042598665
250	0x3cc9498e	0.024571206
251	0x3d6dc308	0.058047324
252	0xbd2bf61f	-0.041982766
253	0xbcd33120	-0.02578026
254	0xbd3840e1	-0.04498375
255	0xbb68f671	-0.003554728

critic.1.bias f4 [128]
0	0x39d71195	0.00041021095
1	0x38a0bef4	7.664962e-05
2	0x3846987b	4.7348887e-05
3	0x387adf14	5.9812402e-05
4	0xb8b7cf30	-8.764712e-05
5	0x00000000	0.0
6	0xba8b1974	-0.0010612444
7	0xb8d982ec	-0.000103717524
8	0x3850464e	4.965654e-05
9	0x38989785	7.2761475e-05
10	0x00000000	0.0
11	0x00000000	0.0
12	0xb8af4e44	-8.3592284e-05
13	0x00000000	0.0
14	0xbaa3de61	-0.0012502187
15	0xba740bff	-0.0009309649
16	0x00000000	0.0
17	0xba08c23b	-0.0005216931
18	0xb8cd8166	-9.799264e-05
19	0xb8e46689	-0.00010890986
20	0xb8b433d8	-8.5927255e-05
21	0xb8b1c5e4	-8.476878e-05
22	0x00000000	0.0
23	0xb96ba993	-0.00022474518
24	0x00000000	0.0
25	0x00000000	0.0
26	0xb982d819	-0.00024956538
27	0xb55ce4c0	-8.228926e-07
28	0xb9ebab4e	-0.00044950325
29	0x00000000	0.0
30	0xb9509c67	-0.0001989469
31	0xb8b1c328	-8.4763684e-05
32	0x00000000	0.0
33	0xba2828ae	-0.0006414753
34	0xb8adfdde	-8.296569e-05
35	0xb902c61f	-0.00012471572
36	0xb8bc3daa	-8.9760244e-05
37	0x3902e479	0.00012482879
38	0xbaf5256d	-0.001870317
39	0xb8ada3ca	-8.279791e-05
40	0x00000000	0.0
41	0x3894fd95	7.104423e-05
42	0x3680b358	3.8355756e-06
43	0x389ffba9	7.628586e-05
44	0xba367b08	-0.0006961082
45	0x00000000	0.0
46	0xba7ed8da	-0.00097216445
47	0x00000000	0.0
48	0xb8acf1c1	-8.246629e-05
49	0xb8b16659	-8.4590814e-05
50	0x00000000	0.0
51	0xb95f803f	-0.00021314713
52	0xb8ac7ae1	-8.224487e-05
53	0xb92471a0	-0.00015682587
54	0x00000000	0.0
55	0xb9f62fea	-0.00046956475
56	0xb9c4a114	-0.00037504046
57	0xbab08130	-0.0013466235
58	0xba4f44d2	-0.00079066784
59	0xb77df60a	-1.5137261e-05
60	0x00000000	0.0
61	0xb8ecb4fd	-0.000112870686
62	0xb88a7749	-6.6025714e-05
63	0x00000000	0.0
64	0x38952567	7.1118404e-05
65	0xb96e8500	-0.00022746995
66	0x00000000	0.0
67	0xb8ae708b	-8.317929e-05
68	0xb8aae89e	-8.14956e-05
69	0xba6b0827	-0.00089657534
70	0xb8b6c8dc	-8.715849e-05
71	0xb8ccd015	-9.766236e-05
72	0xb9bccac9	-0.0003600924
73	0x38965534	7.168428e-05
74	0xba8a1a80	-0.0010536462
75	0xb8610dfb	-5.36572e-05
76	0xb9fa2832	-0.00047713664
77	0xb8a9634e	-8.077045e-05
78	0x00000000	0.0
79	0x00000000	0.0
80	0x389f1ca1	7.5870434e-05
81	0x389019f0	6.871286e-05
82	0xb6c6cd38	-5.9247504e-06
83	0x00000000	0.0
84	0xb9e74178	-0.0004410853
85	0xb8cc96cb	-9.7555654e-05
86	0xb8ae854c	-8.321795e-05
87	0x38e64d26	0.00010981625
88	0x3899abe8	7.3276286e-05
89	0x38896bf7	6.552779e-05
90	0xba84ee25	-0.0010141773
91	0x388f918a	6.84588e-05
92	0xb8aa337e	-8.115823e-05
93	0x38934d7a	7.023937e-05
94	0xba42b136	-0.0007426919
95	0x00000000	0.0
96	0x00000000	0.0
97	0xb95ba164	-0.0002094559
98	0x00000000	0.0
99	0x00000000	0.0
100	0xba3b8958	-0.00071539497
101	0x3a3ac439	0.00071245764
102	0xb9baa314	-0.00035598187
103	0x00000000	0.0
104	0x38470095	4.744584e-05
105	0xb8d1e73e	-0.00010008969
106	0x00000000	0.0
107	0xb99f6203	-0.00030399868
108	0x389d6d76	7.506732e-05
109	0xba940850	-0.0011293981
110	0x00000000	0.0
111	0x389db3f6	7.519864e-05
112	0x00000000	0.0
113	0xb9760a78	-0.00023464288
114	0xba771348	-0.00094251754
115	0x389d3485	7.496126e-05
116	0xb8ad32a4	-8.2587154e-05
117	0x387ce58f	6.0295275e-05
118	0xb8422591	-4.628819e-05
119	0x00000000	0.0
120	0x00000000	0.0
121	0xb94bd649	-0.00019439416
122	0xba7938ed	-0.0009507079
123	0x00000000	0.0
124	0x388b8492	6.65273e-05
125	0xb9516e99	-0.00019972994
126	0x00000000	0.0
127	0x3886ce88	6.428087e-05

critic.3.weight f4 [1, 128]
0	0x3d139bfd	0.036037434
1	0xbe46dff4	-0.19421369
2	0xbc44b1f7	-0.012005321
3	0xbca0b9fe	-0.019619938
4	0x3d03e16a	0.032197393
5	0xbe33ba39	-0.17551507
6	0xbb80232c	-0.003910443
7	0xbd4e06fe	-0.050299637
8	0xbc68e4ea	-0.014214734
9	0xbd8b0f8d	-0.067900755
10	0x3dbe4890	0.09291184
11	0x3cf82702	0.030292038
12	0x3d7f6e78	0.06236121
13	0xbdd6a128	-0.10479957
14	0xbd960891	-0.07325853
15	0x3d51f942	0.0512631
16	0xbdcc67cd	-0.09980736
17	0xbd3627aa	-0.04447142
18	0x3e2ec21a	0.17066231
19	0x3c28db0f	0.010306134
20	0x3d364c5e	0.044506423
21	0x3d361a73	0.044458818
22	0xbe5654e4	-0.2093082
23	0xbcae38a6	-0.021267246
24	0x3a4536ed	0.0007523138
25	0xbe72429a	-0.23658219
26	0x3cef4d42	0.029211644
27	0xbd239be2	-0.039943583
28	0x3d7ac40b	0.061222117
29	0x3d054ddb	0.032544952
30	0x3b4525eb	0.0030082415
31	0x3d4c337d	0.04985379
32	0x3c258c67	0.010104275
33	0xbd72890c	-0.05921273
34	0x3d939dd7	0.0720784
35	0x3dca4cb3	0.098779105
36	0x3cdfe918	0.027332827
37	0x3b2026df	0.0024437231
38	0xbde2eb1d	-0.110800005
39	0xbda54662	-0.08070065
40	0x3cb6e1f7	0.022324545
41	0xbd511771	-0.051047746
42	0x3b1e7baf	0.0024182608
43	0xbe2ffc0d	-0.17185993
44	0x3d964a96	0.07338445
45	0x3ce38a63	0.027775949
46	0xbe45fad9	-0.19333972
47	0xbde4ed88	-0.11178118
48	0x3d995db6	0.07488577
49	0x3d4a067f	0.0493226
50	0x3e01bda5	0.1267
51	0x3dd35db6	0.10320608
52	0x3da2e61f	0.07954048
53	0x3c1c9993	0.009558099
54	0x3d4a79a4	0.04943241
55	0x3d806f57	0.062712364
56	0xbdebed98	-0.11519927
57	0xbd9e6db2	-0.077357665
58	0xbc5ee5f2	-0.013604628
59	0xbc224a1c	-0.009905364
60	0x3dbb96a5	0.091595925
61	0x3c03a384	0.008034591
62	0x3a3aa3c2	0.0007119739
63	0xbd23067d	-0.03980111
64	0xbd4a7385	-0.049426574
65	0x3cc191bd	0.023629064
66	0xbc26fe64	-0.010192487
67	0x3d78665d	0.060644496
68	0x3dd3373e	0.10313271
69	0x3cc93044	0.024559148
70	0x3d16d880	0.036827564
71	0x3c87c01b	0.016571095
72	0x3a8c7577	0.001071616
73	0xbdfa7f39	-0.12231297
74	0x3d540c91	0.051769797
75	0xbb240d09	-0.0025032184
76	0x3e4f50be	0.20245644
77	0x3e10628e	0.14100096
78	0x3e8350d7	0.25647613
79	0xbcf4df5b	-0.02989166
80	0xbe0ae054	-0.13562137
81	0xbd10c11f	-0.035340425
82	0x3cba402e	0.022735681
83	0xbc7d66b7	-0.015466384
84	0x3e07085f	0.13186787
85	0x3c814d82	0.015784029
86	0x3d8aea4a	0.06782968
87	0xbd159526	-0.036519192
88	0xbd94247d	-0.07233522
89	0xbce94ff5	-0.02848051
90	0xbdc5ef7f	-0.09664821
91	0xbd416a85	-0.047220726
92	0x3dfbe537	0.12299579
93	0xbd404be7	-0.046947386
94	0x3e2119c9	0.15732493
95	0x3ce852c2	0.028359775
96	0x3e1b6af3	0.15177517
97	0x3de02d19	0.10946102
98	0xbe2b1cbe	-0.16710183
99	0xbdabd310	-0.08389866
100	0x3c904f4d	0.017615939
101	0x3e21647c	0.15760988
102	0xbd3fbd66	-0.046811484
103	0x3d2d332e	0.042285137
104	0x3d6487aa	0.05579344
105	0x3c542b6f	0.0129498085
106	0xbd7516e9	-0.059836302
107	0x3da08e32	0.078396216
108	0xbddc9b21	-0.10771776
109	0x3ddd9fe6	0.10821514
110	0xbc021117	-0.007938645
111	0xbde53c88	-0.11193186
112	0xbd3a0c3d	-0.045421828
113	0x3ac19d98	0.0014771698
114	0xbe3cb62c	-0.18428868
115	0xbdcf4169	-0.10119898
116	0x3da55b79	0.08074088
117	0xbcaa1eee	-0.020766702
118	0xbc4f80c7	-0.01266498
119	0x3d9440f4	0.07238951
120	0x3dde222b	0.10846361
121	0xbd92f6a2	-0.07175948
122	0x3ca95e05	0.020674715
123	0xbd8ebd43	-0.069696926
124	0xbd03ad30	-0.032147586
125	0x3df6f92c	0.120592445
126	0xbd220f21	-0.03956521
127	0xbdbb7835	-0.09153787
