experiments/ppo_hrl/models/MicroRTSGridModeVecEnv__ppo_utils__1__1721366578/harvest_agent.pt (torch, 802518 bytes, 11 tensors)

encoder.1.weight f4 [32, 30, 3, 3]
000000 cf 61 c6 bc 95 9e 93 3d 4f 6a 90 3d ca 4d e2 3d
       -0.02421656 0.072079815 0.07051527 0.11049993
000010 eb 81 70 bc 1c 6b 99 3d 07 c4 17 3d e6 a5 9a bd
       -0.014679412 0.074911326 0.03705218 -0.07551174
000020 60 e2 4d bd 7c e2 29 bd 44 9a 8a 3d 0c 8f cc 3d
       -0.050264716 -0.041475758 0.06767705 0.099882215
000030 53 e6 7d 3d 7a 96 b2 3d b2 cb 33 bd a8 1b 00 3e
       0.061987232 0.087201074 -0.04389543 0.1251055
000040 0a 81 8a bd 23 08 e0 3d f8 d1 c4 bd fc fe ea 3d
       -0.067628935 0.10939052 -0.09610361 0.11474416
000050 3c 3d 99 bd 44 79 ba 3d e0 36 60 3e b3 ad 58 bc
       -0.07482383 0.09105161 0.21895933 -0.013225007
000060 6f b5 c8 3d 2a f3 d9 bd 9d 43 1b 3c 1e 25 3e bd
       0.09800231 -0.10642083 0.0094765695 -0.046422116
000070 d2 ed 63 bd 95 59 19 be 9b 18 69 bd 1c c7 96 3b
       -0.055646725 -0.14975579 -0.05690823 0.0046013724
000080 4f 1c e7 3a 1f fd 03 3e e2 3c ec 3d 6e f4 51 bd
       0.0017632338 0.12889527 0.1153505 -0.051258497
000090 1e ee 11 3e db cb 11 be f4 3f 04 3d 30 da a0 bc
       0.14250991 -0.14237921 0.032287553 -0.01963529
0000a0 5e 5a 8d 3c 3f ef 33 3d 39 fc 32 bd 9d 7c 62 3e
       0.017255004 0.043929335 -0.04369757 0.22117849
0000b0 52 a8 0c be 8c c0 8e 3d 34 ce 02 3e 91 72 d2 3d
       -0.13736084 0.06970319 0.12773973 0.10275758
0000c0 e5 37 77 be 58 f5 21 3e f8 30 ad bd 44 0a 1f be
       -0.24142416 0.15816247 -0.08456606 -0.1553126
0000d0 9d a0 b8 3d c8 84 5e bd 16 05 10 3e 0b 4a 90 3d
       0.090150096 -0.05432585 0.1406444 0.070453726
0000e0 9f ca cc bc f1 2d 00 be 0a 65 3c be 14 a3 f6 bd
       -0.024998961 -0.12517525 -0.18397918 -0.120428234
0000f0 db 62 ac bb 1a 83 d5 bc 8e 0e d2 bc 15 2d 09 bd
       -0.005260808 -0.02606349 -0.025641706 -0.03349026
000100 f9 ae 7c be 00 b0 0d 3d 80 9f 6b 3d a4 98 d0 bd
       -0.24676122 0.034591675 0.057525158 -0.10185364
000110 e1 bd 61 bd 11 30 2c be 38 e6 90 3d 4b 12 25 3d
       -0.055112723 -0.16815211 0.07075161 0.04030065
000120 c0 4b 23 3d 7b 77 56 3d 15 69 59 3d d7 23 c8 bd
       0.039867163 0.05236004 0.05307873 -0.09772461
000130 99 52 36 bd cd 30 80 bd 4f da ca 3d 13 d1 ba 3d
       -0.044512365 -0.06259308 0.0990492 0.09121909
000140 71 5c aa bd d6 0c 98 bd b6 22 82 bd ee 6f 4f be
       -0.08318413 -0.07424323 -0.06354277 -0.20257542
000150 36 0b cd bd f2 f0 d4 3d ba 13 20 bd e8 30 ed 3c
       -0.10011904 0.10397519 -0.039081313 0.028953984
000160 00 eb 85 bb a9 2a f0 3c db 89 27 3d 17 57 7a bc
       -0.004086852 0.029317217 0.040902954 -0.015279553
000170 19 15 ac bc 02 02 00 3e 1e 78 de 3d 20 bb eb 3d
       -0.021006154 0.12500766 0.10862754 0.11510301
000180 fb c7 9e bd 9a ba dc bd 15 f3 db 3a e9 3e 2d bd
       -0.07752987 -0.10777779 0.0016780818 -0.042296324
000190 05 f1 2d 3d d2 c6 3e bb 5f 59 71 3a a7 13 35 be
       0.042466182 -0.0029110205 0.0009206738 -0.17683278
0001a0 eb f5 4d be 67 58 04 bd 7e 64 1c 3d 69 34 2c bc
       -0.20113342 -0.03231087 0.038181774 -0.010510542
0001b0 e0 4e 1a bd ff a0 d6 bd 71 48 b5 bc b4 e0 36 3d
       -0.037672877 -0.10479926 -0.02212927 0.044647887
0001c0 41 0f c4 bd 4f a7 3c 3b f6 d9 07 bc d4 6d 4e 3e
       -0.09573222 0.0028786247 -0.008291712 0.20159084
0001d0 d4 6f a4 3b 56 18 06 be 21 3a 66 bd 45 5f 8a 3d
       0.0050182138 -0.13095221 -0.05620778 0.067564525
0001e0 72 26 22 3e 17 02 7e bc d5 8b c0 3d 1a 2f e7 bd
       0.15834978 -0.015503428 0.09401671 -0.11288281
0001f0 93 c8 13 bc 70 5f d4 bd 2e 10 d9 bc 95 fb 75 3d
       -0.009019989 -0.10369766 -0.026496973 0.06005438
000200 41 41 45 3d e6 71 b8 3d 17 85 6f bd fb 81 95 3d
       0.048157934 0.090060994 -0.058476534 0.073001824
000210 f0 96 b7 3d 59 a0 83 bd 50 da 3e bd f0 33 b2 3d
       0.08964336 -0.06427068 -0.046594918 0.087013125
000220 b8 fe 89 3d c9 86 c0 bd 84 2e 98 bd c5 14 c4 3c
       0.06738037 -0.09400708 -0.07430747 0.023935685
000230 a8 dd 5e bd 2b 55 5f bd 0a 4e 09 be 34 e7 01 be
       -0.054410607 -0.054524582 -0.13408676 -0.12685853
000240 fe 2b 03 3e ce d7 32 be b0 5e 39 3e ad 68 d3 3c
       0.1280975 -0.17465135 0.18102527 0.02580675
000250 2d a4 4e bb cd 1c c9 3d 5c a9 c7 bc ac ad 78 bc
       -0.0031530962 0.098199464 -0.024372749 -0.015178125
000260 cf 59 ae bc 0b fa c1 bd 5a 51 b5 3d c2 56 94 3d
       -0.021283058 -0.0947152 0.08853407 0.0724311
000270 7b aa 0b bd 2e 22 45 bd a0 c4 47 3d 44 9f b3 bd
       -0.03409813 -0.0481283 0.0487715 -0.08770612
000280 1f d9 a8 3d b4 d8 ff 3d db 8a b8 bb 0b 91 bd bd
       0.082445376 0.12492505 -0.0056317872 -0.092561804
000290 d3 13 f7 bd e8 e4 e7 bd ff a8 2a bd 67 cb c6 3c
       -0.12064328 -0.11322957 -0.041665073 0.024266912
0002a0 b0 2c 66 3c ec 05 ce bc 19 f9 b3 bd c3 62 18 bd
       0.01404874 -0.025149308 -0.08787746 -0.03720356
0002b0 dc 72 00 be be ba 46 bd dc 6f 7e 3d 07 bb 25 bd
       -0.12543815 -0.048517935 0.062118396 -0.040461566
0002c0 00 3c c3 3d 10 dd 0f 3c d4 31 c8 bd e7 00 32 bd
       0.095329285 0.008780733 -0.09775129 -0.04345789
0002d0 b9 d9 47 bc 03 c4 9a bb 4a ba c3 3d 26 92 d9 3d
       -0.012197905 -0.0047230734 0.09557016 0.10623579
0002e0 9b 51 51 bc a6 10 be 3c 52 0a 6c 3d 07 ff 32 3d
       -0.012775804 0.023201298 0.05762703 0.043700244
0002f0 56 8b a5 bc 94 ba d1 3c 81 9c a5 bd f8 b6 23 3e
       -0.020208042 0.025601663 -0.080864914 0.15987766
000300 10 b3 77 bc b8 f0 19 bb 96 11 37 3d 76 62 0c 3e
       -0.015118375 -0.0023489427 0.044694506 0.13709435
000310 48 34 44 3d 04 dc b5 3c 2f 33 c3 3d 01 b7 c6 3d
       0.04790142 0.022199638 0.09531247 0.09702874
000320 90 b7 dc bb c5 1b 29 bd 85 bd f1 bb 4a 19 dd 3d
       -0.0067357495 -0.04128625 -0.007377329 0.10795839
000330 72 86 f3 bc f2 54 2b 3e d0 5d 3b bd ca cd 95 bc
       -0.029727194 0.16731623 -0.045743763 -0.018286604
000340 e7 92 31 3e 26 f0 ed bd 38 09 33 be 90 40 e7 bb
       0.17341195 -0.1161807 -0.17483985 -0.007057257
000350 98 b0 39 3d ab d1 21 bd fd 03 b7 bd 80 01 18 be
       0.04533443 -0.039506596 -0.089363076 -0.14844322
000360 6f a3 17 bc f8 f4 45 b9 b6 33 d6 3d b0 a3 29 be
       -0.009255274 -0.00018878642 0.10459082 -0.16566348
000370 16 66 2b bc 68 75 d5 3c c8 6d 9f bd f6 1b 9e 3d
       -0.010461351 0.02605696 -0.07784611 0.07720177
000380 33 6e 7d 3d 62 b6 9d 3c b9 f2 0e 3a aa b5 78 3d
       0.061872672 0.019252006 0.00054530386 0.060720123
000390 5f b5 68 3d 4e bc 10 3d 49 d9 92 3d dc d5 19 bd
       0.056813594 0.03533583 0.0717035 -0.037557468
0003a0 70 03 1c 3e ba c2 a1 bd e9 b7 43 bc 40 3d 90 bd
       0.15235686 -0.07898469 -0.011945703 -0.070429325
0003b0 94 b0 0e 3e ff cc ae 3d 4f 00 11 bd 6e 0c 98 bc
       0.13934547 0.08535194 -0.035400685 -0.018560614
0003c0 f8 14 2d bd 51 a0 8f 3d bd 4c 83 3c 76 54 19 bd
       -0.042256325 0.07013 0.016027803 -0.037434064
0003d0 02 88 15 3d 0e 19 0f 3d f9 6e 5a 3c 72 32 bb bc
       0.03650666 0.034936003 0.013332122 -0.022851203
0003e0 4b 1e 07 3e 5c 70 a0 bd c1 8e 50 bd 7e 6b 4f bd
       0.1319515 -0.07833931 -0.05091739 -0.050639622
0003f0 ce 0d 4f 3d 91 dc 5b 3d 08 a1 b6 bd ad e8 9b 3c
       0.050550275 0.053677145 -0.08917433 0.019031847

encoder.1.bias f4 [32]
000000 8a 60 94 38 65 5f 12 bb ae 2a 94 ba 81 3c 61 3a
       7.075172e-05 -0.0022334692 -0.0011304223 0.00085920846
000010 5e 76 db 39 3b b0 a3 ba 89 f6 e6 ba cb 0f a5 38
       0.00041859125 -0.0012488434 -0.0017621081 7.870755e-05
000020 04 22 49 b7 c4 d7 07 ba 39 7b 9d b8 30 de fc b8
       -1.19884535e-05 -0.0005181993 -7.5092954e-05 -0.00012057682
000030 cc 60 7d 39 c6 48 3f ba 89 88 c9 b9 dc 71 21 3a
       0.0002416402 -0.0007296916 -0.00038439434 0.0006158629
000040 6c da e2 b8 d2 23 7b b8 d1 e9 eb ba 50 92 1d b7
       -0.00010817204 -5.9876424e-05 -0.001799876 -9.391995e-06
000050 15 46 dc b9 f5 dc 88 ba f2 16 33 38 64 2a 4e 39
       -0.00042013885 -0.0010441827 4.2698295e-05 0.00019661483
000060 aa 80 b3 b8 39 57 86 3a e3 e8 af 3a 16 93 57 39
       -8.559351e-05 0.0010249383 0.0013420846 0.00020558792
000070 96 39 c4 b9 73 3d d2 39 b6 c3 a2 b9 51 64 d7 3a
       -0.00037426938 0.00040100105 -0.00031044864 0.0016433095

encoder.4.weight f4 [64, 32, 3, 3]
000000 87 08 20 be 3e b0 b4 bd b1 ee 1f 3d 0b 38 82 3d
       -0.15628253 -0.08822678 0.039045993 0.063583456
000010 e9 a6 85 3d 26 18 26 3d 6f 47 bf bd b9 26 d5 bd
       0.06525976 0.040550373 -0.09339797 -0.104077764
000020 a3 36 13 3c 02 33 0a 3e 7c a0 f9 3d bc 38 17 be
       0.008985194 0.1349602 0.12188813 -0.14767736
000030 c4 1f 44 be 06 9d 5b bd a0 66 b5 bd b8 56 83 3d
       -0.19152743 -0.053616546 -0.08857465 0.06413025
000040 85 48 a1 bd 16 76 93 bd f6 98 e9 3d e9 7f f3 3c
       -0.0787516 -0.072002575 0.11406128 0.029724078
000050 19 82 1d be 20 58 fb 3b 19 3e a5 3d d6 ab 85 bd
       -0.1538166 0.0076704174 0.08068485 -0.06526916
000060 48 2d 58 bd 35 2d 58 3c 40 5f 08 3d 86 14 e3 bd
       -0.05277756 0.013194372 0.033293962 -0.11087899
000070 79 a1 be bd 37 62 a7 bc ed 0d 3f bd 43 b1 90 3d
       -0.09308142 -0.020432575 -0.04664414 0.0706506
000080 8c 57 77 bd f0 b7 05 be 0a ff c3 bd 57 35 ed bc
       -0.060386226 -0.13058448 -0.09570129 -0.028956098
000090 6f e9 34 3e 94 8c f9 bc 59 3c 1c 3e 34 8b 13 bc
       0.17667173 -0.03046254 0.15257396 -0.009005357
0000a0 07 d5 d9 bd 42 fa 04 be 43 bd 16 be 8f ff e2 bc
       -0.10636335 -0.12986091 -0.14720635 -0.02770975
0000b0 54 b2 bb bc 5c c0 ce 3d 06 21 d8 bc c0 b8 51 3d
       -0.022912182 0.100952834 -0.026382934 0.051201582
0000c0 e4 6a b4 bd 5a 51 06 bd 7a 4e 0a 3e 36 0a b0 3d
       -0.0880945 -0.032792427 0.13506499 0.085956976
0000d0 8c 92 d5 bc b0 38 ff 3d f5 64 76 3d 51 bc d9 3c
       -0.026070856 0.12461984 0.060154874 0.026579054
0000e0 f4 38 4e bc dd d3 b4 3d 70 8e 21 3d cb a3 68 3d
       -0.012586821 0.08829472 0.03944248 0.05679683
0000f0 87 96 c4 bd 79 f9 e8 bd f3 d5 1e 3d 2b fa cc 3b
       -0.09599023 -0.11375708 0.038778257 0.0062554083
000100 d2 51 27 3e ce e2 8e 3d b6 d6 29 be 38 a3 ab 3d
       0.16339806 0.06976853 -0.16585812 0.08380741
000110 07 89 95 bc 00 d7 9f bd 87 00 51 be b2 d2 d2 3c
       -0.018253816 -0.0780468 -0.20410357 0.025735233
000120 ba 03 c8 3d 07 c5 aa 3d b8 c5 69 3d 15 2e 1b 3d
       0.09766336 0.08338361 0.057073325 0.037885744
000130 38 e7 01 bb 62 dc 32 3d 64 79 d0 3d ca 2e 28 bd
       -0.0019821655 0.043667205 0.101794034 -0.041060247
000140 88 a8 6a bd 0e 7c b2 3b 7c b6 6b 3c de b3 c5 bc
       -0.05728963 0.0054469174 0.014386769 -0.024133619
000150 df a1 8d 3d 7c 26 39 bd d0 a3 7e 3c 42 a5 bc 3c
       0.0691564 -0.045202717 0.015541986 0.02302802
000160 06 fe 85 3d dc 8a 95 3c fa 4b 5a bb 36 e1 f1 3d
       0.06542592 0.01825469 -0.0033309446 0.11810534
000170 38 c1 73 3d 7b 9a db 3b 36 41 40 bd b0 87 b1 bd
       0.05951044 0.006701765 -0.04693719 -0.086684585
000180 52 99 d5 3d 8e 41 01 3d 76 e1 38 be b8 96 10 be
       0.10429634 0.03155666 -0.18054757 -0.14119995
000190 8c bc 89 bc 1c 15 22 3e 86 bb e1 3d a0 e5 c4 ba
       -0.016813539 0.15828365 0.110220954 -0.0015022047
0001a0 90 3c f0 3c 38 c0 53 3d 3d ec 7c 3d 2c 90 2d 3e
       0.029325753 0.051696986 0.061748732 0.16949528
0001b0 87 ba 9a bd a7 42 62 bd 8d 08 c7 3d 27 ac 85 bd
       -0.075551085 -0.055239346 0.09718428 -0.06526976
0001c0 e1 f6 d3 3d af 51 57 3d d8 2a 99 bd da 9e 30 bd
       0.10349823 0.052568134 -0.07478875 -0.043120243
0001d0 f4 1a 6a 3d d1 55 6d bd b8 50 f4 bc a0 6e 9e bc
       0.05715461 -0.05794317 -0.029823646 -0.01933986
0001e0 f5 70 e7 bd cf 65 20 3c dd dd 6f bd b6 16 95 3b
       -0.11300842 0.009789898 -0.058561195 0.0045498265
0001f0 ad 6e 9c bd f6 03 33 bd 06 88 87 bd 17 37 68 3d
       -0.07638297 -0.04370495 -0.06617741 0.056693163
000200 39 45 98 bb 57 70 95 3d 57 10 9e bd c1 b7 4f 3c
       -0.004646924 0.07296818 -0.0771796 0.012678088
000210 d8 ba 48 be c5 7f f2 bd f8 6a 5c 3d a1 a8 65 be
       -0.19602525 -0.11840776 0.05381295 -0.22427608
000220 0e 5d f0 3b ca a7 73 bd 6c 38 0a be f4 67 63 b9
       0.0073353117 -0.059486188 -0.13498086 -0.00021687133
000230 60 04 a2 bd b9 2e a2 3b ca ed 7d 3d a0 bd d4 3d
       -0.07910991 0.0049494174 0.06199435 0.103877306
000240 0b 62 b6 bd e1 9d a8 3c 7e a0 f6 3d 4b 07 04 bd
       -0.08905419 0.020583095 0.1204233 -0.032233518
000250 3a ab 12 3e 06 90 45 3d 79 1d 07 be b7 13 22 3e
       0.1432313 0.048233055 -0.13194837 0.15827833
000260 33 cc a4 3d 06 72 48 be 6c a1 a7 bb cd d0 43 3d
       0.080467604 -0.19574746 -0.0051156785 0.04780655
000270 a2 87 0b 3c 8b 3d 20 bd 88 61 c9 bd c9 22 95 bc
       0.008516224 -0.039121192 -0.09833056 -0.018205063
000280 7d 9d 08 bc e3 9a e2 bc 27 42 8e 3d bc a2 4e bd
       -0.008338329 -0.027661746 0.06946211 -0.050448164
000290 b7 38 d3 bd 4a 37 2f 3d de ba a4 bd 7d a0 ac bd
       -0.10313552 0.042777337 -0.080434546 -0.08429048
0002a0 c5 08 ef bb 9e 61 91 3c 74 a0 98 3d a2 6c 96 ba
       -0.0072947466 0.017746743 0.07452479 -0.0011476467
0002b0 2f b0 83 3d c1 89 9a bd 66 68 56 3d 49 45 8b 3d
       0.06430089 -0.07545806 0.052345656 0.068003245
0002c0 e8 da a7 bc d9 91 c7 bb 49 91 3c 3c 22 12 79 bd
       -0.020490125 -0.0060903844 0.011509248 -0.06080831
0002d0 23 d4 ae 3d 5a a4 71 bc 1c 87 bb bd 3c 74 73 3e
       0.085365556 -0.014748657 -0.091566294 0.23774809
0002e0 aa 85 1c bd 7a 53 07 3e 3b 5c 14 3d 37 58 35 bd
       -0.03821341 0.13215438 0.03622077 -0.04427358
0002f0 e3 57 85 bc 9a fc 83 3c 4a af ed bd 70 df b5 3d
       -0.01627726 0.01611166 -0.11605699 0.08880508
000300 4b b2 ce bd 71 3e 09 be 48 ce 1d 3d f3 87 85 bd
       -0.100926004 -0.13402726 0.038526803 -0.06520071
000310 c2 8d 97 3d e6 09 fb bb 50 4a 39 bd 6b ab ae bb
       0.07400085 -0.007661092 -0.045236886 -0.005330493
000320 b8 b6 a5 bd 6a e1 35 3d bc b3 e3 bd 4a af a6 bd
       -0.080914915 0.044404425 -0.11118266 -0.081389025
000330 92 7a 51 ba b1 a0 81 3d c3 58 d6 3b db 2e 89 3d
       -0.00079909817 0.063294776 0.006541343 0.0669839
000340 e0 66 a5 ba fa 29 c4 3b a3 1d 71 bd fd 47 e1 3c
       -0.001261916 0.0059864493 -0.058866154 0.027500147
000350 cf 01 a3 3d 0c 36 20 3e 29 66 a6 bd 89 39 19 bd
       0.07959329 0.15645617 -0.08124954 -0.037408385
000360 ad 1b 41 bc d5 6d f6 bd bc 1d 9f 3d 91 da 80 3c
       -0.011786384 -0.120326675 0.07769343 0.01572922
000370 e7 22 c4 bd 16 7e 0a 3c cb c1 4c bd eb e1 79 bd
       -0.095769696 0.008452913 -0.049989503 -0.061006468
000380 5b a4 87 bd 5c 79 00 3e 15 a6 87 3d 4a 46 10 3c
       -0.06623145 0.12546295 0.066234745 0.008805821
000390 f5 5b ae 3c 82 3b d7 3d fc 0b 9f 3d 69 a8 33 bd
       0.021284083 0.10509397 0.07765958 -0.04386178
0003a0 28 a1 9b bb 7d 2c 1d bd c1 df 46 bd 43 37 b5 bd
       -0.004749436 -0.038372505 -0.048553232 -0.08848431
0003b0 70 f6 a4 bc a8 fb d5 3b fa b8 04 3e 5c 62 b2 bd
       -0.020137042 0.006530244 0.12961188 -0.08710167
0003c0 3a 98 1b bc e7 7e ad bc d3 b8 84 bd 49 79 9d bd
       -0.009496743 -0.021178676 -0.06480565 -0.07689149
0003d0 18 ac e4 bd 5a 0a 87 bb 7f e0 ad 3d 69 4e 38 bd
       -0.11165637 -0.004121107 0.08490085 -0.044996653
0003e0 ec 63 de 3c ee 9d a4 bd e1 07 7b 3d 2c 8a ce 3d
       0.027147256 -0.08037935 0.06128681 0.10084948
0003f0 8e 6e 03 3e 69 43 19 be 51 ea 02 bc 77 dc 1f bc
       0.12835142 -0.14967121 -0.007990436 -0.009757153

encoder.4.bias f4 [64]
000000 6e 8e b4 ba 64 45 73 ba bf a8 d6 39 9a 14 d6 ba
       -0.0013775358 -0.00092800544 0.00040942986 -0.0016333044
000010 95 ea 64 ba 42 62 f9 b7 7b dc 5b ba 43 54 ab b9
       -0.0008732465 -2.9728868e-05 -0.0008387041 -0.00032678441
000020 43 80 54 ba c4 80 80 39 b0 df 11 bb a7 75 fb 38
       -0.00081062707 0.0002451 -0.0022258572 0.00011990527
000030 de 7f 54 39 ab fb 97 39 d6 88 d5 b9 a7 31 18 ba
       0.0002026553 0.00028988472 -0.00040728477 -0.00058057386
000040 60 29 e5 38 2e 28 b7 b7 d7 ee 99 b8 c6 ef 40 b7
       0.000109272776 -2.183401e-05 -7.340096e-05 -1.1499918e-05
000050 39 5c 09 ba 50 a7 af 3a 6f 67 0c b9 a6 f4 87 3a
       -0.00052398775 0.0013401303 -0.00013389972 0.0010372594
000060 49 8c 07 b8 a5 c3 65 b9 c8 34 86 ba 6b ea 4d b8
       -3.231716e-05 -0.00021912025 -0.0010239119 -4.9094127e-05
000070 a9 91 cf 38 bd 48 a4 ba f0 e7 2a b9 6b 62 cb 38
       9.8976605e-05 -0.0012533885 -0.00016298867 9.698126e-05
000080 7e 8e c4 b8 76 7d 13 3a 1b 61 13 3a 43 cb 0e ba
       -9.3725495e-05 0.00056263 0.0005622075 -0.00054471585
000090 4e 25 d0 b9 8e e2 ea 39 60 e7 b6 b9 1c b6 51 b9
       -0.00039700646 0.00044800754 -0.00034886133 -0.00019999634
0000a0 20 70 d4 39 40 00 01 b9 26 c7 9d b8 1a 22 8b 3a
       0.0004051933 -0.00012302492 -7.523438e-05 0.0010615021
0000b0 28 60 bb b8 2e 8e 15 ba 1e ea 6f ba 4f 35 94 38
       -8.934765e-05 -0.00057050854 -0.00091520126 7.0671194e-05
0000c0 1f 34 3d 38 38 da a5 b9 08 46 87 b8 f1 d8 8e b9
       4.5109653e-05 -0.00031633838 -6.450346e-05 -0.00027245985
0000d0 85 13 1a 3a c5 b6 40 ba dd 4c a2 3a 2d 4a c3 b9
       0.00058775424 -0.00073514535 0.0012382526 -0.00037248564
0000e0 75 86 0c 39 d0 ad a8 38 27 27 84 ba 01 f0 91 b9
       0.0001340153 8.043239e-05 -0.0010082469 -0.00027835372
0000f0 bb 41 bc ba 78 a6 f0 b8 c4 03 1e 3a cc fb 17 ba
       -0.0014362851 -0.00011475099 0.0006027783 -0.00057977135

actor.0.weight f4 [64, 32, 3, 3]
000000 f2 c3 e1 3d 07 f9 a0 bd 49 c7 73 3d c2 5d b9 bd
       0.11023702 -0.07859998 0.059516225 -0.09051086
000010 e7 d8 a3 3d 0e 49 22 bc ca 53 52 3b 72 49 b7 bb
       0.08000355 -0.009905113 0.00320934 -0.005593472
000020 08 a2 7c bb c7 b9 14 3d 45 0c da 3c 1a 95 9e bd
       -0.0038548727 0.036309984 0.026617179 -0.077432826
000030 5b ee b4 bd df 04 bd 3d 3e 94 8f bd 5d 48 10 bd
       -0.08834525 0.09229445 -0.07010697 -0.03522526
000040 1b 37 cc 3d 07 95 ab bb e5 11 be bd 49 a7 97 bd
       0.09971448 -0.0052362713 -0.09280757 -0.07404954
000050 b2 94 29 be dc c4 ee 3d c2 42 90 3d c5 5b df bd
       -0.16560629 0.11658642 0.07043983 -0.109061755
000060 40 23 b9 3d fd 8c 0c 3e 5f df 3f 3d 3d 78 79 3c
       0.090399265 0.13725658 0.046843883 0.015226421
000070 3b d9 b4 3d df 80 f9 bc 1d 6d 00 3e af 09 37 3c
       0.08830496 -0.030456958 0.12541623 0.011171742
000080 11 4a 7d 3d 03 1a d0 3d 4f 91 fd bc b8 6b d5 bc
       0.061838213 0.10161211 -0.030953078 -0.02605234
000090 20 88 48 3d 12 9f c4 bc 74 4c c0 bc e6 96 e6 bd
       0.048957944 -0.024001632 -0.023473956 -0.1125925
0000a0 ae 0d c1 3d 6c fc ce bd 6b 6e 3b bc ca d6 46 3d
       0.09426437 -0.101067394 -0.0114399 0.048544683
0000b0 23 39 bc 3d 9a 9c 3a 3d 16 59 0b be 90 06 04 3e
       0.091905855 0.045559503 -0.13608202 0.12893128
0000c0 1f 37 e3 bd b9 45 d7 bd 6e 3e 37 bd 48 3d 93 ba
       -0.11094498 -0.105113454 -0.044737272 -0.0011233473
0000d0 b2 07 cd 3d 17 d9 2b bd 60 1d 2f 3d 6b ec 97 bd
       0.100112334 -0.04195508 0.042752624 -0.0741814
0000e0 9b 12 13 bd 4d 4b 93 3c 6c f1 5b bd 45 45 bd 3d
       -0.035906415 0.017980242 -0.053697035 0.09241728
0000f0 8d b5 b4 bd 4d 79 84 3e b2 f3 1a 3e d2 de 64 3e
       -0.088236906 0.25873795 0.15132025 0.22350624
000100 3e f2 74 3a 2f ad 69 bd 87 0c ff bd 16 c2 57 be
       0.0009343958 -0.057049926 -0.12453561 -0.21070132
000110 b5 c6 9c 3d 8d 33 04 bd 55 99 ec bd b7 2b 22 3d
       0.07655088 -0.032275725 -0.11552683 0.03959247
000120 b5 6c 26 3d 11 b0 92 3a 86 bc df 3d 74 f9 de 3c
       0.040631015 0.0011191388 0.1092463 0.027218558
000130 db ee 25 3d da 49 86 bc ec a4 99 3c 42 c9 0e bd
       0.040510993 -0.016392637 0.018755399 -0.034859903
000140 03 cb 04 be 5c da d8 3d 6b a3 b3 bc 0f 6c 0f 3d
       -0.12968068 0.10588524 -0.02192851 0.035015162
000150 2d 01 c6 3d f6 30 77 bd 8e d2 98 bd 41 63 8f bd
       0.09668193 -0.060349427 -0.07462035 -0.07001353
000160 24 fa 62 bb cd cd 28 bd 70 54 42 3c 38 43 ad bd
       -0.0034633959 -0.041211892 0.011860952 -0.084600866
000170 bd 45 68 3d 3b 8a 5a 3d 38 8f d0 3d df 0d c8 3d
       0.056707133 0.053354483 0.10183567 0.09768271
000180 9e 1a 08 3e 61 e0 70 3d 9e 49 70 bc 32 82 02 bd
       0.13291404 0.058807734 -0.014665989 -0.031862445
000190 6a ce d8 3d f7 4c 50 bd 95 57 81 ba e5 e8 8c bd
       0.10586245 -0.05085465 -0.000986802 -0.068803586
0001a0 03 3a 48 3c e2 0a e7 bd 31 46 99 3d 7f e1 1c bb
       0.012220862 -0.112813726 0.07484091 -0.0023938117
0001b0 c6 54 43 3e 8a df 83 bc 20 ea 1a 3d 5d fd d1 bd
       0.19075307 -0.016097803 0.037820935 -0.10253403
0001c0 9a 49 89 bc 22 90 a3 bc 0c 6e 0c 3d 4c a0 b4 3c
       -0.016758729 -0.019966189 0.034284636 0.022049092
0001d0 cd 02 94 3c 74 29 8e bb 5b 92 f6 bd 2e 58 e3 3b
       0.018067742 -0.0043384377 -0.12039634 0.006938002
0001e0 4b e9 45 3e 22 c5 37 3c c2 4b 4a 3d cf e7 3a bd
       0.19327275 0.011216434 0.049388655 -0.045631226
0001f0 c3 87 a1 3d e6 46 07 3c 83 65 5f 3c c0 59 84 3c
       0.078872226 0.00825665 0.013635042 0.016156077
000200 d6 e1 0a 3b 7b 91 1f 3c 8f 24 1f 3e 2a 8c 04 bd
       0.0021191738 0.009739275 0.1554129 -0.032360233
000210 a4 fe 1b 3c d6 88 0d 3d 63 88 45 bd 31 35 64 3d
       0.00952116 0.034554325 -0.04822577 0.05571479
000220 a0 38 5e 3d fa 66 5c 3c 75 de f3 bc 9a 82 b9 3d
       0.05425322 0.013452286 -0.029769162 0.090581134
000230 ff 4d 30 3b da cb e4 bd ca e0 c2 bc b2 a3 8e 3d
       0.0026901958 -0.11171694 -0.023788828 0.06964816
000240 00 68 fb bd ed d7 e2 3d 1d 66 49 3d 54 bc 89 3b
       -0.12275696 0.11076341 0.04916965 0.0042033587
000250 af fb 2a bb c2 ee c5 3d b2 32 21 bd fd eb c6 bd
       -0.0026089957 0.0966468 -0.039354987 -0.0971298
000260 08 5a 90 bd d2 66 5d bc cc 9e ca bb 71 16 9a 3d
       -0.07048422 -0.013513284 -0.006183481 0.075238116
000270 ab 3d e8 bc 58 f3 8d 3d 36 03 21 be ba 5c 1e be
       -0.028349718 0.0693118 -0.15723881 -0.1546506
000280 5d b9 21 be 62 27 5e bd 62 33 55 3e 4c 07 93 3c
       -0.15793367 -0.054236777 0.20820382 0.017947815
000290 63 61 90 3d b8 6e e4 bd 12 f6 88 3d b1 7f 85 bb
       0.07049825 -0.111539304 0.06687559 -0.00407406
0002a0 28 ce 17 3e 21 4e c1 3d 47 08 4d be 6b bb 05 bd
       0.14824736 0.0943873 -0.20022689 -0.03264944
0002b0 68 81 26 3d 70 fd 33 3d 85 e4 7c 3e 4e 04 0f bd
       0.040650755 0.04394287 0.24696548 -0.034916215
0002c0 6a 50 b8 bd cd 78 6e 3d 7e 26 08 be 62 8a 34 bd
       -0.08999713 0.058220673 -0.13295934 -0.044077285
0002d0 ec 1b 15 bd 19 7b 47 3e bd da 29 be ad 8a 87 bd
       -0.03640358 0.19480552 -0.16587348 -0.06618247
0002e0 43 4d ef bd ba 50 8a 3c 6c 2e 20 3b fd 25 e8 bc
       -0.116846584 0.016884197 0.0024441732 -0.028338427
0002f0 6e eb 07 bd 5f b4 25 bd ac de 5b 3d d9 57 c3 bd
       -0.033183508 -0.04045522 0.053679153 -0.0953824
000300 c6 f3 94 3d b8 7a 4b 3c 8c c4 97 bc d3 2f e9 bc
       0.072730586 0.012419395 -0.018526338 -0.028465187
000310 fb 70 00 bd 42 04 8b 3d 20 3e 3a 3c d9 57 d2 3a
       -0.031357747 0.067879215 0.011367351 0.0016047909
000320 0a bc e7 bd 14 a8 31 3d 43 a4 b2 bc 78 28 35 bd
       -0.113151625 0.043373182 -0.021806842 -0.044228047
000330 63 ba f3 3c 15 ea 86 bc 55 84 8a bc c0 88 b6 bd
       0.029751962 -0.01646904 -0.016908804 -0.08912802
000340 d6 7c 47 be 70 12 29 3c f3 70 48 be 49 44 0d be
       -0.19481215 0.010319337 -0.19574337 -0.1379558
000350 43 6e 5e bd 98 f5 a7 bd 45 8e 87 bc 0a 89 60 3d
       -0.054304373 -0.0820114 -0.016547332 0.05481819
000360 f0 24 98 bd 3e ce d6 3c a4 78 44 3d 72 6d 55 3d
       -0.0742892 0.02622139 0.047966614 0.05210633
000370 e2 dc 53 bc 9d 68 c9 bc 24 2d a4 3c 8f b6 08 be
       -0.012931081 -0.024586016 0.020041056 -0.1335089
000380 90 d5 79 bd b4 86 12 3e dc 18 fa bc 57 27 82 bd
       -0.060994685 0.14309198 -0.030529432 -0.0635516
000390 39 96 8c 3c 31 71 de 3d a8 67 0f bd c0 82 27 3d
       0.017161475 0.10861433 -0.035010964 0.040896177
0003a0 35 21 d4 bd b8 21 83 bd 32 03 3e bd 94 23 10 3e
       -0.10357896 -0.06402916 -0.046389766 0.14076072
0003b0 b0 84 d0 3c 28 04 d7 bc d5 db 8f 3d 09 a4 d9 bd
       0.025453895 -0.026247099 0.070243515 -0.1062699
0003c0 05 10 fc 39 09 9a 03 3e 8a 4a 3f 3e 59 21 d6 3d
       0.0004807712 0.12851728 0.18680778 0.10455579
0003d0 82 83 a0 bd 4f 43 b4 3b 55 0e 16 bd 1e d7 1a bd
       -0.07837583 0.005501188 -0.03663476 -0.037802808
0003e0 a7 25 a9 3d da 0e 92 bc 38 09 12 bd 3f a6 96 bd
       0.08259135 -0.017829347 -0.035653323 -0.07355928
0003f0 7e 4a bd 3d c6 ed 0c bd 29 0c ca bd 15 9b a6 bd
       0.09242724 -0.034406446 -0.098656006 -0.08135048

actor.0.bias f4 [32]
000000 26 be 23 ba 4d cd a7 b9 74 eb bf 3a a6 20 b3 3a
       -0.0006246291 -0.00032005683 0.0014642314 0.0013666346
000010 b9 b7 b8 ba 35 6b de 38 48 54 9c ba bd 96 bf 3a
       -0.001409284 0.00010605754 -0.0011926973 0.0014617067
000020 90 4d 32 3a 4f 3f 3f ba 26 61 0c 3b 89 f1 ef 38
       0.0006801719 -0.00072955055 0.002142021 0.000114413975
000030 4d d8 d5 3a f4 ef ab 39 62 da 08 ba 5c cf d6 3a
       0.0016315073 0.0003279444 -0.000522053 0.0016388702
000040 1e 82 70 3a 5e 72 e8 b9 90 b7 de 38 0b ff 57 3a
       0.00091746624 -0.00044335698 0.00010619976 0.00082396035
000050 38 5e 76 39 b4 f5 54 b9 28 d2 11 b9 6e ac 76 ba
       0.00023495487 -0.00020309427 -0.00013906567 -0.00094098493
000060 c3 e1 78 ba 90 e2 e0 b9 6a 7b e0 ba 0e 12 d2 3a
       -0.00094940903 -0.00042893412 -0.0017126624 0.0016027109
000070 7c 5c 44 39 90 ae ca 3a ac af f9 3a 91 04 48 ba
       0.0001872647 0.0015463401 0.0019049547 -0.0007630075

actor.2.weight f4 [32, 78, 3, 3]
000000 a1 24 aa b9 6b 2a 1d 3d 6a 73 96 bb 8d 12 49 3b
       -0.00032452217 0.03837053 -0.004591395 0.0030681223
000010 64 46 d8 3c 68 3f 10 3d fa 40 80 bd 40 4c ad bc
       0.026400752 0.03521672 -0.06262393 -0.021154523
000020 11 3c ad bd 6d bf 99 bd 35 58 5d bd fe a3 1e 3d
       -0.084587224 -0.07507215 -0.0540392 0.038730614
000030 24 05 73 3d 98 2b a6 bc fd 7d a2 3d 54 18 2d 3d
       0.059331074 -0.020284459 0.079341866 0.04225953
000040 a3 c9 22 bd 5c 59 8e bd bd c3 75 bd 23 84 7e bc
       -0.039743077 -0.06950638 -0.060001124 -0.015534434
000050 1d fb 92 3d 06 96 9f bd 06 a7 bf 3d a8 54 61 bd
       0.07176802 -0.077922866 0.09358029 -0.055012375
000060 e9 46 8e 3d 48 32 6d bd f0 cf 83 bd 3b 12 05 3d
       0.06947119 -0.05790928 -0.06436145 0.03248809
000070 02 cd 63 bc e9 86 ad 3c b3 ed 98 bb 5f 9b a7 3d
       -0.013903858 0.021182494 -0.004667008 0.081839316
000080 79 70 c5 3b 81 1b b5 bd 00 e9 44 bd b1 ce be 3b
       0.0060253707 -0.088431366 -0.04807377 0.0058229794
000090 57 e2 d7 3c dd ca 88 bd db 70 7c 3d 25 d6 3a 3c
       0.026353044 -0.06679318 0.061631065 0.011403595
0000a0 6b 5b 29 bd e7 39 1b 3d 7b 02 94 bd 09 7f 14 3d
       -0.04134695 0.037897017 -0.072270356 0.036253963
0000b0 ff b8 20 3d e5 20 3e 3d d5 a7 10 3c 9a ae 7f 3c
       0.039238926 0.04641809 0.008829077 0.015605593
0000c0 d3 e1 02 3c 46 b4 80 3c 71 9c 38 3d 6e a0 27 bc
       0.007988411 0.015710961 0.04507107 -0.0102311205
0000d0 fe c3 8c bb 25 ef 9d bd 27 0c de 3c f4 37 c0 3d
       -0.004295825 -0.07711629 0.027105404 0.09385672
0000e0 a4 90 9e bd 6c c7 07 bd ad cf d0 bd e1 c0 b3 3d
       -0.07742432 -0.033149168 -0.10195861 0.08777023
0000f0 79 f7 5a ba 5e c7 6b bd 28 3b 5e bd 7b e2 9d 3d
       -0.00083529163 -0.05756318 -0.054255635 0.07709213
000100 a6 3d 5e bd ec cd 0d bc df 11 f5 bc 85 fe 97 bd
       -0.05425801 -0.008655053 -0.029915748 -0.074215926
000110 16 38 54 3d d4 d6 02 3d 25 db f8 bd e3 d8 02 3d
       0.0518113 0.031943157 -0.121511735 0.03194512
000120 05 cb 29 3c 0e c4 60 3b 13 ea 5e bd 07 cb 6b 3d
       0.010363345 0.0034296545 -0.05442245 0.05756667
000130 70 82 2e 3d ee 29 af bd 28 1e 8b bc b8 cd 8d bd
       0.042604864 -0.08552919 -0.016982153 -0.06924003
000140 e7 38 9a 3d 3e c0 8e bc 41 d1 81 bd 6e a2 79 bc
       0.075303845 -0.017425653 -0.0633874 -0.01523648
000150 4b 6b b9 3c 09 31 6c bc 6f 35 9c bd 99 2c 7f bd
       0.02263417 -0.014415988 -0.07627379 -0.06229839
000160 26 49 8f 3d 98 64 0c be 0c 8b f1 3d 4e 14 88 bd
       0.06996374 -0.13710248 0.11794099 -0.06644498
000170 73 d9 a8 bd e8 db 5f bd 5f fe 0c 3d 99 8d 4d bd
       -0.082446 -0.05465308 0.034422275 -0.050183866
000180 00 6b 22 3d bd 71 18 3c 8a 8a fd 3a 5e a7 42 bd
       0.039652824 0.009304461 0.0019343656 -0.047522895
000190 ea 77 ea bb 40 af a2 bd 5a d3 49 3d bf 1a 13 3d
       -0.007155408 -0.079435825 0.049273826 0.03591418
0001a0 cc 5f e0 3c 4e cb b9 3c 37 29 83 bd c7 a7 d8 bd
       0.02738943 0.022679951 -0.064043455 -0.10578876
0001b0 43 db 7e bc 3e e8 64 3c 59 14 07 3e 9b 4a 4d bd
       -0.015555206 0.0139713865 0.13191356 -0.050119977
0001c0 30 e9 b2 3c 44 7f 51 bd 89 66 06 3c e6 2d c6 bc
       0.021839708 -0.05114676 0.008203157 -0.024191808
0001d0 b2 6e f4 bd 70 32 ab 3b 86 29 a7 bd f3 f7 1c bc
       -0.11935176 0.0052245185 -0.08162217 -0.0095806
0001e0 ce c8 14 3d 29 c6 46 bd df c1 54 bd 7d e6 d6 bd
       0.036324315 -0.048528824 -0.051942702 -0.10493181
0001f0 cf 34 e3 bd f7 91 17 3d 33 50 73 bd 96 bd 86 bd
       -0.11094057 0.037004437 -0.059402656 -0.065791294
000200 3d ef b4 3d fb 0e 47 3d 5d 9a 88 bd 2a 59 91 bd
       0.088346936 0.04859827 -0.066700675 -0.07097085
000210 a2 c1 d1 bb 68 d4 84 bd 7b bc 3f bd 92 57 24 bd
       -0.0064012567 -0.06485826 -0.04681061 -0.040122576
000220 b3 11 00 bd 74 b4 c4 bc e1 b8 71 bd 00 8b 6a bd
       -0.03126688 -0.024011828 -0.059014205 -0.057261467
000230 68 3c 6e 3c 88 f8 21 bd 6c e7 f6 3c 0c d3 7e bd
       0.014540769 -0.03954366 0.030139647 -0.06221299
000240 26 78 a0 bc fb 1e e3 3d c1 a3 d9 3c a3 21 87 bd
       -0.019588541 0.110898934 0.026567342 -0.065982126
000250 c6 79 19 3d d0 fb 27 3d 17 9d 22 3c 55 08 d1 bc
       0.037469648 0.04101163 0.009925148 -0.025516668
000260 7e 70 36 3c 1a 7e 75 3d 55 d0 02 bd 8a 13 bd bd
       0.011135219 0.059934713 -0.031936962 -0.092322424
000270 fc 7a d4 bc 15 5b 54 bd 9c 23 94 bd 3a f0 ef 3c
       -0.02593755 -0.051844675 -0.072333544 0.029289354
000280 38 6d c2 bd 62 ea 71 bd 05 5e 92 bb 61 6a 06 bd
       -0.09493488 -0.059061415 -0.0044667744 -0.032816295
000290 00 a0 a1 bb f3 e4 69 bc 6f 6d 39 3d 1a 7e 88 3d
       -0.0049324036 -0.014275777 0.04527038 0.06664677
0002a0 fa 31 9d bd d7 dc f1 3c 27 1f 96 3d 7f 28 60 3d
       -0.07675548 0.02952425 0.073301606 0.05472612
0002b0 71 31 33 bd 48 a4 b8 3c e2 91 9d bc fc 72 d9 bd
       -0.043748323 0.022539273 -0.019234601 -0.10617635
0002c0 04 c9 2b bd 43 1d 05 bd 60 32 d9 bb dc 40 56 bd
       -0.04193975 -0.03249861 -0.0066283196 -0.05230795
0002d0 9e 7e 6a 3d 48 be 7f 3d ae b3 1b 3d d9 b2 79 bd
       0.057249658 0.062437326 0.038013153 -0.060961578
0002e0 33 24 7c bb e0 36 25 bb 8d 99 d2 3c 3c e8 66 bd
       -0.0038473725 -0.002520971 0.025707984 -0.05637382
0002f0 af 5d 4a bd 62 31 da bd 1d 50 86 3c 22 8b 6d 3d
       -0.04940575 -0.1065395 0.016395623 0.057994016
000300 9a 35 39 3a 64 d1 f7 ba 75 18 7a 3b 7b 32 b5 3d
       0.0007065177 -0.0018907008 0.003816155 0.08847519
000310 db e1 19 3d 16 37 10 bd 45 0f 99 3d a7 09 9a 3d
       0.03756891 -0.035208784 0.074736156 0.07521372
000320 e7 ec e3 3a 8a 47 02 3c 4e 26 35 3d 6c f8 3b bb
       0.0017389328 0.007951627 0.044225983 -0.0028682007
000330 95 a3 89 3d 0a f5 a0 3d 2e 57 0f bd db e4 69 bc
       0.06720654 0.078592375 -0.03499525 -0.014275755
000340 0e 22 1f 3c 40 55 86 3d 8b 45 86 3d 13 4e 80 bd
       0.009712709 0.06559229 0.06556233 -0.062648915
000350 d2 1c 81 bb 9e 2d 6e bd 11 21 f0 bc 14 60 a2 3d
       -0.003940203 -0.058148973 -0.029312642 0.07928482
000360 d7 18 6d bd 66 a1 e5 3b 1a 31 87 bd 34 aa b4 bd
       -0.057885017 0.0070077656 -0.06601162 -0.08821526
000370 7a 59 ba bc 57 47 18 bc b9 a1 de 3d d7 c3 4d 3d
       -0.022747744 -0.0092943525 0.1087069 0.050235596
000380 ed 01 81 3c e8 7f 02 3e 05 f2 b4 bd 59 77 ab ba
       0.015747989 0.12744105 -0.08835224 -0.0013081833
000390 c6 e4 92 3d 93 09 df ba 8b ba ae bc f2 9c dc bc
       0.07172541 -0.0017016403 -0.021329185 -0.026930306
0003a0 ce e3 b7 bc 5f c2 88 3d f8 4e 1b bc 12 e7 99 3d
       -0.022447493 0.06677698 -0.009479277 0.07514776
0003b0 1d a1 be 3d 66 c9 df bb ca 8b 46 bd 41 2b 0c 3d
       0.09308074 -0.0068294285 -0.048473157 0.034220938
0003c0 df 9f a2 3c ec 07 2f bc fb 49 26 bc 2e ca 3c bc
       0.019851623 -0.010683041 -0.010149474 -0.011522813
0003d0 6c 75 db bc aa 5c f2 bc 6b 9c 8d 3d 45 f2 7e bc
       -0.02678939 -0.029585201 0.069146 -0.015560691
0003e0 b6 44 88 3b 32 2b 53 bd 87 11 db 3c 11 a0 72 bd
       0.0041585816 -0.051554866 0.026741756 -0.059234682
0003f0 ab 94 49 3d 81 a8 bd 3c c0 35 5b bd 46 94 af bb
       0.049214046 0.023151638 -0.053518057 -0.0053582517

actor.2.bias f4 [78]
000000 52 e3 68 ba 50 62 29 39 ab 16 3d 3b 75 0b 3d 3b
       -0.0008883971 0.0001615372 0.0028852622 0.002884594
000010 e2 ee 34 3a 26 90 b8 37 d4 cb e5 b9 d3 44 25 3b
       0.00069020514 2.2001634e-05 -0.00043830147 0.0025218024
000020 a3 77 93 ba 5f 94 ce ba 00 00 00 00 00 00 00 00
       -0.0011250864 -0.0015760771 0.0 0.0
000030 00 00 00 00 00 00 00 00 00 00 00 00 00 00 00 00
       0.0 0.0 0.0 0.0
000040 00 00 00 00 00 00 00 00 57 9b c6 b9 60 af e4 b8
       0.0 0.0 -0.0003788124 -0.00010904553
000050 aa c1 6f 39 b4 77 59 3a 00 00 00 00 00 00 00 00
       0.00022864962 0.000829573 0.0 0.0
000060 00 00 00 00 00 00 00 00 00 00 00 00 00 00 00 00
       0.0 0.0 0.0 0.0
000070 00 00 00 00 00 00 00 00 00 00 00 00 00 00 00 00
       0.0 0.0 0.0 0.0
000080 00 00 00 00 00 00 00 00 00 00 00 00 00 00 00 00
       0.0 0.0 0.0 0.0
000090 00 00 00 00 00 00 00 00 00 00 00 00 00 00 00 00
       0.0 0.0 0.0 0.0
0000a0 00 00 00 00 00 00 00 00 00 00 00 00 00 00 00 00
       0.0 0.0 0.0 0.0
0000b0 00 00 00 00 00 00 00 00 00 00 00 00 00 00 00 00
       0.0 0.0 0.0 0.0
0000c0 00 00 00 00 00 00 00 00 00 00 00 00 00 00 00 00
       0.0 0.0 0.0 0.0
0000d0 23 94 25 3a 00 00 00 00 38 a1 66 ba 00 00 00 00
       0.00063163246 0.0 -0.0008797827 0.0
0000e0 00 00 00 00 00 00 00 00 00 00 00 00 00 00 00 00
       0.0 0.0 0.0 0.0
0000f0 42 11 0f ba 00 00 00 00 00 00 00 00 00 00 00 00
       -0.00054575887 0.0 0.0 0.0
000100 00 00 00 00 00 00 00 00 00 00 00 00 00 00 00 00
       0.0 0.0 0.0 0.0
000110 00 00 00 00 00 00 00 00 00 00 00 00 00 00 00 00
       0.0 0.0 0.0 0.0
000120 00 00 00 00 00 00 00 00 00 00 00 00 00 00 00 00
       0.0 0.0 0.0 0.0
000130 00 00 00 00 00 00 00 00
       0.0 0.0

critic.1.weight f4 [128, 1024]
000000 ec 71 a1 bb de b2 8f bd 5d 0f f8 bc 3e 34 f1 bb
       -0.0049269106 -0.07016538 -0.030280763 -0.007360964
000010 25 d5 bf bc d4 8d 49 3a 18 7b 1d bb 58 2f 0c bd
       -0.023417065 0.00076886755 -0.0024029668 -0.034224838
000020 9b 22 54 3b 91 a4 63 3d c3 18 83 bc a4 65 01 3d
       0.003236926 0.055576865 -0.016003018 0.031591073
000030 27 c8 24 bd b0 65 94 bd 9c a3 10 bd 03 6d 91 bc
       -0.040229943 -0.07245958 -0.03531228 -0.017752176
000040 19 1a 78 3a ec 04 d5 bc 12 5c 13 3c ce eb 5f bc
       0.0009464338 -0.026003323 0.008994119 -0.01366706
000050 51 bb af 3b 94 8b 2f bd 55 fc 12 3d ea 35 2e bd
       0.005362906 -0.04285772 0.035885174 -0.042531885
000060 fe b9 ee 3b 15 18 0d bd 6d 56 1c 3d 27 ca 7a 3c
       0.0072853556 -0.034446795 0.03816836 0.015306986
000070 da 53 74 bc a1 69 08 bd cf 04 b9 3b 45 2b a0 bc
       -0.01491257 -0.03330386 0.005646325 -0.019551883
000080 fb 66 a8 3d e2 be 50 bd 2f bb eb bb 05 c2 86 3c
       0.08222767 -0.05096329 -0.007193945 0.016449938
000090 a0 85 2c bc 9e 8b 34 bc c7 01 4d bd 8f f0 17 3d
       -0.010529906 -0.011019615 -0.050050523 0.03709465
0000a0 40 fa 73 bd d9 e5 ca 3c 78 98 a3 3c fd 2c 81 3d
       -0.05956483 0.024767803 0.019970164 0.06307409
0000b0 c4 94 55 3d 85 73 ba 3b 08 e9 a0 3b 64 af a3 3b
       0.052143827 0.0056900405 0.004910592 0.0049952734
0000c0 2b 01 44 bc 01 c1 a2 3b f4 1b 8c 3d 59 c1 dd bb
       -0.011963169 0.0049668555 0.06841269 -0.0067674336
0000d0 82 ce f0 ba 95 e2 13 bd 2a 86 91 bc e7 f1 ed 3d
       -0.0018372091 -0.036104757 -0.01776417 0.11618405
0000e0 56 a2 92 3d f8 44 34 bd 26 20 55 3c 6f b4 9f 3c
       0.071598694 -0.044011086 0.013008153 0.019495217
0000f0 8c 3f 33 bd b1 ed b5 bc 8c 6b 5e bd b7 4a ac bb
       -0.043761775 -0.022208067 -0.054301783 -0.00525793
000100 e4 ee 8a bc 49 c4 8d ba b9 4d 69 bd 90 c1 97 bd
       -0.016959615 -0.0010815944 -0.056958888 -0.07409966
000110 a7 e5 c8 3d 11 2c aa 3c 78 e6 68 bb 4e 6a 3b bd
       0.09809428 0.020772966 -0.003553776 -0.045755677
000120 83 20 2f 3d 06 be 57 bc d4 96 0b bd ef 9f 36 bd
       0.042755615 -0.013167864 -0.034079388 -0.04458612
000130 47 76 79 3d 1b ee f4 bc 47 0e 14 3c 20 3a f7 3c
       0.060903814 -0.029898694 0.009036607 0.030179083
000140 ec b1 9e 3c cf c5 31 bc 39 cc 5d 3c dc 4e 21 bb
       0.01937195 -0.010850384 0.01353746 -0.0024613654
000150 e8 06 f0 bc e8 3b 71 bb dd 3a 6b 3c 37 da c7 3c
       -0.029300168 -0.0036809389 0.014357296 0.024396045
000160 a4 23 39 3c bf 56 41 3c be c6 42 bd 11 22 a0 3d
       0.011300001 0.011800467 -0.047552817 0.07818998
000170 4c d9 70 bc 85 f2 85 3d b2 1c c7 3c fc b9 9b bc
       -0.014700245 0.065403976 0.024305675 -0.019009583
000180 17 95 32 3d 42 c3 42 3c 9c 5a 7a bc e5 1e 0c 3e
       0.043599214 0.011887373 -0.015280392 0.1368366
000190 63 e7 85 bb 9f ad a6 3b 55 d1 60 3d 7f 8a 08 3c
       -0.0040864213 0.005086615 0.054887135 0.008333801
0001a0 2c 69 e1 bc 6f 84 2e 3d 5e 2f ce 3b 45 cd ab 3d
       -0.02751597 0.042606767 0.0062922677 0.083887614
0001b0 97 3c 88 3d 6d 2d 0c 3d 6f f2 cd 3c c6 5a e2 3c
       0.066521816 0.03422301 0.025140015 0.027631175
0001c0 78 4a 17 ba db e5 8b 3c bf f3 2c bd 7b 8e 82 bd
       -0.00057712896 0.017077377 -0.042224642 -0.06374832
0001d0 61 96 10 bd c6 95 88 bc 15 1d bc bc 57 9a f6 3c
       -0.035299663 -0.01667298 -0.022963086 0.030102892
0001e0 9e b1 1b bd 20 61 a0 bc e4 5d 03 3c c5 a1 ad bc
       -0.038011186 -0.019577563 0.008017991 -0.021195302
0001f0 fa 0f d0 bc f2 f9 73 3d fe 95 cc bb 47 dd 33 3d
       -0.025398243 0.05956454 -0.0062434664 0.0439122
000200 d1 de 11 bc 63 8d 49 3d a2 6b d2 bc 1a 8a 3a 3d
       -0.008903221 0.049207103 -0.025686089 0.04554186
000210 6e 61 0f 3b d8 81 41 bd f6 49 9e 3d 45 45 98 3d
       0.002187814 -0.04724297 0.07728951 0.07435087
000220 ca be 07 bd c8 b4 54 3d 2c a3 cf bd c0 97 c6 3c
       -0.033140935 0.05193022 -0.101385444 0.024242282
000230 4d 3c 83 3b 3a 7e fb 3c 9b d2 ea 3c 7f 94 41 bc
       0.004004991 0.030699838 0.028664878 -0.011815189
000240 a4 f9 d7 bc 3c 3d 20 3d de 53 66 bd ec 2b b2 3d
       -0.026364155 0.039120898 -0.056232326 0.08699784
000250 13 2c 07 3d 97 6b 05 3b b4 eb 2b 3d b0 17 43 3d
       0.033001017 0.0020358318 0.04197283 0.047630012
000260 34 0f 80 bd 75 4f ba bc 29 f8 27 bd 60 28 bb bc
       -0.062529 -0.022742966 -0.04100815 -0.0228464
000270 25 e0 a9 3d 59 ab 5c 3d 3e a5 69 bd 46 1c dc bc
       0.08294705 0.053874347 -0.057042353 -0.02686895
000280 2a 48 9f 3d d1 e2 d2 bc 64 e4 5e 3c 36 a6 71 3d
       0.07777436 -0.02574292 0.013604257 0.0589964
000290 71 6c b1 3d 75 cb ea bb 35 12 a2 3c c6 a5 16 bd
       0.08663262 -0.0071653672 0.019784072 -0.036779188
0002a0 fa d5 91 bb 07 05 28 3a b0 17 a8 bc 70 75 11 bd
       -0.004450557 0.00064094405 -0.020519108 -0.035512388
0002b0 1d 06 81 bd e8 57 00 bc f5 2d 93 3c 80 8e 09 bc
       -0.06299994 -0.0078334585 0.01796625 -0.008395791
0002c0 af 6f 3c 3d 82 4f ca bc ab 5f 6d 3d 23 57 cb 3a
       0.046004947 -0.024696115 0.057952564 0.001551364
0002d0 b4 e7 7f bd 6d b6 9d bd e7 5a c1 bc ff c4 0a 3d
       -0.06247683 -0.077008106 -0.023602916 0.033879276
0002e0 a6 0d bf bc f2 42 8b 3d 89 f6 3d 3c bd c0 43 bd
       -0.023321938 0.06799878 0.011594423 -0.04779123
0002f0 af 22 be bd 48 31 83 3c d4 84 6b bd af e3 5b 3b
       -0.09283959 0.01601471 -0.05749972 0.0033552458
000300 3e 71 08 3b 07 38 8d 3c 13 d7 13 bd 1e ee a5 3d
       0.002081945 0.01723863 -0.036093783 0.08102058
000310 9a f3 c0 bc 32 ac 32 3d 28 d5 56 bd 9e 15 4c 3d
       -0.023553658 0.04362125 -0.052449375 0.049825303
000320 38 4d b7 bc 26 5e ec bb 58 ee 88 bc c1 0b 30 3c
       -0.022375688 -0.007213372 -0.016715214 0.01074499
000330 50 3c 80 bc 22 46 a8 bc 65 e3 44 3d 7e f0 8e 3c
       -0.01565376 -0.020541254 0.048068423 0.01744866
000340 21 07 0c 3c 44 b2 ec bc ea dd 5e bd 5e cf 03 3c
       0.008546622 -0.028893597 -0.054410852 0.008045046
000350 c3 da b7 3c e6 92 04 bd 03 b2 b3 bc db 2b 40 bc
       0.02244318 -0.032366656 -0.021935469 -0.011729206
000360 05 04 be 3c 2a 2a eb bc 20 57 8e 3d 17 4f 33 bd
       0.023195276 -0.028706629 0.069502115 -0.043776598
000370 d5 97 af 3c 2e 2d 4c 3b 84 14 5b 3b 79 00 99 3b
       0.021434704 0.003115486 0.0033428976 0.004669246
000380 66 79 33 3d fd f5 57 bd 8b 55 6a 3d 93 b7 ac 3c
       0.043816946 -0.052724827 0.057210486 0.021083629
000390 ca d5 e5 3c e9 6f 9e bd f7 e9 a1 3b 67 b9 79 bd
       0.028056044 -0.07736189 0.004941221 -0.06096783
0003a0 b8 0b 79 3b 2f 7b 63 bb 1d fa 2b bc 3d 27 68 3c
       0.003800137 -0.0034710874 -0.010496643 0.014169511
0003b0 0d 27 64 3d ab 5e 14 3d cf 33 67 bd ae 08 61 bc
       0.055701304 0.036223095 -0.056445893 -0.01373498
0003c0 2b 55 f0 3c bf 92 2c 3d f5 33 a6 3b b9 54 a4 3d
       0.029337486 0.042132135 0.0050721117 0.08023972
0003d0 94 17 39 3d 42 63 21 bb ff 0e 43 bd 36 38 35 3c
       0.0451885 -0.0024625813 -0.047621723 0.011060765
0003e0 62 ee a7 3c 8f 5c d7 bc 25 05 5d 3d a2 80 85 3c
       0.020499412 -0.026289253 0.053959984 0.016296688
0003f0 24 c8 24 bd cc fe e3 b9 28 4a d2 bb f8 ba 40 bb
       -0.04022993 -0.00043486652 -0.0064175315 -0.0029408317

critic.1.bias f4 [128]
000000 44 f1 27 b7 0b 38 96 ba 50 68 47 38 98 b1 87 b8
       -1.001015e-05 -0.0011460794 4.7542446e-05 -6.470381e-05
000010 dc 14 9f ba a9 7f 2e 37 86 be 67 3a 03 47 37 38
       -0.0012136954 1.0400931e-05 0.0008840341 4.3696735e-05
000020 00 00 00 00 95 b7 9f ba cb ba aa ba 00 00 00 00
       0.0 -0.0012185449 -0.0013025639 0.0
000030 6e 9d 1f b9 12 87 bb b9 00 00 00 00 88 64 06 b9
       -0.00015222069 -0.00035768055 0.0 -0.00012816687
000040 85 24 4e ba 00 00 00 00 64 3a 48 38 eb 18 5f b8
       -0.0007863718 0.0 4.7738096e-05 -5.319055e-05
000050 03 b4 7d 38 6f ef 2c b9 9f 07 36 ba f8 d3 30 39
       6.048755e-05 -0.00016492394 -0.00069438847 0.00016863632
000060 38 7b 52 ba 00 36 42 38 bc da 8a b9 00 00 00 00
       -0.0008029225 4.6303496e-05 -0.0002648438 0.0
000070 00 00 00 00 df 09 3b 3a 63 96 1c ba 2e a6 4a 39
       0.0 0.0007134955 -0.0005973337 0.00019326128
000080 cb d4 1f b9 17 18 74 b9 8b 31 34 38 00 00 00 00
       -0.00015242693 -0.00023278627 4.2961485e-05 0.0
000090 68 eb d2 b8 10 2a dd b8 26 f9 20 38 da b7 99 ba
       -0.00010057428 -0.00010545936 3.837901e-05 -0.0011727766
0000a0 00 00 00 00 00 00 00 00 3e 80 69 b8 00 00 00 00
       0.0 0.0 -5.5670964e-05 0.0
0000b0 2c 19 84 ba 00 00 00 00 00 00 00 00 8b c6 eb b6
       -0.0010078303 0.0 0.0 -7.026659e-06
0000c0 e2 f4 6a b9 6c 5b 68 b8 00 00 00 00 00 00 00 00
       -0.00022407205 -5.5398254e-05 0.0 0.0
0000d0 64 e2 4a b8 00 00 00 00 00 00 00 00 b4 d4 c7 b9
       -4.8371396e-05 0.0 0.0 -0.00038114714
0000e0 7c 47 67 b8 68 6b 82 b9 b2 0b 7b b8 00 00 00 00
       -5.5141267e-05 -0.00024875556 -5.9853955e-05 0.0
0000f0 0f 07 3e 38 b6 67 4f 38 0e a5 65 37 0b d2 6c b8
       4.5306104e-05 4.9449234e-05 1.3687893e-05 -5.6462402e-05
000100 bd 3e 36 ba 1f e5 73 ba 10 bb 7a b8 25 7e 0b 38
       -0.0006952098 -0.0009303856 -5.977886e-05 3.3257664e-05
000110 86 28 6b b8 48 40 9b 39 09 08 64 ba 40 6a b2 b9
       -5.6066106e-05 0.00029611797 -0.0008698707 -0.00034029968
000120 56 eb 94 3a 00 00 00 00 00 00 00 00 c5 c4 71 b8
       0.001136164 0.0 0.0 -5.7642133e-05
000130 f6 b8 29 ba bc 66 31 38 58 eb 4e 38 22 90 d1 b9
       -0.00064743997 4.2295767e-05 4.933341e-05 -0.00039970974
000140 bc 84 c6 b8 85 1e 4d 38 00 00 00 00 52 65 28 38
       -9.4660994e-05 4.8904232e-05 0.0 4.0148683e-05
000150 00 00 00 00 72 0d de 37 3e 09 a6 ba 00 00 00 00
       0.0 2.6470723e-05 -0.0012667549 0.0
000160 00 00 00 00 7c 27 6c b8 1d ec 38 3a c4 4b 45 38
       0.0 -5.6303557e-05 0.00070542266 4.7039022e-05
000170 00 00 00 00 00 00 00 00 00 00 00 00 c1 2a 8e b8
       0.0 0.0 0.0 -6.779051e-05
000180 29 c2 6d b8 00 00 00 00 00 00 00 00 e9 2a 2e 38
       -5.668603e-05 0.0 0.0 4.1524796e-05
000190 70 a2 62 b8 78 de 85 ba e3 7c a9 ba 54 62 b5 ba
       -5.403388e-05 -0.0010213396 -0.0012930896 -0.0013838508
0001a0 00 00 00 00 0c 29 87 b8 00 00 00 00 b1 40 fc 39
       0.0 -6.444947e-05 0.0 0.00048113384
0001b0 a8 b7 07 b9 00 00 00 00 7e 8e 05 b6 58 b4 ff b9
       -0.0001294302 0.0 -1.9901486e-06 -0.00048771757
0001c0 bd ed 52 b9 70 4d 4e 37 93 b4 34 38 00 00 00 00
       -0.00020115725 1.2296587e-05 4.3083517e-05 0.0
0001d0 57 05 76 ba 22 d0 48 b8 c5 ba 79 b8 58 87 5b 38
       -0.0009384951 -4.7877555e-05 -5.954017e-05 5.2339718e-05
0001e0 3a a1 53 38 05 a2 9e ba 00 00 00 00 c4 90 5c 38
       5.0456474e-05 -0.0012102729 0.0 5.258691e-05
0001f0 49 70 44 38 00 00 00 00 33 f0 03 b9 d7 d6 1b 38
       4.6834615e-05 0.0 -0.00012582615 3.7154965e-05

critic.3.weight f4 [1, 128]
000000 5e 4e ba bb 81 a2 c6 bc a0 d5 b9 bd f6 d1 bc 3c
       -0.0056856116 -0.02424741 -0.09073949 0.023049336
000010 b8 0f af 3d 74 1d 00 3b 40 fb ef bd 6b 8b 57 bd
       0.0854792 0.0019548805 -0.11717844 -0.052623194
000020 c3 c3 52 bd 23 b8 1f 3d 1f db d2 bd 3c de 68 3d
       -0.051456224 0.038993966 -0.102957 0.056852564
000030 5f c6 ff 3c 0e 32 15 3b ae 63 b1 3d 49 ec 53 3d
       0.03122252 0.002276543 0.086615905 0.05173901
000040 0b cc 26 be 9f 2b 5a bd 25 e8 76 bd a5 ee 6a 3e
       -0.16288774 -0.053264257 -0.060279984 0.22942598
000050 d0 c6 63 bd 2d f1 ae 3d b6 fc 66 3d 9f e5 39 3d
       -0.055609524 0.085420944 0.056393348 0.045385
000060 5e 66 d4 3d 7d f3 88 bd 34 1c 21 3a b3 e6 fc 3d
       0.103710875 -0.06687067 0.0006145865 0.1234869
000070 fe 61 33 3e 89 52 0d bd 9a 96 11 3d 98 91 de 3c
       0.1751785 -0.03450254 0.035544015 0.027169034
000080 9d 9b 2b 3b 45 a1 e7 3d 57 11 16 bd 1b 3e 03 bd
       0.0026185282 0.113100566 -0.03663763 -0.03204165
000090 ab 77 e7 3d 38 e9 aa bc b1 92 ee bc b9 1a d9 3d
       0.11302122 -0.02086316 -0.029122682 0.106008
0000a0 78 f4 da 3d ef e3 ad 3d ad 04 82 3d dd 50 1b bd
       0.1069116 0.084907405 0.06348548 -0.037918914
0000b0 2a fc 6c 3d 27 38 bb bd 9e 0f 0c 3d 18 66 e1 3c
       0.05785767 -0.091415696 0.03419458 0.027514502
0000c0 3e eb 86 ba 8e ca a8 3d 8b ef 03 3e 0a 53 21 be
       -0.0010293496 0.08241759 0.12884347 -0.15754333
0000d0 bb 13 87 bd ef 6b ba bd e1 64 ee bd 41 5e b6 3d
       -0.0659556 -0.09102618 -0.11640335 0.08904696
0000e0 39 d0 a3 3d 0a b6 64 bb 53 71 1e 3d ec d4 1b be
       0.079987 -0.0034898543 0.038682293 -0.15217942
0000f0 1b 2d 6f bd 52 02 1f be a8 c1 f4 3a 53 54 73 3d
       -0.058392625 -0.15528229 0.0018673437 0.05940659
000100 6b b4 83 39 ce 06 0c 3e 98 64 39 3d de 21 98 bd
       0.0002512069 0.13674471 0.04526195 -0.07428335
000110 63 99 74 3d d3 98 af bd d6 4b c1 3b 70 63 74 bb
       0.059716593 -0.08574071 0.005898933 -0.0037290715
000120 18 ab e3 3d 1b 4e 22 3e 6e ec 76 3d 74 cc 3b 3d
       0.11116618 0.15850107 0.06028407 0.04584928
000130 79 da 37 3d 02 81 23 bd b1 40 11 be c5 ea a0 3d
       0.044886086 -0.039917953 -0.14184834 0.07857279
000140 8a ab ff bd 72 cf 4d be 4f d3 ee 3d 2f d1 fc bc
       -0.1248389 -0.20098665 0.11661398 -0.030861465
000150 dc 6b 01 3e 23 eb 6c bc c0 20 ff bd cc 94 60 bd
       0.12638801 -0.014460358 -0.124574184 -0.054829404
000160 b8 c4 54 be b2 85 96 3d aa 5e 7c 3d ce 09 97 bd
       -0.20778167 0.07349719 0.061613716 -0.07374917
000170 f3 55 27 3e f1 3a 86 bc 20 c2 1b bc cf f2 aa 3c
       0.16341381 -0.016385527 -0.009506732 0.020867733
000180 f1 95 97 3d d1 0e 00 3e d1 c4 5d 3d af 29 1b bd
       0.07401646 0.12505652 0.054142777 -0.03788155
000190 38 d0 12 3e c7 a2 af 3d 67 a3 e4 bd 07 b2 5f bd
       0.14337242 0.08575969 -0.11163979 -0.05461314
0001a0 e6 48 39 bd 27 2f 18 3d 42 7d 12 3d 95 bc f6 bd
       -0.045235537 0.037154343 0.035763986 -0.12047688
0001b0 b6 18 59 3b 7e 41 02 be 1a 79 f5 b8 88 d4 1c 3d
       0.00331263 -0.12720296 -0.00011705067 0.038288623
0001c0 88 e9 08 3d 38 16 0e bc 9c c1 a2 bd ef 0d 87 3c
       0.033425838 -0.00867229 -0.07947084 0.016486136
0001d0 8a 61 d8 bc b4 dd 77 be bc 5d 0c 3d d5 7d a5 bd
       -0.026413698 -0.24205667 0.03426908 -0.08080641
0001e0 27 a0 1e 3d d1 19 33 be 06 88 7d bc 43 df 07 be
       0.038726952 -0.17490317 -0.015474325 -0.13268761
0001f0 2a 39 9b bd 8f 92 9a bd b5 40 ba 3b a3 ce b8 bc
       -0.075792626 -0.07547485 0.005683983 -0.02255947
