experiments/ppo_hrl/models/MicroRTSGridModeVecEnv__ppo_utils__1__1721366908/20480/harvest.pt (torch, 802530 bytes, 11 tensors)

encoder.1.weight f4 [32, 30, 3, 3]
000000 77 08 c6 bc c2 64 94 3d 11 6c 90 3d 5d a3 e0 3d
       -0.024173958 0.072457805 0.07051862 0.10968659
000010 cb bf 70 bc 31 63 99 3d 8e 8a 13 3d c8 e5 9b bd
       -0.0146941645 0.074896224 0.036020808 -0.07612187
000020 f6 b9 48 bd bc f6 1f bd 44 5d 89 3d af a5 ce 3d
       -0.04900547 -0.039053664 0.06707242 0.100901954
000030 d8 34 84 3d 5a e1 b1 3d 51 2c 33 bd 78 aa 00 3e
       0.06455392 0.086855605 -0.043743435 0.12565029
000040 0c 5e 83 bd f2 7a da 3d 75 5b c2 bd 64 83 ea 3d
       -0.064144224 0.10667981 -0.094901 0.11450842
000050 f4 36 95 bd 07 95 ba 3d e5 ea 61 3e 35 b1 5f bc
       -0.07285872 0.09110456 0.22062261 -0.013653089
000060 53 5e cb 3d 6f c2 da bd 89 f2 2a 3c 40 66 4a bd
       0.099301 -0.106816165 0.010433801 -0.04941392
000070 b4 44 5d bd ad d3 18 be c5 19 6c bd 95 36 92 3b
       -0.0540206 -0.14924498 -0.057641763 0.004462073
000080 45 68 04 3b f7 20 08 3e 3b f7 e5 3d a8 4d 4d bd
       0.002020375 0.13293825 0.11228796 -0.050122887
000090 67 49 10 3e 2d 15 10 be ad f0 fa 3c 06 26 a4 bc
       0.14090501 -0.14070578 0.030632341 -0.020037662
0000a0 0e a5 8c 3c 7f dc 2f 3d e9 ef 26 bd d0 98 5e 3e
       0.017168548 0.04293489 -0.04075614 0.21737981
0000b0 fc 9d 0b be 7a 95 8e 3d 28 46 03 3e a8 bd d2 3d
       -0.13634485 0.06962104 0.12819731 0.1029008
0000c0 a9 e1 77 be 46 cb 21 3e c9 2a ad bd 6d e0 1f be
       -0.24207176 0.15800199 -0.08455426 -0.15612955
0000d0 a2 40 b8 3d 49 80 5c bd 13 40 0f 3e ef 34 8d 3d
       0.08996703 -0.05383328 0.13989286 0.06894862
0000e0 67 40 c8 bc 93 d3 ff bd c8 4c 3d be ed 56 f9 bd
       -0.024444772 -0.124915265 -0.18486321 -0.12174783
0000f0 26 6b 0c bb 4e 72 cf bc 61 83 e9 bc 15 2d 09 bd
       -0.002142617 -0.02532306 -0.02850503 -0.03349026
000100 f9 ae 7c be 83 8d 09 3d 80 9f 6b 3d a4 98 d0 bd
       -0.24676122 0.03358222 0.057525158 -0.10185364
000110 98 64 63 bd 11 30 2c be 38 e6 90 3d 7c 19 25 3d
       -0.055515856 -0.16815211 0.07075161 0.040307507
000120 c0 4b 23 3d 7b 77 56 3d d7 80 53 3d d7 23 c8 bd
       0.039867163 0.05236004 0.051636543 -0.09772461
000130 99 52 36 bd 53 21 87 bd 4f da ca 3d 13 d1 ba 3d
       -0.044512365 -0.06598153 0.0990492 0.09121909
000140 62 4a aa bd 3e c3 94 bd 38 ef 82 bd 6b 83 4e be
       -0.08314969 -0.07263802 -0.063932836 -0.2016732
000150 a9 73 c9 bd 8b ea d5 3d 65 48 1e bd 82 fa f4 3c
       -0.098365135 0.10445126 -0.03864326 0.029904608
000160 a1 c0 a8 bb 5d 43 e4 3c c6 bd 28 3d ff 07 77 bc
       -0.0051499163 0.027864153 0.041196607 -0.01507759
000170 30 0a ac bc c5 0d ff 3d e3 b0 de 3d 9e 93 eb 3d
       -0.021000952 0.12453798 0.10873582 0.11502765
000180 c7 7a a0 bd 04 08 de bd 5c 62 3d 3b ef ac 37 bd
       -0.07835918 -0.108413726 0.0028897738 -0.044842657
000190 23 9c 28 3d d7 cc 48 bb ee 39 6f 3b bd ce 38 be
       0.04116453 -0.0030639672 0.0036503035 -0.18047614
0001a0 03 4e 4f be 0c 1f f1 bc a2 f5 23 3d f3 6e 5f bc
       -0.20244603 -0.02943375 0.040029176 -0.013637292
0001b0 75 55 0f bd 3b 55 d1 bd f0 1f ad bc cf 76 2c 3d
       -0.034993608 -0.102213345 -0.021133393 0.042105492
0001c0 6c 1a c0 bd 5b ef 95 3b 3b 8f 04 bc f6 6b 4e 3e
       -0.093800396 0.0045756525 -0.008090789 0.20158371
0001d0 53 16 d1 3b 2a 0d 06 be c6 ad 64 bd 07 61 8a 3d
       0.006380835 -0.13090959 -0.055829786 0.06756788
0001e0 3b 51 21 3e f8 3f 7e bc ea 83 c0 3d d3 4b e9 bd
       0.15753643 -0.015518181 0.094001606 -0.113914154
0001f0 bb c7 1d bc 38 cb d1 bd e3 e9 cb bc 8d 62 74 3d
       -0.009630139 -0.10243839 -0.0248918 0.059664298
000200 12 e0 45 3d 73 09 bc 3d e3 91 6d bd 3c 3a 92 3d
       0.048309393 0.0918149 -0.058000457 0.071400136
000210 54 89 b9 3d b4 cd 85 bd 0e c8 44 bd 06 6f ac 3d
       0.090593964 -0.065333754 -0.04804235 0.084196135
000220 fd e7 8b 3d 8d 1f c3 bd 44 3d 98 bd 89 ff e1 3c
       0.06831358 -0.09527502 -0.074335605 0.027587669
000230 d0 61 69 bd d0 41 4f bd 93 73 09 be a4 f0 00 be
       -0.056978047 -0.050599873 -0.13422994 -0.12591797
000240 6d 3b 02 3e 30 83 33 be d8 58 38 3e 91 fb bd 3c
       0.12717982 -0.17530513 0.18002641 0.023191245
000250 8d 63 b2 bb 90 a1 c7 3d ea 5c dd bc e3 50 5f bc
       -0.0054439963 0.097476125 -0.027021844 -0.013630125
000260 cb e8 aa bc ac cc bf bd ca 71 b2 3d 63 91 97 3d
       -0.020862957 -0.0936521 0.0871311 0.07400777
000270 9f 37 02 bd ea 23 49 bd d0 17 49 3d 12 85 b4 bd
       -0.031791326 -0.049106516 0.049094975 -0.08814444
000280 27 a6 ac 3d 19 12 f8 3d 12 42 97 bb 77 44 bc bd
       0.084301285 0.12112827 -0.0046160305 -0.09192746
000290 c6 8a f5 bd f5 23 e7 bd e4 22 2f bd 2f ed c4 3c
       -0.119893596 -0.11286155 -0.042757884 0.02403888
0002a0 13 77 71 3c b5 d8 ed bc 80 8e b2 bd 61 f5 1d bd
       0.014737862 -0.029033998 -0.08718586 -0.03856409
0002b0 05 7e 00 be 31 27 45 bd ef 99 7e 3d b3 82 25 bd
       -0.12548073 -0.04813308 0.06215852 -0.040407848
0002c0 0f bd c8 3d e6 cd 45 3c 37 00 d3 bd 9f d9 2f bd
       0.09801685 0.012073016 -0.10302775 -0.04293215
0002d0 79 70 ed bb 74 23 ef b8 dc 21 c0 3d 36 cf d8 3d
       -0.007246074 -0.00011403012 0.09381458 0.10586397
0002e0 59 cd 53 bc e8 9a c8 3c ed 12 6f 3d be fb 49 3d
       -0.012927377 0.024487928 0.05836766 0.049312346
0002f0 44 b5 99 bc 04 4f d1 3c b9 7a a5 bd 7e cd 23 3e
       -0.018763192 0.025550373 -0.08080048 0.15996358
000300 e6 3c 7c bc b3 94 34 bb b9 91 36 3d e6 0b 0c 3e
       -0.015395379 -0.0027554452 0.044572566 0.13676414
000310 88 c0 44 3d 1f 19 bb 3c 52 54 c7 3d 64 ff c4 3d
       0.048035175 0.022839127 0.0973288 0.096190244
000320 97 cf ef bb 54 47 32 bd 77 da 96 bb 02 b7 e1 3d
       -0.007318448 -0.043525055 -0.0046036798 0.11021234
000330 19 c7 f8 bc 05 36 29 3e fe 14 47 bd 7c 6a 99 bc
       -0.030368375 0.16524513 -0.048604004 -0.018727534
000340 24 ae 31 3e a9 72 ee bd 75 08 31 be 96 bc fd bb
       0.17351586 -0.116429634 -0.17288382 -0.0077434285
000350 84 30 36 3d fa 40 25 bd 3a 58 ad bd 89 a6 16 be
       0.04447986 -0.04034517 -0.084640935 -0.14711966
000360 e8 35 17 bc ea 2e fd 3a 1e e2 d6 3d 71 71 27 be
       -0.009229161 0.001931635 0.10492347 -0.16351868
000370 a9 b3 24 bc 7d 2c d0 3c 93 58 9e bd 37 8d 9f 3d
       -0.0100526 0.025411839 -0.07731738 0.077906065
000380 63 86 6e 3d 60 50 83 3c 99 eb 3d 3b 9d 36 7b 3d
       0.05823363 0.016029537 0.0028979538 0.06133138
000390 a9 49 63 3d 5d 31 11 3d 32 57 8c 3d c6 f7 1b bd
       0.05549017 0.035447467 0.06852569 -0.038078092
0003a0 a0 f6 1e 3e ad 5e a4 bd c1 79 2c bc 2a ac 92 bd
       0.15523767 -0.080258705 -0.010527075 -0.07161744
0003b0 3e 79 10 3e 87 05 b2 3d 59 76 06 bd 83 b9 89 bc
       0.1410875 0.086924605 -0.03282771 -0.016812092
0003c0 ec 34 25 bd 0a ed 91 3d 98 3b a8 3c 6e b0 19 bd
       -0.040333673 0.0712529 0.020536229 -0.037521772
0003d0 bb 35 16 3d fa c7 0f 3d 40 91 55 3c da b1 bb bc
       0.036672335 0.035102822 0.013035119 -0.022911955
0003e0 ac 0e 07 3e b4 10 a1 bd ee ac 50 bd 48 88 4f bd
       0.1318919 -0.07864514 -0.05094617 -0.050667077
0003f0 ce 0d 4f 3d 91 dc 5b 3d 08 a1 b6 bd ad e8 9b 3c
       0.050550275 0.053677145 -0.08917433 0.019031847

encoder.1.bias f4 [32]
000000 f8 bb 27 37 11 b0 4f bb 78 8f 85 39 ee d3 b9 b8
       9.997741e-06 -0.0031690637 0.0002547463 -8.8609624e-05
000010 e3 90 9a 3a 4d 49 3e bb e4 48 0f bb 29 72 e3 b9
       0.0011792447 -0.002903539 -0.0021863515 -0.0004338187
000020 ff 9e 7d 3a d6 b4 03 bb af d1 cd b8 83 c5 e4 b8
       0.00096748763 -0.00200968 -9.814218e-05 -0.000109086766
000030 43 f6 a8 3a 7c 93 7b ba 98 a3 d2 ba a5 e7 62 bb
       0.0012890775 -0.0009596867 -0.0016070483 -0.0034622934
000040 0b 59 b9 b9 ba 51 9b ba e8 61 f4 b8 c5 e2 ac ba
       -0.00035352292 -0.0011849918 -0.00011653063 -0.0013190141
000050 32 2f f5 b9 4e 32 bc ba 47 87 9f b9 a4 7b 46 ba
       -0.00046765205 -0.0014358254 -0.00030427633 -0.00075715245
000060 5c dd 82 3a 2b ff 36 3b 36 44 05 3b 43 48 3f ba
       0.0009984183 0.0027923088 0.0020334846 -0.00072968396
000070 15 57 e1 ba 3d ef 19 3a c8 d8 18 ba 24 04 68 3b
       -0.001719209 0.0005872136 -0.0005830643 0.0035402859

encoder.4.weight f4 [64, 32, 3, 3]
000000 d4 1b 20 be 2c 9e b6 bd 78 e0 1d 3d 92 62 82 3d
       -0.15635616 -0.08916888 0.03854415 0.06366457
000010 31 f8 83 3d fa 99 24 3d 50 bf bf bd 4d 9c d7 bd
       0.06443823 0.040185906 -0.09362662 -0.10527859
000020 3d 2e 07 3c 67 f0 09 3e 29 35 f7 3d 2a 1a 18 be
       0.00825077 0.13470612 0.12070686 -0.14853731
000030 53 57 44 be be e9 5b bd df e0 b2 bd 3b 81 83 3d
       -0.19173937 -0.05368971 -0.08734297 0.06421133
000040 48 4c a3 bd a5 61 96 bd 41 50 ea 3d 50 be ec 3c
       -0.07973534 -0.07342843 0.114410885 0.028899342
000050 76 6b 1e be f4 8b fc 3b eb ca a3 3d 6c d1 86 bd
       -0.1547068 0.0077071134 0.07997688 -0.06582913
000060 51 28 58 bd c7 ef 44 3c e4 b3 03 3d 80 e3 e2 bd
       -0.052772824 0.012020058 0.03215398 -0.110785484
000070 5a bd c1 bd 78 53 9e bc fb 1e 3f bd 3f ea 8a 3d
       -0.09459944 -0.01932691 -0.046660405 0.0678296
000080 89 9d 7b bd f3 ba 05 be 20 dc c8 bd 13 4c ef bc
       -0.061429534 -0.13059597 -0.098076105 -0.02921108
000090 a1 f0 35 3e 4b b2 06 bd 1c 21 19 3e e5 88 05 bc
       0.17767574 -0.032884877 0.14954036 -0.008150314
0000a0 a8 96 df bd aa 16 07 be b8 af 16 be 2f 88 fa bc
       -0.10917407 -0.1319224 -0.14715469 -0.030582516
0000b0 b0 a0 cf bc 13 c4 cd 3d d8 77 dd bc 19 34 51 3d
       -0.025345176 0.10047164 -0.027034685 0.051075075
0000c0 23 93 b5 bd 51 3a 06 bd c0 6b 0a 3e 4d 75 af 3d
       -0.08865955 -0.03277046 0.13517666 0.08567295
0000d0 cd 14 dd bc 55 76 fd 3d cf 6c 76 3d 8d c8 d6 3c
       -0.026987458 0.12376086 0.06016236 0.026218677
0000e0 36 3d 50 bc 5b aa b4 3d 64 63 21 3d 07 d9 68 3d
       -0.012709906 0.08821555 0.039401427 0.0568476
0000f0 70 d1 c5 bd b3 5a ea bd 92 6f 1c 3d 00 91 c7 3b
       -0.09659088 -0.11443081 0.03819234 0.0060902834
000100 d8 ab 26 3e c3 12 8e 3d d6 fc 29 be 3c 52 ab 3d
       0.1627649 0.06937172 -0.16600356 0.08365294
000110 ca c9 97 bc fa 30 a0 bd e7 07 52 be 2f b5 c8 3c
       -0.018528838 -0.078218415 -0.20510827 0.024500458
000120 81 e4 c7 3d e2 16 a6 3d 3b 03 63 3d 6f 35 1b 3d
       0.097603805 0.08109833 0.055423003 0.037892755
000130 08 7d 5a bb 54 1c 2f 3d a0 b6 cf 3d f6 f7 33 bd
       -0.0033338685 0.042751625 0.10142255 -0.043937646
000140 26 cf 6d bd 73 73 b4 3b 3f c1 6a 3c 16 b9 c0 bc
       -0.05805888 0.0055069267 0.0143283 -0.023525756
000150 d7 db 8d 3d 69 5a 3b bd 31 75 7e 3c f3 95 ba 3c
       0.06926697 -0.04574052 0.01553087 0.02277658
000160 cb d8 84 3d 62 5c 91 3c 31 65 5f bb de 60 f0 3d
       0.064866625 0.017744247 -0.0034087414 0.11737226
000170 f8 8a 71 3d b6 41 d8 3b 3c c3 43 bd 4e 0d b2 bd
       0.05897042 0.00659963 -0.047793612 -0.08693944
000180 a0 e7 d4 3d db 6a 00 3d e1 68 39 be a6 79 11 be
       0.103957415 0.031351905 -0.18106414 -0.14206561
000190 74 36 93 bc 69 7c 21 3e 98 cd e0 3d 04 7d 29 bb
       -0.017970301 0.15770115 0.10976714 -0.0025861869
0001a0 1b 03 f2 3c b1 0d 53 3d dc e8 76 3d 49 a3 2d 3e
       0.029542496 0.05152673 0.060280666 0.1695682
0001b0 ab 48 9a bd 34 90 61 bd 24 b0 c6 3d a7 39 86 bd
       -0.075333916 -0.055069163 0.09701565 -0.06553965
0001c0 fe 46 d4 3d cc db 59 3d 55 5e 99 bd 24 b7 2b bd
       0.10365103 0.05318813 -0.074886955 -0.041922703
0001d0 e4 a7 6b 3d 5b 6f 6d bd 8c bd f9 bc c7 a0 a1 bc
       0.05753316 -0.057967525 -0.03048589 -0.019729985
0001e0 73 2b e8 bd 0f 06 1e 3c 3e ef 6e bd dd 39 91 3b
       -0.11336412 0.009644999 -0.058333628 0.0044319467
0001f0 1b e5 9a bd 5b b8 33 bd 2c d1 87 bd 9d f9 6a 3d
       -0.0756323 -0.043876987 -0.06631693 0.057366956
000200 e8 d4 ac bb f6 2b 95 3d c0 65 9b bd c9 f7 41 3c
       -0.005274404 0.072837755 -0.07587767 0.011838862
000210 5d bb 48 be 97 0b f0 bd dd bf 5a 3d 3d aa 65 be
       -0.19602723 -0.117209606 0.05340563 -0.22428222
000220 68 62 df 3b c3 21 75 bd 73 38 0a be 78 0b 3a b9
       0.006817151 -0.05984665 -0.13498096 -0.00017742615
000230 5c e2 a1 bd b9 2e a2 3b 1e f2 7d 3d d5 c4 d4 3d
       -0.07904503 0.0049494174 0.06199848 0.10389105
000240 c3 00 b7 bd 47 83 9f 3c eb e0 f4 3d 24 5e 05 bd
       -0.08935692 0.019471778 0.11956962 -0.032560483
000250 fc 8f 11 3e 02 22 40 3d 09 b0 07 be 70 1a 21 3e
       0.14215082 0.046907432 -0.13250746 0.15732741
000260 2c c9 a1 3d ea 63 48 be c9 b6 c6 bb 15 48 4b 3d
       0.078996986 -0.19569364 -0.00606427 0.04962929
000270 33 0d 0b 3c 05 37 28 bd 91 f0 ca bd 10 21 95 bc
       0.008487034 -0.041068096 -0.09909166 -0.018204242
000280 4c 5e 04 bc ee 0b e5 bc 24 6c 8d 3d e3 2d 52 bd
       -0.008079123 -0.02795979 0.06905392 -0.051313292
000290 e4 09 d5 bd 2a 19 2e 3d d9 8f a5 bd fe 71 ab bd
       -0.10402277 0.042504467 -0.080840774 -0.08371352
0002a0 ce 7b ed bb b7 e6 83 3c fc 6d 95 3d 2a e8 92 ba
       -0.0072474247 0.016101224 0.072963685 -0.0011208106
0002b0 27 9f 79 3d db 31 9f bd f9 e6 54 3d da 72 87 3d
       0.060942795 -0.07773181 0.051978085 0.06613703
0002c0 b0 08 b3 bc 20 71 c7 bb fb 8c 24 3c b3 4e 7e bd
       -0.021854728 -0.0060864836 0.010043378 -0.062086772
0002d0 d2 0a af 3d 19 09 7f bc 16 31 be bd 81 6e 73 3e
       0.08546986 -0.015566134 -0.09286706 0.23772623
0002e0 3b a2 1f bd 15 3f 06 3e a6 50 13 3d 2b 7f 3b bd
       -0.038973074 0.13110001 0.035965584 -0.045775574
0002f0 2d 27 8f bc 1a 28 83 3c 0f 35 ef bd fa 06 b5 3d
       -0.017474735 0.016010333 -0.11680042 0.08839221
000300 ee ab ce bd 29 86 09 be c5 63 1b 3d 42 87 86 bd
       -0.10091387 -0.13430084 0.037936945 -0.06568767
000310 02 db 95 3d 53 41 0a bc a2 0c 39 bd b7 c3 b5 bb
       0.07317163 -0.008438426 -0.045178063 -0.0055470127
000320 08 2b a6 bd 95 7f 35 3d 47 2e e4 bd 06 7f a6 bd
       -0.08113676 0.044311125 -0.11141639 -0.081296965
000330 29 66 9e ba 29 4d 80 3d f8 17 bf 3b 69 ea 87 3d
       -0.001208489 0.06264717 0.0058317147 0.06636507
000340 e8 68 8e ba 21 06 d2 3b 54 75 75 bd 89 a5 df 3c
       -0.0010865005 0.006409422 -0.059926346 0.027300613
000350 ec e7 a4 3d 61 de 1f 3e 11 46 a3 bd fa de 19 bd
       0.08052048 0.15612175 -0.079723485 -0.037566163
000360 d0 1d 43 bc b0 4e f9 bd 9a 28 9a 3d f8 55 7d 3c
       -0.011908963 -0.121732116 0.075272754 0.015462391
000370 08 55 c8 bd 9a da b1 3b 79 87 4d bd 03 06 85 bd
       -0.097818434 0.0054276707 -0.050178025 -0.06495287
000380 94 6b 8f bd 53 41 01 3e 23 e7 83 3d c1 68 f2 3b
       -0.07002941 0.12622575 0.0644057 0.0073977415
000390 b2 c3 b1 3c 2b 81 d1 3d ce f5 99 3d b4 d1 33 bd
       0.02169976 0.10229715 0.07517587 -0.04390116
0003a0 32 c3 83 bb ec 54 1a bd 82 56 46 bd bc 5b b7 bd
       -0.004021072 -0.037678644 -0.048422344 -0.08953044
0003b0 b4 de a9 bc ff 6c d6 3b 7e b6 03 3e 0b 5f b3 bd
       -0.020736076 0.006543755 0.12862584 -0.087583624
0003c0 3e f9 1c bc 7c ec b6 bc 54 49 87 bd a7 fe 9c bd
       -0.009580908 -0.022329561 -0.06605783 -0.076657586
0003d0 a9 de e5 bd 62 9b a1 bb cc f2 ad 3d 75 a1 3a bd
       -0.1122411 -0.004931853 0.084935755 -0.045564134
0003e0 bd 50 db 3c 5d 94 a5 bd 27 79 77 3d 26 52 cc 3d
       0.026771897 -0.08084939 0.060418274 0.09976606
0003f0 ad 2b 03 3e 99 e9 19 be 79 a3 0c bc 6d ca 26 bc
       0.1280963 -0.15030517 -0.008583897 -0.010180098

encoder.4.bias f4 [64]
000000 36 26 f4 ba e4 e9 46 ba bb 1f 6a ba a9 8b 0a bb
       -0.001862711 -0.0007587953 -0.000893112 -0.0021140373
000010 dc f2 08 bb 83 9b e9 37 9e 00 e2 ba 8d 94 3b ba
       -0.0020896709 2.784818e-05 -0.0017242616 -0.00071556197
000020 ef b6 4b ba 1f ef 34 3a 7e 17 12 bb e5 e8 38 3b
       -0.00077710947 0.0006902087 -0.0022291834 0.0028214988
000030 dd ce 0b 3a 4d 79 a5 39 7b fc 45 ba 2f c5 05 ba
       0.0005333254 0.0003156163 -0.0007552576 -0.000510293
000040 f8 f1 d5 38 8c cc df b6 6d ea 1a ba b9 74 89 b9
       0.00010201702 -6.6697303e-06 -0.0005909566 -0.0002621764
000050 97 83 1b b8 bf e5 c1 3a 49 b3 41 ba db af 97 3b
       -3.7077432e-05 0.0014793201 -0.00073890813 0.004629118
000060 04 e7 57 ba 5c 9e ea b9 81 77 00 bb 74 b1 09 39
       -0.0008236023 -0.00044749945 -0.001960248 0.00013131445
000070 dd fa 1a 3b 03 81 36 bb 55 50 9a 39 eb 6c c1 39
       0.0023648061 -0.0027847893 0.0002943302 0.0003689298
000080 30 05 30 bb 6b f4 b3 b8 63 39 d4 3a f8 f9 a6 ba
       -0.002685856 -8.5809115e-05 0.0016191419 -0.0012739291
000090 50 b4 5b ba 6f dd 44 38 b0 d8 ca 39 63 28 a2 ba
       -0.00083810557 4.6936268e-05 0.00038689887 -0.0012371655
0000a0 d5 ef 2e ba 3a 47 37 ba 03 97 da b9 d1 57 23 3b
       -0.0006673311 -0.00069915096 -0.00041692713 0.0024924169
0000b0 80 e3 ce b8 4f 71 b4 ba 05 eb d8 b9 ce 43 54 3a
       -9.8652206e-05 -0.0013766679 -0.00041373834 0.0008097262
0000c0 0c 80 ab 38 74 a4 13 ba 91 15 b5 b8 d8 ff d7 38
       8.177766e-05 -0.00056321104 -8.6347696e-05 0.000102996535
0000d0 0f 00 81 3a c6 8f 49 ba 48 7d b9 3a e9 76 1b 38
       0.0009841936 -0.00076889654 0.0014151717 3.7065623e-05
0000e0 1d 71 d4 3a 1b 6e 09 39 e4 c5 c1 b9 01 43 22 3a
       0.0016208027 0.00013106356 -0.0003695927 0.0006189794
0000f0 6b 15 b1 ba 12 9d 29 ba e8 36 e8 3a 2d b3 01 bb
       -0.0013510411 -0.00064702437 0.0017716559 -0.0019790635

actor.0.weight f4 [64, 32, 3, 3]
000000 6a bf de 3d f8 eb a1 bd d2 c9 6f 3d c2 5d b9 bd
       0.10876353 -0.079063356 0.05854208 -0.09051086
000010 03 9f a0 3d 0e 49 22 bc a4 b3 f6 3a c0 02 ac bb
       0.07842829 -0.009905113 0.0018821848 -0.0052493513
000020 12 53 c7 bb d7 f2 10 3d 45 0c da 3c e8 1c 9c bd
       -0.006082901 0.03538784 0.026617179 -0.07622701
000030 8a 01 b5 bd 3e da bd 3d 8b 7b 91 bd 79 9e 0c bd
       -0.08838184 0.09270142 -0.07103642 -0.03433082
000040 1b 37 cc 3d 1f d9 a2 bb e5 11 be bd 35 c0 9a bd
       0.09971448 -0.0049697305 -0.09280757 -0.07556192
000050 b2 94 29 be 5a 19 ee 3d ca ae 8b 3d 74 2f df bd
       -0.16560629 0.11625929 0.06820448 -0.10897723
000060 40 23 b9 3d f7 8a 0a 3e 5f df 3f 3d 3d 78 79 3c
       0.090399265 0.13529573 0.046843883 0.015226421
000070 c7 3d b6 3d 4b 4b fa bc 71 1d 00 3e af 09 37 3c
       0.08898502 -0.03055348 0.12511231 0.011171742
000080 fe 15 74 3d 36 12 d0 3d a2 05 04 bd 0d 17 d5 bc
       0.059591286 0.101597235 -0.032231934 -0.026011968
000090 40 18 4c 3d e8 a9 cb bc 73 d8 c2 bc e6 96 e6 bd
       0.049827814 -0.024861291 -0.023784852 -0.1125925
0000a0 0a ab bd 3d 6c fc ce bd d3 9a 52 bc 2b 2e 42 3d
       0.09261139 -0.101067394 -0.012854296 0.04740731
0000b0 3f 96 be 3d 54 e9 3f 3d ab a0 0b be 4f e3 03 3e
       0.09306001 0.04685338 -0.13635509 0.1287968
0000c0 1f 37 e3 bd d0 49 d7 bd 6e 3e 37 bd ad ae 0f bb
       -0.11094498 -0.105121255 -0.044737272 -0.0021924183
0000d0 5b 86 cc 3d ad ce 2e bd 10 04 2e 3d ad 2b 99 bd
       0.09986564 -0.04267757 0.042484343 -0.074790336
0000e0 ce fa 1a bd 4d 4b 93 3c 7b 4c 5c bd 45 45 bd 3d
       -0.037836842 0.017980242 -0.053783875 0.09241728
0000f0 d5 8d b6 bd 80 b4 83 3e 58 48 1a 3e 0c 82 65 3e
       -0.08913771 0.25723648 0.1506666 0.2241289
000100 61 07 fa 3a d0 a0 65 bd 93 14 ff bd 87 1d 58 be
       0.0019075685 -0.056061566 -0.12455096 -0.21105014
000110 a5 87 a1 3d 33 1c 00 bd ec 21 e9 bd 93 fe 28 3d
       0.078872 -0.031276893 -0.11383423 0.041258406
000120 36 9b 27 3d e4 a4 51 ba 11 30 e2 3d fa f0 dd 3c
       0.040919505 -0.0007997288 0.11044324 0.027092446
000130 eb 15 22 3d fb e8 8c bc 46 7d 92 3c 90 cf 18 bd
       0.039571684 -0.017200937 0.017882 -0.037307322
000140 34 89 03 be d3 2f d7 3d a3 cc ce bc a9 a7 09 3d
       -0.12845308 0.105071686 -0.025244063 0.03360716
000150 b6 00 c6 3d 11 2d 77 bd 3f c5 98 bd da 2b 90 bd
       0.09668104 -0.060345713 -0.07459497 -0.07039614
000160 26 6b 7d bb f6 3b 29 bd 67 68 42 3c 38 43 ad bd
       -0.0038668602 -0.04131695 0.011865712 -0.084600866
000170 a8 fc 6a 3d 3b 8a 5a 3d 26 8b cc 3d df 0d c8 3d
       0.057369858 0.053354483 0.09987478 0.09768271
000180 9e 1a 08 3e 61 e0 70 3d f0 6c 75 bc 7a e9 00 bd
       0.13291404 0.058807734 -0.014979586 -0.03147266
000190 bf 0a d8 3d 32 2c 53 bd 57 76 8a ba 44 59 87 bd
       0.10548925 -0.05155582 -0.0010563832 -0.06608823
0001a0 5e ed 3a 3c 21 0a e6 bd 3c a0 98 3d 5c 45 4b bb
       0.011409132 -0.11232401 0.07452437 -0.0031016683
0001b0 c6 54 43 3e 8a df 83 bc 20 ea 1a 3d 9e b4 d3 bd
       0.19075307 -0.016097803 0.037820935 -0.10337184
0001c0 9a 49 89 bc 92 3b 90 bc 12 80 0b 3d 4c a0 b4 3c
       -0.016758729 -0.01760653 0.034057684 0.022049092
0001d0 b6 03 90 3c 74 29 8e bb 5b 92 f6 bd 69 92 e4 3b
       0.017579895 -0.0043384377 -0.12039634 0.0069754613
0001e0 4b e9 45 3e 22 c5 37 3c aa 23 4a 3d cf e7 3a bd
       0.19327275 0.011216434 0.04935042 -0.045631226
0001f0 c3 87 a1 3d 39 24 0b 3c 56 ee 3c 3c 72 a4 90 3c
       0.078872226 0.008492523 0.011531433 0.017656539
000200 8d 78 33 3b f3 3d 2b 3c fd 66 1e 3e 89 8a fd bc
       0.0027385086 0.010451782 0.15468974 -0.030949848
000210 93 93 0b 3c ee 2f 16 3d 27 50 3b bd fe 3c 67 3d
       0.008519071 0.036666803 -0.045730736 0.05645465
000220 e7 44 68 3d ce 49 6d 3c 44 4a ed bc 9a 82 b9 3d
       0.056706335 0.014482928 -0.028966077 0.090581134
000230 e1 cf 20 3b 6c e4 e3 bd 98 f9 b6 bc 5a 83 90 3d
       0.0024537968 -0.111275524 -0.022335812 0.07056303
000240 71 4e fb bd 12 f9 e3 3d 48 e6 49 3d fb dd 90 3b
       -0.12270821 0.11131491 0.04929188 0.0044209934
000250 25 3b 81 bb 3d 86 bd 3d 7d 9c 22 bd 33 89 c5 bd
       -0.003943818 0.092541195 -0.03970002 -0.09645309
000260 2f 5c 91 bd c9 eb 7b bc ee 96 b8 bb 51 6b 98 3d
       -0.07097661 -0.01537604 -0.0056332266 0.07442344
000270 d1 13 e1 bc 77 fb 8a 3d 0d fa 1e be c3 c5 1e be
       -0.02747527 0.06786244 -0.15525074 -0.15505128
000280 ed 9c 21 be a1 c2 51 bd 62 33 55 3e ae 5c 92 3c
       -0.15782519 -0.051211003 0.20820382 0.017866459
000290 63 61 90 3d ab fe e1 bd 55 86 8a 3d 18 7b 5f bb
       0.07049825 -0.11034902 0.06763903 -0.003410047
0002a0 28 ce 17 3e a6 d0 bc 3d 47 08 4d be 8c 79 02 bd
       0.14824736 0.09219484 -0.20022689 -0.031854197
0002b0 e5 77 26 3d c9 37 2d 3d d3 ad 7b 3e 5c 1e 15 bd
       0.040641684 0.04228953 0.24578027 -0.036405906
0002c0 c7 ef b5 bd 1e 05 6d 3d 7e 26 08 be 74 90 32 bd
       -0.088836245 0.05786621 -0.13295934 -0.043594792
0002d0 3b 2b 16 bd 30 df 4a 3e 0f da 29 be 09 ab 88 bd
       -0.03666232 0.19811702 -0.16587089 -0.06673247
0002e0 b0 f9 f2 bd f8 bd 91 3c 28 c1 7a 3b 83 51 c8 bc
       -0.1186403 0.01779078 0.0038262103 -0.02445293
0002f0 29 7b fd bc f6 4f 28 bd ea aa 64 3d 79 1c bf bd
       -0.030942516 -0.04109188 0.05582706 -0.093316026
000300 01 ac 97 3d 38 4b 30 3c ad 5d 9a bc d4 df e1 bc
       0.07405854 0.010760121 -0.018843496 -0.02757255
000310 d7 f7 f6 bc f9 63 8e 3d ee 20 30 3c 1a 3b 59 3b
       -0.030147476 0.06952662 0.010750039 0.00331468
000320 d0 9f eb bd 6f 23 30 3d 3f 61 b3 bc 63 d5 2d bd
       -0.11505091 0.043002542 -0.021896956 -0.04243983
000330 c3 e7 ee 3c a2 b4 68 bc 36 8c 83 bc e9 5c b9 bd
       0.029163247 -0.0142032225 -0.016058069 -0.09050924
000340 27 37 49 be f5 e7 0b 3c af 35 47 be cd e6 09 be
       -0.19649945 0.00853919 -0.19454072 -0.1346695
000350 00 79 56 bd 12 08 a6 bd cf 19 8d bc 84 f2 60 3d
       -0.05236149 -0.08107008 -0.01722422 0.05491878
000360 d3 42 99 bd 3c ff d0 3c 8a 50 47 3d 72 6d 55 3d
       -0.07483449 0.02551233 0.048660792 0.05210633
000370 cd f8 64 bc 9d 68 c9 bc 79 1a a7 3c f3 0f 08 be
       -0.013975334 -0.024586016 0.020398365 -0.13287334
000380 2e 24 7b bd f9 9e 11 3e dc 18 fa bc 85 72 81 bd
       -0.0613138 0.142208 -0.030529432 -0.06320671
000390 4c 0a 90 3c 21 dc df 3d 52 5b 0f bd db 5d 2d 3d
       0.017583035 0.10930658 -0.0349992 0.042325836
0003a0 35 21 d4 bd 8f 3c 82 bd 63 21 3f bd 0b f2 0c 3e
       -0.10357896 -0.06359207 -0.0466627 0.13764207
0003b0 44 04 ca 3c 74 8d d7 bc 4f 33 94 3d 5f b6 db bd
       0.024660237 -0.026312567 0.07236349 -0.10728144
0003c0 85 14 81 3a 46 1c ff 3d 4e 70 41 3e 39 d8 d3 3d
       0.0009848034 0.124565646 0.18890497 0.103439756
0003d0 dc cd 9e bd da 19 a7 3b 8b 57 13 bd 90 4f 19 bd
       -0.07754108 0.0050995173 -0.03597216 -0.037429392
0003e0 62 e4 ab 3d 7c af 9a bc 22 ab 13 bd c0 1a 92 bd
       0.0839317 -0.018882506 -0.036051877 -0.071340084
0003f0 a0 41 bf 3d c6 ed 0c bd 3a 1b c6 bd 67 a6 a6 bd
       0.09338689 -0.034406446 -0.09673162 -0.081372075

actor.0.bias f4 [32]
000000 d7 a2 d5 ba 59 90 f8 39 78 2f c9 3a f6 f7 06 b9
       -0.001629914 0.00047409793 0.001534923 -0.00012871608
000010 34 55 12 bb 17 b8 0b bb 7e 6d b4 ba 5a f8 de 3a
       -0.0022328617 -0.0021319443 -0.0013765541 0.001701127
000020 d5 40 3e bb ce ac 1b bb b5 e0 7e 39 3c 6a cb 39
       -0.0029030342 -0.0023754123 0.00024307038 0.00038798328
000030 cd 1b 5d 3b 0a 41 9d ba 46 2b f0 ba 9b 84 77 3b
       0.0033738494 -0.0011997533 -0.0018323443 0.0037768248
000040 5e 06 5c 38 9a a9 f2 ba 19 d7 9a b9 46 4a 8a 3a
       5.2458017e-05 -0.001851368 -0.0002953343 0.00105507
000050 fe 7e 3b 3b e3 fe 6b 3a 10 56 a4 3a 80 ff a9 ba
       0.0028609629 0.00090025197 0.0012537856 -0.0012969822
000060 68 db 27 38 20 1e 85 3a d9 b4 6b bb cf 09 a8 3a
       4.002024e-05 0.0010156073 -0.0035965948 0.0012820306
000070 8b 30 e7 39 b8 de 3f 3b 0a 4e 5f 3b 3d 3b 1a bb
       0.0004409592 0.0029277038 0.0034073615 -0.0023533844

actor.2.weight f4 [32, 78, 3, 3]
000000 32 73 f4 ba 04 d2 24 3d e8 a1 94 bb b1 ed 60 3b
       -0.0018650054 0.04023935 -0.0045359023 0.0034321363
000010 16 df e4 3c b7 04 0f 3d 2f 6f 7d bd f3 99 a7 bc
       0.027938407 0.034916606 -0.06187361 -0.02045915
000020 0a 27 ac bd a4 2b 9a bd e0 f1 6a bd f7 3a 1d 3d
       -0.084058836 -0.07527855 -0.057359576 0.03838631
000030 1f b9 68 3d 80 51 b7 bc fa 35 a2 3d 2f 81 2a 3d
       0.05681717 -0.02237773 0.079204515 0.041627105
000040 b7 e0 23 bd a7 ae 8c bd 36 ff 67 bd 23 84 7e bc
       -0.040009227 -0.0686925 -0.056639872 -0.015534434
000050 be 2a 94 3d 06 96 9f bd 5b a7 bf 3d a8 54 61 bd
       0.07234715 -0.077922866 0.093580924 -0.055012375
000060 e9 46 8e 3d 48 32 6d bd 38 ce 83 bd 3b 12 05 3d
       0.06947119 -0.05790928 -0.064358175 0.03248809
000070 6b 5a 22 bc e9 86 ad 3c 85 57 c9 ba 5f 9b a7 3d
       -0.009909253 0.021182494 -0.0015361166 0.081839316
000080 cf 7b 01 3c 81 1b b5 bd bb 39 3d bd b1 ce be 3b
       0.007903053 -0.088431366 -0.046197634 0.0058229794
000090 db 3c c1 3c 86 70 8a bd 41 bc 7f 3d 5a 51 54 3c
       0.023588588 -0.067597434 0.062435392 0.012958849
0000a0 4e c4 28 bd d7 4b 19 3d 3c 84 94 bd c5 16 0c 3d
       -0.041202836 0.037425842 -0.07251784 0.034201402
0000b0 b0 43 22 3d 91 5e 42 3d 2b 07 1b 3c 5f 5c 86 3c
       0.039615333 0.047453467 0.009462158 0.016401468
0000c0 b6 5e e9 3b 82 0e 80 3c fd 7e 2e 3d 80 6a 21 bc
       0.007121886 0.015631918 0.042601574 -0.009852052
0000d0 b2 84 03 bc 70 15 a4 bd 63 6a d9 3c 77 7b c0 3d
       -0.0080272425 -0.080119014 0.026539987 0.09398549
0000e0 53 bf 95 bd 0e 45 0f bd 97 ab d1 bd c9 15 b7 3d
       -0.07311883 -0.034977965 -0.10237806 0.08939702
0000f0 7c 46 c4 3a d3 9a 6b bd 1c e5 5f bd a7 e3 9c 3d
       0.0014974619 -0.0575207 -0.054661855 0.07660609
000100 6a ff 63 bd 4f 13 1d bc 92 7f 02 bd 0a 86 96 bd
       -0.055663504 -0.009587123 -0.03185994 -0.07349785
000110 fd 32 57 3d 5e ab 04 3d 7c 75 fe bd 54 41 05 3d
       0.05253886 0.03238999 -0.12424752 0.032533005
000120 de 65 38 3c c3 74 f2 3a 5a 45 5d bd 48 e3 72 3d
       0.011254756 0.0018497932 -0.054021217 0.059298784
000130 cf d5 27 3d 2f 09 b1 bd 6c 7c 9f bc c5 bb 8b bd
       0.04097539 -0.0864433 -0.019468509 -0.068229236
000140 14 d8 98 3d 88 0a 85 bc ed 17 7b bd 33 6a 90 bc
       0.07463089 -0.016240373 -0.061302114 -0.017628765
000150 31 cc c5 3c b5 a1 5c bc fa de 9e bd a2 99 7d bd
       0.024145218 -0.013466288 -0.07757373 -0.061914094
000160 4d a2 8e 3d 85 70 0b be 0c 8b f1 3d 4e 14 88 bd
       0.0696455 -0.13617142 0.11794099 -0.06644498
000170 73 d9 a8 bd e8 db 5f bd 5f fe 0c 3d 99 8d 4d bd
       -0.082446 -0.05465308 0.034422275 -0.050183866
000180 00 6b 22 3d bd 71 18 3c 8a 8a fd 3a 5e a7 42 bd
       0.039652824 0.009304461 0.0019343656 -0.047522895
000190 ea 77 ea bb 40 af a2 bd 5a d3 49 3d bf 1a 13 3d
       -0.007155408 -0.079435825 0.049273826 0.03591418
0001a0 cc 5f e0 3c 4e cb b9 3c 37 29 83 bd c7 a7 d8 bd
       0.02738943 0.022679951 -0.064043455 -0.10578876
0001b0 43 db 7e bc 3e e8 64 3c 59 14 07 3e 9b 4a 4d bd
       -0.015555206 0.0139713865 0.13191356 -0.050119977
0001c0 30 e9 b2 3c 44 7f 51 bd 89 66 06 3c e6 2d c6 bc
       0.021839708 -0.05114676 0.008203157 -0.024191808
0001d0 b2 6e f4 bd 70 32 ab 3b 86 29 a7 bd f3 f7 1c bc
       -0.11935176 0.0052245185 -0.08162217 -0.0095806
0001e0 ce c8 14 3d 29 c6 46 bd df c1 54 bd 7d e6 d6 bd
       0.036324315 -0.048528824 -0.051942702 -0.10493181
0001f0 cf 34 e3 bd f7 91 17 3d 33 50 73 bd 96 bd 86 bd
       -0.11094057 0.037004437 -0.059402656 -0.065791294
000200 3d ef b4 3d fb 0e 47 3d 5d 9a 88 bd 2a 59 91 bd
       0.088346936 0.04859827 -0.066700675 -0.07097085
000210 a2 c1 d1 bb 68 d4 84 bd 7b bc 3f bd 92 57 24 bd
       -0.0064012567 -0.06485826 -0.04681061 -0.040122576
000220 b3 11 00 bd 74 b4 c4 bc e1 b8 71 bd 00 8b 6a bd
       -0.03126688 -0.024011828 -0.059014205 -0.057261467
000230 68 3c 6e 3c 88 f8 21 bd 6c e7 f6 3c 0c d3 7e bd
       0.014540769 -0.03954366 0.030139647 -0.06221299
000240 26 78 a0 bc fb 1e e3 3d c1 a3 d9 3c a3 21 87 bd
       -0.019588541 0.110898934 0.026567342 -0.065982126
000250 c6 79 19 3d d0 fb 27 3d 17 9d 22 3c 55 08 d1 bc
       0.037469648 0.04101163 0.009925148 -0.025516668
000260 7e 70 36 3c 1a 7e 75 3d 55 d0 02 bd 8a 13 bd bd
       0.011135219 0.059934713 -0.031936962 -0.092322424
000270 fc 7a d4 bc 15 5b 54 bd 9c 23 94 bd 3a f0 ef 3c
       -0.02593755 -0.051844675 -0.072333544 0.029289354
000280 38 6d c2 bd 62 ea 71 bd d9 50 cf bb 7d 13 0a bd
       -0.09493488 -0.059061415 -0.0063267765 -0.03370999
000290 60 a2 78 bb 42 d3 59 bc 6f ff 30 3d ab c5 84 3d
       -0.003793858 -0.013294997 0.04321235 0.06483015
0002a0 8a 55 9d bd b7 4e f1 3c cf bd 9a 3d f4 b9 68 3d
       -0.07682331 0.02945648 0.07555734 0.056817964
0002b0 d4 dd 34 bd 24 76 bb 3c db f0 97 bc de 90 dc bd
       -0.044156864 0.022883482 -0.018547466 -0.10769819
0002c0 8d 47 2e bd 1c 68 02 bd e2 1c 00 bc 49 03 62 bd
       -0.042548705 -0.031837568 -0.007819386 -0.055178914
0002d0 83 11 6c 3d 78 a4 80 3d 7f 4a 16 3d ed d7 6d bd
       0.057633888 0.0628137 0.03669214 -0.05806725
0002e0 73 77 1f bb 9a 31 0a ba 9a 47 e5 3c b1 01 60 bd
       -0.0024332672 -0.00052716734 0.027988244 -0.054689113
0002f0 cb ac 42 bd 22 26 d8 bd fb a4 8a 3c 2e 44 69 3d
       -0.04752807 -0.10554148 0.016924372 0.056949787
000300 2c 77 81 bb 4d 5f d8 39 c5 c4 77 3b 35 5a b1 3d
       -0.003950974 0.00041269735 0.0037806493 0.08659784
000310 25 74 10 3d 67 64 07 bd 45 0f 99 3d a7 09 9a 3d
       0.035267014 -0.033054736 0.074736156 0.07521372
000320 e7 ec e3 3a 8a 47 02 3c 4e 26 35 3d 6c f8 3b bb
       0.0017389328 0.007951627 0.044225983 -0.0028682007
000330 95 a3 89 3d 0a f5 a0 3d 2e 57 0f bd db e4 69 bc
       0.06720654 0.078592375 -0.03499525 -0.014275755
000340 0e 22 1f 3c 40 55 86 3d 8b 45 86 3d 13 4e 80 bd
       0.009712709 0.06559229 0.06556233 -0.062648915
000350 d2 1c 81 bb 9e 2d 6e bd 11 21 f0 bc 14 60 a2 3d
       -0.003940203 -0.058148973 -0.029312642 0.07928482
000360 d7 18 6d bd 66 a1 e5 3b 1a 31 87 bd 34 aa b4 bd
       -0.057885017 0.0070077656 -0.06601162 -0.08821526
000370 7a 59 ba bc 57 47 18 bc b9 a1 de 3d d7 c3 4d 3d
       -0.022747744 -0.0092943525 0.1087069 0.050235596
000380 ed 01 81 3c e8 7f 02 3e 05 f2 b4 bd 59 77 ab ba
       0.015747989 0.12744105 -0.08835224 -0.0013081833
000390 c6 e4 92 3d 93 09 df ba 8b ba ae bc f2 9c dc bc
       0.07172541 -0.0017016403 -0.021329185 -0.026930306
0003a0 ce e3 b7 bc 5f c2 88 3d f8 4e 1b bc 12 e7 99 3d
       -0.022447493 0.06677698 -0.009479277 0.07514776
0003b0 1d a1 be 3d 66 c9 df bb ca 8b 46 bd 41 2b 0c 3d
       0.09308074 -0.0068294285 -0.048473157 0.034220938
0003c0 df 9f a2 3c ec 07 2f bc fb 49 26 bc 2e ca 3c bc
       0.019851623 -0.010683041 -0.010149474 -0.011522813
0003d0 6c 75 db bc aa 5c f2 bc 6b 9c 8d 3d 45 f2 7e bc
       -0.02678939 -0.029585201 0.069146 -0.015560691
0003e0 b6 44 88 3b 32 2b 53 bd 87 11 db 3c 11 a0 72 bd
       0.0041585816 -0.051554866 0.026741756 -0.059234682
0003f0 ab 94 49 3d 81 a8 bd 3c c0 35 5b bd 46 94 af bb
       0.049214046 0.023151638 -0.053518057 -0.0053582517

actor.2.bias f4 [78]
000000 11 07 ca ba 83 94 11 bb 0a 1b 16 3c cb 16 08 3c
       -0.0015413483 -0.0022213764 0.00916172 0.0083062155
000010 1e 3b 1d 3a 41 f7 02 bb e8 69 46 ba 8f 9b f7 3a
       0.0005997884 -0.00199838 -0.0007568882 0.0018890965
000020 b8 3e 40 bb ab f1 63 3a 00 00 00 00 00 00 00 00
       -0.0029334258 0.0008695374 0.0 0.0
000030 00 00 00 00 00 00 00 00 00 00 00 00 00 00 00 00
       0.0 0.0 0.0 0.0
000040 00 00 00 00 00 00 00 00 b0 2c 06 bb 08 8b db ba
       0.0 0.0 -0.0020473413 -0.0016749809
000050 05 3a 52 3b 9a 4d 12 3b 00 00 00 00 00 00 00 00
       0.003207804 0.0022324086 0.0 0.0
000060 00 00 00 00 00 00 00 00 00 00 00 00 00 00 00 00
       0.0 0.0 0.0 0.0
000070 00 00 00 00 00 00 00 00 00 00 00 00 00 00 00 00
       0.0 0.0 0.0 0.0
000080 00 00 00 00 00 00 00 00 00 00 00 00 00 00 00 00
       0.0 0.0 0.0 0.0
000090 00 00 00 00 00 00 00 00 00 00 00 00 00 00 00 00
       0.0 0.0 0.0 0.0
0000a0 00 00 00 00 00 00 00 00 00 00 00 00 00 00 00 00
       0.0 0.0 0.0 0.0
0000b0 00 00 00 00 00 00 00 00 cc 3d 1d bb 00 00 00 00
       0.0 0.0 -0.0023993133 0.0
0000c0 00 00 00 00 00 00 00 00 00 00 00 00 00 00 00 00
       0.0 0.0 0.0 0.0
0000d0 18 70 1c bb 00 00 00 00 dc c6 52 39 00 00 00 00
       -0.0023870524 0.0 0.00020101242 0.0
0000e0 00 00 00 00 00 00 00 00 00 00 00 00 00 00 00 00
       0.0 0.0 0.0 0.0
0000f0 70 c6 29 3b 00 00 00 00 00 00 00 00 00 00 00 00
       0.0025905631 0.0 0.0 0.0
000100 00 00 00 00 00 00 00 00 00 00 00 00 00 00 00 00
       0.0 0.0 0.0 0.0
000110 00 00 00 00 00 00 00 00 00 00 00 00 00 00 00 00
       0.0 0.0 0.0 0.0
000120 00 00 00 00 00 00 00 00 00 00 00 00 00 00 00 00
       0.0 0.0 0.0 0.0
000130 00 00 00 00 00 00 00 00
       0.0 0.0

critic.1.weight f4 [128, 1024]
000000 7e 54 a1 bb c5 ab 8f bd 85 10 f8 bc 3e 34 f1 bb
       -0.0049234023 -0.07015184 -0.030281315 -0.007360964
000010 89 79 c1 bc 9d d4 4a 3a 7e 79 1d bb 58 2f 0c bd
       -0.023617523 0.00077373703 -0.0024028714 -0.034224838
000020 55 11 62 3b 96 a8 63 3d 9b 14 83 bc 99 65 01 3d
       0.0034495194 0.055580698 -0.016001036 0.03159103
000030 11 f9 21 bd c6 49 94 bd f2 50 10 bd e7 4c 93 bc
       -0.03954417 -0.07240634 -0.035233445 -0.017981006
000040 94 d9 a6 39 15 65 da bc 64 e9 18 3c d9 7a 57 bc
       0.00031824096 -0.026659528 0.009332988 -0.013151848
000050 77 2d 9d 3b 88 22 32 bd c2 48 15 3d c2 5c 2c bd
       0.0047966796 -0.043489963 0.03644634 -0.04208065
000060 b5 4e f2 3b 04 38 0e bd 2d 47 1c 3d a8 31 7a 3c
       0.0073946365 -0.03472139 0.038153816 0.015270628
000070 b4 74 74 bc 89 9a 09 bd d6 44 be 3b 1e 89 a1 bc
       -0.014920402 -0.03359464 0.0058065457 -0.019718703
000080 fb 66 a8 3d e2 be 50 bd 2f bb eb bb 05 c2 86 3c
       0.08222767 -0.05096329 -0.007193945 0.016449938
000090 a0 85 2c bc 9e 8b 34 bc c7 01 4d bd 8f f0 17 3d
       -0.010529906 -0.011019615 -0.050050523 0.03709465
0000a0 40 fa 73 bd d9 e5 ca 3c 78 98 a3 3c fd 2c 81 3d
       -0.05956483 0.024767803 0.019970164 0.06307409
0000b0 c4 94 55 3d 85 73 ba 3b 08 e9 a0 3b de 10 a4 3b
       0.052143827 0.0056900405 0.004910592 0.0050068935
0000c0 57 b3 47 bc d7 af 9c 3b 51 1e 8c 3d d5 be dd bb
       -0.012188754 0.004781704 0.0684172 -0.0067671337
0000d0 d1 da 28 bb c0 28 16 bd 2f 95 8f bc c2 36 ee 3d
       -0.002576519 -0.036659956 -0.017527191 0.11631538
0000e0 93 06 92 3d 51 d4 33 bd 5f d4 59 3c df f0 9e 3c
       0.0713016 -0.043903653 0.013295262 0.019401966
0000f0 04 98 32 bd 97 aa b9 bc 9c d8 5c bd 45 96 a5 bb
       -0.043602005 -0.022664351 -0.053917512 -0.005053314
000100 d7 de 8c bc f5 9a 9c ba 56 d6 69 bd d9 35 98 bd
       -0.017196102 -0.0011948036 -0.057089172 -0.074321456
000110 c4 76 c8 3d 89 7a a9 3c dd e3 71 bb 0a 6d 3c bd
       0.09788278 0.020688312 -0.0036909499 -0.046002425
000120 82 82 2f 3d 11 ee 54 bc 95 6d 0b bd a3 26 36 bd
       0.04284907 -0.012996213 -0.034040052 -0.04447044
000130 0b bc 78 3d f1 34 f6 bc 70 10 11 3c c8 87 f6 3c
       0.060726207 -0.030054541 0.008854017 0.030094042
000140 f1 a1 9a 3c e2 1f 38 bc 77 bd 5c 3c 27 58 2c bb
       0.018876048 -0.01123807 0.013472906 -0.002629766
000150 fe 25 f4 bc 5c 95 84 bb ba df 69 3c 72 d3 c6 3c
       -0.029803272 -0.0040461253 0.014274532 0.024270747
000160 a2 42 35 3c 38 11 3f 3c 0d d4 43 bd f3 98 9f 3d
       0.01106325 0.01166182 -0.04780965 0.077928446
000170 7c 7a 75 bc e9 72 85 3d 95 73 c4 3c a4 05 9e bc
       -0.014982816 0.06516058 0.023980895 -0.019289799
000180 79 c3 31 3d dc 2e 3a 3c 96 16 81 bc ab 9e 0b 3e
       0.043399308 0.011363711 -0.01575784 0.13634746
000190 04 1d 89 bb 49 95 a3 3b 5d 7d 60 3d 96 2f 04 3c
       -0.004184367 0.0049921614 0.054807056 0.008067986
0001a0 0e be e0 bc ec 96 2e 3d 99 f3 cb 3b 6d ec ab 3d
       -0.027434375 0.0426244 0.0062241075 0.08394704
0001b0 f9 be 87 3d 2a b9 0a 3d 17 78 ca 3c 86 d7 df 3c
       0.06628222 0.033867992 0.024715466 0.02732445
0001c0 59 19 75 ba 30 3e 89 3c 1a 60 2d bd 68 af 82 bd
       -0.00093497854 0.016753286 -0.042327978 -0.06381112
0001d0 20 d7 11 bd b2 5d 8a bc 74 2e bc bc a5 4b f6 3c
       -0.03560555 -0.01689038 -0.02297137 0.030065367
0001e0 c3 ac 1b bd 1e 51 a0 bc f8 57 fc 3b 18 3f b0 bc
       -0.038006555 -0.01956993 0.0077009164 -0.02151446
0001f0 c7 b8 d2 bc e1 96 72 3d 13 85 d7 bb 27 03 33 3d
       -0.025722874 0.05922592 -0.006577143 0.04370418
000200 32 1f 17 bc d4 61 55 3d c9 d0 d1 bc db e5 3b 3d
       -0.009223746 0.05209525 -0.025612252 0.045873504
000210 b6 f5 ed 3a 93 9f 36 bd 73 35 9e 3d 0b 25 98 3d
       0.0018154893 -0.044585776 0.077250384 0.074289404
000220 6c c6 09 bd d8 db 54 3d 30 55 cf bd 5f 49 ca 3c
       -0.033636495 0.05196747 -0.1012367 0.02469319
000230 a1 7f 81 3b 95 6a fb 3c 38 73 e7 3c b7 a4 41 bc
       0.003951982 0.03069047 0.028253183 -0.011819056
000240 10 d5 dc bc cf 34 1e 3d 10 02 68 bd 74 c9 b1 3d
       -0.026957065 0.03862458 -0.056642592 0.08681002
000250 76 6a 05 3d ac 42 e3 3a f0 64 2a 3d 22 50 42 3d
       0.032572232 0.0017338595 0.041600168 0.0474397
000260 fb 90 7f bd f3 92 b8 bc f5 43 27 bd 9d e1 bc bc
       -0.062394124 -0.022531008 -0.040836293 -0.0230568
000270 47 f3 a9 3d ed 5a 5c 3d 76 85 6b bd 59 a6 dd bc
       0.082983546 0.05379765 -0.057500325 -0.02705686
000280 e3 3d 9f 3d e7 8e d6 bc ed a0 5c 3c 9a 4d 71 3d
       0.07775476 -0.026191188 0.013466102 0.058911897
000290 3c 69 b1 3d b2 12 eb bb cc d4 a2 3c 8d e5 15 bd
       0.0866265 -0.0071738595 0.01987686 -0.03659587
0002a0 74 25 95 bb ba 75 e4 39 8c 6f a5 bc 29 91 0e bd
       -0.004551584 0.00043575262 -0.020194791 -0.034806404
0002b0 09 95 81 bd 65 ed 04 bc 92 5d 8d 3c e7 84 16 bc
       -0.06327254 -0.00811324 0.017256532 -0.00918696
0002c0 43 fc 37 3d a1 88 cf bc 38 8f 6b 3d 55 3a 92 3a
       0.04491831 -0.025333704 0.05750963 0.00111563
0002d0 e1 ee 80 bd 83 96 9d bd 38 89 c3 bc 34 d2 08 3d
       -0.062955625 -0.076947235 -0.023869142 0.03340359
0002e0 4e e0 b9 bc 1b af 8c 3d f1 2c 4a 3c 7b 5e 45 bd
       -0.022689965 0.06869336 0.012339816 -0.048185807
0002f0 00 af bc bd ec 31 8a 3c eb e2 69 bd e2 a5 46 3b
       -0.09213066 0.016869508 -0.05710117 0.0030311276
000300 1b 8b 1f 3b 1a 84 93 3c 49 4e 16 bd 94 08 a5 3d
       0.0024344388 0.018007327 -0.036695752 0.08058277
000310 80 39 bf bc 8c d1 32 3d 8f de 56 bd d2 2d 4c 3d
       -0.023342848 0.04365687 -0.052458342 0.049848385
000320 5d 1e b3 bc 13 d6 eb bb 61 f8 88 bc 38 e6 30 3c
       -0.021865064 -0.0071971505 -0.016719999 0.010797076
000330 51 56 82 bc ad 2c a9 bc 73 a9 48 3d 43 60 98 3c
       -0.0159103 -0.020651186 0.048989724 0.018600589
000340 34 d8 f7 3b 1e 35 f3 bc 35 d1 60 bd c2 e9 fe 3b
       0.007563615 -0.029688414 -0.054887015 0.007779331
000350 c9 6d b1 3c 6f 95 06 bd 6a 8a b5 bc ad 39 42 bc
       0.021658795 -0.032857355 -0.022160728 -0.011854571
000360 2f 18 ba 3c 95 7d ee bc 75 51 8e 3d 19 7e 33 bd
       0.02271661 -0.029112617 0.069491304 -0.043821428
000370 da c3 ad 3c c3 bc 2e 3b ff f5 58 3b 76 f2 98 3b
       0.021211553 0.0026662804 0.003310561 0.0046675755
000380 97 50 38 3d ff 50 52 bd 26 cd 6d 3d c2 c1 ab 3c
       0.04499873 -0.051346775 0.058056973 0.020966414
000390 15 0c ee 3c 47 52 9c bd a0 af ae 3b bf 71 79 bd
       0.029058496 -0.07632881 0.0053309947 -0.060899492
0003a0 aa e9 7a 3b bb 34 43 bb 10 a0 23 bc 6c 37 66 3c
       0.0038286247 -0.0029786068 -0.009986892 0.0140513
0003b0 95 92 62 3d 89 77 14 3d b8 bc 63 bd 04 2d 61 bc
       0.055315573 0.03624681 -0.055599898 -0.013743643
0003c0 42 06 eb 3c fe 1c 2a 3d 09 a2 99 3b d8 56 a3 3d
       0.028689507 0.041531555 0.0046885055 0.079755485
0003d0 32 64 37 3d 53 56 2c bb a8 29 3e bd 30 56 3d 3c
       0.044773288 -0.002629657 -0.046426445 0.011556193
0003e0 6c 98 a6 3c 31 40 d4 bc 21 c2 5d 3d 86 5f 86 3c
       0.020336352 -0.025909515 0.054140214 0.016402971
0003f0 b7 f1 24 bd f9 a5 fe 39 7a 6b d1 bb 04 5c 24 bb
       -0.04026958 0.00048570315 -0.006390986 -0.002507926

critic.1.bias f4 [128]
000000 9e 8d a0 b9 30 8e f5 ba 32 63 6d b9 c6 17 4a 39
       -0.0003062309 -0.0018734392 -0.00022639034 0.00019273077
000010 ed 3f b8 ba 22 d7 e2 38 59 d2 05 39 c5 c0 71 b9
       -0.0014057137 0.000108165914 0.00012762229 -0.00023055363
000020 00 00 00 00 00 1b b6 ba eb d6 c8 ba 00 00 00 00
       0.0 -0.0013893545 -0.001532284 0.0
000030 6a bc df b9 f4 a6 ed b9 00 00 00 00 1d 91 90 b8
       -0.00042674254 -0.00045328552 0.0 -6.8934845e-05
000040 c2 4d 85 ba 00 00 00 00 f2 04 6a b9 5f 23 64 39
       -0.0010170268 0.0 -0.00022317821 0.00021756951
000050 ba 58 92 b9 06 b3 9a ba 66 d6 98 ba d2 bb b0 3a
       -0.00027913396 -0.0011802621 -0.0011660575 0.0013483709
000060 d3 7b 91 ba ad da 6e b9 67 5a 98 b9 00 00 00 00
       -0.0011099525 -0.00022778912 -0.00029059054 0.0
000070 00 00 00 00 b2 79 05 b9 5c 51 9b ba e1 6e 13 3a
       0.0 -0.00012729203 -0.0011849809 0.0005624127
000080 23 89 42 37 64 26 d6 39 57 32 73 b9 00 00 00 00
       1.1595231e-05 0.00040845864 -0.00023193039 0.0
000090 76 4d d6 38 6d 78 84 b9 25 21 79 b9 27 b8 b8 ba
       0.000102187434 -0.00025266726 -0.00023758838 -0.0014092968
0000a0 00 00 00 00 00 00 00 00 dd 98 5c 39 00 00 00 00
       0.0 0.0 0.00021037781 0.0
0000b0 28 fc 95 ba 00 00 00 00 00 00 00 00 0f 54 0c 3a
       -0.0011442946 0.0 0.0 0.0005353102
0000c0 7c 7c 17 ba 65 2b 5f 39 00 00 00 00 00 00 00 00
       -0.00057787425 0.00021283103 0.0 0.0
0000d0 a4 a9 b6 b8 00 00 00 00 ab 7e d9 38 a8 c0 71 ba
       -8.710034e-05 0.0 0.0001037096 -0.00092221284
0000e0 d1 ca 5e 39 ad 9a fa b9 e5 83 55 39 00 00 00 00
       0.00021247125 -0.00047798958 0.00020362397 0.0
0000f0 c9 4e 70 b9 71 34 6a b9 3e 12 9d b6 87 c3 5c 39
       -0.00022917533 -0.00022335515 -4.6810883e-06 0.00021053675
000100 5c 9b 70 ba 84 59 c3 ba a0 19 57 39 e4 c6 2e ba
       -0.0009178424 -0.0014903997 0.00020513544 -0.000666721
000110 88 90 5c 39 74 33 c9 b9 8c 66 80 ba 08 9b 17 ba
       0.00021034677 -0.00038376043 -0.0009796186 -0.00057832943
000120 97 82 b7 3a 00 00 00 00 00 00 00 00 52 bf 58 39
       0.0014000711 0.0 0.0 0.00020670638
000130 23 0a 3c 39 22 e2 74 b9 cf dd 6a b9 03 c7 00 bb
       0.00017932853 -0.00023353894 -0.00022398609 -0.001964987
000140 1f ee a8 39 54 24 b4 b9 00 00 00 00 38 ed 77 b9
       0.0003222087 -0.00034359342 0.0 -0.00023644126
000150 00 00 00 00 54 68 86 b9 43 2b c9 ba 00 00 00 00
       0.0 -0.00025636202 -0.0015347976 0.0
000160 00 00 00 00 27 41 5d 39 f9 66 e5 3a ce 5f 6e b9
       0.0 0.00021100474 0.0017502002 -0.00022733139
000170 00 00 00 00 00 00 00 00 00 00 00 00 d7 52 44 39
       0.0 0.0 0.0 0.00018722877
000180 5d 32 5d 39 00 00 00 00 00 00 00 00 f6 70 75 b9
       0.00021094964 0.0 0.0 -0.00023407102
000190 5c 38 62 39 ed f5 88 ba 66 56 c2 ba ec bb cf ba
       0.00021574035 -0.0010449268 -0.0014826774 -0.0015848852
0001a0 00 00 00 00 ec d1 49 39 6d 45 99 b9 7e 43 32 3a
       0.0 0.00019247056 -0.0002923416 0.0006800218
0001b0 c2 d7 3b 38 00 00 00 00 cb 72 d5 b4 9b 3a e3 b9
       4.4785214e-05 0.0 -3.9757865e-07 -0.00043340478
0001c0 21 23 20 ba 9a d3 8f b9 5a b0 76 b9 00 00 00 00
       -0.000610875 -0.0002743274 -0.00023526084 0.0
0001d0 c9 df 92 ba 30 bb 82 b9 97 8d 54 39 2e 76 5a b9
       -0.0011205609 -0.00024934998 0.00020270642 -0.00020834125
0001e0 30 30 1a b7 d8 b2 b5 ba 00 00 00 00 a5 44 6c b9
       -9.190335e-06 -0.0013862504 0.0 -0.00022532286
0001f0 00 2d 6e b9 00 00 00 00 31 82 f1 38 67 5b 7b b9
       -0.00022714213 0.0 0.000115160256 -0.00023971275

critic.3.weight f4 [1, 128]
000000 22 41 b5 bb e0 cf c1 bc a6 45 b9 bd de 47 be 3c
       -0.005531446 -0.023658693 -0.090464875 0.023227628
000010 bc ab ae 3d a0 95 44 3b 60 03 ee bd 76 d5 54 bd
       0.085288495 0.002999641 -0.116217375 -0.051961385
000020 c3 c3 52 bd 4f f6 1e 3d 72 79 d2 bd 3c de 68 3d
       -0.051456224 0.038809117 -0.1027707 0.056852564
000030 be 44 00 3d 15 e4 03 3b ae 63 b1 3d 07 4b 54 3d
       0.031315558 0.002012496 0.086615905 0.051829364
000040 a0 c2 26 be 9f 2b 5a bd 09 67 73 bd 08 07 6a 3e
       -0.16285181 -0.053264257 -0.059424434 0.22854245
000050 a3 8a 65 bd ab e4 ac 3d 76 24 65 3d aa 64 3c 3d
       -0.056040417 0.084420525 0.055942975 0.04599444
000060 ba 95 d3 3d 3e 1a 88 bd e0 f7 c0 39 b3 e6 fc 3d
       0.103312925 -0.0664563 0.00036805775 0.1234869
000070 fe 61 33 3e ec 42 11 bd 4e 72 0f 3d 96 98 e1 3c
       0.1751785 -0.035464212 0.03502112 0.027538579
000080 ff a7 3e 3b 8f 15 e9 3d 13 bd 16 bd 1b 3e 03 bd
       0.0029091833 0.11381065 -0.03680141 -0.03204165
000090 25 fc e4 3d 95 dd a9 bc 80 a3 e5 bc e2 ae d8 3d
       0.11180905 -0.020735541 -0.028032064 0.10580231
0000a0 78 f4 da 3d ef e3 ad 3d e0 7e 80 3d dd 50 1b bd
       0.1069116 0.084907405 0.062741995 -0.037918914
0000b0 7b 44 6c 3d 27 38 bb bd 9e 0f 0c 3d 65 8e e2 3c
       0.057682496 -0.091415696 0.03419458 0.02765579
0000c0 52 30 35 ba 4d 5e a9 3d 8b ef 03 3e 0a 53 21 be
       -0.00069118023 0.082699396 0.12884347 -0.15754333
0000d0 e0 24 87 bd ef 6b ba bd 2c 7b ee bd 77 0c b5 3d
       -0.0659883 -0.09102618 -0.11644587 0.08840268
0000e0 32 39 a3 3d d1 74 29 39 dc 6d 1f 3d ec d4 1b be
       0.079698935 0.00016160613 0.03892313 -0.15217942
0000f0 34 1f 6e bd 77 04 1e be 38 72 b7 3a cd 30 74 3d
       -0.058135226 -0.1543139 0.0013995832 0.059616853
000100 d5 6a 58 b8 3e 95 0b 3e 0d 96 37 3d 00 23 97 bd
       -5.1597908e-05 0.1363115 0.044820834 -0.073797226
000110 7f bd 74 3d ff cd ad bd a5 36 bc 3b ff aa 01 bb
       0.05975103 -0.08486556 0.005743819 -0.001978576
000120 6b 06 e5 3d 1b 4e 22 3e 6e ec 76 3d 79 67 3a 3d
       0.11182865 0.15850107 0.06028407 0.045508835
000130 8a ce 36 3d f3 48 22 bd 30 39 11 be 00 af 9e 3d
       0.044630565 -0.03962035 -0.14181972 0.07748222
000140 7f 03 00 be 4d ec 4b be 4f d3 ee 3d a8 95 fb bc
       -0.12501334 -0.1991436 0.11661398 -0.03071101
000150 dc 6b 01 3e ab b3 6b bc 11 53 fe bd cc 94 60 bd
       0.12638801 -0.014386098 -0.124181874 -0.054829404
000160 b8 c4 54 be b1 e8 96 3d ba e8 82 3d d9 3e 97 bd
       -0.20778167 0.07368601 0.06392045 -0.07385034
000170 f3 55 27 3e f1 3a 86 bc 20 c2 1b bc e6 58 ad 3c
       0.16341381 -0.016385527 -0.009506732 0.021160554
000180 78 c8 98 3d d1 0e 00 3e d1 c4 5d 3d e8 d0 19 bd
       0.074601114 0.12505652 0.054142777 -0.037552744
000190 cc f1 12 3e 1c d4 ae 3d 96 41 e4 bd d7 f4 5e bd
       0.1435005 0.085365504 -0.11145322 -0.054432716
0001a0 e6 48 39 bd 2d f7 18 3d 76 84 10 3d 7a 3b f8 bd
       -0.045235537 0.0373451 0.035282575 -0.12120719
0001b0 87 a5 49 3b 7e 41 02 be 9e 9e cb b9 3f 67 1e 3d
       0.0030768828 -0.12720296 -0.00038837356 0.038672682
0001c0 1e 7e 07 3d 3f 8a 0b bc 8c d4 a2 bd ef 0d 87 3c
       0.03307926 -0.008516847 -0.07950696 0.016486136
0001d0 5d 1f d7 bc 57 10 78 be 5f 9c 0b 3d 48 8b a6 bd
       -0.026260072 -0.24224983 0.034084674 -0.081320345
0001e0 85 76 1e 3d ef f7 32 be 06 88 7d bc de a7 08 be
       0.038687248 -0.17477392 -0.015474325 -0.13345286
0001f0 f8 7e 9a bd 8f 92 9a bd 10 e3 a1 3b eb b5 b8 bc
       -0.075437486 -0.07547485 0.004940398 -0.022547683
