experiments/ppo_hrl/models/MicroRTSGridModeVecEnv__ppo_utils__1__1721366908/20480/macro.pt (torch, 715615 bytes, 11 tensors)

encoder.1.weight f4 [32, 29, 3, 3]
0	0xbc8fac89	-0.017538326
1	0x3de83fe3	0.113403104
2	0x3d115e27	0.03549018
3	0xbc5038f3	-0.01270889
4	0xbc113b5b	-0.008864249
5	0xbd934a44	-0.071918994
6	0xbdee89f2	-0.11647405
7	0xbdb6d0a7	-0.08926516
8	0xbd510b05	-0.0510359
9	0xbe1d480b	-0.15359513
10	0x3de192eb	0.110143505
11	0xbd2d5f69	-0.04232732
12	0x3d9cf96e	0.076647624
13	0x3d12ff6f	0.03588813
14	0x3e134cfa	0.14384833
15	0xbdf5a173	-0.119936846
16	0xbe102118	-0.14075124
17	0xbe206cf5	-0.15666564
18	0x3d81c258	0.06335896
19	0xbc90143d	-0.017587775
20	0xbd915dd3	-0.07097974
21	0xbd8287ac	-0.063735336
22	0x3d6aa339	0.057284568
23	0xbd0c6b40	-0.03428197
24	0x3e785579	0.24251355
25	0x3dee9bd3	0.11650815
26	0x3c7e11e6	0.015507197
27	0xbe3c831a	-0.18409386
28	0x3cede653	0.029040491
29	0xbd836504	-0.064157516
30	0x3d142791	0.036170546
31	0xbc8b17c6	-0.01697911
32	0xbd8a675a	-0.06757994
33	0xbd199a68	-0.03750077
34	0x3ddc150a	0.107462004
35	0x3d0e7451	0.034778897
36	0xbc98e499	-0.018663691
37	0xbda1dd95	-0.079035915
38	0x3e59d9d1	0.21274497
39	0xbcd9c85d	-0.026584798
40	0x3d32d089	0.043655906
41	0xbcd51e3a	-0.02601539
42	0xbc1efdcf	-0.009704067
43	0xbbe48095	-0.006973336
44	0x3cd92e83	0.026511436
45	0xbb1add0c	-0.002363029
46	0x3d85240d	0.06501017
47	0x3d999d48	0.07500702
48	0xbdede515	-0.116159596
49	0xbc37bb43	-0.01121408
50	0xbbcdb257	-0.0062773633
51	0xbca42b69	-0.02004023
52	0xbccf7056	-0.02532212
53	0xbcfd1adc	-0.030896597
54	0x3d10be26	0.03533759
55	0xbcc1b3be	-0.023645278
56	0x3dde8366	0.10864906
57	0xbc451898	-0.012029789
58	0x3d215817	0.03939065
59	0x3e03045f	0.12794636
60	0x3cabb9f2	0.02096269
61	0x3d8a952b	0.06766733
62	0xbc12dfdb	-0.008964504
63	0xbc650a71	-0.01397954
64	0x3c862164	0.016373344
65	0x3c7b9405	0.015355115
66	0x3e6bd59b	0.23030703
67	0xbd55aa62	-0.052164443
68	0x3d21b5e4	0.039480105
69	0x3d1913ec	0.037372515
70	0xbc848e5c	-0.016181163
71	0x3dde6334	0.10858765
72	0x396356bb	0.00021680717
73	0x3b8bad98	0.0042626373
74	0x3c420b15	0.0118434625
75	0xbdd1bc68	-0.10241014
76	0xbd8455b0	-0.06461656
77	0x3e4e6870	0.20157027
78	0xbdb21134	-0.086946875
79	0xbb861ba5	-0.004092651
80	0x3bbf054a	0.005829488
81	0x3da0d963	0.07853963
82	0x3d49b569	0.04924527
83	0x3de8bea1	0.113644846
84	0x3be0ec9f	0.006864145
85	0xbda20e13	-0.07912841
86	0xbc4045cc	-0.011735391
87	0xbdfd38ef	-0.12364375
88	0x3df9de4d	0.12200604
89	0xbd7fdb15	-0.062464792
90	0x3d827387	0.06369691
91	0x3c34ec14	0.011042614
92	0xbe36a74b	-0.17837255
93	0x3e07969a	0.13241044
94	0xbb60a051	-0.0034275244
95	0x3d30bc5d	0.043148387
96	0xbde1c666	-0.110241696
97	0xbda8d333	-0.08243408
98	0x3dac2784	0.084059745
99	0xbce0b639	-0.02743064
100	0xbc0944c5	-0.008378212
101	0x3da0cfbd	0.07852123
102	0xbd7f5c64	-0.06234397
103	0x3d0f64a2	0.03500808
104	0xbb8ddc46	-0.004329237
105	0x3b9ea902	0.0048419246
106	0xbd9665dd	-0.07343648
107	0x3d7a0e9f	0.0610491
108	0xbe2194c5	-0.15779407
109	0x3dd753d1	0.105140336
110	0xba953f32	-0.0011386632
111	0x3da27d63	0.07934072
112	0xbd74b004	-0.059738174
113	0xbd6186f6	-0.05506035
114	0x3b41a8fc	0.0029550185
115	0xbdc8c5ba	-0.09803338
116	0x3d7bc5dc	0.06146799
117	0x3e094240	0.13404179
118	0x3db9e4f3	0.09076872
119	0xbd33759f	-0.043813344
120	0xbd85370c	-0.0650464
121	0x3de6abe6	0.11263256
122	0xbdb24be9	-0.08705885
123	0x3e218037	0.15771566
124	0x3d716466	0.058933638
125	0xbd50e4d5	-0.05099948
126	0x3a915ae5	0.0011089711
127	0xbcade7f4	-0.021228768
128	0xbddae780	-0.10688686
129	0x3d52c904	0.051461235
130	0xba8ceb75	-0.0010751324
131	0xbd413932	-0.047173686
132	0x3d16c91d	0.03681289
133	0xbdd30ab3	-0.10304775
134	0xbde6bd89	-0.1126662
135	0x3db877c9	0.09007222
136	0xbe5fac35	-0.21843036
137	0x39b7577e	0.00034969667
138	0xbc161dc8	-0.009162374
139	0x3e23e2fd	0.16004558
140	0x3dd66877	0.10469144
141	0xbdfe7a8b	-0.12425717
142	0xbc702ff5	-0.014659871
143	0xbd3d9cff	-0.0462923
144	0xbb81be49	-0.0039594513
145	0xbcc58d37	-0.024115188
146	0xbd86459e	-0.06556247
147	0xbd066d4c	-0.032819077
148	0xbd7c5173	-0.061601114
149	0xbd3936a2	-0.045218118
150	0x3d0a1eed	0.0337209
151	0xbe2244dc	-0.1584658
152	0x3d7ba049	0.061432157
153	0x3cc0bf15	0.023528615
154	0x3db43ae4	0.08800295
155	0x3dcced2d	0.10006175
156	0x3c11c799	0.008897685
157	0xbd76cd57	-0.06025442
158	0x3e34e039	0.17663659
159	0x3dcf7c0e	0.101310834
160	0xbc4f56af	-0.012654944
161	0x3ca49924	0.020092554
162	0x3da33cfb	0.079706155
163	0xbca16ec7	-0.019706143
164	0xbe171392	-0.14753559
165	0xbdd410eb	-0.10354789
166	0x3ceaadca	0.028647322
167	0x3e251602	0.16121677
168	0xbca8a2cd	-0.020585442
169	0x3e1f4383	0.15553097
170	0x3c863f17	0.016387505
171	0x3d4b8366	0.04968586
172	0x3e392d66	0.18083724
173	0x3d953280	0.07285023
174	0xbe126aeb	-0.14298598
175	0x3ce0d313	0.027444398
176	0xbdddf576	-0.108378336
177	0xbe165cab	-0.14683788
178	0xbd9b3532	-0.075785056
179	0x3d8d6f74	0.069060236
180	0x3d132dcb	0.035932343
181	0x3d2387df	0.0399245
182	0xbd0dc5dc	-0.03461252
183	0xbdecf777	-0.11570638
184	0xbdc71e2d	-0.097225524
185	0xbcb5dbdd	-0.022199566
186	0xbd95fa1d	-0.07323096
187	0x3d5239d4	0.05132468
188	0xbe11bf05	-0.14233024
189	0x3cfdd463	0.030985063
190	0xbdbc1483	-0.091836
191	0x3d42b37b	0.047534447
192	0x3d70dc6e	0.058803968
193	0x3dc26137	0.094911985
194	0xbcb1fd2f	-0.021727173
195	0x3de00c63	0.109398626
196	0x3e38cb8a	0.18046394
197	0xbe054698	-0.1301521
198	0xbd7ceac7	-0.06174734
199	0x3bf726d9	0.007542473
200	0x3ce8f98c	0.028439306
201	0xbd0cf825	-0.034416337
202	0xbda40a00	-0.0800972
203	0xbe38cf41	-0.18047811
204	0xbd3d2d47	-0.046185758
205	0xbd050d68	-0.03248349
206	0xbd99402c	-0.07482943
207	0xbe3c87d9	-0.18411197
208	0x3cecf291	0.028924258
209	0xbdfee971	-0.12446869
210	0xbb90fe5e	-0.004424854
211	0xbdfb9ba4	-0.122855455
212	0xbd32bb84	-0.04363586
213	0x3ddc3f07	0.10754209
214	0x3dd5deaf	0.10442864
215	0x3ce5490e	0.027988937
216	0xbd2e1ca6	-0.04250779
217	0xbe67d0ac	-0.22638196
218	0xbdc7365b	-0.09727164
219	0x3d1d2b80	0.038371563
220	0xbce7fce0	-0.028318822
221	0x3e2f58f0	0.1712377
222	0xbd3e1a18	-0.046411604
223	0xbd07a891	-0.03311974
224	0x3d9e9251	0.077427514
225	0xbc493727	-0.012281216
226	0xbcc01d71	-0.023451539
227	0x3d7264c9	0.059178147
228	0x3ddf4e0d	0.10903559
229	0xbd53b498	-0.0516859
230	0x3c9cfed5	0.019164482
231	0xbd8b8b8f	-0.06813728
232	0x3d6abe67	0.057310488
233	0xbce26abd	-0.027638787
234	0xbd346d17	-0.04404935
235	0x3cd8d215	0.026467362
236	0xbdf49fbb	-0.11944529
237	0xbbdaddc8	-0.0066792704
238	0x3d82a15b	0.06378432
239	0xbc8a355e	-0.01687115
240	0x3db5757e	0.088603005
241	0x3df87a17	0.12132662
242	0xbd53b3a9	-0.05168501
243	0xbe41570c	-0.18880862
244	0xbe00bbd8	-0.12571657
245	0x3db72aef	0.08943736
246	0x3da4a27e	0.080388054
247	0xbdd0a774	-0.10188189
248	0x3d96839c	0.07349321
249	0xbcfa5b63	-0.030561155
250	0x3cca5ece	0.02470341
251	0x3e40fa7d	0.18845554
252	0x3e06d0e2	0.1316562
253	0x3e3abc43	0.18235879
254	0x3d4998f3	0.04921813
255	0x3c2b3c1d	0.010451344

encoder.1.bias f4 [32]
0	0xbb4f3a31	-0.0031620378
1	0x3a96f12a	0.0011515964
2	0xb9ff9ce5	-0.00048754286
3	0xbb63ac22	-0.003474005
4	0x3adca767	0.0016834558
5	0x3b208b70	0.0024497174
6	0xbb053bb1	-0.0020329768
7	0xbb6e7224	-0.003638395
8	0xbacf322c	-0.0015807799
9	0x3aa9b8b3	0.0012948721
10	0xbb0f44c8	-0.0021861065
11	0x3acadc80	0.0015477091
12	0xbb00d752	-0.001965959
13	0xbb879d58	-0.00413863
14	0xbaec7f47	-0.0018043303
15	0xbbdb723a	-0.0066969665
16	0xbba7b64b	-0.0051181666
17	0xba33c974	-0.0006858327
18	0x3b1611f9	0.0022898896
19	0xbabafdc0	-0.0014266297
20	0x3ad566b0	0.0016281214
21	0xbb1358d9	-0.0022483377
22	0xbbf84076	-0.0075760437
23	0xbbe0d474	-0.006861264
24	0x3a8f32d9	0.0010925188
25	0x3a6e1a2e	0.00090828806
26	0xbbd35c92	-0.006450244
27	0x39a53e8c	0.00031517853
28	0xbaf7afc8	-0.0018896991
29	0xbb4d8094	-0.0031357156
30	0xbbd7d2b0	-0.006586395
31	0x3a62618a	0.000863575

encoder.4.weight f4 [64, 32, 3, 3]
0	0x3dc5add6	0.09652297
1	0x3db82d0f	0.08992969
2	0x3d88f03f	0.06686448
3	0xbc87f753	-0.016597426
4	0xbd21510e	-0.03938394
5	0xbe6dafa2	-0.2321153
6	0xbd56e3d9	-0.052463386
7	0x3d338d53	0.04383595
8	0x3cf7fe0b	0.030272504
9	0x3bd3769b	0.006453348
10	0xbcbc5389	-0.022989051
11	0x3d4cc1b1	0.049989406
12	0xbdca5229	-0.09878952
13	0x3d15fb5f	0.03661668
14	0x3e39d12f	0.18146203
15	0xbdaf0973	-0.08546724
16	0x3d5ff1f6	0.05467411
17	0xbe015e87	-0.12633716
18	0xbdc4c1a2	-0.09607245
19	0x3e0b53b0	0.13606143
20	0xbdeb8efa	-0.1150188
21	0x3b3c4334	0.002872658
22	0x3d6e02da	0.05810819
23	0x3bd732b5	0.006567324
24	0xbdb38496	-0.08765523
25	0x3d6995e1	0.0570277
26	0xbd7bca70	-0.061472356
27	0xbbf1d1f8	-0.0073797666
28	0x3cd1b5d8	0.025599405
29	0x3da583ad	0.08081756
30	0xbd4c4165	-0.049867053
31	0x3d8389aa	0.06422742
32	0xbbb47e85	-0.0055082464
33	0xbda166a6	-0.07880907
34	0x3ccee622	0.02525622
35	0x3c32fc24	0.010924373
36	0x3b8e7605	0.004347565
37	0x3b1bc26b	0.0023767005
38	0xbd786c9c	-0.060650453
39	0x3e23473f	0.15945147
40	0x3d8be056	0.06829898
41	0x3b4be1a2	0.003110983
42	0xbd380032	-0.04492206
43	0x3dd69841	0.10478259
44	0xbdc8ff81	-0.098143585
45	0xbdba9517	-0.09110468
46	0x3e08e7ed	0.13369723
47	0xbd55785e	-0.052116744
48	0xbe135809	-0.14389051
49	0xbc61c16a	-0.013779024
50	0xbda12c85	-0.078698196
51	0xbdc45489	-0.09586436
52	0xbd5cfcaf	-0.053951915
53	0xbe0d2f29	-0.13787521
54	0xbdadc1de	-0.08484243
55	0x3d5cbbe4	0.053890124
56	0xbdad413c	-0.08459708
57	0xbd34ceaa	-0.044142403
58	0x3c86924c	0.016427182
59	0x3d987704	0.074445754
60	0x3dea5367	0.11441689
61	0x3d95635e	0.072943434
62	0xbd32041c	-0.04346095
63	0x3d90c0a9	0.07067997
64	0xbd9a96a8	-0.07548267
65	0x3d0cc5d1	0.03436834
66	0x3d5d2578	0.05399081
67	0x3cc4bfcd	0.024017239
68	0xbd9481bd	-0.07251308
69	0xbde6da15	-0.112720646
70	0x3e57421e	0.21021315
71	0x3da1a47e	0.078927025
72	0x3cee41d5	0.029084126
73	0xbdc2f827	-0.095199876
74	0xbd44540a	-0.04793171
75	0x3dc9263c	0.09821746
76	0xbd0584b9	-0.032597277
77	0x3dcd2536	0.10016863
78	0x3d9a36b2	0.075299636
79	0x3de69a79	0.11259932
80	0x3d81cccd	0.06337891
81	0x3cbf58ac	0.023357712
82	0x3cb13202	0.02163029
83	0x3d808671	0.06275643
84	0x3caa4649	0.020785468
85	0xbe1626c1	-0.14663221
86	0x3cbf2501	0.023333075
87	0xbd0a1028	-0.033706814
88	0xbb3a7b29	-0.0028454757
89	0x3cb73d45	0.022368083
90	0xbdbcbbf0	-0.09215534
91	0x3b7123fd	0.0036795132
92	0x3e26b4dc	0.1627993
93	0x3d6360bf	0.055512186
94	0x3de9fda8	0.11425334
95	0xbcbe4d66	-0.023230266
96	0xbd7b2230	-0.0613119
97	0xbb5de5fb	-0.0033859003
98	0x3c07af51	0.008281545
99	0x3da9e840	0.08296251
100	0xbe287f1c	-0.16454738
101	0x3d19cd0c	0.037549064
102	0x3dadc3d3	0.08484616
103	0xbe2c7675	-0.16842063
104	0x3d92a5f2	0.07160558
105	0xbdb6e017	-0.089294605
106	0x3b9728bd	0.0046130107
107	0xbd63ae2a	-0.055586018
108	0xbd1cbba6	-0.038264893
109	0xbcd553c0	-0.026040912
110	0xbcfe57f4	-0.031047799
111	0x3bc68006	0.006057742
112	0x3bfc120f	0.0076925824
113	0xbe007844	-0.12545878
114	0xbb89d2ce	-0.004206038
115	0xbd1a6e49	-0.037702832
116	0x3bfbd813	0.00768567
117	0x3db74758	0.089491546
118	0x3c42f95d	0.011900273
119	0xbdbdc5e2	-0.09266259
120	0x3d2d6523	0.04233278
121	0x3d880e91	0.06643403
122	0x3cf316b7	0.029673917
123	0x3c934fe9	0.01798244
124	0xbe128400	-0.14308167
125	0x3ccbaea0	0.024863541
126	0x3da60a79	0.08107466
127	0x3c17a2d9	0.0092551345
128	0x3c0fa6b3	0.008767772
129	0xbcb1d2af	-0.021706907
130	0xbd079c46	-0.03310802
131	0xbc82fa5d	-0.015988523
132	0x3c82ddec	0.015974961
133	0xbcb26292	-0.021775518
134	0xbd12781e	-0.035759084
135	0xbcbf9aee	-0.023389306
136	0xbc69480a	-0.014238367
137	0xbda22f40	-0.079191685
138	0xbd997987	-0.074938826
139	0x3e90fa4e	0.28315967
140	0xbdc7997e	-0.09746073
141	0x3b3d8e94	0.0028924095
142	0xbd7c1ccd	-0.061550904
143	0x3e02df96	0.12780604
144	0x3cbc6c03	0.023000723
145	0xbd6105b0	-0.054937065
146	0xbd1dc6cd	-0.03851967
147	0x3d0ccbae	0.03437393
148	0xbd389940	-0.045068026
149	0x3dede183	0.116152786
150	0x3db83504	0.08994487
151	0x3d49d466	0.049274825
152	0xbdad47c7	-0.08460956
153	0x3d3e21c4	0.04641892
154	0xbd686440	-0.05673623
155	0xbd868a4a	-0.06569345
156	0xbdd0281f	-0.101639025
157	0x3d7f793a	0.06237147
158	0xbad0ea13	-0.00159389
159	0xbd897dd0	-0.0671345
160	0x3d70b4e1	0.05876625
161	0x3d2bf675	0.041983087
162	0xbdd3bb97	-0.10338514
163	0xbd655ca0	-0.055996537
164	0xbdcdb891	-0.10044969
165	0x3dd0ed3d	0.102014996
166	0x3d10f642	0.0353911
167	0xbda21a7b	-0.07915207
168	0x3ddabe64	0.106808454
169	0xbda35407	-0.07975011
170	0xbce4a5c9	-0.027911084
171	0xbd518f56	-0.051162086
172	0xbdc801a7	-0.0976594
173	0xbd9500e2	-0.07275559
174	0x3d3158df	0.043297645
175	0xbc1a930c	-0.009434473
176	0xbd79a840	-0.06095147
177	0x3d1d5159	0.038407657
178	0x3dc2cbbe	0.09511517
179	0xbe0dafb0	-0.1383655
180	0xbd6b7d66	-0.057492636
181	0xbd82298c	-0.06355581
182	0xbe0fb7df	-0.14034985
183	0xbd6d4765	-0.057929415
184	0xbd8498a4	-0.064744264
185	0x3d8538ff	0.06505012
186	0xbca25368	-0.019815162
187	0xbbe87845	-0.0070944154
188	0xbcaebe5c	-0.021331005
189	0xbdba12ff	-0.090856545
190	0xbda9d422	-0.08292414
191	0xbca7a242	-0.020463113
192	0xbd3d0069	-0.04614297
193	0xbda3d93b	-0.08000418
194	0xbcf55e64	-0.029952236
195	0x3d9c333d	0.076269604
196	0x3d00b643	0.03142382
197	0xbd0667eb	-0.032813948
198	0x3d2e10bc	0.042496428
199	0x3d6bcf17	0.057570543
200	0x3c8c2020	0.017105162
201	0xbcd43dd1	-0.025908383
202	0xbbba9ff7	-0.005695339
203	0x3d6dd2c9	0.05806235
204	0xbe0b1795	-0.13583215
205	0x3c9ba2b3	0.01899848
206	0x3da50c45	0.08058981
207	0xbdc199d4	-0.094531685
208	0xbe6635c4	-0.22481447
209	0x3d7a9330	0.061175525
210	0xbdff014a	-0.12451418
211	0xbc83ab8a	-0.016073007
212	0xbe4b351e	-0.19844481
213	0xbd212551	-0.03934223
214	0xbd070f08	-0.03297332
215	0x3c8c6a5c	0.01714056
216	0xbd191a81	-0.03737879
217	0x3ddaf0bc	0.10690448
218	0xbd40e6cc	-0.047095105
219	0xbdfeba5f	-0.12437891
220	0x3c8cea13	0.017201459
221	0xbd06c4f9	-0.03290269
222	0x3e3ed74e	0.1863682
223	0x3d8051bb	0.06265589
224	0xbd99ef20	-0.075163126
225	0x3ce229bc	0.027607791
226	0xbdc87d4d	-0.09789524
227	0xbda841c4	-0.08215669
228	0x3d182c92	0.03715188
229	0xbe01b008	-0.12664807
230	0x3d309008	0.04310611
231	0x3dccd3b4	0.10001317
232	0x3d7bc9c0	0.0614717
233	0x3df6cc80	0.12050724
234	0xbdc4d28e	-0.096104726
235	0x3b2d120b	0.002640846
236	0x3e194236	0.14966664
237	0x3cedd1c9	0.029030697
238	0x3dbdb722	0.092634454
239	0x3d8be01d	0.068298556
240	0xbe27d75d	-0.16390748
241	0x3d7e1ea8	0.062040955
242	0xbb96313d	-0.0045835064
243	0xbdd0c854	-0.101944596
244	0xbe211cb6	-0.15733609
245	0x3bf6a341	0.0075267856
246	0xbd981a61	-0.074269064
247	0x3d12f0ec	0.035874292
248	0xbdc39e04	-0.095516235
249	0x3e13cec3	0.14434342
250	0x3cda5555	0.026652018
251	0x3d49df64	0.049285308
252	0x3dae9bd5	0.08525816
253	0xbd0e06f5	-0.034674603
254	0x3d490262	0.049074538
255	0x3d868d3a	0.065699056

encoder.4.bias f4 [64]
0	0xbb241c51	-0.0025041292
1	0xbbbb15fe	-0.005709409
2	0x3adc4ccc	0.0016807555
3	0xbb12667a	-0.0022338913
4	0xbbd2ed03	-0.0064369454
5	0xbb3b88eb	-0.0028615545
6	0xbb12d475	-0.0022404466
7	0xbbb18c1c	-0.0054183137
8	0xbb11bbe1	-0.0022237229
9	0xb8bae674	-8.9120964e-05
10	0x3ab1c59b	0.0013562919
11	0x3a9df376	0.0012050706
12	0x3aa49a7a	0.0012558245
13	0xbb0f0674	-0.0021823915
14	0x3b638948	0.0034719277
15	0xba6b88fd	-0.00089849514
16	0x3b1e6776	0.0024170554
17	0x3a428120	0.0007419754
18	0xba99a02f	-0.0011720712
19	0xbb1a1b17	-0.0023514682
20	0x3b9f2d18	0.0048576705
21	0x3a02b89b	0.0004986615
22	0xb9db5236	-0.00041832187
23	0xbb86fc60	-0.004119441
24	0xba81b79c	-0.0009896639
25	0x3b494a4e	0.0030714455
26	0xba4953d8	-0.0007680035
27	0xba6980d9	-0.00089074444
28	0xba294b0c	-0.0006458021
29	0xbb684735	-0.0035442833
30	0xbbfffa5c	-0.0078118276
31	0xbb1d2ecf	-0.00239842
32	0xbb07f980	-0.0020748079
33	0xbad5ec92	-0.0016321114
34	0xbbc99e6b	-0.006152918
35	0xbacc453f	-0.0015584602
36	0xba438280	-0.00074581057
37	0xbba8b0a6	-0.0051480113
38	0x00000000	0.0
39	0xbb1083d9	-0.0022051244
40	0xba2d5f34	-0.00066136126
41	0xbb7cd1e2	-0.0038577248
42	0x3addf3c1	0.0016933606
43	0xbb980be9	-0.0046400917
44	0xbb4c0e50	-0.003113646
45	0x00000000	0.0
46	0xbabbbc8f	-0.0014323163
47	0xbb6b6b9a	-0.003592229
48	0xbb43f024	-0.0029897774
49	0xbbb0a54c	-0.0053907987
50	0xbb63eae5	-0.003477746
51	0xbb9b1849	-0.0047331196
52	0xbbb49839	-0.0055113104
53	0x3a8e3c33	0.0010851681
54	0xba83786a	-0.0010030393
55	0xb9434cb6	-0.00018625226
56	0xbb254731	-0.0025219435
57	0xbb191205	-0.0023356688
58	0xbb0bb477	-0.0021317282
59	0xbbedd571	-0.00725811
60	0x3aeca6d6	0.0018055092
61	0xb99d7f99	-0.0003004044
62	0x3b9aa756	0.004719655
63	0xba86d780	-0.0010287613

actor.0.weight f4 [64, 32, 3, 3]
0	0xbdd12dc4	-0.10213807
1	0xbd8b4140	-0.06799555
2	0xbc8965e6	-0.016772222
3	0xbe0f94fe	-0.1402168
4	0x3dcd860e	0.100353345
5	0x3d5bfafd	0.053706158
6	0xbcc5787c	-0.024105303
7	0x3a5dc8ab	0.0008460383
8	0xbd3536aa	-0.044241585
9	0xbd212ef8	-0.039351434
10	0xbdbf8f1d	-0.093534686
11	0xbdba98fe	-0.09111212
12	0xbd8782b4	-0.066167265
13	0x3df8b3e2	0.12143685
14	0x3e0d4288	0.13794911
15	0x3dec858c	0.115489095
16	0xbdcdc2bf	-0.100469105
17	0x3c837b64	0.016050048
18	0xbe437900	-0.19089127
19	0xbd539334	-0.051654056
20	0x3d7b7b41	0.06139684
21	0x3dccaa67	0.09993439
22	0x3d30d3af	0.043170627
23	0xbc95b92a	-0.01827677
24	0xbd37633d	-0.044772375
25	0x3e5df6a3	0.21676116
26	0xbce522ee	-0.027970757
27	0xbd877acd	-0.06615219
28	0xbd3663af	-0.04452866
29	0x3caf9471	0.021433087
30	0x3bfefbf2	0.007781499
31	0xbd9edac4	-0.0775657
32	0x3ddc7eae	0.1076635
33	0xbe16b974	-0.14719182
34	0x3d5accd5	0.053418
35	0xbcf033a3	-0.029321497
36	0x3dc372a7	0.095433526
37	0x3d2ebf40	0.04266286
38	0x3daf0433	0.08545723
39	0x3d1f94c7	0.038960245
40	0x3d982fb5	0.074309744
41	0x3c1b7060	0.0094872415
42	0x3dbf6704	0.093458205
43	0xbe0dd48a	-0.13850608
44	0xbc89043c	-0.016725652
45	0x3df180c6	0.1179214
46	0xbe03302d	-0.12811346
47	0xbd86fd15	-0.0659124
48	0xbd29ebf7	-0.0414848
49	0xbdc3a572	-0.095530406
50	0x3d1fd956	0.039025627
51	0x3e139033	0.14410476
52	0xbe3cceb7	-0.1843823
53	0xbc9e6f91	-0.019340308
54	0x3d9c3258	0.0762679
55	0xbddeb019	-0.10873432
56	0x3c8da35f	0.017289815
57	0xbce2df71	-0.027694436
58	0x3da09df7	0.078426294
59	0x3d28389d	0.041069616
60	0xbe172307	-0.14759456
61	0xbd407499	-0.046986196
62	0xbd9cf360	-0.076636076
63	0xbd254237	-0.04034635
64	0x3d4ab518	0.04948911
65	0x3d475c8c	0.048672244
66	0xbc0b5b82	-0.008505704
67	0x3d898a9f	0.06715893
68	0xbd8b409f	-0.06799435
69	0xbd476580	-0.048680782
70	0xbd96bba0	-0.073600054
71	0x3d053f0d	0.032530833
72	0xbda96e0b	-0.08272942
73	0x3d85fc66	0.06542282
74	0x3dfae074	0.12249842
75	0xbcf4493b	-0.029820075
76	0xbdca9bc9	-0.09892995
77	0xbe01fa20	-0.12693071
78	0x3cecb641	0.0288955
79	0x3d923829	0.07139618
80	0xbccf6c43	-0.025320178
81	0xbd017210	-0.03160292
82	0xbd0b5926	-0.034020565
83	0xbc029260	-0.007969469
84	0xbdd792f5	-0.10526077
85	0xbcb98cdd	-0.022650177
86	0x3d099310	0.033587515
87	0xbde4bfc3	-0.11169388
88	0xbcd3bcc3	-0.025846845
89	0xbdb7b0c0	-0.08969259
90	0x3dafa0c4	0.085755855
91	0xbddb5ed3	-0.10711446
92	0x3daed3fa	0.08536525
93	0x3bb44771	0.0055016805
94	0xbdd85c5d	-0.10564492
95	0x3be59c47	0.007007155
96	0x3cc6b054	0.024254002
97	0x3d688618	0.056768507
98	0xbc09b4ba	-0.008404905
99	0x3c58150d	0.013188613
100	0xbd087cef	-0.03332227
101	0xbe3b5904	-0.18295676
102	0xbb544c22	-0.0032394012
103	0xbe4f617b	-0.2025203
104	0xbc0c7fd0	-0.008575395
105	0x3db53099	0.0884716
106	0xbccd8fb0	-0.02509293
107	0xbdbe1d6c	-0.092829555
108	0x3baa2553	0.0051924377
109	0xbd7d4620	-0.061834455
110	0x3db782b1	0.08960474
111	0xbdd063cb	-0.10175284
112	0x3b83b72e	0.0040196395
113	0xbcbbef71	-0.022941323
114	0xbd0a0e10	-0.033704817
115	0x3c63a6bd	0.013894734
116	0xbdafa85b	-0.08577033
117	0xbd84bbab	-0.06481107
118	0x3dfa4cd4	0.12221685
119	0xbc6cb2ea	-0.014446953
120	0x3d896950	0.0670954
121	0x3dca3f09	0.09875304
122	0x3d827d48	0.06371552
123	0x3da4f27d	0.080540635
124	0x3d54ee08	0.051984817
125	0x3e2759e5	0.16342886
126	0xbce50592	-0.027956758
127	0xbe18799c	-0.1489014
128	0x3d5553d4	0.052081898
129	0xbcb38045	-0.02191175
130	0xbdc56946	-0.0963922
131	0xbd538f7f	-0.05165052
132	0x3d80862a	0.0627559
133	0xbd5c1ae4	-0.053736582
134	0xbccae925	-0.024769375
135	0x3de39c2b	0.11113771
136	0x3dadfadb	0.084951125
137	0xbd0a8240	-0.033815622
138	0x3dbb8551	0.091562875
139	0xbe13a437	-0.14418112
140	0x3db274f5	0.08713714
141	0xbe27d467	-0.16389619
142	0x3d23f65e	0.040029876
143	0xbd835a78	-0.0641374
144	0xbd8955a8	-0.06705791
145	0x3d36fa6c	0.044672415
146	0x3c161de1	0.009162397
147	0xbd99fe55	-0.07519213
148	0xbd2bbd28	-0.04192844
149	0xbd7ca960	-0.061684966
150	0x3d43bf21	0.047789697
151	0xbd904361	-0.070441015
152	0x3df1f359	0.11813993
153	0x3d4b7722	0.04967416
154	0xbd06a357	-0.032870617
155	0x3d28f63a	0.041250445
156	0x3b68a1d5	0.003549685
157	0xbdee8ab4	-0.11647549
158	0xbce81661	-0.028330984
159	0x3a11f9bc	0.00055685244
160	0xbd9b91e7	-0.07596188
161	0xbca7a780	-0.020465612
162	0xbc7ddb19	-0.0154941315
163	0x3d5af4fa	0.053456284
164	0x3bf83eed	0.0075758607
165	0x3e8b551c	0.2721337
166	0x3d972e8e	0.073819265
167	0xb8b838e1	-8.784398e-05
168	0x3d4e1894	0.05031641
169	0xbd59bae0	-0.053156734
170	0x3c9ee5c2	0.019396666
171	0xbca50a54	-0.020146526
172	0x3cc39e37	0.023879154
173	0xbe2a013d	-0.16602035
174	0xbd9d224a	-0.07672556
175	0xbcd26eba	-0.025687564
176	0xbdb5d7a5	-0.088790216
177	0x3c813b7f	0.01577544
178	0xbd36f4a2	-0.044666894
179	0xbdbd4485	-0.09241585
180	0x3da6e1a4	0.08148506
181	0xbe26155b	-0.16219084
182	0x3bf0e66c	0.007351687
183	0x3d83ba77	0.0643205
184	0x3d9a7a65	0.07542876
185	0xbda2c835	-0.07948343
186	0x3df6f33d	0.12058113
187	0x3c5da7d9	0.0135287875
188	0xbe4bcd79	-0.199026
189	0xbdbf708a	-0.09347637
190	0x3a1edcd6	0.0006060129
191	0xbda12d29	-0.07869942
192	0x3dc4f65d	0.096173026
193	0x3d134fb8	0.035964698
194	0x3d4097d8	0.04701981
195	0x3d2031c1	0.03910995
196	0xbd0593b8	-0.03261158
197	0xbd2109df	-0.039316054
198	0x3db4e717	0.088331394
199	0xbe1a823e	-0.15088746
200	0xbdd81b57	-0.1055209
201	0x3c311259	0.010807597
202	0xbd7841a6	-0.060609482
203	0xbb3dff34	-0.0028991224
204	0x3e23904f	0.15973018
205	0x3d635f4e	0.05551081
206	0xbc2d985b	-0.010595406
207	0xbd1d3b41	-0.038386587
208	0xbe0045b1	-0.12526585
209	0x3d93fe34	0.0722622
210	0xbd5f9a5b	-0.054590564
211	0xbdb542ab	-0.088506065
212	0x3d215cb0	0.039395034
213	0xbe1468d9	-0.14493121
214	0xbd01508b	-0.031570952
215	0xbd7d78ef	-0.06188291
216	0xbe46476e	-0.19363186
217	0x3ce8dbce	0.028425124
218	0x3ccd8e58	0.025092289
219	0x3d2b3710	0.04180056
220	0x3c2f88e1	0.010713787
221	0x3d209379	0.03920314
222	0x3dcfccee	0.10146509
223	0x3d347dd7	0.044065323
224	0xbbf9bd31	-0.0076214303
225	0xbd067bcc	-0.032832906
226	0x3c59bf95	0.013290306
227	0x3c9cd9cc	0.019146822
228	0xbdf0696b	-0.11738857
229	0x3da7a4a4	0.081856996
230	0x3deef560	0.11667895
231	0xbe14feba	-0.14550295
232	0xbe8ea1d3	-0.27857837
233	0x3d7b63fd	0.061374653
234	0xbcf161a2	-0.0294655
235	0xbb349fc6	-0.0027561053
236	0xbd7a1197	-0.06105193
237	0xbd941ec3	-0.0723243
238	0xbdf07e75	-0.1174287
239	0xbdf78944	-0.12086728
240	0xbd50a368	-0.050937086
241	0xbdb67a6f	-0.08910071
242	0xbc9c7d58	-0.019102737
243	0xbc8572de	-0.016290125
244	0xbc6d88db	-0.014497961
245	0x3da14171	0.0787381
246	0x3b7b2143	0.0038319386
247	0x3c455f4d	0.012046647
248	0xbd16aaac	-0.03678386
249	0x3c8ac526	0.01693971
250	0x3d25e9c0	0.040506124
251	0x3d484274	0.0488915
252	0xbd4edbbd	-0.050502528
253	0xbc35a6f9	-0.011087173
254	0x3d460353	0.048343014
255	0xbdd9a730	-0.106275916

actor.0.bias f4 [32]
0	0xbb4304c4	-0.002975748
1	0xbba3c7af	-0.0049981694
2	0xbbca0401	-0.006165028
3	0xb941f1c0	-0.00018495973
4	0xba4aa3c2	-0.00077300903
5	0xbb3ee235	-0.002912653
6	0xb8bfcdeb	-9.145945e-05
7	0xbb8f8f98	-0.0043811314
8	0xbb13693e	-0.002249315
9	0xbb00af1e	-0.0019635628
10	0x3b132715	0.0022453715
11	0xbb012659	-0.0019706695
12	0xbb2cc3e8	-0.0026361886
13	0xba5d1e84	-0.0008435028
14	0xbbeadd95	-0.007167528
15	0xbbb390bc	-0.0054799
16	0xbb8c0cf4	-0.004274005
17	0xbbe66732	-0.007031345
18	0xbbf0ea82	-0.0073521743
19	0x3a7c4fa9	0.00096249074
20	0xbba2e71f	-0.0049713994
21	0xbbc654a7	-0.006052572
22	0xb870dcc9	-5.742608e-05
23	0x3b700b30	0.0036627762
24	0xbb282377	-0.0025655904
25	0xbabfac3a	-0.0014623471
26	0xbb89410b	-0.004188662
27	0xbb9ea7e5	-0.004841792
28	0xbbb1a6c8	-0.005421493
29	0xbc094fd8	-0.008380853
30	0xbae10f8d	-0.0017170772
31	0xba29ea07	-0.0006481711

actor.2.weight f4 [32, 4, 3, 3]
0	0x3e24c4be	0.16090676
1	0xbc98747b	-0.01861023
2	0x3ed83cb4	0.42233813
3	0x3d638326	0.055544995
4	0x3cad0ed8	0.021125242
5	0x3e89209b	0.26782688
6	0xbd5b2d26	-0.053509854
7	0x3dccea71	0.10005654
8	0xbacb9fec	-0.0015535331
9	0xbd894a5f	-0.06703638
10	0x3e6e2ab8	0.23258483
11	0x3dc7c65b	0.0975463
12	0xbe88668c	-0.26640737
13	0x3e02c567	0.12770616
14	0xbe170f94	-0.14752036
15	0xbed0fbba	-0.40817052
16	0x3ec8c047	0.39209196
17	0x3e82b78e	0.25530666
18	0xbe1fb08b	-0.1559469
19	0xbe4537b6	-0.19259533
20	0x3d3778c3	0.0447929
21	0x3e8411eb	0.2579492
22	0x3dae8288	0.085209906
23	0xbe6ccdf6	-0.23125443
24	0xbc209eae	-0.009803457
25	0xbdeaf3da	-0.11472292
26	0xbe63314a	-0.22186771
27	0x3cc636ae	0.024195995
28	0xbf0a3be0	-0.5399761
29	0x3ea3831e	0.31935972
30	0x3e79f64f	0.24410366
31	0xbd61011d	-0.054932702
32	0xbe9fabf5	-0.3118588
33	0x3f0354bb	0.51301163
34	0xbdb9a426	-0.09064512
35	0xbe6cfd35	-0.23143466
36	0x3e16f56f	0.14742063
37	0xbe6cdbc5	-0.2313071
38	0x3cdef8e1	0.027218284
39	0x3df4aefb	0.119474374
40	0xbd240dab	-0.040052097
41	0xbe2290e0	-0.15875578
42	0x3dc47114	0.095918804
43	0xbe87604e	-0.26440662
44	0xbe9ae1a5	-0.30250278
45	0xbef037b8	-0.4691751
46	0x3eaebb98	0.34127498
47	0x3e76de3a	0.2410821
48	0x3e95ad6e	0.2923388
49	0x3cad3302	0.021142486
50	0x3cf07600	0.029353142
51	0x3e213691	0.15743472
52	0x3e84c980	0.25934982
53	0xbe46c44e	-0.19410822
54	0x3ea11dee	0.31468147
55	0xbeb6813a	-0.35645467
56	0x3e686dbf	0.22698115
57	0x3e356443	0.17714028
58	0xbcf87acd	-0.030331993
59	0xbd72b256	-0.059252106
60	0xbe748b6a	-0.23881307
61	0x3d0c7a0d	0.034296084
62	0xbdc38a81	-0.09547902
63	0xbce483ad	-0.02789482
64	0xbb206dcd	-0.002447951
65	0xbe43d42e	-0.19123909
66	0x3e4f7df4	0.20262891
67	0x3f1bdf2d	0.60887414
68	0xbdab8cef	-0.0837649
69	0x3d4ca4aa	0.049961723
70	0x3e54ae14	0.2076953
71	0x3eeaae4e	0.4583611
72	0xbe9827c3	-0.29717836
73	0xbea6a16a	-0.32545024
74	0x3e5d33a7	0.21601735
75	0xbbabc9d6	-0.0052425666
76	0x3e58d7f8	0.21176136
77	0x3e754a43	0.2395411
78	0xbdf53a6d	-0.119740345
79	0x3e5ad647	0.21370803
80	0xbe438a30	-0.19095683
81	0x3d4d48fb	0.050118428
82	0xbedafbae	-0.4277014
83	0xbe32bd45	-0.17455013
84	0xbd8c63be	-0.06854962
85	0xbbf1cbdb	-0.007379038
86	0x3ef953f5	0.48696867
87	0x3e0dbdc8	0.13841927
88	0xbd626c3d	-0.055279005
89	0x3e1de964	0.15421063
90	0xbe000609	-0.12502302
91	0x3d7bbeb3	0.06146116
92	0x3e157f38	0.14599311
93	0x3f050ef9	0.5197597
94	0xbeb5bdce	-0.35496372
95	0x3e2d7534	0.1693924
96	0xbe86fe8c	-0.2636608
97	0x3e12012d	0.14258261
98	0x3cf3564a	0.029704232
99	0xbede2952	-0.433909
100	0x3ccd0dd7	0.025031013
101	0xbeac6adf	-0.33675286
102	0x3e6157a6	0.22006091
103	0xbe114869	-0.14187779
104	0xbd16fcf5	-0.036862332
105	0x3e58c1a3	0.21167617
106	0xbdd56d93	-0.1042129
107	0x3e6e5f37	0.23278509
108	0x3b95dbd4	0.0045733247
109	0xbeb63f10	-0.35594988
110	0xbdcc1e15	-0.09966675
111	0xbd75e270	-0.0600304
112	0xbd779695	-0.06044634
113	0xbe8f1e90	-0.27953005
114	0x3efc9d8e	0.49338955
115	0xbe25be2d	-0.16185828
116	0x3efd7753	0.495051
117	0x3e362ae0	0.17789793
118	0x3e47fa7a	0.19529143
119	0x3e2264c4	0.15858752
120	0xbd307383	-0.04307891
121	0x3e064606	0.1311265
122	0x3d162590	0.036656916
123	0xbe805f37	-0.25072643
124	0xbdb81fd7	-0.08990448
125	0xbe941216	-0.28920048
126	0xbdd9be7d	-0.10632036
127	0xbeee6ac8	-0.46565843
128	0xbe243536	-0.16035923
129	0x3dc04a35	0.09389154
130	0x3d4fbb7e	0.050715916
131	0x3dd65b59	0.10466642
132	0xbe8b0ca3	-0.2715808
133	0xbe9b85e0	-0.30375576
134	0xbdbdfc8c	-0.09276685
135	0xbea8950a	-0.32926208
136	0x3dc21436	0.09476511
137	0xbe11aef4	-0.14226896
138	0x3d201b55	0.039088566
139	0xbf16e360	-0.58940697
140	0xbd7360d2	-0.059418507
141	0x3cba1481	0.022714855
142	0x3e477a94	0.19480354
143	0x3d950589	0.07276446
144	0xbdea715b	-0.11447402
145	0xbdbdf885	-0.09275917
146	0xbec13ce0	-0.37741756
147	0x3eb03f8f	0.3442349
148	0x3d7774ad	0.060414005
149	0x3d3d6368	0.04623738
150	0x3c17b951	0.0092604915
151	0x3eb7967d	0.35857
152	0xbe1351d3	-0.14386682
153	0x3e52fc05	0.2060395
154	0x3d72dd5e	0.059293143
155	0xbe6ade69	-0.22936405
156	0xbe92cc0d	-0.28671303
157	0xbec8482e	-0.3911757
158	0x3d64778c	0.05577807
159	0xbee3ec91	-0.44516423
160	0x3d9401b7	0.072268896
161	0x3da3d89f	0.080003016
162	0xbdf5c52f	-0.120005004
163	0xbebad0a3	-0.36487302
164	0x3e435878	0.19076717
165	0xbc8a30d2	-0.016868982
166	0x3ddf8d33	0.109156035
167	0x3dc9240e	0.0982133
168	0x3e9c1721	0.30486396
169	0x3e3fffdf	0.18749951
170	0xbeeca5af	-0.46220157
171	0x3e8f6594	0.28007185
172	0x3e62ec8d	0.2216055
173	0xbda030c6	-0.07821803
174	0x3ec7332c	0.3890623
175	0x3d5ef26e	0.054430418
176	0x3e719fda	0.23596135
177	0xbe46db51	-0.194196
178	0x3e81235e	0.25222296
179	0x3e200734	0.15627748
180	0xbe7dadaf	-0.24773286
181	0x3f00b1e8	0.50271463
182	0x3d0670e3	0.0328225
183	0xbe2f5869	-0.1712357
184	0x3ee93b0d	0.45552865
185	0xbd927fb7	-0.07153266
186	0x3e571d23	0.21007209
187	0x3e8c6e45	0.2742788
188	0x3d056b67	0.03257313
189	0xbe1e8b97	-0.15482937
190	0x3c292445	0.010323589
191	0x3ec4e052	0.38452393
192	0xbda72fdd	-0.08163426
193	0x3e33db98	0.17564237
194	0x3ebd5158	0.36976123
195	0x3e24cc39	0.1609353
196	0x3e40c071	0.1882341
197	0x3e0e521b	0.13898508
198	0x3bf67b74	0.007522041
199	0xbeed2725	-0.46318927
200	0x3ddafb65	0.10692481
201	0xbe8f1cb8	-0.27951598
202	0xbe7c1ad9	-0.24619617
203	0x3ea51d7c	0.32249057
204	0x3e98c1b9	0.298353
205	0xbee6b709	-0.4506152
206	0x3e4a64ce	0.19765016
207	0x3d02b643	0.0319121
208	0xbc5345dd	-0.012895075
209	0xbda1735e	-0.07883333
210	0x3e1847e6	0.14871177
211	0x3de7d33c	0.11319587
212	0x3cb981be	0.022644874
213	0xbd857035	-0.065155424
214	0xbdf2a583	-0.11847975
215	0xbe1ec674	-0.15505391
216	0xbe6239c8	-0.22092354
217	0xbc2c9cc8	-0.010535426
218	0x3d5e65ad	0.054296184
219	0x3d2856c2	0.041098364
220	0xbaf5559a	-0.0018717528
221	0xbe9a0cc5	-0.30087867
222	0x3eca86ab	0.39555869
223	0xbca79699	-0.020457553
224	0xbe605b4f	-0.21909831
225	0xbe17025d	-0.14746995
226	0xbe1facd0	-0.15593266
227	0xbca2121a	-0.019784022
228	0x3de2527c	0.11050889
229	0xbe7e4765	-0.24831922
230	0x3d513ed6	0.051085316
231	0xbd0c7181	-0.034287933
232	0x3dfaefdf	0.12252783
233	0xbe6300f0	-0.22168326
234	0xbd5d6db5	-0.054059703
235	0x3eab9cdb	0.3351811
236	0x3d0118ba	0.03151772
237	0xbe8da606	-0.27665728
238	0xbe2bdc9e	-0.16783378
239	0x3daa0d91	0.08303369
240	0xbe8a8a4b	-0.27058634
241	0x3cc6d2c0	0.024270415
242	0xbf2afca0	-0.66791725
243	0xbe336629	-0.1751944
244	0xbdfcf963	-0.12352254
245	0x3e6f1a84	0.23349959
246	0x3e3995f7	0.18123613
247	0x3c79022f	0.0151982745
248	0xbeca6260	-0.3952818
249	0xbec3fd89	-0.3827937
250	0xbedfcb1d	-0.4370965
251	0xbe8ee7bc	-0.27911174
252	0xbf0011fb	-0.50027436
253	0x3e369a18	0.1783222
254	0xbe70ce13	-0.23516111
255	0xbe56cc58	-0.20976388

actor.2.bias f4 [4]
0	0x3b83dca2	0.004024104
1	0xba3502ed	-0.0006905038
2	0x3a8ba557	0.0010654134
3	0xbb9111ab	-0.004427155

critic.1.weight f4 [128, 1024]
0	0xba0917c7	-0.00052296784
1	0xbd475932	-0.048669048
2	0xbc2e3890	-0.010633603
3	0xbd3803e5	-0.04492559
4	0xbcc9dd2c	-0.024641596
5	0xbd0fe330	-0.035128772
6	0xbdd1af93	-0.10238566
7	0xbd29d0d7	-0.04145893
8	0x3b9c4053	0.00476841
9	0xbc840627	-0.016116215
10	0x3c4d2d58	0.012523018
11	0x3d85bcfc	0.065301865
12	0x3c212014	0.009834308
13	0xbe140a5d	-0.14457078
14	0x3d42548c	0.04744391
15	0xbc1975ce	-0.009366466
16	0xbc02c698	-0.007981919
17	0xbd5bf86c	-0.05370371
18	0xbc8f61bc	-0.017502658
19	0x3cb64236	0.022248369
20	0x3bd8a480	0.006611407
21	0xbdc23318	-0.094824016
22	0xbd0bd412	-0.034137793
23	0x3b369a3c	0.0027862927
24	0x3da5ea48	0.08101326
25	0x3d05f9b1	0.032708827
26	0x3d0addd1	0.033902947
27	0xbc668cc7	-0.01407165
28	0xbd14b212	-0.036302634
29	0xbd172f24	-0.03691019
30	0xbd147901	-0.03624821
31	0x3d10e895	0.035378058
32	0xbd266768	-0.04062596
33	0xbcacb860	-0.02108401
34	0xbc74ef5f	-0.014949649
35	0x3d9a8fce	0.0754696
36	0x3da63169	0.08114893
37	0x3cae20e1	0.021255912
38	0x3d9be365	0.076117314
39	0xbd3799ad	-0.04482429
40	0xbcef842b	-0.029237827
41	0xbbd798b4	-0.006579483
42	0x3c96c985	0.018406639
43	0x3c481937	0.012213043
44	0x3d93b116	0.07211511
45	0xbdb334e0	-0.087503195
46	0x3d4bda53	0.049768757
47	0xbb87413d	-0.00412765
48	0xbd22ef9d	-0.039779294
49	0xbd3b61f5	-0.045747716
50	0x3d30c2d3	0.04315455
51	0xbce3f105	-0.027824888
52	0x3c945e8e	0.018111493
53	0xbdc81491	-0.09769548
54	0x3cd59095	0.026069919
55	0xbcc09d0d	-0.023512388
56	0xbc3e465c	-0.011613455
57	0xbcb357da	-0.021892477
58	0x3d5ad52c	0.053425953
59	0xbb043962	-0.0020175804
60	0x3d8867b0	0.06660402
61	0xbd1e89c4	-0.038705602
62	0xbd63723b	-0.05552886
63	0x3cbed02d	0.023292625
64	0x3b6326e6	0.0034660636
65	0x3d74ee05	0.059797306
66	0xbd010e3e	-0.031507723
67	0xbce93cbd	-0.028471345
68	0x3c079c54	0.008277018
69	0xbd4894cc	-0.04897003
70	0x3c1f369f	0.0097176125
71	0x3b951a38	0.0045502447
72	0x3ccc328d	0.024926448
73	0xbb6d0a36	-0.0036169416
74	0xbdc2ffc2	-0.09521438
75	0xbcc6f03d	-0.024284476
76	0xbcf33533	-0.029688453
77	0x3a390841	0.000705842
78	0xbd0e9d3c	-0.03481792
79	0xbd3952a2	-0.04524482
80	0xbd1a7a72	-0.03771443
81	0x3cf646fd	0.030063147
82	0x3d93322d	0.07187305
83	0xbd1fa615	-0.038976748
84	0x3d9626bd	0.073316075
85	0x3d4d52f9	0.050127957
86	0xbd642e50	-0.05570823
87	0xbd8d1792	-0.06889261
88	0xbc79557f	-0.015218138
89	0xbd48ad14	-0.048993185
90	0xbd59bf7b	-0.053161126
91	0x392bc871	0.00016382501
92	0xbdb9a4a4	-0.09064606
93	0xbda1ee92	-0.07906832
94	0x3d4d7e25	0.05016913
95	0xbd468150	-0.048463166
96	0xbb9ab42e	-0.004721186
97	0x3c611cab	0.013739745
98	0xbd57daa8	-0.05269876
99	0xbaaab56c	-0.0013024039
100	0x3c8d5fdd	0.017257625
101	0xbcc75c8c	-0.024336122
102	0x3d30d53f	0.043172117
103	0xbd3d22f9	-0.04617593
104	0xbd0e4f9e	-0.034743898
105	0xbd0c7628	-0.03429237
106	0x3d5ad3ff	0.05342483
107	0x3d895991	0.067065366
108	0x3d7c933f	0.061663862
109	0xbcbf79f0	-0.023373574
110	0xbc1e7c4c	-0.009673189
111	0xbcdbfdda	-0.026854444
112	0x3c0dda54	0.0086580105
113	0xbce3928e	-0.027779844
114	0xbd996773	-0.074904345
115	0x3c79d75b	0.015249099
116	0xbc1de08a	-0.009636054
117	0xbb3da028	-0.0028934572
118	0xbc22579f	-0.009908586
119	0x3c6bb06a	0.014385322
120	0x3d2d9e0a	0.042387046
121	0xbcd3e594	-0.025866307
122	0xbc16bb0c	-0.009199869
123	0x3c821631	0.015879722
124	0x3cca7ef0	0.024718732
125	0x3cc040d1	0.023468407
126	0xbbc543aa	-0.006020029
127	0x3d8990e8	0.06717092
128	0xbd1e817d	-0.03869771
129	0x3acbb9fd	0.00155431
130	0x3ccd93a1	0.025094809
131	0x3d8bd05b	0.0682685
132	0xbd2615de	-0.040548198
133	0x3ca4fd09	0.020140188
134	0xbb48dbc4	-0.0030648569
135	0x3bb701d6	0.0055849357
136	0x3d363711	0.04448611
137	0x3d6f9495	0.05849131
138	0x3d873a59	0.06602926
139	0xbdb1e76b	-0.086867176
140	0x3cab4684	0.020907648
141	0xbc76349f	-0.015027194
142	0xbcf49d8f	-0.029860286
143	0x3d5a6dc6	0.053327344
144	0xbc8f9efc	-0.017531864
145	0xbc12b673	-0.008954632
146	0x3d2ecd43	0.04267622
147	0x3de51f4a	0.111876085
148	0x3cf73183	0.030174976
149	0xbd374bb3	-0.044749927
150	0xbb54c73e	-0.003246739
151	0x3c31a5e2	0.010842772
152	0xbd2e4f8f	-0.04255634
153	0xbdcb1771	-0.099165805
154	0xbd04e496	-0.03244456
155	0xbccae4d9	-0.024767326
156	0x3d6420b7	0.05569526
157	0xbd03ee1f	-0.03220951
158	0xbd8bebd0	-0.06832087
159	0xbc86459c	-0.016390614
160	0xbb993f31	-0.0046767225
161	0x3d9a1b01	0.07524682
162	0xbc9fcf3a	-0.019507993
163	0x3b258635	0.0025256996
164	0xbd86c507	-0.06580549
165	0xbd53e79a	-0.051734544
166	0x3daf719b	0.085665904
167	0x3d62ada9	0.055341396
168	0xbc151ce6	-0.009101128
169	0xbcfe3308	-0.031030193
170	0x3da3923d	0.07986877
171	0xbd0b434a	-0.03399972
172	0x3d1f02c5	0.038821
173	0x3d81e722	0.06342913
174	0xbc54aba7	-0.012980378
175	0x3b20baea	0.0024525472
176	0x3d1559c5	0.036462564
177	0xbd7f9505	-0.062397975
178	0x3dda6263	0.10663297
179	0xbd951d09	-0.07280929
180	0x3d30ce9e	0.043165796
181	0x3cc91d75	0.024550179
182	0xbb6fc5ff	-0.003658652
183	0x3bb4db77	0.0055193263
184	0xbd0bc4ae	-0.034123115
185	0x3c09ef6c	0.008418899
186	0x3c952d9c	0.018210225
187	0xbd105b37	-0.03524324
188	0x3c21a644	0.009866301
189	0xba796e88	-0.00095150666
190	0x3ce3f419	0.027826356
191	0xbd8ee07c	-0.06976411
192	0x3cba3ab5	0.022733072
193	0x3cb8b6a5	0.02254803
194	0x3ca8caf1	0.020604583
195	0xbc89be8d	-0.016814495
196	0x3d0a4d30	0.033765018
197	0xbda36dba	-0.07979913
198	0x3c5aaedd	0.013347355
199	0xbb0a415f	-0.0021096093
200	0xbd0f5c86	-0.035000347
201	0x3d41adb9	0.047284815
202	0x3da50b17	0.08058756
203	0x3a1e0395	0.00060277554
204	0x3d983d51	0.0743357
205	0xbd1ef4d5	-0.03880771
206	0xbca7f4f5	-0.020502547
207	0xbd058d81	-0.03260565
208	0x3d3d5c24	0.04623045
209	0x3c82e760	0.015979469
210	0xbdb75136	-0.08951037
211	0x3d4fa535	0.050694663
212	0x3d5429da	0.051797725
213	0x3cfc8c1a	0.030828524
214	0x3c2200c1	0.009887875
215	0x3d96a06c	0.07354817
216	0x3cd5abad	0.026082838
217	0x3d5f186a	0.054466642
218	0x3ce617fc	0.028087609
219	0x3ce64e96	0.028113645
220	0xbd5c8969	-0.053841982
221	0x3c9a7503	0.018854624
222	0xbcf6f8ec	-0.030147992
223	0xbd8aa284	-0.06769279
224	0xbd287775	-0.041129548
225	0x3cdb3570	0.02675888
226	0xbc59c91f	-0.01329258
227	0xbc408eaf	-0.011752768
228	0xbca4b65c	-0.020106487
229	0x3b6f4732	0.0036510942
230	0x3d4573d6	0.048206173
231	0xbc081018	-0.008304618
232	0x3b9a2b3b	0.0047048605
233	0x3db9a09b	0.09063836
234	0x3d5e43ed	0.054263998
235	0xbd8149fe	-0.06312941
236	0x3d17327c	0.03691338
237	0xbdcb523b	-0.099277936
238	0xbd69f96d	-0.057122637
239	0xbd086bbe	-0.033305876
240	0x3d802cfe	0.062585816
241	0xbda009e9	-0.0781439
242	0xbd29f3d7	-0.04149231
243	0xbd5f93be	-0.054584257
244	0x3d7ecf23	0.06220926
245	0x3d133b65	0.035945315
246	0x3d45aaf3	0.048258733
247	0xbdbfa8ef	-0.093583934
248	0xbd50406c	-0.050842687
249	0xbcdba720	-0.02681309
250	0x3bfa574c	0.007639801
251	0x3d65a664	0.056066886
252	0xbcf3084f	-0.029667048
253	0x3d20db65	0.03927173
254	0x3d0a6075	0.033783395
255	0x3be1c18e	0.0068895286

critic.1.bias f4 [128]
0	0x38235b8d	3.894749e-05
1	0x39ede70b	0.00045376303
2	0xba21ec5b	-0.00061768823
3	0x00000000	0.0
4	0xba235d5b	-0.00062318676
5	0xba2b2187	-0.0006528128
6	0xba83e538	-0.0010062819
7	0x3a26b495	0.0006359306
8	0xba33ae4c	-0.00068542804
9	0x3a216741	0.00061570486
10	0xba21e31c	-0.00061755045
11	0x37075482	8.066303e-06
12	0x00000000	0.0
13	0xba2729d9	-0.000637678
14	0xb6dac075	-6.5193112e-06
15	0xba34a44c	-0.0006890937
16	0xba1ae605	-0.00059089094
17	0xba3d1323	-0.00072126294
18	0x3a156c8e	0.0005700075
19	0xb282e9f7	-1.5240387e-08
20	0x3a26b920	0.0006359983
21	0x35b6cedb	1.362026e-06
22	0x388412f6	6.297782e-05
23	0xb9e3bae3	-0.00043436055
24	0xba2c4764	-0.00065719173
25	0x3a1c2d56	0.00059576833
26	0x35bafd35	1.3931773e-06
27	0x3ac8cb1b	0.0015319319
28	0x3a221324	0.0006182662
29	0xba147a91	-0.0005664016
30	0xb8f916ab	-0.000118774675
31	0xba2568b1	-0.0006309851
32	0xb41dd6c2	-1.4699893e-07
33	0xba23f922	-0.000625508
34	0x3a3c8d2a	0.0007192666
35	0x39d7ad9b	0.00041137342
36	0x3a2605d9	0.0006333269
37	0x00000000	0.0
38	0xba7627f6	-0.000939011
39	0xba155c4d	-0.0005697653
40	0xb85962fe	-5.1829025e-05
41	0x3a222149	0.00061847694
42	0x3865251a	5.4632408e-05
43	0x00000000	0.0
44	0x00000000	0.0
45	0xb5335735	-6.68096e-07
46	0xba511be7	-0.0007976875
47	0x3a1567f8	0.00056993915
48	0x3a2a7d56	0.0006503662
49	0x3a0d6ad3	0.0005394641
50	0xb845adc0	-4.7130277e-05
51	0x3a53205d	0.0008053834
52	0xba56d36b	-0.0008194956
53	0xba704a5a	-0.00091663527
54	0xba23c1af	-0.00062468176
55	0x3a10ec08	0.00055283355
56	0x3a1d2579	0.00059946586
57	0x00000000	0.0
58	0x3a22cd8c	0.00062104384
59	0xba25e216	-0.000632794
60	0xba3a4290	-0.00071052555
61	0x3a330ffa	0.0006830689
62	0x00000000	0.0
63	0xba4ed71a	-0.0007890329
64	0x3a1fe6f5	0.0006099784
65	0x38209c43	3.8292503e-05
66	0xba324873	-0.0006800957
67	0xb5970fe1	-1.1254998e-06
68	0xb562f576	-8.4548753e-07
69	0x39b5b79a	0.00034659804
70	0x00000000	0.0
71	0x3905e855	0.00012770419
72	0xba19bf22	-0.0005864968
73	0xb83c5c62	-4.490873e-05
74	0xb925784e	-0.00015780443
75	0x00000000	0.0
76	0xba0b99b0	-0.00053253304
77	0x00000000	0.0
78	0x3992c8a9	0.00027996794
79	0xba24135b	-0.00062589877
80	0xb9308881	-0.0001683552
81	0xba1ac5bf	-0.00059041
82	0xb686bd34	-4.0155373e-06
83	0x00000000	0.0
84	0x00000000	0.0
85	0xba99c05b	-0.00117303
86	0xba2c226d	-0.0006566409
87	0x00000000	0.0
88	0x34b1c48d	3.311183e-07
89	0x3a23c542	0.000624735
90	0xbab5531e	-0.0013833975
91	0xba5356ea	-0.00080619624
92	0x397b8e5d	0.0002399026
93	0xba109dcd	-0.0005516678
94	0xb649917b	-3.0036015e-06
95	0xba1009dc	-0.0005494633
96	0xb9bc7269	-0.00035943397
97	0xba6f6804	-0.0009132626
98	0x00000000	0.0
99	0x3a16348c	0.0005729876
100	0x398c03bb	0.0002670566
101	0xb8c2d0d4	-9.289538e-05
102	0x3a1e6324	0.0006041995
103	0x37bc4946	2.2445467e-05
104	0x00000000	0.0
105	0xba3cb5f2	-0.0007198743
106	0x3a1327b2	0.000561352
107	0xba289efa	-0.0006432381
108	0xba255876	-0.0006307432
109	0x3a3bed34	0.000716883
110	0x00000000	0.0
111	0x3a2b7764	0.0006540923
112	0x3a198f8b	0.00058578764
113	0xba0cee0f	-0.00053760497
114	0x00000000	0.0
115	0x3a228738	0.0006199959
116	0x00000000	0.0
117	0x3a1193fe	0.00055533636
118	0xb731f709	-1.06075395e-05
119	0xbab13fc4	-0.0013523032
120	0xb9b9a015	-0.0003540522
121	0xba1f1b61	-0.00060694484
122	0x3a17a229	0.00057843566
123	0x38a53574	7.8777695e-05
124	0xba200d5d	-0.0006105507
125	0x39706304	0.0002292507
126	0xba6e3af7	-0.0009087766
127	0x3a22955f	0.00062020676

critic.3.weight f4 [1, 128]
0	0x3da08569	0.07837946
1	0x3b406709	0.0029358289
2	0xbd86ade0	-0.06576133
3	0xbe35f10f	-0.17767738
4	0xbd77afa8	-0.060470253
5	0xbd08cad1	-0.033396546
6	0x3df39e88	0.11895472
7	0x3d3feeb0	0.04685849
8	0xbbff847f	-0.007797777
9	0x3d88e791	0.06684793
10	0xbd88d66f	-0.06681525
11	0x3b43b80c	0.002986434
12	0xbc2e92be	-0.010655103
13	0xbde42fa9	-0.11141903
14	0x3e257e18	0.16161382
15	0x3e57066a	0.2099854
16	0xbdc640d6	-0.09680335
17	0xbd68fee2	-0.0568837
18	0x3df9c98b	0.121966444
19	0x3b008ca3	0.0019615076
20	0x3c233ab8	0.00996273
21	0x3b58ab56	0.0033061109
22	0xbce48c5d	-0.027898962
23	0xbb2007bf	-0.002441868
24	0xbce86ebb	-0.028373113
25	0x3d46cec6	0.04853704
26	0xbcf62f30	-0.030051798
27	0xbd8c3cd2	-0.06847538
28	0x3e0ea452	0.1392987
29	0xbe02aaa5	-0.12760408
30	0x3d86da28	0.06584579
31	0xbd98355f	-0.07432055
32	0x3d42c157	0.047547664
33	0xbd7efb47	-0.062251355
34	0x3dccfcf3	0.10009184
35	0xbd2cbca5	-0.042172093
36	0x3d84a0dc	0.06475994
37	0x3d4ee00f	0.050506648
38	0xbcf2d3a5	-0.029641936
39	0xbe1691ed	-0.14704104
40	0x3cbf08f3	0.023319697
41	0x3d796296	0.060885035
42	0x3db7919f	0.08963322
43	0xbcb998cc	-0.022655867
44	0xbde9d9aa	-0.11418469
45	0x3d57d935	0.05269738
46	0x3dbeef99	0.093230434
47	0x3dfa3af5	0.122182764
48	0x3c5bac34	0.013407756
49	0x3e2f0b4f	0.17094158
50	0x3d9448e6	0.07240467
51	0xbd189b1a	-0.03725729
52	0xbd5f3987	-0.05449822
53	0x3e3add4a	0.18248478
54	0xbd84d198	-0.06485289
55	0x3d479d46	0.048733972
56	0x3d503aa0	0.05083716
57	0x3e3be4dd	0.18349023
58	0x3d7dee28	0.0619947
59	0xbd519acb	-0.051173013
60	0x3dadafc8	0.08480793
61	0x3d4075bf	0.04698729
62	0x3e15dee8	0.14635813
63	0xbc80d9e6	-0.015728902
64	0x3dad13ed	0.08451066
65	0xbded4a4b	-0.11586436
66	0xbc0feea6	-0.008784926
67	0x3e0f9d7f	0.14024924
68	0x3c7e24e1	0.015511722
69	0x3e4c4e04	0.19951636
70	0xbcba6657	-0.022753878
71	0xbd7dd974	-0.061974958
72	0xbc79cd02	-0.015246632
73	0xbc6a7a59	-0.0143113965
74	0xbbd114d0	-0.006380655
75	0x3d97df09	0.074155875
76	0xbb60544a	-0.0034229928
77	0x3da23000	0.079193115
78	0xbc10cd0d	-0.00883795
79	0xbd760716	-0.06006535
80	0x3e2e7616	0.17037234
81	0xbdc431b6	-0.09579794
82	0x3d4890fc	0.048966393
83	0x3d3334d5	0.043751556
84	0xbd96526c	-0.073399395
85	0xbe0b3f6b	-0.13598411
86	0xbc2c1da9	-0.010505118
87	0x3d310085	0.043213386
88	0x3c143d18	0.009047769
89	0x3d6c9755	0.05776151
90	0xbe2a274c	-0.16616553
91	0xbcfa8027	-0.030578686
92	0x3d398d50	0.04530078
93	0xbe438836	-0.19094929
94	0x3d65f1f2	0.05613894
95	0xbe681e81	-0.22667886
96	0xbe20f16a	-0.15717092
97	0xbdb77e45	-0.08959631
98	0x3d3f3ea8	0.046690613
99	0x3d2296e7	0.039694693
100	0xbd68ca78	-0.056833714
101	0x3e195564	0.1497398
102	0x3da233c4	0.0792003
103	0xbdb8ca3c	-0.09022948
104	0xbd210c97	-0.039318647
105	0xbe054172	-0.13013247
106	0x3e0d257c	0.1378383
107	0xbd87c987	-0.06630235
108	0xbd80cde5	-0.06289271
109	0x3cfe3cc2	0.031034831
110	0xbcf2e513	-0.029650247
111	0x3c79c0be	0.015243707
112	0x3dceb536	0.10093157
113	0xbb13b839	-0.0022540225
114	0xbc522d64	-0.012828205
115	0x3d80ac68	0.06282884
116	0xbd46bd51	-0.04852039
117	0x3e136718	0.14394796
118	0x3d86798e	0.065661535
119	0x3da87c93	0.08226886
120	0x3d194b05	0.03742506
121	0xbdf24737	-0.118299894
122	0x3de23527	0.11045294
123	0x3cda09a0	0.026615918
124	0xbd9b613b	-0.075869046
125	0xbd1e3b37	-0.03863069
126	0xbd208759	-0.039191578
127	0x3d6d7bd1	0.05797941
