experiments/ppo_hrl/models/MicroRTSGridModeVecEnv__ppo_utils__1__1721366908/4096/attack.pt (torch, 802531 bytes, 11 tensors)

encoder.1.weight f4 [32, 30, 3, 3]
000000 09 a0 55 3d 21 f0 fa 3b 09 75 02 be 60 72 d7 3d
       0.052154575 0.00765802 -0.12739958 0.10519862
000010 f9 ae a1 bd d4 cd 7c bc 1f 6a 86 3b 2a 43 99 3d
       -0.078947015 -0.015429933 0.004102006 0.07483514
000020 a9 2d 79 bd 55 2f 20 bd 9f 7c 11 bc 8b b1 ae 3b
       -0.06083456 -0.03910764 -0.00887981 0.0053312234
000030 bf 10 1a bd 7f 21 45 bd 3d ab ec bc af 63 77 3d
       -0.037613627 -0.048127647 -0.028890247 0.0603978
000040 1a 47 9b bc a3 d3 d4 bc b0 4e 04 3d b9 78 05 3c
       -0.018954802 -0.025979823 0.032301605 0.008146458
000050 d4 02 25 3d d9 21 18 be 41 3f 61 bc 91 d7 9c bc
       0.0402859 -0.14856662 -0.013747991 -0.019145759
000060 f3 40 33 3c b5 3c 01 3d 74 32 34 3e db 81 8a 3d
       0.010940778 0.031552035 0.17597371 0.06763049
000070 45 f0 51 3c a1 d8 7b bb 32 ff aa bd bd 39 bf bd
       0.012813632 -0.0038428681 -0.08349456 -0.093371846
000080 93 c0 1e be b2 5f 00 3d d1 8d 07 3d 7e ac ab bd
       -0.15503149 0.031341262 0.03309423 -0.0838251
000090 52 2c fb 3c 0d a0 84 3d eb a7 7f bd 8c 42 64 bd
       0.030660782 0.0647584 -0.062416 -0.055727527
0000a0 7f ea e0 bd 05 72 1f bd 9d fb 3a 3d 9d 2f b9 bd
       -0.109822266 -0.038927097 0.045650113 -0.09042285
0000b0 61 73 75 3d 47 e7 05 be b0 4d 14 3e 67 0a 4c 3d
       0.059924487 -0.13076507 0.1448276 0.049814608
0000c0 da a0 ba 3b 1f e0 18 3d 0a 73 1e 3d 68 ab f0 bc
       0.0056954445 0.037323114 0.03868393 -0.029378608
0000d0 0b 23 2f be 4f c7 09 3e 7a 0f a3 3d 17 66 f2 3c
       -0.17103212 0.13454936 0.07961936 0.029589696
0000e0 f0 b9 6f 3e 3c 3b c6 bd 0e 4d b7 bc 31 b4 15 be
       0.23410773 -0.09679267 -0.02237561 -0.14619519
0000f0 cb 1a 0e bd c6 0d fc 3d a3 71 92 bc a6 a9 29 bd
       -0.03469352 0.123073146 -0.017876452 -0.041421555
000100 23 6e 54 bd b5 77 0f 3d 7f d4 a6 ba f1 67 3b bc
       -0.051862847 0.03502627 -0.0012728124 -0.011438356
000110 89 44 0e 3d cd 53 ed 3c 6e 6c c2 3d 7b 5f 0c be
       0.03473333 0.028970623 0.094933376 -0.13708298
000120 7a ad 49 3e e7 4d ee bc 24 70 b9 bd e0 2a a2 bd
       0.19695082 -0.029089881 -0.09054592 -0.07918334
000130 f0 ab 83 bd fc 5f f6 3c 23 9f 47 bd f4 50 60 be
       -0.06429279 0.030075066 -0.04873575 -0.21905881
000140 65 9c a5 bd 43 3b 47 be fd 2f ff 3c ee c2 87 3d
       -0.080864705 -0.194562 0.031150812 0.06628977
000150 ac 91 b5 3c 7c c0 c1 3c da b2 a1 3d 22 9e 29 bd
       0.022164188 0.023651354 0.07895441 -0.041410573
000160 ea 8b 93 3d c2 44 1f bd 18 94 9a bd b7 38 a1 3c
       0.07204421 -0.038883932 -0.07547778 0.019680364
000170 d7 f9 80 3d 97 08 34 3e 15 fb 7f 3d 68 c0 f2 3d
       0.06297653 0.17581402 0.06249531 0.11853105
000180 1e 83 b0 3d 6f aa d8 3c 56 7f 80 3d 04 b0 b5 3d
       0.086187586 0.026448457 0.062742874 0.08871463
000190 1e 51 4c 3d 38 57 8d 3d d6 e4 04 3e 02 80 c4 bd
       0.049882047 0.06901401 0.12977919 -0.09594728
0001a0 ee 58 e1 3b d4 59 1b 3c 8c e8 60 3e ef 80 7b bc
       0.0068770563 0.009481866 0.2196371 -0.015350564
0001b0 72 d1 ba bc f2 44 ff bd f8 94 ae bd f2 e0 df ba
       -0.02280495 -0.12464322 -0.08524507 -0.0017080589
0001c0 eb 6b 9f bd bb 0e 9b bc 0f b7 88 bd cc db 9a bd
       -0.077842556 -0.018927922 -0.06675541 -0.07561454
0001d0 e2 a7 5c 3d 21 ce ff bc 37 b1 4f 3d 76 a7 ae 3d
       0.053871043 -0.03122622 0.050706115 0.085280344
0001e0 7b 6a 05 be 26 2a 87 bc 5a 09 09 3d 78 ae 0f be
       -0.130289 -0.01649959 0.033456184 -0.14031398
0001f0 cd 83 02 be 54 b7 12 3d 3f 2c 4a bd a0 e8 b2 3d
       -0.1274559 0.035819367 -0.049358603 0.08735776
000200 53 fd 4c 3e 65 3e 88 bd 9a f4 cf 3c a5 52 67 bc
       0.2001851 -0.06652526 0.02538519 -0.014118825
000210 49 aa 04 bd da 60 b0 3d ef 60 7a 3d 7e e9 94 3d
       -0.03238896 0.08612223 0.0611276 0.072710976
000220 b0 cb 6c bd 7b f0 d8 bd 7a ee 13 3e f2 ab df 3d
       -0.05781144 -0.10592743 0.1444644 0.10921468
000230 8f 62 fd 3c 69 ed 8a bd 6f 1b 00 bd 30 5c dc 3d
       0.030930785 -0.06783564 -0.031276163 0.10759771
000240 54 4d b1 bd 9d 65 1a bc e2 a5 a7 ba 3b 84 98 3a
       -0.08657327 -0.009423641 -0.0012790526 0.0011636087
000250 f6 6a ec bc 34 bf c2 3d d8 ce a0 3c 51 c4 89 3d
       -0.028859597 0.09509125 0.01962988 0.067268975
000260 46 8e 51 bd 34 a8 73 3e 3d 6a 83 3c 2e 40 1c bd
       -0.051161073 0.23794633 0.01604187 -0.038147144
000270 05 a9 29 3c a4 42 05 3d 47 2a 69 3d 71 07 22 3e
       0.010355239 0.032534257 0.056925084 0.15823151
000280 6c ff 46 bd e8 44 ab bd 4a 84 22 bc 31 f7 e0 3a
       -0.048583433 -0.08362752 -0.0099192355 0.0017163513
000290 95 58 bc 3c 51 71 29 3d 80 3e 41 bd b6 2b de bd
       0.022991458 0.041367833 -0.047178745 -0.10848181
0002a0 68 e7 45 3c 78 91 c6 bb 44 08 99 bd 14 36 43 bd
       0.012079097 -0.0060598217 -0.0747228 -0.047658995
0002b0 5b f1 98 bd bd 64 d3 bd 14 c1 8c 3b db 48 e1 bd
       -0.0746791 -0.10321949 0.0042954776 -0.11000224
0002c0 a6 9a 97 bc 5a 8c b2 3d 57 ce c0 3d 69 0d 16 3e
       -0.01850636 0.08718176 0.09414356 0.14653553
0002d0 f8 5c 2b 3e 0d 8c 0e 3d 37 35 b1 3d f8 8e e9 3c
       0.16734684 0.03480153 0.08652728 0.028510556
0002e0 27 df 81 3d 06 b8 da 3c 7a a1 df 3c 80 54 02 bb
       0.06341391 0.026699077 0.027298678 -0.0019886792
0002f0 28 91 7e 3c 35 22 a4 3d f1 64 fb b9 4b 6e d0 bc
       0.015537538 0.08014337 -0.00047949658 -0.025443217
000300 7d 4d 05 bc 21 0a 05 bd c0 94 77 bc f3 95 20 bd
       -0.00813615 -0.032480363 -0.015111148 -0.039205503
000310 bc 36 01 3d 16 7a 2d 3d 77 dd 8f bc c7 ff 01 3d
       0.03154634 0.04235276 -0.017561657 0.03173807
000320 8c 05 64 3d b1 f8 ee 3d 36 9e 26 be 96 30 10 be
       0.055669352 0.11668528 -0.1627129 -0.14081034
000330 0c 21 5a 3e e4 80 3d 3d 04 18 8d 3d 89 46 1c bc
       0.21301669 0.046265498 0.06889346 -0.009538301
000340 74 ea df 3d 3d 83 1c bc b5 69 a3 3d b2 94 05 bc
       0.1093339 -0.009552774 0.079791464 -0.0081531275
000350 be 54 6e 3c c0 0c 2d 3e 2d 81 3f 3c 80 7b 8b be
       0.014546571 0.16899395 0.011688513 -0.2724266
000360 fb 34 69 bd 1b b2 92 bd 18 2a 00 bd d2 7d 34 3d
       -0.05693529 -0.07162877 -0.031290144 0.044065304
000370 bb 66 28 bd 7f 71 ed bd 78 b4 1f 3e 55 cd 54 3d
       -0.041113596 -0.11593913 0.15596187 0.051953632
000380 2c 83 05 be c0 50 6b 3d 40 80 91 bd cd 87 6c 3c
       -0.1303832 0.057450056 -0.0710454 0.014436674
000390 f3 9f 33 3d d5 52 05 be c6 7b d0 bc 4c 10 4f bd
       0.04385371 -0.13019879 -0.025449645 -0.05055265
0003a0 87 96 08 be d4 73 e6 3d c4 09 82 bc 28 4a 2b bd
       -0.13338672 0.11252561 -0.015873797 -0.041818768
0003b0 a1 96 45 3e 03 4f 63 3c c7 e6 8c 3c 73 d1 df bb
       0.19295742 0.013873818 0.017199887 -0.006830388
0003c0 7a 7c 45 bd b9 8f 62 3d ae ba ca 3d 9e cd ba 3d
       -0.048214413 0.055312846 0.098988876 0.091212496
0003d0 98 b8 f9 3c a0 c2 94 bc 4e ad 54 3d 71 99 0e be
       0.030483529 -0.01815921 0.05192309 -0.13925721
0003e0 c2 6c 99 3e 1c 5c 08 3d 81 6c f1 bd ce 42 43 3d
       0.29965788 0.033290967 -0.117882736 0.04767113
0003f0 07 95 73 3d fc c9 bb 3d b7 f9 e1 3c 28 e2 8e 3c
       0.059468295 0.09169385 0.027584894 0.017441824

encoder.1.bias f4 [32]
000000 a6 d1 7a ba 3e 98 01 3a 02 76 2e ba 9f 49 01 bb
       -0.0009567983 0.00049436453 -0.0006655158 -0.001972772
000010 fe c0 2d 3a 92 ab 26 3a dc 49 2e bb 70 4e aa b9
       0.00066281843 0.00063579634 -0.0026594317 -0.00032483367
000020 b0 28 16 b9 6a 74 8b b9 7b f3 d3 3a 82 d3 03 ba
       -0.00014320272 -0.0002659888 0.0016170585 -0.00050287705
000030 83 ea 8c b9 e6 3a f8 ba c8 d7 d7 ba 67 f9 f5 ba
       -0.00026877606 -0.0018938452 -0.0016467506 -0.0018766344
000040 c0 b2 1b bb ba ba c6 b9 77 77 34 3a ae c0 ab b7
       -0.0023757666 -0.00037904625 0.0006884257 -2.0474512e-05
000050 9b 99 e9 39 a6 dd 8b ba 14 2d 64 39 ec bd 72 ba
       0.00044555668 -0.0010670915 0.00021760567 -0.0009259868
000060 93 a9 37 3a 34 66 e0 b9 f0 b0 f3 b9 d0 ba 0e 39
       0.00070061645 -0.00042800757 -0.000464804 0.00013611768
000070 a3 56 ab b9 42 e5 e5 3a 4b 94 c1 b8 bc db 50 ba
       -0.0003268021 0.0017539638 -9.230579e-05 -0.0007967313

encoder.4.weight f4 [64, 32, 3, 3]
000000 49 75 a5 3d a7 3d 2c 3d bc 3d 12 be 45 cf 0c bd
       0.08079011 0.042050984 -0.14281362 -0.034377355
000010 a9 0a de bc af e4 5e bd 95 8e b9 3a 6b f8 fa 3d
       -0.027104693 -0.05441731 0.0014156873 0.12254413
000020 fe 16 be 3c 27 c3 85 bd 72 63 41 3e 26 00 22 3e
       0.023204323 -0.06531363 0.18885592 0.15820369
000030 9e d4 02 3e 28 97 22 bd 79 75 34 3c ee be 8a bd
       0.1277642 -0.039694935 0.011014336 -0.06774698
000040 cd b0 ec bc 72 7f df 3c 78 4c ec bd 9d a6 97 3d
       -0.028892899 0.02728245 -0.11538023 0.07404826
000050 e4 87 c9 bb 79 2e f6 3d 02 a8 dc bc 31 6e 1b bd
       -0.0061502326 0.12020583 -0.026935581 -0.037946884
000060 b5 6c 0a 3d 71 0c 4f bd aa 8d a8 bd be 2e 29 3d
       0.033795077 -0.050548974 -0.08230145 0.041304342
000070 9e 71 a1 3c 64 05 48 be 1d fe bf 3c 80 fe bd bd
       0.019707497 -0.19533306 0.0234366 -0.09277058
000080 04 89 00 be 7f ef d2 3d 6e b5 22 3a d4 a5 76 bc
       -0.12552267 0.102995865 0.00062068447 -0.015054185
000090 d9 de 5c 3c 0e e8 03 bd 9c eb aa 3d 8d a6 a9 bd
       0.013480865 -0.032203726 0.0834572 -0.0828372
0000a0 07 9d 8b bd 7e b1 6a 3e c9 d7 10 bd d5 66 26 3c
       -0.0681706 0.2291927 -0.03536204 0.010156353
0000b0 2f 65 ca bb f4 c8 e4 3d 20 e8 f8 bd 79 f1 af bd
       -0.006176613 0.11171141 -0.12153649 -0.08590979
0000c0 06 83 f6 bd 16 44 cd bd b1 d6 b7 bd 19 44 fa bb
       -0.120367095 -0.10022752 -0.08976496 -0.0076375124
0000d0 71 7f 27 bb 8b 3a 76 bd 92 d7 da 3d 7b a2 97 3d
       -0.0025558139 -0.060114425 0.10685648 0.074040376
0000e0 6f 93 91 3c 87 3e eb bd af 9c ec 3c 67 75 5d 3d
       0.017770497 -0.114865355 0.028883306 0.05406704
0000f0 7a fc 0b bc 40 81 0d 3e 0e 10 ff bc 36 7d 21 3d
       -0.008544082 0.13818836 -0.031135585 0.03942605
000100 ea 6a fc bd c1 31 20 3d 59 3b 08 bc c5 79 d9 bc
       -0.1232508 0.03910995 -0.008314931 -0.026547322
000110 17 94 b4 bd 49 69 11 3d 17 f6 2a bd 83 b2 39 bc
       -0.088173084 0.0355008 -0.041738596 -0.011334064
000120 be 15 ec 3d 30 f5 ac 3c 19 88 50 3c 9d a9 9b bc
       0.115275845 0.021113008 0.012727761 -0.019001776
000130 2f 5d 33 bd 0b 4e 08 3d e2 26 88 3b d1 0d 70 3b
       -0.04379004 0.033277553 0.004155026 0.003662933
000140 7d 2a d4 bb bc 7c bd bd 22 a2 ce 3d ac 44 dd bd
       -0.0064747916 -0.09252307 0.10089518 -0.10804114
000150 7e 91 de bd 82 45 d7 3c 89 d1 34 be 66 5b ef 3d
       -0.10867594 0.026278261 -0.17658056 0.11687355
000160 3e 67 77 bd 5f 9c a4 3b 07 67 58 bd c9 03 17 bc
       -0.060401194 0.0050235237 -0.05283263 -0.009217211
000170 6a 52 bb bd c2 67 e6 bc 52 35 73 3d 5d 26 cf bc
       -0.091465786 -0.028125647 0.059377022 -0.025286848
000180 6f 2c 51 bd fa 84 b0 3d 05 a6 8d bb bb e6 ab 3c
       -0.051067766 0.08619113 -0.0043227696 0.020984044
000190 a9 02 84 3d d0 ec 0d be a0 98 79 3d 33 49 3f 3d
       0.0644582 -0.13859868 0.06093657 0.046700668
0001a0 e8 12 8e bd 93 ae ea bd a4 fb 1b bd 0d 7a 94 3b
       -0.069372 -0.11459079 -0.03808178 0.004531151
0001b0 88 b9 c6 bd 62 8a 64 bc 18 0e 19 3d fa 22 e4 bd
       -0.09703356 -0.013949009 0.037366956 -0.11139484
0001c0 b8 01 86 bd ca 89 ac 3d ca ca ae bd 3f aa af bd
       -0.065432966 0.08424719 -0.08534773 -0.08577394
0001d0 b0 28 07 bc 40 4f c1 bd 13 93 a3 bd 87 69 9e bd
       -0.008249447 -0.09438944 -0.079870366 -0.077349715
0001e0 74 62 dc bd a9 70 56 bd 2c d3 3f 3c d5 d4 72 bc
       -0.10760966 -0.052353535 0.011708062 -0.014821251
0001f0 06 8e 8d bc c3 48 e5 3c a7 92 91 bd 66 5f 12 3e
       -0.017279636 0.027988797 -0.0710805 0.14294204
000200 2b f4 35 bc 39 92 3f 3d ad f9 90 3d a7 0e e1 bd
       -0.011105577 0.04677031 0.07078872 -0.10989123
000210 64 f2 30 bd 8b 80 2a bc d5 c1 cf bd 5b 83 ca bd
       -0.04319991 -0.010406624 -0.101443924 -0.09888335
000220 65 31 a0 3d c6 18 69 bd 4d f3 80 bd 36 20 f5 3d
       0.07821921 -0.05690839 -0.06296406 0.119690344
000230 ad c5 39 bd 7c b8 ad bd 27 25 d1 3d f8 3b 52 3b
       -0.045354534 -0.08482453 0.10212164 0.0032079201
000240 e8 aa 06 be 33 1b 97 3d 0e f4 88 bd 07 1a 6c bc
       -0.13151133 0.07378235 -0.06687175 -0.014410502
000250 8c 68 51 bd 4b ec 00 be 6b c6 5b 3d 41 53 2b 3e
       -0.051125094 -0.12590139 0.053656023 0.16730978
000260 8c 09 79 3c d4 bc 25 be 68 47 a7 3d dc fc 1d 3e
       0.01520003 -0.16185313 0.081679165 0.1542849
000270 61 d8 01 bc 3a bf 6c 3d a2 41 f1 bd b4 42 6d be
       -0.007925124 0.057799555 -0.117800966 -0.23169976
000280 07 db 2d 39 e1 46 a3 bd 1d 76 13 be 97 ed 02 be
       0.0001658016 -0.079725035 -0.14400525 -0.12785946
000290 15 ad 0e be a5 de a7 bd a9 05 c1 bd 17 d7 89 3c
       -0.13933213 -0.08196763 -0.09424908 0.016826196
0002a0 f6 92 f6 bd ec 38 ba bd 4a c0 6f 3d fe ba cc bc
       -0.12039749 -0.09092888 0.05853299 -0.024991509
0002b0 4a b6 b8 3c 95 38 9a 3c 33 64 9f bd c5 2e 88 bd
       0.02254786 0.018825809 -0.07782783 -0.066495456
0002c0 21 a6 c9 bc 18 de 0a be 5d 8a 8a 3d 4c 05 12 bb
       -0.02461535 -0.13561285 0.06764672 -0.002228099
0002d0 a4 5d a7 3d d9 f6 7a 3d 2d d6 1c 3d ae d0 8c bd
       0.081721574 0.06127057 0.03829019 -0.0687574
0002e0 d9 2f 57 3c b6 4b de 3d 06 a9 05 be 9f 87 02 3e
       0.013133966 0.108542845 -0.13052759 0.12747048
0002f0 02 43 d4 bd 12 15 66 3d 2d 57 3e bd c0 e2 7b 3c
       -0.10364343 0.056172438 -0.046469856 0.015373886
000300 c8 34 12 3e 13 19 92 bd 26 8f 40 be 56 18 7e 3c
       0.14277947 -0.07133689 -0.18804607 0.015508732
000310 48 45 a4 bd 14 7b 97 3d f2 00 17 3c fa 28 ae bd
       -0.08021027 0.07396522 0.009216534 -0.085039094
000320 cd 3c 1e be 11 8e 4b bd 38 9a 8c 3c 24 23 1b bd
       -0.15452881 -0.049696032 0.017163381 -0.03787531
000330 3a ca 1a be a4 4e 6d bc ee bf ca 3d 60 7e 75 3c
       -0.15116206 -0.014484081 0.09899889 0.014983743
000340 82 08 12 3d 58 c3 5b 3d 64 48 74 bd 05 e3 d9 bd
       0.035652645 0.05365309 -0.05963935 -0.10639004
000350 0a 3a cc 3d 54 81 a7 3e 37 e3 bc 3b 3d b7 15 3e
       0.099720076 0.32715857 0.005764391 0.14620681
000360 c6 2d 12 be 45 31 22 3d bc 9f 8b bb 42 fc aa bd
       -0.14275274 0.03959777 -0.004260985 -0.083488956
000370 9c 45 12 3d b2 b9 a6 bd 48 9f 14 bc 93 88 b3 3d
       0.035710916 -0.08140887 -0.009071179 0.08766284
000380 9a fc 5a 3d e5 8e c3 bd e8 98 09 3d 63 f3 54 bc
       0.053463556 -0.09548739 0.03359309 -0.012997481
000390 89 14 df 3c 8d 53 63 bd 64 84 8e bd 8d c4 33 3c
       0.027231472 -0.055499602 -0.06958845 0.010972154
0003a0 38 10 64 bd 1a 09 fc 3d 41 d3 f5 3b e7 47 45 3d
       -0.05567953 0.123064235 0.00750199 0.048164275
0003b0 b8 08 78 bd c4 7a 93 bd c0 6e c9 bd 1b 89 7f bc
       -0.06055519 -0.0720115 -0.09835577 -0.015596653
0003c0 e9 00 47 bd 34 24 0f be 76 86 bd 3c 29 ca c6 3d
       -0.048584852 -0.13978654 0.023135405 0.09706528
0003d0 7a 4f e0 3d 3a ec 06 3e 56 af 80 3d a4 e9 e4 3d
       0.10952659 0.13176051 0.06283443 0.11177376
0003e0 db 5d 15 3c a1 8b 9f bd 01 14 a3 3d bb db be 3c
       0.009116615 -0.07790304 0.079628 0.023298135
0003f0 0f 09 c3 3c 1e 28 1e be 5f 39 54 bd de a2 db 3c
       0.02380803 -0.15444991 -0.051812526 0.02681106

encoder.4.bias f4 [64]
000000 00 00 00 00 77 c5 16 ba d6 29 29 ba a5 fb 11 3a
       0.0 -0.00057514705 -0.00064530724 0.0005568809
000010 be a7 8f ba 16 31 36 ba 10 ef 55 b9 12 c6 eb b8
       -0.0010960025 -0.00069500634 -0.0002040232 -0.00011242567
000020 96 42 2a b8 9f f5 39 39 9d f9 07 3a 77 4a 5d ba
       -4.059317e-05 0.00017734476 0.00051870366 -0.0008441577
000030 61 83 57 ba 12 e9 6d 38 74 b7 0e b9 16 69 05 bb
       -0.0008221176 5.6722267e-05 -0.00013610517 -0.0020356826
000040 ea 4f 69 b9 97 0b 9a b9 78 cc 95 ba 6e e0 35 b8
       -0.00022250382 -0.00029381804 -0.0011428734 -4.336278e-05
000050 79 e0 a8 b9 f7 fc ab 36 a0 a4 ad b9 9a 85 91 38
       -0.00032210702 5.125646e-06 -0.00033119787 6.939024e-05
000060 75 11 28 3a 5c 1d 9c 39 b2 2a d5 39 cf fe 16 3a
       0.00064112927 0.00029776513 0.00040658336 0.00057600153
000070 db 38 da b9 db 82 be 39 8e 40 32 bb 35 58 aa b9
       -0.0004162256 0.0003633712 -0.0027199122 -0.00032490646
000080 26 95 56 ba 06 ba 02 ba 9c 24 dd b8 00 00 00 00
       -0.0008185677 -0.0004986826 -0.0001054492 0.0
000090 9e 85 32 3a 95 23 0f ba 2f a3 41 39 0a fa a5 b9
       0.00068100716 -0.0005460319 0.00018466705 -0.00031657546
0000a0 00 00 00 00 9d 90 cc b9 00 7f 37 ba f3 d3 87 b9
       0.0 -0.00039017657 -0.00069998205 -0.0002590712
0000b0 f5 c5 21 ba b4 d9 ae ba 13 f9 f5 b9 72 15 00 b9
       -0.00061711605 -0.0013340027 -0.00046915616 -0.0001221502
0000c0 ef 7d 99 b9 06 68 6c ba 18 07 27 b9 ce bc f4 38
       -0.00029276262 -0.0009018186 -0.00015929004 0.00011669994
0000d0 5a 52 87 b9 00 00 00 00 0b 07 8c ba a9 35 f1 ba
       -0.00025810563 0.0 -0.0010683251 -0.0018402833
0000e0 7d 5c 20 ba 24 37 1d b8 2f 97 95 b9 d1 b6 3a 3a
       -0.00061172975 -3.748307e-05 -0.00028532135 0.00071225787
0000f0 9c 9a e5 b8 36 e5 9f ba 06 2c 33 38 58 3b 52 b9
       -0.00010948369 -0.0012199047 4.2717926e-05 -0.00020049268

actor.0.weight f4 [64, 32, 3, 3]
000000 ac b5 aa 3c 5f a3 9f bd 81 a6 7e bd 09 a2 87 bd
       0.020838581 -0.077948324 -0.06217051 -0.06622703
000010 35 81 16 3c cd b7 3f 3c af 5c 5b 3d d0 1b 7d 3d
       0.009186079 0.011701536 0.053555187 0.061794102
000020 b4 e0 d1 bd 35 8b bf 3c 29 cb b5 3b 1f 8d ca bc
       -0.10247937 0.023381809 0.0055479 -0.024725495
000030 4c f9 d8 3c fa 54 0e 3c 72 8d 90 bd 64 06 39 bd
       0.026486062 0.008687252 -0.070582286 -0.04517211
000040 0d a2 41 3c 28 5b f7 bc bb 6f 8f ba bf 04 84 3c
       0.011818421 -0.030194834 -0.0010943332 0.016115544
000050 be 36 85 3a ec ba 87 3d b5 52 dc bd 2f 9f 8d 3d
       0.0010163409 0.066274494 -0.107579626 0.069151275
000060 94 1f 19 be 68 16 76 3d b7 0b c4 3d 21 74 c3 3d
       -0.14953452 0.060079962 0.09572547 0.09543634
000070 8b 9c 32 3b 1a fd d8 3d 44 42 4e 3d 67 0d 8e bb
       0.0027253951 0.1059515 0.050356165 -0.004335094
000080 21 cc 1a be 8f ec af 3d 1a 1d 1c 3d 34 0e 4c 3d
       -0.15116931 0.08590042 0.03811369 0.049818233
000090 e5 58 33 3e 70 69 f5 bc 47 f4 2d be 86 f0 af bd
       0.1751438 -0.029957503 -0.16987716 -0.08590798
0000a0 84 81 c4 3a b7 72 f3 3c ff 78 d1 bd dc 47 d1 3d
       0.0014992212 0.029717786 -0.10228156 0.10218784
0000b0 94 8c 11 3e b1 7e 3d bd 15 5a dc 3c d4 ac ce 3d
       0.14213783 -0.0462634 0.026898423 0.10091558
0000c0 0d 55 b5 3d 4b 55 0e 3c 43 a3 29 3d cd 6c 20 3c
       0.08854113 0.008687328 0.041415464 0.009791565
0000d0 de 7d 83 3d 40 21 00 3e 0a a5 32 3d e7 ed 9c 3d
       0.06420492 0.12512684 0.043614425 0.07662564
0000e0 ca 26 23 bd 22 b7 94 3d d5 17 2b bd c9 28 59 3d
       -0.039831914 0.07261492 -0.041770775 0.05301741
0000f0 9c 26 af bc a2 15 b2 bb 70 ca 72 bc c9 45 12 bd
       -0.021380715 -0.0054347077 -0.014818773 -0.035711084
000100 a2 b1 a7 3d 49 08 1a be 90 64 28 3e 09 31 8a 3b
       0.08188178 -0.15042223 0.16444612 0.004217271
000110 2b e6 00 be 79 68 21 3e 62 f0 23 bd 3c bd 4c 3b
       -0.12587802 0.1576251 -0.04002417 0.0031240722
000120 b2 1b 8f 3d 6c 35 10 3d 0f 55 ab 3d 78 16 d2 bd
       0.06987704 0.035207197 0.08365833 -0.10258192
000130 68 4a a0 3d 81 96 51 3d 36 8c 47 3d 06 72 43 bd
       0.07826692 0.051168922 0.0487177 -0.047716163
000140 81 c1 c8 ba 33 7b c0 3c 76 a5 7a bc 6a 2a 59 bd
       -0.0015316458 0.023496246 -0.015298238 -0.053018965
000150 df 92 83 3d b2 e3 09 3e b0 dd ae bd fb 28 78 3d
       0.06424498 0.13465765 -0.08538377 0.060585957
000160 3b 3e 02 be fa 88 09 be db 5b c5 bc f2 47 0e be
       -0.12719052 -0.13431159 -0.024091652 -0.13894632
000170 23 e7 55 3d 12 9f d9 3c f6 1d 47 bd 29 f9 aa 3d
       0.052222382 0.026565108 -0.048612557 0.08348305
000180 f2 4f 85 3c 7e 70 b7 3c 16 f8 18 3e 94 35 95 3c
       0.016273472 0.022392508 0.14938387 0.018214025
000190 3f 72 42 3d 72 ed 08 be 8e b1 8f 3d 97 90 44 bd
       0.047472235 -0.13371828 0.07016288 -0.047989454
0001a0 09 0a 70 bd 3e 48 6a 3c e0 27 02 be 4d 2b 99 3d
       -0.05860332 0.01429945 -0.12710524 0.07478962
0001b0 46 a3 a8 3d 73 89 73 bc d0 0e 10 bc 0c 4c f7 bd
       0.08234267 -0.014864313 -0.008792594 -0.12075052
0001c0 38 8b 0b 3e 4a 01 92 bd 9f 7c ba bd 4f 75 23 be
       0.13627326 -0.07129152 -0.09105801 -0.15962718
0001d0 a2 83 f2 3d 7f d3 1f bc ed 4e 36 3d 1f 41 05 be
       0.11841513 -0.009755014 0.044508863 -0.13013123
0001e0 d3 e6 f1 3d 1b 9e bf bc df 2b 47 be 73 da 5d 3c
       0.11811604 -0.02339082 -0.19450329 0.013540852
0001f0 11 c8 80 3c 01 63 5a bc b6 40 a5 bd a7 c2 01 bd
       0.0157204 -0.013329268 -0.08068983 -0.031679776
000200 bd 48 a0 bd 87 63 30 3d 79 e9 3e bd 7f f5 5b bd
       -0.07826374 0.043063667 -0.046609376 -0.05370092
000210 b2 c3 90 3d f3 b3 62 3d b8 66 75 bd f4 8d 13 3e
       0.07068576 0.055347394 -0.059912413 0.1440962
000220 e4 01 53 3d 14 c1 71 3b e1 6b 3f 3e fa 39 18 3c
       0.051515475 0.0036888765 0.18693496 0.009291166
000230 f7 90 8f bd d5 36 80 bd 26 c1 da 3d e0 35 3a 3d
       -0.07010072 -0.062604584 0.106813714 0.045461535
000240 a7 ee 31 3e b3 47 cf bc 76 35 67 3c ce db 43 bd
       0.17376195 -0.025302744 0.014111867 -0.047817044
000250 9b f7 9b bd ae 07 9b bd ce 38 2e be f6 13 7f 3d
       -0.07615586 -0.07569824 -0.17013857 0.062274896
000260 2a 62 66 bb 47 9a 77 bc 03 e8 c2 3d cc 21 08 3e
       -0.0035153725 -0.015112466 0.09516909 0.13294142
000270 95 66 90 3a 17 fa b0 bd 6e 54 d8 bb 27 94 bf bd
       0.00110169 -0.08641451 -0.0066018617 -0.0935443
000280 fd 3f 8c 3d 3f e2 f3 3b fd 8e 48 bd ec ea e4 3d
       0.06848142 0.007442742 -0.04896449 0.1117762
000290 41 29 13 3e f2 f4 e2 3c 37 69 73 3d 43 fd 74 bd
       0.14371206 0.02770469 0.059426513 -0.05981184
0002a0 b1 3b e6 bd 66 72 0f 3c 7f 22 54 3d e0 39 cf bc
       -0.11241854 0.008755302 0.05179071 -0.025296152
0002b0 3b c4 1a bd e4 01 f7 bb 8b 2c 2e 3d e6 81 b0 3d
       -0.037784796 -0.007538067 0.04252295 0.08618526
0002c0 ba 80 86 bd cc b1 7e 3c 7f 81 6a 3e ba 3b 69 bd
       -0.065675214 0.01554532 0.22900961 -0.056941725
0002d0 fe fe 66 3e 9a 36 ba 3d 8b 49 b8 bc 1d 6b 02 3e
       0.2255821 0.09092446 -0.022496006 0.12736173
0002e0 05 77 94 3d 44 56 7c 3d 23 58 eb 3d b3 0f f3 3d
       0.07249264 0.061605707 0.1149142 0.11868229
0002f0 56 4f e3 bd 00 7f 80 3d 64 59 19 bd 9b fc ec 3d
       -0.110991165 0.06274223 -0.037438765 0.11571618
000300 9e 89 02 3d 49 55 87 bc 76 48 cc 3d 3a 33 90 3d
       0.031869523 -0.01652016 0.09974758 0.07041021
000310 41 11 32 3d 3e dc bb bd 38 b6 97 3e 2b ff f8 3d
       0.043473486 -0.09172867 0.2963121 0.121580444
000320 a5 f8 ef 3d 49 98 92 3a fd 7a 34 3d d5 11 b7 3d
       0.11717347 0.00111843 0.044062603 0.08938948
000330 b5 68 e2 bc 8f 9e cc 3d 9b 90 d9 bd 0e 85 44 3e
       -0.027637819 0.0999118 -0.106232844 0.19191381
000340 4b 3c a8 3d 75 12 a8 3d 66 87 37 bc b7 e6 bb bd
       0.08214625 0.082066454 -0.011201715 -0.09174865
000350 28 f8 bc 3d ed ca 9c 3d 5e 1b c6 3d ec c3 d7 3d
       0.092270195 0.076558925 0.096731886 0.10535416
000360 f5 55 f8 3c 30 16 c0 3d bb e8 04 3d 93 a6 e7 bd
       0.030314425 0.09379232 0.03244851 -0.113110684
000370 f7 47 1f 3e ac 19 ad bd 90 7f e7 3d 5b c4 c8 bd
       0.15554796 -0.08452162 0.113036275 -0.09803077
000380 a8 74 f2 3b d3 37 27 bd f8 b0 cd bc 2e 1a 35 3d
       0.0073991604 -0.040824722 -0.0251088 0.04421442
000390 c2 19 42 be 3f 4c e2 bd 10 b6 c2 bd bc 4a 52 bd
       -0.18955138 -0.11049699 -0.09507382 -0.051340804
0003a0 08 2b 42 3d 9a 54 27 be b7 09 0e bd d0 f2 89 3c
       0.04740432 -0.16340867 -0.034677234 0.016839415
0003b0 af e1 bc 3c 63 76 8d 3d a9 dc eb bd 7f 7e 3c bd
       0.023056833 0.06907346 -0.11516697 -0.046019074
0003c0 05 96 55 bd c2 f2 5b 3d d9 f1 b8 3c 8e 1d 85 bc
       -0.052145023 0.05369831 0.02257626 -0.016249444
0003d0 a3 dc 92 bc b5 0c d6 bb c1 0e ef bc d0 2a 46 bb
       -0.017927473 -0.0065322765 -0.02918184 -0.003023792
0003e0 05 57 3b bd b2 a9 7a 3d 48 c6 d8 bd 37 72 ce bd
       -0.045737285 0.06119699 -0.10584694 -0.100803785
0003f0 04 34 0e be a6 12 6e bd 7b 68 a0 3c 89 d1 57 3d
       -0.1388703 -0.058123253 0.01958107 0.052690063

actor.0.bias f4 [32]
000000 eb 88 11 39 e8 96 cc 39 33 72 24 3b 72 fd cc 39
       0.00013879284 0.00039022346 0.0025092482 0.00039098744
000010 59 d5 84 ba 67 a7 05 bb dc e4 a9 b9 89 fe 9c 3a
       -0.0010134383 -0.002039397 -0.00032404705 0.0011977713
000020 3e 85 85 3a d4 d0 5c ba 16 49 43 39 d4 05 80 b9
       0.0010186804 -0.0008423452 0.00018623876 -0.00024418405
000030 fe 8e 83 39 c6 f0 ca 39 2a 64 b8 ba b4 5f 07 bb
       0.00025092805 0.00038707833 -0.0014067937 -0.0020656409
000040 69 38 05 bb f3 a7 21 ba c8 de a5 b9 28 7a a4 3a
       -0.0020327813 -0.0006166689 -0.00031637237 0.0012548612
000050 ca 6b d3 39 18 7f fd b9 1a df e1 b8 df 64 60 b9
       0.00040325365 -0.00048350613 -0.00010770392 -0.00021399882
000060 35 9a db ba 45 0d 94 3a 52 b6 85 ba af 48 22 ba
       -0.0016754331 0.0011295459 -0.001020143 -0.000619064
000070 f9 f1 c7 39 0c ae 5a 3a b2 2c de 39 de 65 f5 ba
       0.00038136521 0.0008341975 0.0004237644 -0.0018722375

actor.2.weight f4 [32, 78, 3, 3]
000000 48 b7 84 3d fc bb c0 3d 49 74 f9 3b c1 82 83 bc
       0.064802706 0.09410855 0.007612739 -0.01605356
000010 39 11 86 bc 4c bc b8 bb a6 f7 dc bc 64 7e 82 bd
       -0.016365634 -0.005637681 -0.026973557 -0.06371763
000020 11 54 11 3d db 53 cb 3d d8 5a ed bd 28 96 ef bc
       0.035480563 0.099281035 -0.11589593 -0.029246405
000030 20 37 99 bd be 0e a0 bc 65 cc 66 bd 6d c4 01 be
       -0.074812174 -0.01953828 -0.05634727 -0.12672587
000040 7c 72 bf bc c9 fa 9e bd bc 7f 8e bc 56 33 d9 bc
       -0.02337002 -0.07762677 -0.017394893 -0.026513737
000050 30 ba 9f 3b 4e 3e 9f bb 86 9c ed 3d 97 64 8c 3c
       0.00487449 -0.004859722 0.1160212 0.017137809
000060 00 37 80 bc 13 96 ba 3b 44 22 80 bd c8 e3 36 3d
       -0.015651226 0.00569416 -0.06256536 0.044650823
000070 43 24 32 3d e6 84 3b 3d 93 ce a1 3d 5f 36 10 3d
       0.043491613 0.04578104 0.07900729 0.035208102
000080 c7 d9 0b bd ce d5 ca bb 86 bd 30 bc 09 3b b4 3d
       -0.034143236 -0.0061900383 -0.010787373 0.088003226
000090 3e 57 4f bd bc f7 87 bc 96 24 92 3d 55 c3 fb 3b
       -0.05062031 -0.016597621 0.071358845 0.0076831975
0000a0 0d 7f ba bd 77 90 d8 3d ca ef 0f 3c d0 37 04 3c
       -0.09106264 0.105744295 0.0087851975 0.008069947
0000b0 4b 97 9e 3d 23 48 07 bd cf 76 e8 3c 28 e0 80 bc
       0.077437006 -0.03302778 0.028376965 -0.015731886
0000c0 0e 17 5b 3b 95 88 2c 3c ce fa 25 3c 8c b7 1f 3d
       0.003343049 0.010530611 0.010130597 0.038993403
0000d0 16 04 4a 3d aa d6 8f 3c ff af fe 3c 6c b3 8c bd
       0.049320303 0.017558414 0.03108978 -0.068701595
0000e0 24 3c cd 3c 5b b9 5b bc f8 2f c7 bd 7a eb 00 3e
       0.025053091 -0.013410891 -0.09725946 0.12589827
0000f0 d9 06 30 3d 47 7b 39 3c 3f 30 a3 bc a5 48 f4 3d
       0.04297528 0.0113208955 -0.019920466 0.11927918
000100 ca 5d 58 bd 30 1d 7a 3c 8a e8 fc bd 30 c0 ca 3c
       -0.05282382 0.015265748 -0.12349041 0.024749845
000110 f7 00 64 bd 09 14 85 3c 4b 0c f7 3c f5 91 18 bd
       -0.055664983 0.016244905 0.030157229 -0.03724857
000120 8e 85 a2 3c be a6 cc bd 19 ce 5d bd 0b c2 87 3d
       0.019839074 -0.09992741 -0.05415163 0.06628808
000130 ae 50 1a 3e 14 c9 4f 3c 83 5f b3 39 f2 e9 31 3c
       0.1506984 0.012682218 0.00034212702 0.010859
000140 d4 5f a1 bc aa b0 a0 3d 6e 4b 2a bc 23 3c aa bb
       -0.019699015 0.07846196 -0.01039396 -0.005195157
000150 c2 84 a1 3c 9a ba 17 bd 78 a8 8c bd a4 05 30 3d
       0.019716624 -0.03704319 -0.0686807 0.04297413
000160 04 00 7d 3d 9f ac 89 3d 61 e9 a0 bd 0a bc 42 bd
       0.061767593 0.06722378 -0.078570135 -0.04754261
000170 6c 98 bc bc d6 31 06 bd ff 40 a3 3d c0 5f 00 3c
       -0.0230219 -0.03276237 0.079713814 0.007835329
000180 12 41 de 3c b7 76 21 3d b4 86 db 3c 94 fc b2 3c
       0.027130637 0.039419856 0.02679763 0.021848954
000190 60 17 2b 3d a6 a4 a2 3d 4b 86 7e 3d a7 25 11 bd
       0.04177034 0.079415604 0.06213979 -0.0354363
0001a0 ff cb 7f bd 3a 4f 59 bd 62 79 ed 3c 9c 52 89 3d
       -0.062450405 -0.053054072 0.028988544 0.067052096
0001b0 58 70 7c 3c cd a3 f6 3c 2c d9 37 3d b7 ba 88 3d
       0.015407644 0.030107403 0.044884846 0.06676238
0001c0 3a b2 12 3d 8b 63 41 3d 21 88 df bd 81 aa 6f bd
       0.0358145 0.047214072 -0.109146364 -0.058512215
0001d0 5a 0f ca 3c c1 10 d4 3d fb e4 b6 bc a0 b2 6e 3d
       0.024665523 0.10354758 -0.022325983 0.05827582
0001e0 7e db 93 3d 78 c3 b6 3d 72 62 93 3d a0 00 9a bc
       0.07219599 0.089240015 0.07196511 -0.018799126
0001f0 23 29 98 bd f8 5d 2b bd 44 a8 fe bd 42 8a f4 bc
       -0.07429721 -0.041837662 -0.12434438 -0.029851083
000200 de b3 b4 bc b9 5f 02 3d e2 28 20 bd 73 4f c2 3c
       -0.022058424 0.03182957 -0.03910149 0.023719525
000210 3a 28 f3 bc 7f a4 72 3c b2 d7 61 3d 59 8c dd bd
       -0.029682267 0.014809727 0.055137344 -0.10817785
000220 80 2f 06 bd 0a e0 e4 bc c2 9b 04 bd a7 b5 91 bc
       -0.032760143 -0.027938861 -0.032375105 -0.017786814
000230 5e 3b 96 bc 3d f0 73 3c a3 40 b1 3c 13 cf 1c bd
       -0.018338855 0.01488882 0.021637267 -0.03828342
000240 17 28 5f 3d 7b 63 61 38 db 44 e3 3c 30 15 d8 3d
       0.054481592 5.373683e-05 0.027742794 0.10550916
000250 81 39 92 bd 09 50 04 bc cf 1c 9d 3d 06 a8 cf 3c
       -0.07139874 -0.0080757225 0.076715104 0.025348675
000260 a7 36 72 3c 25 3d 98 bd b6 63 c4 3d 5c d5 22 3d
       0.014783538 -0.074335374 0.09589331 0.039754257
000270 03 5a a9 3d 9c c0 06 bd c4 46 d8 bd 16 e9 91 bc
       0.082691215 -0.03289853 -0.105603725 -0.01781134
000280 ab 9e cd 3d b0 40 27 3e ee 87 41 3d f4 a3 80 bc
       0.10040029 0.1633327 0.047248773 -0.015703179
000290 a6 8b d3 3d 7c 81 bb bc 7f 26 44 3d 3f ac c0 bd
       0.1032937 -0.022888891 0.047888275 -0.09407853
0002a0 f3 7c 8d bd 6d 1c 86 3d 8f b2 fd 3d 98 8f 9e bc
       -0.06908598 0.065483905 0.12387573 -0.01935558
0002b0 46 8e b4 bd 68 7a 24 bb b3 53 8e 3d 1d 8d 35 3d
       -0.08816199 -0.0025097374 0.06949558 0.04432403
0002c0 cc 0d 3f bd fc e1 73 3d 76 19 24 bc 87 a3 8b bd
       -0.046644017 0.059541687 -0.010015836 -0.068183
0002d0 ba 18 a2 3c 85 1e 01 3d c9 59 fd bc e9 9b f2 3c
       0.019787181 0.031523246 -0.030926602 0.02961536
0002e0 59 e1 a0 bc 38 48 05 bd 23 8e c3 bc 09 b9 c9 3d
       -0.019638704 -0.032539576 -0.023871487 0.09849746
0002f0 c8 bd 85 3d 1b 88 90 3d 69 f6 b2 bd 49 b9 f7 3c
       0.065303385 0.0705721 -0.08738405 0.030239718
000300 1a 39 0d bd 25 99 d0 3c 3c 18 a3 3d 36 ec 12 3b
       -0.034478284 0.02546365 0.07963607 0.0022418625
000310 10 b2 97 3d 44 ca 0c 3d d6 41 dd bc 28 1e 5c 3c
       0.074070096 0.034372583 -0.027008932 0.013434924
000320 4b 23 43 bb c0 3b cb 3c 6b 12 ee 3b 67 a6 45 bd
       -0.0029775675 0.024808764 0.007265379 -0.048254397
000330 43 2c 1f 3d 82 a4 23 3d b3 dc a6 bd fe 5e 65 3d
       0.03886057 0.03995181 -0.08147564 0.055998795
000340 c0 fc 90 bd 68 2a 17 bd 8e b4 b9 bd a5 ba eb 3b
       -0.07079458 -0.036905676 -0.09067641 0.0071938806
000350 89 ef 30 3d f5 99 f8 3b 2d 91 33 bc 74 a9 2f bc
       0.04319719 0.0075867125 -0.010959906 -0.010721553
000360 d9 24 0b 3e 38 5f 9d bd 83 4d 8d bc 07 68 92 3d
       0.13588275 -0.07684177 -0.017248875 0.07148748
000370 1a d2 42 bd bb b8 05 3c 29 52 7d bd f1 a3 2e 3d
       -0.04756365 0.008161719 -0.061845932 0.042636815
000380 6d da 36 bd 98 53 ca bc 69 34 4b bb d8 dd c5 3c
       -0.0446419 -0.024698064 -0.003100658 0.024153635
000390 5f 88 19 3d 9e 3e 06 3d 10 e2 36 3d 67 a1 09 be
       0.03748357 0.03277456 0.044649184 -0.13440476
0003a0 b0 13 71 3c 21 2e 07 bd d1 c2 b2 bc 0a 94 5c 3c
       0.0147141665 -0.033002976 -0.021821411 0.01346303
0003b0 c2 8f c7 bc c0 d8 07 bd e4 b7 71 ba cb 16 01 3d
       -0.024360541 -0.033165693 -0.0009220822 0.031515878
0003c0 ae f1 04 3c de 77 2f 3d 0e b9 30 bd 89 24 69 bd
       0.008114262 0.042838924 -0.043145232 -0.05691961
0003d0 0d bf f4 3b 6e 43 00 3d f4 4d 05 bd ab d1 6f 3d
       0.007469064 0.031314306 -0.032545045 0.058549564
0003e0 ac 7d 38 3c 1f fb b8 3c 2f ad db bd 81 81 80 3d
       0.011260431 0.022580681 -0.107263915 0.06274701
0003f0 44 55 dc bc 97 de 3c 3d d4 b7 8f 3b 9c 1c 4e 3c
       -0.026896127 0.046110716 0.0043859277 0.012580063

actor.2.bias f4 [78]
000000 3c a1 3b 38 c8 51 ac 38 10 d6 eb b8 24 74 0f 3b
       4.4734436e-05 8.216832e-05 -0.000112455455 0.0021889294
000010 46 d0 15 bb 49 72 1d 3a 8f 43 0d bb 40 09 9c 3a
       -0.0022859736 0.00060061045 -0.002155516 0.0011904612
000020 bb 07 0a 3a e4 50 20 3b 00 00 00 00 00 00 00 00
       0.0005265434 0.0024462277 0.0 0.0
000030 00 00 00 00 00 00 00 00 00 00 00 00 00 00 00 00
       0.0 0.0 0.0 0.0
000040 00 00 00 00 00 00 00 00 e0 d1 7b b6 25 38 62 ba
       0.0 0.0 -3.7524078e-06 -0.0008629582
000050 55 7f 8a 3a dc bb 43 ba 00 00 00 00 00 00 00 00
       0.0010566512 -0.0007466653 0.0 0.0
000060 00 00 00 00 00 00 00 00 00 00 00 00 00 00 00 00
       0.0 0.0 0.0 0.0
000070 00 00 00 00 00 00 00 00 00 00 00 00 00 00 00 00
       0.0 0.0 0.0 0.0
000080 00 00 00 00 00 00 00 00 00 00 00 00 00 00 00 00
       0.0 0.0 0.0 0.0
000090 00 00 00 00 00 00 00 00 00 00 00 00 00 00 00 00
       0.0 0.0 0.0 0.0
0000a0 00 00 00 00 00 00 00 00 00 00 00 00 00 00 00 00
       0.0 0.0 0.0 0.0
0000b0 00 00 00 00 00 00 00 00 1a a8 f0 ba 00 00 00 00
       0.0 0.0 -0.0018360645 0.0
0000c0 00 00 00 00 00 00 00 00 00 00 00 00 00 00 00 00
       0.0 0.0 0.0 0.0
0000d0 96 12 e0 3a 00 00 00 00 06 6f fe 3a 00 00 00 00
       0.0017095383 0.0 0.001941175 0.0
0000e0 00 00 00 00 00 00 00 00 00 00 00 00 00 00 00 00
       0.0 0.0 0.0 0.0
0000f0 6a 6a 0f bb 00 00 00 00 00 00 00 00 00 00 00 00
       -0.0021883496 0.0 0.0 0.0
000100 00 00 00 00 00 00 00 00 00 00 00 00 00 00 00 00
       0.0 0.0 0.0 0.0
000110 00 00 00 00 00 00 00 00 00 00 00 00 00 00 00 00
       0.0 0.0 0.0 0.0
000120 00 00 00 00 00 00 00 00 00 00 00 00 00 00 00 00
       0.0 0.0 0.0 0.0
000130 00 00 00 00 00 00 00 00
       0.0 0.0

critic.1.weight f4 [128, 1024]
000000 bc 69 07 bd 46 3e c2 bc c9 50 91 3c 02 68 e5 3d
       -0.03305982 -0.023711335 0.017738717 0.112014785
000010 0d 81 70 bb d1 11 b8 3c 33 19 7b bd 76 6e 12 bd
       -0.0036698014 0.022469433 -0.06130333 -0.035749875
000020 84 c7 a2 3d b2 95 35 bb d9 d1 06 3d c9 88 4d 3d
       0.07948211 -0.0027707634 0.03291497 0.050179277
000030 18 ed b2 3a d3 03 3d bc 6b 56 c2 bd fa 3f 83 3d
       0.0013650982 -0.011536556 -0.09489139 0.06408687
000040 c5 fd 84 3c 99 44 c7 bd 86 54 21 3c 29 4b fe 3c
       0.016234288 -0.09729881 0.009846812 0.031041699
000050 db 26 1d bc aa 44 bf 3c cf 76 8b 3c 72 ca 86 bb
       -0.009591783 0.023348171 0.017024426 -0.004113489
000060 54 82 41 3d e5 41 cb 3c e4 8c 31 bd 70 32 34 bd
       0.04724343 0.024811694 -0.043347254 -0.043993413
000070 fd 5b 43 bc 8b f6 0c bd fe de 1f ba 11 9f 10 3d
       -0.011923787 -0.03441481 -0.0006098597 0.035307948
000080 ff 9c 15 3d bc 8c cf 3c 65 8c 07 3d 3d 8e 9b bd
       0.036526676 0.025335662 0.033092875 -0.07595489
000090 c1 a8 21 bd 71 2b 6e bc 3d d4 1d 3d 87 52 80 3d
       -0.039467577 -0.014536724 0.038532484 0.06265741
0000a0 34 38 18 3c d2 cf 69 bc fa bc 90 3b 68 55 cc 3d
       0.009290744 -0.01427074 0.004417059 0.099772274
0000b0 d0 da 28 3d 07 16 a5 bd ed 57 20 3d ca 68 1d 3d
       0.0412243 -0.08060842 0.039146353 0.038430013
0000c0 ae 6d 93 3c 50 41 03 bc 35 2a 91 3d 77 6d d4 3c
       0.017996635 -0.008011177 0.070881285 0.025931103
0000d0 73 d0 8b bc ba e3 12 3d fc b9 8c 3c 16 4d 1e bc
       -0.01706717 0.03586171 0.017178528 -0.009661933
0000e0 49 85 55 bb d5 35 27 3d d4 ea cd 3c 93 7a c4 bc
       -0.0032580665 0.040822823 0.025136389 -0.02398423
0000f0 1f c1 85 3c ab 1f a4 3c 8f 39 1d bd 9e 3e ce 3c
       0.016327439 0.020034632 -0.03838497 0.025176343
000100 67 e9 0d bc d4 da 6a 3d a5 cb 42 bc 55 af 84 bc
       -0.0086616045 0.057337597 -0.011889373 -0.016196886
000110 7c 06 3b bd af 7e 0a 3d 20 b7 9f 3c b5 6f c6 3d
       -0.04566048 0.03381222 0.0194965 0.09689275
000120 e6 48 06 bd e0 e9 b4 3b 91 fa e8 3d 3e 62 17 3b
       -0.032784365 0.005521044 0.11375917 0.0023099328
000130 06 dc 93 bc 3f 09 8d bb 8d 84 1b bd a5 2b ff 3b
       -0.018049251 -0.0043040807 -0.037968207 0.0077871853
000140 60 46 b8 bc 1f 5d 69 bd 24 da 18 bd 98 b6 d3 3c
       -0.022494495 -0.056973573 -0.03731741 0.025843903
000150 de 3a bb 3c ac ff 95 bd 80 f9 4b 3d aa c5 09 3c
       0.022855218 -0.07324156 0.04979849 0.008408943
000160 de 45 ac 3c 1f ac 0a 3d 2e bf 23 3d db 16 26 3d
       0.021029409 0.033855554 0.039977245 0.04054914
000170 f3 12 40 3b 48 74 7f 3b f1 4b e6 bc 23 87 a4 3d
       0.002930817 0.003897922 -0.028112384 0.08033588
000180 13 2c 68 3b 49 a1 b9 bb 0c da b5 bd a3 ab c4 3d
       0.003542666 -0.0056649786 -0.0887948 0.096030496
000190 fc c1 2a 3d 78 f2 f8 bc b6 09 87 bc b0 ba 31 bd
       0.041688904 -0.030389056 -0.016484123 -0.04339093
0001a0 0a 1d 56 bc 70 27 70 3d 10 39 99 bd 18 48 23 3d
       -0.013068447 0.05863136 -0.07481587 0.039863676
0001b0 32 3e 66 bb 74 10 97 bd 25 9e 4c bd 5c 4b 00 3d
       -0.0035132286 -0.07376185 -0.049955506 0.03132187
0001c0 22 7c 8a 3d 50 7b 9f bc 48 8a c7 bb 58 54 64 bd
       0.06761958 -0.01946798 -0.0060894825 -0.0557445
0001d0 fa 1f 9b 3c d3 44 76 3b b0 9a 4f 3d 0c 8f 37 3d
       0.018936146 0.0037577644 0.05068463 0.044814155
0001e0 4b 64 54 bd da 2c 83 3b a7 4f 8e bc e1 c9 ba 3b
       -0.05185346 0.0040031495 -0.017371966 0.0057003354
0001f0 4d 2f 68 3c 4d 23 b8 bb d0 de 30 bd fe fa cd 3c
       0.014171434 -0.0056194426 -0.04318124 0.025144096
000200 05 9d 9d bd 1f 41 49 bd d2 e7 c2 3c 6d 3b 1f 3c
       -0.07695965 -0.04913437 0.023792181 0.009718758
000210 b2 54 aa bc 87 34 61 bc ef 11 c3 3c 1d d8 fa 3a
       -0.020792339 -0.013745434 0.023812262 0.0019137893
000220 20 47 0d bd 72 bb 0d bb 40 65 22 3c 8f aa ec bb
       -0.03449166 -0.0021626619 0.009911835 -0.0072224806
000230 c2 00 13 3d 75 c6 07 3d b9 33 91 3c 5e 31 8b bc
       0.035889395 0.033148248 0.017724859 -0.016991314
000240 5a 36 ae 3c 0f 27 06 3d 22 57 5b bc f2 d7 2c 3a
       0.021266151 0.032752093 -0.013387473 0.00065934577
000250 73 11 a4 3c d5 f8 c0 bc d5 33 09 3d 61 39 54 bd
       0.020027852 -0.023556152 0.033496697 -0.051812533
000260 97 d2 9a bb d8 7f 1e 3d 0c 52 1d 3d 6a 26 9a bc
       -0.0047248113 0.03869614 0.038408324 -0.018817145
000270 a7 34 33 3c 7a 5f 6a bb 04 d5 94 bd b7 61 71 3d
       0.010937846 -0.0035762475 -0.07267192 0.05893108
000280 58 31 10 bd 78 66 32 3d 7e e2 8e bd db 8e 0c 3d
       -0.035203308 0.043554753 -0.06976794 0.034315925
000290 b2 89 1f 3d e4 4a f7 bc 4f f2 a5 3d 78 49 88 3d
       0.038949676 -0.030187078 0.08102857 0.06654638
0002a0 68 ec 58 3d 63 9f bc bd 7a e1 16 3d 38 23 b7 3b
       0.05295983 -0.09210088 0.036836125 0.005588915
0002b0 0e fc 9e bc 99 e8 20 bd 78 cb 8c bd 68 46 a3 3d
       -0.019407298 -0.039284322 -0.06874746 0.07972413
0002c0 7d ad 99 3c e6 9e 8a 3c c9 fd 9d bc 73 87 1a 3d
       0.018759483 0.016921472 -0.019286053 0.03772683
0002d0 aa 9a 21 3d 39 26 e0 bc b7 c0 53 bd 59 db bf bb
       0.03945414 -0.027361976 -0.05169746 -0.0058550057
0002e0 d7 c8 df 3c 8d 82 86 3b c3 1b 02 3d 2b 91 d3 3b
       0.027317448 0.0041049183 0.031764757 0.0064565144
0002f0 08 30 04 3c 50 66 aa 3c 6d 12 6a 3c 3c 82 aa bc
       0.008068092 0.02080074 0.01428662 -0.020814054
000300 2a 82 56 3b df 77 f0 3c e1 26 9f 3d a4 65 b5 3a
       0.0032731392 0.029354034 0.077710874 0.0013839495
000310 9e 9d 9e 3d e8 0f 55 3b d3 ab 1c 3d 1e c1 3f bd
       0.07744907 0.0032510702 0.0382498 -0.04681503
000320 6b 5e 82 bd da 5f 61 3d 0d a8 59 bb d5 55 55 3c
       -0.06365665 0.05502305 -0.0033211738 0.013020952
000330 70 00 d5 bc 8d 2f 3b 3d 13 bc 56 bc c6 7d 4c bd
       -0.026001185 0.045699645 -0.013106364 -0.049924634
000340 87 9a bc 3d 42 7b 65 3d 41 7c fc 3b 83 36 ad 3d
       0.09209161 0.05602575 0.007705242 0.08457663
000350 44 88 de bc c6 52 44 3c 9f 2b 13 bb c5 6b 63 3c
       -0.027164586 0.011982625 -0.002245642 0.013880675
000360 6f 22 14 3d 45 d9 5f 3c 35 24 07 3d 62 b9 c4 bc
       0.03616565 0.013662641 0.032993514 -0.024014179
000370 6d 78 ba bc 70 9e fe bb 23 21 60 3c e0 a5 f0 bc
       -0.022762502 -0.007770352 0.013679775 -0.02937597
000380 d0 84 77 bd fe 40 52 bb 7f 61 05 bc a2 6d ac bd
       -0.060429394 -0.0032082195 -0.008140921 -0.08419348
000390 e6 08 85 bb 71 c1 83 bc 24 e6 28 3d a4 75 79 bd
       -0.0040598987 -0.016083451 0.041235104 -0.060903206
0003a0 e0 6a 1c bd 28 c9 4f 3d 99 b9 81 3d 7e f3 90 3c
       -0.03818786 0.050728947 0.06334228 0.017694231
0003b0 73 00 48 3d 4c 2e 50 bc cf 7b a6 ba 33 70 94 3c
       0.048828553 -0.012706351 -0.0012701693 0.018119907
0003c0 a5 00 d1 3c 99 6b 0f 3e 04 e7 99 3b 45 b5 21 bd
       0.025513003 0.14005889 0.0046967287 -0.039479513
0003d0 30 7f f4 3c 53 53 30 bd 97 5b 8f 3d 36 3c 94 3d
       0.029845804 -0.043048214 0.06999891 0.07238047
0003e0 60 ef 5b 3d ef d8 30 bd 0d 92 c3 3c 4c 00 6b 3d
       0.053695083 -0.043175634 0.023873353 0.05737333
0003f0 d5 36 2e bd db 0b d8 bc 79 1f 3b bd 35 4e 8b bb
       -0.04253276 -0.02637284 -0.04568431 -0.0042512664

critic.1.bias f4 [128]
000000 45 a5 53 ba 77 ea 91 37 0c 4b 01 b7 10 dc 37 36
       -0.00080736383 1.7394528e-05 -7.706472e-06 2.7397218e-06
000010 d0 68 eb b7 00 00 00 00 05 26 8a ba a7 af 27 b9
       -2.806299e-05 0.0 -0.0010539895 -0.00015991797
000020 9c e0 07 b7 4c 6c 6c 37 00 00 00 00 00 00 00 00
       -8.098923e-06 1.4091911e-05 0.0 0.0
000030 76 91 c8 b7 00 00 00 00 90 2c a6 ba 04 23 67 ba
       -2.3909593e-05 0.0 -0.0012678076 -0.00088171684
000040 00 00 00 00 8d 9b f1 b9 d2 70 2a b8 81 a4 4b b8
       0.0 -0.00046082996 -4.063623e-05 -4.8552178e-05
000050 7a 81 d9 b7 04 33 d5 b7 00 00 00 00 e6 7d 8d b9
       -2.5928708e-05 -2.5415335e-05 0.0 -0.00026987417
000060 00 00 00 00 00 00 00 00 c2 e6 ac b9 e5 b0 af b7
       0.0 0.0 -0.00032978324 -2.0943999e-05
000070 02 ef e3 b9 00 00 00 00 2e ca 0a b9 86 49 d2 b7
       -0.0004347489 0.0 -0.00013236023 -2.5068188e-05
000080 00 00 00 00 7b a9 31 ba 4e ed c3 b7 8f 9e 86 b8
       0.0 -0.0006777269 -2.3356315e-05 -6.419152e-05
000090 26 dd fc b7 1c aa fa 38 37 74 a3 ba 30 30 45 b8
       -3.0143721e-05 0.00011952614 -0.0012470548 -4.701334e-05
0000a0 00 00 00 00 1e e7 52 37 e7 40 00 39 b1 9d 8f 37
       0.0 1.2570787e-05 0.00012231209 1.712036e-05
0000b0 7f b1 2f ba 00 00 00 00 6b 90 89 ba 00 00 00 00
       -0.0006702169 0.0 -0.001049531 0.0
0000c0 9a 7e c5 b7 61 f6 d0 b7 00 00 00 00 d3 45 50 ba
       -2.3543183e-05 -2.4910261e-05 0.0 -0.0007944975
0000d0 9a 74 be b7 9e 69 20 b8 00 00 00 00 c1 db e0 b9
       -2.2704062e-05 -3.8245336e-05 0.0 -0.0004288834
0000e0 71 49 8c b9 14 f6 96 ba 21 37 82 ba 00 00 00 00
       -0.000267576 -0.0011517429 -0.0009934643 0.0
0000f0 00 00 00 00 58 95 5f b8 5c 03 65 b8 00 00 00 00
       0.0 -5.330643e-05 -5.4600983e-05 0.0
000100 0e ee 40 37 f6 82 eb b8 00 00 00 00 44 29 c7 b7
       1.1499518e-05 -0.000112300666 0.0 -2.3741864e-05
000110 03 54 b8 b7 32 e5 fe b9 e2 59 e6 b7 1c 72 1e b8
       -2.197363e-05 -0.0004861742 -2.7459992e-05 -3.7776408e-05
000120 47 4a 98 b9 49 c8 8e 37 a0 a4 8f ba 04 b3 c6 b8
       -0.0002904704 1.7020984e-05 -0.0010959096 -9.47472e-05
000130 d2 50 72 ba e9 53 b2 b7 00 00 00 00 00 00 00 00
       -0.00092436105 -2.1258327e-05 0.0 0.0
000140 7c 1b 8c 37 f0 b6 2b 37 7a 07 ae 39 00 00 00 00
       1.6702099e-05 1.0234988e-05 0.00033193437 0.0
000150 72 62 97 b9 c6 d9 1d b8 e8 d9 c5 b7 26 31 16 b9
       -0.00028874312 -3.7634534e-05 -2.35857e-05 -0.00014323424
000160 1a c2 72 37 d2 e6 02 37 16 e9 65 ba 28 03 28 37
       1.4469517e-05 7.802346e-06 -0.0008770389 1.0014315e-05
000170 a7 fa b4 b7 ac 61 47 37 af 9d 0a ba 00 00 00 00
       -2.1574391e-05 1.1884065e-05 -0.0005287779 0.0
000180 00 00 00 00 e3 8c 80 b9 00 00 00 00 00 00 00 00
       0.0 -0.0002451903 0.0 0.0
000190 47 44 3e ba 71 34 2f 3a 37 b2 80 b9 00 00 00 00
       -0.0007258099 0.00066835346 -0.00024546843 0.0
0001a0 0e 1f d5 38 9e 59 2b b8 00 00 00 00 9d 90 43 b9
       0.00010162416 -4.085304e-05 0.0 -0.00018650522
0001b0 56 74 86 37 72 13 89 ba 00 00 00 00 0a 65 87 37
       1.6028218e-05 -0.0010458066 0.0 1.6140304e-05
0001c0 00 00 00 00 a2 75 33 b9 b1 c1 8e ba 86 63 85 37
       0.0 -0.00017114592 -0.0010891465 1.590118e-05
0001d0 09 92 c0 b7 90 a6 78 36 ba f9 e6 b8 00 00 00 00
       -2.2956187e-05 3.7051832e-06 -0.0001101377 0.0
0001e0 00 00 00 00 f8 7a 92 b9 17 91 8b ba 00 00 00 00
       0.0 -0.0002793891 -0.0010648099 0.0
0001f0 d4 2c 14 37 dd 55 95 b9 00 00 00 00 66 48 8a 37
       8.831925e-06 -0.00028483468 0.0 1.6484595e-05

critic.3.weight f4 [1, 128]
000000 de 34 0e 3d bf d5 46 be 44 c9 43 bc 72 69 a0 bc
       0.034718387 -0.19417475 -0.011949841 -0.01958153
000010 64 e4 03 3d 39 ba 33 be d0 d9 7e bb 24 dc 4d bd
       0.032200232 -0.17551507 -0.003888715 -0.05025877
000020 e5 1c 68 bc 8b fa 8a bd 90 48 be 3d 02 27 f8 3c
       -0.014167045 -0.067860685 0.09291184 0.030292038
000030 13 3a 7f 3d 28 a1 d6 bd cf 9b 96 bd fa b0 51 3d
       0.062311243 -0.10479957 -0.07353937 0.05119417
000040 cd 67 cc bd 1e 65 36 bd a6 e5 2e 3e 66 42 29 3c
       -0.09980736 -0.044530027 0.17079791 0.010330772
000050 84 18 36 3d 3e 73 36 3d e4 54 56 be e9 da ab bc
       0.044456974 0.044543497 -0.2093082 -0.020978408
000060 ed 36 45 3a 9a 42 72 be 80 7f ee 3c 5b 6c 22 bd
       0.0007523138 -0.23658219 0.029113531 -0.039654117
000070 15 44 7a 3d db 4d 05 3d 1f 37 53 3b 02 27 4c 3d
       0.061100084 0.032544952 0.00322289 0.04984189
000080 67 8c 25 3c 1d fe 71 bd aa ba 93 3d d5 9b ca 3d
       0.010104275 -0.059080232 0.07213338 0.09893004
000090 73 5f e0 3c 78 7c 2e 3b e7 79 e2 bd df 0a a6 bd
       0.027389264 0.0026624482 -0.11058407 -0.08107542
0000a0 f7 e1 b6 3c 8b e9 50 bd 35 97 f2 3a 05 06 30 be
       0.022324545 -0.051003974 0.0018508198 -0.17189796
0000b0 9e 3a 96 3d 63 8a e3 3c 00 fb 45 be 88 ed e4 bd
       0.07335399 0.027775949 -0.1933403 -0.11178118
0000c0 6c 85 99 3d f7 19 4a 3d a5 bd 01 3e e8 2b d3 3d
       0.07496151 0.04934117 0.1267 0.10311109
0000d0 3e e7 a2 3d a5 b4 1e 3c a4 79 4a 3d 3f 4b 80 3d
       0.07954262 0.009686624 0.04943241 0.06264352
0000e0 af 26 ec bd 44 a2 9f bd 22 28 6a bc 47 b8 22 bc
       -0.11530816 -0.077946216 -0.014291795 -0.00993163
0000f0 a5 96 bb 3d 46 e0 04 3c 41 85 90 3a 7d 06 23 bd
       0.091595925 0.008110112 0.0011026041 -0.03980111
000100 a3 72 4a bd da 55 c3 3c 64 fe 26 bc 4c a8 78 3d
       -0.049425732 0.023844648 -0.010192487 0.060707375
000110 70 5b d3 3d d0 a2 cb 3c e5 18 17 3d 24 69 88 3c
       0.10320175 0.024857908 0.036888976 0.016651697
000120 81 af 92 3a 4f 58 fa bd 01 bf 53 3d 6c 20 20 bb
       0.001119122 -0.12223875 0.051695827 -0.0024433387
000130 75 f8 4e 3e 14 7f 10 3e d7 50 83 3e 5b df f4 bc
       0.20211966 0.14110976 0.25647613 -0.02989166
000140 76 d9 0a be e3 7f 10 bd 8d 0b be 3c b7 66 7d bc
       -0.13559517 -0.035278212 0.023198867 -0.015466384
000150 a1 f5 06 3e f0 aa 81 3c 8f 10 8b 3d bb 70 13 bd
       0.13179637 0.01582858 0.06790268 -0.03599618
000160 21 f1 93 bd 82 12 e9 bc 0d de c5 bd ec f9 40 bd
       -0.07223726 -0.028451208 -0.096614935 -0.047113344
000170 4f f1 fb 3d 18 0f 40 bd f7 32 21 3e c2 52 e8 3c
       0.12301885 -0.046889395 0.15742098 0.028359775
000180 f3 6a 1b 3e 13 18 e0 3d be 1c 2b be 10 d3 ab bd
       0.15177517 0.10942092 -0.16710183 -0.08389866
000190 18 b6 8e 3c 85 6c 21 3e ce dd 3f bd 2e 33 2d 3d
       0.017420813 0.15764053 -0.04684239 0.042285137
0001a0 15 a6 64 3d 27 dc 54 3c e9 16 75 bd a9 75 a0 3d
       0.05582245 0.0129919415 -0.059836302 0.07834942
0001b0 b5 84 dc bd fd b1 dd 3d 17 11 02 bc 45 34 e5 bd
       -0.10767499 0.10824964 -0.007938645 -0.1119161
0001c0 3d 0c 3a bd b9 77 c1 3a a3 b4 3c be cb 26 cf bd
       -0.045421828 0.0014760412 -0.18428282 -0.10114821
0001d0 7f 74 a5 3d 70 04 ab bc 76 65 4d bc f4 40 94 3d
       0.080788605 -0.02087614 -0.012536397 0.07238951
0001e0 2b 22 de 3d 8c 44 93 bd 59 05 a9 3c 43 bd 8e bd
       0.10846361 -0.07190809 0.020632433 -0.069696926
0001f0 d4 0c 04 bd 99 de f6 3d 21 0f 22 bd 82 9c bb bd
       -0.032238796 0.12054176 -0.03956521 -0.09160711
