experiments/ppo_hrl/models/MicroRTSGridModeVecEnv__ppo_utils__1__1721366908/4096/harvest.pt (torch, 802530 bytes, 11 tensors)

encoder.1.weight f4 [32, 30, 3, 3]
000000 1a f8 c6 bc 71 95 93 3d 9c 60 90 3d b8 4c e2 3d
       -0.024288226 0.07206238 0.07049677 0.11049789
000010 c2 8f 70 bc f8 78 99 3d ee 0c 18 3d ca 1e 9b bd
       -0.014682712 0.07493776 0.037121706 -0.07574232
000020 f2 37 4d bd 18 08 29 bd c4 b7 8a 3d 7f 14 cd 3d
       -0.05010218 -0.041267484 0.06773332 0.10013675
000030 2f a9 7d 3d 01 f4 b2 3d 37 8d 32 bd 6a 0b 00 3e
       0.061928924 0.08737946 -0.043591704 0.12504354
000040 18 ea 87 bd 79 c1 df 3d 1c 92 c4 bd 6e c0 ea 3d
       -0.06636447 0.10925574 -0.09598181 0.11462484
000050 3c 3d 99 bd 44 79 ba 3d 9b 52 60 3e b3 ad 58 bc
       -0.07482383 0.09105161 0.21906511 -0.013225007
000060 be 72 c9 3d c0 dd d9 bd 7c 26 1d 3c 62 f6 3d bd
       0.098363385 -0.106379986 0.009591695 -0.046377547
000070 2a 02 64 bd 90 56 19 be 7c ce 68 bd 8d d2 96 3b
       -0.055666126 -0.14974427 -0.056837544 0.0046027363
000080 04 22 d3 3a 57 34 04 3e 78 e6 eb 3d d8 f0 51 bd
       0.001610816 0.12910591 0.11518568 -0.051255077
000090 fc fd 11 3e 1a 42 11 be 78 7e 04 3d 40 4d a4 bc
       0.14257044 -0.14185372 0.032347172 -0.020056367
0000a0 1e 0f 8f 3c 27 ae 31 3d e0 a7 33 bd fa 78 62 3e
       0.017463263 0.043378975 -0.04386127 0.22116461
0000b0 2e 10 0d be db 94 8e 3d ba d2 02 3e 90 7e d2 3d
       -0.13775703 0.06961986 0.12775698 0.10278046
0000c0 9b 3e 77 be e0 f5 21 3e 20 29 ad bd 2e 11 1f be
       -0.24144976 0.1581645 -0.084551096 -0.15533897
0000d0 b9 ba b8 3d a3 1e 5e bd b7 73 11 3e 56 9f 8f 3d
       0.090199895 -0.054228436 0.14204298 0.07012813
0000e0 3d 70 cb bc 69 79 00 be b2 08 3c be b7 f1 f6 bd
       -0.024833793 -0.12546314 -0.18362692 -0.12057822
0000f0 ee ea 95 bb 2c c6 d3 bc 95 b5 d5 bc 15 2d 09 bd
       -0.004575125 -0.025851332 -0.026087562 -0.03349026
000100 f9 ae 7c be b8 e4 08 3d 80 9f 6b 3d a4 98 d0 bd
       -0.24676122 0.03342125 0.057525158 -0.10185364
000110 99 ab 5a bd 11 30 2c be 38 e6 90 3d 4b 12 25 3d
       -0.053386305 -0.16815211 0.07075161 0.04030065
000120 c0 4b 23 3d 7b 77 56 3d a2 a7 56 3d d7 23 c8 bd
       0.039867163 0.05236004 0.05240596 -0.09772461
000130 99 52 36 bd a1 b5 82 bd 4f da ca 3d 13 d1 ba 3d
       -0.044512365 -0.06382299 0.0990492 0.09121909
000140 71 5c aa bd d6 34 98 bd 27 d9 81 bd 68 3d 4f be
       -0.08318413 -0.07431953 -0.06340247 -0.20238268
000150 c5 a8 cc bd fd 33 d5 3d b8 46 20 bd cb 76 ef 3c
       -0.09993128 0.104103066 -0.039129943 0.02923145
000160 28 87 8c bb af 45 f2 3c 21 3c 27 3d ff 3d 7a bc
       -0.004288573 0.029574243 0.040828828 -0.01527357
000170 b5 4b ac bc 72 07 00 3e 14 80 de 3d 11 cb eb 3d
       -0.021032194 0.1250284 0.10864273 0.11513341
000180 64 93 9e bd 7f 36 dd bd 34 d4 f2 3a 4e a5 2b bd
       -0.07742956 -0.1080141 0.0018526376 -0.041905694
000190 e7 d1 2e 3d 13 ce 34 bb a6 be 17 3a 4e 20 35 be
       0.042680647 -0.002758865 0.00057886017 -0.17688105
0001a0 3c dd 4d be fb 77 03 bd 64 e1 1d 3d 8e f8 2b bc
       -0.20103925 -0.032096844 0.038545027 -0.010496272
0001b0 61 38 1b bd 99 36 d6 bd 45 15 b5 bc dc 5a 32 3d
       -0.037895564 -0.104596324 -0.022104869 0.04354368
0001c0 b9 c8 c2 bd 14 c3 2a 3b c5 fd 13 bc b4 05 4f 3e
       -0.09510941 0.0026056217 -0.009032671 0.2021702
0001d0 34 61 a7 3b 20 2b 06 be 65 4c 66 bd 92 55 8a 3d
       0.005108023 -0.13102388 -0.0562252 0.067546025
0001e0 e8 25 22 3e ef 0f 7e bc b1 99 c0 3d a7 0a e7 bd
       0.15834773 -0.015506729 0.09404314 -0.11281329
0001f0 ae 8f 17 bc 36 0a d4 bd 30 b0 d9 bc b3 8e 76 3d
       -0.0092505645 -0.1035351 -0.02657327 0.060194682
000200 26 09 44 3d 57 d4 b8 3d 03 ff 6e bd dd e2 95 3d
       0.047860287 0.090248756 -0.058348667 0.07318661
000210 68 28 b8 3d 1b 0a 84 bd ce cc 3d bd 3a b3 b2 3d
       0.08992082 -0.0644724 -0.046337895 0.08725591
000220 2e 59 8b 3d cc a7 c0 bd 0c cb 98 bd 4b 19 c6 3c
       0.06804119 -0.09407005 -0.07460603 0.024181983
000230 b8 9a 60 bd fa fd 5b bd 94 40 09 be 44 44 02 be
       -0.05483505 -0.053709008 -0.13403541 -0.12721354
000240 1f fe 01 3e 4c d5 32 be ac 77 39 3e 15 99 c5 3c
       0.12694596 -0.17464179 0.18112057 0.024120847
000250 78 52 3a bb 6f 94 c7 3d c8 5c c8 bc 0d c3 5d bc
       -0.0028430503 0.09745108 -0.024458304 -0.013535273
000260 be 83 af bc e2 89 c0 bd 5b 65 b5 3d 36 d4 94 3d
       -0.021425124 -0.09401299 0.08857223 0.072670385
000270 8b 1f 0d bd d2 86 41 bd 04 0b 48 3d c0 c8 b3 bd
       -0.03445391 -0.047247715 0.04883863 -0.087785244
000280 0b 34 a9 3d 87 e9 fe 3d ef 06 bc bb 40 7a bd bd
       0.082618795 0.124468856 -0.0057381312 -0.09251833
000290 9d ff f6 bd 10 ca e7 bd a8 86 2a bd cc 63 c7 3c
       -0.12060473 -0.11317837 -0.041632324 0.024339579
0002a0 26 9a 64 3c 30 1a ce bc 8e ef b3 bd b2 65 1b bd
       0.0139527675 -0.025158972 -0.08785926 -0.03793878
0002b0 61 17 01 be 78 dd 46 bd 6f cd 7f 3d d0 1a 2a bd
       -0.12606575 -0.048551053 0.062451776 -0.041529477
0002c0 fd f0 c2 3d 70 de 09 3c 10 05 c9 bd ee e0 31 bd
       0.09518621 0.00841485 -0.09815419 -0.0434274
0002d0 cb d5 4f bc e0 2a 75 bb ee 2e c3 3d 10 8c d9 3d
       -0.01268525 -0.0037409589 0.095304355 0.10622418
0002e0 1d 6e 52 bc 99 18 c0 3c 88 6e 68 3d d2 a6 3e 3d
       -0.012843636 0.02344923 0.056746036 0.04654581
0002f0 f3 b1 a6 bc d9 e4 d1 3c f6 8d a5 bd c2 b0 23 3e
       -0.020348525 0.025621818 -0.080837175 0.15985397
000300 0a 7f 77 bc fe dc 18 bb 97 2c 37 3d 60 6b 0c 3e
       -0.015105972 -0.002332508 0.04472026 0.13712835
000310 2d 19 44 3d a4 c7 b6 3c ef 75 c2 3d 7f 58 c5 3d
       0.047875572 0.022311993 0.0949515 0.0963602
000320 f3 53 c1 bb ca ed 2b bd 93 70 fe bb ac 94 dd 3d
       -0.0058999 -0.04197482 -0.0077648847 0.108193725
000330 00 3b f6 bc 91 9c 2b 3e 60 98 3b bd aa 77 96 bc
       -0.03005743 0.16758944 -0.045799613 -0.018367607
000340 d4 da 31 3e 36 b6 ed bd 54 18 33 be a7 82 bc bb
       0.17368633 -0.116070196 -0.17489749 -0.0057528797
000350 40 0a 39 3d 10 dd 22 bd 66 6a b6 bd ea 6e 17 be
       0.04517579 -0.039761603 -0.08907013 -0.14788404
000360 d8 8a 16 bc 72 bc 59 ba 30 4e d6 3d 66 2a 29 be
       -0.009188376 -0.00083059736 0.10464132 -0.1652008
000370 13 f6 2d bc 68 75 d5 3c dc 8c 9e bd 68 55 9d 3d
       -0.010617751 0.02605696 -0.077417105 0.076823056
000380 71 a7 7a 3d 3c 70 9e 3c ec 48 56 3a cf 01 7a 3d
       0.06119484 0.019340627 0.00081743184 0.06103688
000390 0d 20 64 3d b4 2a 10 3d 3d 56 91 3d 86 95 17 bd
       0.05569463 0.035196975 0.07096527 -0.03700783
0003a0 20 0d 1c 3e 75 9f a2 bd 1e c8 45 bc 39 10 91 bd
       0.15239382 -0.0794057 -0.012071637 -0.07083172
0003b0 17 9f 0e 3e 6d 01 af 3d 5f 2a 11 bd 74 68 94 bc
       0.13927875 0.08545194 -0.0354408 -0.018116213
0003c0 13 1e 2d bd 89 6a 90 3d b2 12 83 3c 88 7d 19 bd
       -0.04226501 0.0705157 0.016000126 -0.03747323
0003d0 46 8a 15 3d 51 1b 0f 3d fb 2a 5a 3c 13 09 bb bc
       0.03650882 0.03493816 0.013315911 -0.022831475
0003e0 79 23 07 3e 3d 61 a0 bd a5 4a 50 bd 62 27 4f bd
       0.13197125 -0.07831047 -0.050852437 -0.050574668
0003f0 ce 0d 4f 3d 91 dc 5b 3d 08 a1 b6 bd ad e8 9b 3c
       0.050550275 0.053677145 -0.08917433 0.019031847

encoder.1.bias f4 [32]
000000 02 bd bd 38 db da 02 bb 5b 73 af ba 58 b0 2e 3a
       9.047428e-05 -0.0019966874 -0.0013385819 0.00066638505
000010 4c 80 52 3a 6e d4 9f ba d4 3e 02 bb 7c 49 47 39
       0.0008029982 -0.0012194046 -0.0019873874 0.00019005494
000020 0e 7b ef b9 38 cb 4b ba 43 e3 05 b8 9b 83 34 b9
       -0.00045677315 -0.00077741174 -3.1921325e-05 -0.00017215165
000030 ad d2 a0 3a 08 ed 2d ba ac fe 9b b9 fa 9b 3b 39
       0.0012269818 -0.00066347467 -0.0002975365 0.00017891816
000040 ec 1f 66 b8 a0 67 a5 ba de 9b 8a ba 44 a2 0a b9
       -5.4866003e-05 -0.0012619384 -0.0010575016 -0.00013221154
000050 d7 b2 d1 b9 8b 42 9d ba 50 84 44 3a 75 a1 b9 b9
       -0.00039996832 -0.0011997981 0.0007496523 -0.00035406245
000060 c4 f4 a3 b9 36 02 8e 3a 02 3d c1 3a 36 b6 74 b8
       -0.00031272147 0.0010834399 0.0014742913 -5.834383e-05
000070 b6 65 26 ba e2 2b 9a 39 52 28 bd b9 5d 14 8e 3a
       -0.00063475536 0.00029405864 -0.0003607893 0.0010839809

encoder.4.weight f4 [64, 32, 3, 3]
000000 3f 00 20 be b0 5c b5 bd 9d 8f 1e 3d 63 77 82 3d
       -0.15625094 -0.08855569 0.03871118 0.063704275
000010 a9 93 85 3d 3a 0a 26 3d 2f d9 be bd 4c 3a d5 bd
       0.065223046 0.040537097 -0.09318768 -0.1041151
000020 cf 13 15 3c 28 3b 0a 3e 1a fa f8 3d 6d 59 17 be
       0.009098961 0.13499129 0.12157078 -0.14780207
000030 88 24 44 be 12 12 5b bd c3 f6 b4 bd 64 74 83 3d
       -0.1915456 -0.05348403 -0.088361286 0.06418684
000040 a6 6e a1 bd 75 85 93 bd af 58 ea 3d 99 4f f1 3c
       -0.07882433 -0.07203189 0.11442696 0.0294569
000050 00 d7 1d be 7d 28 fb 3b ee 64 a7 3d bf 60 83 bd
       -0.15414047 0.0076647387 0.08173548 -0.06414937
000060 1e 22 58 bd 17 68 5d 3c fc 78 08 3d 7a 18 e3 bd
       -0.05276691 0.0135135865 0.033318505 -0.11088653
000070 55 75 c0 bd 29 16 a8 bc 70 f1 3e bd ac 83 8f 3d
       -0.09397379 -0.02051838 -0.04661697 0.07007536
000080 3e 6e 78 bd e5 b7 05 be cb 3b c4 bd 7a 6c ed bc
       -0.06065201 -0.13058431 -0.09581717 -0.02898239
000090 99 10 35 3e 53 1c fb bc 7f 17 1c 3e 92 59 11 bc
       0.17682113 -0.030653154 0.15243338 -0.008871453
0000a0 c6 1b db bd 61 7b 05 be a7 c7 16 be 2d ec e3 bc
       -0.10698657 -0.13035347 -0.14724599 -0.027822578
0000b0 b5 fc b9 bc b3 be ce 3d 87 41 db bc d6 c6 4f 3d
       -0.022703508 0.10094967 -0.026764644 0.050726734
0000c0 73 69 b5 bd 77 08 06 bd 36 2d 0a 3e 21 0f b0 3d
       -0.088580035 -0.032722916 0.13493809 0.085966356
0000d0 ad cb d4 bc 6a b9 ff 3d 31 90 76 3d 6a 29 d8 3c
       -0.025976026 0.12486537 0.060196105 0.026386935
0000e0 aa 46 50 bc 3d c2 b4 3d e0 40 21 3d 09 fb 68 3d
       -0.01271216 0.088261105 0.03936851 0.05688003
0000f0 07 5d c5 bd 92 f2 e8 bd 47 0c 1f 3d 6c 61 cf 3b
       -0.09636884 -0.113743916 0.038830068 0.0063287523
000100 1f 02 27 3e 1b 51 8e 3d b1 ba 29 be 52 86 ac 3d
       0.16309403 0.069490634 -0.16575123 0.08424057
000110 08 d7 94 bc 32 e0 9f bd dd f9 50 be d3 fd d2 3c
       -0.018168941 -0.07806434 -0.20407815 0.025755798
000120 f3 7e c8 3d 5d 09 aa 3d 45 fe 6b 3d 5d e9 1b 3d
       0.09789839 0.08302567 0.057615537 0.03806435
000130 4c 66 04 bb 47 9d 36 3d 3a 21 d0 3d bd ef 27 bd
       -0.0020202575 0.044583585 0.101625875 -0.041000117
000140 c7 7a 6a bd 44 d8 b2 3b 39 c2 67 3c 31 2c c7 bc
       -0.057245996 0.00545791 0.014145427 -0.024313064
000150 12 8f 8d 3d 4f 34 39 bd 9e 50 7e 3c de 1c bc 3c
       0.06912054 -0.0452159 0.01552215 0.022962984
000160 98 ec 85 3d f3 b9 95 3c f5 37 5b bb 2f 34 f1 3d
       0.06539267 0.018277144 -0.00334501 0.11777531
000170 6c 4b 72 3d a6 41 dc 3b df 1b 41 bd e0 ee b1 bd
       0.05915396 0.006721693 -0.04714572 -0.0868814
000180 00 9b d5 3d 08 cf 00 3d 8a db 38 be fa 1f 11 be
       0.104299545 0.03144744 -0.18052498 -0.14172354
000190 b6 af 8d bc 99 d8 21 3e 71 e7 e0 3d 10 06 cf ba
       -0.0172957 0.15805282 0.10981644 -0.0015794653
0001a0 37 24 f0 3c 58 5e 54 3d a7 0c 7e 3d 7a 2f 2e 3e
       0.029314144 0.051847786 0.062023785 0.17010298
0001b0 df 87 9a bd 3c cd 62 bd f2 c6 c6 3d 46 71 86 bd
       -0.075454466 -0.055371508 0.097059146 -0.06564574
0001c0 a6 10 d4 3d ae d7 57 3d 70 02 99 bd 79 64 31 bd
       0.10354738 0.052695923 -0.07471168 -0.04330871
0001d0 74 de 69 3d 87 1b 6d bd b9 9a f5 bc f4 1b a0 bc
       0.057096913 -0.05788758 -0.029981004 -0.01954458
0001e0 b1 20 e8 bd a1 3b 23 3c 34 72 6f bd 60 6d 9b 3b
       -0.113343604 0.009962947 -0.058458522 0.004743263
0001f0 8c f9 9b bd 9d 66 32 bd c0 78 87 bd 68 f0 67 3d
       -0.07615957 -0.04355489 -0.06614828 0.056625754
000200 97 e7 90 bb 91 71 95 3d 4d d6 9d bd cb fa 3f 3c
       -0.004422139 0.07297052 -0.0770689 0.011717509
000210 f7 bb 48 be 8a 2b f2 bd a1 4b 5c 3d d9 a7 65 be
       -0.19602953 -0.11824711 0.053783063 -0.2242731
000220 5f b9 e7 3b f9 b9 74 bd 63 38 0a be c1 5b 4e b9
       0.0070716585 -0.05974767 -0.13498072 -0.00019679872
000230 6d f7 a1 bd b9 2e a2 3b 86 eb 7d 3d 96 bb d4 3d
       -0.07908521 0.0049494174 0.06199219 0.10387342
000240 9b 55 b6 bd 07 8c a5 3c 49 dc f4 3d ae 2a 05 bd
       -0.08903047 0.020208372 0.119560786 -0.032511406
000250 a3 b5 12 3e b4 7d 45 3d a4 7f 07 be e5 3e 22 3e
       0.14327101 0.048215583 -0.13232285 0.15844305
000260 4b cd a4 3d ba 6d 48 be e1 ae a6 bb 79 2c 43 3d
       0.08046969 -0.19573107 -0.005086765 0.047649834
000270 fd 97 11 3c c6 66 23 bd 63 b2 ca bd f6 20 95 bc
       0.0088863345 -0.039892934 -0.09897306 -0.018204194
000280 f9 6a 08 bc 66 e4 e2 bc be 46 8e 3d 2e 8a 50 bd
       -0.0083262855 -0.0276968 0.06947087 -0.05091303
000290 fb 3f d4 bd 7e d4 2e 3d 91 5b a4 bd 9b c1 ac bd
       -0.10363766 0.042683117 -0.080252774 -0.08435365
0002a0 f4 bc ec bb a3 47 92 3c 16 42 99 3d 6d 2c 81 ba
       -0.0072246734 0.017856425 0.07483308 -0.0009855159
0002b0 38 d5 82 3d a8 1b 9b bd 16 1c 54 3d 86 6b 8b 3d
       0.063883245 -0.075736344 0.051784597 0.06807618
0002c0 13 4a ae bc ab f7 ba bb d7 fb 3e 3c 7f 87 75 bd
       -0.021275556 -0.005705794 0.011656723 -0.059943672
0002d0 36 0b af 3d d8 f9 75 bc 98 f1 bb bd 99 8a 73 3e
       0.0854706 -0.015013181 -0.0917694 0.2378334
0002e0 a5 04 1d bd 50 4e 07 3e 49 6c 14 3d 5c 15 35 bd
       -0.038334507 0.13213468 0.03623608 -0.044209823
0002f0 3e 22 82 bc 00 23 84 3c ea 49 ee bd ca 57 b5 3d
       -0.015885469 0.01612997 -0.11635192 0.08854635
000300 67 7b ce bd 36 eb 08 be 8a b1 1d 3d a6 67 85 bd
       -0.10082131 -0.13370976 0.038499393 -0.0651391
000310 f9 c2 97 3d bd ca f7 bb 8c ec 38 bd 45 d3 b3 bb
       0.07410235 -0.00756201 -0.045147464 -0.005487832
000320 51 1f a6 bd 72 21 36 3d dd b0 e3 bd 76 96 a6 bd
       -0.08111442 0.04446549 -0.11117718 -0.08134167
000330 5c 16 8c ba f8 c1 81 3d b4 16 d9 3b 79 3b 89 3d
       -0.0010687816 0.06335825 0.006625021 0.06700797
000340 83 28 b6 ba e6 19 c0 3b f7 3d 73 bd e0 23 e2 3c
       -0.0013897571 0.0058624623 -0.059385266 0.027604997
000350 3c ab a3 3d 39 38 20 3e 64 45 a6 bd ed 07 18 bd
       0.07991645 0.15646447 -0.08118704 -0.037116934
000360 5f 80 3f bc ed 82 f7 bd 01 7b 9d 3d 2e 35 7f 3c
       -0.011688321 -0.12085519 0.07689477 0.015576644
000370 2d 06 c4 bd 84 84 05 3c 8b ef 4c bd 59 4e 79 bd
       -0.095714904 0.00814927 -0.050033133 -0.060865734
000380 45 a6 87 bd d0 8c 00 3e 2b 79 86 3d 1c f8 02 3c
       -0.0662351 0.12553716 0.0656608 0.007993724
000390 5a 24 b0 3c a0 e2 d6 3d 3c 9f 9e 3d 3e fe 32 bd
       0.021501709 0.10492444 0.07745215 -0.043699495
0003a0 2b 7e 9b bb a9 f5 1c bd 1b 84 46 bd ec b0 b6 bd
       -0.004745265 -0.038320217 -0.04846583 -0.08920464
0003b0 d5 53 a7 bc 23 ec d8 3b 90 b0 04 3e 46 5e b2 bd
       -0.020425716 0.0066199466 0.12957978 -0.087093875
0003c0 16 0b 1c bc 4d 8e ac bc 8d 97 84 bd 2f 38 9d bd
       -0.0095241275 -0.021063948 -0.064742185 -0.07676732
0003d0 48 19 e5 bd bd 05 8e bb 58 03 ae 3d 6e 57 38 bd
       -0.11186463 -0.00433418 0.084967315 -0.045005254
0003e0 44 b3 de 3c 3d 08 a5 bd 1f df 7a 3d 69 7f ce 3d
       0.02718509 -0.08058212 0.06124794 0.10082895
0003f0 61 9f 03 3e 00 76 19 be 4d ab 06 bc 6a e1 1e bc
       0.12853767 -0.1498642 -0.008219552 -0.009697298

encoder.4.bias f4 [64]
000000 91 cf b0 ba 52 51 77 ba 32 10 a3 39 80 28 a0 ba
       -0.0013489594 -0.000943442 0.0003110185 -0.0012219101
000010 a8 38 88 ba 84 16 9a b8 a5 75 66 ba 34 db 97 b9
       -0.0010392861 -7.347486e-05 -0.0008791334 -0.00028964283
000020 a1 40 40 ba 6c c6 85 39 44 94 0f bb 8a 67 ab 37
       -0.0007333849 0.00025515573 -0.0021908442 2.0433003e-05
000030 1e c5 82 38 f4 90 a9 39 fe fc 74 ba 88 af 06 ba
       6.235599e-05 0.0003234219 -0.000934556 -0.00051378505
000040 ac 38 b7 39 26 a3 ce 38 42 06 ad b8 34 cb 9b b7
       0.00034946704 9.853234e-05 -8.2504484e-05 -1.8572064e-05
000050 df 15 0f ba b1 d3 f0 3a 70 4c 1a b9 b1 61 a6 3a
       -0.0005458276 0.0018373636 -0.0001471506 0.0012693909
000060 5a 4b 90 b9 b1 75 e3 38 2e 49 69 ba ec 89 db 36
       -0.00027521962 0.00010846125 -0.0008899149 6.542765e-06
000070 5e 22 e9 3a e6 98 cf ba c3 28 95 38 be 5d df b8
       0.0017786731 -0.0015838414 7.112466e-05 -0.000106509295
000080 ab 50 e1 ba 14 5d 6f b9 85 4f 1d 3a 20 2f 43 ba
       -0.0017190179 -0.0002282749 0.0006000924 -0.0007445682
000090 11 ee 28 ba 7a 3c dd b9 f1 09 81 b9 5e fd 24 b9
       -0.0006444166 -0.00042197463 -0.00024612204 -0.00015734645
0000a0 46 0e 80 39 2a 9d 20 b9 12 9f 27 b9 2c 1b 7b 3a
       0.00024424697 -0.00015317337 -0.0001598562 0.0009578939
0000b0 f6 25 e3 b8 2c 9b 05 ba 44 3c 26 ba 37 ad 72 39
       -0.00010831274 -0.000509667 -0.0006341378 0.00023143446
0000c0 14 fd 80 39 ca c6 9e b9 e3 ab 6a b8 29 26 cc b9
       0.0002460262 -0.00030284218 -5.595003e-05 -0.00038938344
0000d0 25 10 0b 3a 5c 61 3e ba f2 a7 a6 3a 74 00 02 ba
       0.0005304835 -0.00072624325 0.0012714847 -0.0004959174
0000e0 b1 ca e0 39 cc 0b c9 38 b0 0b a4 39 93 c8 1e 39
       0.00042875626 9.586624e-05 0.00031289225 0.00015142774
0000f0 9b 39 ab ba 12 b9 84 b9 33 72 0c 3a 50 7b 37 ba
       -0.0013063432 -0.0002531489 0.0005357593 -0.0006999271

actor.0.weight f4 [64, 32, 3, 3]
000000 4c db e1 3d aa 2b a1 bd f7 e8 73 3d c2 5d b9 bd
       0.11028156 -0.078696564 0.059548344 -0.09051086
000010 b6 1d a4 3d 0e 49 22 bc c9 95 5a 3b 5b 3e b3 bb
       0.080134794 -0.009905113 0.003335344 -0.00547008
000020 39 08 7f bb 43 dd 15 3d 45 0c da 3c 1d 78 9e bd
       -0.0038914813 0.036587965 0.026617179 -0.077377535
000030 8b f4 b4 bd 75 0c bd 3d 22 ce 8f bd 06 bd 10 bd
       -0.08835705 0.092308916 -0.070217386 -0.035336517
000040 1b 37 cc 3d e8 00 af bb e5 11 be bd d7 0c 98 bd
       0.09971448 -0.005340684 -0.09280757 -0.07424324
000050 b2 94 29 be c7 66 ee 3d 3c 70 90 3d 14 df df bd
       -0.16560629 0.11640697 0.07052657 -0.10931221
000060 40 23 b9 3d 1a 7f 0c 3e 5f df 3f 3d 3d 78 79 3c
       0.090399265 0.1372036 0.046843883 0.015226421
000070 77 04 b5 3d cd 51 fa bc ad d3 00 3e af 09 37 3c
       0.08838742 -0.030556584 0.12580748 0.011171742
000080 c7 be 7e 3d 36 12 d0 3d f7 e8 fd bc 70 65 d5 bc
       0.06219366 0.101597235 -0.030994875 -0.026049346
000090 8f 47 49 3d 2d 75 c8 bc 5c df be bc e6 96 e6 bd
       0.04914051 -0.024469936 -0.023299865 -0.1125925
0000a0 74 6e c1 3d 6c fc ce bd 61 c9 3b bc 4a 49 43 3d
       0.094448954 -0.101067394 -0.011461587 0.047677316
0000b0 75 cc bc 3d 3b 98 3e 3d 4a 59 0b be 46 9b 04 3e
       0.092186846 0.046531897 -0.1360828 0.12949857
0000c0 1f 37 e3 bd ef 3a d7 bd 6e 3e 37 bd d1 ba 96 ba
       -0.11094498 -0.105092876 -0.044737272 -0.0011499767
0000d0 a0 fc cc 3d ad 20 2b bd 4b 79 2e 3d a4 78 97 bd
       0.10009122 -0.04177921 0.042596143 -0.07396057
0000e0 75 8f 13 bd 4d 4b 93 3c a3 ef 5a bd 45 45 bd 3d
       -0.036025483 0.017980242 -0.05345119 0.09241728
0000f0 df 88 b4 bd e3 98 84 3e ca 08 1b 3e d1 64 64 3e
       -0.088151686 0.25897893 0.15140072 0.22304083
000100 49 32 65 3a cd 63 6a bd 87 0c ff bd 77 ca 57 be
       0.000874315 -0.057224084 -0.12453561 -0.21073328
000110 18 42 9d 3d f5 0e 04 bd 3d b9 ed bd 5b d8 22 3d
       0.07678622 -0.032240827 -0.11607597 0.039757114
000120 05 09 25 3d e1 c9 8b 3a 9e e9 df 3d b7 21 d9 3c
       0.040291805 0.0010665023 0.10933231 0.026505334
000130 89 f9 26 3d d4 ef 87 bc 13 e9 99 3c ba 50 0f bd
       0.04076532 -0.016593851 0.018787896 -0.034989096
000140 24 16 05 be fa 20 d9 3d 8e 4b b6 bc d1 7b 10 3d
       -0.12996727 0.10601993 -0.022252824 0.03527433
000150 2d 01 c6 3d 52 63 76 bd 8e d2 98 bd d0 23 8f bd
       0.09668193 -0.060153313 -0.07462035 -0.069892526
000160 5c 3b 73 bb 0f 4c 27 bd b4 bb 42 3c 38 43 ad bd
       -0.0037114238 -0.04084402 0.011885572 -0.084600866
000170 9d 64 68 3d 3b 8a 5a 3d bd 9b d0 3d df 0d c8 3d
       0.056736577 0.053354483 0.10185955 0.09768271
000180 9e 1a 08 3e 61 e0 70 3d f9 e7 6f bc 8d 72 02 bd
       0.13291404 0.058807734 -0.014642709 -0.031847525
000190 0c 12 d8 3d 61 cb 4f bd eb 9b 88 ba 41 52 8c bd
       0.10550317 -0.050731067 -0.0010422444 -0.06851626
0001a0 f6 1b 48 3c 68 06 e7 bd 46 9e 98 3d a3 5a 62 bb
       0.012213698 -0.11280519 0.07452063 -0.0034538887
0001b0 c6 54 43 3e 8a df 83 bc 20 ea 1a 3d 1e 45 d1 bd
       0.19075307 -0.016097803 0.037820935 -0.10218261
0001c0 9a 49 89 bc f7 eb 9e bc f5 7d 0c 3d 4c a0 b4 3c
       -0.016758729 -0.019399626 0.03429981 0.022049092
0001d0 6a 1a 94 3c 74 29 8e bb 5b 92 f6 bd 4d 4b e3 3b
       0.018079001 -0.0043384377 -0.12039634 0.006936467
0001e0 4b e9 45 3e 22 c5 37 3c 6f 3a 4a 3d cf e7 3a bd
       0.19327275 0.011216434 0.049372133 -0.045631226
0001f0 c3 87 a1 3d c5 43 07 3c 5d 41 51 3c b4 9b 82 3c
       0.078872226 0.008255904 0.0127719315 0.015943386
000200 93 f8 0e 3b a0 8d 25 3c 3a 35 1f 3e 37 4c 00 bd
       0.0021815642 0.010104567 0.15547648 -0.031322684
000210 ff 15 1c 3c 34 58 0e 3d b7 b0 45 bd 41 21 66 3d
       0.009526729 0.034752086 -0.04826423 0.056184057
000220 3b f3 5e 3d 7c f2 51 3c ea ba f3 bc 9a 82 b9 3d
       0.05443118 0.01281416 -0.029752214 0.090581134
000230 ca 5e 43 3b ff f8 e4 bd 6e f4 c4 bc 15 44 8c 3d
       0.0029811137 -0.11180305 -0.024042334 0.06848923
000240 2c 51 fb bd fc b9 e2 3d 08 95 49 3d b3 00 93 3b
       -0.12271342 0.1107063 0.049214393 0.0044861673
000250 81 58 35 bb 5f 57 c6 3d f2 33 21 bd 93 d8 c6 bd
       -0.002767116 0.096846335 -0.03935618 -0.09709277
000260 64 39 8f bd 4b 1e 5a bc d1 23 d2 bb 22 46 9a 3d
       -0.06993368 -0.0133128865 -0.006412961 0.07532908
000270 06 38 e5 bc e2 0b 8e 3d 27 ea 20 be 2e 4e 1e be
       -0.027980816 0.0693586 -0.15714322 -0.1545951
000280 5f bc 21 be eb 18 5c bd 62 33 55 3e 3d ca 93 3c
       -0.15794514 -0.0537347 0.20820382 0.01804077
000290 63 61 90 3d a3 28 e5 bd ac a1 88 3d 63 6d 86 bb
       0.07049825 -0.111893915 0.066714615 -0.0041023954
0002a0 28 ce 17 3e 55 de c0 3d 47 08 4d be c8 e5 04 bd
       0.14824736 0.094174065 -0.20022689 -0.0324457
0002b0 68 81 26 3d 66 8f 34 3d 20 ea 7b 3e 50 0d 0f bd
       0.040650755 0.044082068 0.2460103 -0.034924805
0002c0 aa 14 b8 bd f7 fa 6e 3d 7e 26 08 be 31 2d 35 bd
       -0.08988316 0.058344807 -0.13295934 -0.04423255
0002d0 f9 9e 15 bd 68 0c 48 3e d1 5e 29 be ef db 86 bd
       -0.03652856 0.19535983 -0.16540076 -0.06584918
0002e0 ea ae ef bd c3 47 89 3c 56 8a 2a 3b f4 4b e2 bc
       -0.11703284 0.016757851 0.0026022396 -0.027624108
0002f0 b1 0e 07 bd d2 e6 25 bd f4 55 5b 3d f7 ee c3 bd
       -0.032972995 -0.04050333 0.05354877 -0.09567063
000300 b7 9a 97 3d a0 0f 4b 3c 45 88 98 bc cd 3c e9 bc
       0.074025564 0.012393862 -0.018619666 -0.028471375
000310 25 c7 ff bc 1b 7d 8a 3d e0 83 4a 3c 88 51 d6 3a
       -0.03122289 0.06762143 0.012360543 0.0016351203
000320 09 d8 e8 bd d0 9c 2f 3d 6b 2d b3 bc 4e 9a 36 bd
       -0.113693304 0.042874157 -0.021872243 -0.04458075
000330 35 8a f4 3c 53 4d 86 bc b0 ef 8c bc e6 2c b6 bd
       0.029851058 -0.016394293 -0.017204136 -0.088952824
000340 0d a3 47 be 67 ad 27 3c 1e 5b 47 be 73 3a 0d be
       -0.19495793 0.010234213 -0.19468352 -0.13791828
000350 aa 63 5d bd 3b fc a7 bd 26 57 88 bc 01 9a 61 3d
       -0.054050125 -0.08202406 -0.016643118 0.05507851
000360 62 4b 98 bd 35 7d d9 3c 12 c7 42 3d 72 6d 55 3d
       -0.07436253 0.026548961 0.04755313 0.05210633
000370 76 a3 52 bc 9d 68 c9 bc 35 89 a4 3c 4a 77 08 be
       -0.012856355 -0.024586016 0.020084957 -0.13326755
000380 83 2c 7c bd c4 96 11 3e dc 18 fa bc 67 7a 82 bd
       -0.061565887 0.14217669 -0.030529432 -0.06371003
000390 21 ac 8f 3c 1b 95 de 3d 55 55 11 bd 09 e7 27 3d
       0.017538132 0.10868283 -0.03548177 0.040991817
0003a0 35 21 d4 bd d1 5a 83 bd e5 ef 3d bd cf a5 0f 3e
       -0.10357896 -0.06413806 -0.04637136 0.14028095
0003b0 5d 5a d0 3c 91 e4 d8 bc 16 80 8f 3d 8b c6 d9 bd
       0.025433714 -0.026476176 0.07006852 -0.10633572
0003c0 a9 ba 02 3a 1a d6 02 3e 58 88 3f 3e 6b 55 d6 3d
       0.0004986921 0.12776986 0.18704355 0.10465511
0003d0 0f b6 a0 bd a8 ca b8 3b 44 6a 18 bd ed 82 1d bd
       -0.07847225 0.005639393 -0.037210718 -0.03845494
0003e0 76 c6 a7 3d f4 23 92 bc 1c d1 11 bd 3d 51 96 bd
       0.0819215 -0.01783941 -0.035599813 -0.07339714
0003f0 88 cf be 3d c6 ed 0c bd 6f 88 c8 bd 7b 9f a7 bd
       0.09316927 -0.034406446 -0.09791648 -0.08184715

actor.0.bias f4 [32]
000000 53 c3 0f ba 36 60 1e ba d0 d4 89 3a 40 33 41 3a
       -0.00054841227 -0.0006041558 0.0010515694 0.00073700026
000010 a6 c9 be ba 78 b2 1f 39 3b dc 6f ba 03 1d b5 3a
       -0.0014555946 0.00015229906 -0.00091499434 0.001381785
000020 a5 7a a1 ba 63 86 5d ba ec f7 4a 3a 3d ed 77 b9
       -0.0012319876 -0.0008450506 0.0007742632 -0.00023644134
000030 08 41 cd 3a 1a fe d9 39 20 8d 9d b9 ee ce 12 3b
       0.001565964 0.00041578786 -0.0003005052 0.0022401172
000040 37 30 40 3a b3 20 34 ba c0 9a ef 39 d7 b9 9a 3a
       0.00073314033 -0.00068713276 0.0004570093 0.0011804652
000050 17 20 5a 3a ad 1a 56 b9 0f 61 94 b9 aa e3 bc ba
       0.0008320822 -0.00020418568 -0.00028301074 -0.0014411111
000060 6a a7 4a ba de 94 0d ba c9 b1 b9 ba 90 cc cd 3a
       -0.0007730635 -0.0005400906 -0.0014167364 0.0015701223
000070 4c ed e3 39 95 9a fa 3a ff 82 f3 3a 40 84 60 ba
       0.00043473614 0.0019119555 0.0018578469 -0.00085646287

actor.2.weight f4 [32, 78, 3, 3]
000000 62 38 dc b9 bf 02 1f 3d ac 70 96 bb 3c a7 63 3b
       -0.00042003678 0.03882098 -0.0045910683 0.003473713
000010 54 c6 d8 3c 58 c9 11 3d 19 2d 80 bd b3 27 ae bc
       0.026461758 0.035592407 -0.06258602 -0.021259164
000020 df b4 ac bd d0 5d 99 bd 27 dd 5e bd b8 cb 1d 3d
       -0.08432936 -0.074885964 -0.054410126 0.03852436
000030 b8 8b 6e 3d 19 28 a8 bc c1 2b a2 3d 19 65 2d 3d
       0.058238715 -0.020526933 0.07918502 0.042332742
000040 e8 16 21 bd 74 db 8e bd bb 01 78 bd 23 84 7e bc
       -0.039328486 -0.06975451 -0.060548525 -0.015534434
000050 43 14 93 3d 06 96 9f bd 06 a7 bf 3d a8 54 61 bd
       0.07181599 -0.077922866 0.09358029 -0.055012375
000060 e9 46 8e 3d 48 32 6d bd f0 cf 83 bd 3b 12 05 3d
       0.06947119 -0.05790928 -0.06436145 0.03248809
000070 2c 27 6f bc e9 86 ad 3c 8c 14 a3 bb 5f 9b a7 3d
       -0.014596742 0.021182494 -0.0049768146 0.081839316
000080 a7 d7 ae 3b 81 1b b5 bd e6 e5 46 bd b1 ce be 3b
       0.0053357664 -0.088431366 -0.048559092 0.0058229794
000090 f7 c6 d8 3c 02 a0 88 bd 25 95 7d 3d a3 7f 39 3c
       0.026462061 -0.06671144 0.061909813 0.011321935
0000a0 dc 8c 29 bd 2d 72 1a 3d 4b 49 94 bd 3f 67 14 3d
       -0.0413941 0.037706543 -0.07240542 0.036231276
0000b0 17 8f 20 3d 3c ea 3d 3d ba 1b 11 3c f6 0c 80 3c
       0.03919896 0.04636596 0.008856708 0.01563118
0000c0 8b dd 02 3c 61 15 81 3c 0b 6e 3d 3d db a1 26 bc
       0.00798739 0.015757265 0.046247523 -0.010170425
0000d0 b7 4c 55 bb 0c 2e 9e bd 01 dc df 3c 85 38 c0 3d
       -0.0032546946 -0.077236265 0.027326586 0.0938578
0000e0 b4 0f 9c bd 1a 16 08 bd 0d 9f d1 bd 34 36 b4 3d
       -0.07620183 -0.033224203 -0.10235415 0.08799401
0000f0 ce 6b 1f b9 f1 88 6b bd ef 7a 5f bd ef ae 9d 3d
       -0.00015203582 -0.057503644 -0.054560598 0.076993816
000100 16 0a 5f bd e0 7c 10 bc 36 2e f4 bc 8b 5c 97 bd
       -0.054452978 -0.008818835 -0.029807191 -0.07390698
000110 93 6f 56 3d 29 c9 03 3d fc da fb bd 6e 54 03 3d
       0.0523525 0.032174263 -0.12297627 0.03206294
000120 e6 2a 27 3c 13 b6 79 3b e8 fd 5e bd 08 90 6b 3d
       0.010203099 0.003810291 -0.054441363 0.057510406
000130 d0 20 2e 3d 08 10 af bd 18 a9 8d bc 2d 18 8d bd
       0.04251176 -0.085479796 -0.017292544 -0.06889377
000140 b9 9c 9a 3d 8a 7b 8c bc 8e d4 81 bd e7 ed 76 bc
       0.07549424 -0.017148752 -0.0633937 -0.015071369
000150 1d 1d b9 3c e1 c0 6f bc 5c a4 9c bd 96 af 7c bd
       0.02259689 -0.014633388 -0.076485366 -0.06169089
000160 5c cf 8c 3d c8 6e 0c be 0c 8b f1 3d 4e 14 88 bd
       0.06875488 -0.13714135 0.11794099 -0.06644498
000170 73 d9 a8 bd e8 db 5f bd 5f fe 0c 3d 99 8d 4d bd
       -0.082446 -0.05465308 0.034422275 -0.050183866
000180 00 6b 22 3d bd 71 18 3c 8a 8a fd 3a 5e a7 42 bd
       0.039652824 0.009304461 0.0019343656 -0.047522895
000190 ea 77 ea bb 40 af a2 bd 5a d3 49 3d bf 1a 13 3d
       -0.007155408 -0.079435825 0.049273826 0.03591418
0001a0 cc 5f e0 3c 4e cb b9 3c 37 29 83 bd c7 a7 d8 bd
       0.02738943 0.022679951 -0.064043455 -0.10578876
0001b0 43 db 7e bc 3e e8 64 3c 59 14 07 3e 9b 4a 4d bd
       -0.015555206 0.0139713865 0.13191356 -0.050119977
0001c0 30 e9 b2 3c 44 7f 51 bd 89 66 06 3c e6 2d c6 bc
       0.021839708 -0.05114676 0.008203157 -0.024191808
0001d0 b2 6e f4 bd 70 32 ab 3b 86 29 a7 bd f3 f7 1c bc
       -0.11935176 0.0052245185 -0.08162217 -0.0095806
0001e0 ce c8 14 3d 29 c6 46 bd df c1 54 bd 7d e6 d6 bd
       0.036324315 -0.048528824 -0.051942702 -0.10493181
0001f0 cf 34 e3 bd f7 91 17 3d 33 50 73 bd 96 bd 86 bd
       -0.11094057 0.037004437 -0.059402656 -0.065791294
000200 3d ef b4 3d fb 0e 47 3d 5d 9a 88 bd 2a 59 91 bd
       0.088346936 0.04859827 -0.066700675 -0.07097085
000210 a2 c1 d1 bb 68 d4 84 bd 7b bc 3f bd 92 57 24 bd
       -0.0064012567 -0.06485826 -0.04681061 -0.040122576
000220 b3 11 00 bd 74 b4 c4 bc e1 b8 71 bd 00 8b 6a bd
       -0.03126688 -0.024011828 -0.059014205 -0.057261467
000230 68 3c 6e 3c 88 f8 21 bd 6c e7 f6 3c 0c d3 7e bd
       0.014540769 -0.03954366 0.030139647 -0.06221299
000240 26 78 a0 bc fb 1e e3 3d c1 a3 d9 3c a3 21 87 bd
       -0.019588541 0.110898934 0.026567342 -0.065982126
000250 c6 79 19 3d d0 fb 27 3d 17 9d 22 3c 55 08 d1 bc
       0.037469648 0.04101163 0.009925148 -0.025516668
000260 7e 70 36 3c 1a 7e 75 3d 55 d0 02 bd 8a 13 bd bd
       0.011135219 0.059934713 -0.031936962 -0.092322424
000270 fc 7a d4 bc 15 5b 54 bd 9c 23 94 bd 3a f0 ef 3c
       -0.02593755 -0.051844675 -0.072333544 0.029289354
000280 38 6d c2 bd 62 ea 71 bd 90 e6 95 bb 78 07 06 bd
       -0.09493488 -0.059061415 -0.0045746043 -0.032721967
000290 8d 60 87 bb a0 81 6b bc 8f f5 39 3d 4f 42 88 3d
       -0.004131383 -0.014374167 0.0454002 0.06653272
0002a0 5b 65 9d bd c1 dd f1 3c 59 08 96 3d af 4a 60 3d
       -0.07685348 0.029524686 0.07325811 0.054758724
0002b0 68 e8 34 bd b9 db bd 3c 89 8e 9d bc 8f 44 d9 bd
       -0.044166952 0.023176061 -0.019233005 -0.1060878
0002c0 b2 85 2b bd 7e 1a 05 bd 10 cb d8 bb f5 21 56 bd
       -0.04187555 -0.032495968 -0.006616004 -0.052278478
0002d0 8c 06 6a 3d 48 be 7f 3d 92 42 17 3d d5 cc 78 bd
       0.05713515 0.062437326 0.03692872 -0.060742218
0002e0 96 2b 6d bb 70 6e 29 bb 93 7f d3 3c 2d 04 67 bd
       -0.003618931 -0.002585318 0.025817668 -0.056400467
0002f0 01 48 4a bd e1 0e da bd 35 d0 86 3c 05 58 6a 3d
       -0.049385075 -0.10647369 0.016456703 0.05721285
000300 01 f1 11 3a 93 75 19 bb 75 18 7a 3b 2a 1a b5 3d
       0.00055672234 -0.0023416027 0.003816155 0.08842881
000310 7d ca 19 3d a6 18 10 bd 45 0f 99 3d a7 09 9a 3d
       0.037546623 -0.035179757 0.074736156 0.07521372
000320 e7 ec e3 3a 8a 47 02 3c 4e 26 35 3d 6c f8 3b bb
       0.0017389328 0.007951627 0.044225983 -0.0028682007
000330 95 a3 89 3d 0a f5 a0 3d 2e 57 0f bd db e4 69 bc
       0.06720654 0.078592375 -0.03499525 -0.014275755
000340 0e 22 1f 3c 40 55 86 3d 8b 45 86 3d 13 4e 80 bd
       0.009712709 0.06559229 0.06556233 -0.062648915
000350 d2 1c 81 bb 9e 2d 6e bd 11 21 f0 bc 14 60 a2 3d
       -0.003940203 -0.058148973 -0.029312642 0.07928482
000360 d7 18 6d bd 66 a1 e5 3b 1a 31 87 bd 34 aa b4 bd
       -0.057885017 0.0070077656 -0.06601162 -0.08821526
000370 7a 59 ba bc 57 47 18 bc b9 a1 de 3d d7 c3 4d 3d
       -0.022747744 -0.0092943525 0.1087069 0.050235596
000380 ed 01 81 3c e8 7f 02 3e 05 f2 b4 bd 59 77 ab ba
       0.015747989 0.12744105 -0.08835224 -0.0013081833
000390 c6 e4 92 3d 93 09 df ba 8b ba ae bc f2 9c dc bc
       0.07172541 -0.0017016403 -0.021329185 -0.026930306
0003a0 ce e3 b7 bc 5f c2 88 3d f8 4e 1b bc 12 e7 99 3d
       -0.022447493 0.06677698 -0.009479277 0.07514776
0003b0 1d a1 be 3d 66 c9 df bb ca 8b 46 bd 41 2b 0c 3d
       0.09308074 -0.0068294285 -0.048473157 0.034220938
0003c0 df 9f a2 3c ec 07 2f bc fb 49 26 bc 2e ca 3c bc
       0.019851623 -0.010683041 -0.010149474 -0.011522813
0003d0 6c 75 db bc aa 5c f2 bc 6b 9c 8d 3d 45 f2 7e bc
       -0.02678939 -0.029585201 0.069146 -0.015560691
0003e0 b6 44 88 3b 32 2b 53 bd 87 11 db 3c 11 a0 72 bd
       0.0041585816 -0.051554866 0.026741756 -0.059234682
0003f0 ab 94 49 3d 81 a8 bd 3c c0 35 5b bd 46 94 af bb
       0.049214046 0.023151638 -0.053518057 -0.0053582517

actor.2.bias f4 [78]
000000 88 06 83 ba 18 8f 7e 38 07 c1 50 3b 47 22 37 3b
       -0.0009996453 6.0691586e-05 0.0031853335 0.0027944015
000010 9a 84 20 3a 8d fa 43 39 00 55 c5 36 8a 7e 32 3b
       0.0006123275 0.00018689987 5.880953e-06 0.0027236068
000020 3b bf e1 ba 1d 8c d4 ba 00 00 00 00 00 00 00 00
       -0.0017223129 -0.0016216073 0.0 0.0
000030 00 00 00 00 00 00 00 00 00 00 00 00 00 00 00 00
       0.0 0.0 0.0 0.0
000040 00 00 00 00 00 00 00 00 1f 2f 95 b9 5f b1 8b b8
       0.0 0.0 -0.00028454603 -6.6610744e-05
000050 96 22 5d 39 32 68 a1 39 00 00 00 00 00 00 00 00
       0.00021089087 0.00030785945 0.0 0.0
000060 00 00 00 00 00 00 00 00 00 00 00 00 00 00 00 00
       0.0 0.0 0.0 0.0
000070 00 00 00 00 00 00 00 00 00 00 00 00 00 00 00 00
       0.0 0.0 0.0 0.0
000080 00 00 00 00 00 00 00 00 00 00 00 00 00 00 00 00
       0.0 0.0 0.0 0.0
000090 00 00 00 00 00 00 00 00 00 00 00 00 00 00 00 00
       0.0 0.0 0.0 0.0
0000a0 00 00 00 00 00 00 00 00 00 00 00 00 00 00 00 00
       0.0 0.0 0.0 0.0
0000b0 00 00 00 00 00 00 00 00 00 00 00 00 00 00 00 00
       0.0 0.0 0.0 0.0
0000c0 00 00 00 00 00 00 00 00 00 00 00 00 00 00 00 00
       0.0 0.0 0.0 0.0
0000d0 b8 b8 08 3a 00 00 00 00 f6 3c 70 ba 00 00 00 00
       0.00052155135 0.0 -0.00091643573 0.0
0000e0 00 00 00 00 00 00 00 00 00 00 00 00 00 00 00 00
       0.0 0.0 0.0 0.0
0000f0 31 18 e2 b9 00 00 00 00 00 00 00 00 00 00 00 00
       -0.00043124103 0.0 0.0 0.0
000100 00 00 00 00 00 00 00 00 00 00 00 00 00 00 00 00
       0.0 0.0 0.0 0.0
000110 00 00 00 00 00 00 00 00 00 00 00 00 00 00 00 00
       0.0 0.0 0.0 0.0
000120 00 00 00 00 00 00 00 00 00 00 00 00 00 00 00 00
       0.0 0.0 0.0 0.0
000130 00 00 00 00 00 00 00 00
       0.0 0.0

critic.1.weight f4 [128, 1024]
000000 e4 2f a2 bb 61 b3 8f bd 5d 0f f8 bc 3e 34 f1 bb
       -0.0049495567 -0.07016636 -0.030280763 -0.007360964
000010 01 58 c2 bc 32 9c 48 3a 7e 79 1d bb 58 2f 0c bd
       -0.023723604 0.00076526694 -0.0024028714 -0.034224838
000020 6d 8e 4c 3b 7a a7 63 3d cd 14 83 bc 99 65 01 3d
       0.0031212822 0.05557964 -0.01600113 0.03159103
000030 ca d7 22 bd f5 b5 93 bd 49 bf 10 bd c7 e6 91 bc
       -0.039756574 -0.0721244 -0.035338674 -0.017810239
000040 39 40 5c 3a 23 e8 d5 bc c4 ea 11 3c 70 7b 60 bc
       0.0008401904 -0.026111668 0.00890607 -0.013701305
000050 d2 25 ab 3b e7 10 30 bd 36 c1 12 3d 06 59 2e bd
       0.0052230144 -0.04298487 0.03582879 -0.042565368
000060 48 8d eb 3b e0 8e 0d bd 08 24 1c 3d 02 5e 79 3c
       0.007188473 -0.034560084 0.0381203 0.015220167
000070 b3 6f 74 bc 99 8d 08 bd 6f c6 b8 3b c5 50 a0 bc
       -0.014919209 -0.033338163 0.0056388895 -0.019569764
000080 fb 66 a8 3d e2 be 50 bd 2f bb eb bb 05 c2 86 3c
       0.08222767 -0.05096329 -0.007193945 0.016449938
000090 a0 85 2c bc 9e 8b 34 bc c7 01 4d bd 8f f0 17 3d
       -0.010529906 -0.011019615 -0.050050523 0.03709465
0000a0 40 fa 73 bd d9 e5 ca 3c 78 98 a3 3c fd 2c 81 3d
       -0.05956483 0.024767803 0.019970164 0.06307409
0000b0 c4 94 55 3d 85 73 ba 3b 08 e9 a0 3b 49 b9 a3 3b
       0.052143827 0.0056900405 0.004910592 0.004996453
0000c0 dd f4 43 bc 80 ef a2 3b 76 1b 8c 3d 51 c1 dd bb
       -0.011960235 0.0049723983 0.06841175 -0.00676743
0000d0 07 f0 fe ba 55 08 14 bd a9 4a 90 bc 11 ff ed 3d
       -0.0019450196 -0.03614076 -0.017613726 0.11620916
0000e0 c5 71 92 3d df 30 34 bd db 20 59 3c a1 ed 9f 3c
       0.07150606 -0.04399192 0.013252462 0.01952249
0000f0 10 fe 32 bd fc 63 b8 bc 68 27 5f bd 5d 8c a8 bb
       -0.043699324 -0.022508614 -0.05448094 -0.0051436857
000100 32 c6 8b bc 9d 40 9d ba e7 cc 69 bd 85 10 98 bd
       -0.01706228 -0.0011997406 -0.057080176 -0.07425026
000110 c9 a8 c8 3d cb 34 a9 3c de da 70 bb 2e ff 3b bd
       0.09797818 0.020655056 -0.0036751549 -0.045897655
000120 11 a9 2e 3d 6c 9e 59 bc 64 db 0b bd 7c 91 36 bd
       0.042641703 -0.0132824 -0.034144774 -0.04457234
000130 5d 1e 79 3d 5d 43 f5 bc 47 47 14 3c 2c 36 f7 3c
       0.060819972 -0.029939348 0.009050197 0.030177198
000140 d2 cb 9d 3c 8d 74 33 bc 3c bc 5b 3c 8c e6 26 bb
       0.019262228 -0.010953081 0.013411578 -0.0025467006
000150 41 e8 f0 bc 96 f3 77 bb 39 48 69 3c 00 97 c7 3c
       -0.029407622 -0.0037834398 0.014238411 0.024363995
000160 58 4e 37 3c ab d3 3f 3c 26 ca 42 bd 34 0b a0 3d
       0.011188112 0.01170818 -0.047556065 0.07814637
000170 98 5e 72 bc 51 e8 85 3d 6b 2c c7 3c d8 48 9c bc
       -0.014793061 0.065384515 0.024313172 -0.019077703
000180 5e 1c 32 3d 7b 81 41 3c 3c f9 7b bc 6e fd 0b 3e
       0.043484084 0.011810656 -0.015379246 0.13670895
000190 b4 c6 89 bb ec 76 a3 3b 64 78 60 3d 3f 0e 07 3c
       -0.0042045955 0.004988542 0.054802313 0.008243143
0001a0 e5 58 e2 bc 1f fe 2d 3d 6c be ca 3b 29 9c ab 3d
       -0.027630279 0.042478677 0.006187251 0.083793946
0001b0 4e 04 88 3d bf f2 0b 3d 5e d0 cc 3c 42 d8 e0 3c
       0.06641446 0.034167048 0.025001701 0.02744687
0001c0 65 a2 33 ba 4c fa 8a 3c 7b 5c 2d bd 78 c8 82 bd
       -0.0006852507 0.016965054 -0.042324524 -0.06385893
0001d0 9d 13 11 bd 8c 90 89 bc f0 e0 bc bc 9f 1d f6 3c
       -0.035419095 -0.016792558 -0.023056477 0.030043421
0001e0 66 13 1c bd 52 29 a1 bc e8 8e 02 3c 04 ff ad bc
       -0.038104437 -0.019673023 0.007968642 -0.021239765
0001f0 14 db d0 bc 22 d4 73 3d f5 23 cc bb ed a5 33 3d
       -0.02549509 0.059528477 -0.0062298723 0.04385941
000200 26 60 13 bc 20 66 49 3d 15 47 d3 bc 36 5d 3a 3d
       -0.008995092 0.04916966 -0.02579073 0.04549905
000210 2c 58 08 3b 7f bd 41 bd d0 23 9e 3d 80 4d 98 3d
       0.0020804508 -0.04729986 0.077216744 0.07436657
000220 80 62 08 bd 1d 4c 54 3d 9e 65 cf bd 6c 0e c8 3c
       -0.033297062 0.0518304 -0.10126804 0.02442094
000230 56 ec 80 3b eb ae 00 3d c6 62 ec 3c 7a 09 43 bc
       0.0039344234 0.031416815 0.028855693 -0.011904115
000240 2d 98 d8 bc f1 d8 1f 3d e2 e2 66 bd 2f f1 b1 3d
       -0.02643975 0.03902525 -0.056368716 0.0868858
000250 6a c3 06 3d 5a 84 fd 3a 41 61 2b 3d 79 a7 42 3d
       0.032901205 0.0019341812 0.041840795 0.047522996
000260 9c 50 80 bd 05 4e bb bc 74 3c 28 bd ba 90 bb bc
       -0.06265375 -0.022864351 -0.041073278 -0.02289616
000270 5e a6 a9 3d ea 89 5c 3d 37 ae 69 bd 1b 6e dc bc
       0.08283685 0.053842463 -0.05705091 -0.026907971
000280 76 31 9f 3d ea 16 d2 bc 19 0b 5f 3c 4a d1 71 3d
       0.07773106 -0.025645692 0.013613486 0.059037484
000290 09 53 b1 3d c9 ae eb bb 85 fc a1 3c 32 96 17 bd
       0.08658416 -0.007192467 0.019773731 -0.03700847
0002a0 8d 76 94 bb 0c 5c 18 3a f7 e0 a7 bc cd 70 11 bd
       -0.004530734 0.0005812056 -0.020493014 -0.035507966
0002b0 88 36 81 bd 22 39 01 bc ac 03 92 3c 48 d6 0c bc
       -0.06309229 -0.007887157 0.017824017 -0.0085960105
0002c0 9b 15 3c 3d f1 90 cb bc 41 3c 6d 3d 44 d0 b4 3a
       0.045919042 -0.024849387 0.05791879 0.0013794978
0002d0 ee 3e 80 bd e6 e1 9d bd 5d d1 c1 bc 48 50 0a 3d
       -0.06262003 -0.07709102 -0.023659403 0.03376797
0002e0 17 e9 c0 bc 23 1b 8b 3d 92 0d 3e 3c 6f 40 43 bd
       -0.023548646 0.06792285 0.011599915 -0.04766887
0002f0 b8 46 bd bd 40 2b 86 3c 24 f0 69 bd 37 c3 6f 3b
       -0.09242004 0.016378045 -0.05711378 0.0036584863
000300 2a 8d 03 3b 5f 0f 8e 3c 52 1d 14 bd ae cd a5 3d
       0.0020073154 0.017341314 -0.036160775 0.08095871
000310 08 ce c0 bc d1 a8 32 3d 9a d5 56 bd a1 2c 4c 3d
       -0.023535743 0.043618027 -0.0524498 0.04984725
000320 71 4c b7 bc 46 4b ec bb 96 ec 88 bc 6d 09 31 3c
       -0.022375317 -0.0072111217 -0.016714375 0.01080547
000330 c0 c5 80 bc b8 86 a8 bc 3c cc 43 3d 67 e3 92 3c
       -0.015719295 -0.020572051 0.047802195 0.0179307
000340 d5 df 09 3c 39 02 ee bc 66 9d 5f bd 4b 1f 02 3c
       0.008415182 -0.029053794 -0.054593466 0.007942031
000350 2f cf b6 3c f7 14 05 bd 30 56 b4 bc 52 78 41 bc
       0.02231559 -0.032490697 -0.022013754 -0.011808472
000360 a7 2d bd 3c d0 07 ec bc 2a 4a 8e 3d 0c 0a 33 bd
       0.023093058 -0.028812319 0.069477394 -0.043710753
000370 9f 00 af 3c 55 65 4a 3b d1 77 5b 3b be 59 98 3b
       0.0213626 0.0030883153 0.0033488164 0.00464937
000380 0d 37 33 3d 00 01 58 bd 59 64 6a 3d 91 e1 ab 3c
       0.043753672 -0.05273533 0.057224605 0.020981582
000390 f8 d7 e5 3c f0 89 9e bd ae 78 a0 3b 54 ee 79 bd
       0.028057083 -0.07741153 0.0048971986 -0.061018303
0003a0 b1 a6 72 3b 62 47 64 bb 81 3c 2b bc c8 4b 65 3c
       0.0037025625 -0.0034832587 -0.010451437 0.013995118
0003b0 f2 9f 63 3d 7c 3b 14 3d 4b 25 67 bd 95 26 65 bc
       0.055572458 0.03618954 -0.05643205 -0.013986249
0003c0 f1 84 ef 3c 80 2f 2c 3d 03 fc a1 3b da 16 a4 3d
       0.029238196 0.042037487 0.004943372 0.08012171
0003d0 68 b3 38 3d 83 be 29 bb 4d 40 43 bd 25 6a 36 3c
       0.04509297 -0.0025900907 -0.047668744 0.011133705
0003e0 e6 db a6 3c 2a cf d8 bc 14 f2 5c 3d 03 da 85 3c
       0.020368528 -0.026465971 0.0539418 0.016339308
0003f0 68 05 25 bd 68 4c 03 b9 37 7e ce bb 4d d6 3b bb
       -0.04028836 -0.00012521597 -0.006301667 -0.0028661669

critic.1.bias f4 [128]
000000 4e c2 dd b8 28 61 b0 ba 7a 59 60 b8 eb 20 15 38
       -0.00010574293 -0.0013456689 -5.3489093e-05 3.5555026e-05
000010 96 25 a0 ba 7a b7 35 b7 cd 9f 48 3a f4 e1 6d b8
       -0.0012218233 -1.083116e-05 0.00076532067 -5.671564e-05
000020 00 00 00 00 18 89 9e ba 9d c0 ae ba 00 00 00 00
       0.0 -0.00120953 -0.001333255 0.0
000030 8d 3f 02 b9 7a a1 e0 b9 00 00 00 00 7f 5e 66 b8
       -0.0001242144 -0.0004284492 0.0 -5.492428e-05
000040 6c fb 6f ba 00 00 00 00 3c b5 5e b8 7c e7 4a 38
       -0.0009154591 0.0 -5.3097712e-05 4.837614e-05
000050 a4 ed a9 b8 b6 f4 26 ba 14 32 39 ba 8c d2 45 39
       -8.102812e-05 -0.0006368862 -0.0007064652 0.00018865819
000060 b1 4b 73 ba 2b dd 64 b8 cf c0 44 b9 00 00 00 00
       -0.0009280993 -5.4565415e-05 -0.00018763843 0.0
000070 00 00 00 00 6b 72 5f 39 75 1f b1 b9 9d ff a0 39
       0.0 0.00021309561 -0.00033783508 0.00030708025
000080 18 f8 7b b8 d1 1b c8 b9 84 11 73 b8 00 00 00 00
       -6.007412e-05 -0.00038167697 -5.7952027e-05 0.0
000090 3a f8 1e 39 b3 f4 1c b9 3c c6 81 b8 6c 94 a0 ba
       0.00015160526 -0.00014968477 -6.1881234e-05 -0.0012251264
0000a0 00 00 00 00 00 00 00 00 6a 82 3e 38 00 00 00 00
       0.0 0.0 4.5420988e-05 0.0
0000b0 51 3d 82 ba 00 00 00 00 00 00 00 00 06 2a 80 39
       -0.0009936487 0.0 0.0 0.00024445372
0000c0 c6 3c 9a b9 14 e8 3f 38 00 00 00 00 00 00 00 00
       -0.0002941845 4.575409e-05 0.0 0.0
0000d0 1b b7 f9 37 00 00 00 00 00 00 00 00 29 86 00 ba
       2.9768378e-05 0.0 0.0 -0.0004902804
0000e0 cc 9e 40 38 fa e3 8d b9 20 32 2b 38 00 00 00 00
       4.592426e-05 -0.00027063471 4.081626e-05 0.0
0000f0 0a e7 67 b8 6d 4d 58 b8 bb 8c 8f 37 e2 24 3c 38
       -5.5289864e-05 -5.157052e-05 1.7112461e-05 4.4857043e-05
000100 73 f8 38 ba ab d8 74 ba ea 45 30 38 f2 93 7a b8
       -0.0007056065 -0.00093401474 4.2026782e-05 -5.974243e-05
000110 d7 c7 3b 38 cd 20 a1 39 f6 57 60 ba a4 59 b7 b9
       4.477039e-05 0.00030732751 -0.0008558029 -0.00034971267
000120 d1 3b 9b 3a 00 00 00 00 00 00 00 00 78 3a 35 38
       0.0011843388 0.0 0.0 4.3208216e-05
000130 26 63 cf b9 b2 6b 74 b8 d9 55 59 b8 0d 18 bc b9
       -0.00039555988 -5.8274432e-05 -5.1816784e-05 -0.00035876074
000140 18 13 d3 39 ae 97 48 b8 00 00 00 00 0d ea 7b b8
       0.00040259282 -4.782498e-05 0.0 -6.006104e-05
000150 00 00 00 00 30 4d 99 b8 63 b7 a2 ba 00 00 00 00
       0.0 -7.309986e-05 -0.0012414273 0.0
000160 00 00 00 00 3e 04 3b 38 b8 1c 44 3a 1c 27 62 b8
       0.0 4.4588225e-05 0.0007481086 -5.3919022e-05
000170 00 00 00 00 00 00 00 00 00 00 00 00 f3 15 0a 38
       0.0 0.0 0.0 3.2922206e-05
000180 92 2a 3a 38 00 00 00 00 00 00 00 00 62 98 76 b8
       4.4385502e-05 0.0 0.0 -5.8792888e-05
000190 04 a3 45 38 94 25 6b ba 93 c1 a8 ba 7d ca b4 ba
       4.712028e-05 -0.0008970138 -0.0012875072 -0.0013793256
0001a0 00 00 00 00 f8 75 15 38 00 00 00 00 ae 38 02 3a
       0.0 3.5634235e-05 0.0 0.00049675524
0001b0 b9 a8 2a b8 00 00 00 00 48 64 21 b5 93 30 06 ba
       -4.0688294e-05 0.0 -6.01231e-07 -0.00051189325
0001c0 dd be c0 b9 f3 67 b0 b8 6f 5c 74 b8 00 00 00 00
       -0.00036763298 -8.411696e-05 -5.826022e-05 0.0
0001d0 0f 3f 83 ba f1 4c 84 b8 01 f4 2d 38 3a 33 71 b8
       -0.00100133 -6.308582e-05 4.147366e-05 -5.7506586e-05
0001e0 00 00 00 00 11 93 9e ba 00 00 00 00 38 eb 5a b8
       0.0 -0.0012098273 0.0 -5.2194315e-05
0001f0 94 5e 62 b8 00 00 00 00 04 c2 d5 38 1c 35 82 b8
       -5.397068e-05 0.0 0.0001019277 -6.2087754e-05

critic.3.weight f4 [1, 128]
000000 43 5f b7 bb bf f8 c5 bc 4e 87 b9 bd 54 91 bd 3c
       -0.005596073 -0.024166463 -0.090590104 0.023140587
000010 d1 0d af 3d 8c 35 0c 3b 0f ef ef bd 8a 03 57 bd
       0.08547557 0.002139422 -0.11715519 -0.05249361
000020 c3 c3 52 bd 92 ba 1f 3d ae da d2 bd 3c de 68 3d
       -0.051456224 0.038996287 -0.10295616 0.056852564
000030 9b 50 ff 3c f4 37 0d 3b ae 63 b1 3d 66 9f 54 3d
       0.031166365 0.0021548243 0.086615905 0.051909827
000040 57 c9 26 be 9f 2b 5a bd b7 e2 76 bd 51 0f 6b 3e
       -0.16287743 -0.053264257 -0.060274806 0.22955061
000050 49 07 64 bd 1b 02 ae 3d c3 87 66 3d 14 c6 39 3d
       -0.05567101 0.08496495 0.056281816 0.045354918
000060 54 fa d3 3d 7a a3 88 bd 8f 07 33 3a b3 e6 fc 3d
       0.10350481 -0.06671806 0.00068294344 0.1234869
000070 fe 61 33 3e 5e 6c 0d bd 42 a4 11 3d c0 ba df 3c
       0.1751785 -0.034527175 0.03555704 0.027310729
000080 02 b0 31 3b ea 73 e7 3d 56 47 15 bd 1b 3e 03 bd
       0.0027112965 0.11301406 -0.036444984 -0.03204165
000090 44 6c e7 3d ba 79 aa bc 0e 61 ec bc de 0d d9 3d
       0.11299947 -0.020809997 -0.028854873 0.10598348
0000a0 78 f4 da 3d ef e3 ad 3d b8 f5 81 3d dd 50 1b bd
       0.1069116 0.084907405 0.06345695 -0.037918914
0000b0 6a fb 6c 3d 27 38 bb bd 9e 0f 0c 3d 65 f1 e2 3c
       0.057856955 -0.091415696 0.03419458 0.027702997
0000c0 f9 f7 73 ba b4 fc a8 3d 8b ef 03 3e 0a 53 21 be
       -0.0009306665 0.08251324 0.12884347 -0.15754333
0000d0 78 22 87 bd ef 6b ba bd e1 64 ee bd 5c ef b5 3d
       -0.06598371 -0.09102618 -0.11640335 0.08883545
0000e0 0b e7 a3 3d e2 42 e6 ba d4 d5 1e 3d ec d4 1b be
       0.08003052 -0.001756754 0.03877814 -0.15217942
0000f0 e9 2f 6f bd f6 fd 1e be 6c 92 fa 3a 3c 02 73 3d
       -0.0583953 -0.15526566 0.0019117123 0.059328303
000100 68 a5 3f 39 51 14 0c 3e 4c d4 39 3d bf 29 97 bd
       0.00018276798 0.13679625 0.045368478 -0.07381009
000110 d2 fd 74 3d a9 6b af bd f1 3f c1 3b 0b 33 54 bb
       0.059812374 -0.085654564 0.005897515 -0.0032379057
000120 1e b9 e3 3d 1b 4e 22 3e 6e ec 76 3d 2b fc 3b 3d
       0.11119293 0.15850107 0.06028407 0.045894783
000130 eb 7d 38 3d 1e 0f 23 bd ac 27 11 be bc d5 a0 3d
       0.04504196 -0.03980934 -0.1417529 0.078532666
000140 e7 c1 00 be 8b cd 4d be 4f d3 ee 3d e9 31 fc bc
       -0.12573968 -0.2009794 0.11661398 -0.030785518
000150 dc 6b 01 3e 3f fe 6a bc 6f 1e ff bd cc 94 60 bd
       0.12638801 -0.014342844 -0.124569766 -0.054829404
000160 b8 c4 54 be 8e b9 96 3d 16 99 7d 3d 83 d5 96 bd
       -0.20778167 0.073596105 0.061913572 -0.07364943
000170 f3 55 27 3e f1 3a 86 bc 20 c2 1b bc b7 6f ab 3c
       0.16341381 -0.016385527 -0.009506732 0.020927293
000180 d3 cb 97 3d d1 0e 00 3e d1 c4 5d 3d ce e3 1a bd
       0.07411923 0.12505652 0.054142777 -0.037814908
000190 ee f5 12 3e c0 62 af 3d 8b a3 e4 bd 2a c0 5f bd
       0.14351627 0.08563757 -0.11164006 -0.05462662
0001a0 e6 48 39 bd 51 66 19 3d 42 7d 12 3d 49 8e f6 bd
       -0.045235537 0.037451092 0.035763986 -0.120388575
0001b0 4b 06 6c 3b 7e 41 02 be d4 a4 1d 38 57 44 1e 3d
       0.0036014493 -0.12720296 3.7585225e-05 0.038639393
0001c0 6b a7 08 3d 39 7b 0d bc de a0 a2 bd ef 0d 87 3c
       0.033362787 -0.008635336 -0.07940839 0.016486136
0001d0 cf 3f d8 bc 7d bd 77 be 6c 7f 0c 3d 39 48 a5 bd
       -0.026397614 -0.24193378 0.034301206 -0.08070416
0001e0 55 88 1e 3d e3 1a 33 be 06 88 7d bc 09 e2 07 be
       0.038704235 -0.17490725 -0.015474325 -0.1326982
0001f0 d2 18 9b bd 8f 92 9a bd b0 f1 c3 3b cb 7d b8 bc
       -0.075730935 -0.07547485 0.005979739 -0.02252092
