experiments/ppo_hrl/models/MicroRTSGridModeVecEnv__ppo_utils__1__1721366908/4096/macro.pt (torch, 715615 bytes, 11 tensors)

encoder.1.weight f4 [32, 29, 3, 3]
00000000: 9a3e 8abc 4e45 ea3d a5b0 153d bb65 41bc
00000010: 4192 fbbb c2cc 90bd 5186 ecbd a4d4 b3bd
00000020: 7635 49bd 0bf2 1abe 3bc3 e33d 0d16 25bd
00000030: 8c6f a13d a23a 183d 2773 153e b2e8 f2bd
00000040: 5a36 11be a2c8 21be 9b97 813d b174 91bc
00000050: 875b 91bd 824d 82bd c860 683d bfbf 0ebd
00000060: bc1b 783e ec1e ee3d 92d1 833c 3483 3cbe
00000070: dccf f43c 1137 84bd d6e5 0f3d d4b8 89bc
00000080: 8f89 8dbd c2b2 18bd d20f de3d dbee 053d
00000090: 7ed4 91bc c46e a0bd c701 5a3e 83c6 e4bc
000000a0: 4f57 323d 354d d3bc 3695 10bc 3085 bdbb
000000b0: 2ab9 de3c fc35 d4ba aa5e 873d 1493 9c3d
000000c0: a245 ecbd a88e 22bc 28de a0bb 4d01 9abc
000000d0: f9d5 c2bc 50ff edbc ae1a 153d 6b59 b4bc
000000e0: 2c82 e33d ccc2 2dbc a0e5 263d b0ad 053e
000000f0: 7489 a43c 1d84 863d a6d8 1bbc 710a 65bc
00000100: 6421 863c 5bed 813c 9bd5 6b3e b224 55bd
00000110: e4b5 213d ec13 193d 5c8e 84bc aae2 dd3d
00000120: bb56 6339 98ad 8b3b 54c8 443c 68bc d1bd
00000130: fbc3 85bd afd1 4d3e 3411 b2bd a51b 86bb
00000140: f414 bf3b 0745 a43d 5df2 493d 4645 e73d
00000150: 0f39 0f3c 78c6 a2bd f5f7 47bc 3a3f fabd
00000160: 413a f63d f887 83bd 2754 843d 465d 453c
00000170: 9996 35be 91d0 083e fcce 12bb 92b8 353d
00000180: bba7 dfbd 5df4 a5bd cbfa af3d 8ad2 d3bc
00000190: 5db3 e6bb d495 a43d fb49 76bd 2244 163d
000001a0: 2d22 73ba 5629 d43b 1b78 93bd ebc7 813d
000001b0: e45d 21be ae0b d83d a6be 30ba 5438 9d3d
000001c0: b84b 75bd 63f9 61bd c089 333b 745b cabd
000001d0: c452 743d fcef 093e 5eea bb3d 2123 2fbd
000001e0: a75c 83bd 2d1a e93d 67ce afbd 0782 223e
000001f0: 705c 773d 460f 49bd 9421 363b 0e6e adbc
00000200: 7c5d dcbd b579 5a3d ccb9 b8ba be3f 43bd
00000210: 8cbc 1c3d beae d6bd 6357 eabd 6c95 ba3d
00000220: 185c 5ebe 2fae e639 caed 33bc e7b9 233e
00000230: dbf7 d33d d7fe fcbd d3d0 5cbc 6384 3abd
00000240: 508d 91bb 8dc3 c2bc e0f4 83bd 98a3 07bd
00000250: 9600 7bbd f15a 36bd df3e 073d 6937 21be
00000260: eddd 773d 8f8c ca3c 2bb2 b43d 55c5 d03d
00000270: e5fd 213c 92d9 71bd 5e73 373e bcfe d03d
00000280: 8c43 4cbc e62a 9c3c a53d a33d 8b16 98bc
00000290: b54c 15be cfa2 d2bd eacb e43c cd1a 253e
000002a0: adf5 b1bc 1e27 1f3e c18b 933c 4583 4b3d
000002b0: e977 393e e71c 933d 59a2 13be 127a e13c
000002c0: 2d62 dcbd e7ff 14be d898 9dbd 3c69 8c3d
000002d0: 5919 143d f251 273d ce1a 08bd b080 ecbd
000002e0: d6d8 c3bd 6230 b7bc 9f21 95bd ce87 4d3d
000002f0: f391 11be e613 033d efc9 b9bd 0e5e 483d
00000300: c775 753d 4934 c53d 22c1 a6bc 9985 e23d
00000310: 653f 3a3e a64b 03be 5bd3 7dbd 55e4 0a3c
00000320: f03b f03c e185 06bd d5b0 a4bd 17c5 37be
00000330: 33e8 3dbd 01ad 05bd 0977 99bd 6d4e 3cbe
00000340: f0ab e63c 5575 00be 62d7 84bb fef7 fbbd
00000350: d89f 31bd 193d df3d 416f d53d 7584 df3c
00000360: a21c 2ebd 4edf 66be 8de6 c4bd b00d 193d
00000370: 1e6c e6bc 5c6a 303e 4d57 3dbd b9b2 06bd
00000380: 1ad3 9e3d 2aaf 36bc 5637 c7bc 3ced 733d
00000390: b80b dd3d 9a37 56bd af86 a33c af22 8cbd
000003a0: e892 6b3d 257b eabc 14b3 34bd 9c2a d83c
000003b0: 1ad8 f5bd 5add d6bb 1366 813d e7f3 81bc
000003c0: 2624 b43d 85f6 f63d c6d7 55bd d93c 40be
000003d0: 7ee0 febd c085 ba3d 550e a73d cedd cdbd
000003e0: 490f 9a3d 7e36 f0bc a9f8 d53c dbcd 423e
000003f0: e2d0 063e 43bc 3a3e f398 493d 1d3c 2b3c
-0.016875554 0.11439 0.036545414 -0.01180404 -0.007677347 -0.070703045 -0.11549056 -0.08780792
-0.04912325 -0.15131395 0.11121222 -0.040304232 0.07882604 0.03716529 0.14594708 -0.11860789
-0.1418089 -0.15799192 0.063277446 -0.017755838 -0.070975356 -0.0636244 0.056732923 -0.034850832
0.2422933 0.11626992 0.016091142 -0.18409425 0.029884271 -0.064558156 0.035131298 -0.016811766
-0.06911003 -0.03727985 0.10842861 0.032698493 -0.01780152 -0.07833627 0.2128974 -0.027926689
0.043540295 -0.025793651 -0.008824637 -0.0057836995 0.027187902 -0.0016190405 0.066098526 0.076452404
-0.11536719 -0.009921707 -0.0049092956 -0.018799448 -0.02378367 -0.029052407 0.036402397 -0.022015294
0.11108813 -0.010605525 0.04074633 0.13054538 0.020085074 0.06568167 -0.009512102 -0.01397954
0.016373344 0.01586025 0.23030703 -0.05203695 0.039480105 0.037372515 -0.016181163 0.10834248
0.00021680717 0.0042626373 0.012010653 -0.10241014 -0.06531521 0.20099519 -0.086946875 -0.004092651
0.005831355 0.080209784 0.0493034 0.1129251 0.008741631 -0.07948011 -0.012205114 -0.12219091
0.1202283 -0.06422418 0.06461363 0.012046164 -0.1773323 0.13360812 -0.0022401204 0.044365473
-0.10920664 -0.08103249 0.08592757 -0.025857229 -0.0070404247 0.0803639 -0.060129147 0.03668607
-0.0009274807 0.006474654 -0.07200643 0.063369595 -0.15758473 0.10549103 -0.0006742276 0.07676759
-0.059886664 -0.055169474 0.0027395338 -0.098807245 0.059649244 0.13470453 0.09175561 -0.04275811
-0.064141564 0.11381946 -0.0858429 0.15869914 0.06039089 -0.04908683 0.002779101 -0.021170642
-0.10760018 0.053338725 -0.0014093458 -0.04766821 0.03826575 -0.10482548 -0.11442449 0.09110531
-0.21714818 0.00043998795 -0.010981986 0.15988885 0.10350009 -0.12353294 -0.013477522 -0.04553641
-0.0044418946 -0.023774887 -0.064431906 -0.033115 -0.061279856 -0.044520322 0.033018943 -0.15743794
0.06051438 0.024725227 0.08823045 0.10193888 0.009887193 -0.05904538 0.17915103 0.10204837
-0.012467276 0.019063424 0.07970742 -0.018565437 -0.14580043 -0.102849595 0.027929265 0.16123505
-0.021723593 0.15542266 0.018010976 0.049685735 0.18112148 0.07183247 -0.144174 0.027524028
-0.10760913 -0.14550744 -0.07695168 0.06856009 0.036156986 0.040849634 -0.033228688 -0.11547983
-0.095628425 -0.022361938 -0.07281803 0.05017834 -0.14215831 0.0320014 -0.09071719 0.048917823
0.059926774 0.09629113 -0.020355765 0.11060638 0.18188246 -0.12821826 -0.061969142 0.00847729
0.029325455 -0.03284252 -0.080415405 -0.17946278 -0.04636402 -0.032635693 -0.07493407 -0.18389292
0.028158158 -0.12544759 -0.004053996 -0.1230316 -0.04336533 0.10900325 0.104216106 0.02728484
-0.042507775 -0.22546121 -0.096142866 0.03736657 -0.028127726 0.17228073 -0.046225835 -0.032885287
0.07755108 -0.011150161 -0.024318378 0.059552416 0.10793251 -0.05229912 0.019961683 -0.06842553
0.057513148 -0.028623173 -0.044116095 0.026387505 -0.12004109 -0.006557149 0.06318297 -0.015863372
0.08795957 0.120587386 -0.05220773 -0.18773212 -0.12445162 0.09107542 0.081570305 -0.100520715
0.07522447 -0.029322859 0.026119547 0.1902384 0.1316562 0.18235879 0.04921813 0.010451344

encoder.1.bias f4 [32]
00000000: d30a ecba 7252 2fb9 dc0e 1b3a 1e13 3fbb
00000010: 46d8 e7b8 d503 943a 55da 8639 1fb8 e6ba
00000020: a49a f2b9 e425 f9b7 6c89 013a 49f2 c73a
00000030: 0c13 2eba 4b8c d8ba e40f 77ba 2243 f2ba
00000040: bda6 c2ba c083 71ba 5e4e 8eba 9ab2 6fba
00000050: fe73 623a 6422 ceb9 43e6 52bb 08f5 40bb
00000060: f769 513a 8df2 0c3a 0cf8 2fbb f470 2d39
00000070: 147d 06bb 980b 67ba e89b 2dbb 165a 0e3a
-0.0018008597 -0.00016720014 0.0005914995 -0.0029155682 -0.000110552224 0.0011292646 0.00025721142 -0.001760248
-0.00046273053 -2.9700757e-05 0.0004941437 0.0015254702 -0.00066404114 -0.0016521303 -0.000942467 -0.0018483142
-0.0014850717 -0.00092130527 -0.0010857095 -0.000914374 0.00086385 -0.00039317005 -0.0032180704 -0.0029442925
0.0007988507 0.0005376719 -0.0026850728 0.00016540644 -0.002052133 -0.0008813678 -0.0026490632 0.0005430294

encoder.4.weight f4 [64, 32, 3, 3]
00000000: 455d c83d 903e b83d b421 893d 7573 79bc
00000010: 0c93 1dbd 99ed 6cbe 6cc6 51bd ea79 3a3d
00000020: 2cbc 003d 9df4 cf3b b346 cabc c249 4e3d
00000030: 85a7 c9bd 5191 163d 6025 3b3e 73a1 acbd
00000040: 95d1 673d 5226 ffbd 0fc4 c4bd 2975 0b3e
00000050: 4a1e edbd f392 3c3b a949 6c3d b343 e43b
00000060: 7841 b3bd f5e5 6e3d 4fe1 74bd 282c c2bb
00000070: e9a3 d63c 4ff9 a53d 55ed 46bd 8fa7 863d
00000080: d90a 87bb a7da 9ebd e5bc dd3c 977f 513c
00000090: 0576 8e3b b7c1 1b3b a26c 78bd 3f47 233e
000000a0: 37e1 8b3d 1227 4c3b 3200 38bd ee9f d83d
000000b0: 19b3 c9bd 3aa7 b6bd 3667 093e 63ab 53bd
000000c0: 8382 11be d6cd 45bc ed49 9ebd 4f15 c1bd
000000d0: a407 53bd ee92 0bbe fddc adbd 8ae0 5b3d
000000e0: a43e afbd ad86 35bd 2efe 8c3c 1420 993d
000000f0: 1319 eb3d 55b0 993d 25f4 2bbd ff69 933d
00000100: a7cc 98bd e25e 0f3d 7409 633d f6a9 c93c
00000110: b63c 91bd a176 e4bd a657 593e 1aa6 a43d
00000120: e2e7 ed3c aeaa c3bd ae96 45bd 77e3 c83d
00000130: e368 fabc c7b3 d03d f60e 9a3d 6f9e e83d
00000140: 9dd6 803d 6469 cc3c fa98 b23c 50bd 803d
00000150: f337 b83c 8949 14be db85 ca3c d5d1 03bd
00000160: 721b 4aba b9da c33c 3fca b9bd 8ae1 933b
00000170: 2083 273e 4c3a 693d 034e ec3d f1a0 b0bc
00000180: b2c7 76bd 6135 f1ba 1124 233c 03f0 aa3d
00000190: 3a6b 29be 805a 133d 01e5 af3d a9ee 2bbe
000001a0: c94a 933d aa6f b7bd fe4d e43b ca56 5dbd
000001b0: 7d0b 16bd e849 cfbc 89f9 f8bc 333a f73b
000001c0: dc39 1b3c cd0c febd a065 2dbb dc3f 15bd
000001d0: 1465 143c 7a0f b73d 6141 343c ab7e bebd
000001e0: f532 2b3d bc47 8b3d 3125 fd3c 0ab5 913c
000001f0: f25e 10be 3494 e03c e339 a63d 96a0 173c
00000200: c09f 0d3c 5997 aebc d892 04bd f2c0 73bc
00000210: 569e 863c a141 a9bc 1400 0ebd 12b4 b2bc
00000220: 821a 62bc 823b a1bd e138 96bd c9a6 913e
00000230: 0480 c5bd 56f3 8f3b fc7e 75bd f729 043e
00000240: b37c bb3c 1bb3 62bd 0eda 23bd 3f03 0c3d
00000250: 85c7 2ebd e76e ec3d 21bf b73d 97c9 513d
00000260: da16 a9bd 7fd5 3f3d 6781 69bd 94e6 85bd
00000270: dae9 cfbd 6422 803d 1a45 24ba 55e9 87bd
00000280: 8ff3 753d ef45 2e3d 78bc d3bd 907a 66bd
00000290: 5b1a cfbd 2ae8 d03d 0832 143d df25 a0bd
000002a0: ecaf da3d 2290 9fbd f776 dbbc f472 4bbd
000002b0: 991d c7bd 0c15 94bd 44a7 373d 426c f9bb
000002c0: 99e6 72bd 740c 233d 7f22 c73d 2f13 0cbe
000002d0: 8ce8 6abd 34dd 81bd d8af 10be ed29 6ebd
000002e0: 9778 82bd 737b 873d 17e0 93bc 3bd3 c0bb
000002f0: ca28 a4bc c58f b9bd ffbf a8bd cb21 99bc
00000300: 7571 3abd 1ec1 a2bd 430a eebc 1d57 9d3d
00000310: 53b2 023d df34 febc 014b 343d 7faf 6e3d
00000320: cef3 903c fa36 c8bc 539a 89bb 25ce 723d
00000330: ceaa 09be 2d2f aa3c dd14 a83d 9597 bebd
00000340: b39e 65be da91 7c3d d4ef fbbd c1f5 72bc
00000350: b4ee 49be 2568 1bbd 527b 00bd ba4a 963c
00000360: 0436 13bd 3aa2 da3d 1447 3fbd da40 fcbd
00000370: 2b3f 9b3c 5ec7 febc 5091 403e 4c35 853d
00000380: 265f 95bd c427 e23c d545 cbbd 6cd4 aabd
00000390: 6dab 173d de54 00be c7d1 2e3d ce94 cd3d
000003a0: 747f 813d d1c8 f93d dd33 c3bd 8562 373b
000003b0: c6cc 193e 6432 f43c eb1f be3d e385 8d3d
000003c0: 1a2a 27be deb7 823d 4ce2 6abb d33c d0bd
000003d0: e980 21be e722 f23b 1e70 96bd dfda 173d
000003e0: 4afe c1bd f5da 143e 65ae e93c eba0 4e3d
000003f0: 0fcc ae3d b005 12bd 60fb 433d 701b 873d
0.09783415 0.08996308 0.066958815 -0.015225281 -0.038470313 -0.23137511 -0.05121462 0.045526423
0.031429455 0.006346299 -0.024691915 0.05036331 -0.09846405 0.03675968 0.18275976 -0.084292315
0.056596357 -0.12458481 -0.09607708 0.13618912 -0.11578043 0.0028774112 0.057687435 0.006966078
-0.087527215 0.058324773 -0.059785184 -0.005925674 0.026201205 0.081041925 -0.04856618 0.06574928
-0.004121166 -0.077565484 0.027067611 0.012786767 0.004347565 0.0023766586 -0.060650475 0.15945147
0.06830066 0.0031151217 -0.04492206 0.10577379 -0.09848613 -0.08918615 0.13418278 -0.05167712
-0.14209943 -0.012073001 -0.07728944 -0.094278924 -0.05152096 -0.13630268 -0.08489416 0.053680934
-0.085568696 -0.04431789 0.017211046 0.074768215 0.11479392 0.07504336 -0.04198088 0.071979515
-0.07460909 0.035002597 0.055428937 0.024617177 -0.07091658 -0.11155439 0.21224841 0.08039494
0.029041234 -0.09554039 -0.048239402 0.098090105 -0.030567592 0.1019054 0.07522385 0.11358344
0.06290934 0.024952598 0.02180146 0.062861085 0.022487616 -0.14481176 0.02472203 -0.032182533
-0.0007709778 0.023908006 -0.090717785 0.0045129703 0.16358614 0.05694036 0.11538317 -0.021561118
-0.060249038 -0.0018402749 0.009957329 0.0834656 -0.1654481 0.03597498 0.08588601 -0.1679026
0.071919985 -0.08956845 0.006967305 -0.054037847 -0.03663205 -0.025303796 -0.030392425 0.0075447797
0.009474244 -0.12404785 -0.0026458278 -0.036437854 0.009057302 0.08938499 0.011001916 -0.09301504
0.041796643 0.068007916 0.030901523 0.017786521 -0.14098719 0.027414419 0.0811651 0.009254595
0.008644044 -0.021312403 -0.032366604 -0.014877545 0.016432922 -0.020661177 -0.034668043 -0.02181438
-0.013800265 -0.07872678 -0.073350675 0.2844756 -0.09643558 0.0043930216 -0.059935555 0.12906633
0.02288661 -0.05534659 -0.040002875 0.034182783 -0.042670745 0.115445904 0.08972002 0.05121764
-0.08256312 0.046834465 -0.057008173 -0.0653812 -0.101520255 0.062565595 -0.00062664005 -0.066363014
0.06004673 0.042547163 -0.10338682 -0.05626923 -0.10112449 0.10200532 0.036180526 -0.07819723
0.10678086 -0.07791163 -0.026790125 -0.049670175 -0.09722442 -0.07230577 0.04483725 -0.0076117823
-0.059301946 0.039806798 0.097233765 -0.13679193 -0.05735068 -0.06341019 -0.14129579 -0.058145452
-0.06370657 0.06615343 -0.01805119 -0.0058845556 -0.020038981 -0.09060625 -0.08239745 -0.018692872
-0.045518357 -0.079469904 -0.029057628 0.07682631 0.031908344 -0.03103107 0.04401684 0.058272835
0.01769438 -0.024440277 -0.004199305 0.059278626 -0.13444063 0.020774448 0.08207104 -0.09306256
-0.2242382 0.061662532 -0.12301603 -0.0148291 -0.19719964 -0.037941117 -0.031367607 0.01834618
-0.035940185 0.106754735 -0.046698645 -0.12317057 0.01895102 -0.031100925 0.18805432 0.06504306
-0.07293539 0.027606852 -0.09925429 -0.083412975 0.03702872 -0.12532374 0.042680528 0.10038148
0.06323138 0.12196506 -0.095313765 0.0027982306 0.15019521 0.029809184 0.092834316 0.069103025
-0.16324654 0.06382726 -0.003584045 -0.10167851 -0.15771832 0.0073894146 -0.073456034 0.037073966
-0.0947233 0.1453665 0.02852554 0.050446432 0.08535015 -0.035649955 0.04784715 0.0659703

encoder.4.bias f4 [64]
00000000: 61dd 8dba f57d 1fbb 0a50 fe39 cb97 2739
00000010: 5067 02bb 5637 e4b9 1396 8cba e99e 37bb
00000020: 633a 91ba e46c 2b39 d4e8 a23a 326b 03b9
00000030: 909d e8ba 69e1 a1ba 07e1 103b d1e7 8e39
00000040: 0e2d d739 0c96 dd39 02f8 0e3a dbdc b0ba
00000050: 248a 193b 7297 f438 2831 903a 89f0 04bb
00000060: 40cf f838 dd30 da3a 183e e739 bca1 a03a
00000070: 4287 d7b9 de1e 67bb 65fa 16bb bf8e adba
00000080: 3c3e d6ba 4c9d a6ba d0e2 18bb d6eb 04b9
00000090: 5d47 9bb9 f392 0bbb 0000 0000 b345 27ba
000000a0: b066 8dba bcde 17bb 851b ea3a df45 43bb
000000b0: 9b89 38ba 0000 0000 6d79 e238 eb0d 30bb
000000c0: 8f78 35ba 47fb fbba 5880 98ba 253b 2dbb
000000d0: 5b93 05bb f344 0c3b d9cd 413a 2713 8cba
000000e0: b5e4 5dba 5558 16bb 605b 08bb 0e0d 45bb
000000f0: 47b0 a1b8 a3e7 4a38 74bf 303b fed5 37ba
-0.0010823422 -0.002433655 0.0004850629 0.00015982908 -0.0019898005 -0.00043528777 -0.0010725878 -0.0028018302
-0.0011080023 0.00016348396 0.0012429007 -0.00012533067 -0.0017747153 -0.0012350503 0.0022106783 0.00027257067
0.00041041564 0.00042264198 0.0005453826 -0.0013493554 0.0023428285 0.000116630355 0.0011000978 -0.0020284972
0.00011864165 0.0016646642 0.00044106017 0.0012255232 -0.0004110877 -0.00352662 -0.002303743 -0.0013241394
-0.0016345452 -0.0012711673 -0.002332855 -0.00012676357 -0.00029617074 -0.0021297305 0.0 -0.00063809304
-0.001078805 -0.0023173532 0.0017860985 -0.0029796285 -0.0007039548 0.0 0.00010799137 -0.0026863765
-0.00069225667 -0.0019224667 -0.0011634929 -0.0026432958 -0.002038202 0.0021403402 0.00073930394 -0.001068686
-0.0008464561 -0.0022940834 -0.0020806417 -0.0030067596 -7.7099125e-05 4.837628e-05 0.0026969584 -0.00070127833

actor.0.weight f4 [64, 32, 3, 3]
00000000: d11a d1bd 8cc4 89bd 1b8f 83bc fe94 0fbe
00000010: 2af6 ca3d 88f7 5b3d ea56 c5bc 648d 9d3a
00000020: 1b06 31bd 47f9 20bd 1d8f bfbd 4520 bbbd
00000030: bce3 86bd f698 fa3d 7301 0e3e 4080 ec3d
00000040: bfc2 cdbd 4d96 813c 0079 43be 8496 51bd
00000050: 39ef 7a3d 4df3 ce3d ec14 303d 9102 8abc
00000060: 3ad6 38bd 3043 5d3e 29cb e0bc cd7a 87bd
00000070: 63b1 38bd 7194 af3c dbe1 0c3c 6b85 a1bd
00000080: cb7e de3d 74b9 16be a7cb 593d a133 f0bc
00000090: a772 c33d 40bf 2e3d 77fa ad3d c794 1f3d
000000a0: fd30 983d 1503 1f3c 0467 bf3d 8ad4 0dbe
000000b0: 1561 85bc dede f13d e56b 03be 1a85 83bd
000000c0: b8aa 27bd 290f c5bd d652 1f3d a0f9 143e
000000d0: 4d08 3dbe 305e 96bc 0b02 9c3d d66b debd
000000e0: ca0b 8b3c 8fdd e2bc f0be a03d 830c 293d
000000f0: 901c 17be 9974 40bd f8b6 9bbd 3742 25bd
00000100: ecb2 4c3d b95c 473d 825b 0bbc 8954 8a3d
00000110: 9f40 8bbd 8065 47bd 5038 97bd 0d3f 053d
00000120: 0b6e a9bd 790a 873d 74e0 fa3d 1549 f4bc
00000130: ce9c cabd 3940 02be 962c f33c e134 953d
00000140: 4065 c2bc c87b 02bd 4ece 0bbd dd95 06bc
00000150: 6275 d8bd c0ba abbc 5264 0c3d c3bf e4bd
00000160: d8bd d9bc 4b8d b8bd bdd9 ad3d f97d dbbd
00000170: 06f7 ac3d 641b c13b 5d12 dbbd 7942 043c
00000180: ebb1 c63c 9bdb 673d 19ee 19bc 1315 583c
00000190: ef7c 08bd 561c 3bbe 224c 54bb 0099 4ebe
000001a0: a07f 0cbc 9930 b53d b08f cdbc 6c1d bebd
000001b0: d93a b03b 487b 7dbd bf38 b93d 2fcd d0bd
000001c0: f45a 4d3b e7e7 c6bc 0557 08bd a093 5e3c
000001d0: 4d2e aebd 2c49 86bd 7976 fd3d 4a65 81bc
000001e0: 2fbd 883d 38d6 c83d c91d 813d 76f2 a43d
000001f0: 2a88 543d a8f1 263e 1ce9 e9bc 65ae 17be
00000200: d5ee 513d 4580 b3bc 2754 c5bd 59d4 53bd
00000210: 9543 7c3d 3b1e 5abd 5bba c6bc c532 e33d
00000220: a37a b23d e2ce 04bd 7ad9 ba3d 39d6 14be
00000230: 1e46 b23d 1e9a 27be 8fb8 283d eba8 80bd
00000240: d055 89bd 6cfa 363d 18a1 123c 92a6 9abd
00000250: 6769 2dbd 423c 77bd e2cb 433d 6143 90bd
00000260: 05e5 f33d c4f4 473d 89a1 05bd 77f0 2b3d
00000270: 10d3 8c3b ff87 eebd adcf dfbc bcd5 803a
00000280: 9e6c 9dbd 74de 9cbc b1d3 78bc 3741 5e3d
00000290: a7a8 2d3c 2b3d 8b3e 2987 973d 1f9f 163a
000002a0: 23cc 4d3d 1504 57bd a704 b53c 3dde 9bbc
000002b0: dae8 c13c 1ead 2abe 2595 9cbd b88f cabc
000002c0: 53c4 b4bd f17a 693c 58f4 37bd fc12 bebd
000002d0: 6271 a73d 1dde 26be d50a 043c 77ba 833d
000002e0: 9517 9c3d c0bb a2bd 162b f73d ad8c 523c
000002f0: cd9a 4abe 6f42 bebd fadc 7f38 2ff4 9fbd
00000300: 59f9 c63d c20a 153d fc37 443d 7c4f 203d
00000310: ec3c 05bd 2379 20bd 3c47 b73d f3bc 1abe
00000320: 626c d7bd b78c 383c e4b2 79bd 9384 0bbb
00000330: 996d 233e 40c1 653d df72 2dbc 413b 1dbd
00000340: 9d9c 01be 7bdd 923d 4894 5ebd ab42 b5bd
00000350: 3736 1b3d 596d 15be 9830 07bd 82cf 79bd
00000360: 7667 46be a976 e53c d075 d13c 1037 2b3d
00000370: 8dbc 2b3c 7993 203d 1abb cf3d 8ecd 333d
00000380: 612a c0bb 0b59 07bd cdcc 543c 12c7 983c
00000390: 6b69 f0bd 9685 a73d 60f5 ee3d c138 15be
000003a0: be95 8ebe 3319 7c3d d1f0 eebc 9e9f 34bb
000003b0: 99a7 7bbd 343e 93bd a501 f3bd d80d f6bd
000003c0: 3d0c 4cbd ffc6 b5bd cf2d 9dbc f672 85bc
000003d0: 7063 76bc 5bf5 a23d 4321 7b3b 9b6c 4b3c
000003e0: acaa 16bd 2dc3 8a3c 6b88 263d 7ab6 4d3d
000003f0: 65d8 4ebd e45c 31bc 0d16 433d 027b dabd
-0.10210193 -0.067269415 -0.016059449 -0.1402168 0.09910233 0.05370286 -0.024089295 0.0012020287
-0.043218713 -0.03930023 -0.093534686 -0.09137014 -0.06586406 0.12236206 0.1386774 0.11547899
-0.100469105 0.01581874 -0.19089127 -0.051168934 0.061263297 0.10105 0.042988703 -0.016846927
-0.045126177 0.21607661 -0.027440624 -0.06615219 -0.045091044 0.021433087 0.00859877 -0.078867756
0.108640276 -0.14719182 0.053172734 -0.029321494 0.095433526 0.04266286 0.08495038 0.038960245
0.07431219 0.009705325 0.093458205 -0.13850608 -0.016281644 0.11810087 -0.12834127 -0.064218715
-0.040934294 -0.09622032 0.038897358 0.1454835 -0.18460198 -0.018355459 0.07617577 -0.10860412
0.016973395 -0.027693538 0.078489184 0.041271698 -0.1475699 -0.046986196 -0.07603258 -0.04034635
0.04997532 0.04867241 -0.008505704 0.06754405 -0.06799435 -0.048680782 -0.07383788 0.032530833
-0.08272942 0.065937944 0.12249842 -0.029820004 -0.09893189 -0.12719811 0.029684346 0.072854765
-0.02372992 -0.03185633 -0.034132294 -0.008214441 -0.10569264 -0.020963073 0.03427536 -0.11169388
-0.026579782 -0.090113245 0.08488796 -0.10717387 0.084455535 0.005893158 -0.10696862 0.008072489
0.02425476 0.056605916 -0.009395146 0.013188618 -0.03332227 -0.18272528 -0.0032394012 -0.20175552
-0.00857535 0.0884716 -0.02509293 -0.092829555 0.005378109 -0.06188515 0.090440266 -0.10195386
0.003133473 -0.024280502 -0.033286113 0.013585001 -0.08504925 -0.06556925 0.123761125 -0.015795369
0.06676709 0.09806484 0.06304509 0.08054058 0.05188767 0.16303122 -0.028553538 -0.1481262
0.05125316 -0.02191175 -0.096351914 -0.051716182 0.06158789 -0.053251486 -0.024258783 0.11093668
0.08714797 -0.03242386 0.091235116 -0.14534844 0.0870478 -0.16367385 0.041191634 -0.062822185
-0.067058206 0.044672415 0.008949541 -0.07551302 -0.042336848 -0.0603602 0.04780186 -0.070441015
0.119089164 0.04881741 -0.032624755 0.041977372 0.0042976215 -0.11647033 -0.027320707 0.0009829323
-0.07686733 -0.019149043 -0.01518719 0.054261412 0.010599292 0.27195105 0.07398827 0.0005745757
0.050243508 -0.052494127 0.022096945 -0.01902687 0.023670603 -0.16667601 -0.076456346 -0.024726734
-0.088265084 0.014250503 -0.04491076 -0.09280965 0.08175923 -0.16295667 0.008059223 0.0643205
0.076216854 -0.07945967 0.12068765 0.0128509225 -0.19785614 -0.09290015 6.1002538e-05 -0.07810246
0.09715528 0.036387213 0.047904953 0.039138302 -0.032528803 -0.039178025 0.08949134 -0.15111141
-0.10518719 0.011264018 -0.06096162 -0.0021288737 0.15959777 0.0560925 -0.010586469 -0.038386587
-0.126574 0.0717115 -0.05434063 -0.088506065 0.0378935 -0.14592494 -0.033005327 -0.06098891
-0.19375405 0.028010683 0.025568873 0.04180056 0.010481966 0.03920314 0.10143109 0.043897204
-0.005864427 -0.033043902 0.012988281 0.018649612 -0.11738857 0.08179776 0.11667895 -0.14572431
-0.2784862 0.06154747 -0.029167565 -0.002756096 -0.06143913 -0.07189599 -0.11865548 -0.12014359
-0.04981636 -0.08875846 -0.019186882 -0.01629017 -0.015038356 0.07956954 0.0038319386 0.01241603
-0.03678386 0.01693877 0.040657442 0.05022285 -0.05049934 -0.0108253695 0.04762845 -0.10667993

actor.0.bias f4 [32]
00000000: b8a1 9cba f4b1 ccba 6f6c 4ebb c465 9439
00000010: dc23 0cba 61ce 61ba 914b a63a c030 2dbb
00000020: 720d 493a b6d7 95ba f3be 903a 2ca2 0339
00000030: 1f42 96ba adcf 633a 3b41 2dbb 03c2 bbba
00000040: 2b97 1bbb 73a4 59bb 96c7 5abb 23fb 2e3b
00000050: 7278 fbba 23e4 bbba 9303 373a 10f8 3839
00000060: aa77 9bba 11e3 6cb9 a44e e3ba 202b b1ba
00000070: 6c81 0fbb ec1a 59bb 5248 53ba 77d3 3d39
-0.0011950051 -0.0015616999 -0.0031497737 0.0002830458 -0.00053459196 -0.00086138217 0.0012687315 -0.0026426762
0.0007669545 -0.0011432085 0.0011043235 0.00012553547 -0.0011463797 0.0008690309 -0.0026436585 -0.0014324788
-0.0023741226 -0.0033209592 -0.0033383123 0.0026699982 -0.0019185676 -0.0014334958 0.00069814286 0.00017640018
-0.0011861224 -0.00022591303 -0.0017342162 -0.001351688 -0.002189721 -0.003312762 -0.0008059788 0.00018103221

actor.2.weight f4 [32, 4, 3, 3]
00000000: 97ae 223e b364 8fbc 767c d73e 6096 5b3d
00000010: a5d6 b03c acde 873e ba5f 64bd af8d d13d
00000020: ab39 61bb 7e22 88bd c884 703e 79c5 c73d
00000030: 9d12 88be 03b1 023e 7f4f 17be 62e1 d0be
00000040: da72 c93e ba1b 833e 61f2 20be a169 47be
00000050: 71dd 303d 8f9c 843e dcd9 ad3d 85dc 6bbe
00000060: f75f 5fbc 0dc7 ecbd 230f 64be 50f5 d43c
00000070: 00a8 0abf 2cf8 a43e 088c 793e 768f 61bd
00000080: 2d29 9fbe cc47 043f 89a5 bfbd 55c1 6bbe
00000090: 08fc 133e c57f 6cbe 32e2 de3c e354 f03d
000000a0: 7c48 27bd 965e 27be a1b6 c03d 49e0 87be
000000b0: 6808 9dbe 10d2 efbe dc39 af3e 7f44 773e
000000c0: 6b85 963e 10b7 aa3c 09af ef3c b60d 223e
000000d0: 093a 853e c600 46be 2be2 a03e b4dc b6be
000000e0: f78f 653e 738e 353e 7659 00bd 5bf2 6abd
000000f0: 0825 75be 509c 103d 885a c7bd 46e4 d7bc
00000100: bfe3 50bb 3947 42be d593 4f3e 803c 1c3f
00000110: 0a27 a9bd 612f 513d 2e5d 533e 4935 ec3e
00000120: 9d2f 99be 6dde a5be ede9 5a3e 8e06 17bc
00000130: 1c86 5a3e 80ce 723e dfa3 fcbd d07c 5c3e
00000140: da10 45be 0742 533d eef4 dabe 776d 31be
00000150: e657 8ebd eb34 d9bb a22d fa3e 251e 0e3e
00000160: a296 60bd be72 1d3e 757e 01be ad11 7d3d
00000170: 36d8 133e 488e 053f f851 b6be e48d 2e3e
00000180: a1e1 87be d784 103e 82c3 e13c f964 ddbe
00000190: 613d ba3c 5f94 abbe 0655 633e 2cda 12be
000001a0: d1ff 19bd 5a95 5b3e 2cd1 d8bd 57e1 713e
000001b0: 208e 32b6 7fed b6be f680 d0bd d49c 82bd
000001c0: e9d4 74bd 3590 90be b644 fc3e 7946 26be
000001d0: ea81 fc3e afb6 383e 9cc2 4a3e b8a3 243e
000001e0: 30ea 2dbd 9eb6 063e 5621 153d bfc6 80be
000001f0: 05ae b4bd 2c56 93be e794 dcbd 8888 efbe
00000200: c56a 25be 474d c53d 8e4c 473d 190f d93d
00000210: 7f21 8dbe 6cd2 9bbe 5dbf c0bd 7b75 a7be
00000220: 72db c23d 0434 11be c056 1e3d 1ec3 16bf
00000230: 1a8e 6cbd 0469 d53c dec2 463e 7419 973d
00000240: 6407 f0bd ed45 bbbd 7ea0 c1be ba83 af3e
00000250: 0694 7b3d 8052 3c3d 226a 123c cea2 b83e
00000260: d767 13be 0342 543e 592a 783d 18d4 6abe
00000270: dcea 92be 3f3a c8be e5a2 633d c673 e3be
00000280: 09ab 933d 78fd a23d 8a6a f8bd c525 bcbe
00000290: cb9c 413e f87e 8abc 9538 de3d 2650 c93d
000002a0: 002f 9b3e d77d 403e 9f1f edbe 1b3d 903e
000002b0: d4b5 613e cd36 9dbd 87b8 c73e bc83 5c3d
000002c0: 0094 713e 851f 46be ae87 7e3e 8c20 213e
000002d0: 28b9 7ebe 5524 013f 6753 023d 1fdb 30be
000002e0: fe6b e93e 2e72 98bd 5a3a 553e c13b 8d3e
000002f0: 5ffa 003d c878 1dbe b6d4 293c c498 c43e
00000300: 3a75 a5bd 59d4 333e f085 bd3e 008c 263e
00000310: c749 423e dc31 0e3e a124 b13b c326 eebe
00000320: 01a3 d73d 8c10 8fbe b433 7dbe f40f a63e
00000330: f431 983e 0cf5 e6be bd3a 493e 35c4 043d
00000340: e9fd 6bbc 848f 9dbd 304c 183e e36a e93d
00000350: 98f0 b13c fb5b 84bd 9658 f7bd b9e3 1cbe
00000360: 3e0c 65be 97e1 09bc 2cab 5b3d b8b5 1f3d
00000370: 8e1a 97ba 8a65 9cbe f04f ca3e 6387 99bc
00000380: fd79 63be c370 15be fda4 1fbe ed7a a3bc
00000390: f87b e13d 6769 7ebe 5549 503d c72f 0ebd
000003a0: e98b fe3d 00cf 63be 956a 6dbd d23e ab3e
000003b0: 748b f33c bf3f 8dbe 5922 2ebe 76d0 af3d
000003c0: 6e3f 8bbe 4f88 c53c ca58 2bbf 2d97 30be
000003d0: 0b0a 01be f225 713e 3cd1 3a3e 146c 8b3c
000003e0: 07e8 c9be 81db c2be 2638 e2be e11e 8dbe
000003f0: f553 00bf a8de 353e 9eec 72be 084e 5cbe
0.15886913 -0.017504072 0.42087144 0.053610206 0.021586725 0.26537073 -0.055755354 0.10232102
-0.0034366648 -0.06647204 0.23488152 0.09754462 -0.265767 0.12762837 -0.14776419 -0.40796953
0.39345437 0.2560709 -0.1571746 -0.19473888 0.043179933 0.25900695 0.08488819 -0.2303334
-0.01363372 -0.115614034 -0.22271399 0.02599588 -0.541626 0.3222059 0.24369824 -0.055068456
-0.31086102 0.51672053 -0.09357745 -0.23022969 0.14451611 -0.23095615 0.027207468 0.11734941
-0.04084061 -0.16344675 0.09409834 -0.26538303 -0.30670476 -0.46839952 0.3422383 0.24147223
0.29398665 0.020839244 0.029258268 0.15825543 0.2602084 -0.19336233 0.31422552 -0.35715258
0.224182 0.17730121 -0.031335317 -0.057360034 -0.23939908 0.03530532 -0.09734064 -0.026353966
-0.0031874029 -0.18972482 0.20271237 0.61029816 -0.08259399 0.051070575 0.20641014 0.46134403
-0.2991914 -0.3239626 0.21378298 -0.009217871 0.21340221 0.23711586 -0.123359434 0.21531987
-0.1924471 0.05157664 -0.42764992 -0.17326914 -0.06950359 -0.0066286228 0.4886294 0.13878687
-0.054831155 0.15375802 -0.12645896 0.061784435 0.14437947 0.5217023 -0.35609412 0.17046314
-0.2653933 0.14113174 0.027559046 -0.432411 0.022734346 -0.33511636 0.22200403 -0.14341038
-0.03759748 0.21443692 -0.10586771 0.23621117 -2.6606795e-06 -0.3572807 -0.10180847 -0.06377569
-0.05977336 -0.2823502 0.49271172 -0.1623782 0.49317867 0.18038438 0.198008 0.16078079
-0.042459667 0.131556 0.036408745 -0.2515163 -0.08822254 -0.2877668 -0.10770588 -0.46783853
-0.1615401 0.0963388 0.048656993 0.10598583 -0.27564618 -0.30433977 -0.094115 -0.32706818
0.09514512 -0.14179999 0.03865695 -0.58891475 -0.057752706 0.026051052 0.19410273 0.07377902
-0.1172016 -0.09144197 -0.37817758 0.34280187 0.061420463 0.045977116 0.008936437 0.3606171
-0.1439508 0.20728306 0.06058726 -0.2293247 -0.28694808 -0.39106938 0.05557527 -0.44424266
0.07210357 0.079585016 -0.12129696 -0.36747566 0.18907468 -0.016906247 0.10850636 0.0982974
0.30309296 0.18798004 -0.46313187 0.2817162 0.22042018 -0.07676468 0.3900797 0.05383657
0.23591614 -0.19347961 0.24856445 0.15735072 -0.24875319 0.50446063 0.03181782 -0.17271088
0.45590204 -0.07443653 0.2082304 0.2758465 0.031488772 -0.15378106 0.010365656 0.383978
-0.08079 0.17561473 0.3701625 0.16264343 0.18973456 0.13886207 0.005405978 -0.46513948
0.105291374 -0.27942312 -0.24726754 0.32434046 0.2972561 -0.4510883 0.19651313 0.03241368
-0.014403799 -0.07693389 0.14872813 0.1139734 0.02172117 -0.064628564 -0.12077443 -0.15321244
-0.22367951 -0.008415601 0.05363004 0.03899166 -0.00115283 -0.30546218 0.39514112 -0.018741315
-0.22214504 -0.14593796 -0.15590282 -0.019956077 0.11009973 -0.24844895 0.050851185 -0.034713533
0.124290295 -0.22246933 -0.057962973 0.33446366 0.029729582 -0.27587697 -0.1700529 0.08584683
-0.2719683 0.024112849 -0.66932356 -0.17245169 -0.12601487 0.23549631 0.18243879 0.01701931
-0.39434835 -0.38058093 -0.44183463 -0.2756262 -0.5012811 0.17760718 -0.23723075 -0.21514142

actor.2.bias f4 [4]
00000000: b6bc bb3a 8cae b23a 6fb0 81ba a9cb 00bb
0.0014323208 0.0013632341 -0.00098945 -0.001965264

critic.1.weight f4 [128, 1024]
00000000: 6085 0bba 3d59 47bd 9038 2ebc e503 38bd
00000010: c6ed c9bc 30e3 0fbd 93af d1bd d7d0 29bd
00000020: 62ff 9b3b 2706 84bc 582d 4d3c fcbc 853d
00000030: cc08 213c 5d0a 14be 8c54 423d 3376 19bc
00000040: 3133 03bc b010 5cbd 2c7c 8fbc 251e b63c
00000050: 89b1 d73b ec42 c2bd 4fe4 0bbd a754 353b
00000060: abe0 a53d bbe5 053d 61c5 0a3d 54e6 66bc
00000070: 76bf 14bd 2d41 17bd 8e8e 14bd dbd4 103d
00000080: 1066 26bd f6b4 acbc b4e8 74bc 168f 9a3d
00000090: 052d a63d c31e ae3c 7be3 9b3d 539b 37bd
000000a0: 3d90 efbc eec0 d7bb 83c5 963c cf12 483c
000000b0: 52af 933d 0f34 b3bd e1db 4b3d 2b3d 87bb
000000c0: 6c0c 23bd 2187 3bbd a6a5 303d 1413 e4bc
000000d0: f921 943c 4027 c8bd ea46 d53c 8bc0 c0bc
000000e0: dab6 3ebc 9292 b3bc 3fb7 5a3d 20d1 05bb
000000f0: 9e5b 883d bca2 1ebd 6089 63bd bc98 be3c
00000100: f3fc 603b 1bc9 743d 762c 01bd a46f e9bc
00000110: 11ed 063c 4dbc 48bd aebe 1e3c dd4a 943b
00000120: 49d6 cb3c fca9 6fbb f50e c3bd c536 c7bc
00000130: 5f7a f3bc e88a 303a c6c2 0ebd 367c 39bd
00000140: 8492 1abd 4405 f63c 3d25 933d 14c1 1fbd
00000150: 951e 963d 1d41 4d3d ab3d 64bd 9a26 8dbd
00000160: 9f81 79bc 3bb9 48bd c3db 59bd 59f4 0a39
00000170: aeaa b9bd baf7 a1bd 7a64 4d3d f5a5 46bd
00000180: 5eef 9abb effd 603c 7cdd 57bd 3235 abba
00000190: 385e 8d3c 7d5d c7bc d3d4 303d e922 3dbd
000001a0: 9051 0ebd 6577 0cbd 2dd0 5a3d cf57 893d
000001b0: 4093 7c3d d779 bfbc ff7c 1ebc d9fa dbbc
000001c0: 7bc7 0d3c 9a9f e3bc 6769 99bd b0a8 793c
000001d0: d006 1ebc 0377 3ebb 8e76 22bc ff71 6b3c
000001e0: a693 2d3d cafd d3bc f5d3 16bc a8f9 813c
000001f0: a66d ca3c 962d c03c 5691 c5bb b687 893d
00000200: b582 1ebd c63a cb3a 6093 cd3c 38cf 8b3d
00000210: c116 26bd 53f2 a43c d8d9 48bb 68e7 b63b
00000220: 1137 363d 0895 6f3d 503a 873d 97e9 b1bd
00000230: 2646 ab3c 7037 76bc 599d f4bc 5a5f 5a3d
00000240: f4bc 8fbc 4eb3 12bc c5cd 2e3d 521f e53d
00000250: 9824 f73c 414b 37bd 90c8 54bb eda5 313c
00000260: 6f56 2ebd 3817 cbbd a7e4 04bd d6ec cabc
00000270: 121e 643d 8fee 03bd 84eb 8bbd 855e 86bc
00000280: c9dc 99bb 4811 9a3d 20df 9fbc c03c 253b
00000290: 07c5 86bd 1be8 53bd 6871 af3d a9ad 623d
000002a0: e61c 15bc 0833 febc 3d92 a33d 4a43 0bbd
000002b0: c502 1f3d 22e7 813d a7ab 54bc eaba 203b
000002c0: c559 153d 0595 7fbd 6362 da3d 051d 95bd
000002d0: 9ace 303d 651d c93c efc5 6fbb 9fdb b43b
000002e0: b2c4 0bbd 4cef 093c 9c2d 953c 375b 10bd
000002f0: 44a6 213c f96e 79ba 19f4 e33c 7ce0 8ebd
00000300: 9124 ba3c 11ae b83c 8ac9 a83c d3bd 89bc
00000310: d73a 0a3d d575 a3bd da93 5a3c bd41 0abb
00000320: 896c 0fbd 909f 413d 0b07 a53d 4b9d 1c3a
00000330: df38 983d bbf9 1ebd ca16 a8bc fba6 05bd
00000340: 5449 3d3d 5bd1 823c b151 b7bd 19a4 4f3d
00000350: 231f 543d e983 fc3c 6c00 223c 53a0 963d
00000360: 419d d53c 2e17 5f3d 6a16 e63c 834f e63c
00000370: 0f8b 5cbd dd71 9a3c 6cfa f6bc e1a1 8abd
00000380: bf7b 28bd ca38 db3c f4c8 59bc 129a 40bc
00000390: a2bb a4bc 8184 6f3b 9872 453d 6a2b 08bc
000003a0: 2ee6 993b e2a2 b93d 1e42 5e3d cf4c 81bd
000003b0: 8f28 173d 2155 cbbd 94fc 69bd d975 08bd
000003c0: 501e 803d b518 a0bd 8502 2abd 8c9f 5fbd
000003d0: 54c1 7e3d ae35 133d a9aa 453d e2a9 bfbd
000003e0: c546 50bd c0a6 dbbc 3c26 fa3b 82a0 653d
000003f0: c80b f3bc 41d8 203d 4b5c 0a3d 909d e13b
-0.00053223036 -0.04866909 -0.010633603 -0.04492559 -0.024649512 -0.035128772 -0.10238566 -0.04145893
0.0047606686 -0.016116215 0.012523018 0.065301865 0.0098287575 -0.14457078 0.04744391 -0.00936656
-0.00800781 -0.053726852 -0.017515264 0.02223117 0.006582443 -0.094854206 -0.03415328 0.0027668865
0.08099493 0.03268979 0.03387964 -0.014093 -0.036315404 -0.03692739 -0.036268763 0.035359245
-0.040624678 -0.021082383 -0.014948059 0.07546823 0.081140555 0.021254903 0.07611748 -0.044825863
-0.029243583 -0.0065842783 0.018404728 0.012211516 0.07211174 -0.08750164 0.04977024 -0.004127165
-0.03980677 -0.045783166 0.043126725 -0.027841128 0.018082606 -0.09773111 0.026034791 -0.023529312
-0.011640275 -0.021920476 0.053397413 -0.0020418838 0.066580996 -0.038729414 -0.055550933 0.023266189
0.0034330457 0.0597621 -0.031536542 -0.028495617 0.008235232 -0.049007703 0.009689016 0.004525526
0.024882453 -0.0036569824 -0.09524337 -0.024318108 -0.029721437 0.0006734566 -0.03485372 -0.045284472
-0.037737384 0.030031808 0.07184837 -0.039002493 0.07330052 0.050110925 -0.055722874 -0.06892128
-0.015228658 -0.049004775 -0.053188097 0.00013251732 -0.09065758 -0.07908578 0.05014465 -0.048498113
-0.004728242 0.0137324175 -0.05270146 -0.0013062118 0.017256841 -0.02433657 0.043171715 -0.04617587
-0.034745753 -0.03429355 0.05342119 0.06706201 0.061663866 -0.023373527 -0.009673356 -0.026853012
0.008653517 -0.027786065 -0.07490807 0.015237972 -0.009645179 -0.0029062636 -0.009915961 0.0143704405
0.042377137 -0.025877852 -0.009205808 0.015866116 0.024710488 0.023459237 -0.0060292883 0.06715338
-0.03869887 0.0015505187 0.025094688 0.06826633 -0.040549044 0.02013508 -0.0030647423 0.005581785
0.04448611 0.058491737 0.06602919 -0.08687132 0.020907473 -0.015027866 -0.029860185 0.05331359
-0.017546155 -0.008953882 0.042676706 0.111876145 0.030168816 -0.044749502 -0.0032468177 0.010842782
-0.0425629 -0.09916538 -0.032444622 -0.024771135 0.05569274 -0.03220993 -0.068320304 -0.016402492
-0.004695509 0.075228274 -0.019515574 0.0025213212 -0.06580549 -0.051735025 0.085665524 0.055341396
-0.009101128 -0.031030193 0.07986877 -0.03399972 0.038821 0.06342913 -0.012980378 0.0024525472
0.036462564 -0.062397975 0.10663297 -0.07280926 0.04316578 0.02455015 -0.0036586483 0.005519345
-0.03412313 0.008418869 0.018210225 -0.03524324 0.009866301 -0.00095151324 0.027826356 -0.06976411
0.022722514 0.022543939 0.020603914 -0.016814148 0.03374752 -0.07981459 0.013340915 -0.0021096312
-0.035015617 0.04727131 0.08057984 0.0005974366 0.07432722 -0.03881238 -0.02051868 -0.032629948
0.04621251 0.01596897 -0.08951128 0.050693605 0.051787507 0.030824618 0.009887796 0.07354798
0.026075961 0.054465465 0.02808686 0.028114086 -0.053843554 0.018853122 -0.030148707 -0.06769157
-0.04113364 0.026760478 -0.01329254 -0.011755483 -0.020109002 0.0036547484 0.04820499 -0.008311132
0.004696629 0.090642706 0.054262273 -0.06313478 0.036903914 -0.099283464 -0.057125643 -0.033315513
0.06255782 -0.078172125 -0.04150631 -0.054595515 0.06219609 0.035939865 0.048258457 -0.093585745
-0.05084874 -0.026812911 0.0076339524 0.056061275 -0.029668704 0.039268736 0.033779424 0.006885238

critic.1.bias f4 [128]
00000000: 0a1f 9137 2c4c b538 18f8 bb37 0000 0000
00000010: d086 8437 1ccd d0b7 f254 dcb9 20f6 8836
00000020: e8fe c9b8 ecf5 bfb7 00d3 c837 86e0 9436
00000030: 0000 0000 c2bf 2b38 0000 0000 fe0d 77b9
00000040: a6a3 6638 01d2 51b9 8b9e 9eb8 c2fe 552f
00000050: a253 ac38 0000 0000 0000 0000 a6ac cbb8
00000060: e60d 12b8 c45f b237 0000 0000 e311 d739
00000070: e22c 77b8 f2bd a838 63fd 1bb7 18d3 0738
00000080: 009b e4b1 bc42 9837 5e50 2138 6425 e038
00000090: 50b2 6db7 0000 0000 f489 2fb9 8c94 c538
000000a0: e5a2 67b7 285c 88b7 ee0d a337 0000 0000
000000b0: 0000 0000 0000 0000 a58c 9cb9 86c7 9eb8
000000c0: 71db 9638 5df0 e3b8 cfc6 8533 34b2 6039
000000d0: 0882 71b8 fcda d9b9 c0a2 b337 ec32 1439
000000e0: 8a90 2339 0000 0000 64fc 8cb7 20fc 6236
000000f0: e7d3 33b9 0a9b 8538 0000 0000 f668 dbb8
00000100: 50a7 20b8 0000 0000 3639 d2b8 0000 0000
00000110: 0000 0000 0c47 28b9 0000 0000 f4b1 7137
00000120: f2bb c1b8 a25a 86b7 5255 9937 0000 0000
00000130: fe0d bbb8 0000 0000 14f7 b938 b802 8037
00000140: 384f d2b6 a899 6238 0000 0000 0000 0000
00000150: 0000 0000 f7e7 a9b9 0700 a5b8 0000 0000
00000160: 0000 0000 3006 3eb7 4c40 d0b9 1d0a b9b8
00000170: a01e 9438 8a08 fd38 0000 0000 2254 0639
00000180: 02b0 1239 5142 e5b8 0000 0000 bba5 1a39
00000190: 2a33 4a38 a6e4 9238 2c41 1ab8 0000 0000
000001a0: 0000 0000 8022 04b5 6979 b6b8 64c9 bd37
000001b0: 7047 9c37 6963 b638 0000 0000 d146 8c38
000001c0: 8e5c 73b8 9053 ceb8 0000 0000 780b 93b7
000001d0: 0000 0000 622f c0b8 0000 0000 08dd d8b9
000001e0: eeeb bdb7 1f2e 9338 5809 8bb8 ce0a d3b8
000001f0: 78ea 0e38 de8c 6538 468e 25b9 804c 4db7
1.72998e-05 8.644941e-05 2.2407665e-05 0.0 1.5798403e-05 -2.4891044e-05 -0.0004202496 4.0817686e-06
-9.631907e-05 -2.288349e-05 2.3940112e-05 4.4368817e-06 0.0 4.0948165e-05 0.0 -0.00023560968
5.4988683e-05 -0.00020010026 -7.563558e-05 1.9462745e-10 8.217177e-05 0.0 0.0 -9.7119526e-05
-3.4822056e-05 2.1263848e-05 0.0 0.00041021322 -5.893119e-05 8.046244e-05 -9.297716e-06 3.2383105e-05
-6.653295e-09 1.8150888e-05 3.846024e-05 0.00010688117 -1.4167817e-05 0.0 -0.00016740692 9.421361e-05
-1.38066e-05 -1.6255377e-05 1.94376e-05 0.0 0.0 0.0 -0.00029859427 -7.571191e-05
7.1934315e-05 -0.00010868975 6.229458e-08 0.0002142869 -5.757998e-05 -0.0004155262 2.141425e-05 0.0001413335
0.00015598736 0.0 -1.6806829e-05 3.382338e-06 -0.0001714971 6.3708125e-05 0.0 -0.00010462284
-3.8302795e-05 0.0 -0.00010024237 0.0 0.0 -0.00016048196 0.0 1.4406152e-05
-9.237965e-05 -1.6016249e-05 1.8278752e-05 0.0 -8.919461e-05 0.0 8.867509e-05 1.5260055e-05
-6.26771e-06 5.4025702e-05 0.0 0.0 0.0 -0.0003240702 -7.867818e-05 0.0
0.0 -1.1326323e-05 -0.00039720756 -8.823371e-05 7.062894e-05 0.000120655706 0.0 0.00012810578
0.00013989213 -0.00010931923 0.0 0.00014748324 4.8208203e-05 7.0044116e-05 -3.6777157e-05 0.0
0.0 -4.9224036e-07 -8.701051e-05 2.2624336e-05 1.8629915e-05 8.696953e-05 0.0 6.688911e-05
-5.8021913e-05 -9.83841e-05 0.0 -1.7529106e-05 0.0 -9.164099e-05 0.0 -0.00041363412
-2.2640419e-05 7.018097e-05 -6.629777e-05 -0.000100632766 3.4073804e-05 5.4729047e-05 -0.00015788627 -1.2236764e-05

critic.3.weight f4 [1, 128]
00000000: 3d84 a03d 9b8f 183b 3f15 88bd 0ff1 35be
00000010: 436b 7abd 8eb3 0bbd 3e75 f53d 0b77 3d3d
00000020: ce53 0abc a9da 873d a444 8abd f0d5 463b
00000030: be92 2ebc c45d e5bd ba7e 253e f91e 573e
00000040: f394 c7bd 0963 6bbd 7b95 f83d da8e 003b
00000050: b05e 183c c1a8 573b e765 e3bc d386 4cbb
00000060: 0618 edbc f57d 443d c029 f6bc 39ec 89bd
00000070: 310c 0f3e ab54 03be 49e1 863d 39af 99bd
00000080: 65c1 423d 43f7 80bd 1ab4 cb3d 0f7b 2bbd
00000090: 459b 833d 0fe0 4e3d d3c0 f9bc eb3b 17be
000000a0: dfae bf3c 0dab 773d c887 b73d cc98 b9bc
000000b0: aad9 e9bd 6ed9 573d 6939 bf3d 6dda f83d
000000c0: 410d 513c a76a 2e3e 885a 943d 9e22 16bd
000000d0: 5da3 62bd a9a4 3b3e ad5c 86bd ecce 453d
000000e0: 87ad 4e3d dde4 3b3e afa8 7b3d e26d 54bd
000000f0: 6f8d ae3d 25f0 3e3d e8de 153e 5ac3 87bc
00000100: 6ecc ab3d aa43 edbd 54e1 12bc aa9d 0f3e
00000110: 822b 7e3c 1514 4d3e 5766 babc 361d 7ebd
00000120: b233 80bc 7f0d 6abc 2c18 d9bb 09df 973d
00000130: d568 78bb 0030 a23d ab7c 06bc e5b8 78bd
00000140: 1f85 2e3e f68b c5bd 8d94 483d d534 333d
00000150: 6c52 96bd f6f0 0bbe f8da 35bc 8500 313d
00000160: 8b2e 143c a72d 6a3d 6326 2bbe 9904 00bd
00000170: abbe 383d 6924 44be cff2 653d fae6 68be
00000180: f909 20be 521b b9bd a83e 3f3d e5c6 203d
00000190: 6524 68bd 637e 193e 8e05 a13d c9c3 b8bd
000001a0: 970c 21bd f7ff 05be 2c85 0c3e d444 89bd
000001b0: 76da 81bd 0f70 f83c 13e5 f2bc db4d 6f3c
000001c0: ee69 cd3d e31c 39bb 642d 52bc 3a43 7e3d
000001d0: 51bd 46bd c3d4 123e db7a 863d c84b aa3d
000001e0: 3871 1c3d 01e9 f2bd 4efa e03d 24f4 db3c
000001f0: 2cd9 9cbd cfa3 1ebd 07c5 23bd 1876 6a3d
0.078377225 0.0023278955 -0.06644677 -0.17767738 -0.06113745 -0.034106784 0.11985253 0.046256106
-0.008442832 0.06633503 -0.067513734 0.003033992 -0.010655103 -0.11199525 0.16161624 0.21007909
-0.09745207 -0.057467494 0.12137886 0.0019616396 0.009299919 0.0032906982 -0.027758552 -0.0031208291
-0.02894212 0.047971684 -0.030049205 -0.06734509 0.13969494 -0.12825267 0.065859385 -0.07504124
0.047547717 -0.062971614 0.09946461 -0.041865405 0.064261 0.050506648 -0.030487454 -0.1476895
0.023398815 0.06046586 0.08961445 -0.022655867 -0.11418469 0.05269759 0.09337122 0.121510364
0.012759508 0.17032872 0.0724383 -0.036654107 -0.055331577 0.18324532 -0.06560645 0.04829304
0.050458457 0.18349023 0.061440166 -0.051862605 0.0852307 0.04661574 0.14635813 -0.016572643
0.08388601 -0.115851715 -0.008964855 0.14024988 0.015513303 0.20027192 -0.022753878 -0.062039576
-0.01564965 -0.014285444 -0.006625196 0.074155875 -0.0037904282 0.079193115 -0.008208434 -0.060723204
0.17042969 -0.09645836 0.048969794 0.043751556 -0.073399395 -0.13666138 -0.0110995695 0.043213386
0.0090443 0.057172444 -0.16713862 -0.031254385 0.04510371 -0.19154514 0.056139763 -0.2274436
-0.15628804 -0.09038414 0.046690613 0.03925218 -0.056675334 0.14989619 0.078623876 -0.09021718
-0.039318647 -0.13085924 0.13722676 -0.06702581 -0.06340496 0.030326871 -0.029650247 0.0146059645
0.1002997 -0.0028245978 -0.012828205 0.06207583 -0.04852039 0.14338975 0.065664016 0.083152354
0.03819391 -0.11860848 0.10985242 0.026849814 -0.0765861 -0.03873044 -0.03998282 0.05724153
