experiments/ppo_hrl/models/MicroRTSGridModeVecEnv__ppo_utils__1__1721366908/4096/move.pt (torch, 802531 bytes, 11 tensors)

encoder.1.weight f4 [32, 30, 3, 3]
00000000: 239a 1b3d 628f abbc da95 303d 3d05 05bd
00000010: 4f0c 2cbd 875c d5bd 2309 5cbc 992d 0cbe
00000020: bd32 9d3c 7563 1d3e 6fa1 4abe 2941 46bd
00000030: 3bb7 063e a7bd 68bd 6c01 2a3d ebb1 173e
00000040: 6c10 12bc f5c4 b3bd 305d b23c b152 8dbd
00000050: c975 243e 7f1c 09bd a675 dc3d 5b5b dd3d
00000060: c30e 783d 6567 f6bd 2dfa 6fbd 6c94 31bd
00000070: 0903 16bd 709b 90bd dd64 17bd a33b 103d
00000080: e664 d83c c26e 333d edab 203d 3910 27bd
00000090: 5bcd b03d 00b9 333e f767 7dbd b058 9cbc
000000a0: faa2 d03d d4f8 db3d 25cf 06be b10a 123d
000000b0: 62cc a83c 05c1 01bd ab68 e4bd 36de 893b
000000c0: 5691 5bbc f682 da3b eca2 c73d f945 193c
000000d0: 645a 7c3d 647a edbd 8a9d d1bd c3f2 4c3d
000000e0: c050 a7bc 5734 c8bd d8df 0dbe 7df4 6abd
000000f0: c659 8abd f070 bcbd f444 04be f68f eabb
00000100: da6a 563c 6b5a e8bd 83d1 fb3d 92e9 9a3d
00000110: 62a5 b13d 0f72 583d f52a 16be 0bc5 633e
00000120: 54c1 4039 b695 a1bd e83e f7bc 61f2 533c
00000130: fbef 48bd a891 30bd 3b65 e03d 32f6 5e3d
00000140: 0340 dbbb 4e28 45bc 7b94 c83d 7de2 7e3d
00000150: 7d3a d4bd 2a44 28be f567 b5bd 30cf 76bd
00000160: 15bf cdbc 5dd8 873d b556 073e 1ae8 a8bc
00000170: e700 f9bd 0103 e5bd ca59 a53c fed2 023e
00000180: dac2 833d c22a bf3d 9231 543d 2570 1a3e
00000190: 12dd 90bc 7a2e 923d 8c71 d0bd c538 52bd
000001a0: 2965 bb3d 0f25 13be bea2 f8bc bdc7 f73d
000001b0: 3787 a83c ed68 18bc e496 833d 01b8 4abd
000001c0: 1bca 4ebb a53f 823c c19f 973d 7be2 503d
000001d0: 55be 14be 2e07 10bd 312d 5bbd c2ef cdbd
000001e0: bd62 1d3d b0a4 54bd 70a0 c83b a3b4 213c
000001f0: d046 a9bd 1127 67bd 5cc6 7ebb 2a3d 05be
00000200: eded d33a 7394 2e3e aeaf a1bc 1423 b0bd
00000210: 2422 ffbd b9f0 dbbd c3d6 a63c 8a4c 0ebe
00000220: b359 21be 7fc0 76bd c7fd 583d 11d4 03bd
00000230: dfb1 f0bd 5805 0f3d 477b 5b3e ef6c 29bc
00000240: 7ba5 e13c a807 03be d4dd 4fbd 9fc9 96bc
00000250: ae6c 12be 74c2 313d b47f 533d 7927 e8bb
00000260: 978b 4b3d f25d 403d af1d c33c ff25 63bb
00000270: bf3e 55be 8dec 3a3d 9680 4e3c 84b3 073d
00000280: 1619 32bd ff0e 85bd 0202 87bd 3b5f 94bd
00000290: 6628 cc3d 7ce8 96bd 2860 d5bd a4e0 743e
000002a0: 0bba f7bd 8f92 3dbd ac7a fe3b 3f02 9fbd
000002b0: 817b a1bd 9b28 bf3a 2812 e9bd 8c3b 0abe
000002c0: d06b 553d 03cd c23b 4076 b6bd 9e81 1c3d
000002d0: 72fa d53d e0c1 c4bd aaeb 57bd 5c62 723d
000002e0: b92f 0b3e 4450 19bd 74e7 9cbd 3be2 f3bc
000002f0: bf98 a23d ebc8 40bd 1136 81bd 0f28 963d
00000300: 553a 103d a35b 073d 526a 783d 8d03 073c
00000310: 0c7b 3a3d d3b5 4e3c f2db 0bbe 9276 243d
00000320: 95ef c53d 9d16 4b3c 7a54 353c aaa1 0bbd
00000330: 0c21 193e 4f79 85bc d90c d3bb 9802 ebbc
00000340: a89c be3d d6a3 6d3e 8c55 1f3d 00a6 b73c
00000350: 3526 fbbc 41f3 d6b9 16a6 51bd fb8d b3bd
00000360: d1ab 0abd a396 e03d 0039 fabd 2204 03be
00000370: 4694 fc3d ed88 d3bd c174 17be 5783 32be
00000380: b40e 75bd 6814 c53d 1d9e 423d dd9a e3bc
00000390: 259d b53a 8e4e 283e fa97 80bd bf0c ebbc
000003a0: 53d8 d43d 7403 62bc fa87 61bd 0345 513d
000003b0: 5fce 0f3e 3be0 9bbd 8f7e 683c 04d5 5b3c
000003c0: 1525 9cbc 3bf6 06be 61d6 2abd ad44 9c3d
000003d0: 4b8e bb3d 5036 3e3d e46a a3bd de52 623d
000003e0: 7772 1e3e ca64 f03d 1399 63bc 549c 66bd
000003f0: e74a 4abe 0101 183e 4e93 5abd 03f5 00bd
0.037988793 -0.020942394 0.04311166 -0.0324757 -0.042003926 -0.10418039 -0.013429913 -0.13689269
0.019189233 0.15369971 -0.19788145 -0.048401985 0.13155834 -0.05682149 0.041505262 0.14813964
-0.008915048 -0.08777801 0.02177295 -0.06900538 0.16060556 -0.03347444 0.10764627 0.1080844
0.060560953 -0.1203144 -0.058588196 -0.043354437 -0.03662399 -0.07060897 -0.036961425 0.035213124
0.0264153 0.0438068 0.03922646 -0.040786956 0.086329184 0.1755104 -0.061866727 -0.019085258
0.10187335 0.107408196 -0.13164957 0.035654727 0.02060527 -0.03167822 -0.11152776 0.004207398
-0.01340135 0.006668444 0.09747872 0.009355062 0.06160964 -0.1159561 -0.10235126 0.050036203
-0.020424247 -0.09775608 -0.13854921 -0.05736207 -0.06755404 -0.092012286 -0.12916929 -0.0071582748
0.013086999 -0.11345371 0.122958206 0.07564081 0.086741224 0.05284315 -0.14664824 0.22243135
0.00018382567 -0.07889883 -0.030181363 0.012936206 -0.04905699 -0.04310766 0.10956808 0.05443401
-0.0066909804 -0.012033535 0.097939454 0.062227715 -0.10362718 -0.16432253 -0.08857719 -0.060256183
-0.02511553 0.06633065 0.1321667 -0.020618487 -0.12158375 -0.111822136 0.020184416 0.127758
0.06433649 0.09334327 0.051805086 0.15081842 -0.01768354 0.07137771 -0.10177907 -0.05132367
0.09150154 -0.14369605 -0.030351039 0.12098644 0.020572288 -0.00930236 0.064252645 -0.049491886
-0.003155357 0.015899489 0.074035175 0.05099724 -0.14525731 -0.035163097 -0.053509895 -0.10055496
0.038424242 -0.05191487 0.0061226413 0.009869727 -0.082654595 -0.05643374 -0.0038875556 -0.13011613
0.001616893 0.17048816 -0.01973709 -0.086004406 -0.12457684 -0.107392736 0.020366078 -0.13896385
-0.15756874 -0.060242172 0.052976396 -0.032184664 -0.11752676 0.034917206 0.21433745 -0.010340913
0.027544728 -0.1279589 -0.05074866 -0.018406687 -0.1429927 0.043398336 0.05163546 -0.0070847836
0.04969367 0.046964593 0.023817865 -0.0034660099 -0.20824717 0.04563575 0.012603899 0.033130184
-0.043480955 -0.06497001 -0.0659218 -0.07244726 0.09968643 -0.073685616 -0.10418731 0.23913819
-0.12096032 -0.046282347 0.0077660885 -0.077641 -0.078848846 0.0014584245 -0.11380416 -0.13499278
0.05210477 0.0059448495 -0.08909273 0.03820955 0.10448159 -0.09607291 -0.05271498 0.059175834
0.13592423 -0.037430063 -0.07661334 -0.029770961 0.0793929 -0.04706661 -0.063091405 0.07331859
0.03521188 0.033046376 0.06064827 0.008240593 0.045527503 0.012616592 -0.13658121 0.04015214
0.09664837 0.012395528 0.011067504 -0.03408972 0.14954013 -0.016293196 -0.0064407405 -0.02868776
0.093072236 0.2320703 0.038899943 0.022418022 -0.030657867 -0.000409985 -0.051183783 -0.08767315
-0.033855263 0.10966232 -0.12217903 -0.12794545 0.123329684 -0.10328851 -0.14790632 -0.17432915
-0.059828475 0.09623033 0.04751407 -0.027783806 0.0013856037 0.16436216 -0.06278987 -0.028692601
0.10392823 -0.013794769 -0.055061318 0.051091205 0.14043568 -0.07611128 0.01419033 0.013417486
-0.01906065 -0.13179867 -0.041708354 0.07630286 0.091579996 0.046438515 -0.07979372 0.05525481
0.15473352 0.11737974 -0.013891476 -0.05630143 -0.19755135 0.14844133 -0.053363137 -0.03148366

encoder.1.bias f4 [32]
00000000: 0cd1 ceba 95e9 57ba c3a3 d2b9 62a4 fb3a
00000010: 72dc bf3a 1fb6 c2b9 0365 54ba aa56 18ba
00000020: 66e5 a43a 0e28 053a 788b bfb8 68e6 0638
00000030: 6f31 1a3a da13 1dba 2d0d 78b9 e8c5 2c3a
00000040: eea7 fa39 08e2 fab9 d958 81b9 9f02 3bba
00000050: e07a 2abb 50d2 e8ba 56cb eb3a 63f2 d53a
00000060: a911 9039 5304 88b9 465c 91b9 a6b8 e8b9
00000070: af89 92b9 625f 8a37 0c63 98ba fa4d 96ba
-0.0015778854 -0.00082364056 -0.00040176333 0.001919877 0.0014637841 -0.00037138254 -0.000810221 -0.0005811254
0.0012580573 0.0005079516 -9.133568e-05 3.2162672e-05 0.0005882 -0.0005992033 -0.00023656031 0.00065907696
0.00047808833 -0.00047852122 -0.00024670994 -0.00071338745 -0.002601318 -0.0017762873 0.0017989676 0.0016322847
0.00027478978 -0.00025943163 -0.00027725304 -0.00044388062 -0.00027949872 1.6495298e-05 -0.0011626198 -0.0011467331

encoder.4.weight f4 [64, 32, 3, 3]
00000000: d570 1c3b 0f94 ad3d 2502 c43d 4f95 af3d
00000010: f26d 1c3e fe40 b23c 6785 c3bd 482d d73d
00000020: 6558 673d e753 363c 9a17 f8bd 27b8 bebd
00000030: 3ed0 db3c 58a4 4a3d 4d7c e53a cac2 aabd
00000040: 9391 93ba 0865 963d b9c3 ab3d 24ba 3f3d
00000050: 35bd 5e3d 8997 acbd a50d f13c 35b1 013e
00000060: 0d31 bd3d 3232 c23d 5d0b c83d f9d5 20bd
00000070: 5a0e ce3d 086d c7bd d80c 97bd 1123 b2bd
00000080: 765b bcbd 5ea4 a63d 292d 0b3e 2129 ed3c
00000090: ea32 b63d c2a5 c13c dc88 633d 1f9e a03c
000000a0: dcd4 143d 0d59 ad3d bd3e adbd 26d7 44bd
000000b0: de55 4ebd 7ebd 86bd 8747 993c 8bff 97bd
000000c0: e2d6 6b3e c480 dc3d c241 0d3d 766f e23c
000000d0: b6db fabd 5b58 31bd 581e 693c da75 893d
000000e0: b64d 53bd 7a9a a13d c7a9 c33b e6c1 6ebd
000000f0: c4b8 e0bd a09c 0cbd 5440 a9bd af84 7fbd
00000100: b01e 9abd 398a 07bd 7f51 82bc 2690 1ebd
00000110: 7981 69bd 246b 883d 07d7 edbd 4dc2 6d3c
00000120: 8a70 97bd 55ad 733d c528 873c 8949 8e3b
00000130: 87ef 1f3e e411 983d f626 33be 9e93 ac3c
00000140: ce53 38bc 3209 6dbd ee2f 2d3e 84d2 39bc
00000150: 535c d73d 7487 303d ff18 f63d 13e6 0f3e
00000160: 0033 093d 00ab dabd 64e2 7dbc 4f5e 3c3e
00000170: c233 e7bc 9b9b e8bb 7727 953c 55eb 2b3d
00000180: e231 cbbd 95d1 e33d b14e 99bc e73a f93c
00000190: e9e1 063d d158 6dbd cd47 b3bd cccf f6bc
000001a0: 0ee5 703b 4654 76bd fb8e cc3c fb46 acbd
000001b0: 2b07 b43a aa2e febd f5c9 b4bd f166 27bc
000001c0: ecba 213d a437 efbc 000e 573d d59f a23a
000001d0: fa7d f6bd d050 dfbd e112 8cbc 5e7b d33b
000001e0: d576 d0bb fc0c be3c b932 3dbd c91c 073d
000001f0: 43a0 2d3d ebb4 563d d6d8 ad3d 3722 0b3c
00000200: 84d3 04bd 6351 ed3d 4b72 d53c d40a eeb9
00000210: d3ea 05bd ceba dbbb 3c50 0ebd 0422 32bd
00000220: aa63 78bc cec9 a63b eeed a3bc e438 e7bd
00000230: a1b1 8fbc 1582 ecbc e71c f8bc fd5e 1abc
00000240: 3e8b 5d3d 2d2b 97bd b528 de3c 866d e6bb
00000250: 1bab 09be c475 303c 1297 bb3d 3666 b7bd
00000260: 2ada 113d 4b25 f3bd bfca a93c 531b 27be
00000270: 5ecb 33bb e20c 0cbe c180 96bd 3a9b ddbd
00000280: d1c9 923c 773d 50bd 5b69 a9bd 18ee e2bd
00000290: 4650 053c 7a07 1f3d de0c 8b3c c93e 6e3d
000002a0: 66f9 e83c b12c 8ebc e48d 143c 6d9e 4dbc
000002b0: 9d35 21bd ff70 babd 9070 9abd 3b2d 8abd
000002c0: 43ca a83c c02f 0cbe 0533 a93d 54e3 0f3d
000002d0: 7713 9a3d fc64 ccbd ea88 bc3d 2f49 24be
000002e0: 7ffc 7fbd becc 303d 24e2 3d3a a810 28bd
000002f0: 018f c0bd dc1d 06be 71b9 8ebd 9249 5a3e
00000300: f1c7 6dbd 43ff 62bd de87 b53c e0bc d8bd
00000310: cdd1 6bbe 3f54 373e b05b 5dbd 525e 2abc
00000320: 7c16 94bd 598a 553e 5966 28bd 4ea5 9a3a
00000330: 8fcc bbbc 5103 063c 9123 f83d 1f97 be3d
00000340: 6e32 8dbb c85d 443e c764 0cbe 1e74 1c3b
00000350: e046 42bc 2aa3 093d 708f 953d 7a91 7abd
00000360: 0f47 98bd 98dc 10bd 85f7 173e e537 213d
00000370: d4e8 cb3d 9076 223a 33f0 cdbd 0546 103d
00000380: 4f1c 373d 0299 20bd fc58 ca3d 8514 e73d
00000390: 067b 1d3e 26aa 883c 7723 17bd 935e fdbd
000003a0: 7a60 82bd 924c 8c3d eb92 3f3d cb0b 753d
000003b0: c15d 45be 18b0 71bd 5668 773d a548 ab3d
000003c0: 108c 4fbd 3d06 8b3c 6c7d a83c 29d7 3abe
000003d0: 90b8 d63c b824 4abe 04da 07be 84e6 d13d
000003e0: af52 bfbd 6729 ba3d d908 6bbd 0400 d4bc
000003f0: 5b6c 363e 1e17 ecbc f53a c9bd c939 503d
0.0023870964 0.084755056 0.095707215 0.085734 0.15276316 0.021759506 -0.09546929 0.105066836
0.056480784 0.011128402 -0.12113877 -0.09312468 0.026832696 0.049473137 0.0017508358 -0.08337934
-0.0011258594 0.07343489 0.083869405 0.046808377 0.05437966 -0.084273405 0.029425452 0.12665255
0.09237871 0.0948223 0.097677924 -0.03926656 0.10061331 -0.09737593 -0.073754966 -0.08698095
-0.09197132 0.08136819 0.13591446 0.028950276 0.0889643 0.02363861 0.05555044 0.019606648
0.03633581 0.08464251 -0.08459232 -0.048056744 -0.050374858 -0.065791115 0.018710865 -0.07421788
0.2303119 0.107667476 0.03448654 0.02764104 -0.12248938 -0.043297153 0.014228426 0.067119315
-0.051587783 0.07890792 0.005971167 -0.058290385 -0.10972741 -0.034329057 -0.08264223 -0.062382396
-0.075253844 -0.033090804 -0.015908001 -0.03871169 -0.05700824 0.066610605 -0.11613279 0.014511657
-0.07394512 0.059491474 0.016498933 0.004342262 0.15618716 0.07425287 -0.17495331 0.021066483
-0.011250449 -0.057870097 0.16912815 -0.011341695 0.10515656 0.04309793 0.120164864 0.1405261
0.033495903 -0.10677147 -0.01549587 0.18395351 -0.028222922 -0.0070986277 0.018207295 0.041972477
-0.09921624 0.11123959 -0.01871428 0.030423595 0.03293029 -0.05794603 -0.08753929 -0.030128382
0.003675762 -0.060138963 0.024970522 -0.08411976 0.0013735046 -0.12411244 -0.08827583 -0.010217414
0.039484903 -0.029201336 0.052503586 0.0012407253 -0.12035747 -0.10904086 -0.017098846 0.0064539155
-0.006361822 0.02319955 -0.04619095 0.032986436 0.042389166 0.05241863 0.08488624 0.008492044
-0.03242828 0.11587789 0.026055476 -0.00045402965 -0.03269465 -0.0067056185 -0.034744486 -0.04348947
-0.0151604805 0.005089975 -0.020010915 -0.11290148 -0.017540755 -0.028870622 -0.03028722 -0.009422061
0.05408787 -0.07381282 0.02711902 -0.007032099 -0.13444178 0.010770265 0.09159674 -0.08955042
0.035608448 -0.118723474 0.02072656 -0.16319017 -0.0027434449 -0.1367679 -0.073487766 -0.10820623
0.0179185 -0.050839867 -0.08272048 -0.11080569 0.008136814 0.03882549 0.016973909 0.058165345
0.028439235 -0.017355295 0.0090670325 -0.012549979 -0.03935777 -0.091035835 -0.07541001 -0.06746908
0.020604258 -0.1369009 0.08261684 0.035128906 0.07523244 -0.09980199 0.09205802 -0.16043542
-0.06249666 0.043164007 0.00072434754 -0.04103151 -0.09402276 -0.13097328 -0.06968964 0.21317127
-0.058052007 -0.055419218 0.022159513 -0.105829 -0.23029251 0.17903231 -0.05404252 -0.010398464
-0.07230851 0.20853557 -0.04111323 0.0011798532 -0.02292469 0.008179502 0.12116159 0.09306168
-0.00430899 0.191764 -0.13710319 0.0023872922 -0.011857718 0.03360287 0.07302749 -0.061173894
-0.07435428 -0.035366625 0.14840515 0.039359946 0.09956518 0.0006197477 -0.1005558 0.035223026
0.04470473 -0.03920842 0.09880254 0.11283211 0.15378961 0.016682696 -0.036899056 -0.12371554
-0.06366058 0.06850542 0.04677097 0.0598257 -0.19274046 -0.059005827 0.060402237 0.08363465
-0.050670683 0.016970748 0.020567618 -0.1824614 0.026211053 -0.1974057 -0.1326676 0.102490455
-0.093419425 0.09089928 -0.057381485 -0.025878914 0.17814772 -0.028819617 -0.09825698 0.05083636

encoder.4.bias f4 [64]
00000000: 8bc0 b43a c8cc ba3a bdd8 5cba 48fd d8b6
00000010: 757c 90ba 2a33 82b8 b759 6ab9 1c9d f5b9
00000020: 7c77 023a 77ba ce38 b525 bdb9 c1a3 bab8
00000030: 1a63 22ba ad00 83b9 cef3 54ba ead5 0ab9
00000040: 309a d23a 02a9 28ba 711e 2aba 8ea3 8db9
00000050: cfe3 08ba e64a f3b8 7a4a 4eb9 5dca 0a3a
00000060: 50b4 92b9 c6a5 acba 5c59 8139 e505 2ab8
00000070: 8b4d c8ba a86e 40ba 3db2 53ba 4f8f d2ba
00000080: 09d7 24b9 8632 9eba fb2f 353a e67b 61ba
00000090: 6aae dd39 1408 f8ba 54d1 bfba 0b06 12bb
000000a0: 13ca 8539 2997 00bb 0033 ccba e26d f537
000000b0: 8ad6 1439 104d eeba 8257 30ba cef7 3639
000000c0: 0000 0000 1af9 2ab8 1ea3 b0ba 1272 7239
000000d0: 9a08 81b9 880b 2c37 a015 87b9 8099 a339
000000e0: 0349 d838 9eb6 1cba 09aa 5839 054d 1d39
000000f0: 69d5 9cb9 b810 8aba f71b 60ba 7c04 dfb8
0.0013790292 0.0014251703 -0.00084246305 -6.4667875e-06 -0.0011023419 -6.208413e-05 -0.000223494 -0.00046847097
0.0004976911 9.857577e-05 -0.00036076983 -8.899673e-05 -0.0006194577 -0.0002498677 -0.0008123488 -0.00013240395
0.001606768 -0.00064338755 -0.00064895215 -0.00027015473 -0.00052219344 -0.00011601094 -0.00019673436 0.00052944367
-0.00027981633 -0.0013171963 0.00024671375 -4.0536648e-05 -0.0015281899 -0.0007340708 -0.0008075571 -0.0016064438
-0.00015720366 -0.00120695 0.00069117517 -0.0008601531 0.00042282353 -0.0018923306 -0.0014634528 -0.0022281434
0.00025518294 -0.0019621348 -0.0015579164 2.9257444e-05 0.00014194302 -0.0018180925 -0.0006726907 0.00017449187
0.0 -4.0763152e-05 -0.0013476347 0.00023121413 -0.00024611206 1.0254684e-05 -0.00025765318 0.0003120415
0.00010313282 -0.000597814 0.00020662708 0.00015001379 -0.00029913642 -0.0010533547 -0.0008549089 -0.00010634304

actor.0.weight f4 [64, 32, 3, 3]
00000000: a8f0 14bd b028 61bd f2a3 9c3b 1f59 6d3c
00000010: 85ff c8b9 7af2 9e3d d8d2 1a3c dadc 0b3d
00000020: 31bb 4e3b c5f3 81bd 1b0e f73b 051c 3dbd
00000030: 419e a23d b57c ba3a cf37 92bd 0d39 b6bc
00000040: c3e1 e3bd 1d54 4f3c c133 a7bc 2758 b5bb
00000050: 9cab 0dbe c156 20bc 5a24 81bd cba1 713d
00000060: f479 c83d dd5a ad3c 313e 6cbd fd38 d0bd
00000070: 9beb 503d ca38 2bbd 3206 013e c250 7c3d
00000080: 76b8 98bd 6ca0 72bd 2ecd 113d ad28 cbbd
00000090: a270 98bd 9230 e8bd 94a8 57be bf56 c2bd
000000a0: 9061 08be 450f b73d 3066 113d a11b 27bd
000000b0: b17a 22bd 9d62 58bd dd8e 473e b472 273d
000000c0: 3bdf 97bd 1ce9 9abd 713f b8ba 4c0d bdbd
000000d0: ecef 103d a0d9 bdbd 3a83 88bd 57d2 eabd
000000e0: d8a5 363c 2dad e3bb 075d f8bd c49a 9e3d
000000f0: 701f 0cbe cb7f 953b 1a3b a2bc 187e 91bd
00000100: f36f e9bc a0c7 9e3d 605d 203d a86b dabd
00000110: 3ca3 24bd b25e 7c3d 5825 a93d 0657 4e3c
00000120: 0152 36be 088d 543d d98c f4bd 0f71 873c
00000130: fdda 0cbe 04cd 983d 745c ec3c 00ae 053c
00000140: b61a ca3c 81fa a03d 1796 e2bd 4fc0 10be
00000150: ade4 86bd 2765 4fbd ac17 3fbe 3ac6 753d
00000160: 074b f7bd 5a8f f43c b800 bebd 438b 143d
00000170: 3c5d 153d 7c49 a13d ea31 883d 0a94 dd3d
00000180: 9e54 183e 361a 0ebe 297d 31bd c4e5 fcbd
00000190: f6d4 a63d 189d 853d 2728 8b3d 3a7f f23b
000001a0: f6e2 a03c 3df0 323d 4024 cabd 5f5e ba3c
000001b0: 23dc f53c 906d fbbc 6511 213d 883a 14bd
000001c0: 3b1f e03d 5b21 8bbd 9f7a 8c3d 541e d23b
000001d0: 8526 0d3d d623 1cbe d94f ae3c 9a60 1a3d
000001e0: 6105 933c 289e 3ebd 4acd cabc 84d1 073d
000001f0: 9b27 5b3e 323d d03d 0bd8 f3bd ade4 c1bd
00000200: eb57 12be ec87 a9bd 1a5a 673c 1db1 4c3e
00000210: 504c 8c3d 5ac1 803d 31a4 7cbd 5ff2 22bd
00000220: 81ec 873d cfc3 bb3d 474a 353e 9199 29bd
00000230: 7d7b de3b aa02 f9bd 6e08 d2bc 6f19 36be
00000240: 99d1 a03c 932f 713c e8f3 383e 4dfd 47bd
00000250: f5e3 083e 501e b33d 897e b43c 2b9b 08bd
00000260: 8296 253d b046 99be 8446 6c3d cef8 1abe
00000270: 065c 903d a5a8 063e 6117 cd3b a551 ccbc
00000280: 075b afbc 5914 dc3d 90e8 783d acd6 26bd
00000290: 19d7 8ebd 117d bf3b deee a4bd f314 c33d
000002a0: afea 7e3d d215 1ebe f423 133d cd29 e8bd
000002b0: f49a 71bd 7ee2 203c ef07 95bd eba2 193e
000002c0: 2519 463d 3fb6 8c3d 0f7b 0e3e 4d17 313d
000002d0: 7ef2 8fbd 8df1 45bd a61b d6bd ce86 fe3c
000002e0: 27d4 66bd 0c64 5cbc f27f c2bd 8dca 98bd
000002f0: 59ff adbc 3bdf cabd 9a85 923d 87cf 863d
00000300: 382c 933d 0a46 093e 559c 793d 55f6 e33c
00000310: fef1 adbd 5618 b0bd 96bd a03d 8517 94bc
00000320: 5dfe 773c a9ae 833c f607 783c 8455 b2bd
00000330: 7138 89bd 3448 ddbd 86c6 c73d 1709 b9bd
00000340: bfa0 bfbc 7c43 903c 285e b6bd fe1e 963d
00000350: 22df 273c 6553 323d dac3 cbbd 99a4 893d
00000360: 0ed2 373d 9155 d43c 2a8d dabb 3d38 de3c
00000370: c742 adbd c70a 21bb 7461 a2bd 3a7a ea3d
00000380: 2291 083d dd24 afbd 3ae2 fb3d 2819 023d
00000390: c4eb 99bd 4335 5c3e 0d5a 013e 29e4 053e
000003a0: b49d e93c f2a0 88bd c1ae 443d a82d e9bc
000003b0: b4a0 0a3d 8a3c edbb 195a 06be 0a12 183d
000003c0: ed58 67bd 72cf 3fbc 9138 5abd c054 933d
000003d0: a731 c23d 5031 ca3c e630 ecbc adc0 e0bd
000003e0: da7e ef3d 2132 753c fa2b 1cbd 6b40 dd3d
000003f0: bc35 0a3e 47b8 f63b 70ba a53d 33e8 09bc
-0.03636232 -0.054970443 0.004780286 0.01448658 -0.0003833735 0.077610925 0.009449683 0.034146167
0.003154468 -0.063453235 0.0075395233 -0.0461693 0.07940341 0.001422784 -0.07139551 -0.022244
-0.11127045 0.0126543315 -0.02041042 -0.00553419 -0.13834995 -0.009786309 -0.06305762 0.05899219
0.09788886 0.021161491 -0.057676498 -0.1016712 0.05100594 -0.041802205 0.1260002 0.061600454
-0.07457058 -0.05923502 0.035596065 -0.09919868 -0.07443358 -0.11337389 -0.21060401 -0.09489202
-0.13318467 0.08938459 0.035497844 -0.040797833 -0.03966779 -0.05282842 0.19488092 0.040880874
-0.07415625 -0.07563993 -0.0014056993 -0.09231052 0.035385057 -0.09270024 -0.066656545 -0.114659004
0.011147939 -0.0069481344 -0.121271186 0.07744363 -0.13683867 0.0045623532 -0.019803572 -0.071041286
-0.028495764 0.07752919 0.03915155 -0.10665065 -0.040194735 0.061613746 0.08259076 0.01259399
-0.1780472 0.05189231 -0.11940927 0.016533403 -0.13755412 0.074609786 0.028852679 0.008159161
0.02467094 0.0786028 -0.110637836 -0.1413586 -0.06586585 -0.050633576 -0.18661374 0.060003497
-0.12074857 0.029853512 -0.09277481 0.036265623 0.03646587 0.07875344 0.06650145 0.10819252
0.14876029 -0.13877186 -0.043332253 -0.12348512 0.08146088 0.06524104 0.06794768 0.0074004205
0.019639473 0.04368614 -0.098701954 0.022750078 0.030012196 -0.030691892 0.03932323 -0.036188632
0.10943457 -0.067934714 0.068593256 0.006412307 0.034460563 -0.15248045 0.021278309 0.037689783
0.0179469 -0.04653755 -0.024756093 0.033158794 0.21401827 0.10167922 -0.11906441 -0.094674446
-0.1429135 -0.08277878 0.014120603 0.19989438 0.06850493 0.06286879 -0.061680023 -0.039781924
0.066369064 0.09168207 0.17704116 -0.041406218 0.0067896233 -0.12158711 -0.025638785 -0.1778314
0.019631194 0.014720815 0.18061793 -0.04882555 0.13368209 0.08746016 0.022032993 -0.033351105
0.04042674 -0.29936743 0.057684436 -0.15133974 0.07048802 0.1315027 0.0062588905 -0.024941275
-0.02140571 0.107460685 0.060768664 -0.04073207 -0.0697462 0.0058437665 -0.08053373 0.0952548
0.06223553 -0.15438011 0.03592296 -0.11336098 -0.058985665 0.009819625 -0.07276904 0.15003555
0.048363823 0.06870698 0.1391413 0.043235112 -0.070286736 -0.048326064 -0.10454492 0.03107014
-0.056354668 -0.013451587 -0.0949706 -0.074605085 -0.021239923 -0.09905859 0.07154389 0.065825514
0.071861684 0.13405624 0.060940105 0.027827421 -0.08493422 -0.08598392 0.07848661 -0.018077621
0.0151363285 0.016074495 0.015138617 -0.08707717 -0.067002185 -0.10804787 0.09754662 -0.09034937
-0.02339208 0.017610304 -0.08904678 0.0733013 0.01024607 0.043536562 -0.09949465 0.06720848
0.044878058 0.025919707 -0.00666966 0.027126426 -0.084600024 -0.0024573074 -0.07928744 0.11449094
0.033341534 -0.08551953 0.12299009 0.031762272 -0.07515672 0.21504693 0.12632008 0.13075317
0.028517582 -0.06671323 0.04801822 -0.028464153 0.033844665 -0.007239883 -0.13120307 0.03712658
-0.05648129 -0.011707174 -0.053276602 0.07193899 0.09482127 0.024681717 -0.02883191 -0.1097425
0.11694117 0.014965565 -0.038127877 0.108033024 0.1349706 0.007529292 0.08092201 -0.008417177

actor.0.bias f4 [32]
00000000: 4e26 4eb8 3e3e 3eba 2e01 363a f09e 42ba
00000010: 6244 48ba b4df 97ba 0cf5 213b 4827 69b7
00000020: ba1f c3ba c68c 78ba 0e42 b53a 87d6 45ba
00000030: 9924 8eba 5789 5dba 1751 0c3b efd2 1f3a
00000040: fcae 213a deea 483a 58ed 85ba 640e 513a
00000050: aa0f 82b8 ae67 68ba 4016 c5ba b0dc 8ab9
00000060: 762e cf3a c657 6f3a c737 8d3a 4604 a03a
00000070: 182d bdba c5b1 dcba 7632 fb39 2463 183b
-4.91499e-05 -0.00072571996 0.0006942925 -0.0007424196 -0.00076395844 -0.0011587054 0.002471271 -1.3897028e-05
-0.0014886775 -0.0009481426 0.001382889 -0.00075469207 -0.0010844647 -0.0008450946 0.0021410638 0.00060968
0.00061677373 0.00076643925 -0.0010217829 0.00079748617 -6.201801e-05 -0.0008865547 -0.0015036538 -0.00026485836
0.0015806693 0.0009130206 0.0010774069 0.0012208305 -0.0014432995 -0.0016837647 0.00047912047 0.0023252452

actor.2.weight f4 [32, 78, 3, 3]
00000000: e03b af3d ccb0 8dbd 00fe 9abc d2db 94bd
00000010: 84d6 36bc 4fd3 043c 5b01 903d a51d 8fbc
00000020: a401 063b 22fb 02be cafb 323c ef99 20bd
00000030: 2cc9 c73b 0c8e aebc a803 0b3e 72c6 e0bc
00000040: 68a2 cb3c 512c 26bc 3ae3 683d 2be5 1fbe
00000050: 6c2d be3c 5231 77bd 63fc 6abc 6108 bb3d
00000060: c933 bc3d 86e5 103e e534 0d3d 3ad7 bcbd
00000070: 6c5b 263d 2612 9a3d 9760 8a3c de2e b5bd
00000080: 3645 36bd f811 c43c f9c2 ea3c 3492 b23c
00000090: a6a1 133d 7de7 13bd d521 3ebd 5b8f 1a3d
000000a0: eafd 9abc 759c a3bc ea6e 00bd 5630 dc3c
000000b0: a410 80bd c6ae 063d 303a c13d cb66 c0bd
000000c0: 6c6a f1bd 3beb 87bd 8745 393d 3748 8abd
000000d0: ed64 a5bd 12b8 02bc c6cc 60bb 04cd 4abc
000000e0: 8451 1e3d 7407 cfbd 3a57 2f3c cad8 e1bb
000000f0: 71a4 023d 1eb4 07bd 694c 813d 61a1 85bd
00000100: 9b7e 28bd 451a 993b 31f1 0f3d b2d7 913d
00000110: 82fa 973d 9c12 96bd 761d bf3d e262 a6bd
00000120: 08f7 76bd a0c3 983b a6b5 3dbc b501 9abd
00000130: 1dc1 c3bd d714 65bd fbbf 1a3d 3814 9b3c
00000140: 41e7 22bc 1e23 133d fa1a 6b3b 98c5 f9bc
00000150: b3ef debc 18d7 843d bdba 94bc d9ce 94bd
00000160: b348 72bd 2078 92bc 6f1e 90bc f3e4 7f3d
00000170: 4a87 f63d 1be2 1a3d 995d cb3c 13c1 553d
00000180: e021 f13c 8143 94bd 6f9a 9fbc 3e24 da3d
00000190: abd6 143d 351a 6dbd e5bd 173d ed3f 5a3c
000001a0: e792 91bd df7d b83d ca95 163d ab88 1cbd
000001b0: 6be6 28bd ce15 48bd cbda dc3d a614 85bc
000001c0: 57c3 03bd 8ecc 65bd 7343 db3d ef6d 013d
000001d0: 0f11 c3bb 2d46 273d a298 6a3d 6334 30bd
000001e0: 9cff bdbc 374e da3c 21a8 3ebd 00e6 f63d
000001f0: 6e4e fbbc 0d08 d53c e67e 13bd 8f72 2d3d
00000200: cf91 eabd d2ed 1e3d 8489 b2bc 912e 1ebc
00000210: 99dc d23b c94a c33c 162f bf3c 5683 bb3d
00000220: 3a9e 023d 6b93 d33c 3f02 21bd b4dd 8d3c
00000230: f8f7 163c e63c 38bc 134d 8d3c 09ac b03c
00000240: 7b79 26bc 73eb 5cbd ee57 5dbd 9c47 7b3d
00000250: 0338 043d 817f 09bd c584 9b3d ab1b ee3a
00000260: c5fb 1abd 2574 d8bd b373 87bb 0fad 19bc
00000270: 4c24 8cbd b1f2 f0bb c3a9 783c 1029 763d
00000280: 842e 533d 8439 f83c b6cd ebbd 2b1f a8bc
00000290: f46f f93c 577e 44bc 719b a63d b50c a8bc
000002a0: 1c55 883d ddb2 0a3d 1fa0 3cbd 8692 c6bc
000002b0: b2ad 953d 9527 d03d 5326 323c f862 233d
000002c0: 182b 353d 5cab ecbc 09f6 593d e924 53bd
000002d0: 8dec 21bd 0734 cc3c 3e4a 513d 4a9a 0a3c
000002e0: 02ab bf3c d22b e23d 5757 fbbc bcf9 ddbb
000002f0: 54ac 59bd 52b9 9fbd c39f 76bd 8c37 25bd
00000300: b7f6 803d c061 19be 6c52 5b3d d7f5 13bc
00000310: 45ac 2a3c 8870 92bb fcc1 64bd ca8a 42bc
00000320: 9f56 cf3d 8847 b33b fdd4 de3c 46cc 62bd
00000330: 5f04 073d dfbb ae3c d77f 543d 3106 56bc
00000340: 6a4d 8d3d 5f8e 49bd 46df 29bc db31 cd3b
00000350: fa71 a03c 2bfb fa3c d249 bc3c b936 9f3d
00000360: 85c1 eb3c c66a cabc c7a1 6f3d 3b61 2dbd
00000370: a0e1 d1bc 621a 84bd 1b08 663c 2e46 87bc
00000380: ce6c 1f3c 9433 2abd f696 093d 205b 7fbc
00000390: 7e7e c33c 7577 22bb 5ae4 1abc 7d00 413d
000003a0: aec5 20bc a722 86bc 0408 90bb 3c03 9ebd
000003b0: 4941 49bd 5138 b93d 9750 573d bf58 1bbc
000003c0: 2fd8 d33c 5caa 2e3d 1a67 eeba c3bf 46bd
000003d0: e3e0 a4bd 1171 03bc 3eb9 61bd 00f5 84bd
000003e0: 85df 8cbd ccfc 373d 5535 b7bc fb72 a9bc
000003f0: 0512 593d bb3c bcbc c8a2 1cbd 10fc 79bc
0.08556342 -0.06918487 -0.018919945 -0.0726849 -0.011159543 0.0081070205 0.070315085 -0.01747019
0.0020447755 -0.12791112 0.010924289 -0.039209303 0.0060969796 -0.021307968 0.13575613 -0.027438376
0.024857715 -0.010142402 0.056857325 -0.15614764 0.023215018 -0.06034977 -0.0143424 0.091324575
0.09189565 0.14150056 0.034474272 -0.09220739 0.04061453 0.07522993 0.01689176 -0.0884683
-0.0444996 0.02393435 0.028657423 0.02179823 0.03604283 -0.036109436 -0.046418983 0.03773437
-0.018919904 -0.019972065 -0.031355776 0.026878517 -0.06253174 0.03288152 0.094349265 -0.09394606
-0.117878765 -0.066366635 0.045232322 -0.06752055 -0.08075891 -0.007978456 -0.0034301742 -0.012377981
0.038651958 -0.101088434 0.010701949 -0.0068922983 0.031895105 -0.033130758 0.06313402 -0.06524921
-0.041136365 0.004672321 0.035142127 0.07121219 0.074208274 -0.07327768 0.09331791 -0.08124329
-0.06029418 0.004661992 -0.011578953 -0.07519857 -0.09558318 -0.055928078 0.037780743 0.01893054
-0.009942831 0.035922162 0.0035874234 -0.030489728 -0.027213907 0.064863384 -0.01815545 -0.072660156
-0.059151363 -0.017879546 -0.017592637 0.062474202 0.12037523 0.037813287 0.024824904 0.052186083
0.029435098 -0.07239438 -0.01948282 0.10651444 0.036337536 -0.05788632 0.037046332 0.013320905
-0.071080975 0.09008383 0.036763944 -0.038216274 -0.04123537 -0.04884892 0.10783919 -0.016245198
-0.032168712 -0.05610328 0.10706224 0.03159898 -0.0059529613 0.04083841 0.05727447 -0.04301871
-0.023193173 0.026648624 -0.04654706 0.12055588 -0.030677047 0.026004815 -0.03600969 0.04234558
-0.11453592 0.038801022 -0.021794088 -0.009654657 0.0064349887 0.023839371 0.023337882 0.0915591
0.031889178 0.02582713 -0.039308783 0.01731763 0.009214394 -0.011244988 0.017248666 0.021566408
-0.010160799 -0.05393548 -0.054038934 0.06134759 0.03227998 -0.033568863 0.07593683 0.0018166205
-0.037837762 -0.10569028 -0.0041336655 -0.009379639 -0.068428606 -0.00735315 0.015177193 0.060097754
0.051558033 0.030300863 -0.115138456 -0.020522675 0.030448891 -0.011993012 0.08135117 -0.020513872
0.06656858 0.033861984 -0.04605114 -0.02423979 0.073085204 0.101638 0.010873395 0.039889306
0.04423055 -0.028890304 0.053213153 -0.051548872 -0.039532233 0.024927152 0.051096193 0.008459637
0.023396973 0.11043514 -0.030681295 -0.0067741554 -0.05314286 -0.07799019 -0.060210954 -0.040336177
0.06297057 -0.14978695 0.0535454 -0.009030781 0.010417049 -0.004468981 -0.05584906 -0.01187391
0.101239435 0.0054711737 0.02720117 -0.05537059 0.032963153 0.021329818 0.05187973 -0.013063
0.06899531 -0.04920804 -0.010368174 0.0062620468 0.019585598 0.030637344 0.022984419 0.077741094
0.0287788 -0.024709117 0.058503892 -0.042329054 -0.025620282 -0.064503446 0.014040018 -0.016512956
0.009730531 -0.041553095 0.033591233 -0.015585691 0.023864027 -0.002479044 -0.009453857 0.047119606
-0.0098127555 -0.016373945 -0.004395487 -0.07715461 -0.049134526 0.090439446 0.05256709 -0.009481608
0.02585992 0.042642936 -0.0018188686 -0.048522722 -0.08050706 -0.008022563 -0.0551083 -0.064920425
-0.068785705 0.04491882 -0.022364298 -0.02068471 0.0529957 -0.022978177 -0.038241178 -0.01525785

actor.2.bias f4 [78]
00000000: 7229 53ba 66ea 123a 0d2c 6dba a64e 7aba
00000010: 4006 993a f61e 883a 4740 b539 d728 19bb
00000020: 8ae0 f03a b4f8 47ba 0000 0000 0000 0000
00000030: 0000 0000 0000 0000 0000 0000 0000 0000
00000040: 0000 0000 0000 0000 bdc0 acba ceda 1cba
00000050: 2f1f 853a e407 cc3a 0000 0000 0000 0000
00000060: 0000 0000 0000 0000 0000 0000 0000 0000
00000070: 0000 0000 0000 0000 0000 0000 0000 0000
00000080: 0000 0000 0000 0000 0000 0000 0000 0000
00000090: 0000 0000 0000 0000 0000 0000 0000 0000
000000a0: 0000 0000 0000 0000 0000 0000 0000 0000
000000b0: 0000 0000 0000 0000 15ff 863a 0000 0000
000000c0: 0000 0000 0000 0000 0000 0000 0000 0000
000000d0: 99a5 e139 0000 0000 4ffd 113a 0000 0000
000000e0: 0000 0000 0000 0000 0000 0000 0000 0000
000000f0: 4c8f e4ba 0000 0000 0000 0000 0000 0000
00000100: 0000 0000 0000 0000 0000 0000 0000 0000
00000110: 0000 0000 0000 0000 0000 0000 0000 0000
00000120: 0000 0000 0000 0000 0000 0000 0000 0000
00000130: 0000 0000 0000 0000
-0.0008055187 0.0005604386 -0.00090473966 -0.00095484627 0.0011674836 0.0010385204 0.000345709 -0.002337029
0.0018377465 -0.0007628307 0.0 0.0 0.0 0.0 0.0 0.0
0.0 0.0 -0.0013179999 -0.0005983532 0.0010156388 0.0015566316 0.0 0.0
0.0 0.0 0.0 0.0 0.0 0.0 0.0 0.0
0.0 0.0 0.0 0.0 0.0 0.0 0.0 0.0
0.0 0.0 0.0 0.0 0.0 0.0 0.0010299409 0.0
0.0 0.0 0.0 0.0 0.00043038724 0.0 0.0005569057 0.0
0.0 0.0 0.0 0.0 -0.0017437725 0.0 0.0 0.0
0.0 0.0 0.0 0.0 0.0 0.0 0.0 0.0
0.0 0.0 0.0 0.0 0.0 0.0

critic.1.weight f4 [128, 1024]
00000000: c4f5 24bd c1d0 55bb 2283 643d 54fe 753c
00000010: 495b 8b3d 110e 163b 7fc3 f2bb cfa4 29bd
00000020: 6a9d c43c a7a1 99bc c69f 263d 9c9e 84bc
00000030: 57ce 3cbc be30 81bb ffa8 a1bc b92b 9bbd
00000040: b086 243d e6a3 2cbd 2403 c2bd a25f 99bc
00000050: ece6 543d 9ee8 563d 97ec 853c 58a9 89bd
00000060: 93c8 153d 7618 8bbd 208d a83d 38be 54bc
00000070: 4b0b 2fbd 87b6 133d 118b 2a3d d73c b2bb
00000080: 47ba cebc 24fd f4bb 4f9d 383d e2bd 3d3c
00000090: 3f1c 9f3c 0f7d 8cbd 3d49 11bc 1e35 72bd
000000a0: 195a 033b 820a e13d 1a41 22bd a875 06bd
000000b0: ffee 68bd ce6a a9bd 835b 68bd 9f3d 27bd
000000c0: cefd 1d3d 5bbf cb3d 560a b6bb 34d5 a03c
000000d0: 99bd 9abd 1fb2 34bd ac8a 2b3d 23be 1abd
000000e0: 83f9 b2bc 6b2a cbbd e982 06bd 5ac7 b1bc
000000f0: 525a 1fbd f871 ee3c 40da 96bd de4d 313d
00000100: 90b2 3f3c 8978 e13d 48bf 323d 76d1 753d
00000110: 2921 22bd 24c1 b3bb 9b02 16bd dd86 a63d
00000120: 569d 6f3d ca8d ceba e479 4b3d 8a54 133c
00000130: 260b fe3c 4d8e eebd 2e3f 4fbd 36b0 5cbd
00000140: a675 8bbb 148c 613d 37b6 863c 0e24 11bd
00000150: d73f 8f3c 6dd8 f4bc 8d5c 213d 2182 44bc
00000160: e217 073b 2188 c43d 2b69 2dbd 0d48 883a
00000170: c106 69bc 2fa0 fe3c 66f9 243d 7a1b 923d
00000180: cd37 9cbd 860e 91bd 1ae6 5e3d 1e8e 69bb
00000190: de53 6fbc 9e1a 2fbb 65f9 823c 69ad eebc
000001a0: 0b53 9bbd 0a1e 36bd b72e 43bd 3b50 b8bb
000001b0: 6f06 693d a7ba b5bc c3e6 2abd 8bac d43d
000001c0: 34ef 06bd 053c 70bd ea58 14bd 8e20 a73b
000001d0: ff12 763d 9f8a 103d 618f 3c3d 067a b3bd
000001e0: 7da8 80bd cd89 f53c 5c68 463d f04c d53c
000001f0: 85a5 643c 39c1 3c3d 7583 f83c b354 9f3d
00000200: 1d15 50bd becb 08bd 400f 8f3d 867e 8dbb
00000210: ad12 183c add6 ccbb 42df 883c 48d1 203b
00000220: 54f1 10bd d80e 283c f965 ccbc e464 bf3c
00000230: a40a 9d3d 8d7f 79bd 5c91 92bd 652a 5a3c
00000240: 083b 4abc a76a 65bd 4561 4a3d f873 b33b
00000250: ca0b 173d 2905 923d 9add b0bd c9f3 64bc
00000260: 80e0 09bd 35aa 82bc 5cc2 12bc f10b 913c
00000270: 5b03 0c3d f6e7 1ebd 8218 faba d713 41bc
00000280: 78ef 8c3d 8659 8e3c 272e b8bc 8b88 b83d
00000290: 4200 45bc bcfc 10bd f590 6ebc b4bb 323d
000002a0: b64f e1bb 2039 343d d362 9fbd 1753 d73c
000002b0: 4798 5a3c 2b00 14bd 0024 ddbc be5c 2ebc
000002c0: 20dd af3d 5ca2 513d c70a 6fbd 199a 403d
000002d0: 6eaf 213d b9da 4ebd 7a6a 74bd 691b 3fbd
000002e0: 5ba1 1f3d 44a5 ec3c d1f2 9a3d 0aaf 86bd
000002f0: 6637 823d c9dc 8c3d a2e4 12bd 8f72 91bd
00000300: 6bc9 563d b20c c73d 2386 743c 346f 0d3d
00000310: c3b4 86bc 5c4c 99bd dfc3 a6bc ea1d 7a3c
00000320: d410 083e e925 543c 25d1 d43c 765e d23d
00000330: 1572 053d 9c59 033d 427b b33c d14d 603d
00000340: 0416 103c 480b a53a 5006 d8bd 8049 153b
00000350: 413e 603d 746d 8a3d 3cb0 403d 8d9b 9cbd
00000360: e15d 923c 8d1e 373b d5d2 09bc c78a 25bd
00000370: c063 8e3d 6261 bcbb 1eab b9ba 0ee8 82bc
00000380: 5d27 1b3c b3ba 463d 652f 433d deab d13d
00000390: 1b11 0b3c a3bf 723c 85f5 aabb 8df3 e53c
000003a0: 5d01 bbbb 618e f0bc 675b 593c c8cd 31bc
000003b0: ff62 0ebd a29a 053d 02e0 bd3c 1491 ebbc
000003c0: ab81 9cbc d6ca fe3c a19e df3d 4de2 aa3c
000003d0: 3817 58bd 193f 8abd d625 3f3d e975 b2bd
000003e0: a9b6 d63c 97cf 053d c026 53bd 8cad cf3b
000003f0: 527a 34bd bdff 583c 5b70 ef3c 95c9 0cbc
-0.040273443 -0.0032625648 0.05578912 0.01501425 0.06804521 0.0022896568 -0.007408559 -0.04141694
0.024000842 -0.01875384 0.040679716 -0.016188912 -0.011523805 -0.003942578 -0.019733904 -0.07576699
0.04016751 -0.042148493 -0.09473255 -0.01872236 0.051978037 0.052467935 0.016348166 -0.06721753
0.036568236 -0.06791775 0.082300425 -0.012984805 -0.04273538 0.036062744 0.04163653 -0.0054393816
-0.025235308 -0.007476466 0.045071896 0.011580916 0.019422648 -0.068597905 -0.008867559 -0.059132688
0.0020042716 0.10988332 -0.039612867 -0.03282705 -0.05686855 -0.082723245 -0.056727897 -0.04083025
0.038572125 0.099486075 -0.0055554314 0.019632913 -0.07555694 -0.044115182 0.041880295 -0.037778985
-0.021847492 -0.099202 -0.03283969 -0.021701504 -0.038904496 0.029107079 -0.07365847 0.04328715
0.011700287 0.110093184 0.04363945 0.06001421 -0.039582405 -0.0054856706 -0.03662358 0.08131192
0.058499657 -0.0015758809 0.04967679 0.008992324 0.031011175 -0.116482355 -0.050597362 -0.053878985
-0.004255968 0.05506523 0.016444309 -0.035434775 0.017486496 -0.029888356 0.039394904 -0.011993916
0.00206136 0.09596277 -0.042336624 0.0010397449 -0.014222802 0.03108224 0.040276907 0.07134147
-0.07627831 -0.07082848 0.05441866 -0.0035637687 -0.014607398 -0.0026718746 0.015988061 -0.029135423
-0.075841986 -0.04446224 -0.047651973 -0.0056247986 0.0568909 -0.02218373 -0.041723978 0.103844725
-0.032942966 -0.05865099 -0.036217608 0.0051003164 0.06007671 0.03528845 0.046035174 -0.087635085
-0.062821366 0.029972935 0.04843937 0.026037663 0.013955479 0.04608271 0.030336121 0.07779827
-0.050801385 -0.03339743 0.069853306 -0.0043180613 0.009281796 -0.0062511773 0.01670802 0.0024538804
-0.0353864 0.010257445 -0.024950968 0.023363538 0.07668045 -0.060912658 -0.07156631 0.013315772
-0.012343176 -0.056009915 0.04940917 0.005476471 0.036876477 0.071298905 -0.08636017 -0.013974139
-0.033661366 -0.015950302 -0.008957472 0.01770589 0.034182888 -0.038795434 -0.001908079 -0.011784515
0.068816125 0.017376672 -0.022482945 0.090104185 -0.012023987 -0.035397276 -0.014560928 0.04363604
-0.0068759574 0.04399979 -0.07782521 0.026284738 0.01334197 -0.036132973 -0.026994705 -0.010642229
0.08587098 0.05118023 -0.058359887 0.04702196 0.039473943 -0.05050156 -0.059671856 -0.046657
0.03897224 0.028887399 0.07565845 -0.06576355 0.06358223 0.06878049 -0.035862572 -0.071019284
0.05243818 0.09719218 0.014924559 0.03452988 -0.016443616 -0.074852675 -0.02035707 0.015265921
0.1328767 0.012948492 0.025978634 0.10271923 0.0325795 0.03206788 0.02190936 0.05476171
0.008794311 0.0012591863 -0.10548079 0.0022779405 0.05474687 0.06759158 0.04704307 -0.076468565
0.01786703 0.0027941794 -0.008412083 -0.04041555 0.069526196 -0.0057489136 -0.0014165377 -0.015979793
0.009469834 0.048517894 0.04765262 0.10237859 0.008487965 0.014816198 -0.0052172565 0.028070236
-0.0057069496 -0.029364767 0.013266421 -0.010852285 -0.03476238 0.032618172 0.023178104 -0.028755702
-0.0191048 0.03110258 0.10918928 0.020859862 -0.052756518 -0.06750316 0.046666943 -0.08713896
0.026210146 0.032668676 -0.051550627 0.006337827 -0.044061966 0.0132445665 0.02922838 -0.008592983

critic.1.bias f4 [128]
00000000: 562e a1b9 0000 0000 dc96 c2b7 2280 6cb9
00000010: ba76 453a f4e5 eb37 0000 0000 0000 0000
00000020: 0000 0000 f05a f837 42e9 e137 0000 0000
00000030: 0000 0000 98ca 25b8 7b5f 89ba 0000 0000
00000040: 0000 0000 6c2d fa39 9837 6cba 5464 15b8
00000050: 1d9c 36b8 0000 0000 dbba 92b8 0000 0000
00000060: a4d5 c237 21c3 6f38 0000 0000 7ceb be37
00000070: 0000 0000 9d70 7dba 6aed 8837 0000 0000
00000080: 844a c337 70da 82b8 3082 99b8 0000 0000
00000090: 96bf fd37 6e2b d3b8 f03c 38b8 9b5b 27b8
000000a0: 0000 0000 cc72 50ba e0a8 f237 bc3a b9b9
000000b0: ce0a f937 0000 0000 6c6a f237 86ca f637
000000c0: 409a 2db6 96ec 59b9 7b0b 8dba ae63 a4ba
000000d0: 0000 0000 4f91 8fb7 cc15 fc37 96ec f137
000000e0: 1032 ffb9 2e0d 1fb8 18cd 61ba c07e 9237
000000f0: 0aa9 e137 14d5 bf37 7d7e 7cb9 71c2 43ba
00000100: c099 a3b8 516d 0eb8 c836 19b8 c103 33b9
00000110: 6df0 85ba 11bf 37b9 92fe 0eb8 0f5d 40b8
00000120: 8aec ab37 0000 0000 108c 8537 bdea 16b8
00000130: 0000 0000 0000 0000 8a73 9b37 0000 0000
00000140: 0000 0000 642f e6b9 b0ff 8338 0000 0000
00000150: 0000 0000 0000 0000 c74b 99b8 0000 0000
00000160: 2fcc 15b8 40db 15b8 fc34 9cb8 a760 62ba
00000170: 82d0 e237 0000 0000 7af0 cc37 8013 edb9
00000180: 0000 0000 4dc0 22b8 5e14 30b8 0000 0000
00000190: 8611 1bba 847d 1db8 0000 0000 18c6 d237
000001a0: d32f 0fb9 fd3d 61b8 0000 0000 14bb c837
000001b0: 5440 2aba 0000 0000 c677 ac37 df60 24b8
000001c0: 4f26 23b8 6ddd d6b9 0000 0000 f079 7ab9
000001d0: 4a5e 99b7 702b 96b8 9bc4 1bb8 9a56 5fb8
000001e0: a815 25b8 a8da f737 d4e2 2eb8 68cf 2cb8
000001f0: 0000 0000 0000 0000 19c1 d9b9 b08e b437
-0.00030742836 0.0 -2.3196852e-05 -0.00022554447 0.0007532645 2.8121263e-05 0.0 0.0
0.0 2.960625e-05 2.693071e-05 0.0 0.0 -3.9527746e-05 -0.0010480726 0.0
0.0 0.00047717558 -0.00090109697 -3.5617806e-05 -4.3537573e-05 0.0 -6.996627e-05 0.0
2.3226086e-05 5.716377e-05 0.0 2.2759421e-05 0.0 -0.0009667965 1.6323018e-05 0.0
2.328051e-05 -6.23957e-05 -7.319858e-05 0.0 3.0249164e-05 -0.000100693534 -4.392577e-05 -3.9901217e-05
0.0 -0.00079516764 2.8927287e-05 -0.0003532971 2.9688144e-05 0.0 2.8898205e-05 2.9419793e-05
-2.5868794e-06 -0.00020782868 -0.0010760868 -0.0012541914 0.0 -1.7114593e-05 3.0050891e-05 2.8839608e-05
-0.0004867469 -3.792083e-05 -0.000861363 1.7463579e-05 2.6900805e-05 2.2868197e-05 -0.00024079713 -0.00074676337
-7.801084e-05 -3.3957247e-05 -3.652906e-05 -0.00017072169 -0.0010218747 -0.00017523418 -3.4092525e-05 -4.5863035e-05
2.0494936e-05 0.0 1.5920057e-05 -3.5981404e-05 0.0 0.0 1.8531242e-05 0.0
0.0 -0.00043904327 6.294192e-05 0.0 0.0 0.0 -7.309723e-05 0.0
-3.571453e-05 -3.572856e-05 -7.448529e-05 -0.0008635618 2.7038393e-05 0.0 2.4430676e-05 -0.0004521869
0.0 -3.8802904e-05 -4.198064e-05 0.0 -0.0005915392 -3.7548612e-05 0.0 2.5126195e-05
-0.00013655359 -5.370191e-05 0.0 2.3928973e-05 -0.0006494571 0.0 2.0559772e-05 -3.9190865e-05
-3.8897906e-05 -0.00040982236 0.0 -0.00023887283 -1.8282928e-05 -7.160648e-05 -3.7137983e-05 -5.3247997e-05
-3.9359235e-05 2.9546514e-05 -4.1696083e-05 -4.1201158e-05 0.0 0.0 -0.00041533334 2.1524116e-05

critic.3.weight f4 [1, 128]
00000000: 9909 8e3d fcac 343d 481d 8f3d 8113 893d
00000010: 3e5a 723d bb0c cabd 6a83 08ba a353 5dbd
00000020: 829c 863d 2f7f 15be cad6 8dbd f143 43be
00000030: d4b4 163e 8c23 6c3d 8a55 123e 3ee3 ccbd
00000040: 6f0c 0fbe 0c4b 623d 42fe 8ebc 72c0 b23d
00000050: 44b5 e53c 61f0 213c 0eee 7ebd 4d1b 9f3b
00000060: 758e 1d3d 5559 0f3d b20b 833d 81d8 1ebd
00000070: 7214 303d 929d 8c3c 68fe f5bd 7a8e dc3d
00000080: 9325 25bd 4bfb 2a3c 11e3 9cba a8c8 b03d
00000090: 7043 56be a74d 643b b30d de3c 7ec2 59bc
000000a0: d489 413d e9c1 c93d 33bb 3cbe e151 9c3d
000000b0: 3960 29be 4f2b 52bd 93b5 e7bd 495f 10be
000000c0: ae9f 23bc 7357 ed3d dd60 8e3c b562 bb3d
000000d0: fe19 17bd 8f91 45bd c88a 83be f3dc edbd
000000e0: b5ff 433d 685a 543d aead 293d 010b ccbc
000000f0: 7950 91bd 746a 27bd 9e37 31bd 49ab 053e
00000100: 0059 0b3d 0503 1b3e c412 003e f5a9 42bd
00000110: 8fbb bb3c 45ff ea3c 86de 143e 1817 c03c
00000120: 8a5c fdbc 7fe3 913d b946 afbc fd1e ad3d
00000130: 769b 9e3d 95ef 5fbc 1b49 c43c ee15 06bc
00000140: 1544 af3c 50cf a23d da24 1b3d b026 193e
00000150: c319 dabd ca18 b7bd 313e f73b ba34 d73c
00000160: 77f4 b93d 9f95 a93d b0b6 443d 047e ddbd
00000170: 68c1 91bd ef7c ddbd 8850 76bd 1718 07be
00000180: 4604 873d 29d8 793d aa11 eb3c 6f46 963d
00000190: 4485 f63d f707 123e 9326 bc3b 0592 86bd
000001a0: 7c79 12bd 8d2d 6a3c fba2 cfbd 57bf 35bd
000001b0: 45d1 1f3e b3a9 25bd 677c 40bd e8f2 ca3d
000001c0: cdfa 003e 2067 69bd 8cb7 79bc 85ad 9dbd
000001d0: 7463 cc3b 9f99 45bb 7868 513e b3e2 003e
000001e0: 9934 99bb 4981 f7bd ae74 f73c 2867 0d3d
000001f0: d217 5ebe aed0 9e3c 4925 943d 03b0 0cbd
0.06935424 0.044110283 0.06988007 0.06693173 0.059168093 -0.098657094 -0.00052075705 -0.05403484
0.0657282 -0.14599298 -0.069257334 -0.19068886 0.14717418 0.057651088 0.14290443 -0.100042805
-0.13969587 0.05524735 -0.017455224 0.08728112 0.028040536 0.009883971 -0.062238745 0.0048555494
0.038465936 0.034997303 0.06398715 -0.038780693 0.04298825 0.01716498 -0.12011415 0.10769363
-0.040319037 0.0104358895 -0.0011969527 0.08632022 -0.20924163 0.0034836323 0.027106142 -0.013290999
0.047250584 0.098514386 -0.18430786 0.07632805 -0.16540612 -0.051310834 -0.113139294 -0.14098848
-0.009986801 0.11588945 0.017380172 0.09149686 -0.036890022 -0.04823452 -0.2569182 -0.11614408
0.047851283 0.05184403 0.0414254 -0.02490759 -0.07095427 -0.040873006 -0.04326593 0.13053621
0.034020424 0.1513787 0.12507159 -0.047525365 0.022916583 0.028686175 0.14538011 0.023448512
-0.030927915 0.071234696 -0.021396028 0.08453176 0.077444956 -0.013667961 0.02396064 -0.008183939
0.021394769 0.07949698 0.03787694 0.14956164 -0.10649445 -0.08940275 0.0075452556 0.02627026
0.09079831 0.08280491 0.048025787 -0.10815051 -0.071169674 -0.10814845 -0.060135394 -0.13192783
0.06592612 0.060997162 0.028694946 0.07337653 0.12037137 0.14260851 0.005741903 -0.0657082
-0.035760388 0.014293087 -0.10138508 -0.04437193 0.15607174 -0.04044504 -0.04699364 0.09909612
0.12595673 -0.056983113 -0.015241515 -0.07699112 0.0062374417 -0.003015138 0.20450008 0.12586479
-0.0046754596 -0.12085206 0.030207004 0.034522206 -0.21688774 0.019386616 0.07233674 -0.034347545
