experiments/ppo_hrl/models/MicroRTSGridModeVecEnv__ppo_utils__1__1721366908/4096/produce.pt (torch, 802531 bytes, 11 tensors)

encoder.1.weight f4 [32, 30, 3, 3]
000000 c5 b9 e4 bd 97 22 0c 3e 5d 6a 31 3e 1d 79 23 3e
       -0.11168245 0.1368507 0.1732573 0.1596417
000010 0e 26 ec 3d ea 61 0b 3e 8f c0 63 3e af d0 5e 3e
       0.11530696 0.1361157 0.22241424 0.21759294
000020 61 e8 98 bc 55 24 9f 3d 60 d1 24 be 98 5f a3 3d
       -0.018665494 0.07770602 -0.16095495 0.079772174
000030 44 37 8b bd 20 08 86 bd fd d5 e2 3c b0 f9 91 3d
       -0.067976505 -0.065445185 0.027689928 0.07127702
000040 ec ef fb 3d bd c0 26 3e 89 ac 36 bd 14 17 da bd
       0.12301621 0.16284461 -0.044598136 -0.10648933
000050 9b fa 67 bd 29 0d 2a 3d 6e 56 8a 3d c6 4f ac bd
       -0.05663548 0.041516457 0.067547664 -0.08413653
000060 8b 10 2d 3c 99 8f cb bd 40 b4 42 bd eb e9 7e bd
       0.010563026 -0.099394985 -0.04753518 -0.0622348
000070 25 ca d1 3b 03 2a ad bd 23 d5 96 3d 24 d4 36 3d
       0.0064022713 -0.08455279 0.07364871 0.044635907
000080 df 8b fc 3b bb 28 45 3d b7 ea e7 3d 58 7d 7f 3c
       0.0077071036 0.048134547 0.11324065 0.015593849
000090 20 16 1e 3d 21 34 98 bd 94 66 a0 bc fb 58 f6 3c
       0.03859532 -0.07431818 -0.019580163 0.030071726
0000a0 f6 b7 1e 3d 51 c4 92 3c ea e3 9e 3d b2 45 02 3e
       0.038749658 0.017915877 0.07758315 0.12721899
0000b0 40 3a 25 bd 45 07 31 be 16 2f 1f bd 19 a2 84 bd
       -0.040338755 -0.1728793 -0.038863264 -0.0647623
0000c0 ca a6 69 bd 93 c4 fa 3d 03 9c 8a 3d ae 21 0f 3d
       -0.057043828 0.12244525 0.06768038 0.03494423
0000d0 43 b0 06 3b 3b d2 6a 3d 9a 7d 6b 3d 3b 5d 41 bc
       0.0020551838 0.057329398 0.05749283 -0.011802013
0000e0 a2 d4 fc 3c 9b 8a 44 be f2 82 06 3d a3 fd 3a be
       0.03086311 -0.19193499 0.032839723 -0.18260817
0000f0 ad c8 0a 3d 28 2d 15 bb c5 db a3 3d a5 bf 8d bd
       0.033882786 -0.002276251 0.08000902 -0.06921319
000100 42 c8 a3 3d f4 27 38 bd ed 4e 92 3b 1b 9b 3e 3a
       0.079971805 -0.044959977 0.004464975 0.00072710373
000110 03 03 e0 3d 9f bf c8 ba dc bb 03 bc 56 f4 b9 3c
       0.109380744 -0.0015315897 -0.008040395 0.022699516
000120 c9 3e d4 bd d0 22 9a 3d 47 0c 19 3e 4b af 78 bd
       -0.10363538 0.07526171 0.1494609 -0.060714047
000130 98 c1 1d be 66 c6 af 3b d3 ad 19 bd 95 73 3e bc
       -0.15405881 0.005364227 -0.037519287 -0.011624237
000140 b7 c7 40 3d 81 5f ab 3c 7e cd 91 3d 45 c3 e4 3d
       0.047065463 0.020919563 0.07119273 0.11170057
000150 3a bc 63 3e 80 5d 02 3e 26 69 31 bd 3a b9 cf 3d
       0.22239771 0.1273098 -0.043313168 0.10142751
000160 5a bc c2 bd ad 2c 90 3d 9f 53 39 3d 72 22 67 3d
       -0.095085815 0.07039771 0.045245763 0.056429334
000170 6a bc 05 bd 2a 59 04 ba 2a bf a6 3b 44 36 50 bd
       -0.03265039 -0.0005048687 0.0050887065 -0.050833
000180 09 9c a6 3c 6a 34 a9 3d fb d6 2a bd e0 ea ab bd
       0.020338075 0.0826195 -0.041708928 -0.08394408
000190 39 55 06 3c 03 6f 3c 3c 67 df 73 bd bf 8f 01 be
       0.00819903 0.011501077 -0.059539225 -0.12652491
0001a0 c2 8b 1d 3e 6a 63 2e 3e 1b a0 d1 bc a8 cc a9 3d
       0.15385345 0.17030111 -0.02558904 0.08290988
0001b0 86 e9 03 bd 8a b7 52 3d a9 e1 3d 3c 6f 3e 93 3d
       -0.032205127 0.051444568 0.011589446 0.07189643
0001c0 5e 97 96 bc aa 1b 68 bc 69 34 35 3d b6 6f 71 3c
       -0.018382724 -0.014166752 0.044239435 0.014736107
0001d0 ad 4d 8b 3d 85 57 b4 bd c2 31 07 3d 62 80 f3 3d
       0.06801925 -0.088057555 0.033006437 0.118897215
0001e0 8d 8c 26 3d f3 1e 86 bd 2f 9a 6d 3d 41 ce 4d bd
       0.040661383 -0.06548872 0.05800837 -0.050245527
0001f0 42 22 c1 bc 4f 6f a1 3d 16 1c f1 3b 77 38 3f 3e
       -0.023575906 0.078825586 0.0073580844 0.18673883
000200 9a 23 66 3d ab bc df 3c ca 53 90 3d f4 75 78 bc
       0.056186296 0.027311644 0.070472315 -0.015164841
000210 51 4d b5 b9 7b 01 69 3d c0 51 79 bd ad cb f7 3d
       -0.00034580615 0.056886178 -0.06086898 0.12099395
000220 4b 27 42 bd d7 2c 85 3d 10 c9 e7 3d f5 5f 83 bd
       -0.047400754 0.06502693 0.113176465 -0.06414787
000230 20 73 12 be 88 8c e4 bc 65 75 5d be 24 87 6e bd
       -0.14301729 -0.027899042 -0.21626814 -0.05823435
000240 86 10 8b bc 64 ba eb bd 77 31 80 bc b2 ba 35 bc
       -0.016975652 -0.115101606 -0.015648587 -0.011091875
000250 cf 24 bd bd 39 68 02 bd 77 39 bc bc b9 ed 36 bc
       -0.09235536 -0.031837676 -0.02297662 -0.011165076
000260 7b 71 ed 3d 8d 77 3e 3e a3 dd 69 bd 17 6e 5d bd
       0.1159391 0.18600293 -0.057096135 -0.054060068
000270 73 fb 1b bd 4b 0b 14 3d 2c 6e 0d bd 36 11 37 be
       -0.038081598 0.036143582 -0.034528896 -0.17877659
000280 91 7d cf 3c ea 15 8c bc 12 0d 80 bd 64 28 bb bd
       0.02532843 -0.017100293 -0.06252493 -0.09138563
000290 e0 6b f5 bd 08 8e e7 3c 65 82 f2 39 6c 13 b9 bc
       -0.11983466 0.028265968 0.00046254988 -0.022592269
0002a0 21 c5 ea 3c 28 13 2e 3d 6c 37 88 3d 17 7c 04 3d
       0.028658452 0.042498738 0.06651196 0.032344904
0002b0 5e 92 fa 3d 84 58 2f bd 30 4f 6e 3c 34 db 8c 3d
       0.122349486 -0.042809024 0.014545247 0.06877747
0002c0 6b f5 ff 3d 03 f4 1f 3e c0 43 1f bd 8a 31 7a bd
       0.12497982 0.15620427 -0.03888297 -0.0610824
0002d0 2a 43 a4 3d 08 54 e7 3d aa 52 fd ba 89 5a 99 bc
       0.08020623 0.112953246 -0.0019327004 -0.018719928
0002e0 c9 d5 d0 bd db 73 e6 3d b1 d8 cb bd f2 91 74 bd
       -0.10197026 0.112525664 -0.0995344 -0.059709497
0002f0 4a 6a c1 bd 7f b4 9c bc eb 0b 1c be 45 19 51 bd
       -0.09444101 -0.019129036 -0.15238921 -0.05104949
000300 68 d6 da bd 29 45 d7 3d 7f 59 3c 3d c0 9b 56 be
       -0.10685426 0.10511238 0.045983788 -0.20957851
000310 22 de ae bd e3 74 13 3d 5d c6 41 3d e7 b1 e3 3d
       -0.08538462 0.036000144 0.047308315 0.111179166
000320 62 b4 a2 bd 04 c2 3c bd e8 9b 83 bd b1 33 f5 3b
       -0.079445615 -0.046083465 -0.06426221 0.0074829687
000330 1c 3c 1d 3e b2 a0 e9 bc 91 18 e2 bd 32 c6 2d 3d
       0.15354961 -0.028519008 -0.11039842 0.042425342
000340 0c 10 bd bd 2f 6e 34 be 5d 08 0d be 36 a9 33 3e
       -0.09231576 -0.17620157 -0.13772722 0.17545018
000350 73 79 8e bd 7d 36 bd bb c8 45 dd bb 6a bb bc bd
       -0.06956758 -0.005774318 -0.0067527033 -0.09215434
000360 4c 69 75 3d df 4d 00 bc 3f b8 80 bd 45 17 64 bd
       0.059914872 -0.007831066 -0.06285142 -0.055686254
000370 64 ab 92 3d 8a 5b c2 bc 05 3c 29 3e bd 05 97 bc
       0.071615964 -0.02372529 0.16526802 -0.018435353
000380 df 4d ae 3d fe 74 d0 3b 3d 36 02 bc 70 1f 6e bd
       0.085109465 0.006361603 -0.007947502 -0.05813545
000390 b0 56 77 3d e5 bb b7 bd ff e7 20 3c fe 18 21 3d
       0.060385406 -0.08971385 0.009820937 0.039330475
0003a0 33 3c b5 3c cc b2 11 bd 8e ec dd 39 12 3e 0d bd
       0.022123432 -0.035570905 0.00042328652 -0.034483023
0003b0 bd 57 1c be ae cc ae bd a6 5d c1 bd 9b 4d 06 bd
       -0.15267844 -0.08535133 -0.0944169 -0.032788854
0003c0 62 ce 99 bc 39 38 1b 3e 1e c8 2a be 52 ef a6 3d
       -0.018775169 0.15158166 -0.16677901 0.081511155
0003d0 11 0c 5f 3c 19 4b 38 3d 5e c6 46 3e 5d 44 97 3c
       0.013613717 0.044993494 0.19411609 0.018465215
0003e0 d4 ad 00 bd be b9 a7 3d 86 f2 3a 3d bf a8 fd 3d
       -0.031415775 0.081897244 0.045641445 0.123857014
0003f0 8b cf 3c bd 57 92 a7 bb 3f f5 57 3c 09 3d f9 bd
       -0.046096366 -0.0051138806 0.01318103 -0.12169845

encoder.1.bias f4 [32]
000000 f6 a2 86 b8 56 e6 a5 b8 12 b3 70 ba 8b 6b 01 bb
       -6.419972e-05 -7.9107165e-05 -0.0009181957 -0.0019747938
000010 cf 88 b7 ba 40 04 b2 39 f6 a0 19 ba 63 80 5c ba
       -0.0014002564 0.00033953972 -0.0005860472 -0.0008411465
000020 0b ba 15 ba a0 9e 06 38 db 2e c0 39 8b f6 81 ba
       -0.00057116215 3.209582e-05 0.00036656004 -0.0009915394
000030 49 ce 2b ba 0b 46 42 3a c5 58 c5 ba f8 ad 93 ba
       -0.0006553871 0.000741095 -0.0015056363 -0.0011267057
000040 44 21 c7 b8 d1 ea 84 b9 c6 ab 9f ba bf b9 12 bb
       -9.495256e-05 -0.00025351954 -0.001218193 -0.0022388545
000050 4c e7 3e ba cb e7 5f b9 b3 01 01 ba 84 56 83 3a
       -0.0007282391 -0.00021353287 -0.00049212127 0.001002029
000060 40 32 92 ba 9c ad d8 ba bd bf 59 b8 ae 84 a8 b9
       -0.0011153892 -0.0016531232 -5.1915402e-05 -0.0003214231
000070 7a 3d 06 ba fb f3 30 b9 48 7b c0 b9 e8 27 b2 37
       -0.0005120855 -0.00016875558 -0.00036712945 2.1237836e-05

encoder.4.weight f4 [64, 32, 3, 3]
000000 50 79 15 3d 56 8d 4d 3d c7 d7 47 3d 22 83 e1 bd
       0.036492646 0.050183617 0.048789766 -0.1101134
000010 d4 ca 0b 3c 68 af f0 3c 8f 80 fd 3d 54 7b 8d bd
       0.008532245 0.029380515 0.12378036 -0.069082886
000020 98 18 7c bd 17 88 7e bd a9 01 b8 bc 84 ca f7 bb
       -0.061546892 -0.062141504 -0.02246173 -0.0075619835
000030 0f 5e 1c 3d 11 6d a9 3d 06 c7 f3 3d 1c 31 c8 3b
       0.03817564 0.08272756 0.11903195 0.00610937
000040 e5 48 bf bc b4 b2 96 ba 31 b7 c5 3d ea 26 83 3d
       -0.023350189 -0.001149735 0.096540816 0.06403907
000050 f6 61 98 bd cf 27 e5 bc 94 1a ad bc 20 63 07 bd
       -0.074405596 -0.027973084 -0.021130838 -0.033053517
000060 14 45 dc 3c 90 02 70 3d c1 34 0b be 77 ff 60 3d
       0.026888408 0.058596194 -0.13594343 0.05493113
000070 88 9a 71 3d 9c 30 dd 3d ea 88 2b bd 73 bc 11 3c
       0.058985263 0.10800287 -0.04187862 0.008895027
000080 77 a7 24 3e 07 b8 2d bd 1f 20 d9 bc c1 a2 47 bd
       0.16079508 -0.04241183 -0.026504574 -0.0487392
000090 35 2d b6 3d 54 13 80 3d 44 9b 06 3e 0a ad 9a 3c
       0.08895341 0.062536865 0.13145167 0.01888134
0000a0 a1 1a fb 3b dc 20 1d bd d4 fd 44 3d 52 c0 c8 3d
       0.0076630865 -0.038361415 0.048093632 0.09802307
0000b0 ea 4b 26 39 f8 9d 8a bd 9d 48 8e 3d 7c 1a cf 3d
       0.00015859274 -0.067684114 0.06947444 0.10112473
0000c0 33 19 db 3d 95 0c d1 bd a7 f9 87 bc 38 ac 4f bd
       0.10698166 -0.10207478 -0.016598536 -0.05070135
0000d0 d1 47 a2 3d c5 0a 42 bc 66 69 43 be 62 63 8c bd
       0.07923854 -0.011843388 -0.19083175 -0.06854893
0000e0 24 20 10 3c ae c2 b1 3d b4 63 92 bc 1a 4b 6b be
       0.008796725 0.0867971 -0.017869808 -0.22977868
0000f0 0c fc 45 3e f9 f6 ec 3d 17 ca f5 bd df 48 46 3c
       0.1933443 0.11570544 -0.12001436 0.012102335
000100 0b 65 3a bd 50 20 5f bd e8 bc 56 3b 25 57 ce 3b
       -0.04550652 -0.054474175 0.0032766405 0.0062970095
000110 a7 65 31 bc c6 6f 56 3c bd 51 08 3e 90 f1 06 3e
       -0.010827458 0.013088172 0.1331243 0.13178086
000120 73 60 6f bd 24 29 06 3d ba dd d5 bd de d2 7f bd
       -0.05844159 0.03275408 -0.104426816 -0.062456958
000130 08 f7 c4 3d d4 2c 9b ba 96 73 74 bd 5a 92 ec 3d
       0.0961743 -0.0011838921 -0.059680544 0.11551352
000140 9d 3c 95 bc 9f 0b 17 3c fb 5b 10 3d fd d6 a0 3d
       -0.01821738 0.009219079 0.03524397 0.07853506
000150 9f 87 7c 3c 3d 07 fd 3d 9e bb 4f 3d 7f 47 c4 3c
       0.015413194 0.12354896 0.050716035 0.023959873
000160 8f 6f bf bd 2f cd a2 3d 42 42 3c 3c 9f ab db 3c
       -0.0934745 0.07949292 0.0114904065 0.026815234
000170 95 5a 93 3d 80 b2 87 3d f2 c2 0a be e3 a0 8e 3d
       0.071950115 0.06625843 -0.13550928 0.069642805
000180 57 7d ae 3d 8a e7 03 bd a4 4e 84 3a d9 73 77 3d
       0.085200004 -0.032203235 0.0010094238 0.060413215
000190 70 c4 98 bd 4b 55 9b bd 10 87 0d 3e f7 b9 59 3c
       -0.074593425 -0.07584628 0.13821054 0.013288966
0001a0 c3 46 44 3d 15 cd 60 3d 45 7e 82 bd c0 2e 66 bd
       0.047919046 0.05488308 -0.0637174 -0.056196928
0001b0 71 5e 1b 3e d6 23 fa bd 60 cf 4d be 44 63 ab 3c
       0.15172745 -0.122138664 -0.20098639 0.020921357
0001c0 55 57 8d bd 79 48 19 be 45 cb a1 3d a6 85 c2 3d
       -0.06901423 -0.14969052 0.07900099 0.09498148
0001d0 e2 0f 06 be 5d 9b 79 3d 51 dd 00 bd 91 fd 65 bd
       -0.13091996 0.06093918 -0.031461064 -0.056150023
0001e0 b5 26 6f bd 6b b8 9d 3d 5f 74 1c 3c 41 54 45 3d
       -0.058386523 0.077011906 0.009549229 0.048176054
0001f0 5b 48 ab 3d 76 d1 f2 3d 16 67 07 3d e4 09 53 bd
       0.0836341 0.11856358 0.033057295 -0.051523104
000200 aa 95 2d bd 24 17 a4 3c cd e4 36 bc e1 c9 2e bd
       -0.04237906 0.020030566 -0.011162949 -0.042672995
000210 5b e6 df 3c 94 f3 6a 3d 03 f7 08 be 7a c5 ae 3d
       0.027331522 0.0573612 -0.13375477 0.085337594
000220 00 ba 6e bd 1c 3e 84 3d 03 cc 7d bd 37 8a cd bd
       -0.058282852 0.06457159 -0.06196214 -0.10036128
000230 be bd b7 bc d7 e9 45 bc 7c 57 ed bd c3 e0 52 3d
       -0.022429343 -0.012079678 -0.11588952 0.05148388
000240 91 33 9c bc df a9 b3 3d 10 bf e7 3a da 3b 98 3d
       -0.019067558 0.08772635 0.0017680842 0.07433291
000250 95 9b cf bd 2d 50 9d 3d 43 6d ee bd b4 a9 64 3d
       -0.10137097 0.07681308 -0.11641934 0.055825904
000260 e9 a5 28 3d 1b b5 a5 bc 49 61 3a bd af 17 a2 bd
       0.04117385 -0.02022796 -0.045502935 -0.079146735
000270 8e a3 89 bb 65 f8 56 3d 81 c4 be bd 3d fd 8f 3d
       -0.0042004054 0.05248298 -0.09314824 0.07030723
000280 97 0a f2 bd 4e c6 e7 bd fc 9e 64 3d 1c 1a 11 3e
       -0.11818426 -0.113171205 0.05581568 0.14170116
000290 21 13 b7 3d c2 12 82 3d 41 72 1d bc 7a 01 80 3c
       0.089391954 0.06351234 -0.00960976 0.015625704
0002a0 55 8e 81 3c cb 45 92 bc a3 4b 2d bd 9b 1d 55 3d
       0.01581494 -0.017855546 -0.04230846 0.052030187
0002b0 d6 72 3e 3c 29 d1 56 3c df 97 56 3d e5 ac a7 bc
       0.011624059 0.013111391 0.05239093 -0.020468185
0002c0 16 84 f8 bd 70 f6 fa bb 7c 35 9d 3d c2 54 11 be
       -0.121345684 -0.007658772 0.07676217 -0.14192489
0002d0 73 68 79 3c 16 5d f7 bd 3d 19 87 bc ee 65 bb 3d
       0.015222657 -0.120783016 -0.016491527 0.09150301
0002e0 84 89 fc bc 88 90 21 be fc 3b 0f 3e 68 4a f9 3d
       -0.030827291 -0.1577779 0.13987726 0.12172395
0002f0 3c 86 0e 3d dc 2b 85 3d 9b 2b c4 bd 90 90 79 3d
       0.034795985 0.06502506 -0.095786296 0.06092888
000300 c2 df e3 bd 1d f9 9e 3c 48 f6 54 bd ba 1e e2 bc
       -0.11126663 0.019405896 -0.051992685 -0.027602542
000310 19 4a 5e bd a3 db 67 3c 7a 0c 10 be 4c b4 a0 3d
       -0.054269884 0.014151487 -0.1406726 0.07846889
000320 53 55 57 3c 37 e3 31 3e b8 81 b8 bd 14 80 ee 3b
       0.0131429015 0.17371832 -0.09009117 0.0072784517
000330 4a 74 da bd 84 79 a6 bd d7 ce f6 bc 1a 4f b1 bd
       -0.10666712 -0.08128646 -0.030127926 -0.086576656
000340 f9 53 bf 3c 8c 76 9b 3d ed 65 51 3e 5e 3c 00 bd
       0.023355471 0.075909704 0.20449038 -0.03130757
000350 9c 7e 7a bd 51 af dc 3d a1 7e 19 be 18 1e 7c 3c
       -0.0611559 0.107756265 -0.14989711 0.015388034
000360 5d dc 84 bd ff 83 88 bd 2a 6b fb bd 74 74 dd 3a
       -0.064873435 -0.06665801 -0.12276299 0.0016895668
000370 32 33 f5 bd b5 55 92 3c 12 a9 a5 bd 64 77 98 bc
       -0.11972655 0.017863134 -0.08088888 -0.018611617
000380 3d 15 c2 bd c9 a7 3c 3d 2c 4c a0 bd 5e 90 9f bc
       -0.09476707 0.04605845 -0.07827029 -0.01947802
000390 21 3b 9d bc c1 08 b4 3c 28 41 d0 bd 89 4f a9 bd
       -0.019193234 0.02197683 -0.101686776 -0.08267123
0003a0 18 d4 0b bc ad 11 1b bc ab 8c 3a 3e 9d 30 1f bc
       -0.008534454 -0.009464663 0.18217723 -0.00971618
0003b0 45 a4 0c 3e 18 1b b2 3d 53 58 95 3c 38 aa 36 be
       0.13734539 0.08696574 0.018230593 -0.17838371
0003c0 99 20 14 be 49 26 34 be be 4c 4d 3d 1c f1 b6 bd
       -0.1446556 -0.1759273 0.050122015 -0.08932707
0003d0 a4 35 51 3e 43 76 1a be ba 41 1e 3d 92 0d 2c bd
       0.20430619 -0.15084176 0.0386369 -0.04200513
0003e0 b0 6b 95 bd 92 17 82 3d fe fe 1d 3d 29 53 a8 bd
       -0.072959304 0.06352152 0.038573258 -0.082189865
0003f0 8b 71 ac 3b 89 5b dd bd 8f 9e ff 3d fc 48 6d bd
       0.005262559 -0.108084746 0.124814145 -0.05793093

encoder.4.bias f4 [64]
000000 31 ed c0 38 aa 49 1d ba 6f 86 ae b9 9c 03 2c ba
       9.199454e-05 -0.00060000515 -0.00033288027 -0.0006561817
000010 ad fa bf b9 77 7f 2a ba 16 57 41 ba 92 da 82 37
       -0.00036617127 -0.0006503979 -0.00073753425 1.5598987e-05
000020 6e 52 92 b9 f1 9d 86 ba 96 f6 fd b9 50 c1 cd b8
       -0.00027908705 -0.0010270459 -0.0004843964 -9.811169e-05
000030 19 ac ae ba 60 77 82 b6 b4 70 62 b9 8e 0f 0f 38
       -0.0013326436 -3.888199e-06 -0.00021595025 3.4108343e-05
000040 e2 7c d6 b8 50 de 00 37 cb 57 1a 39 4a a0 9d b9
       -0.000102275764 7.681156e-06 0.0001471929 -0.00030064798
000050 5d d3 82 38 a8 2b b9 ba 67 48 ae 38 6e c6 75 b9
       6.2382525e-05 -0.001412739 8.3104525e-05 -0.00023438942
000060 06 36 df ba 6a 7d 28 b9 43 6c 50 ba 28 04 4e 38
       -0.001702965 -0.00016068449 -0.00079507026 4.9118098e-05
000070 83 ef 85 3a 88 f9 46 ba 7c 78 ab b8 24 3e 9c 37
       0.0010218475 -0.00075902836 -8.1763574e-05 1.8625586e-05
000080 32 2b b0 b9 d7 c6 cf b8 aa 68 98 37 04 af 9d b9
       -0.0003360152 -9.907566e-05 1.816855e-05 -0.0003007577
000090 bf 74 42 3a 7b e7 d9 b9 bc a6 4e b9 7e 65 44 3a
       0.0007417909 -0.00041561932 -0.00019707804 0.000749193
0000a0 6d cf ac ba 6e 47 fc b7 42 ed 5c b9 9b 05 f4 b9
       -0.0013184376 -3.0074003e-05 -0.0002106922 -0.00046543483
0000b0 72 9d 83 b8 fe 4a fc 37 a6 ae 0a 3a e2 5f f6 b9
       -6.275893e-05 3.0075662e-05 0.0005290307 -0.00046992215
0000c0 da 9f be 38 ab 36 81 ba 00 f5 83 36 05 77 c4 b9
       9.089681e-05 -0.0009858211 3.932626e-06 -0.0003747271
0000d0 33 2f aa b9 68 27 fa 38 3a b2 0a ba 4a 89 bc b9
       -0.00032460093 0.00011928269 -0.000529084 -0.00035960443
0000e0 1a 68 28 ba 51 75 c3 ba 94 02 48 b9 d7 82 34 ba
       -0.0006424204 -0.0014912282 -0.00019074447 -0.0006885952
0000f0 8a 90 2f ba 91 3f 80 3a 61 61 63 b9 41 31 1b ba
       -0.0006697258 0.0009784569 -0.00021684683 -0.000592012

actor.0.weight f4 [64, 32, 3, 3]
000000 4f cd 9f bc e2 e5 75 3c 77 4c d3 bd ea b9 be bd
       -0.019507078 0.015008422 -0.10317319 -0.09312804
000010 c5 31 37 3d 6b 7c 8b 3c 53 3a b2 3c ec 46 e2 bd
       0.0447252 0.0170271 0.021756327 -0.110486835
000020 41 7c 78 bd 1d 9b 89 3d ed a9 5a 3d 97 13 78 bd
       -0.060665373 0.06719039 0.05338471 -0.060565557
000030 a1 d4 13 3c 1c df ef 3c 90 76 32 be fa 1a ab 3d
       0.009022863 0.029281192 -0.1742804 0.08354755
000040 64 e1 8b 3d 34 4a 8a 3e d8 74 b3 bc 26 62 31 bd
       0.06830099 0.27009737 -0.021906301 -0.043306492
000050 03 a9 eb bd 44 1b b5 bd ab 48 95 3b a8 a5 93 3b
       -0.11506846 -0.08843091 0.004555782 0.0045058317
000060 3c 16 bc bd 2a 9c 9e 3d 17 e5 32 3e cd 03 e2 bd
       -0.09183928 0.0774463 0.17470203 -0.11035881
000070 be 71 f3 bd b1 2f 7b bd f1 cb ae bd 77 e2 e8 bd
       -0.11886929 -0.06132478 -0.085349925 -0.1137132
000080 10 44 b5 bd 82 b3 1f 3e c8 88 dd bd 3e b9 6b 3d
       -0.088508725 0.1559582 -0.108171046 0.057549708
000090 92 98 97 3c 44 79 90 3d 99 50 9e 3d db 0b 32 bd
       0.018505368 0.070543796 0.077302165 -0.043468338
0000a0 c8 2f ba bd 8c 24 82 bb ba 33 a1 3d 4a 54 8d bd
       -0.09091145 -0.003971642 0.07871194 -0.069008425
0000b0 7e f0 22 3d cf 97 f5 bd df 27 1c be d6 01 e3 b8
       0.039780132 -0.11991846 -0.15249585 -0.000108245455
0000c0 69 c6 45 bc 22 4d 88 39 bb 75 45 3d 85 fc eb 3b
       -0.01207123 0.0002599741 0.04820798 0.0072017335
0000d0 95 3d 71 bd 1f 0f 91 3d 16 ef bf 3b e7 25 ec 3d
       -0.05889662 0.07082962 0.0058573587 0.11530667
0000e0 82 a4 20 be 80 91 68 3d 72 ea a8 bb 8a 2f 16 3d
       -0.15687755 0.056779385 -0.005154901 0.03666643
0000f0 8e 94 2c 3a 87 e1 9b 3c b7 ae b0 bd 93 71 09 bd
       0.00065834157 0.019028438 -0.08627074 -0.03355558
000100 07 01 25 3d 90 52 a0 3c 61 b9 e9 ba d0 56 9b 3d
       0.040284183 0.019570619 -0.0017831736 0.075849175
000110 1b 91 b7 3d 3a 9b 0e 3d e1 8e 6f bd 09 42 a2 bd
       0.089632235 0.034816004 -0.05848587 -0.079227515
000120 96 ab 8f bd 81 77 7f 3d 97 7d a5 3d 2b d7 15 be
       -0.07015149 0.062369827 0.08080595 -0.14632861
000130 34 e1 b3 bc b4 53 93 bd b3 d2 2c bd d3 9a ac 3d
       -0.021957971 -0.071936995 -0.042193126 0.08427968
000140 50 a8 b4 3b e3 af ad 3d 84 42 98 bd 8e 89 bb 3d
       0.0055132285 0.08480813 -0.07434562 0.09157096
000150 2d e8 08 3d e7 ef 8b 3c 56 41 1c 3d e4 58 da 3b
       0.033424545 0.017082168 0.038148247 0.0066634286
000160 14 da 1b bc e5 7d 90 3d 13 cd cf bc 8f c1 4a 3d
       -0.009512443 0.070552625 -0.025366342 0.049500998
000170 54 d5 b2 3d 28 a4 12 be 31 f3 dc bc 4a 6f 26 bd
       0.08732095 -0.14320433 -0.026971431 -0.040633477
000180 ce aa 24 bd 90 ae 46 3d 8b e4 d6 bb 53 27 a4 3d
       -0.040201955 0.04850632 -0.006558006 0.08015313
000190 38 59 5d bd d3 79 31 bd fd 3b 5b b9 3d ec ec 3c
       -0.054040164 -0.04332907 -0.00020907815 0.028921241
0001a0 83 93 33 3d 90 0d 89 bd 77 20 ca bd a2 1e d9 3d
       0.04384185 -0.0669204 -0.098694734 0.10601546
0001b0 62 d4 e2 ba 99 3c 92 3c cd 9b ed 3d 50 f5 fa bb
       -0.0017305727 0.01785116 0.11601982 -0.007658638
0001c0 99 c1 33 3e 1c 59 02 be ba bc 31 be 90 94 46 39
       0.1755432 -0.12729305 -0.1735715 0.00018938095
0001d0 ff 3c 15 be 6d 70 7c 3d 41 a3 11 3e 01 ff aa 3c
       -0.1457405 0.061630655 0.14222433 0.020873548
0001e0 9b b1 ca bc 54 75 b5 3d 92 90 4c 3c 13 6c dd bc
       -0.024742892 0.08860269 0.01248564 -0.027029073
0001f0 37 54 78 bd 39 83 1a 3c 2d fd c2 3d 98 7e 90 3c
       -0.06062719 0.0094307 0.09520946 0.01763849
000200 ce 64 96 bc 13 3e 53 3e 02 22 51 3d 51 b5 bb 3d
       -0.018358614 0.20629148 0.051057823 0.09165443
000210 76 da b7 3c 4d cc 40 3e 04 84 de 3d 4b af 2f 3d
       0.022443037 0.18827935 0.10865024 0.04289178
000220 90 4e 14 bc 59 5b 04 bc af 43 0a bc c3 c0 a0 bd
       -0.009051934 -0.00807842 -0.008438989 -0.078492664
000230 aa df dc 3d 58 a1 87 bd eb e6 a6 3d 80 1d f2 3d
       0.10784848 -0.06622571 0.08149513 0.11822033
000240 5e d4 09 bd 28 e5 06 bd c7 43 aa 3c 27 cf 07 be
       -0.033649795 -0.032933384 0.020784272 -0.13262616
000250 8f eb 6f 3d a9 4a 04 bc d1 9b 26 3e 69 76 0f bd
       0.058574256 -0.008074441 0.16270377 -0.035025034
000260 1f 79 c9 3d bf 06 c1 bd 20 f2 05 bd 08 26 1c 3d
       0.09837555 -0.09425115 -0.03270161 0.038122207
000270 94 9a 9f 3d 34 01 c8 ba e2 75 f6 bc be bc 88 3d
       0.07793155 -0.0015259148 -0.030085508 0.06676625
000280 83 ca e7 bd b0 8a d0 3d c0 53 b9 bd 65 7f cd 3c
       -0.11317923 0.101827025 -0.09049177 0.02508516
000290 7f 02 f6 bc 79 92 d5 3b 8c 01 cb bc 7f 3c 16 3e
       -0.030030487 0.006517705 -0.024781011 0.14671515
0002a0 c7 ad 61 3c ab 3f 5c bc 2c ed 70 3d db aa 47 3e
       0.013774342 -0.013442914 0.058819935 0.1949877
0002b0 8f f7 56 3d 4a 7e 68 3c 52 64 45 be 35 89 8b 3d
       0.052482184 0.014190266 -0.1927655 0.068132795
0002c0 63 b3 59 bc f3 d3 0e 3e 26 34 b3 3d e9 d6 b0 3d
       -0.013287398 0.1394804 0.08750181 0.08634741
0002d0 1a 39 1c bd a7 78 32 bd 11 47 17 bd f7 49 32 bc
       -0.038140394 -0.043572094 -0.03693301 -0.010881892
0002e0 27 48 13 3e 20 52 b3 3d b5 78 95 3d 26 ba 9f 3d
       0.14382993 0.087558985 0.07298414 0.07799177
0002f0 aa f0 29 be 5c 8d cc 3d be 9d 0c bd b2 1f 3e bd
       -0.16595712 0.099879 -0.034330122 -0.046416946
000300 f9 d3 25 be 8e cf bc 3a d9 c7 26 3e df 3c 6c bc
       -0.16194142 0.0014405118 0.16287173 -0.01441881
000310 82 cc 4c 3d 1a dd 57 bd 9a 7f 07 3d d2 9c bc 3b
       0.04999972 -0.052701093 0.033080675 0.005755999
000320 15 f8 52 3d f3 ce 62 3d ff 1d 89 bd 84 a4 98 3d
       0.05150612 0.055373143 -0.066951744 0.07453254
000330 30 60 a4 3d d1 28 cd 3d d2 20 f6 bc 91 b8 0c 3c
       0.08026159 0.10017551 -0.030044947 0.008588926
000340 69 8c 40 bd dc c1 8c bd e2 9b ad bd 39 fd 27 bd
       -0.047008906 -0.06872913 -0.08476998 -0.041012976
000350 aa 62 e6 b8 84 e2 0c 3e 8a ba 46 3e 0d 42 5a 3d
       -0.00010985632 0.13758284 0.19407097 0.053285647
000360 97 ab 4d bd 51 de 03 3d e6 2c c4 3b 44 ae aa 3d
       -0.05021247 0.03219444 0.0059867976 0.0833402
000370 b5 4b 25 be 52 2e 0b 3b c2 9f d1 bd 5c 40 3c 3d
       -0.16142161 0.0021237326 -0.102355495 0.045959815
000380 82 97 87 3d 76 4d ba bc d6 b4 50 3d d2 02 7f bd
       0.06620695 -0.022742014 0.05095371 -0.06225855
000390 94 d8 d3 bd 28 d9 42 3e 1c e3 17 3d f2 34 30 3e
       -0.103440434 0.19028151 0.037081823 0.17207697
0003a0 2a 9c a6 3c 44 52 c3 3c 7b e4 9b 3d 81 31 c9 bd
       0.020338137 0.023842938 0.076119386 -0.09823895
0003b0 72 c6 54 3e 96 e3 51 be f3 34 59 bc 08 44 c8 3c
       0.20778826 -0.20496973 -0.013257253 0.024446502
0003c0 f9 f2 ac bd cf a9 9d 3c 1d 06 b0 bd 31 cb 5d 3d
       -0.08444781 0.01924601 -0.08594916 0.054148857
0003d0 22 70 0a 3e 31 97 79 bd af 27 26 3d d7 90 88 3d
       0.13519338 -0.060935203 0.04056519 0.06668251
0003e0 8f 4c c8 bd db 53 02 be 06 c7 89 bd 3b 0b f3 bd
       -0.097802274 -0.12727301 -0.06727414 -0.118673764
0003f0 78 d5 6a 3d 22 9c 8d 3c c8 56 e0 3d d4 be 35 bb
       0.057332486 0.017286364 0.10954052 -0.002773215

actor.0.bias f4 [32]
000000 19 b6 32 3a e3 59 b2 3a 86 09 02 39 48 5c d6 3a
       0.0006817296 0.0013607111 0.00012401314 0.0016354406
000010 a9 d1 f3 39 17 4f 89 ba 20 a1 0a 38 98 fb 2b 3a
       0.0004650478 -0.0010475841 3.3051823e-05 0.0006560623
000020 a5 b1 f0 ba 01 27 c6 b9 81 af 67 ba 0f 53 e6 ba
       -0.0018363489 -0.00037794563 -0.0008838103 -0.0017572361
000030 5c a0 8a 3a 6c 13 04 39 d2 b7 ae b9 37 ad ea ba
       0.0010576355 0.00012595736 -0.00033324823 -0.0017904405
000040 a7 6a 98 ba c1 bc 89 ba 62 7e d5 ba 16 da a6 39
       -0.0011628465 -0.0010508524 -0.0016288275 0.00031824474
000050 a5 b5 2e 3a 67 00 84 3a 5c 72 ae ba 72 b1 00 3a
       0.00066646404 0.0010070921 -0.0013309228 0.0004909254
000060 d8 60 74 ba 01 e0 85 3a f5 16 86 ba b4 55 f6 39
       -0.0009322292 0.0010213853 -0.001023023 0.0004698463
000070 fa 31 9b ba 13 27 25 3a 5d fc 94 b9 d3 72 02 ba
       -0.0011840456 0.0006300073 -0.00028416785 -0.00049762166

actor.2.weight f4 [32, 78, 3, 3]
000000 43 09 ab 3b cf 85 e9 bc dc e5 aa 3b 45 a7 6f bc
       0.00521961 -0.028506188 0.0052153897 -0.0146272825
000010 e1 65 77 ba 06 6b d6 3d 1b dd 25 3d 08 7e 83 3d
       -0.00094374834 0.10469632 0.040494066 0.06420523
000020 28 e0 56 bb 90 9d 1e 3c 21 a2 47 bd 7d 53 34 bd
       -0.0032787416 0.0096811205 -0.048738603 -0.044024933
000030 da d9 34 3d a7 e4 72 bd ca 11 b8 ba 1a d5 0c 3d
       0.044153072 -0.05930009 -0.0014043387 0.034382917
000040 84 de 0e 3c a1 ac 1f 3d e1 2f 88 bd 64 b4 7d bd
       0.008720044 0.03898299 -0.06649757 -0.061939612
000050 e0 68 45 3d f1 09 d0 bc 05 8e ca 3d 71 c7 30 3c
       0.04819572 -0.025395365 0.09890369 0.010789738
000060 21 9d ce 3c 14 9b 8b 3d ec 49 14 3d 31 7c 22 bc
       0.02522141 0.06816688 0.03620331 -0.009917305
000070 e0 cd 28 3a 10 cd 4d bd 87 49 5f bd 5a 6d 37 bc
       0.0006439369 -0.05024439 -0.05451348 -0.011195505
000080 4d 5b 85 3d 7c 53 1e 3c d0 9c bd 3d c7 f6 6a bd
       0.06511555 0.009663459 0.09258425 -0.05736425
000090 23 ec 2d bd ec cd da bd fa 3d 46 3d a6 39 a8 bd
       -0.042461526 -0.10683808 0.04839895 -0.082141206
0000a0 c3 02 27 bd 54 13 d9 3b 1e d6 4a bd 31 d5 a9 bd
       -0.04077412 0.0066246185 -0.049520604 -0.08292616
0000b0 dd c2 08 bd 6e 4f 86 bc 4a fc dc bc e7 49 8a 3d
       -0.03338896 -0.016395297 -0.02697577 0.06752377
0000c0 55 c9 cf bd 38 ea 7c bd cb 72 10 3c c8 da 06 bc
       -0.10145823 -0.061746806 0.008816431 -0.008230872
0000d0 d3 dc 5e 3d e1 d3 16 3d 98 7f aa bc bf 02 84 3d
       0.054409813 0.036823157 -0.020812795 0.06445836
0000e0 3b 3d a1 bd 76 3e a2 3d d8 7e 3f 3d e5 7d 70 bc
       -0.07873007 0.0792207 0.046751827 -0.014678453
0000f0 af 3f 8d bc fb f9 ed bc 54 8c c8 3d 46 63 42 3b
       -0.01724228 -0.029049864 0.097923905 0.0029661222
000100 e3 b4 6a 3d 91 98 94 bd f9 cf 83 3c 4e d5 d3 3c
       0.057301413 -0.07255662 0.01609038 0.025858548
000110 43 00 5b 3d 39 91 f4 bb e8 b8 07 3d 7f f8 57 bb
       0.053467046 -0.007463601 0.033135325 -0.0032954512
000120 68 29 31 bd 6d 5b 88 bc 86 bf 06 be 76 20 b8 3a
       -0.04325238 -0.016645158 -0.13158998 0.001404776
000130 3d c6 8e bd 78 8a e2 bc 30 34 e3 ba 11 81 00 3d
       -0.06971405 -0.027653918 -0.0017334279 0.031373087
000140 7c f0 d4 bc 19 ff 71 3c f6 10 a3 3d 64 e8 3e 3d
       -0.025993578 0.014770293 0.079622194 0.046608344
000150 68 7f 20 3d c0 bb 03 3c 5a 90 9d 3d 04 13 10 3d
       0.039184004 0.008040369 0.076935485 0.035174385
000160 c7 36 94 3c f8 22 45 3c db f6 67 3d 42 a1 8c 3d
       0.018092526 0.012032263 0.056631904 0.06866695
000170 32 cb 75 bd ec 86 11 3d 55 d3 c1 bd 13 06 a9 bd
       -0.060008235 0.035529062 -0.094641365 -0.08253112
000180 e8 d8 2b 3d 19 56 1c 3d a3 d3 52 bb b0 cb 91 bd
       0.041954905 0.038168047 -0.0032169602 -0.071189284
000190 aa 8b 06 3d bc 0f bb bc 81 c7 a8 bc 61 3d de ba
       0.032848038 -0.022834651 -0.020602943 -0.0016955548
0001a0 2b 7f b7 3d f1 90 a3 3d be df 5c 3d 24 51 95 3b
       0.08959802 0.0798663 0.053924315 0.004556792
0001b0 52 1a b1 bc 82 39 8c 3c 73 1e ba bd 12 a7 2d bd
       -0.021618996 0.017117266 -0.09087839 -0.04239566
0001c0 a7 a6 df bd 50 95 24 bb bd 63 87 3d 60 d3 1e bd
       -0.10920458 -0.0025113411 0.066108204 -0.0387758
0001d0 84 46 00 bd bb cf 30 3c b5 1a 8a bd f9 a5 5f bc
       -0.03131725 0.010791714 -0.06743375 -0.013650411
0001e0 24 3e 0d bc 10 55 8d bc 5d fe 82 ba 73 ff 39 bd
       -0.0086207725 -0.017252475 -0.0009994019 -0.04540963
0001f0 23 8d 3f bd e3 0d 9c 3c 1c 1f 8c bc 27 cd 7d 3d
       -0.046765458 0.01904959 -0.017104678 0.061963227
000200 b9 56 1d 3d d1 6c 3a 3d fd 54 2f bd f6 c1 b0 3c
       0.038412783 0.04551393 -0.04280566 0.021576863
000210 c1 7d 0f bc c5 62 ae 3d 71 b9 b1 bd 35 7a 37 bd
       -0.008758009 0.085149325 -0.08677948 -0.04479428
000220 62 96 82 bd 26 3e 09 3d d4 48 91 bd c3 69 60 bc
       -0.063763395 0.033506535 -0.07093969 -0.013697091
000230 f8 25 89 bd 2c 7a 92 bd ae b6 6e bb aa e9 cb bc
       -0.06696695 -0.07152209 -0.0036424804 -0.024891693
000240 ec ee f7 3c 00 31 e5 38 5f 2d 53 3d 96 55 8d bd
       0.030265294 0.00010928698 0.05155694 -0.0690109
000250 88 dc 34 3d 4f 67 5f 3d 4d 5e 75 bc 87 a4 57 3c
       0.044155627 0.054541882 -0.014976096 0.013161785
000260 dd 73 e9 3c a8 5a c8 bc 6a a1 bb 3c 39 36 2e 3d
       0.02849763 -0.02445729 0.022904117 0.04253218
000270 ec 98 d6 3d ac fb 92 3c d1 3d 95 3d 1a 40 45 bd
       0.10478386 0.017942272 0.07287181 -0.048156835
000280 c7 1b 37 bd a5 ee 77 3d 40 47 9f 3c 73 c4 17 3d
       -0.044704225 0.060530324 0.019443154 0.037052583
000290 a1 fd 1c bd cf 3d 35 bd 7b 2b bb bd 92 ce 56 3c
       -0.038327817 -0.0442484 -0.091391526 0.013110774
0002a0 79 e1 f8 3c 3c 9b 27 bd 87 1b b4 3c 3f 2d 86 3d
       0.030380951 -0.040919527 0.021985782 0.06551599
0002b0 45 75 96 bc 7d e9 65 3c 9e 8d 28 3d ad 25 f9 3c
       -0.018366465 0.014032719 0.04115068 0.030413473
0002c0 13 aa 2a bd fa 9c 1e 3d cd c7 93 bd 61 c2 94 bd
       -0.0416661 0.038723923 -0.07215843 -0.07263637
0002d0 75 59 df 3c 36 88 01 3d 83 fa 2b 3d 4d f6 cb bc
       0.027264336 0.03162404 0.041986953 -0.024897719
0002e0 90 02 ea 3c 19 88 64 3d 09 b2 37 bd a0 2b dc bc
       0.028565675 0.055793855 -0.044847522 -0.02687627
0002f0 7b 3a 74 3c 37 9a ce bc bc 26 eb 3d 23 00 70 bd
       0.014906521 -0.02522002 0.11481997 -0.05859388
000300 59 7c c0 3c 23 6c d3 3d 17 5f ae bd 74 5a 2a bd
       0.023496794 0.1032336 -0.08514231 -0.04159017
000310 02 b9 bd bc 8f 98 7c 3d e2 39 94 bd 47 74 f8 3c
       -0.023159508 0.06166893 -0.07237603 0.030328883
000320 38 49 99 bd 16 fa 39 bc a3 52 af 3d 99 89 ba 3a
       -0.074846685 -0.011351129 0.085606836 0.0014231681
000330 e8 3b 21 3c f9 6b 15 bd 4a 8e a5 bc e8 8b 6d 3c
       0.009840943 -0.036479924 -0.02020945 0.014498688
000340 37 75 ba 3d a9 78 71 3c 11 14 14 bd 89 0a 8b bd
       0.09104388 0.01473824 -0.03615195 -0.06789119
000350 95 b3 07 3c ae a5 d2 3c d4 86 33 bd ca a8 9a bb
       0.008282562 0.025713768 -0.043829754 -0.0047198283
000360 41 e0 95 bd 2d 68 22 3b 80 ba fc 3c b9 35 70 3d
       -0.07318164 0.0024781332 0.030850649 0.058644984
000370 d4 71 3a bd 45 52 94 bd 2c ca b3 3d a6 ea 9a bc
       -0.04551871 -0.07242254 0.087787956 -0.018910717
000380 2e 7f 2f bc 2d f5 1b 3d 23 e5 1e bd 32 db a3 bd
       -0.010711474 0.038075615 -0.03879274 -0.080007926
000390 0e 59 87 3d f0 6a 7f bd 83 d2 0f 3d b0 76 da bd
       0.06608783 -0.062357843 0.03511287 -0.10667169
0003a0 68 0d 76 bd bc b7 2c bc 12 13 9f bd c0 69 ff 3c
       -0.06007138 -0.010541853 -0.07767309 0.031178355
0003b0 89 b7 da 3c b9 dc cc 3c 21 bf bc 3c 09 28 f6 3d
       0.026698845 0.025007593 0.023040356 0.12019355
0003c0 5e 71 f3 3b 74 cd 9e 3d f2 54 16 bd f6 56 82 bc
       0.007429286 0.07754031 -0.036702104 -0.015910607
0003d0 a9 d1 c5 bc 24 31 8c 3d 91 29 18 bc 7c de 5a 3d
       -0.024147825 0.0684531 -0.009287254 0.053434834
0003e0 b6 29 d9 bb 6d d2 b0 3c 12 27 70 bc 40 97 81 bd
       -0.006627287 0.021584714 -0.014657753 -0.06327677
0003f0 67 81 cf 3c a7 17 6b 3c 19 4d 39 bc e0 dc 44 bd
       0.025330259 0.014348901 -0.011309885 -0.048062205

actor.2.bias f4 [78]
000000 82 39 53 ba 2e 39 bb ba 63 06 c8 3a 66 1e 13 3b
       -0.00080575806 -0.0014284009 0.0015260692 0.0022448539
000010 60 68 07 3b 50 05 af 3a 23 e3 fa 3a 8e 80 da ba
       0.0020661578 0.0013353024 0.0019141178 -0.0016670392
000020 74 55 11 bb 3a bd b1 3a 00 00 00 00 00 00 00 00
       -0.0022176178 0.0013560422 0.0 0.0
000030 00 00 00 00 00 00 00 00 00 00 00 00 00 00 00 00
       0.0 0.0 0.0 0.0
000040 00 00 00 00 00 00 00 00 80 4e aa b9 e7 61 ab 3a
       0.0 0.0 -0.00032483414 0.0013075442
000050 b6 78 b4 39 b2 bb 47 bb 00 00 00 00 00 00 00 00
       0.00034422212 -0.0030476865 0.0 0.0
000060 00 00 00 00 00 00 00 00 00 00 00 00 00 00 00 00
       0.0 0.0 0.0 0.0
000070 00 00 00 00 00 00 00 00 00 00 00 00 00 00 00 00
       0.0 0.0 0.0 0.0
000080 00 00 00 00 00 00 00 00 00 00 00 00 00 00 00 00
       0.0 0.0 0.0 0.0
000090 00 00 00 00 00 00 00 00 00 00 00 00 00 00 00 00
       0.0 0.0 0.0 0.0
0000a0 00 00 00 00 00 00 00 00 00 00 00 00 00 00 00 00
       0.0 0.0 0.0 0.0
0000b0 00 00 00 00 00 00 00 00 00 00 00 00 00 00 00 00
       0.0 0.0 0.0 0.0
0000c0 00 00 00 00 00 00 00 00 00 00 00 00 00 00 00 00
       0.0 0.0 0.0 0.0
0000d0 00 c7 13 bb 00 00 00 00 6a 9b 2a bb 00 00 00 00
       -0.0022549033 0.0 -0.0026032575 0.0
0000e0 00 00 00 00 00 00 00 00 00 00 00 00 00 00 00 00
       0.0 0.0 0.0 0.0
0000f0 82 22 2c 3b 00 00 00 00 00 00 00 00 00 00 00 00
       0.0026265685 0.0 0.0 0.0
000100 00 00 00 00 00 00 00 00 00 00 00 00 00 00 00 00
       0.0 0.0 0.0 0.0
000110 00 00 00 00 00 00 00 00 00 00 00 00 00 00 00 00
       0.0 0.0 0.0 0.0
000120 00 00 00 00 00 00 00 00 00 00 00 00 00 00 00 00
       0.0 0.0 0.0 0.0
000130 00 00 00 00 00 00 00 00
       0.0 0.0

critic.1.weight f4 [128, 1024]
000000 44 0b 67 bc 75 35 5e 3c 43 ec 31 3d 9f 7d 3d bd
       -0.014101807 0.01356255 0.043438207 -0.04626238
000010 db fd b9 3b 1b 05 8e bd c4 cb 07 38 26 f2 91 3c
       0.005676014 -0.069345675 3.237628e-05 0.01781566
000020 72 85 b2 3d 3f 05 07 bc 3e c2 c0 3c 5f 3f 11 bd
       0.08716859 -0.008240997 0.023530122 -0.035460826
000030 7f 27 2a 3d a8 b8 e2 bc 44 54 d2 3c 5b be 1e 3d
       0.041541573 -0.027675942 0.025674947 0.038755756
000040 9d a3 3a bd 67 5c a7 bc 1d a3 3b 3d 19 d6 b0 bd
       -0.04556619 -0.020429803 0.045809854 -0.08634586
000050 55 8a c1 bc 8d 8e 8e 3c 14 19 e6 3c c7 84 03 3c
       -0.023625532 0.017401958 0.02808813 0.008027262
000060 a9 17 9b bb 20 a8 1f bd 45 b5 80 bc ad 9c 79 3d
       -0.004733045 -0.038978696 -0.015711436 0.060940433
000070 bd b0 4d 3a fa c8 b0 3c 5e a8 2f bc 13 69 94 bd
       0.00078464655 0.021580208 -0.010721294 -0.07246604
000080 e7 68 c4 bc b4 48 98 bd 31 33 c6 3d 44 08 8b 3d
       -0.023975803 -0.07435742 0.09677733 0.06788686
000090 fb e1 8c 3d 58 2d 98 3c ad 9b 1d 3c c9 60 21 bd
       0.0687904 0.01857631 0.0096196355 -0.039398942
0000a0 38 5e 11 bd 96 80 40 bd e9 7e 86 bc f2 19 1d bc
       -0.035490245 -0.04699763 -0.016417937 -0.009588705
0000b0 cd 95 86 3c 57 89 31 bc 81 f4 c9 bb 9e 7a 50 3d
       0.016428852 -0.010835967 -0.0061631803 0.050898187
0000c0 2e 58 8a bc c1 15 8e 3c b1 09 38 3d 95 1d 0f bd
       -0.01688775 0.017344357 0.044931117 -0.03494032
0000d0 ff e9 43 3d b1 05 31 3e e9 3b 89 3c fa 4d 9b bd
       0.047830578 0.17287327 0.0167522 -0.07583232
0000e0 b7 60 a8 3c 60 6b 33 3d c3 27 43 3a 3e 03 03 3d
       0.02055393 0.043803573 0.00074445846 0.031985514
0000f0 29 f3 9c 3d 4a 61 4b 3c b6 2a 34 bc af b3 5f 3c
       0.076635666 0.012413332 -0.010996511 0.01365368
000100 b6 33 eb 3d b6 9d 56 bd 21 e3 05 3c 26 01 a2 3c
       0.114844725 -0.0523965 0.0081718275 0.019775938
000110 9c 25 a9 bb ce 41 3b 3d 36 39 40 bd 3a d9 58 3b
       -0.005161954 0.045717053 -0.04692956 0.0033088461
000120 ba 69 ab bc 22 3e 1d 3b a5 5e 92 bd e3 50 b6 bc
       -0.020924438 0.0023993333 -0.07146958 -0.022255367
000130 a3 54 95 bc 5b 3a 17 3d 86 e3 40 bc f2 7a 03 3d
       -0.018228834 0.036920886 -0.011772996 0.03209967
000140 ea 60 09 bd 41 3c 47 3d 3a ce 28 bd 18 4d 14 3b
       -0.03353969 0.048641447 -0.041212298 0.002262896
000150 a6 c6 a0 bd 6b 8f 6a bb 97 f3 69 bd 90 e0 bf bb
       -0.07850389 -0.003579105 -0.05711707 -0.0058556274
000160 f6 ce c9 bd 9d 53 40 3b 9b dd 1f bd e3 5c 22 3d
       -0.09853928 0.0029346712 -0.0390297 0.039639365
000170 fb 12 0c bd b1 07 a0 bb fa 96 dc 3b a9 23 f9 bb
       -0.03419779 -0.0048837294 0.006731865 -0.007603128
000180 e1 21 fa bb aa ba 7f 3d 9f 61 85 3d 76 0e b8 bd
       -0.007633433 0.062433876 0.0651276 -0.08987133
000190 b0 bf 08 3c 3b 70 a7 3a 1e a1 a5 bd 7f 7e c3 3c
       0.008346483 0.0012774536 -0.08087371 0.023864029
0001a0 5b 22 d6 3c e5 14 af bc 5b 3a 46 bc 34 7d 8e bc
       0.026139429 -0.021372268 -0.012098874 -0.017393686
0001b0 7f a8 3b 3d f1 82 42 3c c6 d3 89 3c 70 3f 14 3d
       0.045814987 0.011872039 0.016824614 0.03619331
0001c0 44 5c 1d bd 92 1d 11 3d f3 27 74 3c 2b 80 f8 3c
       -0.03841807 0.03542859 0.014902103 0.030334553
0001d0 fb 64 c6 bc 58 14 55 3b e4 26 af 3c 4c cf 64 bd
       -0.024218073 0.0032513347 0.02138085 -0.055861756
0001e0 cb 9d 1d bb 0a c3 33 3c ac 27 08 3d a4 c5 9a 3c
       -0.002405035 0.010971794 0.03324096 0.01889307
0001f0 e4 54 58 3d c9 5b fc 3c 09 f0 35 ba 7c 55 cf 3a
       0.052815333 0.030805485 -0.000694037 0.0015818323
000200 29 df 7d 3c 28 ee 95 3d 3c 99 ad 3c 4f 06 6c 3c
       0.0154951 0.07320815 0.021191232 0.014405801
000210 1c 71 9e 3c 21 cf f1 3c c8 e9 0e bc 7b 39 9e bc
       0.019341044 0.029517712 -0.00872273 -0.019314518
000220 04 84 12 bd c2 61 f2 3c d4 50 38 bd 0f 57 43 bc
       -0.03577043 0.02958763 -0.04499896 -0.011922612
000230 90 b9 af 3d 71 e2 a1 3c 94 06 4c bd 1f 28 45 bc
       0.08580315 0.019761296 -0.04981096 -0.012033491
000240 05 cf 06 be cd dc ac bc 29 02 b4 bd 64 41 2e 3d
       -0.13164909 -0.02110138 -0.087894745 0.04254283
000250 ce 97 60 3d 9f bb 6b 3c 19 b0 05 3d 57 fe a1 3c
       0.054832272 0.014387994 0.032638643 0.019774599
000260 37 39 42 3d d9 22 89 bd cb 66 c3 3d ce a1 8a 3d
       0.047417846 -0.066961 0.095410906 0.06769143
000270 c4 0a 63 3c 9d cd 87 3c 1f 9b 0d 3d a3 6d 56 bd
       0.013857547 0.016577536 0.034571763 -0.05235065
000280 d5 30 f7 bc a3 4e 5a bd 82 28 c8 3c 88 54 2c bd
       -0.030174652 -0.05329765 0.024433378 -0.042072803
000290 f7 c9 85 bc 7d 95 c6 bc 80 57 ba bc 3d da c4 3d
       -0.016331656 -0.024241203 -0.022746801 0.09611938
0002a0 d0 9b 8a bd 77 a8 af bc 75 4b c5 3b 29 7b 87 bc
       -0.06768 -0.021442635 0.006020958 -0.01653822
0002b0 50 0e 23 3d 53 f5 00 3d 8d 22 71 bc 74 c5 43 bc
       0.03980857 0.03148396 -0.01471771 -0.011948932
0002c0 de 8e 81 bd 03 e4 1f 3d 42 ee 80 3c 4a e3 1c bd
       -0.06326078 0.03903581 0.01573861 -0.038302697
0002d0 1b 85 97 3d 9b 14 02 3e 03 89 31 bd fe bb 94 bc
       0.07398435 0.12703173 -0.043343555 -0.018156048
0002e0 a4 1c f6 3c 1d 62 8b bc 05 06 ff bc b7 44 30 bd
       0.030042954 -0.017014557 -0.0311308 -0.04303428
0002f0 36 d5 e3 bc 83 7d c7 bd 66 8c 86 bd a7 72 4f bc
       -0.027811628 -0.09740736 -0.065697476 -0.012661613
000300 ae d7 84 bc a3 fe 3d 3c b2 ed 4e bd 69 66 d2 3a
       -0.016216125 0.011596355 -0.050519653 0.0016052249
000310 e5 60 99 bc 89 37 08 bd 0e 40 88 bc 2a 42 13 bd
       -0.01872296 -0.033256087 -0.016632106 -0.03595177
000320 fa 81 2c 3d 0d a9 0e 3d f8 e8 05 bb 76 39 5a bb
       0.042116143 0.03482919 -0.002043305 -0.003329841
000330 10 9b 98 3c b3 35 88 3c 3f 77 3e bd ae f8 4c 3d
       0.018628627 0.016627168 -0.04650044 0.050041847
000340 a2 b5 aa 3d 93 2a 8b bb 0a 7e c2 bb d3 c8 1a 3d
       0.08335425 -0.0042470186 -0.005935435 0.037789177
000350 33 7f c1 3b 4f cc 7f 3c 4a 0e 61 3b 15 b7 19 3d
       0.005905056 0.015612676 0.0034340792 0.037528116
000360 97 cd c9 bc b9 0a ba 3c 23 13 19 bd b7 4d be bd
       -0.024634166 0.022710191 -0.037371766 -0.09292167
000370 8c e3 71 3d 28 e4 74 bc 5b ed 1c 3d 87 50 b0 3d
       0.059054896 -0.014946975 0.038312297 0.08609109
000380 2f 0a 91 3c 59 c2 41 3b 9a f5 d7 3c 23 be 07 3d
       0.017705051 0.0029565303 0.02636223 0.033140313
000390 5d 95 1a bd 50 94 81 3d 21 91 fa bc 86 b4 5b bc
       -0.0377401 0.063271165 -0.030586781 -0.013409739
0003a0 9b fc 7e 3d f9 d0 96 3d f5 db 63 bc 30 f7 6c 3d
       0.062252622 0.07364077 -0.013907422 0.057852924
0003b0 eb 85 b3 bc 25 22 da 3c 02 12 4e 3c ba 99 11 bd
       -0.021914443 0.02662761 0.012577536 -0.035546996
0003c0 bc 80 60 bd 34 c9 b5 bc 50 69 0c 3c 44 7a d6 bc
       -0.05481027 -0.022190668 0.00857003 -0.026181348
0003d0 d9 b8 a4 b8 ea a3 c1 bd 65 9b cd bc 84 8c b4 3a
       -7.85456e-05 -0.09455092 -0.025098512 0.0013774787
0003e0 5d cd 19 3d ca ff 0d 3d 31 49 2c bd 6c 16 10 bd
       0.037549365 0.034667768 -0.04206199 -0.035177633
0003f0 25 02 f1 bc e3 69 1d 3e c6 79 95 bb cc 07 e6 bd
       -0.029419968 0.15372424 -0.0045616357 -0.11231956

critic.1.bias f4 [128]
000000 0a 3b e3 b9 44 7b 5e b9 d0 41 07 39 6e d0 0d b9
       -0.00043340801 -0.0002121749 0.0001289912 -0.00013524454
000010 dd a0 25 ba 28 f4 ec 36 fa db 0b b9 00 00 00 00
       -0.0006318221 7.0617716e-06 -0.0001333802 0.0
000020 00 00 00 00 67 98 03 39 aa e0 1f b9 c5 82 02 39
       0.0 0.00012549908 -0.00015247116 0.00012446482
000030 d2 ba a8 b9 00 00 00 00 e4 c2 ca 38 8b 5a 15 39
       -0.0003218265 0.0 9.668412e-05 0.00014243477
000040 6b dd 02 39 14 0c 26 b9 88 79 06 39 31 cc 3f 38
       0.00012480251 -0.00015835493 0.0001282451 4.5728117e-05
000050 71 91 bf 39 00 00 00 00 e8 d2 0b b9 ec 0c 04 39
       0.0003653872 0.0 -0.00013334642 0.00012593315
000060 8d 85 aa b9 31 97 6e b7 00 00 00 00 8a 50 03 39
       -0.0003252443 -1.4221107e-05 0.0 0.00012523137
000070 00 00 00 00 00 00 00 00 00 00 00 00 6c ee 0c b9
       0.0 0.0 0.0 -0.0001344026
000080 00 00 00 00 92 9d 25 38 66 6b fe 38 54 5d 11 b9
       0.0 3.9485814e-05 0.00012131668 -0.00013863045
000090 5d 3e 03 39 33 50 5e ba 61 d9 00 ba c5 5c 05 39
       0.00012516366 -0.00084805785 -0.00049152045 0.00012718428
0000a0 00 00 00 00 f3 b8 f0 b9 d9 8e 79 ba f8 8b e9 38
       0.0 -0.00045914165 -0.0009519882 0.00011136377
0000b0 91 04 81 ba 3b 3c 93 b9 ac c0 0d b9 00 00 00 00
       -0.000984328 -0.000280829 -0.00013518584 0.0
0000c0 60 d1 7b ba 39 85 5b b9 7c f3 df ba bf 6d b6 b9
       -0.00096060894 -0.00020935097 -0.0017086114 -0.00034795512
0000d0 9c 1b 07 39 00 00 00 00 00 00 00 00 ce 57 7b b9
       0.00012884889 0.0 0.0 -0.00023969935
0000e0 00 00 00 00 00 00 00 00 9e 15 de 38 23 0c 0e b9
       0.0 0.0 0.000105898114 -0.00013546697
0000f0 6a 49 2e b9 26 d7 3f b9 92 ef 02 39 00 00 00 00
       -0.00016621282 -0.00018295328 0.00012487013 0.0
000100 cb af 08 b9 ce 59 04 39 99 25 c9 b3 26 50 da 38
       -0.00013035459 0.00012621956 -9.366631e-08 0.00010409979
000110 08 6a 0f b9 00 00 00 00 b5 0e 84 ba 00 00 00 00
       -0.00013677042 0.0 -0.0010075184 0.0
000120 25 8b b5 b9 66 40 04 39 98 e3 06 39 1a 95 94 38
       -0.0003462668 0.00012612491 0.00012864021 7.084962e-05
000130 1a f2 63 ba 00 00 00 00 17 55 40 b8 00 00 00 00
       -0.0008695439 0.0 -4.5855613e-05 0.0
000140 75 cd f1 38 52 08 1c b9 00 00 00 00 05 8b 01 39
       0.00011530045 -0.00014880419 0.0 0.00012354187
000150 7f a2 bf b8 82 77 a7 b9 6d 73 a3 ba 00 00 00 00
       -9.137857e-05 -0.00031941762 -0.0012470313 0.0
000160 b8 ce 0d b9 00 00 00 00 8c 4e 0f b9 00 00 00 00
       -0.00013523817 0.0 -0.00013666804 0.0
000170 38 fc 36 b9 00 00 00 00 2a ee 7b b9 41 6a fc 38
       -0.00017450831 0.0 -0.00024025948 0.00012036088
000180 d1 86 46 38 99 a0 0c b9 78 c5 04 39 67 40 03 39
       4.7332436e-05 -0.00013411268 0.00012662064 0.00012517125
000190 0c f2 e4 38 77 99 03 39 5e 0c 11 b9 5c ff 05 39
       0.00010916972 0.00012550304 -0.00013832885 0.00012778997
0001a0 4c f5 13 b9 00 00 00 00 41 e7 2a b9 ae f9 1e b9
       -0.00014110393 0.0 -0.00016298612 -0.00015161067
0001b0 76 b0 0d 39 34 2a d5 b8 00 00 00 00 a2 d8 c5 38
       0.00013512545 -0.000101644924 0.0 9.434043e-05
0001c0 47 cf 53 b9 05 68 de ba 26 79 0d b9 00 00 00 00
       -0.00020199745 -0.0016968256 -0.00013491939 0.0
0001d0 f3 0a 80 39 00 00 00 00 00 00 00 00 f4 1e 0d b9
       0.0002442222 0.0 0.0 -0.00013458339
0001e0 76 75 0c b9 a3 be 0f b9 1d 63 03 39 af 1b de 37
       -0.00013395198 -0.0001370856 0.00012530056 2.6477353e-05
0001f0 e0 2d 0e b9 c7 1d 05 bb 00 00 00 00 a2 ca 0d b9
       -0.00013559265 -0.0020311938 0.0 -0.00013522294

critic.3.weight f4 [1, 128]
000000 3b bf d9 3c 57 38 1e bd 1b 89 12 3e 96 7b 90 bd
       0.026580444 -0.03862795 0.14310114 -0.07054822
000010 90 3b 09 3d 23 8f 5a 3c 2c a2 16 be 67 20 83 bd
       0.03350407 0.0133397905 -0.14710301 -0.06402665
000020 e5 bf 39 bd 70 c4 ce 3d d1 5f 6c bc 7e 0d 5a 3d
       -0.04534902 0.10096061 -0.014427141 0.053235523
000030 0a fa c8 bc c8 73 45 3e 09 c7 36 3c f9 a6 52 bd
       -0.02453329 0.19282448 0.011155852 -0.05142877
000040 2f a5 6c 3d b4 81 76 bc 99 36 f9 3d fa d8 ab 3d
       0.05777472 -0.015045572 0.12168617 0.08390994
000050 fe 42 9d 3d 39 c9 07 3d 3e 1e 36 be 46 e2 94 3d
       0.07678793 0.033150885 -0.17784974 0.07269721
000060 a5 36 1f bc f1 1a 93 3d ce ed ea bc db ce af 3d
       -0.009717618 0.07182873 -0.028677847 0.085843764
000070 7a 1f 17 3e 0a a4 9e 3d 03 a6 b7 3d 1a 05 e9 bd
       0.14758101 0.07746132 0.08967211 -0.11377926
000080 33 2a b0 3b 83 db 67 bb 89 f3 1c 3d 9f 9e 1e bd
       0.0053761243 -0.0035378642 0.03831819 -0.03872549
000090 2d 34 7a 3d c0 bf dc bd 33 71 1c 3d 6d fb ba 3d
       0.061084915 -0.10778761 0.038193893 0.09129987
0000a0 8e 6b cf 3c 26 9e 0e bb 09 6b 06 3e 4a f2 21 3e
       0.02531984 -0.0021761744 0.13126768 0.15815082
0000b0 8b 1d 35 bd e6 f0 e3 3d a3 cc b8 bd 3b 7e 2b bd
       -0.044217627 0.11129932 -0.09023406 -0.04186843
0000c0 52 71 fe 3d 2f 7a 57 bd 88 7c a9 3b d3 4e af bd
       0.12423958 -0.052606758 0.005172316 -0.085599564
0000d0 72 5f 14 3e 40 13 f4 3a 42 8f 71 bc a1 7a a0 bd
       0.14489534 0.001862146 -0.014743628 -0.078358896
0000e0 05 c9 c5 3d 7a e5 b2 bd 58 03 76 3c 10 9e a8 bd
       0.09657482 -0.087351754 0.015015446 -0.08233273
0000f0 7d 79 58 bd 2f 58 08 bc ef 4b 76 3d a1 0c 98 3d
       -0.052850235 -0.008321806 0.06013101 0.07424284
000100 c8 60 ef bd 64 de 99 3d f3 35 0a bb 6b ff 8f 3d
       -0.116883814 0.07513121 -0.0021089285 0.07031139
000110 b4 e5 76 bd 8e f4 e0 3c 74 81 b0 3d 3d f6 29 be
       -0.060277656 0.027460363 0.08618441 -0.16597839
000120 43 68 a4 bd 8c 33 96 3d 21 49 0d 3e 05 29 c9 3b
       -0.08027699 0.073340505 0.13797428 0.006138923
000130 09 fc e0 3d 3b 6f 72 b9 af 17 f8 3a 5f d5 39 3e
       0.10985572 -0.00023120355 0.0018927957 0.18147801
000140 ae 16 bb 3c ea b2 85 bc 6b 52 80 3d c2 97 48 3d
       0.022837963 -0.016320664 0.0626572 0.048972853
000150 de a8 8e 3d b5 c2 a2 3d fa 54 3a 3e 20 80 4e 3d
       0.069658026 0.07947294 0.18196478 0.05041516
000160 ad 23 9c bd f0 6c 5e 3d d8 df 6c bd cb 85 85 bc
       -0.07623992 0.05430311 -0.05783066 -0.016299149
000170 84 0d c2 3d b5 fc b5 bc 68 bc 24 bd 90 ea 1f 3e
       0.09475234 -0.022215227 -0.04021874 0.15616822
000180 03 bc cc 3c 74 dd fb bd 40 43 aa 3d 59 8c 80 3d
       0.024991995 -0.12298098 0.08313608 0.06276769
000190 8d c6 74 3d 0e 8f 8d 3d e6 36 71 bd 6c 10 d5 3d
       0.059759665 0.06912051 -0.058890246 0.10403523
0001a0 83 67 09 bd 5f 7b 00 be 3f 44 d3 bc de 5b 7c bc
       -0.033545982 -0.12547062 -0.025789378 -0.015402762
0001b0 8b 70 25 3e e7 ee 99 bd e7 e1 fe bc 54 f4 26 3c
       0.16156213 -0.0751627 -0.031113578 0.010190088
0001c0 7f ba 80 be 38 1e 0f 3e 9d 91 b7 bd 7c 47 e0 3d
       -0.25142285 0.13976371 -0.089633204 0.109511346
0001d0 bd 22 14 3e 00 f4 30 3e 99 07 21 3c 27 55 f5 bd
       0.14466377 0.17280579 0.009828472 -0.11979132
0001e0 34 5e 03 be 7f 19 4b bd 0e fc 7e 3d 3a 37 8a bc
       -0.12828904 -0.04958486 0.062252097 -0.016872037
0001f0 fe 15 99 bd 39 24 03 3e 3a 38 a4 bd c2 f8 ad bd
       -0.07474898 0.12806787 -0.08018537 -0.084947124
